results_auto/01_domain_adaptation/maml_supervised/June/officehome_maml_order_2_seed_0_shots_1_ways_5_meta-lr_0.0001_dropout_0.2_RandAugment-prob_0.5_datetime_11_06_2021_09_41_05/final_model.pt (torch, 412181 bytes, 54 tensors)

conv1.weight f4 [32, 3, 3, 3]
0.009973649 0.10455718 -0.15990697 -0.15351875 -0.082395844 0.07263351 0.019295245 0.17895257
0.008902323 0.052781053 -0.07836337 -0.050449695 -0.22928596 -0.1732062 -0.08300999 0.007596197
0.100884125 0.13453244 -0.16523367 -0.11051596 0.07727742 0.14635602 -0.07004469 0.14596614
-0.012502274 0.04085845 0.20015076 -0.18914233 -0.10816764 -0.04667398 -0.048685294 0.22046489
-0.107110485 -0.044261206 -0.09210996 -0.17359811 -0.11887957 0.1810352 0.0822488 0.11084632
0.04681628 -0.096771635 0.07356061 -0.15107004 -0.15401557 -0.14326398 0.13928877 0.10249327
-0.082603395 0.026794676 0.11804807 0.23297505 0.11084261 0.0153396735 0.16454287 -0.11466739
0.022799157 -0.109832786 -0.12730284 -0.11207415 0.13543947 0.08765145 -0.108909436 0.08658481
0.08481986 -0.06078315 0.0330805 0.016869739 0.1021607 0.2013984 -0.16406634 -0.09801286
0.10189152 0.15614535 0.13294734 0.15783611 0.012232313 -0.19857661 0.0026426313 -0.20401962
-0.24545999 0.1811098 0.16830085 -0.11736279 0.035311468 -0.06250746 -0.0041966117 -0.08375012
0.05570235 -0.10507765 0.06361126 0.12978016 0.21276008 0.046136037 -0.22073963 -0.10751556
0.07503154 0.002826307 -0.14926171 -0.08736038 0.2469944 0.23327693 -0.09718003 -0.053553645
-0.106189094 -0.03435282 -0.15962712 -0.098444566 0.026832273 0.00582112 -0.07419827 0.16079785
-0.11617975 0.22255798 0.15787998 -0.21058951 -0.04765248 0.005652512 -0.006061777 0.051193703
0.10317571 -0.00771771 -0.03308145 0.091609396 -0.24271041 -0.11472032 -0.03534999 -0.11380646
-0.030164244 -0.07268491 0.012270675 0.1358216 -0.07200452 -0.038999837 0.17713532 -0.06679668
-0.022592654 -0.055805188 0.032879557 0.13698363 0.218204 0.122696035 0.20547588 -0.011777821
-0.19110124 -0.04905623 0.18178041 -0.010117339 -0.059585053 -0.1092002 -0.18878461 -0.16673712
-0.034564555 0.114240006 0.11799178 -0.18898833 0.135721 -0.14118734 -0.030223751 -0.044390094
-0.0038287528 -0.046850145 -0.1779051 -0.15161064 -0.003380087 0.02153486 -0.08777986 0.11898303
-0.18172173 0.0005707524 0.19452602 -0.09214104 0.16359101 0.09070921 -0.17338875 0.13669658
-0.002015131 -0.0967758 0.19484657 -0.16616829 -0.0019056419 -0.044180185 0.13615666 0.07346999
0.13001162 0.09193845 -0.049405176 -0.016326208 -0.17866018 0.1581211 0.20574978 0.16508877
-0.18872191 -0.019428307 -0.15486005 -0.08077413 -0.12110589 0.10013387 -0.113650225 0.0013073
0.03407822 0.071685635 -0.1633136 -0.13523276 -0.09812373 0.16275467 -0.04263985 0.18270525
0.062235154 0.05773062 -0.040559147 -0.07280016 0.017556576 -0.02813239 -0.0038895684 0.0124824
-0.16051923 -0.12581703 0.18756776 -0.1782045 0.012154018 0.23125823 0.05805887 0.034107342
-0.16329458 0.13105287 -0.17054793 -0.041156486 -0.07662693 -0.035396997 -0.029767456 0.14954342
0.048590288 0.13802478 0.120908014 -0.17652321 0.08777266 -0.16259158 -0.09910437 0.04589264
0.06758604 0.1410385 -0.051983587 0.039892223 0.092679255 -0.19167404 0.22110029 -0.1561065
0.030550571 0.008958615 -0.043598775 0.096422486 0.17068143 -0.08816454 -0.12959869 -0.041738022
00000000: 8468 233c 1322 d63d a7be 23be 0534 1dbe
00000010: 27bf a8bd e1c0 943d 1011 9e3c 583f 373e
00000020: 0ddb 113c f230 583d f97c a0bd 57a4 4ebd
00000030: f0c9 6abe f75c 31be 2401 aabd 85e9 f83b
00000040: 569c ce3d dfc2 093e 0433 29be 3156 e2bd
00000050: a043 9e3d 5ade 153e 9773 8fbd 2678 153e
00000060: 56d6 4cbc 315b 273d 52f4 4c3e 87ae 41be
00000070: ff86 ddbd 372d 3fbd 3b6a 47bd 8cc1 613e
00000080: be5c dbbd 3d4b 35bd 26a4 bcbd b4c3 31be
00000090: 2277 f3bd 4b61 393e 0f72 a83d 6503 e33d
000000a0: 6dc2 3f3d 3530 c6bd f2a6 963d 1bb2 1abe
000000b0: 42b6 1dbe cbb3 12be b7a1 0e3e fee7 d13d
000000c0: f82b a9bd 8280 db3c 30c3 f13d 0391 6e3e
000000d0: 7301 e33d 4153 7b3c ed7d 283e bdd6 eabd
000000e0: 4cc5 ba3c 03f0 e0bd ad5b 02be 2287 e5bd
000000f0: a5b0 0a3e 9a82 b33d e90b dfbd 6053 b13d
00000100: 09b6 ad3d c1f7 78bd 6b7f 073d 6832 8a3c
00000110: a139 d13d 623b 4e3e 0201 28be f7ba c8bd
00000120: 80ac d03d 91e4 1f3e 5923 083e ca9f 213e
00000130: 0a6a 483c ab57 4bbe ff2f 2d3b 85ea 50be
00000140: dd59 7bbe d974 393e 0f57 2c3e e75b f0bd
00000150: c2a2 103d e903 80bd bb83 89bb 2f85 abbd
00000160: 2628 643d f332 d7bd 9f46 823d 17e5 043e
00000170: c7dd 593e 24f9 3c3d 9209 62be 1e31 dcbd
00000180: 23aa 993d 9039 393b 10d8 18be 00ea b2bd
00000190: 1aec 7c3e 26e0 6e3e 5306 c7bd 115b 5bbd
000001a0: ab79 d9bd 8bb5 0cbd 4b75 23be 4e9d c9bd
000001b0: 5bcf db3c 18bf be3b 43f5 97bd 31a8 243e
000001c0: a6ef edbd 3de6 633e 4aab 213e c7a4 57be
000001d0: 3f2f 43bd b538 b93b dfa1 c6bb 7db0 513d
000001e0: c94d d33d d8e4 fcbb 6a80 07bd b59d bb3d
000001f0: 1489 78be 7df2 eabd 27cb 10bd 5c13 e9bd
00000200: 011b f7bc d3db 94bd f10a 493c d114 0b3e
00000210: 1b77 93bd 4bbe 1fbd f662 353e b3cc 88bd
00000220: 3b14 b9bc fb93 64bd b7ac 063d 7045 0c3e
00000230: df70 5f3e 0f48 fb3d 4568 523e c3f7 40bc
00000240: 0bb0 43be 2fef 48bd a524 3a3e 32c3 25bc
00000250: 750f 74bd 5ba4 dfbd c150 41be 23bd 2abe
00000260: 9093 0dbd aaf6 e93d ada5 f13d 2886 41be
00000270: 72fa 0a3e 6a93 10be cd97 f7bc 63d2 35bd
00000280: d0eb 7abb f0e5 3fbd c12c 36be d23f 1bbe
00000290: 7384 5dbb e069 b03c edc5 b3bd 60ad f33d
000002a0: 4315 3abe 8c9e 153a d431 473e 71b4 bcbd
000002b0: 6784 273e c0c5 b93d d28c 31be 30fa 0b3e
000002c0: 4a10 04bb 6432 c6bd dc85 473e 0528 2abe
000002d0: bbc6 f9ba 48f6 34bd a76c 0b3e 6f77 963d
000002e0: c421 053e 3a4a bc3d 155d 4abd 8abe 85bc
000002f0: b2f2 36be 7fea 213e 12b0 523e 080d 293e
00000300: 5140 41be 1d28 9fbc a293 1ebe e86c a5bd
00000310: 5d06 f8bd fd12 cd3d 73c1 e8bd b559 ab3a
00000320: 9b95 0b3d ebcf 923d ae3b 27be 757a 0abe
00000330: 18f5 c8bd 29a9 263e 20a7 2ebd 1617 3b3e
00000340: 4aea 7e3d f176 6c3d 5921 26bd 4018 95bd
00000350: cfd2 8f3c e675 e6bc 21e8 7ebb fb82 4c3c
00000360: 275f 24be 2ed6 00be c311 403e 3e7b 36be
00000370: a521 473c f5ce 6c3e 23cf 6d3d 24b4 0b3d
00000380: b236 27be b932 063e 1ea4 2ebe b493 28bd
00000390: 94ee 9cbd 71fc 10bd e1da f3bc e921 193e
000003a0: 9c06 473d 5e56 0d3e 9f9e f73d 80c2 34be
000003b0: 27c2 b33d 687e 26be 3bf7 cabd ecf9 3b3d
000003c0: 8d6a 8a3d 666c 103e beec 54bd 0766 233d
000003d0: 9fce bd3d 3346 44be 1d68 623e 62da 1fbe
000003e0: 3145 fa3c 28c7 123c a194 32bd 2779 c53d
000003f0: 1dc7 2e3e 9c8f b4bd 85b5 04be 7df5 2abd

conv1.bias f4 [32]
0.21659875 -0.05413644 -0.0065703075 -0.065759964 -0.07012871 0.03804677 0.025037281 -0.09310304
-0.16654687 0.031094946 -0.020527294 0.02231383 0.1660952 0.15967026 -0.0926844 -0.014827734
-0.046502545 -0.20790964 -0.15466654 0.14380182 0.11303962 0.14398547 0.13271095 -0.15669984
0.021515673 0.15388834 -0.11262228 0.18341024 0.054972205 0.15536846 -0.07734136 0.09186269
00000000: 10cc 5d3e 2cbe 5dbd bc4b d7bb 29ad 86bd
00000010: a49f 8fbd eed6 1b3d fc1a cd3c ceac bebd
00000020: 438b 2abe d4ba fe3c db28 a8bc 7ecb b63c
00000030: dc14 2a3e 9a80 233e 52d1 bdbd 06f0 72bc
00000040: 7479 3ebd 44e6 54be e860 1ebe c940 133e
00000050: 5181 e73d ed70 133e 61e5 073e ec75 20be
00000060: a341 b03c e894 1d3e 83a6 e6bd e5cf 3b3e
00000070: 892a 613d e918 1f3e 2665 9ebd 8222 bc3d

batch1.weight f4 [32]
1.1344432 0.95454115 1.0672908 1.049659 1.0268759 0.8920747 1.0833025 1.0952587
1.07163 1.0437003 0.98011833 0.95831126 0.8660256 0.9602487 0.8378544 0.9421944
0.98944485 0.927172 0.9390964 0.94269466 0.8641499 1.0424781 1.0398453 1.050833
1.0095378 1.0349538 1.0275068 1.1111747 1.0640873 0.97005767 0.96476716 0.9181335
00000000: 6f35 913f cf5c 743f fc9c 883f 3a5b 863f
00000010: ab70 833f 025f 643f a8a9 8a3f 7031 8c3f
00000020: 2c2b 893f f997 853f 09e9 7a3f e353 753f
00000030: dbb3 5d3f dcd2 753f a07d 563f a733 713f
00000040: 424c 7d3f 255b 6d3f 9f68 703f 7054 713f
00000050: ee38 5d3f ec6f 853f a719 853f b281 863f
00000060: 8938 813f 5e79 843f 5885 833f f93a 8e3f
00000070: 0334 883f b355 783f fbfa 763f cc0a 6b3f

batch1.bias f4 [32]
0.18240333 -0.02432448 0.18424226 -0.06853682 -0.08937404 -0.007792692 -0.10037544 0.07538067
0.0054322644 0.052884202 -0.11880546 0.25254416 -0.089523174 0.10688215 -0.018282324 -0.028531367
-0.028392604 -0.13196805 -0.15534781 -0.06732715 -0.16885597 0.097639024 0.061729863 0.3005378
-0.015575597 -0.08459545 -0.03459204 0.012092942 -0.024745028 0.19265512 -0.15603077 -0.17022088
00000000: f0c7 3a3e 2244 c7bc 01aa 3c3e 085d 8cbd
00000010: bd09 b7bd d759 ffbb a491 cdbd 2e61 9a3d
00000020: 2301 b23b 1b9d 583d 4750 f3bd 784d 813e
00000030: ed57 b7bd 07e5 da3d d0c4 95bc 9dba e9bc
00000040: 9b97 e8bc a222 07be 7f13 1fbe d1e2 89bd
00000050: 94e8 2cbe f8f6 c73d 74d8 7c3d 17e0 993e
00000060: ca30 7fbc 6140 adbd 62b0 0dbd 7a21 463c
00000070: 16b6 cabc 6247 453e 88c6 1fbe 624e 2ebe

conv2.weight f4 [32, 32, 3, 3]
-0.15516512 -0.0075503155 -0.01348583 0.08273076 0.036934447 0.040185034 0.03880126 0.050995685
0.028327588 -0.025039 -0.0225051 0.02240137 -0.04375957 -0.030412508 0.09635352 -0.044288147
-0.021300988 0.00561695 0.050611846 0.035915088 -0.06641502 -0.025765657 0.06601649 0.07099332
0.041891895 -0.05061159 -0.10816718 0.06270563 0.00972311 -0.111024745 -0.051861133 -0.030048005
-0.039243203 0.047077905 0.04499462 -0.16078909 -0.046206392 0.017627386 -0.013736666 0.014944158
0.0035474775 0.006804697 -0.026593193 -0.039778866 -0.035324175 -0.011880895 0.0128470855 0.011304153
-0.043576933 -0.02403261 -0.075647354 -0.04320636 0.026433283 0.018595323 -0.0763319 -0.06121334
-0.04415686 -0.11236243 0.04656019 0.10576647 0.06318788 -0.014769393 0.023023654 0.047614634
-0.12132414 0.032376636 -0.056561537 -0.0076200203 -0.102294184 0.040337406 0.033646703 -0.0027321794
-0.10763516 0.0011380068 0.004861817 -0.0039828443 0.10007719 0.023980383 -0.10568106 0.024431214
0.03745365 0.054817162 -0.037453413 0.054514684 -0.094106406 -0.04294995 0.036574963 -0.10064638
0.028863711 -0.04187509 -0.015222828 -0.024897179 -0.02476819 0.010700009 0.05786655 0.085740805
0.015407677 -0.007889935 0.04144795 -0.02041765 0.011037196 -0.037305806 0.0387945 0.010721943
0.0072398977 -0.055214815 0.053864684 -0.03132639 -0.0033224376 0.05059459 -0.048873365 -0.04578442
0.018106867 -0.0037903916 0.023466421 0.03994247 0.04052431 -0.031999867 -0.0023500607 0.043794725
0.074874334 -0.027270852 -0.030753316 -0.029169446 0.033604935 -0.027518442 -0.054988727 0.058936644
-0.00903905 -0.09630858 -0.08956068 -0.019083012 0.0006971323 0.045878448 0.04384252 0.0339564
0.0277951 0.007290271 -0.06436823 0.028077232 -0.015644323 -0.027961604 -0.038921986 0.06124578
-0.045895416 0.07792991 0.011969906 -0.05278149 -0.012642183 0.02609522 -0.0023939707 0.02799574
-0.104889706 0.04402363 -0.038472395 -0.10555686 0.011853353 0.08177412 -0.031850636 -0.01156841
-0.005484465 0.05891874 0.07035966 0.0065885144 0.008251667 0.048031252 0.012453441 0.020156246
-0.012429996 -0.0345725 -0.0096837 -0.020538583 0.047624394 0.0776266 0.012717776 -0.02736882
-0.0035627973 -0.08223567 0.04607413 -0.020701017 -0.02808538 -0.064168304 0.028649392 -0.04622036
0.06888528 -0.023405235 0.04551614 0.047780976 0.021391764 0.05532704 0.056411102 -0.03122004
-0.038735744 -0.08758856 -0.053598903 0.0567439 -0.015658552 0.069226846 0.004705593 -0.075641766
0.020176109 -0.053327665 0.03293241 0.018873814 -0.02061216 -0.0032486198 0.047558267 0.037475556
-0.024490865 0.040996622 -0.022697316 -0.03875663 0.06829503 -0.013822876 0.049891036 -0.09494616
0.0074154576 0.03743904 -0.02304363 -0.07335641 -0.0028722011 -0.059349578 -0.058635745 -0.055911377
0.07024444 -0.046501577 -0.057675395 0.0365021 -0.028949872 0.063230716 0.014102914 -0.030623302
0.06779874 -0.019608818 -0.011314909 -0.0406311 -0.015658833 0.06173568 -0.0303386 -0.0127863875
-0.027483078 -0.0019539066 0.038934164 -0.09405373 -0.01900566 0.08864822 -0.0058263517 0.0049581886
0.044387754 -0.039130908 0.03797065 -0.052743737 0.0014871006 0.0061356295 0.014707513 -0.11309092
00000000: 9be3 1ebe a368 f7bb acf3 5cbc bf6e a93d
00000010: 9348 173d 1099 243d 12ee 1e3d dae0 503d
00000020: 420f e83c 971e cdbc 9e5c b8bc 1483 b73c
00000030: 3c3d 33bd a723 f9bc ff54 c53d 7d67 35bd
00000040: 697f aebc 640e b83b 5e4e 4f3d b31b 133d
00000050: 9904 88bd 8012 d3bc a733 873d f264 913d
00000060: d696 2b3d 194e 4fbd c186 ddbd cf6b 803d
00000070: ae4d 1f3c f160 e3bd 576c 54bd 3c27 f6bc
00000080: 7bbd 20bd c3d4 403d 474c 383d e5a5 24be
00000090: ea42 3dbd 4f67 903c c10f 61bc 57d8 743c
000000a0: cc7c 683b f0f9 de3b f8d9 d9bc 2aef 22bd
000000b0: 15b0 10bd 16a8 42bc 957c 523c 0e35 393c
000000c0: ba7d 32bd 09e0 c4bc 00ed 9abd 27f9 30bd
000000d0: 9d8a d83c 3855 983c e653 9cbd d7ba 7abd
000000e0: d3dd 34bd 461e e6bd e6b5 3e3d 179c d83d
000000f0: a668 813d 53fb 71bc 1a9c bc3c 9007 433d
00000100: ca78 f8bd 5d9d 043d 12ad 67bd 5db1 f9bb
00000110: 9d7f d1bd d638 253d 20d1 093d 5d0e 33bb
00000120: d36f dcbd 2c29 953a e14f 9f3b 8582 82bb
00000130: 45f5 cc3d 8272 c43c 506f d8bd f823 c83c
00000140: 0069 193d f687 603d c068 19bd ca4a 5f3d
00000150: dcba c0bd 49ec 2fbd a1cf 153d b01f cebd
00000160: 9773 ec3c 3785 2bbd 2b69 79bc 2bf5 cbbc
00000170: a9e6 cabc 174f 2f3c 7a05 6d3d e098 af3d
00000180: 7b70 7c3c c944 01bc 53c5 293d ea42 a7bc
00000190: 5bd5 343c f9cd 18bd fbe6 1e3d 17ab 2f3c
000001a0: aa3c ed3b ee28 62bd 37a1 5c3d 1a50 00bd
000001b0: 41bd 59bb 463c 4f3d 702f 48bd 7288 3bbd
000001c0: da54 943c 3868 78bb a73c c03c b79a 233d
000001d0: d2fc 253d 4b12 03bd 7a03 1abb 1962 333d
000001e0: b757 993d 1f67 dfbc 61ee fbbc c3f4 eebc
000001f0: 54a5 093d 5b6e e1bc dc3b 61bd 8d67 713d
00000200: 8618 14bc 6f3d c5bd 976b b7bd fa53 9cbc
00000210: c2bf 363a 0aeb 3b3d 3794 333d de15 0b3d
00000220: 8db2 e33c 3ae3 ee3b 7ed3 83bd 3902 e63c
00000230: 8628 80bc bc0f e5bc a96c 1fbd dbdc 7a3d
00000240: d5fc 3bbd b799 9f3d 6d1d 443c 6731 58bd
00000250: 2921 4fbc a5c5 d53c 2ae4 1cbb 5257 e53c
00000260: 6ad0 d6bd 1f52 343d 3b95 1dbd 322e d8bd
00000270: 9134 423c 3179 a73d d075 02bd 6e89 3dbc
00000280: 07b7 b3bb c754 713d ba18 903d 77e4 d73b
00000290: 0032 073c 6bbc 443d 8409 4c3c b61e a53c
000002a0: 2fa7 4bbc e59b 0dbd 62a8 1ebc 8840 a8bc
000002b0: cc11 433d b2fa 9e3d 385e 503c 9334 e0bc
000002c0: d27d 69bb 2d6b a8bd 3ab8 3c3d 2e95 a9bc
000002d0: 5013 e6bc ac6a 83bd 21b2 ea3c 8f51 3dbd
000002e0: ba13 8d3d 56bc bfbc 226f 3a3d fcb5 433d
000002f0: c83d af3c 9b9e 623d 540f 673d 2bc1 ffbc
00000300: 5fa9 1ebd a261 b3bd 868a 5bbd 4b6c 683d
00000310: 5d46 80bc cec6 8d3d 6031 9a3b 12ea 9abd
00000320: 5e48 a53c 1c6e 5abd 22e4 063d 429d 9a3c
00000330: d5da a8bc cce6 54bb 75cc 423d f87f 193d
00000340: 11a1 c8bc 13ec 273d b9ef b9bc 46bf 1ebd
00000350: 44de 8b3d 5879 62bc 8b5a 4c3d 2273 c2bd
00000360: 5efd f23b ae59 193d ffc5 bcbc e33b 96bd
00000370: 8a3b 3cbb 8b18 73bd 092c 70bd 5403 65bd
00000380: 51dc 8f3d 7078 3ebd 093d 6cbd 3a83 153d
00000390: 4828 edbc 1b7f 813d e90f 673c b8dd fabc
000003a0: 11da 8a3d aca2 a0bc 2b62 39bc cc6c 26bd
000003b0: f446 80bc 8dde 7c3d a888 f8bc ff7d 51bc
000003c0: 3124 e1bc 1d0d 00bb 6e79 1f3d 3e9f c0bd
000003d0: c2b1 9bbc 338d b53d fbea bebb 4d78 a23b
000003e0: efcf 353d bb47 20bd 1d87 1b3d d109 58bd
000003f0: d1ea c23a 640d c93b c8f7 703c 369c e7bd

conv2.bias f4 [32]
-0.00091520965 0.052910615 0.012385068 -0.029366966 -0.005556151 -0.04599497 -0.050783623 -0.040106002
0.0697816 -0.054528963 0.04837378 -0.048262674 -0.010218542 0.058511294 -0.011254619 -0.026340257
-0.03484495 -0.051932007 0.03461337 -0.039666433 -0.03877036 0.06328641 0.05428899 -0.019151833
-0.0034090227 -0.00899669 0.044490475 -0.059974927 -0.058886893 0.03045822 0.029978808 -0.01160519
00000000: aeea 6fba cdb8 583d beea 4a3c fe92 f0bc
00000010: 5f10 b6bb 3965 3cbd 7d02 50bd 3146 24bd
00000020: a8e9 8e3d c359 5fbd 9623 463d 15af 45bd
00000030: ac6b 27bc 8aa9 6f3d 4b65 38bc 86c7 d7bc
00000040: 94b9 0ebd a8b6 54bd c0c6 0d3d 4579 22bd
00000050: abcd 1ebd 4e9c 813d 225e 5e3d 4ee4 9cbc
00000060: e969 5fbb da66 13bc a53b 363d 45a8 75bd
00000070: 6233 71bd 8483 f93c 1e96 f53c b223 3ebc

batch2.weight f4 [32]
1.1290172 0.821028 1.0344841 0.8948924 0.93870413 0.9795369 1.0612898 0.9723052
1.0565832 1.1401385 1.0684426 1.0814822 0.9183325 1.0649316 0.9216624 1.0152391
0.9982813 0.95074034 1.0358633 0.96668637 1.0520885 1.0758872 1.00548 0.8688606
1.0378753 1.0748363 0.9114897 1.0538564 1.166527 1.0872177 0.9258101 1.0894504
00000000: a383 903f e42e 523f fa69 843f ab17 653f
00000010: ea4e 703f eec2 7a3f 58d8 873f fee8 783f
00000020: 1e3e 873f 0ff0 913f bac2 883f 026e 8a3f
00000030: d717 6b3f ae4f 883f 11f2 6b3f 5bf3 813f
00000040: 5d8f 7f3f b863 733f 2b97 843f c278 773f
00000050: d6aa 863f acb6 893f 92b3 803f a66d 5e3f
00000060: 19d9 843f 3c94 893f 6457 693f c4e4 863f
00000070: c250 953f f329 8b3f e401 6d3f 1c73 8b3f

batch2.bias f4 [32]
-0.05307245 -0.1266915 0.15794654 -0.12654418 -0.16175893 -0.0975443 -0.06358431 -0.11554088
-0.054871634 0.072515056 0.08215411 -0.04146546 0.00919793 -0.009383983 -0.05553327 0.031082058
0.0006305456 -0.17483917 -0.13833643 -0.14007366 0.10547601 0.008703178 0.035656873 -0.16178368
0.26208925 0.08113487 -0.07912291 -0.10647875 -0.0015488396 0.08374648 -0.25480536 -0.19856015
00000000: 7f62 59bd 6bbb 01be bdbc 213e cc94 01be
00000010: 22a4 25be 4ec5 c7bd 7e38 82bd b2a0 ecbd
00000020: 14c1 60bd c682 943d 6a40 a83d b0d7 29bd
00000030: eab2 163c 47bf 19bc db76 63bd cd9f fe3c
00000040: 334b 253a 0a09 33be 11a8 0dbe 786f 0fbe
00000050: ce03 d83d c697 0e3c f10c 123d 9faa 25be
00000060: 9030 863e 0a2a a63d 310b a2bd 8811 dabd
00000070: 6f02 cbba 4683 ab3d d975 82be 5a53 4bbe

conv3.weight f4 [32, 32, 3, 3]
0.053902663 0.064150594 -0.10610712 0.0076713506 0.012011929 -0.07264092 -0.107157014 0.021156052
0.08559139 -0.004057317 -0.100708425 0.0016823554 -0.035835855 -0.0659809 0.013736116 -0.010860765
0.03751617 0.022228513 0.06845433 0.0073963595 0.042591907 0.037944216 0.009198073 0.046320014
-0.09198778 0.038113013 -0.024605623 0.018907493 0.0969244 -0.046258856 -0.015801566 0.08560169
0.012052225 -0.082931824 -0.0897101 -0.084385484 -0.03777689 0.022242475 -0.0136775905 0.00077487464
0.039320286 0.023995303 0.035403375 -0.0051297243 0.041128494 0.023855096 0.05584474 -0.042033605
-0.034284767 0.057487164 0.036907036 0.016199812 -0.058526024 -0.0051214956 -0.0032413532 -0.042310137
-0.051453065 0.031714726 -0.024512632 0.06824759 0.030235117 -0.027057288 0.05769426 0.018541114
-0.004898646 -0.031449847 -0.035154406 0.010897947 0.020581402 -0.13047345 -0.09856471 0.0066698836
0.009264933 -0.044326983 -0.03730568 -0.080200545 -0.039990664 0.08358791 -0.019126417 0.117947035
-0.029656036 0.055003997 -0.09924044 0.109746344 -0.061933503 -0.08510825 0.008683137 -0.009237495
0.016105881 0.04896878 0.08266112 0.015053893 -0.04732368 0.018622538 -0.019092904 0.04288002
0.04563285 -0.07197181 -0.05464247 -0.021197978 0.07181634 -0.10355208 -0.010358918 -0.03073161
0.0062230914 0.04386921 -0.022841789 -0.0017450748 0.047144223 -0.011109956 -0.010723755 -0.03167482
-0.027515743 -0.011864141 0.094651625 -0.034013852 -0.025564041 0.018618247 -0.030298335 -0.05934596
0.062254168 -0.047986638 -0.047540102 -0.056256477 0.031946436 0.007896856 -0.055069417 -0.045072947
-0.06065895 0.023783159 -0.03373097 -0.066094816 0.04386001 -0.008974208 0.04092369 -0.05563508
-0.03143334 -0.04065114 0.04184896 -0.02156413 0.079395466 0.06400913 -0.017000383 -0.07054556
-0.035747018 0.059336755 -0.0020429308 -0.0073278295 0.008441544 0.026396563 0.02982395 -0.046896417
0.05845546 0.0067855874 -0.0046482794 -0.042531148 0.05562012 0.008003663 -0.09976084 0.02041527
-0.024172662 0.13907547 0.021307385 -0.012979613 0.03105503 0.039422173 0.0053206612 0.089738004
0.1023368 -0.04742284 0.000120940014 0.018365517 -0.05589738 -0.0050173644 -0.011555137 -0.036052812
-0.01589833 0.0035721776 -0.016318994 -0.07020915 -0.078624934 0.045231707 0.011726439 0.02868903
-0.019138128 -0.10949214 -0.023463681 -0.09593638 0.08837014 0.03781777 0.01914805 0.028067948
-0.048904657 -0.024014033 0.08321872 0.04407936 0.053845916 -0.07584469 -0.036483634 0.03963244
0.022291383 -0.07321264 0.0796108 -0.05118709 0.024879334 -0.06018813 -0.0127505455 -0.037623994
-0.0255776 -0.00909113 -0.01659487 0.01045535 -0.028339455 -0.057032317 -0.04634784 -0.08906919
-0.015132619 0.03970979 -0.014602422 0.026862057 0.001284907 0.039443776 -0.037086997 -0.058164492
0.052669123 -0.00028642855 0.04561069 0.04619799 -0.060951017 0.014375777 0.016424702 -0.031230396
-0.05652074 0.0045216028 0.025068007 0.057988316 -0.062898174 -0.011239191 -0.025529843 0.028421286
-0.034209583 -0.017414989 -0.0462824 0.019506162 -0.11338367 -0.0062544546 -0.027787952 -0.005533768
0.06020729 -0.09594262 0.06345375 0.0719535 0.02359363 -0.044247776 -0.021869898 0.030962268
00000000: 0ac9 5c3d 6361 833d b14e d9bd f45f fb3b
00000010: afcd 443c c3c4 94bd 2375 dbbd 754f ad3c
00000020: 8a4a af3d 3ef3 84bb 3840 cebd 7b82 dc3a
00000030: 9ec8 12bd fe20 87bd 720d 613c 5af1 31bc
00000040: 8eaa 193d 9218 b63c c931 8c3d 295d f23b
00000050: da74 2e3d 656b 1b3d 84b3 163c 0eba 3d3d
00000060: 1764 bcbd 641c 1c3d bb91 c9bc e3e3 9a3c
00000070: 4d80 c63d ed79 3dbd 4972 81bc f04f af3d
00000080: b276 453c 29d8 a9bd eeb9 b7bd 4cd2 acbd
00000090: f1bb 1abd da35 b63c f917 60bc f520 4b3a
000000a0: 4f0e 213d cc91 c43c 2103 113d 3f17 a8bb
000000b0: 5a76 283d c36b c33c 74bd 643d 6e2b 2cbd
000000c0: 2f6e 0cbd a977 6b3d d52b 173d 78b5 843c
000000d0: fcb8 6fbd 38d2 a7bb e26c 54bb 654d 2dbd
000000e0: 73c0 52bd 4de7 013d b7ce c8bc 64c5 8b3d
000000f0: a3af f73c 3fa7 ddbc d150 6c3d 89e3 973c
00000100: d284 a0bb 8ed1 00bd 11fe 0fbd 4d8d 323c
00000110: 549a a83c d59a 05be 4bdc c9bd 0a8f da3b
00000120: f2cb 173c 3690 35bd d7cd 18bd 2f40 a4bd
00000130: 40cd 23bd 2330 ab3d 01af 9cbc 378e f13d
00000140: 37f1 f2bc df4b 613d 923e cbbd b1c2 e03d
00000150: fcad 7dbd 3c4d aebd b743 0e3c dd58 17bc
00000160: 7bf0 833c 7d93 483d 3c4a a93d 9ba4 763c
00000170: 7ad6 41bd 4b8e 983c b968 9cbc f6a2 2f3d
00000180: 83e9 3a3d f565 93bd c8d0 5fbd 62a7 adbc
00000190: 7214 933d 1d13 d4bd 74b8 29bc dbc0 fbbc
000001a0: 13eb cb3b 33b0 333d b41e bbbc feba e4ba
000001b0: 4d1a 413d 8806 36bc b0b2 2fbc 75bd 01bd
000001c0: b268 e1bc d061 42bc b6d8 c13d 1c52 0bbd
000001d0: ae6b d1bc 4b85 983c 3734 f8bc c014 73bd
000001e0: 3afe 7e3d a38d 44bd 69b9 42bd 316d 66bd
000001f0: 44da 023d d161 013c 7890 61bd 699e 38bd
00000200: 8575 78bd e6d4 c23c 7c29 0abd b85c 87bd
00000210: 8ea6 333d 8e08 13bc 999f 273d 9ce1 63bd
00000220: 3fc0 00bd cf81 26bd d169 2b3d 42a7 b0bc
00000230: 179a a23d 3817 833d 6344 8bbc 317a 90bd
00000240: 776b 12bd 190b 733d b1e2 05bb 4a1e f0bb
00000250: 674e 0a3c 9b3d d83c 5b51 f43c 7516 40bd
00000260: fe6e 6f3d a259 de3b 9850 98bb 2435 2ebd
00000270: ecd1 633d cc21 033c 694f ccbd ed3d a73c
00000280: bf05 c6bc cd69 0e3e d38c ae3c 71a8 54bc
00000290: 1e67 fe3c 2579 213d f158 ae3b 8fc8 b73d
000002a0: f595 d13d 743e 42bd 2da1 fd38 4873 963c
000002b0: a7f4 64bd b468 a4bb c251 3dbc 1dac 13bd
000002c0: 373d 82bc 321b 6a3b 69af 85bc d1c9 8fbd
000002d0: 1c06 a1bd e244 393d 4020 403c 4205 eb3c
000002e0: 90c7 9cbc 6a3d e0bd e836 c0bc 4b7a c4bd
000002f0: 67fb b43d cee6 1a3d 5fdc 9c3c c1ee e53c
00000300: 4050 48bd 14b9 c4bc 946e aa3d 8f8c 343d
00000310: 898d 5c3d 7654 9bbd dd6f 15bd a055 223d
00000320: 6b9c b63c 82f0 95bd fd0a a33d 8ea9 51bd
00000330: bfcf cb3c d487 76bd aae7 50bc 9e1b 1abd
00000340: 1d88 d1bc f7f2 14bc f7f1 87bc eb4c 2b3c
00000350: 2528 e8bc b89a 69bd 3cd7 3dbd e869 b6bd
00000360: ceee 77bc bca6 223d ff3e 6fbc d10d dc3c
00000370: 536a a83a cc8f 213d 89e8 17bd e43d 6ebd
00000380: 94bb 573d ca2b 96b9 46d2 3a3d 1b3a 3d3d
00000390: c6a7 79bd 6188 6b3c 198d 863c e3d6 ffbc
000003a0: 4b82 67bd f429 943b 6c5b cd3c 2885 6d3d
000003b0: c2d0 80bd 9524 38bc f623 d1bc c2d3 e83c
000003c0: 591f 0cbd e1a9 8ebc 9d92 3dbd 63cb 9f3c
000003d0: b335 e8bd 2bf2 ccbb 8fa3 e3bc 9c54 b5bb
000003e0: eb9b 763d 907d c4bd 0af4 813d 5b5c 933d
000003f0: 6e47 c13c 283d 35bd 8028 b3bc 95a4 fd3c

conv3.bias f4 [32]
0.040337764 0.009988794 -0.0029266963 -0.031514887 -0.042819034 0.005192324 -0.0479189 0.031898506
-0.023501758 -0.04988291 0.06260138 -0.038977742 0.016306378 0.04111586 -0.0006408411 0.061298702
-0.020612407 -0.055653207 -0.043005798 -0.00047131826 -0.030654376 -0.018909013 0.023775982 0.049400143
0.026007766 0.027158983 -0.05251492 -0.010666364 0.038158797 0.06558809 -0.010368744 0.021371137
00000000: 3639 253d 0aa8 233c d1cd 3fbb c115 01bd
00000010: 0363 2fbd 5f24 aa3b 9c46 44bd 02a8 023d
00000020: c286 c0bc 0652 4cbd 2735 803d 20a7 1fbd
00000030: f494 853c 1b69 283d 1efe 27ba 5914 7b3d
00000040: 5adb a8bc 9ef4 63bd d926 30bd 441b f7b9
00000050: e31e fbbc 13e7 9abc d9c5 c23c ce57 4a3d
00000060: 3d0e d53c 847c de3c e219 57bd f9c1 2ebc
00000070: 664c 1c3d 0c53 863d aae1 29bc 8612 af3c

batch3.weight f4 [32]
0.9790233 0.97440165 1.0182475 0.94567037 0.9920984 1.0216523 0.9923114 1.0105662
1.0027257 0.9985444 0.9723559 1.01805 0.98359275 1.0332425 0.928161 1.0113223
0.9869927 1.011293 1.0429286 0.96535 1.0046988 1.0182415 0.94834346 1.0192205
1.0603352 1.0026112 0.95010334 0.9875154 1.0120718 0.9849509 1.0557606 0.9791135
00000000: 45a1 7a3f 6372 793f ef55 823f 7417 723f
00000010: 29fa 7d3f 81c5 823f 1f08 7e3f 3c5a 813f
00000020: 5159 803f 9ba0 7f3f 51ec 783f 764f 823f
00000030: bccc 7b3f 4a41 843f f69b 6d3f 0273 813f
00000040: 8eab 7c3f 0d72 813f af7e 853f 2d21 773f
00000050: f899 803f bd55 823f a3c6 723f d175 823f
00000060: 10b9 873f 9055 803f f939 733f cfcd 7c3f
00000070: 928b 813f be25 7c3f 2a23 873f 2fa7 7a3f

batch3.bias f4 [32]
-0.09687988 -0.041875545 -0.10139544 -0.14152639 -0.050307114 0.048847113 -0.10771573 0.03342367
-0.097774886 -0.06524341 -0.10849282 -0.02759232 -0.13994545 -0.11284586 -0.08667549 -0.13432649
-0.15685649 -0.03553803 -0.1274121 -0.16830789 -0.11417716 -0.059538376 0.03278822 -0.073296115
-0.07635542 -0.1385378 -0.2081794 -0.06609138 -0.033795945 -0.039222103 0.0305503 -0.03608626
00000000: f568 c6bd b185 2bbd 6aa8 cfbd 4bec 10be
00000010: d50e 4ebd e913 483d 119a dcbd 42e7 083d
00000020: 333e c8bd 569e 85bd 7c31 debd 4a09 e2bc
00000030: dc4d 0fbe bb1b e7bd eb82 b1bd e28c 09be
00000040: fd9e 20be 5390 11bd 5178 02be e758 2cbe
00000050: b7d5 e9bd 83de 73bd f14c 063d 461c 96bd
00000060: 3b60 9cbd dadc 0dbe fb2c 55be eb5a 87bd
00000070: 9e6d 0abd 5ba7 20bd 9f44 fa3c 30cf 13bd

conv4.weight f4 [32, 32, 3, 3]
-0.043632448 -0.052323196 -0.049078587 -0.021408286 -0.026994906 -0.05369453 -0.02070392 -0.027378818
-0.036487516 -0.04033609 -0.033306666 -0.012144083 -0.0111735 -0.042626105 -0.03158941 -0.015417821
-0.0016640718 0.004749154 0.020791816 -0.00020854587 0.021910187 0.03452111 0.011480728 0.068298824
0.032185234 0.0010357174 -0.009919253 0.06778266 0.040388245 0.0564648 0.04269039 0.047555108
0.07682715 0.046107747 0.043416813 0.020824244 0.004615157 0.008205364 -0.028193304 -0.017715275
0.015137396 -0.026760597 -0.0028519938 0.00819612 -0.015252991 -0.05767746 -0.04816867 -0.06884414
-0.058523405 -0.02574239 -0.0881055 -0.06887324 -0.06182043 -0.069569044 -0.049281616 -0.049631692
-0.04286893 -0.04907711 -0.041148227 -0.036336266 -0.027383912 -0.035458777 -0.06229585 -0.05958481
-0.046179045 -0.052785806 -0.048801724 -0.022887656 -0.035091545 -0.048594113 -0.005260484 -0.045988187
0.0817947 0.06658676 0.087361015 0.102754906 0.055964492 0.08125501 0.07759986 0.042709056
0.09902165 0.027939346 0.03194526 0.044536598 -0.0031730146 0.022344444 0.014251762 0.025711803
0.016016046 0.051666453 0.08476695 0.023892289 0.071006045 0.05199786 0.004318692 0.047094267
0.06669191 0.029805938 0.06559967 0.019328203 -0.012238028 -0.0276238 0.0010692214 -0.0059469854
-0.02718239 0.016030747 -0.0004584496 -0.0091179805 -0.0055634356 -0.02081858 -0.008362551 -0.017782379
0.014463737 -0.0056311134 0.011938392 -0.009255427 0.027098741 0.01794494 0.01145558 0.009314135
0.0121488 -0.01391434 0.013158829 0.02322768 0.0028248327 0.00090910477 0.053004242 0.034415968
0.03636761 0.027682573 0.008119167 0.0059266924 0.021888755 -0.011229044 0.023641199 -0.054371666
-0.033478532 -0.018701006 -0.024394674 -0.034757853 -0.0059433416 -0.029911531 -0.01994388 -0.049153283
-0.06685948 -0.05309779 -0.028388133 -0.04164547 -0.012040069 -0.04054714 -0.04876156 -0.03194924
-0.026108578 -0.10255259 -0.062987626 -0.06636645 -0.07442146 -0.056184884 -0.07719947 -0.09413103
-0.06730084 -0.07343228 0.006794714 0.0033306761 -0.014618165 -0.0039999634 -0.014478924 -0.02017386
-0.008357966 0.013955169 0.00719276 -0.060936626 -0.030770792 -0.053073928 -0.037248563 -0.017368603
-0.038046718 -0.031706363 -0.014894069 -0.05391812 0.08338021 0.02796872 0.057447672 0.080368645
0.031672243 0.053062245 0.073903225 0.050153155 0.05749303 -0.027778398 -0.0035069506 -0.00095239136
0.019369654 -0.0057362057 0.01740469 0.01708078 0.0013745936 0.009078214 -0.02610501 -0.04723738
-0.016980376 -0.041055854 -0.024567844 -0.046987034 -0.057259303 -0.02663778 -0.046012644 -0.04719071
-0.028106457 -0.025802456 -0.042358417 -0.03304795 -0.032552987 -0.04136388 -0.024710579 -0.029771788
0.00031809963 0.02256441 0.015327925 -0.011752684 -0.04561097 0.014453926 0.0012542274 -0.030353192
0.032308828 -0.079077885 -0.020550607 -0.009113194 -0.02526574 -0.010755589 -0.008083005 -0.028568914
-0.00794164 -0.008984984 0.038180232 0.029799696 0.03211364 0.05816707 0.032496765 0.031337064
0.04744121 0.04605287 0.02588468 0.03268098 0.043697532 0.04565302 0.010199562 0.050053746
0.019028172 0.029799834 0.030987138 0.040117912 -0.05837967 -0.046359085 -0.029226327 -0.06725207
00000000: f0b7 32bd d950 56bd a106 49bd 6e60 afbc
00000010: 6c24 ddbc ccee 5bbd 449b a9bc 8b49 e0bc
00000020: ef73 15bd 7537 25bd 926c 08bd faf7 46bc
00000030: 0e11 37bc b698 2ebd e663 01bd 079b 7cbc
00000040: fc1c daba cb9e 9b3b 9953 aa3c 1bad 5ab9
00000050: fe7c b33c 0266 0d3d aa19 3c3c 41e0 8b3d
00000060: aad4 033d e9c0 873a 5d84 22bc a3d1 8a3d
00000070: 256e 253d a247 673d 1edc 2e3d 25c9 423d
00000080: 8e57 9d3d 7adb 3c3d d4d5 313d 9b97 aa3c
00000090: be3a 973b cb6f 063c a5f5 e6bc a01f 91bc
000000a0: d702 783c 0a39 dbbc 84e8 3abb 0549 063c
000000b0: aee7 79bc 333f 6cbd 834c 45bd 28fe 8cbd
000000c0: 3db6 6fbd b4e1 d2bc a870 b4bd 6a0d 8dbd
000000d0: 6b37 7dbd 377a 8ebd 85db 49bd 9a4a 4bbd
000000e0: 5597 2fbd 1405 49bd 0b8b 28bd 56d5 14bd
000000f0: 3a54 e0bc 393d 11bd ef29 7fbd 340f 74bd
00000100: 3d26 3dbd ee35 58bd 51e4 47bd e57e bbbc
00000110: 27bc 0fbd 9f0a 47bd 2360 acbb 1c5e 3cbd
00000120: fb83 a73d a45e 883d 55ea b23d 2a71 d23d
00000130: 063b 653d 0769 a63d adec 9e3d b1ef 2e3d
00000140: ddcb ca3d 0ee1 e43c 08d9 023d 026c 363d
00000150: 5af2 4fbb b20b b73c 3980 693c 8fa1 d23c
00000160: 1534 833c 34a0 533d 4b9a ad3d c3b9 c33c
00000170: 9e6b 913d b5fb 543d d083 8d3b ebe5 403d
00000180: c595 883d 952b f43c 1f59 863d 2e56 9e3c
00000190: 0382 48bc 4f4b e2bc 1e25 8c3a eede c2bb
000001a0: 9bad debc ea52 833c 105c f0b9 9563 15bc
000001b0: 7b4d b6bb ba8b aabc 1503 09bc 5aac 91bc
000001c0: 4ff9 6c3c 3485 b8bb 3f99 433c 13a4 17bc
000001d0: 2efe dd3c 4401 933c 2fb0 3b3c 509a 183c
000001e0: c30b 473c f9f8 63bc 2198 573c fa47 be3c
000001f0: d420 393b fd50 6e3a fa1a 593d c2f7 0c3d
00000200: 34f6 143d 90c6 e23c 4106 053c b334 c23b
00000210: 0c50 b33c 06fa 37bc 30ab c13c d3b4 5ebd
00000220: c920 09bd da32 99bc 57d7 c7bc 405e 0ebd
00000230: 5dc0 c2bb 0709 f5bc 5961 a3bc f454 49bd
00000240: a0ed 88bd 117d 59bd 3b8e e8bc 7194 2abd
00000250: b643 45bc c214 26bd 34ba 47bd 35dd 02bd
00000260: a8e1 d5bc 1807 d2bd a8ff 80bd 22eb 87bd
00000270: 476a 98bd 1f22 66bd c11a 9ebd c5c7 c0bd
00000280: 06d5 89bd aa63 96bd 31a6 de3b 7947 5a3b
00000290: 0781 6fbc 2012 83bb 0239 6dbc a743 a5bc
000002a0: daef 08bc 39a4 643c 3eb1 eb3b af98 79bd
000002b0: 0713 fcbc 0c64 59bd f391 18bd 9a48 8ebc
000002c0: e0d6 1bbd 88de 01bd 4106 74bc 3fd9 5cbd
000002d0: 3ec3 aa3d a81e e53c 404e 6b3d 5198 a43d
000002e0: c1ba 013d cc57 593d 935a 973d 656d 4d3d
000002f0: d07d 6b3d 868f e3bc ded4 65bb e7a9 79ba
00000300: 1cad 9e3c c8f6 bbbb 4894 8e3c feec 8b3c
00000310: b52b b43a cabc 143c 2dda d5bc fc7b 41bd
00000320: 6e1a 8bbc 2f2a 28bd 8142 c9bc 7a75 40bd
00000330: bb88 6abd 7937 dabc c177 3cbd 0c4b 41bd
00000340: 833f e6bc ac5f d3bc 0580 2dbd 4a5d 07bd
00000350: 4856 05bd 2c6d 29bd d76d cabc f7e3 f3bc
00000360: 9cc6 a639 ffd8 b83c fa21 7b3c 548e 40bc
00000370: 92d2 3abd 29d0 6c3c e364 a43a 42a7 f8bc
00000380: 4356 043d 96f3 a1bd bf59 a8bc 824f 15bc
00000390: 19fa cebc 3638 30bc 956e 04bc 5b09 eabc
000003a0: a71d 02bc c135 13bc e062 1c3d 7e1e f43c
000003b0: 9889 033d 9840 6e3d 541b 053d 4b5b 003d
000003c0: b751 423d efa1 3c3d 1c0c d43c 7edc 053d
000003d0: 2ffc 323d a9fe 3a3d 101c 273c 2805 4d3d
000003e0: f8e0 9b3c c81e f43c bdd8 fd3c ae52 243d
000003f0: 851f 6fbd 06e3 3dbd 0d6c efbc 74bb 89bd

conv4.bias f4 [32]
-0.0844163 -0.0422776 -0.013475621 -0.015592967 0.06398277 -0.026036123 0.05123195 -0.049375497
0.01970342 0.04277807 0.049095023 0.019612907 0.024412591 -0.008529882 -0.03476072 -0.07225496
-0.041674875 -0.0041329144 0.0057245656 -0.0072075827 -0.048632976 0.022722121 -0.024634877 -0.03880655
-0.024686044 -0.09565082 -0.069889516 0.0040590437 0.058191605 -0.012822486 -0.021562563 0.025263444
00000000: 74e2 acbd 472b 2dbd dac8 5cbc a579 7fbc
00000010: 6609 833d b549 d5bc 98d8 513d f63d 4abd
00000020: 1169 a13c 0f38 2f3d dd17 493d 3fab a03c
00000030: eafc c73c ebc0 0bbc 4261 0ebd 69fa 93bd
00000040: 46b3 2abd 666d 87bb 2395 bb3b 962d ecbb
00000050: 5f33 47bd be23 ba3c 15cf c9bc 9ef3 1ebd
00000060: 633a cabc 94e4 c3bd 3c22 8fbd ba01 853b
00000070: 525a 6e3d 6815 52bc f9a3 b0bc 48f5 ce3c

batch4.weight f4 [32]
2.074903 1.3062365 2.1277068 0.8183533 2.075668 1.6384888 1.3940134 1.5231156
2.125698 2.1222463 0.49643016 1.488912 1.6715279 0.8094042 0.59546345 1.5257282
1.4625853 2.020086 1.887 2.0287416 1.0616022 1.8518097 1.9202232 0.48228154
2.193526 2.090148 1.8077674 2.2268782 1.9560347 1.9312099 2.0243378 1.9893979
00000000: 36cb 0440 c232 a73f 592c 0840 9a7f 513f
00000010: bfd7 0440 00ba d13f 086f b23f 74f5 c23f
00000020: 700b 0840 e2d2 0740 182c fe3e ab94 be3f
00000030: a0f4 d53f 1d35 4f3f 4b70 183f 104b c33f
00000040: ff35 bb3f 1749 0140 3789 f13f e7d6 0140
00000050: 95e2 873f 1a08 ed3f e0c9 f53f 9bed f63e
00000060: bb62 0c40 fcc4 0540 ec64 e73f 2c85 0e40
00000070: 585f fa3f e331 f73f c08e 0140 97a4 fe3f

batch4.bias f4 [32]
-0.013715343 -0.10100023 -0.15032865 -0.2870851 -0.09314112 -0.1150601 -0.18645951 -0.17983621
-0.12361302 -0.19092652 -0.5015914 -0.29115802 -0.09520372 -0.30917174 -0.45447016 -0.073293224
-0.16172972 -0.15522227 -0.17143224 -0.017025739 -0.21855308 -0.17498302 -0.25262192 -0.47864696
-0.0030218512 0.010088973 -0.11055328 -0.10515404 -0.1744458 -0.09684979 -0.071012765 -0.15121727
00000000: 51b6 60bc 35d9 cebd c1ef 19be d1fc 92be
00000010: c6c0 bebd a1a4 ebbd 3eef 3ebe fc26 38be
00000020: d328 fdbd 3e82 43be 4b68 00bf aa12 95be
00000030: 2bfa c2bd c24b 9ebe 50b0 e8be c21a 96bd
00000040: 7a9c 25be 96f2 1ebe ef8b 2fbe 9079 8bbc
00000050: 61cc 5fbe c02e 33be a957 81be 3711 f5be
00000060: 400a 46bb 384c 253c c269 e2bd 005b d7bd
00000070: eba1 32be 2f59 c6bd 246f 91bd b3d8 1abe

lin1.weight f4 [5, 800]
0.00071131723 -0.0019436476 -0.0054455283 0.0024215702 -0.007866187 -0.008927776 -0.01533321 -0.007074638
0.0089223785 -0.010870044 -0.009736288 -0.009585225 0.006983709 -0.0027498982 -0.0060861413 -0.006259147
0.008954593 -0.004564641 -0.013602055 0.0024625137 0.0003425827 0.0006282931 0.0011871634 0.0050807754
0.00052901387 -0.0020039256 -0.015046658 -0.0007932438 -0.0034938047 0.021156495 -0.003940066 -0.00022689239
0.0047960063 -0.0013802274 0.013833448 0.009430997 0.0062146415 -0.0083641345 0.017851928 0.0058962507
-0.020936115 -0.004274986 -0.0026716737 -0.01068533 -0.009379157 -0.0035045694 0.009436199 0.0014109727
-0.0025168464 -0.0055919494 -0.018542591 -0.020809887 0.00041402856 0.0072268937 0.0022869324 -0.002907209
-0.014662999 0.00713501 -0.013369726 -0.0043095606 0.01755522 0.013488415 0.0015473696 -0.006320775
-0.010293935 0.01011197 0.008096021 -0.0014081995 -0.010026189 -0.0038913095 0.0009885185 -0.014241734
-0.0030954557 0.008682764 -0.004303685 0.00035869883 0.005253207 -0.01630485 0.0007247422 0.0150773935
0.005174187 -0.016576352 -0.00141892 -0.0019776633 0.0058622663 0.007874816 -0.00013390095 -0.0049125114
-0.0011802102 -0.009529539 -0.007925493 0.007874577 0.008293037 0.013813532 -1.7254904e-05 -0.007513802
-0.0040295664 0.01517604 -0.013273037 0.022664126 0.0018429197 -0.011683042 0.00096463505 -0.012457737
0.0006542516 -0.0024166668 0.008939028 -0.015000901 -0.003569766 -0.018779144 0.022707196 0.0016688752
-0.009466433 -0.0061386363 -0.0013385118 0.005403005 -0.010349921 0.00465404 0.010649276 -0.008419777
-0.0043946737 -0.0025167016 0.0016847252 -0.0060665333 -0.0130037395 0.0044777305 0.005948109 -0.012159905
-0.0038776402 0.0003145069 0.01558512 -0.0076324255 -0.0130139245 0.019658115 -0.0015299822 -0.0028532664
0.0045688264 -0.008186293 0.0002355585 -0.0077423262 0.001171718 9.450116e-05 -0.01322797 0.0036058396
-0.0014008067 0.011013082 -0.014054128 0.017396994 0.0005160572 0.0015154897 0.0099188 -0.008453279
0.0036721677 -0.0032515633 0.0044329087 0.011171735 5.881919e-05 0.0059845173 0.01198625 0.00015227564
0.0047905087 0.00053685094 0.00079023297 -0.0010506889 -0.009058667 -1.9856829e-05 -0.0029916666 0.011394717
-0.004929116 0.0077639623 0.024473427 -0.011265326 0.015990164 -0.0080044195 0.0032038025 -0.0075536747
-0.019894825 -0.00055477617 0.0038854775 -0.004256767 -0.010456786 -0.009828256 -0.0012761927 0.0012965272
-0.0019676322 -0.016867528 0.011712053 -0.009468105 0.00022098859 0.015233119 -0.00430765 0.0065610814
0.007647056 -0.010159231 -0.007987886 -0.0024121178 0.000376151 0.0062755495 -0.00012323026 0.0067885034
-0.002465578 -0.008150419 -0.006831598 -0.00013215096 -0.005977906 0.0050369333 -0.009178853 -0.007748813
-0.0099649085 -0.016230037 0.02511797 -0.0018496859 -0.0013429609 0.0011636112 0.022307247 -0.003666427
0.013134415 -0.016281383 -0.004425487 0.024188418 -0.011856685 -0.004624618 -0.007781151 -0.011442075
0.001733296 0.01210486 0.006834668 0.0124976775 -0.0015909049 0.004715886 -0.0035503234 -0.008461307
0.0009510725 0.0066672256 0.010824158 -0.008716368 -0.011995674 -0.003942618 -0.010239027 -0.021787725
-0.009185358 0.0113748 0.009449421 0.00040391122 -0.006133037 -0.006672008 -0.0012397426 0.006674667
0.007859531 0.006411135 -0.02113029 0.007424327 -0.023486223 -0.01688979 -0.008844123 -0.0028417413
00000000: b177 3a3a fec1 feba 6770 b2bb 35b3 1e3b
00000010: 2ee1 00bc ce45 12bc 2538 7bbc 5dd2 e7bb
00000020: 2b2f 123c 4518 32bc f484 1fbc 590b 1dbc
00000030: 99d7 e43b a337 34bb 416e c7bb 8819 cdbb
00000040: 49b6 123c fc92 95bb 27db 5ebc 2062 213b
00000050: ac9c b339 09b4 243a 989a 9b3a a27c a63b
00000060: 85ad 0a3a 4b54 03bb 4286 76bc b1f1 4fba
00000070: 51f8 64bb 6350 ad3c ab1b 81bb f6e9 6db9
00000080: d127 9d3b bfe8 b4ba b0a5 623c 7884 1a3c
00000090: 31a4 cb3b b909 09bc 353e 923c 5635 c13b
000000a0: 3782 abbc 2f15 8cbb 3f17 2fbb 8611 2fbc
000000b0: 09ab 19bc ebac 65bb 4a9a 1a3c 63f0 b83a
000000c0: adf1 24bb ac3c b7bb a2e6 97bc 7f79 aabc
000000d0: f911 d939 94cf ec3b 5ce0 153b e086 3ebb
000000e0: 133d 70bc cdcc e93b b20c 5bbc 3737 8dbb
000000f0: f7cf 8f3c 83fe 5c3c 1cd1 ca3a 811e cfbb
00000100: e5a7 28bc adac 253c 2ca5 043c 5693 b8ba
00000110: e244 24bc 5705 7fbb 2d91 813a 2956 69bc
00000120: 21dd 4abb 2742 0e3c ed05 8dbb be0f bc39
00000130: 1823 ac3b c091 85bc a0fc 3d3a 2c07 773c
00000140: 3a8c a93b 21cb 87bc 0efb b9ba af9b 01bb
00000150: 4118 c03b 5f05 013c c367 0cb9 22f9 a0bb
00000160: 48b1 9aba c921 1cbc edd9 01bc 5f04 013c
00000170: 85df 073c 2752 623c a0be 90b7 5736 f6bb
00000180: 740a 84bb eda4 783c 2777 59bc 1eaa b93c
00000190: 208e f13a 3b6a 3fbc 90df 7c3a 891b 4cbc
000001a0: 1582 2b3a f160 1ebb 0075 123c 57c6 75bc
000001b0: bcf2 69bb b8d6 99bc 7104 ba3c 29be da3a
000001c0: 1919 1bbc 9d26 c9bb 0171 afba b10b b13b
000001d0: b792 29bc eb80 983b 4d7a 2e3c 1bf3 09bc
000001e0: 3201 90bb 3fef 24bb ffd1 dc3a c5c9 c6bb
000001f0: a30d 55bc edb9 923b 5be8 c23b 573a 47bc
00000200: 0220 7ebb 67e4 a439 bb58 7f3c 6d19 fabb
00000210: 5b38 55bc 0e0a a13c af89 c8ba defd 3abb
00000220: 18b6 953b cd1f 06bc 4100 7739 57b3 fdbb
00000230: 5594 993a ed2e c638 21ba 58bc f34f 6c3b
00000240: 469b b7ba 3770 343c 4943 66bc 2484 8e3c
00000250: 0348 073a 65a3 c63a 7682 223c 9f7f 0abc
00000260: c0a8 703b 2e18 55bb ef41 913b a709 373c
00000270: a0b4 7638 c519 c43b fa61 443c 2eac 1f39
00000280: b3f9 9c3b 75bb 0c3a a327 4f3a 45b7 89ba
00000290: ce6a 14bc 3792 a6b7 d60f 44bb e8b0 3a3c
000002a0: 6c84 a1bb d668 fe3b 7f7c c83c 3492 38bc
000002b0: cefd 823c f824 03bc e3f6 513b d184 f7bb
000002c0: 79fa a2bc 666e 11ba 7fa3 7e3b 5a7c 8bbb
000002d0: f052 2bbc b206 21bc ec45 a7ba 3cf0 a93a
000002e0: 64f3 00bb c52d 8abc e9e3 3f3c 1c20 1bbc
000002f0: 2cb9 6739 5594 793c 3027 8dbb 57fe d63b
00000300: 2894 fa3b e772 26bc 9fdf 02bc 9f14 1ebb
00000310: 2236 c539 20a3 cd3b 5f37 01b9 1872 de3b
00000320: 8995 21bb 5689 05bc 99db dfbb 0192 0ab9
00000330: 4fe2 c3bb dc0c a53b e662 16bc c1e9 fdbb
00000340: db43 23bc dbf4 84bc 33c4 cd3c 2971 f2ba
00000350: 4a06 b0ba 5084 983a b0bd b63c 7048 70bb
00000360: bb31 573c 8960 85bc ad03 91bb ca26 c63c
00000370: 8b42 42bc 1c8a 97bb 07f9 febb 8a77 3bbc
00000380: c32f e33a 7653 463c 5af5 df3b 0fc3 4c3c
00000390: e985 d0ba b887 9a3b 8bac 68bb 4ba1 0abc
000003a0: 6551 793a be78 da3b cf57 313c 19cf 0ebc
000003b0: 8189 44bc 1431 81bb 98c1 27bc 2c7c b2bc
000003c0: 2f7e 16bc 5e5d 3a3c bfd1 1a3c 0cc4 d339
000003d0: a5f7 c8bb dca0 dabb dc7e a2ba 2ab7 da3b
000003e0: 43c5 003c 8014 d23b 6e19 adbc c547 f33b
000003f0: 2e66 c0bc 755c 8abc f1e6 10bc 823c 3abb

lin1.bias f4 [5]
-0.020944271 -0.011522872 -0.008905911 -0.01131887 -0.009394103
00000000: 5293 abbc 6eca 3cbc 19ea 11bc c872 39bc
00000010: b9e9 19bc

exp_avg f4 [32, 3, 3, 3]
-0.03843269 -0.02672471 -0.020696297 -0.0413434 -0.037332177 -0.033708885 -0.02912489 -0.034413334
-0.03612648 -0.033969108 -0.02200818 -0.01832054 -0.032349855 -0.03667257 -0.03824089 -0.028839402
-0.035640206 -0.037635773 -0.025999134 -0.013723145 -0.012399987 -0.033443894 -0.038776994 -0.033919144
-0.028326293 -0.034762412 -0.03303592 -0.011384718 -0.010791867 0.00993789 -0.019422691 -0.016380712
-0.0042856187 -0.023615938 -0.016196825 0.003931616 -0.010668957 -0.009283884 0.009903541 -0.017036939
-0.011651375 0.0027379731 -0.012085227 -0.0030374534 0.01201941 -0.0019419867 -0.0031863383 0.012777897
-0.0059570423 -0.0064671813 0.0033895308 -0.0043031573 0.0034493303 0.016180642 0.005660779 0.0055237217
0.01607758 0.0021950412 0.0005562807 0.010041501 -0.00032812374 -0.00050750514 0.00761424 0.014868191
0.02104139 0.027009597 0.008932908 0.0077949255 0.012692229 0.0029982692 0.0044998624 0.008357901
0.025139304 0.030583415 0.037117127 0.015422676 0.01894141 0.02531912 0.008449801 0.023925785
0.027911607 0.019643804 0.02563955 0.023751562 0.007715078 0.026149359 0.016109299 0.0053243763
0.024036257 0.021923618 0.024952527 0.030703716 0.026299331 0.014599692 0.027961552 0.017830629
0.00925923 0.027040834 0.020568663 0.03230145 0.0383269 0.0428688 0.031053608 0.040800977
0.03684366 0.027357662 0.042026594 0.037680503 0.016405905 0.015157194 0.019643122 0.02666741
0.023777561 0.02733648 0.016718334 0.027932342 0.039761964 0.013291053 0.011950963 0.023220483
0.03425122 0.025105072 0.037582718 0.025894698 0.027095476 0.041255664 0.0035279589 0.0011220044
0.003814529 0.022632327 0.0175686 0.019663729 0.013822545 0.013743892 0.020174533 -0.003622127
-0.0020352828 0.009907421 0.017595092 0.0041300263 0.009498356 0.012919664 -0.0091878595 -0.008946399
-0.003481694 -0.0050537135 0.0070659514 0.010131024 0.0036322714 0.015673965 0.0115713375 0.00023871956
0.004833708 -0.010534379 -0.0168395 -0.012176949 0.0011710686 0.0028165563 0.0043873712 0.0023550766
-0.011536356 -0.0032537947 -0.015777461 -0.027263341 -0.03284613 -0.021223923 -0.017887495 -0.028239088
-0.01407868 -0.014107724 -0.025209457 -0.01773573 -0.020602692 -0.02044135 -0.014749623 -0.012755712
-0.00823417 -0.01203285 -0.006304747 -0.0038791315 -0.0063320557 -0.011340835 -0.006727533 -0.0014219922
-0.0117251845 -0.00582554 -0.0008932619 -0.0052959854 -0.0050630146 -0.0019514784 0.010111816 -0.0018988944
-0.0059138676 0.008148766 0.0046634926 0.0026973647 -0.0046757506 -0.012503149 0.012477466 0.02499473
0.011278056 0.001821652 0.008774304 0.0082929125 0.008285464 -0.0038313826 -0.0032326027 0.006414861
0.02195654 0.011348823 0.0022737202 0.004212867 0.00965033 0.0035938958 -0.009503493 -0.00081487594
-0.002547326 -0.0055332594 -0.00669259 -0.012389659 -0.014808198 -0.025626408 -0.019415123 -0.0055830223
-0.010814392 -0.0009276825 -0.004689083 -0.004149333 -0.019651124 -0.012598824 -0.016672352 -0.020594276
-0.0064545656 -0.01007342 0.004601876 -0.008313685 -0.009321279 -0.025617301 -0.033192817 -0.03185461
-0.022980088 -0.01991091 -0.02105593 -0.025298318 -0.018172823 -0.012939177 0.0056640883 0.00019997435
-0.0074043106 -0.009449097 -0.02026295 -0.033816177 -0.014335308 -0.0055915364 -0.0069426657 0.017117616
00000000: 996b 1dbd c7ed dabc 488b a9bc b257 29bd
00000010: a0e9 18bd 5412 0abd 5297 eebc fff4 0cbd
00000020: 5cf9 13bd 3123 0bbd 804a b4bc f514 96bc
00000030: 4881 04bd fa35 16bd 7ba2 1cbd 9c40 ecbc
00000040: 77fb 11bd f827 1abd 23fc d4bc 0bd7 60bc
00000050: 5129 4bbc 77fc 08bd a0d4 1ebd cdee 0abd
00000060: 8b0c e8bc 0863 0ebd ac50 07bd f886 3abc
00000070: 5fd0 30bc 88d2 223c 561c 9fbc d830 86bc
00000080: 606e 8cbb 3676 c1bc 34af 84bc c9d4 803b
00000090: d9cc 2ebc 6f1b 18bc 7642 223c 0d91 8bbc
000000a0: 69e5 3ebc 916f 333b 1e01 46bc 0310 47bb
000000b0: 0fed 443c 438a feba e3d1 50bb 625a 513c
000000c0: 4b33 c3bb a6ea d3bb e422 5e3b 8001 8dbb
000000d0: 290e 623b 448d 843c 0e7e b93b 5600 b53b
000000e0: 21b5 833c aeda 0f3b 5ed3 113a 1c85 243c
000000f0: 0608 acb9 180a 05ba e080 f93b b799 733c
00000100: fe5e ac3c 3b43 dd3c 555b 123c 936c ff3b
00000110: 11f3 4f3c 9c7e 443b 9573 933b 94ef 083c
00000120: f1f0 cd3c 128a fa3c 2108 183d 64af 7c3c
00000130: 042b 9b3c 0b6a cf3c 0971 0a3c 0200 c43c
00000140: e2a6 e43c 0bec a03c 090a d23c a392 c23c
00000150: c4ce fc3b 2e37 d63c a6f7 833c 1b78 ae3b
00000160: afe7 c43c 2999 b33c 3e69 cc3c 5c86 fb3c
00000170: b271 d73c 8c33 6f3c a00f e53c 8a11 923c
00000180: 07b4 173c bd84 dd3c 9d7f a83c 864e 043d
00000190: abfc 1c3d 3297 2f3d 2364 fe3c ed1e 273d
000001a0: 61e9 163d 2d1d e03c 1424 2c3d df56 1a3d
000001b0: ad65 863c e155 783c 9dea a03c 9d75 da3c
000001c0: 29c9 c23c c1f0 df3c e3f4 883c 5ed2 e43c
000001d0: 71dd 223d b7c2 593c f9cd 433c e238 be3c
000001e0: 024b 0c3d 27a9 cd3c 56f0 193d 1e21 d43c
000001f0: 55f7 dd3c b3fb 283d 5435 673b 3810 933a
00000200: 2dfd 793b 6e67 b93c 06ec 8f3c d415 a13c
00000210: f577 623c 102e 613c 1045 a53c 3561 6dbb
00000220: 6162 05bb bc52 223c 9523 903c 2c55 873b
00000230: fe9e 1b3c 00ad 533c ad88 16bc eb93 12bc
00000240: 222d 64bb 9f99 a5bb 7f89 e73b 98fc 253c
00000250: 670b 6e3b b066 803c b595 3d3c cb50 7a39
00000260: 1564 9e3b 6398 2cbc fef2 89bc d381 47bc
00000270: 8b7e 993a f995 383b f0c3 8f3b a157 1a3b
00000280: fc02 3dbc 9e3d 55bb bc3f 81bc 5f57 dfbc
00000290: aa89 06bd cbdd adbc cc88 92bc a955 e7bc
000002a0: 44aa 66bc 1524 67bc 1084 cebc 864a 91bc
000002b0: fac6 a8bc 9e74 a7bc 67a8 71bc 55fd 50bc
000002c0: 9de8 06bc 6e25 45bc 0d98 cebb 0739 7ebb
000002d0: 227d cfbb e9ce 39bc a372 dcbb 2462 baba
000002e0: fd1a 40bc 2ce4 bebb cb29 6aba f289 adbb
000002f0: a5e7 a5bb c0c8 ffba 08ac 253c 53e4 f8ba
00000300: 1ec9 c1bb 6782 053c 36d0 983b 45c6 303b
00000310: 0a37 99bb 02da 4cbc 496e 4c3c bfc1 cc3c
00000320: 98c7 383c 80c4 ee3a 19c2 0f3c ffde 073c
00000330: c1bf 073c ef17 7bbb 13da 53bb c133 d23b
00000340: 34de b33c 6af0 393c b202 153b 170c 8a3b
00000350: 6b1c 1e3c 9187 6b3b 8ab4 1bbc 669d 55ba
00000360: 0af1 26bb 5850 b5bb 844d dbbb fffd 4abc
00000370: 169e 72bc 79ee d1bc 770c 9fbc c9f1 b6bb
00000380: d92e 31bc b82f 73ba e1a6 99bb 21f7 87bb
00000390: 65fb a0bc 4c6b 4ebc 7594 88bc 54b5 a8bc
000003a0: d280 d3bb fc0a 25bc 55cb 963b 1f36 08bc
000003b0: 47b8 18bc 60db d1bc 31f5 07bd fb79 02bd
000003c0: bd40 bcbc 341c a3bc 7c7d acbc 6b3e cfbc
000003d0: 2cdf 94bc d8fe 53bc d199 b93b 35b0 5139
000003e0: dc9f f2bb 63d0 1abc 7cfe a5bc d582 0abd
000003f0: a4de 6abc 3539 b7bb 4d7f e3bb 3e3a 8c3c
