results_auto/01_domain_adaptation/maml_supervised/June/officehome_maml_order_2_seed_0_shots_1_ways_5_meta-lr_0.0001_dropout_0.2_RandAugment-prob_0.5_datetime_11_06_2021_09_41_05/intermediate_52000_model.pt (torch, 412181 bytes, 54 tensors)

conv1.weight f4 [32, 3, 3, 3]
0.010017484 0.10638768 -0.15698622 -0.14965011 -0.077397905 0.06939626 0.0164418 0.17703119
0.007480441 0.05092004 -0.075464256 -0.04830292 -0.22189999 -0.16538796 -0.08186607 0.008418186
0.09805742 0.13431613 -0.1643389 -0.1112336 0.072582275 0.14678113 -0.06831214 0.14062391
-0.011211442 0.03869713 0.19845365 -0.18605658 -0.10890344 -0.042243507 -0.048851274 0.21214573
-0.1090514 -0.047429007 -0.09454375 -0.16991208 -0.117675126 0.17832667 0.087024204 0.10990757
0.042992286 -0.09429908 0.071008556 -0.15328929 -0.15113987 -0.13698778 0.13619113 0.10734318
-0.08208111 0.024608029 0.12127407 0.23102571 0.11223975 0.018916413 0.16488649 -0.114351556
0.021024803 -0.11048815 -0.12259262 -0.10977743 0.12763995 0.0867897 -0.111894205 0.08329721
0.08430815 -0.060286023 0.030196002 0.018641708 0.0998645 0.19876818 -0.16151783 -0.096860014
0.09750451 0.15409432 0.13117962 0.15569519 0.011535319 -0.19891842 0.0020772542 -0.19493446
-0.24085353 0.17981766 0.16943082 -0.12249606 0.02979494 -0.057545118 -0.0052579874 -0.08684149
0.054649305 -0.10779525 0.06500191 0.12919019 0.21124499 0.045909878 -0.21484742 -0.10321971
0.07675387 0.0056755594 -0.14519718 -0.086814836 0.24251822 0.2315839 -0.09503042 -0.050478667
-0.10751711 -0.03115002 -0.15791383 -0.09571816 0.024421575 0.006602095 -0.073012464 0.15704322
-0.11457676 0.22110046 0.15715422 -0.20442787 -0.04290035 0.003636551 -0.0074197818 0.049266886
0.09964336 -0.008448262 -0.035104524 0.09106893 -0.23875467 -0.108484164 -0.031945217 -0.1078855
-0.029267773 -0.073848985 0.011133857 0.13006711 -0.07126841 -0.037391476 0.17248459 -0.060672615
-0.017113438 -0.049216136 0.033836916 0.13896503 0.21695548 0.12582828 0.20078632 -0.016859004
-0.18790434 -0.05365957 0.17742717 -0.01176624 -0.064280614 -0.11006762 -0.18359934 -0.16508394
-0.03771013 0.11502647 0.12192817 -0.1890893 0.13397339 -0.13726619 -0.026971668 -0.04679923
-0.0047288933 -0.04756065 -0.17624609 -0.15361871 -0.0026872382 0.016311234 -0.08785397 0.113207236
-0.1800105 0.00028249048 0.19045493 -0.08758413 0.16202717 0.08782985 -0.17099676 0.13742474
-0.0040453277 -0.092699945 0.18977211 -0.16292761 -0.0022682534 -0.044497527 0.14199947 0.06913926
0.12245363 0.088580996 -0.048693508 -0.021652747 -0.17839114 0.151724 0.20017457 0.16254823
-0.18619825 -0.01893781 -0.15022351 -0.081581645 -0.114677824 0.10017664 -0.110989995 0.0002757728
0.03004701 0.07554792 -0.16360436 -0.13430922 -0.09575749 0.15961 -0.042218123 0.18107143
0.06316046 0.05329837 -0.03471146 -0.072772436 0.014852194 -0.027856257 -0.0038831085 0.016541671
-0.16001338 -0.12095013 0.18366775 -0.17199379 0.0081971735 0.22348665 0.055672154 0.029208165
-0.16319385 0.12962314 -0.16767749 -0.043552123 -0.07199884 -0.034336537 -0.024864959 0.15041287
0.047771882 0.14362578 0.12193768 -0.1726297 0.08589511 -0.15648869 -0.099041134 0.043564007
0.06407145 0.14600495 -0.055772323 0.038547732 0.092665896 -0.18503809 0.2180057 -0.15097271
0.031790994 0.0063552097 -0.046065226 0.094810285 0.16924183 -0.08522749 -0.1276851 -0.041280203
00000000: 6020 243c c9e1 d93d ffc0 20be e13d 19be
00000010: cb82 9ebd a01f 8e3d f4b0 863c aa47 353e
00000020: 7d1e f53b 8891 503d 018d 9abd 48d9 45bd
00000030: c039 63be 765b 29be 66a9 a7bd 6eec 093c
00000040: 54d2 c83d 2b8a 093e 7548 28be 71ce e3bd
00000050: 04a6 943d cb4d 163e 3ce7 8bbd b7ff 0f3e
00000060: 32b0 37bc e280 1e3d 6f37 4b3e 9e85 3ebe
00000070: c408 dfbd 8707 2dbd 4618 48bd bb3c 593e
00000080: 5756 dfbd eb44 42bd 27a0 c1bd 6ffd 2dbe
00000090: a8ff f0bd 449b 363e bf39 b23d 3817 e13d
000000a0: ae18 303d e01f c1bd ef6c 913d def7 1cbe
000000b0: 69c4 1abe 8646 0cbe b075 0b3e bed6 db3d
000000c0: 241a a8bd c796 c93c 8a5e f83d 0192 6c3e
000000d0: f4dd e53d 98f6 9a3c 01d8 283e 2631 eabd
000000e0: 353c ac3c 9c47 e2bd d711 fbbd fdd2 e0bd
000000f0: 0cb4 023e ccbe b13d ca28 e5bd ba97 aa3d
00000100: c0a9 ac3d 7aee 76bd 9b5d f73c 7fb6 983c
00000110: c285 cc3d e389 4b3e ee64 25be 8b5e c6bd
00000120: 72b0 c73d e7ca 1d3e f353 063e 8f6e 1f3e
00000130: a2fe 3c3c 45b1 4bbe 8b22 083b e69c 47be
00000140: 4fa2 76be 1f22 383e 467f 2d3e 37df fabd
00000150: 8514 f43c 6eb4 6bbd 324b acbb f3d9 b1bd
00000160: f3d7 5f3d c2c3 dcbd b91f 853d 6f4a 043e
00000170: 9b50 583e ff0b 3c3d f600 5cbe db64 d3bd
00000180: 2231 9d3d 0bfa b93b 92ae 14be facb b1bd
00000190: b256 783e 5424 6d3e 4f9f c2bd b8c2 4ebd
000001a0: ee31 dcbd 542e ffbc 2ab4 21be e207 c4bd
000001b0: c10f c83c 6356 d83b 8f87 95bd f0cf 203e
000001c0: 38a7 eabd 2968 623e 09ed 203e 8a55 51be
000001d0: 47b8 2fbd 3453 6e3b a421 f3bb 13cc 493d
000001e0: d111 cc3d 946a 0abc c3c9 0fbd 5982 ba3d
000001f0: 1b7c 74be f22c debd fdd8 02bd 13f3 dcbd
00000200: f8c2 efbc 233e 97bd c86a 363c 5030 053e
00000210: 2cf5 91bd ce27 19bd cd9f 303e d983 78bd
00000220: 7b31 8cbc dc96 49bd 9498 0a3d d94c 0e3e
00000230: 9429 5e3e 21d9 003e ee9a 4d3e e51b 8abc
00000240: ff69 40be 23ca 5bbd 78af 353e 30c7 40bc
00000250: 8ea5 83bd 226b e1bd 7701 3cbe c40b 29be
00000260: f075 1abd ff92 eb3d 7ab5 f93d a0a0 41be
00000270: 5230 093e 828f 0cbe b0f3 dcbc 8db0 3fbd
00000280: d5f4 9abb f5ce 42bd db79 34be 394e 1dbe
00000290: 601c 30bb 239f 853c c8ec b3bd 32d9 e73d
000002a0: ac54 38be 3b1b 9439 9e06 433e 4f5f b3bd
000002b0: 73ea 253e 23e0 b33d c619 2fbe 12b9 0c3e
000002c0: ab8e 84bb 78d9 bdbd 9f53 423e 7fd6 26be
000002d0: faa6 14bb 0a43 36bd 4f68 113e e298 8d3d
000002e0: f8c8 fa3d f469 b53d d872 47bd 1a61 b1bc
000002f0: 2bac 36be 895d 1b3e 90fa 4c3e 0b73 263e
00000300: c1aa 3ebe 7723 9bbc 31d4 19be 4714 a7bd
00000310: 35dc eabd 6929 cd3d b94e e3bd 9995 9039
00000320: 2625 f63c deb8 9a3d e787 27be 5b88 09be
00000330: 811c c4bd ce70 233e e9ec 2cbd ca6a 393e
00000340: 455a 813d 644f 5a3d 9b2d 0ebd b709 95bd
00000350: 9e56 733c ce32 e4bc c07b 7ebb 6682 873c
00000360: 8cda 23be b4b4 f7bd 6613 3c3e 241f 30be
00000370: 704d 063c afd9 643e 7c08 643d f645 ef3c
00000380: 4a1c 27be eebb 043e a6b3 2bbe b663 32bd
00000390: 2174 93bd 78a4 0cbd 99b1 cbbc d505 1a3e
000003a0: 73ac 433d a312 133e 76ba f93d d7c5 30be
000003b0: c7e9 af3d 923e 20be 14d6 cabd 2c70 323d
000003c0: e437 833d 5282 153e 8571 64bd 3ae4 1d3d
000003d0: 9ec7 bd3d a07a 3dbe e33c 5f3e 9798 1abe
000003e0: 4637 023d 5d3f d03b e4ae 3cbd e52b c23d
000003f0: bb4d 2d3e c08b aebd e2bf 02be 6e15 29bd

conv1.bias f4 [32]
0.2081054 -0.04965386 -0.015656928 -0.06965072 -0.058277883 0.03993886 0.0178333 -0.079380155
-0.1724297 0.02313855 -0.012520548 0.020684598 0.16499607 0.16420233 -0.09928615 0.0074184313
-0.04804397 -0.20089014 -0.14746307 0.14548193 0.114753045 0.1304687 0.12771794 -0.15031005
0.02246618 0.16189814 -0.11339325 0.1734968 0.067548335 0.1741322 -0.07398188 0.08096779
00000000: 9519 553e d961 4bbd f542 80bc 09a5 8ebd
00000010: cab4 6ebd ee96 233d 2417 923c 1092 a2bd
00000020: 6991 30be 0e8d bd3c fc22 4dbc bf72 a93c
00000030: bbf4 283e a824 283e 8956 cbbd 5016 f33b
00000040: c1c9 44bd 25b6 4dbe 8f00 17be 37f9 143e
00000050: a503 eb3d 9699 053e 7ec8 023e e1ea 19be
00000060: ff0a b83c a0c8 253e b83a e8bd 25a9 313e
00000070: c856 8a3d b64f 323e d083 97bd 71d2 a53d

batch1.weight f4 [32]
1.1271622 0.9553009 1.0702266 1.045638 1.0125978 0.9113636 1.0754557 1.0912579
1.0768809 1.0459301 0.9772553 0.9680559 0.8782333 0.9668829 0.8522993 0.9468924
0.99123996 0.92521316 0.9308162 0.9472076 0.86481047 1.0424261 1.0384336 1.0545603
1.0129184 1.0299616 1.020375 1.1023035 1.0637498 0.9802006 0.9694564 0.92596185
00000000: da46 903f 9a8e 743f 2ffd 883f 77d7 853f
00000010: ce9c 813f 204f 693f 88a8 893f 57ae 8b3f
00000020: 3cd7 893f 0ae1 853f 672d 7a3f 83d2 773f
00000030: e6d3 603f a385 773f 4930 5a3f 8a67 723f
00000040: e7c1 7d3f c5da 6c3f f849 6e3f 337c 723f
00000050: 3864 5d3f 386e 853f 64eb 843f d5fb 863f
00000060: 4fa7 813f c8d5 833f a69b 823f 4818 8d3f
00000070: f428 883f 6dee 7a3f 4b2e 783f d60b 6d3f

batch1.bias f4 [32]
0.17248653 -0.04647696 0.17378834 -0.04397254 -0.07436869 -0.01096955 -0.088183954 0.07013637
0.009135596 0.04358704 -0.104110196 0.23146439 -0.08168685 0.09546759 -0.011356881 -0.01920826
-0.030142024 -0.13088974 -0.13891098 -0.05998132 -0.16640107 0.083968274 0.05385058 0.27874517
-0.0125616025 -0.081069745 -0.04231956 0.020535378 -0.028420048 0.17253149 -0.13039252 -0.15872812
00000000: 4fa0 303e a05e 3ebd 92f5 313e 8d1c 34bd
00000010: 9d4e 98bd a1b9 33bc ca99 b4bd a8a3 8f3d
00000020: 78ad 153c 5388 323d ba37 d5bd 0005 6d3e
00000030: 6f4b a7bd 8384 c33d 3612 3abc a45a 9dbc
00000040: 68ec f6bc f607 06be ae3e 0ebe f9ae 75bd
00000050: 0b65 2abe 8ff7 ab3d 6d92 5c3d b0b7 8e3e
00000060: 2ecf 4dbc e507 a6bd 4657 2dbd cf39 a83c
00000070: 29d1 e8bc 18ac 303e 9e85 05be a089 22be

conv2.weight f4 [32, 32, 3, 3]
-0.16213584 -0.003322876 -0.01153606 0.069208704 0.04281784 0.042291593 0.044774447 0.055887703
0.029655969 -0.02282646 -0.025603201 0.020742789 -0.041756384 -0.025896233 0.101651825 -0.037350986
-0.011387695 0.0051392075 0.046564415 0.038235147 -0.060147844 -0.029027572 0.065439224 0.06664224
0.037101913 -0.04996223 -0.10289407 0.064973004 0.008276604 -0.1044132 -0.049548727 -0.038470607
-0.031151876 0.049784902 0.042117164 -0.15269661 -0.054634966 0.018962264 -0.01264187 0.021632358
0.011268173 0.0025790362 -0.025003394 -0.031767312 -0.034791317 -0.010051064 0.012298312 0.0072091874
-0.04990074 -0.030151661 -0.070557244 -0.040404048 0.026619822 0.019354248 -0.07489656 -0.058704097
-0.035110023 -0.100574896 0.046132445 0.097334966 0.057639148 -0.00942249 0.024059903 0.041792445
-0.11683285 0.022064177 -0.047267642 -0.017216612 -0.10428702 0.03759819 0.036922015 -0.0010148248
-0.10836111 -0.0017238745 0.0021891394 -0.004464659 0.09568361 0.021275897 -0.10158106 0.016444938
0.03921773 0.055029593 -0.040087022 0.045229975 -0.0902936 -0.051324897 0.0257001 -0.095782526
0.029647922 -0.046726953 -0.018178124 -0.017258361 -0.023909137 0.013177622 0.054000687 0.07114832
0.0073676254 -0.004445489 0.036444753 -0.018858789 0.0068886997 -0.03015782 0.03539209 0.0104427
0.0058171228 -0.060193148 0.04577118 -0.032465994 -0.00071954157 0.054074697 -0.037441734 -0.04579335
0.017654298 -0.00053830084 0.019969188 0.040192183 0.046955302 -0.026970422 0.0007711801 0.040363498
0.0741003 -0.024789268 -0.036035296 -0.024715003 0.02877705 -0.023762243 -0.048533276 0.05153717
-0.0084665185 -0.09186453 -0.0821683 -0.010329612 -0.0053794 0.04931281 0.04877189 0.033987194
0.029928936 0.008812104 -0.05970677 0.025823267 -0.017034821 -0.02533211 -0.04162622 0.063790716
-0.04566181 0.08336281 0.020086592 -0.045704175 -0.0022892496 0.01915164 0.0019555334 0.029886534
-0.109416135 0.042154625 -0.035505243 -0.09421148 0.018977987 0.078903995 -0.028256396 -0.013050783
0.013907667 0.063264206 0.07670426 0.001066957 0.00350811 0.049599927 0.0114744725 0.022179501
-0.012600387 -0.037530538 -0.008822233 -0.024280801 0.044576854 0.07528678 0.011939411 -0.033638723
0.0022265546 -0.07866188 0.048456997 -0.02181583 -0.030237222 -0.049364246 0.029188238 -0.04219958
0.06776135 -0.023574783 0.031710967 0.045618754 0.021594327 0.04965134 0.05999275 -0.029751325
-0.03784608 -0.08531793 -0.052759886 0.05515275 -0.021886133 0.06585828 -0.00045632455 -0.06517607
0.015926296 -0.05405096 0.028686358 0.021899544 -0.015844865 -0.002279733 0.048658635 0.03689894
-0.025277449 0.03510046 -0.020960283 -0.03443245 0.06886142 -0.012240154 0.04822811 -0.0892065
0.0031017317 0.03886849 -0.023698686 -0.073415905 0.00037686477 -0.05937945 -0.06243159 -0.05757458
0.063931875 -0.044132255 -0.05406789 0.036880825 -0.034995355 0.05937239 0.01367614 -0.030306129
0.06348412 -0.017906444 -0.016849698 -0.037767842 -0.013483453 0.05977315 -0.024293711 -0.017311212
-0.017739004 -0.004324585 0.03803989 -0.08818873 -0.019178372 0.082154445 -0.010309647 0.0018732485
0.033489447 -0.04058503 0.03446318 -0.0525421 -0.002090528 0.0076769837 0.01612699 -0.10090413
00000000: f006 26be 9cc4 59bb be01 3dbc 4bbd 8d3d
00000010: c261 2f3d f339 2d3d 6965 373d 81ea 643d
00000020: 13f1 f23c 8efe babc cebd d1bc c8ec a93c
00000030: be08 2bbd 5624 d4bc d52e d03d 59fd 18bd
00000040: 7493 3abc cc66 a83b 54ba 3e3d 759c 1c3d
00000050: 965d 76bd 3bcb edbc 0005 863d ba7b 883d
00000060: 2df8 173d 32a5 4cbd 20ba d2bd 9110 853d
00000070: 989a 073c 96d6 d5bd 9bf3 4abd 5b93 1dbd
00000080: 3832 ffbc 41eb 4b3d 0c83 2c3d 805c 1cbe
00000090: eac8 5fbd c056 9b3c d91f 4fbc 5836 b13c
000000a0: 259e 383c 0c05 293b ebd3 ccbc 711e 02bd
000000b0: 5781 0ebd 38ad 24bc dc7e 493c 0c3b ec3b
000000c0: b864 4cbd 9e00 f7bc 5180 90bd b77e 25bd
000000d0: d011 da3c cd8c 9e3c 5e63 99bd b573 70bd
000000e0: 87cf 0fbd 36fa cdbd 60f5 3c3d 8e57 c73d
000000f0: 0717 6c3d ca60 1abc 4619 c53c 8e2e 2b3d
00000100: 1046 efbd efbf b43c b79b 41bd da09 8dbc
00000110: 6f94 d5bd 8f00 1a3d 8a3b 173d df03 85ba
00000120: 6eec ddbd a1f3 e1ba aa77 0f3b 464c 92bb
00000130: c5f5 c33d ca4a ae3c bb09 d0bd 89b7 863c
00000140: c5a2 203d b666 613d 4a32 24bd 1143 393d
00000150: daeb b8bd 0e3a 52bd 0489 d23c a129 c4bd
00000160: 33e0 f23c c364 3fbd 4aea 94bc 6861 8dbc
00000170: 18dd c3bc f4e6 573c d32f 5d3d 36b6 913d
00000180: 1f6c f13b 77ab 91bb 1847 153d bf7d 9abc
00000190: 9aba e13b 880d f7bc 4cf7 103d dc17 2b3c
000001a0: 909d be3b 178d 76bd 907a 3b3d 10fb 04bd
000001b0: 9e9f 3cba 6e7d 5d3d 815c 19bd cf91 3bbd
000001c0: bf9f 903c c21c 0dba 6c96 a33c 8fa0 243d
000001d0: 3454 403d 13f1 dcbc 0529 4a3a 3254 253d
000001e0: e6c1 973d dd12 cbbc bf99 13bd 1e77 cabc
000001f0: d9bd eb3c 09a9 c2bc d4ca 46bd a418 533d
00000200: 27b7 0abc 7923 bcbd db47 a8bd 883d 29bc
00000210: ae45 b0bb 3bfc 493d 09c5 473d 2836 0b3d
00000220: 872d f53c a560 103c 168f 74bd 518b d33c
00000230: 9c8c 8bbc 4985 cfbc 4180 2abd b5a4 823d
00000240: e107 3bbd 1fba aa3d a38c a43c 4d34 3bbd
00000250: 3c07 16bb e6e3 9c3c 6828 003b 9bd4 f43c
00000260: 9115 e0bd 54aa 2c3d f26d 11bd f3f1 c0bd
00000270: b977 9b3c 6b98 a13d f579 e7bc f4d2 55bc
00000280: fcdc 633c aa90 813d 2017 9d3d 23d9 8b3a
00000290: 52e8 653b 4b29 4b3d 6dff 3b3c c9b1 b53c
000002a0: db71 4ebc 9fb9 19bd 218b 10bc 88e8 c6bc
000002b0: 3896 363d f52f 9a3d 859d 433c c2c8 09bd
000002c0: 63eb 113b 7b19 a1bd d87a 463d 1db7 b2bc
000002d0: 0db4 f7bc 2a32 4abd 2c1c ef3c 78d9 2cbd
000002e0: 76c6 8a3d e71f c1bc 5ce3 013d bbda 3a3d
000002f0: 96e6 b03c 345f 4b3d f5ba 753d 0db9 f3bc
00000300: 7e04 1bbd 2bbb aebd c01a 58bd dae7 613d
00000310: 8c4a b3bc b5e0 863d d83e efb9 087b 85bd
00000320: dd77 823c 8a64 5dbd a7ff ea3c ac66 b33c
00000330: 17cd 81bc 9367 15bb 474e 473d 5823 173d
00000340: a712 cfbc 80c5 0f3d e6b4 abbc 0a09 0dbd
00000350: 3707 8d3d ed8a 48bc d78a 453d e6b1 b6bd
00000360: 6c46 4b3b 9134 1f3d bf23 c2bc 145b 96bd
00000370: ef95 c539 de37 73bd 44b8 7fbd 53d3 6bbd
00000380: b7ee 823d 06c4 34bd 4b76 5dbd 5910 173d
00000390: 4a57 0fbd 7730 733d e411 603c 8f44 f8bc
000003a0: f603 823d 89b0 92bc 6108 8abc 74b2 1abd
000003b0: b3e9 5cbc b1d4 743d 9b03 c7bc 3ed0 8dbc
000003c0: 6351 91bc 40b5 8dbb b7cf 1b3d 4b9c b4bd
000003d0: f61b 9dbc 9740 a83d cbe9 28bc ca87 f53a
000003e0: 3b2c 093d 7d3c 26bd 4329 0d3d 6336 57bd
000003f0: 3d01 09bb 358f fb3b c01c 843c d3a6 cebd

conv2.bias f4 [32]
-0.0062373597 0.056573227 0.018264448 -0.037776317 -0.009716891 -0.050189275 -0.045150284 -0.05283743
0.06789593 -0.04631282 0.045040805 -0.05165044 0.000109860746 0.05953287 -0.015727418 -0.013952356
-0.028663013 -0.03584475 0.027673457 -0.04346456 -0.039741784 0.05667126 0.06121055 -0.017566964
-0.00423402 -0.00029007273 0.048192713 -0.060408074 -0.049750153 0.03669705 0.018923523 -0.013496987
00000000: c462 ccbb 54b9 673d 539f 953c 57bb 1abd
00000010: 9833 1fbc 4593 4dbd 81ef 38bd 106c 58bd
00000020: 050d 8b3d 83b2 3dbd b57c 383d 698f 53bd
00000030: 0a65 e638 bdd8 733d c9d6 80bc 6c98 64bc
00000040: b2ce eabc f2d1 12bd 72b3 e23c e507 32bd
00000050: 48c8 22bd 2020 683d eab7 7a3d 98e8 8fbc
00000060: 89bd 8abb e714 98b9 b965 453d 756e 77bd
00000070: d1c6 4bbd a54f 163d 8105 9b3c 7722 5dbc

batch2.weight f4 [32]
1.1238475 0.84394336 1.0392021 0.90361464 0.9395373 0.97077507 1.0676019 0.9720421
1.0622313 1.1411923 1.0696299 1.0857766 0.9304258 1.0491626 0.9173856 1.013879
1.0087048 0.94364434 1.0301418 0.9642365 1.0433481 1.0688434 1.0111547 0.88228256
1.0351521 1.0720989 0.90129834 1.0483288 1.1556293 1.0882413 0.9355732 1.0769721
00000000: 3cda 8f3f ac0c 583f 9304 853f 4a53 673f
00000010: 8485 703f b784 783f 2ea7 883f c0d7 783f
00000020: 32f7 873f 9712 923f a2e9 883f bafa 8a3f
00000030: 6330 6e3f f64a 863f c8d9 6a3f c9c6 813f
00000040: 3d1d 813f ad92 713f b0db 833f 34d8 763f
00000050: 6e8c 853f dccf 883f 846d 813f 45dd 613f
00000060: dd7f 843f 893a 893f 7dbb 663f a32f 863f
00000070: a9eb 933f 7e4b 8b3f ba81 6f3f 39da 893f

batch2.bias f4 [32]
-0.045718666 -0.10316991 0.15744124 -0.12951271 -0.1642546 -0.09831094 -0.06114954 -0.118042305
-0.048772518 0.08068693 0.079698026 -0.03590496 -0.008718864 -0.012568684 -0.069155686 0.035716403
0.014247391 -0.18349276 -0.1274354 -0.13118093 0.10546057 0.009700241 0.040595572 -0.16040844
0.2509561 0.087509856 -0.11095377 -0.107217245 0.0008767078 0.09553661 -0.23169008 -0.17956898
00000000: 7f43 3bbd bf4a d3bd 4738 213e fb9e 04be
00000010: 5c32 28be 3f57 c9bd f177 7abd 2ac0 f1bd
00000020: b1c5 47bd 303f a53d b838 a33d 1411 13bd
00000030: 91d9 0ebc e2ec 4dbc 7fa1 8dbd 5d4b 123d
00000040: e46d 693c 87e5 3bbe 6d7e 02be 4b54 06be
00000050: b6fb d73d c2ed 1e3c 8b47 263d 1c42 24be
00000060: 517d 803e 5e38 b33d bb3b e3bd b794 dbbd
00000070: ddd2 653a b3a8 c33d 2a40 6dbe eee0 37be

conv3.weight f4 [32, 32, 3, 3]
0.04917133 0.06266661 -0.09648361 0.01219777 0.018877756 -0.06382941 -0.09979253 0.023811908
0.075560056 -0.005478309 -0.096369766 0.0035182498 -0.03519498 -0.062335454 0.01577209 -0.008769675
0.03447878 0.026329268 0.065501206 0.008753059 0.038854696 0.040046073 0.0010816983 0.04637336
-0.078396715 0.045369186 -0.020970492 0.01541046 0.092201 -0.049760222 -0.0064773136 0.08168426
0.013320853 -0.07733998 -0.086988434 -0.080782905 -0.040501725 0.02457705 -0.01499334 0.002188927
0.035869904 0.029154256 0.03715027 -0.0015919138 0.044175625 0.027657224 0.05003478 -0.032698065
-0.028640144 0.052531973 0.033687714 0.010755032 -0.06360419 -0.002505812 -0.0025703905 -0.04744131
-0.045297004 0.026680158 -0.021541629 0.06585825 0.033786103 -0.020719457 0.049890324 0.016683519
0.00013044161 -0.03164488 -0.03305784 0.011964889 0.018556474 -0.1291243 -0.09905651 0.0063812104
0.006627234 -0.052764595 -0.048443783 -0.07778395 -0.036523584 0.08568542 -0.02006914 0.10928715
-0.037669882 0.051380545 -0.0922004 0.108195476 -0.051958248 -0.08440041 0.004799343 -0.013945267
0.01897359 0.051638287 0.07248051 0.006343778 -0.045569085 0.020119863 -0.019029658 0.04616045
0.04868256 -0.066078745 -0.06340484 -0.018920386 0.06837421 -0.10744013 -0.013153298 -0.031776074
-0.0021110612 0.049341988 -0.02575904 -0.0014432884 0.04516138 -0.0036146392 -0.010670437 -0.034546424
-0.024319027 -0.02011322 0.09524158 -0.03507049 -0.025250161 0.018880691 -0.022346634 -0.058663603
0.060559418 -0.047580916 -0.039682295 -0.050305422 0.03556457 0.0025125404 -0.052764617 -0.04177744
-0.05816502 0.02134669 -0.030313168 -0.06189154 0.046533775 -0.010691901 0.0403285 -0.04841404
-0.02853477 -0.03548647 0.03699659 -0.015985986 0.07400887 0.05782075 -0.012800226 -0.06857257
-0.034087144 0.062015496 -0.0067031193 -0.006367083 0.004538687 0.01487949 0.028453412 -0.044145495
0.054439224 0.007230085 -0.0068269675 -0.03779161 0.04988249 0.0059355963 -0.097452 0.022145012
-0.025583582 0.12910019 0.022598647 -0.01253849 0.026490469 0.042161476 0.0009069068 0.09106993
0.09912368 -0.040423088 0.00024517355 0.013584907 -0.056930397 -0.0143956095 -0.014900742 -0.030676119
-0.01635858 -0.0023448186 -0.027222155 -0.06943104 -0.07470315 0.04454685 0.0070235585 0.024107577
-0.018645931 -0.10356493 -0.022492172 -0.08771927 0.08279628 0.035966434 0.017882429 0.028766489
-0.0448884 -0.021129247 0.08075844 0.034833968 0.04949228 -0.0753001 -0.029362125 0.043204106
0.021552712 -0.06868255 0.072020434 -0.05217564 0.017535586 -0.055857267 -0.010815522 -0.040045824
-0.032744203 -0.006059545 -0.01907035 0.010409072 -0.032838047 -0.053900395 -0.043404568 -0.088837564
-0.011050783 0.039150912 -0.007552643 0.021897584 0.0022646813 0.04167035 -0.03913108 -0.059823934
0.044219986 -0.005041035 0.048025984 0.04162186 -0.055746105 0.008202206 0.021058718 -0.029182814
-0.05712797 0.009727851 0.024968272 0.046822846 -0.067164876 -0.0139241 -0.026284333 0.032000523
-0.035404686 -0.010837898 -0.043383535 0.011281253 -0.10315723 -0.0027498214 -0.02803629 -0.008927732
0.061147835 -0.09088202 0.06380143 0.06658498 0.022905627 -0.04300683 -0.015979052 0.032638073
00000000: e067 493d 5a57 803d 3399 c5bd 28d9 473c
00000010: 86a5 9a3c feb8 82bd 0760 ccbd 3111 c33c
00000020: 3bbf 9a3d 6383 b3bb 835d c5bd 7092 663b
00000030: 9d28 10bd 7653 7fbd 7834 813c afae 0fbc
00000040: 9f39 0d3d 7ab0 d73c 7f25 863d fe68 0f3c
00000050: 1a26 1f3d 5a07 243d c6c7 8d3a fef1 3d3d
00000060: 758e a0bd 0ad5 393d 4fca abbc 277c 7c3c
00000070: e1d3 bc3d 60d1 4bbd a53f d4bb 144a a73d
00000080: b53f 5a3c 6c64 9ebd fe26 b2bd 8271 a5bd
00000090: 23e5 25bd cf55 c93c a0a6 75bc 1a74 0f3b
000000a0: 52ec 123d e8d4 ee3c e22a 183d c3a7 d0ba
000000b0: 80f1 343d 6791 e23c 45f1 4c3d 68ee 05bd
000000c0: bc9e eabc c42b 573d 21fc 093d e035 303c
000000d0: ea42 82bd 8d38 24bb ff73 28bb d251 42bd
000000e0: 5a89 39bd 5990 da3c 1278 b0bc b1e0 863d
000000f0: 4c63 0a3d dabb a9bc cc59 4c3d e0ab 883c
00000100: 27c7 0839 109e 01bd a867 07bd 6208 443c
00000110: bf03 983c 2939 04be 24de cabd 7919 d13b
00000120: 4529 d93b b01f 58bd fd6c 46bd 314d 9fbd
00000130: c199 15bd d67b af3d 0968 a4bc f1d1 df3d
00000140: bc4b 1abd 6874 523d 90d3 bcbd 9795 dd3d
00000150: 2cd2 54bd 1fda acbd cf43 9d3b b07a 64bc
00000160: 816e 9b3c ab82 533d a970 943d 78df cf3b
00000170: a6a6 3abd 69d2 a43c 16e4 9bbc bd12 3d3d
00000180: 5d67 473d 4b54 87bd 66da 81bd edfe 9abc
00000190: c707 8c3d 9209 dcbd ee80 57bc a127 02bd
000001a0: bb59 0abb d31a 4a3d 9f04 d3bc b92c bdba
000001b0: 24fb 383d 95e3 6cbb 0ed3 2ebc 8d80 0dbd
000001c0: b238 c7bc 7bc4 a4bc 040e c33d 13a6 0fbd
000001d0: 6dd9 cebc aeab 9a3c 4a10 b7bc 3f49 70bd
000001e0: 270d 783d 35e4 42bd e789 22bd 0f0d 4ebd
000001f0: 28ac 113d 6fa9 243b b61f 58bd d21e 2bbd
00000200: 723e 6ebd 41df ae3c 5253 f8bc fc81 7dbd
00000210: 339a 3e3d 152d 2fbc 7f2f 253d cd4d 46bd
00000220: c0c1 e9bc 435a 11bd bd89 173d 0bf5 82bc
00000230: f691 973d 73d5 6c3d 0ab8 51bc c76f 8cbd
00000240: f69e 0bbd f603 7e3d d7a5 dbbb f7a2 d0bb
00000250: 44b9 943b 1bc9 733c 2117 e93c e8d1 34bd
00000260: aafb 5e3d 59ea ec3b c1b4 dfbb 60cb 1abd
00000270: 9551 4c3d 647f c23b ea94 c7bd 7569 b53c
00000280: a994 d1bc d732 043e cc20 b93c 3d6e 4dbc
00000290: 8a02 d93c 83b1 2c3d 7cbd 6d3a df82 ba3d
000002a0: 5b01 cb3d ae92 25bd a38a 8039 3b93 5e3c
000002b0: d92f 69bd 90db 6bbc 3e22 74bc 7c4c fbbc
000002c0: 6e02 86bc 87ab 19bb ff00 dfbc dc31 8ebd
000002d0: f7fd 98bd c276 363d e125 e63b 417d c53c
000002e0: 5abf 98bc da19 d4bd 8141 b8bc 29a6 b3bd
000002f0: 1991 a93d 8a51 133d 2c7e 923c b3a7 eb3c
00000300: e6dc 37bd 3e17 adbc ae64 a53d 10ae 0e3d
00000310: 6bb8 4a3d f036 9abd d788 f0bc caf6 303d
00000320: 508f b03c 70a9 8cbd 737f 933d 20b6 55bd
00000330: caa6 8f3c 97ca 64bd 9633 31bc 1707 24bd
00000340: c91e 06bd 268f c6bb 6c39 9cbc d08a 2a3c
00000350: 3081 06bd a9c6 5cbd fdc8 31bd 78f0 b5bd
00000360: 580e 35bc b55c 203d 297c f7bb 9062 b33c
00000370: 0c6b 143b 87ae 2a3d e947 20bd f109 75bd
00000380: 0420 353d 442f a5bb e5b6 443d af7b 2a3d
00000390: 0756 64bd 8c62 063c 5583 ac3c cc10 efbc
000003a0: 05ff 69bd 9061 1f3c 438a cc3c 50c9 3f3d
000003b0: bd8d 89bd e921 64bc 3e52 d7bc fb12 033d
000003c0: 8104 11bd 7091 31bc efb2 31bd 01d5 383c
000003d0: 1944 d3bd 5936 34bb 5dac e5bc 9f45 12bc
000003e0: 2776 7a3d 5a20 babd 53aa 823d b55d 883d
000003f0: 95a4 bb3c ee27 30bd 80e6 82bc 80af 053d

conv3.bias f4 [32]
0.03880467 0.01630459 -0.00085755915 -0.033356335 -0.033443116 -0.00014459745 -0.033760414 0.029802408
-0.029551456 -0.05754719 0.054456577 -0.04650281 0.013403414 0.040209036 0.0033801892 0.056883164
-0.017055552 -0.055375874 -0.04666612 -0.0011516794 -0.03266777 -0.021477386 0.025315223 0.057562806
0.030814676 0.026592566 -0.050194528 -0.004839567 0.031141149 0.059960302 -0.007167691 0.025694462
00000000: a5f1 1e3d 3491 853c d2cd 60ba a7a0 08bd
00000010: a6fb 08bd 159f 17b9 5c48 0abd 2e24 f43c
00000020: e515 f2bc 9ab6 6bbd dc0d 5f3d bb79 3ebd
00000030: fe99 5b3c 3bb2 243d 2a86 5d3b 52fe 683d
00000040: 16b8 8bbc d0d1 62bd f924 3fbd f3f3 96ba
00000050: a4ce 05bd 58f1 afbc df61 cf3c fac6 6b3d
00000060: 0f6f fc3c a7d8 d93c c798 4dbd 3b95 9ebb
00000070: b91b ff3c ef98 753d f3de eabb 317d d23c

batch3.weight f4 [32]
0.9787693 0.9719046 1.0184363 0.946252 0.99191296 1.0222083 0.9928839 1.0112083
1.0032561 0.99970466 0.9740803 1.0153078 0.9826077 1.034444 0.9291269 1.0136555
0.9871338 1.0103748 1.045388 0.964542 1.0033934 1.020683 0.94569635 1.0192316
1.0586768 1.0048121 0.95135635 0.9879994 1.0130988 0.9862745 1.0539025 0.97922367
00000000: a090 7a3f bdce 783f 1f5c 823f 923d 723f
00000010: 02ee 7d3f b9d7 823f a42d 7e3f 466f 813f
00000020: b26a 803f a5ec 7f3f 545d 793f 9bf5 813f
00000030: 2e8c 7b3f a968 843f 43db 6d3f 77bf 813f
00000040: cdb4 7c3f f653 813f 46cf 853f 39ec 763f
00000050: 326f 803f bea5 823f 2819 723f 2e76 823f
00000060: b982 873f af9d 803f 178c 733f 87ed 7c3f
00000070: 39ad 813f 7c7c 7c3f 47e6 863f 67ae 7a3f

batch3.bias f4 [32]
-0.08689616 -0.038559604 -0.092528075 -0.12682958 -0.055807948 0.046639673 -0.09646527 0.035431445
-0.094604865 -0.05579479 -0.10188712 -0.016356563 -0.13620496 -0.102130435 -0.07816785 -0.11583133
-0.14154482 -0.034573417 -0.1226858 -0.1592454 -0.1138779 -0.05493468 0.0339018 -0.07157436
-0.06971204 -0.12888569 -0.19147454 -0.06092834 -0.026889347 -0.0339829 0.034310505 -0.035441775
00000000: 9df6 b1bd adf0 1dbd 5c7f bdbd 9ddf 01be
00000010: e096 64bd 3e09 3f3d 958f c5bd 9020 113d
00000020: 32c0 c1bd 1489 64bd 32aa d0bd 33fe 85bc
00000030: 5079 0bbe c329 d1bd 7716 a0bd fa38 edbd
00000040: 20f1 10be db9c 0dbd b142 fbbd 3a11 23be
00000050: d138 e9bd 3003 61bd 9ddc 0a3d 9495 92bd
00000060: 30c5 8ebd 9cfa 03be e711 44be ff8f 79bd
00000070: 0c47 dcbc a731 0bbd 2c89 0c3d 652b 11bd

conv4.weight f4 [32, 32, 3, 3]
-0.042863846 -0.04984919 -0.045133114 -0.018504657 -0.02416862 -0.051303618 -0.022194576 -0.030510204
-0.032157734 -0.044116937 -0.02729724 -0.0060933167 -0.008852782 -0.047128886 -0.023868123 -0.012366734
0.0053344606 0.010145443 0.019737098 0.0018423975 0.018234048 0.030489873 0.008216353 0.0661738
0.033070933 0.009240897 -0.007945302 0.07011053 0.03454083 0.05744332 0.04340374 0.04485518
0.07590577 0.045097057 0.043633558 0.019411838 0.0031953228 0.004968732 -0.025943287 -0.018007912
0.020464431 -0.02609872 0.002599727 0.0036237831 -0.016139762 -0.056934867 -0.044461068 -0.06865314
-0.056095734 -0.026112618 -0.08664692 -0.06614257 -0.056993004 -0.06812727 -0.045104507 -0.04780823
-0.039747942 -0.045224495 -0.040773604 -0.036475748 -0.02639112 -0.030320678 -0.059153084 -0.062081408
-0.047965117 -0.04967019 -0.04618745 -0.023687957 -0.035302214 -0.049870323 -0.0022845836 -0.046535853
0.08029071 0.06676978 0.08646477 0.09801693 0.05495637 0.08245611 0.07771253 0.03579814
0.10014578 0.02210526 0.03379943 0.033306386 -0.0036749 0.019984404 0.011556812 0.020135399
0.012516435 0.043065693 0.079766534 0.022774277 0.07158369 0.05407605 0.0016603703 0.05167182
0.06859124 0.035225365 0.06600532 0.015861897 -0.016639419 -0.02551863 -0.0013804476 -0.0044800136
-0.03238838 0.016182473 -0.004113029 -0.008756781 -0.0017793775 -0.014359389 -0.0006028253 -0.013459485
0.015338335 -0.010241094 0.01091753 -0.0077001536 0.026173849 0.02581941 0.014671321 0.003657319
0.0037415344 -0.011009888 0.014839079 0.027608799 0.006283715 -0.0015121956 0.05439896 0.03379169
0.035822686 0.023327747 0.007816174 0.00546228 0.024523972 -0.016924182 0.02485332 -0.057586607
-0.030806305 -0.01851093 -0.020560408 -0.030902568 -0.0057655503 -0.03176094 -0.021569861 -0.047502637
-0.063079886 -0.052868083 -0.021311175 -0.039130606 -0.012712421 -0.04165717 -0.057570588 -0.030705342
-0.020276414 -0.09817385 -0.0602881 -0.06041914 -0.07233668 -0.05243633 -0.07681396 -0.09095987
-0.065101996 -0.069329195 0.010622504 0.0011828695 -0.008597713 -0.0040427237 -0.015379765 -0.019228298
-0.015519288 0.021429148 0.008145729 -0.052515734 -0.030578509 -0.050658666 -0.033540763 -0.015586229
-0.032528926 -0.03816133 -0.017074388 -0.055216093 0.07723855 0.021515764 0.051813975 0.082291186
0.030537654 0.04922602 0.06798811 0.04533993 0.053525478 -0.030713296 -0.011369368 0.0028624048
0.015161002 -0.008870553 0.0135485865 0.013327498 -0.00069730694 0.0035642553 -0.02089569 -0.04875433
-0.013943101 -0.035906106 -0.021363636 -0.044181086 -0.05272371 -0.028646696 -0.038404506 -0.043289207
-0.030285947 -0.022652043 -0.044622242 -0.030137787 -0.0306633 -0.03786499 -0.019045837 -0.028402785
-0.0046568676 0.025622338 0.0125479875 -0.01763542 -0.04502351 0.0032667583 -0.003441527 -0.027187882
0.029281903 -0.07904136 -0.018332439 -0.010990942 -0.0242451 -0.0123065105 -0.008102971 -0.029898379
-0.0077503794 -0.010855088 0.03413164 0.021415103 0.024572492 0.04963003 0.029961778 0.022115244
0.043140236 0.048487946 0.022120189 0.035922818 0.04545304 0.044047493 0.011167952 0.048043974
0.01917303 0.0310037 0.041835107 0.046061076 -0.051400673 -0.040271945 -0.019580688 -0.061188396
00000000: 0092 2fbd aa2e 4cbd 80dd 38bd 1497 97bc
00000010: 45fd c5bc be23 52bd 66d1 b5bc 89f0 f9bc
00000020: d4b7 03bd f6b3 34bd 769e dfbc 72aa c7bb
00000030: 420b 11bc 380a 41bd 1587 c3bc d89d 4abc
00000040: b3cc ae3b 1239 263c b2af a13c 9a7c f13a
00000050: 925f 953c e6c5 f93c e29d 063c 2186 873d
00000060: 6375 073d 2267 173c 032d 02bc 1c96 8f3d
00000070: af7a 0d3d b049 6b3d 1fc8 313d 11ba 373d
00000080: 7c74 9b3d b1b7 383d 1ab9 323d 9305 9f3c
00000090: 9f68 513b bfd0 a23b 0487 d4bc 5485 93bc
000000a0: 06a5 a73c fccc d5bc 2e60 2a3b fe7c 6d3b
000000b0: 8937 84bc 8934 69bd cf1c 36bd 049a 8cbd
000000c0: a4c4 65bd 21ea d5bc f173 b1bd c175 87bd
000000d0: 7f71 69bd 4f86 8bbd 81bf 38bd 90d2 43bd
000000e0: bdce 22bd 523d 39bd 3902 27bd 9867 15bd
000000f0: 3132 d8bc 1263 f8bc 814a 72bd 1349 7ebd
00000100: 1277 44bd f872 4bbd 0d2f 3dbd 3f0d c2bc
00000110: 0e99 10bd d344 4cbd f4b8 15bb 619c 3ebd
00000120: 756f a43d 98be 883d 7114 b13d 1abd c83d
00000130: ee19 613d c0de a83d bf27 9f3d 12a1 123d
00000140: 3b19 cd3d 1716 b53c 4571 0a3d 476c 083d
00000150: 97d6 70bb 55b6 a33c c858 3d3c fef2 a43c
00000160: bc11 4d3c a765 303d a35c a33d 1f91 ba3c
00000170: 789a 923d d97e 5d3d c8a0 d93a d5a5 533d
00000180: 9079 8c3d 7948 103d cc2d 873d cff0 813c
00000190: 644f 88bc 720c d1bc 23f0 b4ba 14cd 92bb
000001a0: aea9 04bd 1b91 843c 97c6 86bb 9a78 0fbc
000001b0: 003a e9ba a543 6bbc ec06 1eba 2c85 5cbc
000001c0: a44d 7b3c 43ca 27bc 71df 323c 9251 fcbb
000001d0: 8a6a d63c 3a83 d33c fb5f 703c a1af 6f3b
000001e0: 8834 753b d162 34bc 9c1f 733c d92b e23c
000001f0: 9fe7 cd3b dd34 c6ba 72d1 5e3d 2869 0a3d
00000200: cfba 123d d519 bf3c 690f 003c edfc b23b
00000210: 7fe6 c83c 95a4 8abc 3199 cb3c efdf 6bbd
00000220: 815d fcbc 3ca4 97bc 4d6e a8bc 6227 fdbc
00000230: f1ec bcbb c217 02bd 47b3 b0bc 2092 42bd
00000240: 0730 81bd 348c 58bd c694 aebc 6a47 20bd
00000250: c247 50bc b5a0 2abd 23cf 6bbd c589 fbbc
00000260: b91a a6bc 5f0f c9bd a8f0 76bd 0f7a 77bd
00000270: 4125 94bd 7ac7 56bd a350 9dbd 2b49 babd
00000280: 3254 85bd 77fc 8dbd 030a 2e3c 840a 9b3a
00000290: 6cdd 0cbc d378 84bb 69fb 7bbc aa84 9dbc
000002a0: 9d44 7ebc 2e8c af3c aa75 053c bd1a 57bd
000002b0: c87f fabc 767f 4fbd 0a62 09bd 625d 7fbc
000002c0: 0d3d 05bd 0e4f 1cbd 96df 8bbc 452a 62bd
000002d0: 3f2f 9e3d d441 b03c e43a 543d 4888 a83d
000002e0: 1a2a fa3c 39a1 493d 5a3d 8b3d 5db6 393d
000002f0: 883d 5b3d 739a fbbc 9646 3abc 2f97 3b3b
00000300: da65 783c cc55 11bc e4fa 5d3c 945b 5a3c
00000310: 7acb 36ba 4896 693b 702d abbc 9fb2 47bd
00000320: 9b71 64bc 4812 13bd cb02 afbc 3af7 34bd
00000330: d1f4 57bd 7aac eabc 0b4e 1dbd 0650 31bd
00000340: 3c1a f8bc c790 b9bc d0c5 36bd 85e3 f6bc
00000350: 9a31 fbbc 5218 1bbd 0406 9cbc f5ac e8bc
00000360: a398 98bb f0e5 d13c 1396 4d3c 2878 90bc
00000370: 926a 38bd 1c17 563b 3e8b 61bb 1fb9 debc
00000380: 9ae0 ef3c 70e0 a1bd e92d 96bc 5a13 34bc
00000390: a99d c6bc 3fa1 49bc 53c2 04bc 72ed f4bc
000003a0: e5f6 fdbb 8ad9 31bc 9ecd 0b3d ba6e af3c
000003b0: 404c c93c dc48 4b3d 6772 f53c 072b b53c
000003c0: d1b3 303d 4c9b 463d 6635 b53c ce23 133d
000003d0: f82c 3a3d 256b 343d c9f9 363c c2c9 443d
000003e0: c210 9d3c 79fb fd3c 4a5b 2b3d 8aaa 3c3d
000003f0: 8389 52bd 32f4 24bd ae67 a0bc afa0 7abd

conv4.bias f4 [32]
-0.070773214 -0.03409681 -0.016897561 -0.012385755 0.054359756 -0.02247648 0.047606353 -0.04777345
0.009595391 0.027974844 0.04910637 0.022227263 0.025143908 -0.0009936033 -0.034071412 -0.060272906
-0.041420814 -0.007615087 0.004510099 0.00010842634 -0.035658088 0.014990045 -0.031583562 -0.039198294
-0.016454972 -0.07836074 -0.06576483 0.004032073 0.050292745 -0.02009845 -0.020848738 0.020087695
00000000: 8cf1 90bd 19a9 0bbd c16c 8abc 9fed 4abc
00000010: 56a8 5e3d 9820 b8bc e1fe 423d 18ae 43bd
00000020: fd35 1d3c 802b e53c c323 493d f315 b63c
00000030: 99fa cd3c cb3b 82ba 778e 0bbd b9e0 76bd
00000040: dfa8 29bd fb87 f9bb 74c9 933b f362 e338
00000050: 370e 12bd ce98 753c c45d 01bd 648e 20bd
00000060: 94cc 86bc 987b a0bd b6af 86bd 7b1f 843b
00000070: c4ff 4d3d 81a5 a4bc f9ca aabc f38e a43c

batch4.weight f4 [32]
1.9670349 1.2988838 2.0085764 0.8467669 1.9544009 1.570664 1.3232782 1.4064606
2.0051973 1.9944282 0.534184 1.440413 1.591562 0.81289405 0.63803667 1.4677527
1.388681 1.9035869 1.7655791 1.9349253 1.0466735 1.7328205 1.7877464 0.50203526
2.0782318 1.9830264 1.7103413 2.109212 1.8284585 1.8217088 1.9132041 1.8927277
00000000: cdc7 fb3f d341 a63f 848c 0040 b7c5 583f
00000010: cf29 fa3f 850b c93f 2e61 a93f e706 b43f
00000020: 2755 0040 6c49 ff3f 48c0 083f 745f b83f
00000030: 4eb8 cb3f d319 503f 5f56 233f 52df bb3f
00000040: 4dc0 b13f bca8 f33f 7ffe e13f a2ab f73f
00000050: 66f9 853f 10cd dd3f e0d4 e43f 6285 003f
00000060: c001 0540 cfd3 fd3f 77ec da3f 54fd 0640
00000070: ee0a ea3f c12d e93f dfe3 f43f e744 f23f

batch4.bias f4 [32]
0.04212443 -0.053165816 -0.0957486 -0.2454142 -0.03310538 -0.065673634 -0.1532692 -0.14139839
-0.067857735 -0.12618405 -0.47130165 -0.23550045 -0.044921182 -0.28352323 -0.42159355 -0.029133672
-0.12062458 -0.087575056 -0.10305639 0.03349147 -0.19630475 -0.11922821 -0.19193596 -0.46311417
0.0593538 0.06659538 -0.060026575 -0.046834495 -0.096480094 -0.0546771 -0.00805597 -0.09704668
00000000: ab8a 2c3d 66c4 59bd d817 c4bd dc4d 7bbe
00000010: 8299 07bd e67f 86bd 9af2 1cbe bdca 10be
00000020: fff8 8abd 6436 01be 734e f1be 0827 71be
00000030: 46ff 37bd f529 91be 1cdb d7be bda9 eebc
00000040: 050a f7bd 8d5a b3bd 3b0f d3bd 5a2e 093d
00000050: 1d04 49be eb2d f4bd dc8a 44be 4d1d edbe
00000060: f81c 733d 2963 883d 6dde 75bd 87d5 3fbd
00000070: 5b97 c5bd 18f5 5fbd 30fd 03bc 69c0 c6bd

lin1.weight f4 [5, 800]
-0.0011705343 0.0014290384 -0.005627105 0.007292185 -0.0033965239 -0.010113341 -0.015527092 -0.004920621
0.009397734 -0.008774035 -0.00819895 -0.011483834 0.006026786 -0.0030941854 -0.0068866694 -0.007861226
0.008457199 -0.006628838 -0.016042626 0.0047945254 0.0013826647 0.00076894456 0.0010295508 0.0059643616
0.002459201 -0.0026206349 -0.018513193 0.00033248976 -0.002953843 0.017914977 -0.00092946476 -0.0019820319
0.008315124 -0.002341195 0.015440486 0.010979882 0.0012744864 -0.001049592 0.01705519 0.0039092735
-0.019087136 -0.0019406764 -0.003354729 -0.009622317 -0.007686826 -0.00088839413 0.009443603 0.005371846
-0.00041310277 -0.0039017384 -0.02063553 -0.020141194 0.0012430626 0.0062326314 0.0029097702 -0.0011840947
-0.013151977 0.007548766 -0.011976436 -0.005505904 0.013660776 0.014264937 0.004993594 -0.0060687307
-0.009503238 0.010408176 0.0100049935 -0.001730477 -0.009067047 -0.004266772 0.0023133713 -0.013533879
-0.0005647147 0.009336374 -0.0066316775 -0.009750885 0.010723757 -0.017846601 0.0019639414 0.007978218
0.0047517573 -0.018735107 0.00018734581 -0.0014749697 0.0067631626 0.0136187505 -0.0009844316 0.00037415005
-0.0033904805 -0.016274557 -0.00127603 0.008051147 0.004629104 0.015594873 0.0012564573 -0.006699066
-0.008181001 0.013790684 -0.008940677 0.017839532 -0.00020675562 -0.015191206 0.00058983854 -0.011819597
0.004569229 0.00049963384 0.0072292504 -0.015452436 -0.0030709903 -0.020380719 0.01698899 0.0006517998
-0.008127537 -0.0021052463 -0.0033934382 0.00087983726 -0.013088119 0.005525109 0.010924668 -0.00480136
-0.002210426 -0.0040643862 -0.00027458728 -0.0057041263 -0.014607151 0.0034679032 0.0033532341 -0.017312013
-0.0035891251 -0.0023131885 0.017832052 -0.010148538 -0.015359134 0.017355977 -0.0029222944 -0.00018951014
0.005963287 -0.008274088 -0.00038421238 -0.00783798 0.0028110915 5.2611587e-05 -0.013136396 0.0020122225
0.0026471163 0.008592973 -0.015149273 0.013651523 -0.00019819094 0.001543343 0.0035170256 -0.0068091187
0.0049158707 -0.0049521355 0.0073106126 0.011374977 0.0017540753 0.007344943 0.013722454 -0.0008615061
0.00553878 -0.00092498946 0.0056306133 0.0015103994 -0.009226413 0.0015572531 -0.0018117324 0.008643438
-0.0040301154 0.009635241 0.021691412 -0.008332592 0.017407632 -0.007237223 0.0064806626 -0.0004969043
-0.019978382 -0.0034162668 0.004579714 -0.0054221526 -0.011527035 -0.0101051275 -0.00058649486 -0.0030266752
-0.0057189036 -0.013797467 0.009639476 -0.011910783 -2.415918e-05 0.013592108 -0.0042086295 0.0059165247
0.005601984 -0.014964691 -0.0074159736 -0.005247838 -0.0018426033 0.0006272333 -0.0035841104 0.0004648783
0.00092084776 -0.006751375 -0.0070397295 0.0019593053 -0.006331313 0.007527111 -0.009189342 -0.0076934574
-0.009439983 -0.014917282 0.022756847 -0.001230718 -0.0014177804 0.0022486537 0.023777844 -0.0022713197
0.012300985 -0.015172968 -0.0024763145 0.023474973 -0.00847504 -0.0027590676 -0.0057680677 -0.0075352252
0.00015043672 0.013258949 0.004080795 0.0104686115 -0.0031210703 0.0062014954 -0.0048190537 -0.0034247835
0.0005132727 0.008498044 0.011495153 -0.012341798 -0.009057367 -0.0019257482 -0.010108319 -0.017375097
-0.010740853 0.012090388 0.009313655 0.003593732 -0.0075814105 -0.008434887 0.00048014056 0.006993238
0.011364342 0.004251484 -0.00845587 0.006633349 -0.015587633 -0.012151729 -0.0056263474 0.00554346
00000000: 9d6c 99ba 924e bb3a 9463 b8bb 48f3 ee3b
00000010: 3798 5ebb 6db2 25bc 5865 7ebc 293d a1bb
00000020: f4f8 193c f8c0 0fbc e454 06bc b126 3cbc
00000030: 587c c53b d1c7 4abb 92a9 e1bb 5fcc 00bc
00000040: 1090 0a3c b936 d9bb d36b 83bc 651b 9d3b
00000050: 873a b53a ff92 493a fef1 863a b170 c33b
00000060: 8c2a 213b f5be 2bbb fba8 97bc 0552 ae39
00000070: 4395 41bb 6ec2 923c 53a7 73ba fae4 01bb
00000080: 283c 083c bc6e 19bb 18fa 7c3c f7e4 333c
00000090: ab0c a73a 7792 89ba 53b7 8b3c 5d19 803b
000000a0: a05c 9cbc 4b5e feba 03db 5bbb eca6 1dbc
000000b0: c5e1 fbbb 1fe3 68ba 58b9 1a3c 4f06 b03b
000000c0: b795 d8b9 4fb4 7fbb d80b a9bc 25ff a4bc
000000d0: 42ee a23a 1a3b cc3b d8b1 3e3b a033 9bba
000000e0: 647b 57bc a45b f73b d038 44bc df6a b4bb
000000f0: 73d1 5f3c 7bb7 693c 4da1 a33b 34dc c6bb
00000100: 78b3 1bbc 0e87 2a3c fceb 233c 2cd1 e2ba
00000110: f48d 14bc 47d0 8bbb ee9b 173b 34bd 5dbc
00000120: 5d09 14ba 97f7 183c 8b4e d9bb 2dc2 1fbc
00000130: b2b2 2f3c 0933 92bc 78b5 003b 12b7 023c
00000140: a1b4 9b3b 5e7a 99bc 4272 4439 c553 c1ba
00000150: 859d dd3b 2e21 5f3c 0b08 81ba 9229 c439
00000160: d332 5ebb 3852 85bc 7640 a7ba f5e8 033c
00000170: bdaf 973b a381 7f3c b6af a43a d783 dbbb
00000180: 9b09 06bc 52f2 613c eb7b 12bc 3624 923c
00000190: 8acc 58b9 89e4 78bc 659f 1a3a fca6 41bc
000001a0: 79b9 953b dcf9 023a 59e3 ec3b 372c 7dbc
000001b0: ab42 49bb 77f5 a6bc 7f2c 8b3c 8bdd 2a3a
000001c0: 5c29 05bc 2cf8 09bb 7264 5ebb e1a4 663a
000001d0: 8d6f 56bc f90b b53b 61fd 323c ba54 9dbb
000001e0: cbdc 10bb 8b2e 85bb 7bf6 8fb9 aee9 babb
000001f0: d552 6fbc c345 633b efc1 5b3b ecd1 8dbc
00000200: 8737 6bbb dd98 17bb 8614 923c 0e46 26bc
00000210: e1a4 7bbc 1f2e 8e3c f783 3fbb 3eb7 46b9
00000220: ad67 c33b 0a90 07bc 1d70 c9b9 df6a 00bc
00000230: 4a3a 383b 43ab 5c38 0a3a 57bc 7edf 033b
00000240: 3e7b 2d3b 8bc9 0c3c a834 78bc a3aa 5f3c
00000250: 7ad1 4fb9 ff49 ca3a e67d 663b 071f dfbb
00000260: 5015 a13b 8645 a2bb dd8d ef3b 1d5e 3a3c
00000270: 00e9 e53a d9ad f03b 25d4 603c b2d6 61ba
00000280: a77e b53b fe7a 72ba 0281 b83b 98f8 c53a
00000290: 622a 17bc be1c cc3a a777 edba 359d 0d3c
000002a0: 0f0f 84bb 21dd 1d3c 30b2 b13c 6d85 08bc
000002b0: 739a 8e3c 3a26 edbb bd5b d43b af42 02ba
000002c0: b4a9 a3bc 72e3 5fbb 6d11 963b 50ac b1bb
000002d0: e4db 3cbc fa8f 25bc 01bf 19ba 2f5b 46bb
000002e0: a465 bbbb c50e 62bc e5ee 1d3c 7225 43bc
000002f0: 72a9 cab7 6fb1 5e3c 8be8 89bb 68df c13b
00000300: d990 b73b 772e 75bc b201 f3bb 0ef6 abbb
00000310: 8283 f1ba ea6c 243a 65e3 6abb e9ba f339
00000320: 0c65 713a a33a ddbb 88ad e6bb b067 003b
00000330: e776 cfbb fca5 f63b e58e 16bc 6619 fcbb
00000340: 29aa 1abc 9e67 74bc 916c ba3c 0b50 a1ba
00000350: d1d4 b9ba 265e 133b c1c9 c23c 6cda 14bb
00000360: 128a 493c 0a98 78bc aa49 22bb 964e c03c
00000370: e5da 0abc 79d1 34bb 0f02 bdbb 0dea f6bb
00000380: 8dbe 1d39 103c 593c 31b8 853b 8a84 2b3c
00000390: df8a 4cbb ea35 cb3b 27e9 9dbb 5572 60bb
000003a0: 268d 063a 613b 0b3c 2b56 3c3c 4135 4abc
000003b0: 5a65 14bc 6369 fcba 5d9d 25bc 3856 8ebc
000003c0: 67fa 2fbc c316 463c 4d98 183c d184 6b3b
000003d0: 7b6d f8bb 7b32 0abc 60bb fb39 8827 e53b
000003e0: 8131 3a3c 0850 8b3b 7d8a 0abc 915c d93b
000003f0: 4563 7fbc 0c18 47bc 395d b8bb eaa5 b53b

lin1.bias f4 [5]
-0.020545004 -0.01409112 -0.012952349 -0.010909239 -0.009716859
00000000: ff4d a8bc 71de 66bc 1736 54bc aabc 32bc
00000010: 7633 1fbc

exp_avg f4 [32, 3, 3, 3]
0.006994068 0.011085554 0.010650516 0.0033749677 0.007483646 0.010285391 0.008258697 -0.0040784697
0.007397023 -0.005435555 -0.0047792085 -0.011054556 -0.014514193 -0.011845992 -0.0036981378 -0.0050354237
-0.0141418595 -0.0034510957 -0.01596407 -0.021715196 -0.028143102 -0.02737888 -0.024126956 -0.02006417
-0.017415844 -0.023551151 -0.006093761 0.0072165453 0.011844715 0.0009327023 9.600742e-05 0.007880744
-0.0058665364 -0.007499862 -0.00022078601 -8.4061816e-05 0.009192573 0.015269449 0.003879912 0.005174636
0.010880168 -0.005208005 0.0006718868 0.0025629434 -0.0014705026 0.0052304673 0.005987428 -0.005641864
0.0021051837 0.004268134 -0.010048703 -0.008011529 -0.0032468773 -0.0044361083 -0.02249305 -0.02927584
-0.031135201 -0.017925238 -0.020727323 -0.022821482 -0.016077636 -0.016645823 -0.026202949 -0.017595563
-0.022817787 -0.023752084 -0.012063997 -0.017221091 -0.015023616 -0.014658315 -0.016397068 -0.027732924
-0.007402449 -0.011003183 -0.006608647 0.0010439726 -0.00074493233 0.0039910944 -0.0008422945 0.002021097
-3.14932e-05 -0.0037161007 0.0004064738 0.004437214 -0.0012896655 -0.0012106975 0.0009791552 -0.00826202
-0.003593706 -0.0006594927 -0.0061868113 -0.0037414634 0.006103169 -0.0024321862 -0.0040316074 0.00030141365
-0.006752279 -0.0014842463 -0.00048397362 -0.0003896077 0.0019657994 0.014637347 0.0039361436 0.007104093
0.014880454 0.0006734151 0.0050919135 0.015690338 0.08678426 0.08495741 0.08598752 0.07472608
0.0799126 0.06414472 0.06904962 0.05899279 0.05736022 0.084103525 0.082111195 0.07281532
0.07633808 0.06585422 0.03967807 0.052917138 0.03821259 0.029918185 0.07674361 0.06372336
0.062134292 0.058304943 0.04517406 0.029459953 0.045477927 0.029991642 0.014609454 -0.038316313
-0.027302993 -0.026658973 -0.064746074 -0.048669085 -0.051691175 -0.045580786 -0.042069834 -0.041481033
-0.034983363 -0.021000752 -0.017951218 -0.055547748 -0.041099057 -0.039283466 -0.043163408 -0.040735416
-0.037933916 -0.03313337 -0.0236283 -0.0198865 -0.05280935 -0.041911032 -0.044726875 -0.04139791
-0.037676703 -0.0402926 -0.029375259 -0.020454898 -0.01768974 -0.0327197 -0.024205199 -0.03608516
-0.015034076 -0.01995631 -0.017063659 -0.023255698 -0.010452341 -0.010707995 -0.015970109 -0.010622732
-0.02059442 -0.01102979 -0.010042513 -0.002243496 -0.02305593 -0.017757162 -0.023308815 -0.012006901
-0.015200043 -0.026096867 -0.007770215 -0.015106647 -0.004314513 0.009726818 0.0060596005 0.00456936
0.0064161173 0.0070027034 0.011781106 -0.018569332 0.00080020755 -0.0021281766 0.00072874385 -0.008007682
-0.010663712 -0.0008960175 -0.005472628 0.008088059 -0.017580675 -0.012908037 0.0006670481 -0.00807286
-0.011363124 -0.012447621 0.0023212675 -0.0087504685 0.0052093053 -0.008995522 -0.0029407917 0.0050708684
0.003312453 0.0032463195 -0.0046539167 0.0033562374 -0.0036873156 -0.012926014 -0.002747044 -0.005335607
-0.013705022 -0.012123053 -0.0017252568 -0.0024912101 -0.0036363427 -0.0040981704 -0.010897302 0.0069520087
0.011071477 -0.0043036267 -0.015888494 -0.007142457 -0.011034834 -0.0069852504 -0.0068094 -0.024155995
0.013553753 0.0112022925 -0.006958726 0.00045874453 -0.009777801 -0.006419203 0.0073953522 -0.0058816015
-0.005751495 -0.005783742 -0.0076711862 -0.008961138 0.0021610695 -0.009144003 -0.0045869667 0.008600824
00000000: 7f2e e53b 2fa0 353c 807f 2e3c 902e 5d3b
00000010: 5f39 f53b 0e84 283c 7c4f 073c afa4 85bb
00000020: ba62 f23b bd1c b2bb e89a 9cbb 2b1e 35bc
00000030: f0cc 6dbc b115 42bc 755c 72bb 3200 a5bb
00000040: 42b3 67bc c72b 62bb 15c7 82bc 11e4 b1bc
00000050: 5d8c e6bc ac49 e0bc e5a5 c5bc 9d5d a4bc
00000060: acab 8ebc 58ee c0bc 2cae c7bb c578 ec3b
00000070: 5610 423c 9880 743a 9757 c938 3c1e 013c
00000080: 133c c0bb 67c1 f5bb cb82 67b9 584a b0b8
00000090: 729c 163c b62c 7a3c 1f46 7e3b fe8f a93b
000000a0: bb42 323c eaa7 aabb 8f21 303a 0ef7 273b
000000b0: e1bd c0ba 5764 ab3b 3032 c43b 63df b8bb
000000c0: 1ff7 093b b4db 8b3b 51a3 24bc ca42 03bc
000000d0: 90c9 54bb c65c 91bb 5843 b8bc e3d3 efbc
000000e0: 400f ffbc f3d7 92bc 59cc a9bc 1ef4 babc
000000f0: 3fb5 83bc d25c 88bc 91a7 d6bc 9224 90bc
00000100: 5eec babc bb93 c2bc 12a8 45bc 3f13 8dbc
00000110: 9d25 76bc 6e29 70bc 2553 86bc 2830 e3bc
00000120: 3e90 f2bb b246 34bc 598d d8bb e8d5 883a
00000130: 9047 43ba bac7 823b 6dcd 5cba 6274 043b
00000140: 9117 04b8 d389 73bb fd1b d539 0d66 913b
00000150: fe09 a9ba 44b0 9eba ff56 803a 6c5d 07bc
00000160: 6284 6bbb cee1 2cba bcba cabb 5733 75bb
00000170: 18fd c73b 5065 1fbb 931b 84bb 0e07 9e39
00000180: 3942 ddbb 0b8b c2ba d7bd fdb9 4344 ccb9
00000190: a4d4 003b 7cd1 6f3c c4fa 803b 74c9 e83b
000001a0: 26cd 733c 1f88 303a 11da a63b 0689 803c
000001b0: f2bb b13d 27fe ad3d 3a1a b03d fd09 993d
000001c0: 38a9 a33d 4f5e 833d e369 8d3d 6ca2 713d
000001d0: 8df2 6a3d 783e ac3d ea29 a83d 3320 953d
000001e0: 2457 9c3d 94de 863d 7985 223d a4bf 583d
000001f0: ce84 1c3d fb16 f53c c12b 9d3d 6581 823d
00000200: 8780 7e3d 2ad1 6e3d 6f08 393d 0056 f13c
00000210: 1047 3a3d 08b1 f53c 7e5c 6f3c 91f1 1cbd
00000220: 87aa dfbc eb63 dabc 9799 84bd 3c59 47bd
00000230: 20ba 53bd ebb2 3abd 6b51 2cbd 04e8 29bd
00000240: b74a 0fbd c509 acbc 6f0e 93bc 0986 63bd
00000250: 7c57 28bd b3e7 20bd 1dcc 30bd 2eda 26bd
00000260: 9860 1bbd dbb6 07bd 2390 c1bc 03e9 a2bc
00000270: 9e4e 58bd e7aa 2bbd 8733 37bd db90 29bd
00000280: e352 1abd da09 25bd 62a4 f0bc 0891 a7bc
00000290: 13ea 90bc 1805 06bd fb49 c6bc 08ce 13bd
000002a0: 7c51 76bc 6a7b a3bc 16c9 8bbc bc82 bebc
000002b0: 4c40 2bbc 9670 2fbc bfd3 82bc f80a 2ebc
000002c0: a1b5 a8bc 4bb6 34bc 5a89 24bc 9e07 13bb
000002d0: cadf bcbc 7877 91bc 21f2 bebc 98b8 44bc
000002e0: 9a09 79bc 19c9 d5bc 4a9d febb df81 77bc
000002f0: c260 8dbb 3b5d 1f3c 9d8f c63b 92ba 953b
00000300: 4b3e d23b ef76 e53b 8a05 413c b61e 98bc
00000310: 05c5 513a e178 0bbb 2c09 3f3a a732 03bc
00000320: dab6 2ebc b7e2 6aba bb53 b3bb c783 043c
00000330: 5905 90bc 3b7c 53bc d7dc 2e3a 0744 04bc
00000340: 652c 3abc 1bf1 4bbc 6820 183b 205e 0fbc
00000350: d2b2 aa3b f461 13bc 4cba 40bb 8729 a63b
00000360: bd15 593b 34c0 543b e27f 98bb 52f4 5b3b
00000370: e4a6 71bb a2c7 53bc c007 34bb 51d6 aebb
00000380: 078b 60bc c59f 46bc 0322 e2ba 9243 23bb
00000390: b54f 6ebb f249 86bb 998a 32bc adcd e33b
000003a0: 2465 353c 7005 8dbb 9628 82bc 460b eabb
000003b0: 73cb 34bc 87e4 e4bb 6321 dfbb cbe2 c5bc
000003c0: 8f10 5e3c d289 373c 0606 e4bb a683 f039
000003d0: 1233 20bc 2d58 d2bb b654 f23b 73ba c0bb
000003e0: 0977 bcbb 8b85 bdbb 935e fbbb bdd1 12bc
000003f0: bba0 0d3b bad0 15bc 444e 96bb 78ea 0c3c
