results_auto/01_domain_adaptation/maml_supervised/June/officehome_maml_order_2_seed_0_shots_1_ways_5_meta-lr_0.0001_dropout_0.2_RandAugment-prob_0.5_datetime_11_06_2021_09_41_05/intermediate_48000_model.pt (torch, 412181 bytes, 54 tensors)

conv1.weight f4 [32, 3, 3, 3]
000000 e9 13 25 3c db 0d db 3d 40 01 20 be a9 95 18 be
       0.010075548 0.10696002 -0.15625477 -0.14900841
000010 0c 27 9d bd e2 a2 89 3d 5e 58 76 3c 70 1a 32 3e
       -0.07673463 0.067205206 0.015035717 0.17392898
000020 1c 8d a5 3b c1 25 52 3d e6 b8 97 bd 24 d7 42 bd
       0.005052222 0.051305536 -0.074083135 -0.047568455
000030 56 a6 60 be f0 1b 26 be a4 28 a8 bd 1a de 25 3c
       -0.21938452 -0.16221595 -0.082108766 0.010123754
000040 fd 5f c6 3d 76 45 09 3e c7 ff 25 be 02 ad e3 bd
       0.09686277 0.13405403 -0.16210853 -0.11116983
000050 a6 8d 91 3d 7b 38 15 3e d4 33 8c bd 95 52 0d 3e
       0.071070954 0.14572327 -0.06845823 0.13801034
000060 83 3a 1c bc b7 27 1a 3d 7f 9f 49 3e 65 d4 3b be
       -0.009535435 0.03763553 0.19689749 -0.18342741
000070 d4 c7 e1 bd cb 75 28 bd 08 05 47 bd 47 1c 54 3e
       -0.11024442 -0.04112796 -0.048588783 0.20713912
000080 d4 04 e3 bd 90 a2 49 bd 74 da c8 bd ad 75 2f be
       -0.11084905 -0.049227297 -0.098072916 -0.17134733
000090 68 75 e8 bd 58 22 37 3e a9 d7 b8 3d 17 62 e4 3d
       -0.113505185 0.17884195 0.09025509 0.11151522
0000a0 ab c9 2b 3d 1e 8b bd bd 9e 20 91 3d c4 70 1d be
       0.041940372 -0.0925505 0.07086299 -0.15375048
0000b0 ab 87 1a be e8 92 07 be b0 69 0a 3e 7f 34 e1 3d
       -0.15090816 -0.13239634 0.13516879 0.10996341
0000c0 e3 3c a8 bd 0b 1b b5 3c 57 d8 fa 3d 23 ea 69 3e
       -0.08214738 0.022107622 0.12248295 0.22843222
0000d0 18 75 e0 3d 37 b7 95 3c a2 75 2a 3e ac e7 e6 bd
       0.10959834 0.01827584 0.16646436 -0.11274657
0000e0 ef 27 ba 3c 84 1d e1 bd 99 08 f6 bd 04 d9 dc bd
       0.02272412 -0.10991958 -0.120133586 -0.1078358
0000f0 8e aa fd 3d 9c 0d b1 3d 74 c8 e7 bd 53 58 a9 3d
       0.12386046 0.08645174 -0.1131753 0.082688
000100 e3 29 af 3d 51 9e 6c bd 47 70 f4 3c be 7d a9 3c
       0.08552911 -0.05776817 0.029838694 0.020689841
000110 08 70 cc 3d e4 0f 4a 3e 33 57 23 be 19 d6 c3 bd
       0.09982306 0.19732624 -0.15951233 -0.0956232
000120 b3 ce c5 3d 0a c2 1c 3e 6b da 05 3e d5 0f 1f 3e
       0.09658565 0.15308395 0.13071601 0.15533383
000130 cd fc 32 3c f3 cc 4b be 1e d4 65 3a 75 fa 42 be
       0.01092453 -0.199024 0.00087672647 -0.19040854
000140 25 b3 74 be c6 97 37 3e eb 3f 2e 3e 4d 39 fd bd
       -0.23896463 0.1792899 0.1701657 -0.12364445
000150 2d 18 da 3c d2 63 66 bd da bc 92 bb 6c d3 b6 bd
       0.026622856 -0.05624754 -0.0044780793 -0.08927044
000160 26 d2 60 3d d5 9f d8 bd b5 2b 85 3d 12 b0 02 3e
       0.054887913 -0.105773605 0.06502477 0.12762478
000170 6a 11 56 3e ac c0 34 3d 0f b6 5b be 6a e5 d0 bd
       0.2090508 0.04412906 -0.21456169 -0.10200007
000180 9d e4 9e 3d 09 ec db 3b 18 5b 12 be 6e 89 b5 bd
       0.07758448 0.006711487 -0.14292562 -0.08864103
000190 5a c0 73 3e 6c cf 69 3e d1 a3 c3 bd d1 ad 55 bd
       0.23803845 0.22833031 -0.0955273 -0.052167717
0001a0 24 a1 e2 bd de 05 f6 bc 5c 4c 22 be 85 fe c3 bd
       -0.110658914 -0.030032095 -0.15849441 -0.0957003
0001b0 3e c5 ba 3c db 7f d9 3b 49 c8 98 bd 1d 4b 21 3e
       0.02279913 0.006637556 -0.07460076 0.1575131
0001c0 57 ec e6 bd ea fe 60 3e fb 32 20 3e fb b3 4c be
       -0.11275547 0.21972242 0.15644448 -0.19990532
0001d0 39 72 27 bd 58 71 69 3b 9d 50 f6 bb 94 30 43 3d
       -0.040880416 0.0035620537 -0.007516934 0.04765375
0001e0 37 92 d0 3d 25 dc b4 bb 95 70 14 bd 14 e7 b6 3d
       0.10184138 -0.0055194073 -0.03624018 0.089307934
0001f0 c7 16 71 be 0e 12 d9 bd cf f4 f6 bc 5f f7 d2 bd
       -0.23543845 -0.10599147 -0.03014603 -0.103010885
000200 d2 e1 de bc ff 93 92 bd 76 70 61 3c b2 4f 03 3e
       -0.027207289 -0.07157134 0.013759723 0.1282337
000210 96 ac 94 bd 3f 77 0f bd 17 dc 2e 3e 15 1a 5f bd
       -0.07259481 -0.03502583 0.17076145 -0.054468233
000220 19 49 5c bc 9f de 49 bd 31 66 0f 3d 14 37 0d 3e
       -0.013445162 -0.049284574 0.035009567 0.13790542
000230 6d 1e 5e 3e 3e c0 00 3e 9c 8e 4a 3e 29 f9 9b bc
       0.21691294 0.12573335 0.19780964 -0.019039707
000240 57 12 3d be 73 b5 64 bd b9 bc 2f 3e 85 fb 42 bc
       -0.18464027 -0.055837106 0.17161836 -0.011900787
000250 0c 83 8a bd da d3 e2 bd a3 b1 3b be 9d 2d 2a be
       -0.067632765 -0.11075564 -0.18329482 -0.16618963
000260 f3 3d 2a bd c4 68 f1 3d 38 36 fc 3d e0 67 43 be
       -0.041562986 0.117875606 0.12315029 -0.19082594
000270 8a fd 07 3e 04 0b 0c be 14 45 cb bc e2 5c 44 bd
       0.13280311 -0.13676077 -0.024813212 -0.047940142
000280 f9 ca e0 bb 09 a6 46 bd d5 cb 34 be 1a 70 1c be
       -0.0068601337 -0.048498187 -0.17655881 -0.15277138
000290 9f b5 f7 ba 63 7e 84 3c f3 4e b3 bd 73 d0 e3 3d
       -0.0018898732 0.016173547 -0.08755293 0.11123743
0002a0 b0 ca 34 be 12 25 f4 3a a5 89 42 3e 99 c4 af bd
       -0.17655444 0.001862677 0.1899782 -0.0858242
0002b0 85 45 27 3e 94 70 b1 3d 43 cb 2b be cc ab 0d 3e
       0.16335113 0.08664051 -0.16776757 0.13835067
0002c0 63 46 81 bb 53 71 b3 bd f0 c2 41 3e 2f c9 24 be
       -0.0039451583 -0.08761849 0.18922019 -0.1609237
0002d0 04 5d 3e bb 49 d0 32 bd 2e f6 13 3e f8 84 8f 3d
       -0.002904714 -0.043655667 0.14449379 0.07007784
0002e0 e3 67 f6 3d b1 cb b4 3d 06 68 35 bd 57 10 b4 bc
       0.120315336 0.088279136 -0.044288658 -0.021980448
0002f0 fd 57 35 be 73 9c 19 3e ad 3b 4a 3e 96 ab 24 3e
       -0.17709346 0.15001087 0.19749327 0.1608108
000300 9c 65 3a be b2 77 a1 bc 42 50 18 be 51 6a ac bd
       -0.18202823 -0.019710395 -0.14874366 -0.08418716
000310 96 6f e8 bd 00 35 c9 3d fb 38 df bd ea 27 f6 39
       -0.11349408 0.09824562 -0.1089954 0.00046950515
000320 b9 bd e9 3c d2 f8 a3 3d f1 61 27 be 5a 3d 09 be
       0.02853285 0.08006443 -0.16345955 -0.1340231
000330 b9 c1 c2 bd f2 94 1f 3e 25 b3 31 bd dc 0b 3a 3e
       -0.09509606 0.15584162 -0.043383736 0.18168586
000340 6b 49 83 3d 2d 2f 57 3d b0 16 ed bc 3a 8e 8f bd
       0.06410488 0.052535225 -0.028941482 -0.070095494
000350 fd d8 81 3c 98 e4 d8 bc 02 30 21 bb b9 15 a1 3c
       0.015850538 -0.02647619 -0.0024595265 0.019663678
000360 6c a9 22 be 37 3f f3 bd c6 71 3a 3e 2d cc 2b be
       -0.15884942 -0.11877292 0.18207464 -0.16777106
000370 b7 5f 01 3c 3a 2e 63 3e c8 20 67 3d ba f7 e6 3c
       0.007896355 0.22185603 0.056427747 0.028194297
000380 2c 39 26 be 09 8f 00 3e 9d 90 2b be cd 2e 3d bd
       -0.16232747 0.12554564 -0.16754384 -0.04618721
000390 cc 7d 93 bd 87 f1 10 bd 19 3c c5 bc c3 e2 19 3e
       -0.07201728 -0.03538659 -0.024076508 0.15027909
0003a0 93 bd 3f 3d ef d9 13 3e d5 59 f4 3d 6e f9 2f be
       0.04681165 0.14438604 0.119311966 -0.17184994
0003b0 5a 5c ab 3d bb 18 21 be 3c 5e cc bd c4 2f 27 3d
       0.08367224 -0.1573209 -0.09978911 0.040817037
0003c0 da a0 79 3d 8c 46 15 3e cc f2 77 bd d9 55 11 3d
       0.060944416 0.14577693 -0.060534284 0.03548226
0003d0 f0 ba bb 3d 59 be 3b be 04 7d 5c 3e 58 62 18 be
       0.09166515 -0.1833433 0.21532065 -0.14881265
0003e0 9b c4 06 3d cd 81 da 3b e2 04 3b bd c3 1e bf 3d
       0.03290234 0.0066683055 -0.045658953 0.09332039
0003f0 bf de 2b 3e b2 96 ad bd d0 3d 02 be 78 d2 2c bd
       0.1678419 -0.084760085 -0.12718892 -0.042192906

conv1.bias f4 [32]
000000 3c f5 5c 3e 33 fe 38 bd 92 a0 96 bc 2c e3 93 bd
       0.21577924 -0.0451643 -0.018387113 -0.07221064
000010 3c 16 33 bd 27 db 43 3d 16 98 82 3c c5 50 a6 bd
       -0.043722376 0.04781642 0.01594166 -0.08120874
000020 83 c6 33 be 9a 54 cb 3c 52 ba 3b bc dd ca a6 3c
       -0.17556195 0.024820615 -0.011457996 0.020360405
000030 af 68 2f 3e 06 05 21 3e 7d 29 d2 bd 66 5c 37 3c
       0.17129777 0.15724573 -0.102618195 0.011191463
000040 83 b0 58 bd bd 8b 49 be 0b 10 16 be 05 50 22 3e
       -0.05290271 -0.19682212 -0.14654557 0.15850838
000050 a8 fa f3 3d 00 02 03 3e 2a c9 01 3e bd 50 17 be
       0.11913043 0.12793732 0.12674394 -0.14776893
000060 08 ca d1 3c 3d bd 2c 3e ee b0 e0 bd 86 4d 2c 3e
       0.025609031 0.16869064 -0.10971247 0.16826448
000070 da 27 50 3d c3 6f 37 3e 25 56 a6 bd 97 8f a9 3d
       0.050819255 0.17913727 -0.081218995 0.08279341

batch1.weight f4 [32]
000000 b4 08 90 3f f2 8a 74 3f 7d 34 88 3f de c9 85 3f
       1.1252656 0.95524514 1.0641018 1.045223
000010 16 d0 80 3f 74 0f 6b 3f f5 a4 89 3f ff e6 8b 3f
       1.0063503 0.91820455 1.0753466 1.092987
000020 a6 14 8a 3f 7d 18 86 3f be 30 7a 3f c9 6b 79 3f
       1.0787551 1.0476223 0.97730625 0.9743009
000030 c3 84 62 3f c9 07 77 3f 02 a7 5c 3f 49 b3 72 3f
       0.8848383 0.96496254 0.86192334 0.9480482
000040 1d 80 7d 3f 67 42 6c 3f 17 d1 6d 3f 9f 5f 73 3f
       0.9902361 0.9228882 0.9289717 0.9506778
000050 53 1c 5d 3f a5 ad 85 3f 4d 63 84 3f f1 22 87 3f
       0.86371344 1.0443617 1.0342804 1.0557538
000060 8f c0 81 3f 6e 89 83 3f 01 22 82 3f 94 a8 8c 3f
       1.0136889 1.0276315 1.0166627 1.0988946
000070 17 42 88 3f 51 8a 7c 3f b0 3e 78 3f 5e 8f 6d 3f
       1.0645169 0.98648554 0.96970654 0.92796886

batch1.bias f4 [32]
000000 88 f5 2f 3e d9 52 56 bd ab 78 2d 3e 70 68 09 bd
       0.17183506 -0.052325103 0.16940562 -0.033546865
000010 09 d0 77 bd 35 c0 80 bc ec 18 a7 bd c6 ea 84 3d
       -0.060501132 -0.015716651 -0.0815905 0.06490092
000020 8c 76 56 3c 02 06 3a 3d ac a4 d1 bd 19 70 61 3e
       0.013089787 0.045415886 -0.10236487 0.22015418
000030 4b 9b 9c bd 6a 79 b9 3d f4 ee 3e bc ad b0 7d bc
       -0.07646807 0.09056361 -0.011653651 -0.015484017
000040 93 f8 a9 bc 42 ce 02 be 93 74 06 be 66 04 64 bd
       -0.020748412 -0.12773994 -0.13130407 -0.055668257
000050 fc c8 2b be 74 b8 95 3d 3a 45 54 3d 4f d6 8c 3e
       -0.16775888 0.07310572 0.051823832 0.27507254
000060 c5 99 96 bc 48 b7 a9 bd dd a0 23 bd 60 47 e0 3c
       -0.01838387 -0.08286911 -0.039948333 0.027377784
000070 8f 5a 0e bd 5e 27 23 3e 0a 15 ef bd 52 3c 23 be
       -0.034754332 0.15932986 -0.11673935 -0.15940979

conv2.weight f4 [32, 32, 3, 3]
000000 f8 f0 25 be 68 83 17 b8 07 b6 12 bc 67 15 7c 3d
       -0.16205204 -3.6123587e-05 -0.0089545315 0.06154385
000010 11 e6 3b 3d 3c 48 40 3d 7b 2f 3c 3d 9e 67 61 3d
       0.045873705 0.046943888 0.04594372 0.055030458
000020 47 d8 df 3c fc eb ce bc 16 6d e1 bc 40 86 8d 3c
       0.027324809 -0.02525901 -0.027517837 0.01727593
000030 19 fa 29 bd d7 e6 c4 bc 7c 46 cb 3d 17 d5 08 bd
       -0.041498277 -0.024035854 0.09925553 -0.033406343
000040 cf 05 15 bc c9 a5 fc ba 3a 61 3e 3d 6e d4 25 3d
       -0.009095623 -0.0019275482 0.04647944 0.04048579
000050 7a 4c 65 bd 8a 00 ff bc 49 9d 86 3d 70 c6 7c 3d
       -0.055981137 -0.031128187 0.065729685 0.061712682
000060 ee 7f 1e 3d 72 cd 4e bd 6d d8 cf bd 91 5d 83 3d
       0.038696222 -0.050488897 -0.10148702 0.06414331
000070 e7 34 12 3c 4f a9 c5 bd 13 2a 49 bd bd c3 3e bd
       0.008923746 -0.09651434 -0.04911239 -0.04657339
000080 d2 cc bd bc d1 e8 47 3d 32 2d 1c 3d 24 6f 17 be
       -0.023168955 0.048806015 0.03812904 -0.1478849
000090 cd f7 71 bd 18 bd ad 3c ae a0 e3 bb 98 74 a3 3c
       -0.059074212 0.021208331 -0.0069466447 0.019953057
0000a0 86 48 59 3c 5f a3 3f 3b b2 cb c1 bc 54 ca 17 bd
       0.01326192 0.0029241664 -0.0236567 -0.03705819
0000b0 24 b4 15 bd 0a 2c 1b bc 62 d8 38 3c 83 07 a6 3b
       -0.03654875 -0.009470949 0.011282058 0.0050668134
0000c0 d1 f1 58 bd 76 a5 15 bd e8 bf 91 bd 01 f6 26 bd
       -0.05296499 -0.03653475 -0.07116681 -0.04076195
0000d0 5d db e9 3c 79 11 95 3c 28 1e 93 bd 76 a1 69 bd
       0.028546983 0.018196808 -0.07183486 -0.057038747
0000e0 5f be 06 bd de 2d c8 bd 31 de 34 3d 35 01 bf 3d
       -0.032896396 -0.097743735 0.04415721 0.09326402
0000f0 74 27 6a 3d c0 3b b9 bb 9f 47 d7 3c 96 20 1a 3d
       0.05716653 -0.0056528747 0.026279269 0.037628733
000100 06 d3 eb bd e6 78 bc 3c 75 59 30 bd 74 65 bc bc
       -0.11514859 0.023006868 -0.043054063 -0.022997595
000110 15 32 d1 bd b1 fa 0c 3d d4 14 18 3d 2a 5c 55 bb
       -0.102146305 0.034418765 0.03712924 -0.0032556155
000120 f1 3d cf bd b0 ca 29 3a 94 67 6b 3b 7d d5 6c bb
       -0.10119236 0.0006477041 0.0035919892 -0.003613799
000130 63 04 c4 3d 0a 83 be 3c c5 f2 d0 bd 84 55 83 3c
       0.09571149 0.023255844 -0.102025546 0.016031988
000140 73 a1 21 3d 57 5f 6a 3d 7b f0 22 bd 57 02 30 3d
       0.03946061 0.05721983 -0.03978012 0.04297098
000150 2c cf ac bd b3 5d 54 bd f3 c6 d2 3c fb 4b b9 bd
       -0.084379524 -0.05184717 0.025729632 -0.09047695
000160 34 4b ff 3c a9 3a 41 bd d0 4b bf bc 18 1f 93 bc
       0.03116379 -0.047175083 -0.02335158 -0.017959163
000170 04 b3 e0 bc 6a bc 77 3c 52 ed 50 3d d6 c9 85 3d
       -0.027429111 0.015120605 0.051007576 0.06532638
000180 a6 03 24 3a a3 da 04 bc c6 73 f8 3c e2 98 93 bc
       0.0006256647 -0.008108768 0.030328643 -0.018017236
000190 15 19 94 3b ba 1b e7 bc a7 8d ef 3c 1c 35 2a 3c
       0.0045195916 -0.028211463 0.02924235 0.010388639
0001a0 73 98 14 3b 2a 64 83 bd c7 75 27 3d f2 e4 f6 bc
       0.0022673875 -0.06415589 0.040883806 -0.030138467
0001b0 a2 5d e0 ba 6b 41 62 3d 90 a7 0c bd 4f e0 39 bd
       -0.0017117749 0.05523817 -0.034339488 -0.045379933
0001c0 70 49 75 3c 92 51 ee b9 47 0b 9a 3c c1 5b 25 3d
       0.014971122 -0.00045455672 0.018804206 0.040370706
0001d0 c4 24 46 3d ee 63 bb bc 7e 90 58 ba ff f8 29 3d
       0.048374906 -0.022874799 -0.0008261277 0.041497227
0001e0 fc ba 92 3d 31 71 af bc 0e 4a 04 bd bd 39 b5 bc
       0.07164571 -0.021416279 -0.032297187 -0.022122258
0001f0 47 ad cf 3c e6 86 a3 bc d3 91 38 bd 4a 90 48 3d
       0.02535118 -0.019961786 -0.045060944 0.04896573
000200 81 6f dc bb 60 c5 b4 bd 62 54 9e bd 5d d9 e1 bb
       -0.0067271595 -0.08826709 -0.077309385 -0.006892367
000210 5a 89 28 bc 1f 9a 4a 3d bf 5f 4f 3d 5a fe 0f 3d
       -0.010286653 0.049463388 0.05062842 0.035154678
000220 7a 17 06 3d d1 ef f0 3b 29 62 53 bd 6b a9 f4 3c
       0.032737233 0.007352807 -0.051607285 0.029865941
000230 a9 3f 9a bc ed b6 d5 bc 4a 54 2f bd f5 32 84 3d
       -0.018829184 -0.026088202 -0.042804994 0.06455032
000240 8f 8f 41 bd 5a 94 b4 3d 8e cd b8 3c 6b 55 43 bd
       -0.04725605 0.08817358 0.022558954 -0.047688883
000250 1a ad 81 b8 77 9c 78 3c df 97 47 3b a9 ac dc 3c
       -6.183442e-05 0.015174023 0.0030455512 0.0269378
000260 48 2c e4 bd e9 ae 2c 3d 80 ae 0e bd 7d 57 a8 bd
       -0.111412585 0.042158995 -0.034834385 -0.08219812
000270 f1 37 90 3c ae b6 9d 3d 59 d6 b8 bc f5 02 7a bc
       0.0176048 0.07700859 -0.022563146 -0.015259494
000280 c6 e0 94 3c fe b1 84 3d 43 28 9e 3d a3 50 ac bb
       0.018173587 0.06479262 0.07722523 -0.005258636
000290 bc 92 3a 3b c1 30 4f 3d 91 16 4a 3c ca 21 d0 3c
       0.0028468808 0.050583605 0.012334482 0.025406737
0002a0 16 fe 71 bc e0 45 1c bd ad 46 d8 bb 06 42 e8 bc
       -0.014770051 -0.038152575 -0.006600222 -0.028351795
0002b0 28 50 43 3d de f5 9a 3d f4 32 32 3c f0 1e 29 bd
       0.047683865 0.07566427 0.010876406 -0.04128927
0002c0 fc cf 29 39 ef b1 9a bd 60 df 4e 3d d4 f6 ca bc
       0.00016194576 -0.075534694 0.050505996 -0.0247759
0002d0 ed 78 de bc 6a a3 20 bd a0 51 f0 3c 71 7d 1d bd
       -0.027157271 -0.039218344 0.029335797 -0.03844971
0002e0 dd 07 84 3d b0 03 99 bc e0 8f d5 3c 86 4e 45 3d
       0.06446812 -0.018678516 0.026069582 0.04817059
0002f0 b4 c1 c7 3c b4 d5 46 3d e6 fa 77 3d 49 5c db bc
       0.024384357 0.048543647 0.06054201 -0.026777403
000300 7a 5d 11 bd 9a 71 aa bd 8e 67 5a bd 08 81 72 3d
       -0.035489537 -0.08322449 -0.053321414 0.059205085
000310 d4 bb a4 bc cb 33 8a 3d 42 79 9a bb 6e 57 7f bd
       -0.020109095 0.0674816 -0.004714162 -0.06233924
000320 f0 80 39 3c 51 0b 5c bd 0b 5f d9 3c 76 69 a5 3c
       0.011322245 -0.05372173 0.026534578 0.02019189
000330 dd 69 62 bc fb 9c 89 ba bd 3f 43 3d 67 3d 0c 3d
       -0.013819185 -0.0010499054 0.047668207 0.034238245
000340 6d 45 ce bc dd e5 0d 3d 86 73 a2 bc 40 ba 01 bd
       -0.02517959 0.034643043 -0.019830476 -0.031671762
000350 01 de 8e 3d e3 6b 02 bc 98 d9 32 3d 83 ff b5 bd
       0.06975938 -0.0079602925 0.043664545 -0.088866256
000360 73 3a 99 bb 22 cd 20 3d d9 ba ae bc e0 c8 97 bd
       -0.004676157 0.03925813 -0.02132933 -0.07411361
000370 05 a2 b7 3b 18 0c 80 bd ef 4d 74 bd cc a2 64 bd
       0.005604031 -0.06252307 -0.059644636 -0.055819318
000380 d6 9a 71 3d 14 a5 34 bd 9a e4 59 bd df 28 1c 3d
       0.058985554 -0.044102743 -0.053196527 0.038124915
000390 21 a8 11 bd 4e 74 57 3d 44 ac 6d 3c ff 55 ec bc
       -0.03556073 0.05260115 0.014506403 -0.0288496
0003a0 ca 30 78 3d 15 1a 59 bc e2 a7 b6 bc 2b bc 0d bd
       0.060593404 -0.013250847 -0.02229685 -0.03460328
0003b0 cc 99 fe bb 2e bc 72 3d 95 51 a5 bc 44 68 61 bc
       -0.007769799 0.059261493 -0.020180503 -0.013757769
0003c0 7b de 7e bc 40 4d b9 bb 83 8c 1e 3d cf 46 ac bd
       -0.015555973 -0.005654961 0.03870822 -0.08411943
0003d0 d2 f7 a3 bc 5b 7e a1 3d b5 47 41 bc 9d d0 8c 3a
       -0.02001563 0.078854285 -0.011796881 0.0010743324
0003e0 34 8c 03 3d 9f 2e 31 bd b4 33 0a 3d f9 15 58 bd
       0.03211613 -0.043257352 0.033740714 -0.05275533
0003f0 de b1 bf bb b1 15 1c 3c 4b 94 93 3c 98 2a c6 bd
       -0.005850061 0.009526656 0.018015048 -0.09676093

conv2.bias f4 [32]
000000 d5 9a 3e bc f9 dd 5d 3d 3c 16 8b 3c 9a 47 25 bd
       -0.0116335945 0.054166768 0.016978376 -0.040351488
000010 5b 31 f4 bb 52 34 3a bd ac e8 36 bd 35 64 4f bd
       -0.0074521727 -0.045460053 -0.044655487 -0.050632674
000020 85 da 86 3d a7 94 48 bd 18 e9 48 3d 56 af 58 bd
       0.06584648 -0.04896989 0.04905042 -0.05290159
000030 4f fb 2f 3b ae 49 47 3d c9 6a 8f bc 7f 4f 9d bc
       0.0026852672 0.04865425 -0.017506974 -0.019202946
000040 58 aa f4 bc d0 13 d6 bc 78 28 c3 3c 2f a3 26 bd
       -0.029866382 -0.026132494 0.023823008 -0.040682968
000050 95 17 18 bd cd 6b 67 3d b3 96 71 3d cd 39 25 bc
       -0.037131865 0.05649929 0.05898161 -0.010084582
000060 3a 00 e6 ba cf 22 27 3b 6b 87 54 3d ce 22 85 bd
       -0.0017547675 0.0025502925 0.051886957 -0.06500779
000070 08 dc 64 bd 31 81 19 3d 48 3e 9a 3c 84 9f 1f bc
       -0.0558739 0.037476722 0.018828526 -0.009742621

batch2.weight f4 [32]
000000 e5 cb 8f 3f 74 22 5b 3f b1 70 86 3f 2e 87 68 3f
       1.1234099 0.85599446 1.0503141 0.9083127
000010 b2 57 71 3f 8f cd 77 3f 46 66 88 3f 1e a4 78 3f
       0.9427444 0.9679803 1.0656211 0.9712542
000020 4b 11 88 3f df 27 92 3f 27 a5 88 3f 40 3d 8b 3f
       1.0630277 1.1418418 1.06754 1.0878067
000030 16 bf 6e 3f c1 17 85 3f 6e 33 69 3f 4e f2 81 3f
       0.93260324 1.0397874 0.910941 1.015207
000040 26 74 81 3f a7 bb 71 3f bc 18 84 3f 77 8d 77 3f
       1.0113571 0.9442696 1.0320048 0.96700233
000050 fb bd 84 3f 95 e5 88 3f 3a 9b 81 3f a6 4d 63 3f
       1.0370477 1.0695063 1.0125496 0.8879036
000060 cd 51 84 3f 99 d7 88 3f 22 d9 64 3f cc 16 86 3f
       1.0337464 1.0690795 0.8939382 1.0475707
000070 a7 64 93 3f e7 c2 8b 3f 58 2e 71 3f ab 3b 88 3f
       1.1515092 1.0918854 0.9421134 1.0643209

batch2.bias f4 [32]
000000 a2 84 1c bd 3f e8 c7 bd f3 bf 1e 3e 9b 3b 02 be
       -0.038212426 -0.09761094 0.1550291 -0.1271805
000010 c8 10 1b be 2c c0 cc bd 56 7c 63 bd cb 70 e6 bd
       -0.1514312 -0.099975914 -0.055538498 -0.11251982
000020 32 4f 42 bd 0b d1 ba 3d f9 73 9c 3d 4f e2 cd bc
       -0.047438808 0.09121903 0.076393075 -0.025132326
000030 4a 97 a6 bc 2a 1d 7a bc 20 9c aa bd 2d 2d 0f 3d
       -0.020335812 -0.015265742 -0.0833056 0.034955192
000040 f4 67 b4 3c d5 ae 3b be 32 f7 f5 bd 14 13 00 be
       0.022022225 -0.18328412 -0.120100394 -0.12507278
000050 45 bd c0 3d 86 b8 bf 3b b9 9b 52 3d f3 ba 20 be
       0.094111 0.0058508543 0.05141804 -0.15696315
000060 e5 96 7c 3e f8 a8 b3 3d 46 9a 03 be ab 8d d9 bd
       0.24666937 0.087724626 -0.1285182 -0.10622724
000070 bd b8 48 3b bc 60 be 3d d9 4f 5a be 14 cb 2c be
       0.003062769 0.09295794 -0.21319522 -0.16874343

conv3.weight f4 [32, 32, 3, 3]
000000 6e dc 51 3d aa 12 83 3d fc 4c c0 bd 71 dc 8a 3c
       0.05123561 0.06400044 -0.093896836 0.016950818
000010 f0 55 ba 3c a3 a3 6e bd 06 9d c9 bd 45 cb c6 3c
       0.022746056 -0.058261525 -0.09844403 0.024266848
000020 a3 7b 91 3d 83 0b fc bb 4b e2 c0 bd 38 60 1b 3b
       0.0710366 -0.007691802 -0.09418162 0.0023708474
000030 bf 64 0e bd 6a 1a 75 bd 6f 5f 8d 3c 62 54 22 bc
       -0.034764048 -0.059839644 0.01725742 -0.009907814
000040 6b 7b 07 3d d6 33 e3 3c 4c 97 86 3d da b1 3c 3c
       0.033076685 0.027734678 0.06571826 0.0115170125
000050 f9 dd 1b 3d 56 d0 22 3d a2 03 fa b9 a6 ab 3e 3d
       0.038053486 0.039749466 -0.00047686422 0.046550415
000060 5a 25 95 bd 0e 06 42 3d 6c 99 aa bc 01 3a 3f 3c
       -0.07282515 0.047369055 -0.02082511 0.011671544
000070 c6 ea ba 3d 5f 51 57 bd 5a 11 21 bb 4c d9 a0 3d
       0.09126811 -0.052567836 -0.0024576993 0.07853946
000080 7a 0c 81 3c ca 00 99 bd 37 e9 b9 bd 10 40 a5 bd
       0.01575302 -0.074708536 -0.09077685 -0.080688596
000090 88 4c 27 bd af f9 cb 3c 06 27 79 bc 20 7a 2a 3b
       -0.04084447 0.024899332 -0.015207058 0.0026012734
0000a0 54 2b 08 3d 1a 12 01 3d df 58 17 3d ab 4f ad ba
       0.033244446 0.031511404 0.03694999 -0.0013222595
0000b0 4b 58 31 3d 1a 0c 0d 3d 65 c0 46 3d 9d 20 f4 bc
       0.043297093 0.03443537 0.048523325 -0.029800707
0000c0 fd 20 cf bc 7d 2d 50 3d 33 3a f8 3c 4f 8a af 3b
       -0.025284285 0.05082463 0.030301189 0.005357064
0000d0 3b 2a 8a bd 46 10 22 bb 33 1d fe ba 1d 47 3f bd
       -0.06746336 -0.0024728938 -0.0019387364 -0.04669868
0000e0 a7 4e 24 bd 2e 2a e2 3c b3 77 97 bc 69 b4 86 3d
       -0.04011407 0.027608003 -0.018489694 0.06577379
0000f0 9e 12 17 3d 0c c1 86 bc 83 ab 42 3d 4e 6c 96 3c
       0.03688299 -0.016449474 0.047526848 0.01836219
000100 d9 8d 82 3b 33 f1 00 bd 95 ba f8 bc 72 25 4f 3c
       0.0039841947 -0.031480026 -0.030362407 0.012643205
000110 c7 90 9e 3c af 33 01 be 57 5f c2 bd e3 74 16 3c
       0.019356145 -0.12617372 -0.09490841 0.009183141
000120 6c 03 c9 3b a4 9d 62 bd 70 a2 5e bd 30 5b 9a bd
       0.006134441 -0.05532612 -0.05435413 -0.07536924
000130 01 80 0f bd 99 fe af 3d 21 0f 9a bc 6e 1e dd 3d
       -0.035034183 0.085934825 -0.018806042 0.107968196
000140 99 cb 1e bd 1b e5 51 3d 9d 0c b2 bd b5 ca d6 3d
       -0.038768385 0.051243883 -0.08693812 0.10487882
000150 e4 b7 39 bd b1 b8 a4 bd 25 6a 27 3b d2 9d 5d bc
       -0.045341387 -0.080430396 0.0025545445 -0.013526397
000160 bc d8 9a 3c 92 2f 53 3d ec 28 8e 3d 8d 90 b4 3b
       0.018902175 0.05155904 0.06941399 0.005510396
000170 55 54 3e bd 84 f3 94 3c c6 fc 60 bc 07 d0 47 3d
       -0.046467144 0.018182524 -0.013732141 0.048782375
000180 71 27 55 3d 8d 51 75 bd e5 3a 8d bd 71 7e 94 bc
       0.052039567 -0.059892226 -0.06895999 -0.018126698
000190 86 72 89 3d 39 53 dd bd 38 05 56 bc 61 31 01 bd
       0.06711297 -0.10806889 -0.013062768 -0.031541232
0001a0 ec 5f 44 bb 98 40 46 3d 2a 43 d2 bc 33 2a b0 39
       -0.00299644 0.048401445 -0.025666792 0.00033600777
0001b0 45 ce 3d 3d 64 d1 42 3b f1 5e 3f bc fc c5 12 bd
       0.046339292 0.0029726857 -0.011680351 -0.035833344
0001c0 59 c1 a6 bc 45 96 c4 bc d1 a6 c0 3d b8 ad 06 bd
       -0.020355867 -0.023997435 0.09406818 -0.032880515
0001d0 dd 1c bf bc 02 6c 83 3c 22 3e d0 bc ae de 6d bd
       -0.023329193 0.016042713 -0.025420252 -0.058073692
0001e0 f1 39 72 3d 31 27 40 bd 3b a1 13 bd 54 45 42 bd
       0.05913729 -0.046912376 -0.036042433 -0.047429398
0001f0 65 d3 0e 3d 1c f9 9c ba ff 19 5c bd 51 2a 1c bd
       0.03486957 -0.0011976096 -0.05373573 -0.038126294
000200 87 9c 60 bd ec 7b bc 3c b3 76 de bc 27 9d 6d bd
       -0.054836776 0.02300831 -0.02715621 -0.0580112
000210 cc 99 3c 3d 5d 1c 44 bc 3d d6 26 3d f2 f0 38 bd
       0.04604511 -0.011969653 0.040731657 -0.04515166
000220 21 f4 de bc 17 cc 10 bd 5a 50 18 3d 44 a9 6f bc
       -0.02721602 -0.035350885 0.037186004 -0.014627758
000230 c5 7a 94 3d 9c c4 62 3d ef 5e 6a bc f8 fd 8d bd
       0.07249979 0.055363283 -0.0143048605 -0.06933206
000240 5a d8 00 bd e1 42 83 3d 1f 4a 16 bc 60 d4 4f bb
       -0.03145633 0.064092405 -0.009172945 -0.0031712279
000250 8c 80 91 3b 0c af 40 3c 10 73 c4 3c b3 76 2f bd
       0.004440373 0.011760484 0.023980647 -0.04283781
000260 62 48 47 3d e9 2e 11 3c 0b 7e 92 bb 5b fb 18 bd
       0.048653014 0.008861282 -0.004470592 -0.037349086
000270 83 f1 4e 3d bd 20 2c 3c 5d 70 bc bd 0a 5a b4 3c
       0.050523292 0.010505852 -0.09201119 0.02201559
000280 c1 4f be bc 42 59 02 3e f7 88 a9 3c ca f6 17 bc
       -0.023231389 0.12729362 0.020695193 -0.009275148
000290 76 b8 c7 3c 50 67 36 3d 5e 4d 19 ba dd 48 c0 3d
       0.02437995 0.04453212 -0.00058480154 0.093888976
0002a0 aa 49 c6 3d b6 97 21 bd 80 5e 16 ba 44 61 49 3c
       0.09682019 -0.039451323 -0.00057361275 0.012291256
0002b0 3e 1f 6d bd 32 a1 a5 bc 07 14 71 bc 8f 1d e3 bc
       -0.057891123 -0.020218465 -0.014714248 -0.027724056
0002c0 54 2f 76 bc 47 e9 9c bb 43 21 06 bd 43 9f 8a bd
       -0.015025932 -0.004788551 -0.032746565 -0.06768658
0002d0 e4 eb 9d bd 62 ac 39 3d 5d a8 a6 3b d6 cc bb 3c
       -0.07711008 0.045330413 0.0050859884 0.022924822
0002e0 33 50 80 bc c7 79 d5 bd 93 97 ba bc e2 35 ae bd
       -0.015663242 -0.10423618 -0.022777354 -0.08506371
0002f0 4a 04 9c 3d 41 9c 04 3d 11 04 ac 3c 31 96 f3 3c
       0.076180056 0.032375578 0.020998033 0.029734703
000300 20 59 23 bd 2d ac 97 bc 57 7d a1 3d b2 f9 0e 3d
       -0.039879918 -0.018514717 0.07885235 0.034906097
000310 32 35 42 3d b6 69 99 bd d5 8e ef bc 19 2f 36 3d
       0.047414012 -0.07490866 -0.029242912 0.04447851
000320 90 87 95 3c 2a bc 8b bd 05 69 85 3d 75 bb 57 bd
       0.018253118 -0.06822999 0.065141715 -0.052669007
000330 70 68 35 3c c8 14 68 bd a6 cc 1f bc 9a 83 18 bd
       0.011072263 -0.056660444 -0.009753382 -0.03723488
000340 b3 8e 03 bd bc eb cb bb 97 0e a3 bc 97 0e 4a 3c
       -0.03211851 -0.00622317 -0.019904418 0.01233258
000350 78 d1 fe bc 3d e9 53 bd 4b bd 29 bd ca 3e b0 bd
       -0.031105742 -0.051736105 -0.04144029 -0.08605726
000360 dc 42 25 bc 89 d6 35 3d d3 05 2c bc 00 28 9a 3c
       -0.010086741 0.04439405 -0.0104994355 0.018817902
000370 55 f7 1d 3c 44 44 27 3d 3d 16 1b bd 23 e2 5f bd
       0.009641488 0.040836588 -0.037863005 -0.05465902
000380 57 60 31 3d 11 b5 18 bc eb ca 5a 3d 85 81 23 3d
       0.043304767 -0.009320513 0.053416174 0.03991844
000390 45 df 5d bd aa 08 d5 3b 80 b6 99 3c e6 4f df bc
       -0.054168005 0.006501277 0.01876378 -0.027259778
0003a0 ef 2c 61 bd 14 b8 2f 3c 97 6a ff 3c ea 80 2c 3d
       -0.054974493 0.01072504 0.031178756 0.04211513
0003b0 f2 c0 88 bd 7e d9 33 bc 26 59 e1 bc bf f2 16 3d
       -0.066774264 -0.010977147 -0.02750833 0.036852594
0003c0 bf f6 04 bd 4c 6c 06 bc 22 01 27 bd 00 b0 e7 3b
       -0.032461878 -0.008204531 -0.040772565 0.0070705414
0003d0 a0 6b c6 bd 4a 7a d9 3a 72 f2 e4 bc 25 68 e1 bb
       -0.096884966 0.0016592231 -0.027947638 -0.00687887
0003e0 c9 2d 82 3d 9c 31 b1 bd 26 b0 81 3d d0 2e 82 3d
       0.06356389 -0.0865204 0.06332426 0.06356585
0003f0 5f 82 b8 3c 63 d5 20 bd dc c5 36 bc 03 d2 04 3d
       0.022523103 -0.039266 -0.011155572 0.032426845

conv3.bias f4 [32]
000000 2d 48 17 3d 7c 79 84 3c 47 76 64 bb b7 72 19 bd
       0.036934067 0.01617121 -0.0034860538 -0.037462916
000010 2c 0d 03 bd ca d6 28 3b 2e fa 00 bd b2 43 09 3d
       -0.031994984 0.002576279 -0.03148859 0.033511825
000020 eb 64 12 bd dd 82 69 bd 16 06 43 3d c4 0c 2c bd
       -0.035740774 -0.057009567 0.047613226 -0.04200436
000030 8a 4c 53 3c 2a c5 33 3d a1 d1 0f 3b 8b bf 63 3d
       0.012896666 0.043889202 0.0021945017 0.05560259
000040 3b 63 9f bc d2 cd 57 bd 84 33 41 bd 70 40 7d 39
       -0.019456496 -0.05268652 -0.04716827 0.00024151965
000050 40 81 0e bd 43 85 e5 bc b2 5d bc 3c 76 99 6b 3d
       -0.03479123 -0.028017646 0.022993896 0.0575194
000060 14 ba 1c 3d f5 ba cf 3c 7b 06 70 bd 88 3d 62 bc
       0.038263395 0.025357703 -0.05859993 -0.0138086155
000070 91 d9 0e 3d ec d3 75 3d ed 7b 30 bc d6 f8 c0 3c
       0.034875456 0.060016558 -0.010771734 0.023556154

batch3.weight f4 [32]
000000 74 4b 7a 3f 7f a1 79 3f e1 7d 82 3f f2 1c 72 3f
       0.9777138 0.9751205 1.0194665 0.9457542
000010 a1 bc 7d 3f 2a d5 82 3f 15 2a 7e 3f 1d 61 81 3f
       0.9911595 1.0221303 0.9928296 1.0107762
000020 18 65 80 3f 02 4a 80 3f 9b 7b 79 3f 07 1d 82 3f
       1.0030851 1.0022585 0.9745423 1.0165108
000030 24 98 7b 3f ee 7c 84 3f 96 fd 6d 3f c4 e2 81 3f
       0.98279023 1.0350626 0.92965066 1.0147328
000040 aa c9 7c 3f 6e 26 81 3f f6 e7 85 3f 3f 31 77 3f
       0.98745215 1.0089853 1.0461414 0.9655952
000050 5f 94 80 3f 28 8c 82 3f c6 dd 71 3f 4f 97 82 3f
       1.0045279 1.0199022 0.94479024 1.0202426
000060 98 8b 87 3f 88 f5 80 3f c9 bc 73 3f 5e b3 7c 3f
       1.0589476 1.007493 0.9520994 0.9871119
000070 91 90 81 3f df 5a 7c 3f ab f1 86 3f 28 a8 7a 3f
       1.0122243 0.9857616 1.0542501 0.97912836

batch3.bias f4 [32]
000000 a8 57 b2 bd 51 07 1c bd d5 bd ae bd 73 d7 f3 bd
       -0.08708125 -0.038092915 -0.08532301 -0.11906328
000010 c8 d6 6c bd a3 5d 39 3d 66 a7 b8 bd b2 83 0e 3d
       -0.05782202 0.045255315 -0.09016304 0.034793563
000020 f9 06 bc bd 8c 40 52 bd 6d 0d c9 bd 10 45 60 bc
       -0.091810174 -0.051331088 -0.09817014 -0.013688341
000030 d2 69 0a be bf ee c5 bd 35 01 94 bd ab 24 e2 bd
       -0.1351693 -0.09664678 -0.07226793 -0.1104215
000040 fe d1 08 be 30 a8 08 bd 96 1b f1 bd ac a0 1f be
       -0.13361356 -0.03336352 -0.1177284 -0.15588635
000050 a1 2f e2 bd 77 b1 67 bd 38 a1 fa 3c 13 d9 80 bd
       -0.11044241 -0.056565728 0.030594453 -0.062914036
000060 ac 79 83 bd 1a ee f9 bd cd fe 3b be df 24 70 bd
       -0.064196914 -0.122036174 -0.18358918 -0.058628913
000070 61 ec d3 bc 5f 3e 0e bd c2 82 11 3d e0 6d 15 bd
       -0.02586955 -0.03472745 0.03552509 -0.036481738

conv4.weight f4 [32, 32, 3, 3]
000000 e3 6e 2a bd d5 27 4a bd 01 c1 2f bd 56 93 84 bc
       -0.041609656 -0.049354393 -0.042908672 -0.016183536
000010 36 4a cb bc 99 a7 46 bd 89 dc a5 bc 49 de ed bc
       -0.02481566 -0.048499677 -0.02024676 -0.029036658
000020 6c 98 f0 bc 28 16 27 bd 99 5f d1 bc 4b 34 d1 bb
       -0.029369555 -0.040792614 -0.02555828 -0.0063844076
000030 00 da 0a bc 78 a3 25 bd c3 9c bf bc 4e ca 0e bb
       -0.008474827 -0.0404391 -0.02339018 -0.0021788063
000040 90 66 0e 3c 17 0c 0c 3c 9b 0a ba 3c db 83 58 3b
       0.008691445 0.008547804 0.022710135 0.0033037576
000050 82 36 8f 3c a7 df ef 3c 65 2c 0b 3c c1 ad 90 3d
       0.017482046 0.02928145 0.008494471 0.07064391
000060 08 17 f5 3c 48 be 27 3c 52 0b 38 bc b9 af 8b 3d
       0.029918209 0.010238238 -0.011233168 0.06820626
000070 53 9d f7 3c 13 96 66 3d 81 f7 16 3d 24 07 2c 3d
       0.030226385 0.056295466 0.036857132 0.041998997
000080 5c 98 96 3d 9b 6e 2b 3d 46 6b 2a 3d 53 c1 9b 3c
       0.07353279 0.04185353 0.04160621 0.019013083
000090 65 4b a2 3a 8d 94 9c 3b f6 fa cc bc 07 21 94 bc
       0.0012382088 0.004778451 -0.025022011 -0.018082155
0000a0 af 9a b2 3c 3b 58 cf bc 08 10 2d 3b 9a fe 98 b8
       0.021802275 -0.025310626 0.002640726 -7.295348e-05
0000b0 55 9a 7a bc e0 9c 71 bd 08 98 33 bd 29 61 8f bd
       -0.015295585 -0.0589875 -0.04384616 -0.07000954
0000c0 68 1d 65 bd 7f a4 e3 bc 00 1e b3 bd d9 04 87 bd
       -0.055936247 -0.027788399 -0.087459564 -0.065927215
0000d0 e1 4d 62 bd d1 e4 8b bd 9a 3b 3c bd b0 58 4c bd
       -0.055250052 -0.06830753 -0.045955278 -0.049889266
0000e0 a2 db 21 bd 91 10 2c bd 60 fd 2b bd f0 3a 17 bd
       -0.0395161 -0.042007986 -0.041989684 -0.03692144
0000f0 16 4d ed bc 66 71 f1 bc c3 f7 75 bd 94 8b 83 bd
       -0.028967422 -0.029473018 -0.060050737 -0.06423107
000100 9c ea 37 bd 45 e4 4a bd 1d 2a 37 bd 2a bc be bc
       -0.044901475 -0.0495341 -0.044717897 -0.023283083
000110 4b c8 11 bd 95 b5 56 bd ad e7 df ba a7 f8 3c bd
       -0.035591405 -0.052419264 -0.0017082595 -0.04613557
000120 0a 3f a3 3d 12 17 8a 3d 9c 93 af 3d 28 c8 c1 3d
       0.07971008 0.067426816 0.08573076 0.09462005
000130 d7 46 5e 3d 87 de a8 3d 9a 47 a1 3d ca ff 0a 3d
       0.054266777 0.08245569 0.07874985 0.033935346
000140 2d c9 cd 3d 10 f5 b3 3c 99 be 12 3d 58 20 07 3d
       0.10048137 0.02196744 0.0358263 0.03298983
000150 99 cb c5 bb f1 dc b3 3c fc 6f 86 3c b5 ff 9f 3c
       -0.0060362336 0.021955939 0.01641082 0.01953111
000160 90 91 5b 3c 59 68 37 3d 97 f0 a3 3d 37 b4 b5 3c
       0.013401404 0.044777248 0.08004873 0.02218066
000170 b2 e9 91 3d 8e 03 53 3d 08 4f 02 bb 94 75 45 3d
       0.07124652 0.051517062 -0.0019883532 0.048207834
000180 9d f7 92 3d 8e 28 16 3d 75 46 87 3d 7f d6 a5 3c
       0.07176135 0.03665977 0.066052355 0.020243881
000190 38 a4 56 bc 2a 14 ac bc 3f a3 44 bb 32 6a 4c bb
       -0.013100676 -0.021005709 -0.0030004529 -0.0031191227
0001a0 82 a8 0b bd cd 32 b1 3c a8 da dc 39 24 fe ab bb
       -0.03409625 0.021630669 0.00042124582 -0.005248802
0001b0 86 be 04 bb 44 40 3e bc 2d 26 13 3b f4 1c 3e bc
       -0.0020255162 -0.011612002 0.0022453174 -0.011603583
0001c0 83 bf 85 3c 3a 0a 88 bc e1 3e f8 3b 14 3c 2b bc
       0.016326671 -0.016606439 0.007575855 -0.010451335
0001d0 78 a4 9c 3c 31 ee bf 3c d2 15 5f 3c df 0a 49 bb
       0.019121394 0.023429008 0.013616042 -0.0030676646
0001e0 4c 37 99 3b 03 12 89 bc 55 9f 36 3c 52 ff c2 3c
       0.0046757814 -0.016732221 0.011146386 0.023803387
0001f0 ed 06 fa 3b 96 66 0c bc 5d de 58 3d 23 e5 0f 3d
       0.00763022 -0.00856938 0.052946437 0.03513063
000200 56 fa 12 3d 79 e8 9e 3c f1 a6 0f 3c f1 4d b1 3b
       0.03588327 0.019397961 0.008767829 0.0054109027
000210 91 11 b7 3c ec 71 99 bc 39 56 c4 3c ad 05 6f bd
       0.022347244 -0.01873108 0.023966895 -0.058355022
000220 fe 37 f6 bc 59 16 ac bc 39 62 94 bc 10 08 e6 bc
       -0.030055996 -0.02100675 -0.018113242 -0.028080016
000230 f8 c8 60 bb c2 de fe bc a9 b4 a8 bc ca c3 32 bd
       -0.0034299474 -0.031112079 -0.020593958 -0.04364375
000240 03 55 72 bd 00 96 53 bd 58 eb a4 bc 8f 01 16 bd
       -0.059163105 -0.051656723 -0.020131752 -0.03662258
000250 36 9c 5c bc 29 5e 2e bd 30 57 63 bd 73 db f0 bc
       -0.013464978 -0.042570267 -0.05550307 -0.029401517
000260 0f 32 a3 bc 88 cc c4 bd 7f f2 66 bd 13 e0 6b bd
       -0.01992133 -0.09609324 -0.056383606 -0.05758674
000270 e4 8e 8d bd 02 75 48 bd 0b 7d 9e bd 56 44 b9 bd
       -0.0691202 -0.048939712 -0.07738694 -0.09046237
000280 65 ae 80 bd 8f 60 88 bd cf 0c 75 3c bb f6 ad bb
       -0.06283263 -0.06659042 0.014956667 -0.0053089536
000290 05 bb 75 bb db 50 8f bb 29 0c 85 bc fc 94 a0 bc
       -0.0037495506 -0.0043736524 -0.01624115 -0.019602291
0002a0 41 9c 8d bc 53 0a b6 3c a8 c9 db 3b 3e 08 5d bd
       -0.017286422 0.02222172 0.006707389 -0.05396294
0002b0 f2 1b f8 bc de 66 49 bd 11 49 0a bd ad d9 36 bc
       -0.030286763 -0.049170367 -0.033761088 -0.011160296
0002c0 e4 30 ff bc d8 f1 1b bd c4 21 72 bc 1d d3 58 bd
       -0.031151243 -0.038072437 -0.014778558 -0.05293571
0002d0 60 8b a0 3d d7 95 97 3c af b7 57 3d 11 91 ac 3d
       0.07839084 0.018504066 0.05266541 0.08426107
0002e0 46 d3 d8 3c 90 53 4f 3d ae 60 82 3d 6f 11 31 3d
       0.02646793 0.0506168 0.063660964 0.043229517
0002f0 46 92 61 3d 50 1b bf bc 21 21 66 bc f3 46 85 3b
       0.055071138 -0.023328453 -0.0140459845 0.0040672957
000300 01 88 aa 3c 6f 09 13 bc ef ef 8f 3c ed 67 89 3c
       0.020816805 -0.008974417 0.017570464 0.016773188
000310 ee 25 8f 3a 7d 3c 07 3b 26 47 b4 bc 57 7f 3a bd
       0.0010921338 0.002063542 -0.022006582 -0.045531597
000320 9b 6d 18 bc c2 a4 06 bd ea 4e b5 bc 86 78 2d bd
       -0.009303476 -0.03287197 -0.022132356 -0.04235127
000330 13 7f 57 bd 66 ce 01 bd d7 cf 0f bd aa c1 26 bd
       -0.05261142 -0.031690978 -0.03511032 -0.040712036
000340 92 fb e7 bc 2b b1 c0 bc 86 83 39 bd 58 81 00 bd
       -0.0283182 -0.02352198 -0.045291446 -0.03137335
000350 bf c3 05 bd fe ae 0a bd 9c fd 8e bc 17 f5 df bc
       -0.03265738 -0.03385829 -0.017454915 -0.027338548
000360 9c d2 2f bc a3 95 b3 3c 78 1c 17 3c 58 ed 97 bc
       -0.0107313655 0.021921938 0.009223096 -0.018545792
000370 00 1a 3e bd b5 da 84 38 22 94 34 3a 33 bc f8 bc
       -0.046411514 6.334988e-05 0.00068885286 -0.030363178
000380 37 81 f8 3c 5b a1 a7 bd d4 7b 72 bc b0 cc 3d bc
       0.030335052 -0.08185073 -0.014800031 -0.011584446
000390 ec d8 cb bc 3d f9 00 bc 59 6b ea bb cd 41 0a bd
       -0.02488371 -0.007871923 -0.00715391 -0.03375416
0003a0 18 38 23 bc 30 eb d6 bb 0c 47 04 3d 51 e4 9f 3c
       -0.009962104 -0.0065587983 0.032294318 0.01951805
0003b0 62 08 b9 3c c8 af 3f 3d e6 8f d5 3c 03 0e 87 3c
       0.022587005 0.046798497 0.026069593 0.016486173
0003c0 31 ec 1f 3d f4 5b 34 3d 06 ca 8c 3c f6 87 0c 3d
       0.03904361 0.044033006 0.017186176 0.03430935
0003d0 20 8e 4f 3d a0 e1 2e 3d 6d 83 11 3b 07 93 37 3d
       0.05067265 0.04269564 0.002220358 0.04481795
0003e0 d8 52 a8 3c 72 42 f1 3c 93 e3 23 3d 35 77 2f 3d
       0.020547315 0.029450629 0.040011954 0.042838294
0003f0 cd 26 3d bd a9 9c 07 bd 52 c6 9f bc 29 00 7d bd
       -0.04617958 -0.033108387 -0.019503746 -0.06176773

conv4.bias f4 [32]
000000 98 7b 89 bd fa a9 f4 bc 0d a3 62 bc 5c 51 2a bc
       -0.06713027 -0.029866207 -0.01383282 -0.010395374
000010 b0 dc 4a 3d d4 49 a8 bc 06 2f 40 3d 35 b8 40 bd
       0.04952687 -0.020543016 0.046919845 -0.047050674
000020 fd d4 8d 3b 41 87 bf 3c bf 8d 49 3d 99 71 cb 3c
       0.0043283687 0.023379924 0.049207445 0.024834441
000030 ce 1c ce 3c e2 09 3e 3b 8d 02 0a bd d9 85 5f bd
       0.02516022 0.002899759 -0.03369384 -0.054571006
000040 83 79 24 bd 55 2d 09 bc 41 22 12 3b 7b 1e 8a 3b
       -0.040154945 -0.008372624 0.002229825 0.0042150593
000050 1b 37 f0 bc a3 8d 32 3c 43 8c 14 bd f6 9c 20 bd
       -0.029323151 0.010898027 -0.036266576 -0.03921219
000060 f6 c8 47 bc 7c fb 8b bd 8e f7 81 bd c6 b6 43 3b
       -0.012193909 -0.06835076 -0.063460454 0.002986358
000070 98 18 44 3d 01 db b2 bc f6 6d be bc 72 c7 77 3c
       0.047875017 -0.021832945 -0.023245793 0.015123235

batch4.weight f4 [32]
000000 a8 b5 f3 3f 99 0c a4 3f 22 7c f8 3f 06 c2 59 3f
       1.9039812 1.2816344 1.9412882 0.8506168
000010 38 36 f2 3f 8a cd c3 3f 47 42 a5 3f fb d6 ab 3f
       1.8922796 1.52971 1.2910851 1.3424982
000020 73 7b f7 3f 92 a4 f5 3f 12 47 0e 3f 74 2e b5 3f
       1.9334549 1.9190848 0.55577195 1.4154801
000030 fd be c5 3f 99 2e 51 3f e2 fb 28 3f 49 44 b7 3f
       1.544891 0.8171173 0.6600934 1.4317714
000040 47 37 ac 3f 18 4f eb 3f 1c 51 d9 3f da 46 f1 3f
       1.3454369 1.8383512 1.6977878 1.8849747
000050 c3 b0 85 3f ee 5c d6 3f ac ac db 3f 3f 6d 04 3f
       1.0444568 1.674711 1.716207 0.51729196
000060 cf bd 00 40 d7 1d f6 3f 33 1c d3 3f 34 ca 02 40
       2.011585 1.9227856 1.6492981 2.0435915
000070 ee a5 e1 3f cc 83 e1 3f 40 21 ed 3f 81 29 ea 3f
       1.7628763 1.7618346 1.8525772 1.8293916

batch4.bias f4 [32]
000000 9e 62 94 3d 76 03 1a bd 2e 3d 86 bd e7 c3 71 be
       0.07245372 -0.037600957 -0.06554638 -0.23609887
000010 70 b6 b2 3b 2f fc 34 bd 48 19 09 be 68 19 fa bd
       0.005453877 -0.044185814 -0.1338855 -0.12211877
000020 5e c9 31 bd 5c f7 c7 bd bf 21 e8 be 59 6d 53 be
       -0.04340493 -0.09763977 -0.45338246 -0.20647182
000030 44 2f d6 bc 3d 92 87 be af a3 cc be a0 c4 60 bc
       -0.026145585 -0.26478758 -0.3996863 -0.013718754
000040 5c bf cb bd 30 25 5f bd 46 97 93 bd fc ff 78 3d
       -0.09948608 -0.054478824 -0.072065875 0.060791
000050 0d 68 35 be 99 2c b1 bd c4 8c 2d be 3a 3f e7 be
       -0.17715473 -0.086510845 -0.16948229 -0.45165426
000060 97 5a c6 3d 82 8f c8 3d 85 d2 15 bd 14 7a 63 bc
       0.096852474 0.09792997 -0.03657772 -0.013884086
000070 de e6 82 bd 5e 9d 01 bd c1 b0 ee 3c 22 a4 91 bd
       -0.06391691 -0.031644218 0.029137017 -0.07111384

lin1.weight f4 [5, 800]
000000 52 27 77 3a 45 e8 93 3a c8 4c 4f bb af d8 b8 3b
       0.00094281614 0.0011284432 -0.0031631459 0.005641065
000010 8b b1 07 bc 9b 8f 31 bc c6 44 6d bc 25 99 d8 bb
       -0.008282076 -0.010837461 -0.014481729 -0.006610053
000020 a4 35 13 3c 3d 3c 29 bc f8 10 1c bc f2 a1 33 bc
       0.008984957 -0.010329303 -0.00952553 -0.010963904
000030 f2 ac dd 3b c7 3d 01 bb 1d 90 a7 bb 01 8d d5 bb
       0.0067650015 -0.001972066 -0.005113615 -0.006517053
000040 ab 7b 14 3c 11 6a b8 bb 08 34 6f bc eb 82 37 3b
       0.009062688 -0.0056278785 -0.014599808 0.0028001617
000050 05 50 1a 3b bd 0b 12 3a 09 f3 db 3a 2f c2 e0 3b
       0.002354623 0.0005571207 0.0016780804 0.006859086
000060 4f b9 9c 3b ad 34 a2 bb 9a 9c 77 bc 84 6d 6b 39
       0.0047828327 -0.004950127 -0.01511302 0.00022452144
000070 87 33 b9 ba 0f 85 89 3c 7f 05 70 ba db 26 f0 3a
       -0.0014129736 0.01678708 -0.00091560924 0.0018322127
000080 6e 4d d1 3b b0 0a 85 bb 9a 7d 6b 3c da 66 29 3c
       0.006387404 -0.004060112 0.014373207 0.010339463
000090 8a 73 70 3b 9e 30 f7 ba 5b 97 82 3c 1c bb 85 3b
       0.003668996 -0.0018859094 0.015941313 0.004081143
0000a0 39 a5 b0 bc 51 98 00 bb d0 aa 42 bb 23 be 0b bc
       -0.02156316 -0.0019622038 -0.0029703863 -0.008529219
0000b0 34 f4 93 bb e8 ba 2b ba fb 84 09 3c 7e 72 36 3b
       -0.0045151953 -0.00065509835 0.008393521 0.0027839239
0000c0 f0 53 87 b9 71 d5 28 bb 91 e1 85 bc 7c 7a 9d bc
       -0.00025811745 -0.0025761987 -0.01634291 -0.019223444
0000d0 4e 96 82 3a 07 b7 e4 3b f5 35 29 3a b4 43 40 bb
       0.0009963007 0.0069798264 0.00064548786 -0.002933723
0000e0 2f 80 56 bc 3c 8f e9 3b b1 f2 65 bc ab 41 a4 bb
       -0.013092085 0.0071276706 -0.014034913 -0.005012711
0000f0 bc 7f 78 3c 4a b8 83 3c 99 06 8b 3b 0b 20 9f bb
       0.015167173 0.016079087 0.00424273 -0.0048561147
000100 4d 40 f3 bb 5c 5c 3f 3c ae 46 2a 3c fb 9e 18 ba
       -0.0074234367 0.011679735 0.010392828 -0.000582203
000110 ac d9 18 bc 53 4b 3f bb 9b ed 4f bb 54 56 4a bc
       -0.009329241 -0.0029189184 -0.0031727317 -0.012349684
000120 d7 d8 a9 ba a0 a0 2b 3c d9 67 c9 bb fe 81 80 bb
       -0.00129583 0.010475308 -0.006146413 -0.0039217463
000130 99 dd 2b 3c 9d 69 41 bc 96 06 27 3b 20 5f 26 3c
       0.010489845 -0.011804965 0.0025486103 0.0101545155
000140 82 e3 a0 3b 3f 0e 81 bc f6 f8 80 3b 26 7d 51 ba
       0.0049099335 -0.015753863 0.0039359285 -0.0007991366
000150 12 c2 f4 3b 9a 5d 29 3c 32 99 51 39 61 b1 45 ba
       0.007469424 0.010337258 0.00019988863 -0.0007541385
000160 08 27 29 bb 74 f9 5b bc b4 a8 b4 b9 b2 39 17 3c
       -0.0025810618 -0.0134261735 -0.0003445797 0.009230064
000170 c0 13 a9 3b 3f 7d 64 3c 29 7e 81 37 c4 08 db ba
       0.005159825 0.013945877 1.5436746e-05 -0.0016710986
000180 e0 c4 34 bc c4 c5 47 3c a4 65 23 bc 1c 29 5e 3c
       -0.011033267 0.012193147 -0.0099729635 0.013559606
000190 e0 de 34 3b e3 8e 63 bc ea 01 b9 3a 81 be 2f bc
       0.0027598664 -0.013889047 0.001411495 -0.010726572
0001a0 57 00 91 3b 81 33 a1 ba 12 fc 90 3b 06 3f 5b bc
       0.0044250893 -0.0012298675 0.0044245804 -0.013381725
0001b0 df 26 20 3b f8 47 9e bc 17 dd a7 3c a3 76 53 3b
       0.0024437231 -0.019321427 0.020491166 0.0032266758
0001c0 e5 a4 f3 bb 6a 93 77 bb 11 c5 63 3a e1 16 c3 3b
       -0.0074354284 -0.0037777075 0.0008688728 0.005953655
0001d0 60 f5 17 bc 1f 81 9a 3b b8 e1 32 3c 52 71 aa bb
       -0.009274811 0.0047150995 0.010918073 -0.005201497
0001e0 40 d2 70 bb a3 5d 70 bb 8f b4 f4 3a 79 f0 be bb
       -0.0036746413 -0.0036676906 0.0018669533 -0.0058270064
0001f0 a6 5e 61 bc 16 66 b0 3b 6c 6c 03 3b 82 f7 5a bc
       -0.013755476 0.0053832633 0.0020053638 -0.0133646745
000200 ae 01 9d bb 9b 36 ec ba 3c 7c 94 3c 52 21 0e bc
       -0.00479146 -0.0018021645 0.018125646 -0.008674936
000210 cb 94 5a bc 2d 53 9e 3c b4 cc d7 ba 8e cb 02 3b
       -0.013341139 0.01932677 -0.0016464205 0.0019957754
000220 ea 8a b1 3b 8e 5c dc bb 1b 0f ac b8 bc 78 2a bc
       0.005418171 -0.0067249006 -8.204413e-05 -0.010404762
000230 ca 2d 10 3b 14 ed 1d 39 13 c6 61 bc 6d 9c 19 3a
       0.0021999949 0.00015061005 -0.013780135 0.0005859796
000240 c3 b6 11 3b b7 c6 3d 3c ca 7a 7f bc a3 d5 5f 3c
       0.0022234179 0.011583022 -0.01559324 0.013661775
000250 40 47 00 ba d0 af 0e 3b bf 27 88 3b 3e 79 09 bc
       -0.00048934296 0.0021772273 0.0041551287 -0.008390723
000260 19 61 a3 3b 16 0e ab bb ef 0c 9b ba b8 76 41 3c
       0.00498594 -0.005220185 -0.0011829416 0.01180809
000270 88 c1 c6 ba ba ad bb 3b 17 d4 87 3c 9e 2f a0 bb
       -0.0015163878 0.005727497 0.016580625 -0.004888489
000280 34 2b 5f 3b f7 15 51 ba e9 8a 8b 3b c0 3e 3d 3b
       0.003405285 -0.00079759903 0.0042585027 0.0028876513
000290 4e b3 0c bc 37 59 3b 3b b5 1e 1d ba ea 6c 14 3c
       -0.008587671 0.0028587112 -0.00059936504 0.00905917
0002a0 a9 3e 59 bb 5b 36 26 3c 26 75 83 3c dc b2 1a bc
       -0.003314892 0.010144795 0.016047072 -0.009442057
0002b0 fe b9 96 3c e2 6b 0e bc 3b 01 ba 3b d1 1e 0b bb
       0.018399235 -0.008692713 0.005676416 -0.0021228085
0002c0 c9 d6 7a bc 8c 61 e1 ba ab c7 88 3b ca b8 9c bb
       -0.015309998 -0.0017195209 0.004174193 -0.0047827708
0002d0 8b 43 5b bc c7 20 ea bb b2 38 04 bb 07 4f 7e ba
       -0.013382803 -0.0071450206 -0.0020175395 -0.0009701107
0002e0 e7 ec 53 bb 7b 56 67 bc 1b 9c 23 3c 91 d7 1c bc
       -0.003233725 -0.01411974 0.009985949 -0.009572879
0002f0 6d 16 e3 3a c8 23 84 3c 9b dc 65 bb 01 2a 1e 3c
       0.0017325409 0.016130343 -0.0035074118 0.009653569
000300 a1 68 f1 3b f2 e5 3f bc 7d 65 c4 bb 2a cf a0 bb
       0.007367209 -0.011712538 -0.0059935437 -0.0049075084
000310 25 ec 59 ba 27 12 2b 3b 4b 73 b6 ba 95 57 19 39
       -0.00083130813 0.002610335 -0.0013919858 0.00014623844
000320 51 e4 5f 3b 6e f2 3c bb f3 c0 e7 bb e3 e1 13 bb
       0.0034163187 -0.0028831023 -0.007072562 -0.002256506
000330 f0 4a 88 bb b6 6d 70 3b 98 a7 2a bc f1 27 f1 bb
       -0.004159324 0.0036686487 -0.010415934 -0.0073594977
000340 83 41 2f bc 7e 55 71 bc a4 9c be 3c 5b 9d a1 3a
       -0.010696772 -0.014729856 0.023268051 0.0012330221
000350 c4 91 16 bb 2f 67 08 3a 82 7b 9e 3c 25 8d 2d bb
       -0.0022975067 0.0005203364 0.019346002 -0.0026481834
000360 3d 45 4e 3c ef 9f 89 bc 39 41 b5 bb 3a 5d ab 3c
       0.01258975 -0.016799895 -0.005531457 0.020918477
000370 f7 89 0a bc 61 54 60 bb 6d 0f 91 bb a4 ec 06 bc
       -0.008455745 -0.0034229981 -0.0044268877 -0.00823513
000380 38 b8 e1 ba 1b 3e 7f 3c 6d 95 9c 3b 14 1b 52 3c
       -0.0017221039 0.015578772 0.004778555 0.012823839
000390 ed 15 d0 bb c7 1d 00 3c ba 28 ba bb 05 54 cb bb
       -0.00635027 0.0078195995 -0.0056811245 -0.0062050843
0003a0 2c b4 db 3a c8 91 01 3c ad 84 0b 3c 72 55 3f bc
       0.001676207 0.007908292 0.008515519 -0.011678087
0003b0 58 3b 14 bc 21 d9 a8 ba b3 af 1c bc 0b 05 9f bc
       -0.009047352 -0.0012882092 -0.009563374 -0.019411584
0003c0 36 73 2a bc 22 aa 49 3c 4b 40 2c 3c 66 f2 22 3b
       -0.010403445 0.012308629 0.0105133755 0.002486372
0003d0 4c e3 ff bb 19 f3 2b bc b3 64 fc ba 1a 4e ea 3b
       -0.0078090783 -0.010494971 -0.0019256085 0.0071504237
0003e0 0a 1e 3d 3c 24 e4 74 3b b7 c0 1f bc 65 82 16 3c
       0.011542806 0.0037367428 -0.009750537 0.009186362
0003f0 34 d2 a2 bc e6 a9 24 bc ea 81 da bb 64 75 56 3b
       -0.019875623 -0.010050273 -0.006668319 0.003272378

lin1.bias f4 [5]
000000 58 02 84 bc 4c f5 38 bc 53 23 8d bc 2a 40 30 bc
       -0.016114399 -0.011288952 -0.017228758 -0.010757485
000010 7a 85 72 bc
       -0.014802331
