results_auto/01_domain_adaptation/maml_supervised/June/officehome_maml_order_2_seed_0_shots_1_ways_5_meta-lr_0.0001_dropout_0.2_RandAugment-prob_0.5_datetime_11_06_2021_09_41_05/intermediate_28000_model.pt (torch, 412181 bytes, 54 tensors)

conv1.weight f4 [32, 3, 3, 3]
000000 3b bd aa 3b 87 2e d7 3d 9f 52 22 be 92 65 0e be
       0.0052105463 0.10506921 -0.1585183 -0.13905933
000010 a8 aa 8c bd 59 65 6a 3d 3a 65 9d 3c 28 09 30 3e
       -0.068684876 0.05722556 0.019213308 0.17190993
000020 9f d5 7b 39 a4 29 35 3d 7f 48 8f bd e2 76 2f bd
       0.00024016805 0.044229165 -0.069962494 -0.042837985
000030 41 06 54 be 92 6b 12 be ed b1 ae bd 08 cc 79 3c
       -0.2070551 -0.14298847 -0.085300304 0.015246399
000040 a8 4c b0 3d f6 aa 01 3e 6f 2f 1d be e1 91 e0 bd
       0.08608371 0.12662873 -0.15350126 -0.10965324
000050 18 1b 81 3d 5d 33 12 3e aa cf 6d bd d4 ba 08 3e
       0.06303996 0.14277406 -0.058059372 0.1335252
000060 4b de 2a bc 7c 9f e9 3c 3f d6 3e 3e a1 e3 33 be
       -0.010428975 0.02851843 0.18636416 -0.17567302
000070 73 93 e5 bd ff 6c 19 bd bb 2d 50 bd 34 97 3f 3e
       -0.11209764 -0.037457462 -0.050824862 0.18710023
000080 fa 6a eb bd 67 e3 59 bd c8 61 dc bd 39 9f 28 be
       -0.114950135 -0.053195383 -0.10760838 -0.16466989
000090 3c 3e d8 bd 3b 53 3b 3e cc 2b c9 3d 29 a8 f0 3d
       -0.10558745 0.18293469 0.09822807 0.11750824
0000a0 a5 4b 19 3d 6a 04 b4 bd 07 f0 87 3d 75 45 22 be
       0.037425656 -0.087899044 0.066375785 -0.15846808
0000b0 a0 89 0b be ee a8 e9 bd b2 09 09 3e 3d 8c f4 3d
       -0.13626719 -0.11409174 0.13382605 0.11940811
0000c0 74 0a 9d bd 24 80 82 3c bf 42 07 3e 0f 37 62 3e
       -0.076680094 0.015930243 0.13209055 0.22091316
0000d0 45 75 d2 3d 5d f7 05 3d 6f 03 2d 3e 81 68 dd bd
       0.10276274 0.032706607 0.16895841 -0.10810948
0000e0 ed cc f6 3c 53 53 e8 bd 3b a8 f3 bd 6f 54 d7 bd
       0.030127013 -0.11344018 -0.11897322 -0.10514151
0000f0 5b fa d6 3d fa 9a a4 3d 7d e2 f0 bd 6a af 9e 3d
       0.1049697 0.08037372 -0.11761949 0.07748301
000100 57 b6 ad 3d 06 7c 45 bd 36 de c4 3c 69 37 e9 3c
       0.08482044 -0.04821398 0.02403174 0.028468804
000110 75 64 c5 3d ad 2a 40 3e ad e7 20 be e8 05 bb bd
       0.09638301 0.1876628 -0.15713377 -0.09131986
000120 c8 cc b6 3d 72 dd 0f 3e 64 58 06 3e 7b 81 1c 3e
       0.08925778 0.14049318 0.13119656 0.15283768
000130 03 c1 2e 3c 7a 4d 4d be a2 64 05 b9 aa 4d 2c be
       0.010666135 -0.20049086 -0.00012721357 -0.16826501
000140 e1 da 6c be 4b fb 31 3e c1 28 29 3e 00 7a 0d be
       -0.2313037 0.17381017 0.16519453 -0.1381607
000150 1f d2 60 3c d9 56 57 bd fb 4a a1 ba a2 77 c3 bd
       0.013721972 -0.05257306 -0.0012305671 -0.095443025
000160 78 32 5f 3d cb d6 d3 bd 42 eb 97 3d 79 ff fa 3d
       0.05449149 -0.10343703 0.07417919 0.12255759
000170 fe aa 4d 3e a6 84 2e 3d a9 16 55 be 8e be bd bd
       0.2008476 0.042606972 -0.20809425 -0.09264861
000180 3a 90 a5 3d 71 34 87 3c 7a 16 0e be 72 30 aa bd
       0.0808415 0.016504498 -0.13875762 -0.083100215
000190 f4 ee 68 3e c6 da 5d 3e 0d 30 be bd 8f 5a 51 bd
       0.22747403 0.21665487 -0.09286509 -0.051111754
0001a0 63 ab f6 bd 99 bf 1b bc 0f 11 16 be 36 e1 d4 bd
       -0.12044408 -0.00950613 -0.14654945 -0.10394518
0001b0 74 d1 bb 3c 8d 66 4d 3c cb d5 94 bd 87 89 1e 3e
       0.022927023 0.012536657 -0.0726734 0.1548215
0001c0 d9 00 e1 bd 4f eb 57 3e 04 bd 1b 3e 70 04 3d be
       -0.1098649 0.21085857 0.15208822 -0.18458724
0001d0 e0 c5 13 bd 6b a2 fd 39 21 81 20 bc 9c 39 32 3d
       -0.03607738 0.0004837693 -0.009796412 0.04351197
0001e0 55 18 cc 3d 24 20 6e bb 8f c9 56 bd f8 a2 ad 3d
       0.099655785 -0.0036335075 -0.052438315 0.084783494
0001f0 12 86 67 be 39 39 d3 bd 32 f4 9e bc d3 ca ba bd
       -0.22609738 -0.10313649 -0.01940355 -0.09120717
000200 de 55 cf bc 29 97 97 bd 0c 6b 14 3c 98 c1 e0 3d
       -0.0253095 -0.074018784 0.009058725 0.10974425
000210 0d 81 b0 bd 25 62 06 bd 22 54 1c 3e ad 0e 10 bd
       -0.086183645 -0.03280844 0.15266469 -0.035170246
000220 aa 2f ac bb 96 2b 03 bd 2a c9 e0 3c f5 ca 0e 3e
       -0.0052547054 -0.03202399 0.027439672 0.1394461
000230 8f 45 53 3e 31 6b 08 3e 47 2f 4b 3e 39 07 a5 bc
       0.20632003 0.1332214 0.19842254 -0.020145046
000240 e2 ed 35 be 8f ea a4 bd 33 7d 20 3e 5a cd 91 bc
       -0.17766526 -0.08052551 0.1567276 -0.017798115
000250 b0 20 ab bd 03 bd f0 bd 4f 1e 3a be 12 28 20 be
       -0.08355844 -0.11754801 -0.18175624 -0.15640286
000260 dc 86 2f bd 8e 45 f8 3d d1 cf f8 3d 8f 02 3c be
       -0.04285322 0.121226415 0.12149013 -0.18360351
000270 cc b6 00 3e 81 8f 08 be fb 99 99 bc b1 5e 50 bd
       0.12569731 -0.13335992 -0.018750181 -0.050871555
000280 d0 30 73 bc 78 ec 1f bd ae 8c 38 be 8f ce 1f be
       -0.014843181 -0.039043874 -0.18022415 -0.1560614
000290 e4 6c b3 bb 70 f8 99 3b 5a 58 b6 bd 0e 54 cc 3d
       -0.0054756273 0.0046988055 -0.089035705 0.0997697
0002a0 1d a3 29 be 2a 82 96 bb f9 2f 42 3e 41 26 a3 bd
       -0.16566129 -0.0045931535 0.18963613 -0.07966281
0002b0 74 cf 2c 3e 8a bd ab 3d 54 c9 27 be 47 45 0a 3e
       0.16876012 0.08385761 -0.16385394 0.1350299
0002c0 07 78 c8 3a 96 21 98 bd 60 c6 30 3e 0d b6 16 be
       0.001529456 -0.07428281 0.17263174 -0.14717884
0002d0 b6 82 bb ba 87 a0 2c bd 0d 0e 1b 3e 62 cb 77 3d
       -0.0014305923 -0.04214528 0.15142079 0.060496695
0002e0 c2 21 dc 3d c8 a3 b9 3d ad 78 22 bd 11 0c fd bc
       0.10748626 0.09064442 -0.039665867 -0.030889543
0002f0 03 12 28 be 9b e2 07 3e 7d 83 3b 3e 61 57 1b 3e
       -0.16413121 0.13270037 0.18311878 0.15170051
000300 2d 65 29 be 52 0f 88 bc c7 2c 10 be 31 8c bf bd
       -0.16542502 -0.016608868 -0.14079581 -0.09352911
000310 82 81 e2 bd d7 3a b2 3d 93 56 d5 bd 72 91 be 3b
       -0.11059858 0.08702629 -0.10416903 0.0058156783
000320 d4 fb bc 3c 7e 03 c7 3d ae df 27 be ba a3 08 be
       0.0230693 0.09717463 -0.16393921 -0.13343707
000330 f2 7c c6 bd 13 fb 12 3e 56 1f 3c bd f0 d9 30 3e
       -0.096918 0.1435359 -0.04592832 0.17270637
000340 c6 ef 93 3d 0a eb 31 3d 5e c9 bc bc 82 a1 82 bd
       0.072234675 0.04343704 -0.023045238 -0.063784614
000350 5e 0b 68 3c 1c b8 ff bc 6a e4 81 bb ed 1f e7 3c
       0.014162866 -0.03121572 -0.0039639967 0.028213466
000360 a4 1e 1f be 35 33 e0 bd e1 f2 2f 3e ca 74 24 be
       -0.15539032 -0.10947267 0.17182495 -0.16060176
000370 59 82 69 3a fb cc 52 3e 0f ff 7d 3d a5 12 de 3c
       0.0008907668 0.20586006 0.06201082 0.0271085
000380 05 39 23 be 26 1a f3 3d 44 30 20 be 10 a0 54 bd
       -0.1593972 0.11870222 -0.15643412 -0.05191046
000390 77 c9 83 bd 54 b3 11 bd 01 e0 23 bc 3f 48 20 3e
       -0.06434911 -0.03557141 -0.010002137 0.1565256
0003a0 b9 15 29 3d b2 5a 1d 3e 1b 52 eb 3d 48 65 1f be
       0.041280482 0.15366629 0.1149027 -0.1556598
0003b0 87 48 9d 3d f7 81 19 be fe 52 d1 bd 3d 64 14 3d
       0.07679849 -0.14990984 -0.10220908 0.036228407
0003c0 b8 e2 6b 3d b3 b2 1c 3e e3 82 90 bd e4 d7 d7 3c
       0.057589263 0.15302543 -0.07056215 0.026348062
0003d0 da ca c9 3d da 4b 31 be 21 c0 48 3e d5 61 0b be
       0.09853144 -0.17314091 0.19604541 -0.13611539
0003e0 fe ed 2b 3d e8 cf e7 3b de 11 71 bd 6d 81 a7 3d
       0.041975014 0.007074345 -0.05885493 0.08178983
0003f0 cf 65 25 3e aa b2 9e bd 33 1c 01 be 31 ab 58 bd
       0.16152118 -0.07748921 -0.12608413 -0.052897636

conv1.bias f4 [32]
000000 fe d7 62 3e c5 a8 64 bd e1 fe ea bb 66 b3 80 bd
       0.22152707 -0.055825014 -0.007171497 -0.062842175
000010 d0 86 1d bd 4b 31 7d 3d 43 5a 40 3c ca 76 78 bd
       -0.038458645 0.061814588 0.01174027 -0.06066016
000020 f8 45 48 be 97 f9 07 3d ab eb 1b bc e6 16 1a 3d
       -0.19557941 0.03319701 -0.009516637 0.037619494
000030 a7 86 23 3e 65 4c 28 3e 16 bb e2 bd f7 2b 17 bc
       0.15969335 0.16435392 -0.1107084 -0.009226791
000040 64 1d 74 bd 85 0e 4d be b1 ab 0c be 2e c2 39 3e
       -0.05959834 -0.2002507 -0.1373737 0.1814048
000050 6a 76 cc 3d c5 fe 06 3e 35 33 d2 3d c8 00 1d be
       0.09983523 0.13183124 0.10263673 -0.1533233
000060 ea 3a 6e 3c 79 4b 38 3e 83 4b cb bd 28 33 33 3e
       0.014540413 0.1799754 -0.09926512 0.17499983
000070 11 35 6b 3d 14 57 22 3e bd 79 83 bd 11 da c1 3d
       0.057423655 0.1585353 -0.06419704 0.09465421

batch1.weight f4 [32]
000000 6f b5 8d 3f 11 b4 76 3f d7 c1 85 3f 61 3a 83 3f
       1.1070994 0.9636851 1.044978 1.0252191
000010 a4 8b 79 3f ea 82 76 3f 5d c6 86 3f 87 d4 8a 3f
       0.974787 0.9629351 1.0529286 1.0846108
000020 8c 28 8a 3f 79 11 84 3f 16 d9 77 3f cf ef 79 3f
       1.0793624 1.0317832 0.9681562 0.97631544
000030 49 08 6f 3f 2d 81 78 3f 5e b5 66 3f 1a 71 77 3f
       0.9337202 0.97072107 0.90120494 0.96656954
000040 bd 58 7c 3f 6b d5 6e 3f d9 22 6f 3f 02 7f 74 3f
       0.98572904 0.932944 0.9341255 0.955063
000050 d5 13 66 3f 45 66 86 3f 85 2f 82 3f 5d 6c 88 3f
       0.8987401 1.049996 1.0170752 1.065807
000060 45 63 81 3f c0 05 82 3f 33 c6 81 3f b6 d0 88 3f
       1.010842 1.0158005 1.0138611 1.0688694
000070 15 3d 89 3f 74 b1 82 3f 35 7f 79 3f ca 69 71 3f
       1.0721766 1.0210404 0.9745973 0.94302046

batch1.bias f4 [32]
000000 2e 8a 19 3e 70 16 08 bd b4 e1 00 3e 88 6c b2 3c
       0.14994118 -0.033224523 0.12586099 0.021780267
000010 97 f7 ea bc 06 da 81 bc 8e 36 2c bd c4 61 89 3d
       -0.028682513 -0.015851032 -0.042044215 0.067081004
000020 1b c5 1a 3d 0e 0f 11 3d 9f 7a 6e bd d0 59 e9 3d
       0.03778563 0.035414748 -0.05822241 0.113940835
000030 d4 be 6d bd ae 98 4f 3d 2b 3e 48 3b 1e 09 74 bb
       -0.058043316 0.050682716 0.0030554633 -0.003723688
000040 b0 0a 11 bd f5 de c5 bd 70 ad ad bd d1 fe 71 bd
       -0.035410583 -0.09661666 -0.08480346 -0.059080902
000050 08 33 f3 bd c7 e1 3f 3d 53 bd b5 3c 2a 8b 52 3e
       -0.11874968 0.046846177 0.022185003 0.205609
000060 c3 5d b9 3b 65 7f b4 bd e3 c4 e1 bc 91 a1 46 3d
       0.005656929 -0.08813361 -0.027559703 0.048493925
000070 8b 33 07 bd 51 60 a7 3d 3c 75 4d bd d8 ea f9 bd
       -0.03300814 0.08172668 -0.05016063 -0.12202996

conv2.weight f4 [32, 32, 3, 3]
000000 29 3c 10 be a8 92 8f bb cd a9 ad bb d0 49 f1 3c
       -0.1408545 -0.0043814965 -0.005299783 0.029454142
000010 ec a5 84 3d ba 8f 4b 3d ed cc 61 3d 2f f9 48 3d
       0.064769596 0.049697615 0.055127073 0.049065765
000020 9f 57 13 3d 8a 98 2d bd 71 89 42 bd 81 8d 88 3b
       0.035972234 -0.0423818 -0.047494356 0.004167259
000030 2f e3 24 bd 4b 8b a8 bc 5b 1b 83 3d 4c d0 81 bc
       -0.04025572 -0.020574233 0.06401702 -0.015846394
000040 df 73 c6 3b d5 be 88 bc 9d 7b 30 3d 9b d7 63 3d
       0.0060562934 -0.016692558 0.043086637 0.05562554
000050 87 0b 20 bd a5 ec 50 bd 52 8f 89 3d bb f6 48 3d
       -0.039073493 -0.05100693 0.06716789 0.049063426
000060 0e 44 20 3d 96 ab 13 bd 9f f0 ab bd 55 33 5d 3d
       0.039127402 -0.03605231 -0.08395504 0.054004032
000070 4e ba 89 3c 14 cc 96 bd 56 95 b5 bc cd 88 64 bd
       0.01681247 -0.073631436 -0.022165935 -0.055794526
000080 eb f1 8d 3c 54 e4 4a 3d 1b 88 45 3d ce 6d cc bd
       0.01732727 0.049534157 0.048225503 -0.09981881
000090 2a b2 4a bd 90 b7 0e 3d c1 98 19 3c ca 39 17 3c
       -0.049486317 0.034843028 0.009374798 0.009230087
0000a0 79 bb 80 3c 89 99 dd bc 95 76 03 bb bb 1a 40 bd
       0.015714394 -0.02705075 -0.0020059694 -0.046900492
0000b0 b0 96 99 bc 60 26 d9 bc 05 fc 9d bc 2e 16 f6 ba
       -0.018748611 -0.026507556 -0.019285211 -0.0018774921
0000c0 b6 03 61 bd 12 7b 20 bd 62 a5 93 bd 74 ec 3e bd
       -0.05493518 -0.03917987 -0.07209279 -0.046612218
0000d0 e4 d5 2a 3d e8 78 16 3c 6e 2a 8e bd 73 3b 0e bd
       0.04170789 0.0091841 -0.069416866 -0.034724664
0000e0 2a 50 03 bd 1a 1e c0 bd 85 68 29 3d 2f 0d 8e 3d
       -0.032058872 -0.093807414 0.041359443 0.06936108
0000f0 fe 8e 21 3d 5c 13 84 bc 91 63 f9 3c 6e 5b 60 3c
       0.03944301 -0.016122513 0.030442985 0.013693674
000100 f7 1b d0 bd d6 05 70 3c 49 52 6f bc 57 10 90 bd
       -0.10161584 0.014649829 -0.014607021 -0.070343666
000110 ad fe ca bd fa 3c f1 ba b2 55 02 3d f0 35 50 ba
       -0.09911857 -0.0018405013 0.031820007 -0.00079426076
000120 bf ed 90 bd 91 0c c5 3c 8e 54 a7 3c 10 92 21 3b
       -0.070765965 0.024053844 0.020426061 0.002465371
000130 03 b2 aa 3d 85 78 f0 3c 84 35 ac bd 9f 1f f5 bb
       0.08334734 0.029354343 -0.08408645 -0.007480576
000140 87 32 15 3d 10 04 50 3d 2b 99 5f bd 7e 48 de 3c
       0.03642514 0.050785124 -0.05458943 0.027134176
000150 d2 b6 84 bd f8 67 43 bd ba f5 9f 3c 9c 31 7d bd
       -0.06480183 -0.047706574 0.019526351 -0.06181489
000160 c0 65 f3 3c d4 b2 3a bd 8f 7b 2e bd 84 d0 44 bc
       0.029711604 -0.0455807 -0.042598303 -0.012012605
000170 09 0f da bc 1a c2 05 3d 1f 96 e0 3c 32 67 3d 3d
       -0.026618497 0.032655813 0.027415333 0.046240993
000180 21 ba 53 bc 94 56 6f bc 79 dd c1 3c 71 e1 ca bb
       -0.012922795 -0.014608044 0.023665177 -0.0061914255
000190 2c 7c bb 3b 3b 68 86 bc 7c 3e 99 bb 9c 57 92 3c
       0.0057215896 -0.016407123 -0.004676638 0.017864041
0001a0 63 6f 57 b9 37 69 7c bd 8f 4d 96 3c a4 04 fb bc
       -0.00020545493 -0.06162378 0.01834753 -0.030641861
0001b0 65 24 1b 3c c4 f2 78 3d ee 64 b8 bc 06 0d 18 bd
       0.009469126 0.060778394 -0.022509065 -0.037121795
0001c0 62 2d 33 3c e0 dc 3b 3b 29 44 21 3c 56 ea 18 3d
       0.010936113 0.0028665587 0.009842911 0.037332855
0001d0 93 30 1f 3d c9 ea 3a bc 3f b9 ff ba e2 d0 fd 3c
       0.038864683 -0.011408516 -0.0019510164 0.030983392
0001e0 54 90 65 3d 7f 37 82 bc cf dd 32 bd 1b 0b dc b9
       0.056045845 -0.015895603 -0.043668564 -0.00041969944
0001f0 a6 50 01 3d 39 dc 39 bc 3d dd b6 bc 69 37 42 3d
       0.031571053 -0.011344009 -0.022322292 0.047416124
000200 d6 d7 8c ba 15 ac 92 bd df b7 3b bd 20 99 2e 3c
       -0.0010745476 -0.07161728 -0.04582965 0.010656625
000210 12 91 95 bc 5c 19 3e 3d 17 0e 43 3d 3c 1b 6b 3c
       -0.018257651 0.046410903 0.04762086 0.014349755
000220 08 67 8e 3c 24 bc bf ba 2a 37 2c bd 26 8e d8 3c
       0.017383114 -0.0014628214 -0.042044796 0.02643497
000230 a8 6b 11 bd 56 d9 36 bd 30 dc 3b bd ab 4e 48 3d
       -0.03550306 -0.04464086 -0.045864284 0.04890315
000240 e5 92 63 bd 2f 91 b9 3d ac b6 9f 3c 99 ca 43 bd
       -0.05556001 0.09060895 0.019496284 -0.047800634
000250 e1 58 dd 3c 64 a4 ad 3b 0d 86 9e 3c c4 b9 09 3d
       0.02701992 0.005299138 0.01935103 0.033624426
000260 34 dd e7 bd 7d a4 24 3d 6a b9 8d bc 60 fe 67 bd
       -0.11321488 0.04019593 -0.017300326 -0.056639075
000270 ee be 91 3c 50 58 7f 3d c1 2d d2 bc 52 7f b0 bc
       0.017791238 0.06234008 -0.025656583 -0.021545086
000280 bd 28 3e 3d 12 3e 75 3d 0c ce 91 3d c5 0c 09 bc
       0.04642557 0.059873648 0.071193784 -0.008364861
000290 a1 24 2b bc 51 46 1b 3d ee 7d 8a 3c 0e 04 50 3d
       -0.010445745 0.037908856 0.016905751 0.050785117
0002a0 62 a7 1a bd 12 ba 2d bd 67 7f a8 bc 24 5d e5 bc
       -0.037757285 -0.04241378 -0.020568563 -0.027998514
0002b0 fa 23 36 3d 14 a5 ad 3d 4c ed 8e b8 0f cf 2d bd
       0.044467904 0.08478752 -6.8152876e-05 -0.042433795
0002c0 8a cd 77 3c 81 ef 45 bd d0 57 88 3d 93 dd fb bc
       0.015124688 -0.04832411 0.06657374 -0.030745303
0002d0 fd c2 14 bd 5e d0 be bc 1c f7 55 3d 0e 5b a4 bb
       -0.036318768 -0.023292717 0.052237615 -0.0050157374
0002e0 fb 43 4d 3d d4 f8 c3 bc ed 24 3b 3b 5f 76 f4 3c
       0.05011366 -0.023922361 0.0028555945 0.0298416
0002f0 4e b0 0b 3d 6a 01 36 3d 20 52 5c 3d 3d 2e 06 bd
       0.034103684 0.044434942 0.053789258 -0.03275894
000300 24 78 04 bd 23 1e aa bd ec 31 52 bd 3b 2a 84 3d
       -0.032341138 -0.083065294 -0.05131714 0.06453367
000310 d0 f4 16 bc 2a 35 88 3d 57 75 df bb 73 ab 34 bd
       -0.009213641 0.06650765 -0.006819408 -0.04410882
000320 73 2e cc 3b 87 4e 74 bd 41 d3 9f 3c c0 e3 ee 3c
       0.006231123 -0.059645202 0.019509913 0.029161334
000330 72 8b c7 bb 86 42 ef 3b 2f 1b fd 3c 36 85 d5 3c
       -0.006089621 0.0073016314 0.030896751 0.026064496
000340 ad e7 fc bc 95 15 4f 3c 27 c5 0c bd ca 9d be bc
       -0.03087219 0.012639423 -0.034367707 -0.023268599
000350 35 66 99 3d 6a 01 cc 3b 0c 4c ee 3c a4 91 9b bd
       0.074901976 0.0062257545 0.029088996 -0.07596138
000360 e5 b4 0e bd 0a 89 2c 3d c2 33 05 bd db 1f 4c bd
       -0.034840483 0.042122878 -0.032520063 -0.049835067
000370 ab 8c 80 3c 9d 6e 87 bd ba ff 33 bd be d4 f3 bc
       0.015692076 -0.06612895 -0.04394505 -0.02976453
000380 57 58 2f 3d 32 25 02 bd 03 38 40 bd 03 a8 07 3d
       0.042808857 -0.031773753 -0.046928417 0.033119213
000390 27 25 08 bd 0d e0 e4 3c 3d de a0 3c fc 40 31 bd
       -0.033238556 0.027938867 0.019637221 -0.043274865
0003a0 8c 9e 4c 3d 81 60 bc bc 9a af 94 bd 24 d9 79 bc
       0.04995589 -0.022995235 -0.07260056 -0.015249524
0003b0 08 86 14 3c b7 86 7b 3d 8f c9 c9 ba d8 b3 83 bc
       0.009065159 0.06140777 -0.0015395152 -0.016076967
0003c0 38 23 f0 ba 47 6a 8e ba 59 6d 52 3d b7 5d 97 bd
       -0.0018321043 -0.0010865413 0.051373813 -0.073909216
0003d0 c7 fc 0b bd a9 90 67 3d cf 2c 78 bc 82 8d 00 bc
       -0.034176614 0.056534443 -0.015147402 -0.007846238
0003e0 e3 0f f3 3c 79 97 59 bd bd 0e c0 3c 98 07 56 bd
       0.029670661 -0.05312297 0.023444528 -0.052253336
0003f0 2d b2 f9 bb 61 12 26 3a bb fb 8a 3c 75 99 8d bd
       -0.007620117 0.0006335136 0.016965738 -0.06914035

conv2.bias f4 [32]
000000 da e3 e0 bc 6e f8 50 3d 57 e8 26 3c 36 a0 41 bd
       -0.027452398 0.05101817 0.01018723 -0.04727193
000010 66 60 21 bc a8 e8 30 bd 8b b2 3c bd 94 1d 06 bd
       -0.009849643 -0.04319063 -0.04606871 -0.03274305
000020 63 23 8a 3d fd eb 40 bd 4d 1a 30 3d 6c 9f 6e bd
       0.06745031 -0.047100056 0.042993832 -0.058257505
000030 be f2 4e 3b 8d 37 47 3d 60 2e 85 bc a0 07 c0 bc
       0.003157779 0.04863696 -0.016257465 -0.023441136
000040 bf c9 eb bc 8c 4d d4 bc 97 09 c4 3c 2a 4a 43 bd
       -0.028782723 -0.025915883 0.023930354 -0.04767815
000050 d2 12 1c bd 0c f9 5f 3d 91 0b 5d 3d 12 77 99 bc
       -0.038103886 0.05468087 0.05396611 -0.018733535
000060 aa c9 29 b9 aa e5 55 bc c3 8c 41 3d bd 61 64 bd
       -0.00016192222 -0.013055244 0.04725338 -0.055757273
000070 7e 5e 74 bd 18 9e d2 3c 47 af fa 3b e1 fc 6a bc
       -0.059660427 0.02571015 0.007650289 -0.014342518

batch2.weight f4 [32]
000000 fc ff 8c 3f 09 27 71 3f 04 53 8b 3f a4 fc 73 3f
       1.101562 0.9420019 1.0884709 0.95307374
000010 a5 05 76 3f 6f 7f 76 3f c1 b5 86 3f b8 c2 77 3f
       0.9610236 0.962882 1.0524217 0.9678149
000020 be 93 88 3f 18 97 90 3f 4b 2f 86 3f 18 b8 8a 3f
       1.0670087 1.129611 1.0483183 1.0837431
000030 e9 5c 76 3f fe 00 82 3f ed 65 69 3f 5d a6 7d 3f
       0.9623552 1.0156553 0.9117115 0.99081975
000040 ba af 83 3f 6d c7 72 3f 09 c7 82 3f ec 20 7f 3f
       1.0288002 0.9483555 1.0216991 0.9965961
000050 e1 4b 83 3f 12 f2 81 3f 87 29 83 3f 12 d3 6f 3f
       1.0257531 1.0151999 1.0247048 0.9368144
000060 31 99 82 3f 75 a3 85 3f c3 92 62 3f be 9c 83 3f
       1.0203 1.0440508 0.8850519 1.0282209
000070 f8 75 8d 3f f4 2d 89 3f dd f2 7d 3f 7f a6 84 3f
       1.1051626 1.0717149 0.99198705 1.036331

batch2.bias f4 [32]
000000 a3 05 85 bc 48 3a 9a bd 30 db ce 3d 14 f0 c6 bd
       -0.01623804 -0.075306475 0.101004004 -0.0971376
000010 fd a1 e9 bd cf e5 9c bd 6a b2 a7 3b 06 05 b3 bd
       -0.1140785 -0.0766102 0.005117704 -0.087411925
000020 9d 11 17 bd 6d 0e a6 3d 95 ae 38 3d 06 7f 1f 3c
       -0.03688203 0.0810822 0.04508837 0.009734875
000030 9e 9f 31 bd a8 e0 e0 bc b5 bd fb bd 8d 93 33 3d
       -0.043365113 -0.027450874 -0.12292043 0.043841887
000040 7d 3b 2a 3d 50 6c 18 be ed fa 43 bd 8d 72 17 bd
       0.04156064 -0.14885068 -0.047846723 -0.03697448
000050 d4 85 62 3d f7 a2 2e bd c0 cd 87 3d 83 de ed bd
       0.05530341 -0.042635884 0.066310406 -0.11614706
000060 80 49 27 3e cc fe a7 3d 99 10 cf bd b7 99 5b bd
       0.16336632 0.082028955 -0.101105876 -0.05361339
000070 a6 7d 9a 3c a3 f5 b4 3d 37 71 cd bd 98 e1 73 bd
       0.018858742 0.08835914 -0.1003136 -0.059541315

conv3.weight f4 [32, 32, 3, 3]
000000 dc 86 75 3d 29 bc 69 3d 4a 78 86 bd 5e 14 12 3d
       0.059943065 0.05706421 -0.06565912 0.035663955
000010 62 6f 64 3c 1c 27 27 bd a1 2b c2 bd 86 e8 cc 3c
       0.013942571 -0.040808782 -0.09480978 0.02501322
000020 59 35 5a 3d fb 05 37 bc a9 e5 a0 bd 7f a3 1d 3b
       0.053273533 -0.011170859 -0.07856304 0.002405375
000030 55 bc 32 bd 8d a2 4c bd ce 94 e1 3c 7c ea 45 bb
       -0.04363664 -0.049959708 0.027536776 -0.0030199578
000040 45 90 c7 3c 32 83 18 3d 65 96 21 3d 9b 2f f3 3c
       0.024360785 0.037234493 0.039450068 0.029685786
000050 4a 20 02 3d 22 70 27 3d b1 1c a1 bc 54 f1 3a 3d
       0.031769074 0.040878423 -0.019667001 0.045640305
000060 76 76 4b bd 69 c7 1d 3d f6 4e 02 bd b1 8b 8a bc
       -0.04967352 0.03852025 -0.031813584 -0.016912313
000070 1d ae a3 3d 98 20 8d bd 9e 0f 6e 3c 3f b5 62 3d
       0.07992194 -0.068909824 0.014530091 0.05534863
000080 3f 94 9f 3b 6b 67 84 bd b9 fd c1 bd 1b 6e 81 bd
       0.0048699672 -0.06465038 -0.09472222 -0.06319829
000090 48 9c 15 bd c6 06 92 3c 23 d0 20 bc e1 38 d0 3b
       -0.036525995 0.017825495 -0.009815249 0.0063544367
0000a0 3e 56 92 3b 48 6f 27 3d 3e b0 20 3d 80 1c 4f 39
       0.0044658473 0.04087761 0.039230578 0.00019751675
0000b0 21 71 3c 3d 18 68 4f 3d 16 c4 1f 3d c7 93 f0 bb
       0.046006326 0.05063638 0.03900536 -0.007341835
0000c0 5b c5 8d bb 89 6d 4b 3d 8c c6 3b 3d 47 95 0b bc
       -0.004326505 0.049665008 0.045843646 -0.008519477
0000d0 20 3e 83 bd e1 00 28 3c 0b f3 92 bc 8b 7e 12 bd
       -0.06408334 0.010254116 -0.017938158 -0.035765212
0000e0 9a 5a 07 bd 04 be e7 3b c0 37 9e bc ae eb 64 3d
       -0.03304539 0.007072212 -0.019313693 0.055888824
0000f0 8d fe d1 3c 93 9c cc bb 4d d2 15 3d 2a 65 ab 3c
       0.025634075 -0.006244251 0.03657751 0.020922262
000100 af 46 6d 3c a7 4f 1d bd 21 4e fa bc 98 1b 37 3c
       0.014482184 -0.03840604 -0.030554833 0.011176012
000110 db b6 b5 3c 97 ad ee bd 04 1a b0 bd e1 da d6 3c
       0.022181919 -0.116542034 -0.08598712 0.026227416
000120 24 8e 3c bc 36 ba 7d bd b0 8c 70 bd 91 71 78 bd
       -0.011508498 -0.061945163 -0.05872792 -0.06065518
000130 f1 c1 fa bc 78 74 a9 3d d8 85 f9 bc c8 c4 ab 3d
       -0.030610057 0.08274168 -0.03045933 0.083871424
000140 87 c7 53 bd 67 ee 1d 3d 82 ad 98 bd ee 01 c1 3d
       -0.051703956 0.038557436 -0.07454969 0.09424196
000150 4d 67 23 bd d2 fb 8f bd bf 73 c5 bb 5d db e4 bb
       -0.039893437 -0.07030453 -0.006025761 -0.006984158
000160 2c a9 2c 3c 1d 2f 85 3d 50 17 8a 3d 49 f6 d0 bb
       0.010538381 0.06503127 0.06742728 -0.0063770157
000170 6a 1a de bc 08 72 76 3b ea 8f f0 3b 82 fc 79 3d
       -0.027112205 0.003760459 0.0073413746 0.061031826
000180 ab b4 34 3d 95 2a 3e bd 27 a4 a3 bd 4a 7d 32 bc
       0.04411761 -0.04642733 -0.07990294 -0.010894129
000190 0e 16 39 3d de 63 c6 bd e7 94 c6 bb 07 6a dd bc
       0.04518705 -0.09687017 -0.006060231 -0.027028097
0001a0 85 4c a7 bb d1 a4 1a 3d 70 21 92 bc 5b 99 ac 39
       -0.0051055574 0.037754837 -0.01783821 0.00032920655
0001b0 72 de 3d 3d f0 bb 8d 3c 3e da 3d bb 49 e6 1a bd
       0.04635472 0.01730153 -0.0028969194 -0.037817273
0001c0 24 36 bb bc bb 77 1e bd d8 7b a0 3d 36 3d df bc
       -0.022852965 -0.038688403 0.07836121 -0.027250867
0001d0 e2 78 f1 bc e8 f5 3c bc 03 95 1d bd 54 08 3a bd
       -0.029476587 -0.011533238 -0.038472187 -0.0454181
0001e0 0a 65 3d 3d 28 f5 3e bd 2f bc 10 bd 82 cf 21 bd
       0.046238936 -0.046620518 -0.035335716 -0.039504535
0001f0 1d 27 f3 3c 16 b7 43 bc 44 ec 65 bd 93 e2 cd bc
       0.029681737 -0.011945507 -0.056133524 -0.025132453
000200 be 58 21 bd 45 06 c0 3c 8e 46 15 bc 02 b4 1b bd
       -0.03939127 0.02344049 -0.00911106 -0.038013466
000210 03 d3 1b 3d ef 0f 23 bc 14 0b ff 3c 4e ec e0 bc
       0.038043033 -0.009952529 0.031133212 -0.027456429
000220 f1 3d be bc 50 98 e8 bc 29 b4 de 3c f1 3b 73 bb
       -0.023222895 -0.02839294 0.027185516 -0.0037114585
000230 55 05 63 3d 01 df 3d 3d b2 2d 90 bc 2f ce 85 bd
       0.055425007 0.04635525 -0.017599914 -0.06533467
000240 f0 4b 1b bd 10 6d 6f 3d 2e b5 8d bc aa fe 25 bc
       -0.037914217 0.05845362 -0.017298307 -0.010131517
000250 63 b5 30 ba 0b f2 81 3b 0a 64 b8 3c 57 c4 f6 bc
       -0.0006740896 0.0039656213 0.02250864 -0.030122919
000260 0f f2 33 3d 8e 78 1c bc b0 24 5a bc c5 76 d1 bc
       0.043932017 -0.009550227 -0.013314411 -0.025569329
000270 d7 81 3e 3d 77 d8 af 3c c1 c6 a4 bd fd 9d d3 3c
       0.046510544 0.021465523 -0.08045722 0.02583217
000280 b3 99 c1 bc b0 2d d7 3d a8 ed c1 3c af 27 40 3c
       -0.02363286 0.10506761 0.023672894 0.011728211
000290 5a 3f 85 3c 00 c0 78 3d ca e2 34 bc ea d2 ab 3d
       0.01626556 0.06072998 -0.011040399 0.08389838
0002a0 3d 60 a2 3d bc d6 ed bc 2d bb 1d bb 51 c4 29 3c
       0.07928512 -0.029033057 -0.0024067864 0.010361747
0002b0 0c 19 7e bd ed 58 18 bd 79 41 de bc 02 33 cc bb
       -0.062035605 -0.03719418 -0.02713083 -0.0062316665
0002c0 17 8e 25 bc af 5b a7 bc 19 64 6a bd b7 35 8d bd
       -0.010104678 -0.02042946 -0.057224367 -0.06895011
0002d0 55 f6 5c bd eb 76 65 3d d4 14 bc ba b8 4f af 3c
       -0.053945858 0.056021612 -0.0014349469 0.021400318
0002e0 f8 9c ae 36 33 42 8f bd 90 33 b9 bb 5f 41 81 bd
       5.2038777e-06 -0.069950484 -0.0056518987 -0.06311297
0002f0 c8 53 06 3d 85 ff 5a 3c 86 ed d1 3c 93 92 5b 3c
       0.032794744 0.013366585 0.025625955 0.013401645
000300 71 2c 86 bb c3 50 73 3b f8 9b 96 3d fb 80 23 3c
       -0.0040946533 0.0037126995 0.073539674 0.009979482
000310 d0 51 2e 3d f7 73 8c bd 16 42 5b bc bc 1e 0c 3d
       0.04255849 -0.06858056 -0.013382455 0.034208998
000320 a2 24 8f 3c a7 fd 84 bd db 50 24 3d d7 2f 4e bd
       0.017473523 -0.06493693 0.040116172 -0.050338592
000330 91 fc 2a bc 2b 05 49 bd d2 ac b3 bc af 19 1d bd
       -0.010436193 -0.049077194 -0.021932993 -0.038354572
000340 b7 d7 3f bd cd 16 d1 bb 66 93 bc bc 48 08 75 3c
       -0.04683658 -0.006380892 -0.023019504 0.014955588
000350 b3 3b 04 bd 62 1c 60 bd 50 c2 32 bd 16 66 83 bd
       -0.032283496 -0.054714568 -0.043642342 -0.06415956
000360 b0 93 7a 3b 37 8a 52 3d 84 3c ae bc bf bf 8a 3c
       0.0038235001 0.051401343 -0.02126909 0.016937135
000370 a6 62 90 3c 71 c9 42 3d 4d b8 41 bd ff 53 3c bd
       0.017625164 0.04755539 -0.047294904 -0.045978542
000380 a4 87 31 3d d3 d5 ac bc d9 68 9c 3d 6f e8 be 3c
       0.043342248 -0.021098053 0.076371856 0.023304192
000390 3c 89 f9 bc e6 b8 dd bc 2f d4 3f 3c eb 03 49 bb
       -0.030460946 -0.027065706 0.011708303 -0.0030672501
0003a0 cb 94 65 bd d2 65 95 3c 50 eb fd 3c 2f 1f d8 3c
       -0.056050103 0.018237028 0.030995995 0.026382057
0003b0 49 b5 86 bd 76 95 de ba 29 ba 07 bc c9 89 29 3d
       -0.06577546 -0.0016981799 -0.00828413 0.041391168
0003c0 8c 50 45 b9 d9 08 3d bb 2b 7e c3 bc 54 2c 67 bc
       -0.0001881739 -0.0028844385 -0.023863873 -0.01410969
0003d0 80 e9 a1 bd c1 9d 08 3c d5 80 d5 bc 8c 50 58 bc
       -0.07905865 0.008338393 -0.026062408 -0.013202798
0003e0 0f 2b 86 3d 41 e1 64 bd f3 2a 5e 3d 79 5d 67 3d
       0.065511815 -0.05587888 0.05424018 0.056485627
0003f0 d8 c6 c9 3c 64 da f5 b9 73 ba 24 3a 50 62 b8 3c
       0.024630949 -0.00046892755 0.00062838866 0.022507817

conv3.bias f4 [32]
000000 d4 cb e7 3c ba 69 ab 3c 2b 5d 25 bc f6 e3 11 bd
       0.028295435 0.020924438 -0.010093014 -0.03561779
000010 e7 9c f2 bc 00 29 8c 3c 66 8d b1 bc 57 99 f5 3c
       -0.029615832 0.017109394 -0.02167387 0.029980345
000020 6f 91 f6 bc a5 c1 26 bd 6f 27 39 3d 69 83 19 bd
       -0.030098645 -0.040712018 0.045203622 -0.037478838
000030 98 bd 64 3c f0 ad 50 3d 22 60 8e 3b 9b cf 25 3d
       0.013961218 0.05094713 0.004344956 0.04048119
000040 1e 48 7e bc f0 3e 41 bd eb 9d 0c bd 18 00 1d bc
       -0.015520124 -0.047179163 -0.03433029 -0.009582542
000050 3f 1d 04 bd 5e 04 cd bc 56 63 d4 3c 58 fe 4c 3d
       -0.032254454 -0.025026496 0.025926273 0.05004725
000060 ef 02 f1 3c c6 6a ca 3c 4e 2e 44 bd 28 f9 5a bc
       0.029420344 0.024709117 -0.047895722 -0.013365068
000070 71 1a 0a 3d ba 12 6e 3d 0e ef 8b bc 71 cc 01 3d
       0.033716623 0.058123328 -0.017081764 0.03168911

batch3.weight f4 [32]
000000 b2 bc 7b 3f a6 fd 78 3f 7d 19 82 3f 77 aa 72 3f
       0.983348 0.97262037 1.0164028 0.9479136
000010 c0 98 7c 3f 06 c3 82 3f f3 e9 7d 3f 00 8e 81 3f
       0.9867058 1.0215766 0.99185103 1.012146
000020 90 00 80 3f 41 f9 80 3f 27 66 7a 3f b6 43 81 3f
       1.0000172 1.0076066 0.9781212 1.0098789
000030 fd 76 7f 3f 57 21 85 3f 66 9d 6f 3f 36 b8 82 3f
       0.99790937 1.04008 0.93599546 1.0212467
000040 a9 23 7e 3f 07 9a 80 3f 7f 5a 85 3f 6e ca 78 3f
       0.99273163 1.0047005 1.0418242 0.97183883
000050 e5 d2 80 3f b5 1f 82 3f 1e 1a 70 3f 2e 7e 83 3f
       1.006436 1.0165926 0.9378985 1.0272882
000060 9c ff 87 3f 91 a4 81 3f 57 f6 74 3f d4 a0 7a 3f
       1.0624881 1.0128347 0.95688385 0.97901654
000070 58 dd 81 3f c3 30 7d 3f 8f 85 86 3f 40 10 7b 3f
       1.0145674 0.9890253 1.0509509 0.9807167

batch3.bias f4 [32]
000000 78 d5 3f bd c7 54 94 bc e5 c3 3d bd fa 88 9b bd
       -0.04683444 -0.018106831 -0.046329398 -0.075944856
000010 13 e7 2c bd 6c 87 17 3d 4e b1 5e bd 18 00 2e 3d
       -0.042212557 0.036994383 -0.05436831 0.04248056
000020 24 eb 8d bd 27 9f 09 bd 1f da 90 bd 2c 2b 86 3c
       -0.06929615 -0.033599045 -0.07072853 0.016378008
000030 2a a5 bb bd 99 e5 65 bd e4 8f 39 bd bf 42 66 bd
       -0.09162362 -0.056127165 -0.04530324 -0.056215998
000040 d2 1d a7 bd 27 2a ba bc e2 e5 bb bd 82 4a f5 bd
       -0.08159985 -0.022725178 -0.09174706 -0.11977102
000050 e1 6e ab bd 90 16 2b bd 84 07 9f 3c 73 b1 1b bd
       -0.08370758 -0.041769564 0.019412763 -0.038011026
000060 a6 56 35 bc a9 38 a2 bd 1c 09 e9 bd e1 12 2c bd
       -0.011068022 -0.07920963 -0.113786906 -0.04201019
000070 62 3f 78 bc ec d9 cf bc a6 2a 24 3d 7f 0f c7 bc
       -0.01515183 -0.025372468 0.040079735 -0.024299381

conv4.weight f4 [32, 32, 3, 3]
000000 42 27 f5 bc 0c 82 7c bd 23 39 be bc c2 f6 fe ba
       -0.029925946 -0.06164746 -0.023220604 -0.0019452202
000010 b2 31 6e bc 77 f7 66 bd 24 73 e7 bc 14 ba c8 bc
       -0.0145382155 -0.056388345 -0.028253146 -0.024502791
000020 49 8c 0b bd d9 67 eb bc 6d 52 cf bc 6a 3e a1 bb
       -0.034069333 -0.028736042 -0.025307858 -0.0049207704
000030 5e 76 b5 bc 00 ba 3a bd 39 ec d8 bc 3e 9d 16 3c
       -0.022151168 -0.04558754 -0.026479827 0.009192763
000040 a6 22 e1 3c 45 40 61 3c 58 e2 1a 3d c8 65 ba 3c
       0.027482342 0.013748233 0.037813514 0.022753611
000050 c9 d4 a2 3c 67 f3 99 3c 8c 60 dc ba a3 bd a9 3d
       0.019876854 0.018792821 -0.0016813441 0.082881235
000060 31 31 e1 3b 85 00 88 3b 7f ee eb bb 3e 35 80 3d
       0.006872319 0.0041504526 -0.007200062 0.06260155
000070 02 5e aa 3b f0 1c 39 3d c9 5b 19 3d 9b ac 1d 3d
       0.005199195 0.045193613 0.03744105 0.038494688
000080 de 81 b1 3d 0b d7 06 3d 2a d5 2a 3d 07 c1 86 3c
       0.08667348 0.032919925 0.041707195 0.016449464
000090 5f 11 eb 3b 27 50 11 3c c6 a7 b9 bc a3 31 b7 bb
       0.0071737017 0.008869207 -0.022663008 -0.005590634
0000a0 4b a5 01 3d 1e 20 bf 3b e8 40 20 3c e7 8f f0 bc
       0.031651776 0.005832686 0.0097811 -0.029365493
0000b0 b6 52 e8 bc 78 02 88 bd 3a 0e 29 bd 1b 32 85 bd
       -0.028359752 -0.06641096 -0.041273333 -0.065036975
0000c0 f3 1b 13 bd 40 b3 07 bd 0b 14 9c bd 34 17 48 bd
       -0.035915326 -0.03312993 -0.076210104 -0.048850253
0000d0 08 98 46 bd 98 bf 9a bd f8 e9 e2 bc 6e 4d 45 bd
       -0.048484832 -0.07556075 -0.027699456 -0.048169546
0000e0 0b f1 9b bc d2 d0 b9 bc 88 5b 55 bd ac db f2 bc
       -0.019035837 -0.022682581 -0.052089244 -0.029645763
0000f0 c4 26 21 bd 70 b5 dd ba a2 f0 64 bd aa df 5d bd
       -0.03934361 -0.0016915035 -0.055893548 -0.05416838
000100 99 17 02 bd 9f 14 41 bd aa 93 04 bd 43 28 f4 bc
       -0.031760786 -0.047138806 -0.032367386 -0.029804355
000110 05 02 eb bc 57 07 5e bd 4e 9f 41 bb 73 a2 51 bd
       -0.028687486 -0.05420622 -0.0029544416 -0.051180314
000120 bf 3f 9a 3d 57 0d 91 3d 9d e8 85 3d 26 39 99 3d
       0.0753169 0.070826225 0.06538508 0.07481603
000130 02 55 48 3d f8 b7 86 3d 32 10 ac 3d 83 e1 c3 3c
       0.048909195 0.06578058 0.084015265 0.023911243
000140 ab 22 c7 3d a0 f1 a2 3b 0f ac 47 3d 27 cc c1 3c
       0.09723409 0.0049726516 0.048748072 0.023656918
000150 e0 5e 92 3b c9 4e 3b 3c d3 f9 81 3c 22 54 10 3c
       0.0044668764 0.011432358 0.015866196 0.008809121
000160 f0 12 dd 3b ea ca 3f 3d 5b de be 3d 1f f3 cd 3b
       0.0067466423 0.046824373 0.09319755 0.006285086
000170 92 73 8f 3d 21 d0 12 3d 6e de c2 3a 37 6d 16 3d
       0.07004465 0.03584302 0.0014867315 0.03672525
000180 c8 68 53 3d 07 93 63 3d 46 fd 92 3d 94 3b b6 3a
       0.0516136 0.055560138 0.07177214 0.0013903254
000190 08 17 aa 3b ff 13 db bb a6 e8 06 3c 04 64 13 bc
       0.005190734 -0.0066857333 0.008234179 -0.008996014
0001a0 3b 34 03 bd b5 00 f0 3c 30 6b 80 bb 9b b4 a7 ba
       -0.032032233 0.029297212 -0.0039190277 -0.0012794913
0001b0 b9 c2 dd b9 f9 df ef bb 5b 02 bf 3c d3 5c 20 3c
       -0.00042297484 -0.007320401 0.023316553 0.009787756
0001c0 40 e3 3f 3b 8b d7 eb bc 9b 6f 6b 3c 41 f3 0c bb
       0.0029279739 -0.028789302 0.014369871 -0.0021507295
0001d0 99 ae 22 3c 33 39 30 3d ae 66 04 3d 2b ef de bb
       0.009929323 0.0430233 0.032324485 -0.0068034134
0001e0 4b 15 d1 ba 56 66 c8 bc 38 ae 26 ba e4 cb 0c 3d
       -0.001595178 -0.02446286 -0.0006358358 0.034374133
0001f0 d7 1e cb b9 35 52 01 bc 9e da 4e 3d 65 ef 10 3d
       -0.00038742155 -0.007893135 0.05050146 0.035384554
000200 41 bc 2f 3d 4e 84 d7 bb 99 f2 cc ba f7 41 1d ba
       0.042904142 -0.0065770512 -0.0015636265 -0.0005998904
000210 1c 13 b7 3c 1c 4f 11 bd 83 56 5d 3c e3 15 81 bd
       0.02234798 -0.035475835 0.0135093955 -0.06303003
000220 a8 f8 0b bd 19 ee 8f bc 3e 01 f7 bb 9e ad ca bc
       -0.034172684 -0.017569588 -0.00753799 -0.02474099
000230 a1 d1 96 bb a5 b9 42 bd fa f9 0f bd bf 70 cb bc
       -0.0046026264 -0.047540326 -0.035150506 -0.024834035
000240 86 89 46 bd f0 7a 87 bd 15 9d 1b bd e0 74 71 bd
       -0.048470996 -0.06615245 -0.037991602 -0.05894935
000250 4d 27 50 bc fc 78 0f bd 02 59 29 bd 81 1a c8 bc
       -0.012704683 -0.03502749 -0.04134465 -0.0244267
000260 2b 48 d4 bc fb 7d a1 bd 5d 39 3d bd 60 db 37 bd
       -0.025913319 -0.07885357 -0.046197284 -0.044886947
000270 b4 fb 42 bd f3 71 58 bd 0a 10 82 bd a1 03 94 bd
       -0.047603324 -0.052843045 -0.063507155 -0.07227255
000280 88 f4 41 bd d9 a4 72 bd b9 c2 2b 3d 54 99 da bc
       -0.047352344 -0.059239242 0.04193375 -0.02668444
000290 01 3c 05 3c 82 1c a5 bb 05 8f 78 bc 41 2a c1 bc
       0.008131982 -0.005038799 -0.015170817 -0.023579719
0002a0 59 b2 ac bc 2a ce b8 3b 93 4c 89 3c d9 76 36 bd
       -0.021081137 0.005639811 0.016760146 -0.044546936
0002b0 bb 51 10 bd f5 49 88 bc fe fa 1a bd c1 43 8c bb
       -0.035234194 -0.016636828 -0.03783702 -0.004280538
0002c0 c3 fd e8 bc 6e 16 63 bd b6 e2 1f bc 04 f5 0d bd
       -0.028441316 -0.055441312 -0.009758642 -0.034657493
0002d0 f1 2b 8c 3d 0d 83 64 3c 2d 71 43 3d 06 e6 be 3d
       0.06844319 0.013947261 0.047715355 0.09321217
0002e0 f2 73 47 3c e0 95 2b 3d 7e f3 64 3d 6d d6 d6 3c
       0.01217364 0.04189098 0.055896275 0.026225293
0002f0 a6 e7 2b 3d b8 cb b8 bc d6 15 35 3b 05 47 e0 3c
       0.041968964 -0.022558078 0.0027631423 0.027377615
000300 1a 9d e4 3c c9 1d d1 bc ce 8a 31 3c 67 49 18 3b
       0.027906943 -0.025526898 0.010836316 0.002323711
000310 cd 06 91 3c 09 18 4b 3a c6 31 6b bc 30 29 24 bd
       0.017703438 0.0007747417 -0.014355129 -0.040078342
000320 ff 10 79 bc 6e da 0a bd 55 dd 00 bc 64 73 9b bc
       -0.015201806 -0.033899717 -0.00786527 -0.018975921
000330 f7 29 bf bc c6 b5 71 bd 10 2d 8c bc 22 32 10 bd
       -0.02333544 -0.059011243 -0.017111331 -0.03520406
000340 16 06 ab bc 3e 06 70 bc b1 a9 34 bd a8 21 a1 bc
       -0.020876925 -0.014649926 -0.044107143 -0.019669369
000350 c5 0f de bc f1 c0 f2 bb 76 ed 95 bc 8a 37 43 3b
       -0.027107129 -0.0074082543 -0.018301707 0.0029787743
000360 a6 21 02 bd df c7 ba 3c 7c 60 66 bb 0b dd 8d bc
       -0.03177037 0.022800384 -0.0035152724 -0.017317316
000370 31 d5 22 bd 2c 4f 23 bc 5c 9a ab 3c a9 29 aa bc
       -0.039754096 -0.0099676065 0.020947628 -0.020771818
000380 85 67 30 3d e6 d0 a4 bd 25 20 00 bd 64 e7 3e bc
       0.043067474 -0.08047657 -0.031280655 -0.0116518475
000390 46 02 b7 bc 0e 53 1a ba e8 e6 f3 bc f6 1c 2b bd
       -0.022339951 -0.000588701 -0.02977319 -0.041775666
0003a0 42 c2 99 bc 33 f0 35 bc 33 a2 fa 3b 0d fd 89 bc
       -0.018769387 -0.011104631 0.00764873 -0.016844297
0003b0 dc a4 7f 3b 63 26 2f 3c 58 aa dd 3c 78 5c 3a 3a
       0.0039008176 0.010690304 0.027058765 0.0007109116
0003c0 ac 0b 0b 3d f4 4b 8d 3c ef 32 b7 bb c0 2a 68 3d
       0.033946678 0.017248131 -0.0055907886 0.056681395
0003d0 c4 38 f2 3c cd a8 67 3d 2e 32 5c bc 74 3d 25 3d
       0.029568084 0.056557465 -0.013439698 0.04034181
0003e0 66 ad 40 3c 94 77 5c 3d e4 5a 0f 3d 33 1e 2f 3d
       0.011760091 0.053824976 0.03499879 0.04275341
0003f0 9e c9 b8 bb 2d 4b 89 bb 9f 18 b2 bc 28 86 e2 bc
       -0.005639269 -0.00418987 -0.021740256 -0.027651861

conv4.bias f4 [32]
000000 46 93 15 bd 08 14 c7 bb 54 44 84 bb 80 c4 93 bb
       -0.036517404 -0.006075386 -0.0040364657 -0.0045095086
000010 9c f5 0e 3d ff 0e 24 bc 8b 23 16 3d e7 94 29 bd
       0.0349022 -0.010013341 0.03665499 -0.04140177
000020 65 37 b6 bc a0 ae 86 3b 71 c2 4d 3d 5f 23 1e 3d
       -0.022243211 0.0041101724 0.050234262 0.03860795
000030 9a ba 03 3d 66 e9 94 3c 46 8d fe bc 6c 8e 04 bd
       0.03216038 0.0181777 -0.031073224 -0.032362387
000040 02 2e f8 bc 13 e7 5a bc 2c c1 0f 3c f8 55 d9 3c
       -0.030295376 -0.013360756 0.008774083 0.02653025
000050 40 b5 0d bb 45 e0 06 bc 9d 1c 3a bd 38 4f 1d bd
       -0.0021622926 -0.008232181 -0.045437444 -0.038405627
000060 5e 12 03 3c 8a 51 25 bd f1 0e 5f bd 00 c8 56 3c
       0.007999985 -0.040360965 -0.05445761 0.013109207
000070 79 43 23 3d 2a 88 09 bd ac 29 78 bc a9 35 52 3b
       0.03985927 -0.03357712 -0.015146654 0.003207544

batch4.weight f4 [32]
000000 87 5e bf 3f 99 e7 93 3f 68 f9 bc 3f 37 38 61 3f
       1.4950722 1.1555053 1.4763613 0.879764
000010 40 d5 be 3f 2d 42 9d 3f 4a fb 8e 3f c7 cb 7b 3f
       1.4908829 1.228582 1.1170437 0.98357815
000020 c0 e9 bb 3f b8 05 b9 3f 1d 70 36 3f 8f 3c 9d 3f
       1.468071 1.445487 0.7126482 1.2284106
000030 ea cb a0 3f 4b 79 5c 3f 54 02 49 3f 9a 5e 9d 3f
       1.256223 0.8612258 0.7851918 1.2294495
000040 73 61 8d 3f 04 d4 b4 3f f4 d0 a2 3f d7 7c c3 3f
       1.1045364 1.4127202 1.2720017 1.5272473
000050 42 1c 83 3f 7e f6 a9 3f 37 e7 a7 3f 0e b7 29 3f
       1.0242999 1.3278348 1.3117436 0.66294944
000060 a4 c8 c9 3f 99 51 c1 3f 01 2c a3 3f de b4 cc 3f
       1.5764356 1.5103027 1.2747804 1.5992696
000070 47 d3 aa 3f 99 4c b1 3f e8 cb b8 3f d9 bc b5 3f
       1.3345727 1.3851501 1.4437227 1.4198257

batch4.bias f4 [32]
000000 99 47 ee 3d f4 75 11 bc 3e cf 98 3c 53 e6 18 be
       0.1163475 -0.00887822 0.018653508 -0.14931612
000010 f6 df a5 3d f3 5b 47 bb 69 f1 a0 bd b9 20 e0 bd
       0.08099358 -0.0030419796 -0.07858545 -0.10943741
000020 af ab b3 3b cb cf 15 bd a5 65 a5 be ea 46 a4 bd
       0.0054831128 -0.03657512 -0.3230411 -0.08021338
000030 e4 96 22 3c cf 75 08 be 62 a8 87 be 5d 30 8c 3c
       0.00992367 -0.1332619 -0.26495653 0.017112905
000040 aa 8b a1 bd ab cd 86 3b c5 fe a9 bc 49 56 08 3e
       -0.07887967 0.004113873 -0.020751366 0.13314165
000050 d3 fe c4 bd 85 4f f2 bb 6d 14 dc bd af 06 aa be
       -0.09618916 -0.0073947334 -0.107460834 -0.33208224
000060 e6 75 30 3e ff 01 24 3e 9e 18 11 bc b6 18 ac 3d
       0.17232475 0.16016386 -0.008855967 0.08403151
000070 9d 55 c3 3c 7e 25 97 3c 4c da cc 3d 98 61 76 3b
       0.023844535 0.018450495 0.10002574 0.0037594792

lin1.weight f4 [5, 800]
000000 e2 ab 89 ba bc 26 76 3b 10 61 32 bb b6 f3 6c 3a
       -0.0010503496 0.0037559709 -0.0027218498 0.00090390013
000010 8d 42 9d bb 7c 64 58 bc 07 87 79 bc 4f 72 d4 bb
       -0.0047991932 -0.013207551 -0.015229947 -0.006483353
000020 8b 0a d3 3b 62 d0 20 bc 51 0a 12 bc 4b 7f 40 bc
       0.006440466 -0.009815307 -0.008913592 -0.011749099
000030 60 b3 0b 3c 18 ce eb ba 52 9b ff bb da ba 8a bb
       0.008526653 -0.0017990498 -0.007800498 -0.0042337
000040 8a b5 07 3c 36 8e e1 ba f7 59 73 bc 53 dc 4c 3b
       0.008283028 -0.001720852 -0.014852992 0.0031259253
000050 8e cc 3a 3b 46 3d 2a 3b 5c a0 4f 3a 4f bc 85 3b
       0.0028503272 0.0025976463 0.0007920319 0.004081286
000060 c6 3f 8f 3b 2b f5 02 bc 91 38 54 bc 92 3d 4d 3b
       0.004371616 -0.007993023 -0.01295294 0.0031317216
000070 ed e0 3e b8 40 30 7c 3c 84 f5 9d bb 87 2e ce 3a
       -4.550901e-05 0.015392363 -0.0048205275 0.0015730419
000080 e9 6d 1c 3c 37 85 0c bb 27 1c 74 3c db 00 21 3c
       0.009547689 -0.0021441707 0.01489929 0.009826864
000090 91 63 d7 39 30 f0 af bb b1 a2 92 3c 5c 21 ef 3b
       0.00041082178 -0.0053692088 0.017899843 0.007297678
0000a0 27 ef a4 bc c0 b7 0c bb a7 03 15 bb bb 87 31 bc
       -0.020133568 -0.0021471828 -0.0022737773 -0.010835583
0000b0 fd 4e 4e bb 50 97 60 bb a8 74 4d 3c 89 3e 87 3b
       -0.0031480186 -0.0034269877 0.01254002 0.004127328
0000c0 e7 fa 00 ba bc 46 b4 bb 3c 2d 97 bc cc 53 8f bc
       -0.00049202 -0.0055015963 -0.018454187 -0.017496012
0000d0 20 2b 1a 3b 65 da ef 3b 9b c9 c5 3b 89 e3 f1 ba
       0.002352424 0.007319736 0.006035996 -0.0018454652
0000e0 fa 95 7d bc 77 b8 c1 3b 48 58 7c bc 2c 1e 86 bb
       -0.015477652 0.0059118825 -0.015401907 -0.0040929522
0000f0 97 51 6c 3c 42 85 67 3c b3 2e 60 3b 0a 28 b7 bb
       0.014423749 0.014130892 0.0034207522 -0.00558949
000100 02 7e 21 bc ec 45 1f 3c 4a 63 33 3c 8b bf ac ba
       -0.009856703 0.0097212605 0.010948965 -0.0013179643
000110 f6 4a 10 bc e5 c0 8a bb 77 c5 f9 39 f4 3f 72 bc
       -0.008806935 -0.0042344206 0.00047640104 -0.014785755
000120 ff dc 5a bb ab 8f 3f 3c 9f e9 aa bb 1f 7c 4c ba
       -0.0033395884 0.011691968 -0.005215838 -0.0007800478
000130 4d 7e 15 3c 51 99 9a bc 3a e6 f6 ba b9 f8 28 3c
       0.009124351 -0.018871935 -0.0018836923 0.010313206
000140 80 9f 49 ba dd 54 7a bc 9f c4 0e 3b e2 ad 4e bb
       -0.0007691309 -0.015279022 0.0021784676 -0.0031536748
000150 b3 78 5e 3b ff 1f 2a 3c 1b 5c 19 3b 7e f5 55 ba
       0.0033946454 0.010383605 0.0023400846 -0.00081618864
000160 84 11 b1 bb 49 33 6f bc be d6 a2 bb 38 dd 1f 3c
       -0.0054036994 -0.01459963 -0.004969447 0.0097573325
000170 0c c4 fc 3b 0b ab 79 3c fb 55 13 3b 4a 03 02 bc
       0.0077138003 0.015238534 0.0022481668 -0.0079353545
000180 3b 06 b7 bb 62 d1 75 3c 63 8d 76 bc 3e 6b 40 3c
       -0.0055854595 0.015003534 -0.015048358 0.0117443185
000190 64 16 aa 3b 46 e7 4e bc f7 a8 4a 3b 6b 59 09 bc
       0.0051906575 -0.012628382 0.0030923465 -0.008383135
0001a0 d8 5e a6 3b 19 d0 3c b7 54 a1 ea 3b e3 9f 34 bc
       0.005077224 -1.1254125e-05 0.007160345 -0.011024448
0001b0 34 45 2d bb 47 7c 93 bc 76 67 56 3c a9 ef 04 3b
       -0.0026438953 -0.018003596 0.01308619 0.002028445
0001c0 b0 1d 01 bc 54 f3 99 bb a8 34 9c ba 24 67 21 3b
       -0.007880613 -0.0046981964 -0.0011917548 0.0024628127
0001d0 93 8a 49 bc 2b 04 2a 3b 75 f2 36 3c 33 f1 fa bb
       -0.012301105 0.0025942426 0.011166205 -0.0076581477
0001e0 3c 04 59 bb f5 fa 8f bb d3 33 2b bb 36 52 a0 bb
       -0.0033114096 -0.00439393 -0.002612342 -0.004892613
0001f0 1e e0 93 bc 89 ca ce 3b 31 79 a3 3a 0d 63 79 bc
       -0.018051203 0.006310765 0.0012472031 -0.015221369
000200 55 a9 be bb 37 5f ff ba 00 80 59 3c de 63 68 bc
       -0.005818526 -0.0019483332 0.0132751465 -0.014183966
000210 98 f4 79 bc 15 bd 6d 3c dd b8 8c bb 84 9a 80 ba
       -0.01525607 0.014510413 -0.0042944984 -0.0009811674
000220 09 37 b3 3b 0d 5e c0 bb 3d c4 90 bb cb ea 37 bc
       0.005469207 -0.0058705867 -0.0044179247 -0.011225413
000230 39 dc bb ba 96 7a 0e bb d4 a7 46 bc 93 f5 60 3b
       -0.0014332599 -0.0021740547 -0.012124974 0.003432606
000240 ee 0b ee 3a 3a c3 2a 3c 38 f6 87 bc b2 79 3f 3c
       0.0018161514 0.010422522 -0.016596898 0.011686729
000250 68 53 03 3b a6 59 b4 b9 54 b4 dc 3b 5f cc ea bb
       0.0020038728 -0.0003439907 0.006735364 -0.007165476
000260 be 1b 17 3c 80 9f bc bb 5c 62 28 3c d7 8c 13 3c
       0.009222923 -0.0057563186 0.010277357 0.009005747
000270 f7 f1 7f 39 8e bc 3e 3b ff 4b 6b 3c 8e 73 b1 ba
       0.00024408834 0.0029104087 0.014361381 -0.0013538466
000280 be 75 40 3b 61 f5 bd ba 8d d4 55 3b a9 8a 80 b9
       0.0029367055 -0.0014492684 0.003262791 -0.00024517372
000290 f7 a6 eb bb 32 bf d2 38 79 cc 70 bb cf 7c 34 3c
       -0.0071915346 0.00010049193 -0.003674297 0.011016085
0002a0 3f 66 ab bb 49 62 02 3c 37 9d 79 3c 6f 39 1c bc
       -0.0052306945 0.007958003 0.015235237 -0.009535178
0002b0 15 48 89 3c c9 c5 21 bc b8 ef 2e 3c f5 e1 d1 bb
       0.016758004 -0.009873816 0.010677271 -0.00640511
0002c0 0b 12 2b bc 7f 52 2c bb 71 6e e2 3b 5f 65 67 bb
       -0.0104413135 -0.0026294289 0.0069101383 -0.0035308225
0002d0 91 9b ef bb 9d 6c 21 bc 8f 88 a8 ba 79 18 69 3b
       -0.007312246 -0.009852556 -0.001285808 0.0035567565
0002e0 6f 72 f7 bb 1d 68 8f bc ee 96 48 3c 1e 35 12 bc
       -0.0075514833 -0.0175057 0.012243016 -0.008923797
0002f0 24 a0 d6 ba 99 8c 95 3c da 1e b8 3a 18 b5 00 3c
       -0.001637463 0.018255519 0.001404728 0.007855676
000300 43 33 1a 3b a3 f9 2b bc b3 20 02 bc 2a f3 f7 bb
       0.002352909 -0.01049653 -0.007942366 -0.007566829
000310 35 97 f2 b8 6a 56 cc 3b c2 9b 1f 3b ec ea d4 3a
       -0.00011567624 0.0062358873 0.0024354314 0.0016244329
000320 c7 f5 5b 3a 63 e1 02 bc 22 fa a7 bb da ef d8 ba
       0.00083908107 -0.007988307 -0.0051262537 -0.0016550974
000330 40 d2 d9 bb 3d 81 55 3b 31 f1 78 bb 44 91 09 bc
       -0.006647378 0.0032578253 -0.0037985558 -0.00839645
000340 0b cd 11 bc 85 f7 6e bc fd b7 a8 3c 97 5d 1f 38
       -0.008898984 -0.01458538 0.020595545 3.7995716e-05
000350 f4 d1 93 bb a5 41 02 3b 3f 66 94 3c ef e8 76 bb
       -0.0045111123 0.0019875553 0.018115161 -0.003767546
000360 0c 87 60 3c a9 5c 4a bc 1b 54 65 bb 41 4a 9f 3c
       0.013704073 -0.012351193 -0.0034992758 0.019444587
000370 98 ab 38 bc 3f 40 1c 3a 8c 4e ea bb 80 3b 9c bb
       -0.01127138 0.0005960501 -0.007150477 -0.004767835
000380 6e 61 2f bb da 90 5e 3c ef 13 a4 3b 0f 29 16 3c
       -0.0026760953 0.01358434 0.005007259 0.009165063
000390 26 59 85 bb cb 18 05 3b 09 00 86 bb 93 0f d8 bb
       -0.004069465 0.0020308967 -0.0040893597 -0.0065936535
0003a0 63 55 1c 38 50 26 74 3b b7 2f 21 3c 70 91 32 bc
       3.727282e-05 0.0037254281 0.009838036 -0.010898933
0003b0 60 c5 04 bc 08 19 30 ba 12 9b 2a bc e5 8f 83 bc
       -0.0081036985 -0.0006717597 -0.010412948 -0.016059825
0003c0 8d 01 c2 bb 73 7a 71 3c 58 27 00 3c 9e ea 8d 3b
       -0.005920595 0.014738667 0.00782188 0.004330947
0003d0 2c 57 e3 bb 66 34 16 bc e1 d8 9b 37 59 72 32 3c
       -0.006937882 -0.009167766 1.8578432e-05 0.01089152
0003e0 ed d4 45 3c 6b 88 d5 3b ea 4a 1f bc 90 dc 7a 3c
       0.012074691 0.0065165064 -0.009722451 0.015311375
0003f0 58 f5 7a bc d2 5c 5c bc 9c 01 9c 3a ee 2a 5a bb
       -0.015317284 -0.013449864 0.0011902335 -0.0033289748

lin1.bias f4 [5]
000000 49 a4 b4 bb af 0b 1c bc 77 ad c7 bc 34 34 93 bc
       -0.0055127484 -0.00952427 -0.024374707 -0.017969228
000010 af f4 7d bc
       -0.015500232
