results_auto/01_domain_adaptation/maml_supervised/June/officehome_maml_order_2_seed_0_shots_1_ways_5_meta-lr_0.0001_dropout_0.2_RandAugment-prob_0.5_datetime_11_06_2021_09_41_05/intermediate_44000_model.pt (torch, 412181 bytes, 54 tensors)

conv1.weight f4 [32, 3, 3, 3]
000000 e5 9a 12 3c 03 7d dc 3d 0d 75 1f be 80 f3 15 be
       0.008948063 0.107660316 -0.15571995 -0.14643669
000010 fb 0f 95 bd 20 bd 87 3d 63 da 70 3c c7 50 31 3e
       -0.07278439 0.066278696 0.014700505 0.1731597
000020 d6 fd 95 3b b1 4a 4b 3d 60 7b 95 bd e5 eb 3d bd
       0.0045773787 0.04963178 -0.072989225 -0.046367545
000030 de b6 5d be 51 31 20 be 73 ef a5 bd e6 a8 31 3c
       -0.2165179 -0.15643813 -0.08102312 0.010843491
000040 d4 73 c2 3d 7a e8 08 3e 62 ca 24 be bf 5b e4 bd
       0.09494749 0.13369933 -0.16092828 -0.11150312
000050 44 71 90 3d 7e f7 15 3e ba e4 88 bd 89 d5 0b 3e
       0.07052854 0.14645192 -0.06684251 0.13655676
000060 ac ec 12 bc 40 16 0d 3d a4 16 48 3e 94 21 3b be
       -0.00896756 0.034445047 0.19539887 -0.18274528
000070 97 7b e6 bd 31 e5 24 bd 23 25 4d bd de f1 4e 3e
       -0.11254042 -0.040257636 -0.050084244 0.20209453
000080 33 46 e5 bd 98 15 50 bd 68 a3 cc bd 1a 33 2d be
       -0.1119503 -0.050801843 -0.09992105 -0.16914025
000090 3c 00 e6 bd 1c d7 35 3e c4 a3 bb 3d ab 68 e5 3d
       -0.112305135 0.17757839 0.09162095 0.112016045
0000a0 ea b5 24 3d 71 85 ba bd e7 01 8f 3d 9f 8e 1e be
       0.04021255 -0.09107483 0.06982785 -0.15484093
0000b0 d7 3a 17 be eb 9d 03 be 63 a6 09 3e 7f 9b e5 3d
       -0.1476854 -0.1285321 0.13442378 0.11211299
0000c0 52 2c a7 bd af cf b1 3c ac 32 00 3e f2 75 68 3e
       -0.0816275 0.021705477 0.1251933 0.22701243
0000d0 6f 21 df 3d 8e 78 b1 3c ba 33 2a 3e db 6e e8 bd
       0.10895049 0.02166393 0.16621295 -0.11349269
0000e0 a0 d8 b5 3c 81 bb e3 bd b0 ee f3 bd 82 6e dd bd
       0.022198021 -0.11119748 -0.119107604 -0.10812093
0000f0 e9 d2 f5 3d f2 c7 ae 3d 0f bf e8 bd 06 f6 a6 3d
       0.120031185 0.0853423 -0.113645665 0.08152394
000100 e3 68 ad 3d e6 fb 65 bd cd db ec 3c d1 81 b7 3c
       0.08467271 -0.056148432 0.028913403 0.022400768
000110 76 90 ca 3d 69 80 48 3e 40 ac 22 be c1 55 c1 bd
       0.09890835 0.19580235 -0.1588602 -0.094401844
000120 cc b6 c4 3d 74 34 1a 3e 2e 59 05 3e a1 d5 1e 3e
       0.09605178 0.15059072 0.130223 0.1551118
000130 75 d5 36 3c 93 4a 4c be bc f5 95 3a 09 14 3e be
       0.011159291 -0.19950323 0.0011441032 -0.1856233
000140 8e 6a 72 be 66 ef 37 3e c9 59 30 3e eb f2 fe bd
       -0.2367346 0.17962417 0.1722175 -0.12448677
000150 71 32 d5 3c 14 fc 57 bd d7 c5 11 bb 96 77 b9 bd
       0.026025029 -0.052730635 -0.0022243166 -0.09056012
000160 69 57 60 3d ce 12 d6 bd dd 54 89 3d e1 8b 01 3e
       0.05477086 -0.104528055 0.067056395 0.12651016
000170 6a f7 54 3e e6 07 3c 3d 1f 6b 59 be 45 b5 c9 bd
       0.20797506 0.04590597 -0.2123227 -0.098490275
000180 73 a9 a3 3d 31 b2 06 3c b2 77 10 be 28 10 b4 bd
       0.07991304 0.008221195 -0.1410816 -0.08792144
000190 41 de 70 3e 21 1b 69 3e fc e4 be bd 75 bd 53 bd
       0.23522283 0.22764255 -0.09321019 -0.051694352
0001a0 ac 32 e4 bd 02 f3 d0 bc c8 06 20 be 1c f9 c3 bd
       -0.111424774 -0.0255065 -0.15627587 -0.09568998
0001b0 b8 13 ae 3c f9 84 bd 3b c7 74 99 bd 11 ca 1e 3e
       0.021249637 0.005783674 -0.07492977 0.1550677
0001c0 77 f4 e6 bd 93 b2 5e 3e 9a bd 1f 3e 67 c0 4a be
       -0.11277097 0.21747808 0.15599671 -0.19799958
0001d0 ab 60 24 bd bb 25 e0 3a e2 ec 10 bc f6 07 3b 3d
       -0.040131252 0.0017101088 -0.00884554 0.04566189
0001e0 69 ee cd 3d 92 70 a0 bb 2a 78 25 bd d9 b2 b5 3d
       0.10055239 -0.004896232 -0.0403978 0.08872003
0001f0 49 40 70 be fd 20 da bd af 6c ec bc 6e 99 ca bd
       -0.23462023 -0.10650823 -0.028860418 -0.09892546
000200 55 f4 d1 bc dc 41 92 bd 35 34 81 3c 6a 88 fe 3d
       -0.025629202 -0.07141468 0.015771965 0.12428363
000210 21 3e 96 bd 3f 2b 0d bd b2 56 2a 3e 5e a9 51 bd
       -0.07336069 -0.03446507 0.16634634 -0.05118691
000220 58 97 3e bc 2f c7 3e bd 6e c2 0f 3d 95 74 0c 3e
       -0.011632763 -0.046576675 0.035097532 0.13716348
000230 0d 7c 5e 3e 4e de 02 3e 59 46 4a 3e 19 b7 98 bc
       0.21727009 0.12780115 0.19753398 -0.018641995
000240 70 3e 3b be 6a 2b 70 bd db 3c 2b 3e 7b 5e 51 bc
       -0.18285537 -0.058635153 0.16722433 -0.012778874
000250 ab 46 8f bd 5c 09 e2 bd c9 7d 3a be 8f e3 27 be
       -0.06995901 -0.110369414 -0.18212046 -0.163954
000260 e5 a3 28 bd 4d db f0 3d d4 bb fe 3d 4f 81 44 be
       -0.041171927 0.11760578 0.12438169 -0.19189952
000270 41 11 06 3e 4e 2a 0b be 58 fa b9 bc 10 a3 49 bd
       0.1309252 -0.13590357 -0.022702381 -0.049227774
000280 59 b6 03 bc 9d df 41 bd 5f 5f 36 be d8 ee 1a be
       -0.008039081 -0.047332395 -0.17809819 -0.15130174
000290 fe 2c 85 ba 9b e2 4c 3c 23 82 b2 bd b6 f1 e1 3d
       -0.0010160503 0.012505199 -0.08716228 0.11032431
0002a0 a5 9a 33 be 54 9b 1c ba 25 9a 42 3e f4 e3 ad bd
       -0.17539461 -0.00059740734 0.19004114 -0.08490744
0002b0 5a a8 27 3e 70 63 b0 3d ee 82 2b be 28 5d 0c 3e
       0.16372815 0.08612716 -0.16749164 0.13707411
0002c0 0f 93 66 bb 76 c1 ae bd d0 38 3c 3e 21 2d 21 be
       -0.0035182869 -0.085329935 0.18381047 -0.15739872
0002d0 73 ec 20 bb 47 f2 29 bd 35 09 18 3e 1b 17 8b 3d
       -0.0024554997 -0.04149082 0.14847262 0.067915164
0002e0 94 d2 f1 3d 2e 0f b6 3d 31 68 31 bd 73 ea c8 bc
       0.11807743 0.08889614 -0.043312255 -0.024525857
0002f0 bd 65 32 be 3c 29 16 3e e8 8a 47 3e d5 31 23 3e
       -0.17421623 0.14664167 0.19486582 0.15936978
000300 7b 51 38 be 9e d2 9d bc 9d 3f 16 be 36 07 b2 bd
       -0.17999832 -0.01926547 -0.14672704 -0.086927816
000310 d6 0a e3 bd b3 d6 c8 3d e2 01 de bd 7b ae 69 37
       -0.11086051 0.098065756 -0.10840203 1.3928507e-05
000320 3a c3 dc 3c 29 6d a5 3d 3b 6f 27 be c3 e6 08 be
       0.02694856 0.08077461 -0.16351025 -0.13369279
000330 a7 98 c8 bd 4d 8a 1b 3e fb 7c 36 bd d0 1a 37 3e
       -0.09794741 0.15189476 -0.044552784 0.17881322
000340 ab 67 85 3d 7f 6d 54 3d fa e0 f6 bc a0 1f 8e bd
       0.06513914 0.051862236 -0.030136574 -0.06939626
000350 ac af 84 3c 32 fe fb bc d1 cf 88 bb 0e c3 ad 3c
       0.016197048 -0.030760858 -0.0041751643 0.021211173
000360 52 7a 21 be 9b 2b ea bd 54 39 3a 3e 00 98 28 be
       -0.15769318 -0.11434098 0.18185931 -0.16464233
000370 98 4f d7 3b 85 79 61 3e ba a6 6d 3d 9d 0a e4 3c
       0.0065707676 0.22019012 0.05802033 0.027837092
000380 ee f9 22 be 16 fa 01 3e d3 ab 27 be 1e 48 3e bd
       -0.15915653 0.12693056 -0.1637414 -0.046455495
000390 82 27 8d bd 8b 1b 0f bd b3 f6 a9 bc 83 8a 1c 3e
       -0.06892301 -0.034938376 -0.020747518 0.15287213
0003a0 7a 36 42 3d dd 17 18 3e 6c 18 f5 3d 09 b9 2a be
       0.047415234 0.14852853 0.11967549 -0.16672148
0003b0 d8 75 ab 3d 38 d9 1e be 38 1b ce bd 47 57 26 3d
       0.08372086 -0.1551255 -0.10063785 0.040610578
0003c0 03 e7 75 3d e2 18 18 3e 8f 3d 7e bd 95 be 09 3d
       0.060034763 0.14853242 -0.062070426 0.03362902
0003d0 6c 98 bc 3d 2d 7a 38 be b7 13 59 3e d1 01 16 be
       0.0920876 -0.18015356 0.21198927 -0.1464913
0003e0 12 56 11 3d 9f b3 c6 3b db 7d 43 bd e8 93 be 3d
       0.035482474 0.006063893 -0.047727447 0.09305555
0003f0 aa 71 2b 3e f7 67 a8 bd 4d 1c 00 be 59 ea 32 bd
       0.16742578 -0.08222955 -0.12510796 -0.043680523

conv1.bias f4 [32]
000000 ab b2 5b 3e bd 92 75 bd e8 0c 3d bc 92 19 99 bd
       0.21454875 -0.059954394 -0.011538722 -0.0747558
000010 cd ba 21 bd 54 db 57 3d 17 94 3b 3c a9 a6 8a bd
       -0.039484788 0.052699402 0.011448882 -0.06770069
000020 84 50 38 be db b8 ea 3c 4c c5 4d bc 11 67 ac 3c
       -0.17999464 0.0286526 -0.012559246 0.02104524
000030 e3 d5 2b 3e 5d a6 2b 3e 91 f8 e2 bd 71 5b 4a 3c
       0.1678081 0.16762681 -0.110825665 0.012350903
000040 ad 46 49 bd 04 94 45 be 40 c3 10 be ab 04 2f 3e
       -0.049139667 -0.19294745 -0.14136982 0.17091624
000050 21 d4 da 3d 01 db 03 3e 98 c1 07 3e b2 47 1a be
       0.10684992 0.12876512 0.13257444 -0.15066412
000060 cd 30 b6 3c 50 7d 31 3e ed db cf bd 39 89 28 3e
       0.022240067 0.17332959 -0.101493694 0.16458596
000070 3e 35 5a 3d 28 c9 26 3e 69 87 9a bd 5d 7b b6 3d
       0.053273432 0.16287673 -0.07545359 0.089102484

batch1.weight f4 [32]
000000 a8 4e 8f 3f 7e 23 75 3f aa ec 87 3f d0 75 85 3f
       1.1195879 0.9575728 1.0619099 1.0426579
000010 76 4c 7f 3f 86 3d 6d 3f e9 8a 88 3f 7c 9b 8b 3f
       0.99726045 0.92672 1.0667392 1.0906825
000020 90 0b 8a 3f 27 07 86 3f e5 3a 7a 3f 26 27 7a 3f
       1.0784779 1.0470933 0.97746116 0.97715986
000030 80 0c 65 3f b3 48 77 3f df 72 5d 3f f9 0a 73 3f
       0.894722 0.96595305 0.86503404 0.9493862
000040 48 e1 7d 3f c3 d1 6c 3f 6b 2b 6e 3f d2 19 75 3f
       0.99171877 0.9250757 0.93035 0.95742524
000050 6b 3e 5e 3f a0 1f 86 3f 62 0b 84 3f 09 04 87 3f
       0.8681399 1.0478401 1.0315974 1.0548106
000060 0b a4 81 3f 1d ac 83 3f 74 fc 81 3f 88 09 8c 3f
       1.0128187 1.02869 1.0155168 1.0940409
000070 0a 09 88 3f e2 ce 7e 3f 55 dc 78 3f 4b d4 6d 3f
       1.0627759 0.9953443 0.972112 0.9290206

batch1.bias f4 [32]
000000 63 6f 2e 3e 49 42 67 bd 41 d8 21 3e 13 ec c5 bc
       0.17034678 -0.0564597 0.1580515 -0.02416042
000010 5f 78 69 bd 24 b2 85 bc 74 bb a7 bd 3d 6b 87 3d
       -0.05699956 -0.016320296 -0.08190051 0.06612251
000020 59 16 99 3c 2e 74 23 3d 0f e9 c9 bd 91 35 4c 3e
       0.018687414 0.03990572 -0.098589055 0.19942309
000030 be 51 8c bd 21 ff ad 3d 63 8a 2b bc 91 30 7f bc
       -0.068515286 0.084959276 -0.010470006 -0.015575544
000040 f0 b2 af bc de fc 02 be 93 17 f8 bd 69 cb 6c bd
       -0.021447629 -0.12791774 -0.121138714 -0.057811175
000050 1e 0b 2b be 1d 82 89 3d 07 9b 4e 3d e2 d8 88 3e
       -0.1670346 0.0671427 0.050440814 0.26727968
000060 17 5c 2c bc e6 38 ab bd d9 30 21 bd c3 38 14 3d
       -0.010520003 -0.08360462 -0.039353225 0.036186945
000070 2f 20 15 bd 4a 85 1b 3e 5d 80 d7 bd f7 62 22 be
       -0.036407646 0.15187564 -0.1052253 -0.15858065

conv2.weight f4 [32, 32, 3, 3]
000000 4b 21 22 be dc cc 17 ba 9d 81 44 bc 44 c8 61 3d
       -0.15833013 -0.00057907193 -0.011993793 0.05512263
000010 d1 26 4d 3d c1 28 39 3d 0b 65 3f 3d e8 47 5d 3d
       0.050085846 0.04520488 0.04672722 0.054023653
000020 19 3c d3 3c 0c 09 f4 bc b7 5a 01 bd 19 30 56 3c
       0.025785493 -0.02978947 -0.031580653 0.013072991
000030 25 9a 2a bd 06 43 bc bc 49 d0 c3 3d b9 60 0a bd
       -0.04165091 -0.022981178 0.095612116 -0.03378365
000040 69 d2 e8 bb dc a9 ec bb a8 25 33 3d ce f0 31 3d
       -0.007105161 -0.0072223973 0.043737084 0.04344254
000050 b3 7a 5e bd 9f ca 17 bd 55 e7 88 3d 2e ea 76 3d
       -0.054316234 -0.03705847 0.06684748 0.060281925
000060 4c d8 25 3d 10 01 3e bd 96 5b c3 bd cc da 77 3d
       0.04048948 -0.046387732 -0.09538953 0.060511395
000070 dd 2f ff 3b 91 d2 bd bd 09 a3 4d bd aa f4 53 bd
       0.007787688 -0.09268678 -0.05020431 -0.051747
000080 5b 7a 8f bc 98 04 45 3d 20 30 1a 3d 31 74 13 be
       -0.017514398 0.048100084 0.03764355 -0.14399792
000090 e0 a3 66 bd a0 4a b1 3c 3f a4 a2 bb 0a d0 8f 3c
       -0.056308627 0.02164203 -0.0049634273 0.017555255
0000a0 a2 c2 3d 3c c1 bd f7 ba b2 17 a0 bc 40 26 10 bd
       0.011582049 -0.0018901156 -0.019542549 -0.035192728
0000b0 7d 0d 08 bd 4a 2d 14 bc 20 88 04 3c bd cc 9a 3a
       -0.03321599 -0.009044001 0.008089095 0.0011810284
0000c0 12 87 5a bd 34 8f 2a bd c8 df 94 bd e4 39 1f bd
       -0.05335147 -0.041640475 -0.072692454 -0.03887357
0000d0 1b c8 f7 3c c5 92 8b 3c 8e dd 83 bd df 5a 5e bd
       0.030246785 0.017037759 -0.064387426 -0.05428588
0000e0 53 35 f7 bc 45 b3 c1 bd 63 89 27 3d f2 dc b3 3d
       -0.030176794 -0.09458021 0.040902507 0.08782376
0000f0 2c 75 5b 3d 0f c1 e9 bb b0 40 fa 3c b4 7d 06 3d
       0.05357854 -0.00713361 0.030548424 0.032834724
000100 81 cf e9 bd 12 b2 a1 3c 3b 5d 22 bd a2 66 fc bc
       -0.11416531 0.01973823 -0.039639693 -0.030810658
000110 59 cf ce bd 0d 26 d7 3c 01 84 0c 3d f7 9a 1b bb
       -0.10098142 0.026263261 0.034305576 -0.002374349
000120 5d 4e be bd 5d 81 56 3b b2 9c 9a 3b 11 b6 9a 3a
       -0.0929229 0.0032730915 0.0047183866 0.0011803528
000130 4f 27 bf 3d 84 6a be 3c b1 1c cb bd a9 f4 2e 3c
       0.093336694 0.02324415 -0.09917582 0.010678449
000140 88 f7 1d 3d 2a 99 62 3d c5 2c 36 bd 41 24 1e 3d
       0.038566142 0.05532185 -0.04447629 0.038608793
000150 fd 77 a4 bd 88 71 5f bd fb f8 a8 3c 5f 7f b3 bd
       -0.080306984 -0.05455163 0.020626536 -0.087645285
000160 54 53 f4 3c 9c 59 49 bd 11 42 dd bc 1b 86 78 bc
       0.02982489 -0.049157724 -0.027009042 -0.015168692
000170 2f 6d db bc 47 29 a0 3c a0 a9 4a 3d cd 85 7c 3d
       -0.026785461 0.019550933 0.049478173 0.06165104
000180 f9 bd 20 bb 4d e1 e5 bb 75 18 f4 3c d8 74 6e bc
       -0.0024527295 -0.0070153833 0.029796818 -0.014554225
000190 12 e1 d6 3b 70 20 e0 bc 5e b1 ec 3c 50 3a 74 3c
       0.006557592 -0.027359217 0.028893169 0.014906481
0001a0 a5 18 c5 3b 1c 4a 7c bd 9a e5 23 3d 67 4f e5 bc
       0.0060149007 -0.061594114 0.040013887 -0.027991964
0001b0 3a e7 2f 39 f8 94 74 3d 32 01 e5 bc be f2 36 bd
       0.00016775439 0.05971238 -0.027954672 -0.04466509
0001c0 92 19 83 3c d3 a5 cb b9 c5 31 94 3c 09 da 29 3d
       0.016003404 -0.00038842726 0.018090138 0.0414677
0001d0 35 ed 4a 3d bc 8a 9e bc d9 24 2b bb ef 98 1b 3d
       0.049542625 -0.019353263 -0.0026114492 0.037987646
0001e0 7c 7a 90 3d 4d 0d b1 bc f3 86 07 bd 49 b5 97 bc
       0.07054612 -0.021612788 -0.033087682 -0.01851906
0001f0 56 7d ca 3c c3 90 82 bc dc ea 28 bd 51 98 3f 3d
       0.024717968 -0.015938168 -0.041239604 0.04677612
000200 cc 61 ca bb 7e 50 b0 bd 57 47 96 bd e0 1a d0 bb
       -0.006176209 -0.08609103 -0.07337826 -0.00635086
000210 28 df 4d bc 8d 60 4a 3d 4f 32 4c 3d f8 d4 03 3d
       -0.012565412 0.049408484 0.049852666 0.032185525
000220 25 14 03 3d 9a c0 29 3b ce 29 46 bd d6 2a e0 3c
       0.032001633 0.0025902153 -0.04837971 0.027364176
000230 9f a9 d6 bc c2 87 ef bc 77 2c 37 bd 8d 01 6a 3d
       -0.026203929 -0.029239539 -0.04472014 0.057130385
000240 9e ef 4c bd 58 94 bb 3d 8e 52 b0 3c 4e aa 40 bd
       -0.050033204 0.09159154 0.02152374 -0.047037415
000250 c9 b8 9a 3b b1 9d 3f 3c 64 11 bc 3b 9b cc eb 3c
       0.004721735 0.011695311 0.005739378 0.028784087
000260 89 a7 e2 bd b0 35 2f 3d f2 4f 08 bd 43 36 9c bd
       -0.11067111 0.04277581 -0.033279367 -0.07627537
000270 63 8c 96 3c 59 bf 99 3d c6 1e b3 bc 3f 55 76 bc
       0.018377488 0.075072 -0.02186526 -0.015034973
000280 aa 93 c7 3c 8e fe 88 3d 34 df 9e 3d a4 b3 d2 bb
       0.024362404 0.066891775 0.07757416 -0.0064301062
000290 26 11 81 3b a3 38 4f 3d 99 e4 43 3c d0 6c ed 3c
       0.003938812 0.050591122 0.011956357 0.02898255
0002a0 5a d0 95 bc 56 7d 20 bd ea 4c bb bb c2 8d ec bc
       -0.018287826 -0.03918203 -0.005715956 -0.02887619
0002b0 0a 6a 3c 3d b0 34 9c 3d 43 ae e3 3b 40 45 3a bd
       0.045999564 0.07627237 0.006948264 -0.0454762
0002c0 ea d7 b9 b9 17 53 97 bd 3f 76 62 3d 88 42 c8 bc
       -0.00035446818 -0.07388895 0.05528855 -0.024445787
0002d0 b0 c4 e6 bc 04 e8 0c bd 34 82 fd 3c 78 72 1b bd
       -0.02816996 -0.034400955 0.030945875 -0.037950963
0002e0 4a 73 7a 3d 32 83 a9 bc 1f 3e 6e 3c b0 f0 39 3d
       0.061145104 -0.020692442 0.014541178 0.045395553
0002f0 40 f2 dd 3c d4 ea 33 3d b0 ed 81 3d 2c 7c de bc
       0.027093053 0.04392512 0.063441634 -0.02715882
000300 6c 99 0d bd 4c 54 ae bd d5 20 60 bd 45 d1 7f 3d
       -0.034570143 -0.08512172 -0.05471881 0.062455434
000310 38 70 aa bc 5c f9 8b 3d 72 cc 12 bc c5 c6 6b bd
       -0.020805463 0.06834671 -0.008959876 -0.05756261
000320 50 b4 02 3c af de 69 bd 83 8d c2 3c a1 7a af 3c
       0.00797756 -0.057097133 0.023749119 0.021420779
000330 15 0a 29 bc f7 e5 ca 3a dc 2a 42 3d 7e f0 0c 3d
       -0.010317345 0.0015479912 0.047404155 0.03440904
000340 45 2f c5 bc 11 70 e1 3c 44 1f 96 bc 2a 88 e2 bc
       -0.024070391 0.027519258 -0.018325455 -0.027652819
000350 7d 23 90 3d d8 b9 c9 bb b0 68 34 3d ff e9 ae bd
       0.07038019 -0.0061561875 0.04404515 -0.08540725
000360 21 87 6b bb af b6 26 3d 4d a0 ae bc 6a b8 8f bd
       -0.0035938697 0.040701564 -0.021316672 -0.07017596
000370 10 60 1b 3c 50 b7 7d bd f0 5a 78 bd b7 85 4c bd
       0.009483352 -0.0619424 -0.0606336 -0.049932208
000380 c4 b7 6a 3d 45 d7 24 bd 35 57 5c bd 8e 82 09 3d
       0.05730416 -0.04024436 -0.053794105 0.033571772
000390 e6 00 0d bd 61 46 45 3d 9f eb 7a 3c 8b 2f 02 bd
       -0.034424685 0.04816282 0.0153149655 -0.03178362
0003a0 91 6d 7e 3d f7 a0 63 bc 03 e1 0b bd a9 be 08 bd
       0.06211621 -0.0138933575 -0.034150135 -0.033384953
0003b0 bd f8 d8 bb bf 3a 6c 3d de 5d 91 bc f0 62 98 bc
       -0.006621449 0.057673212 -0.017744955 -0.018601865
0003c0 dc 35 42 bc ed 21 99 bb 22 70 26 3d e1 24 ac bd
       -0.011853661 -0.0046732337 0.040634282 -0.084054716
0003d0 e2 27 ab bc 50 b1 96 3d d8 72 61 bc 0c e6 26 3a
       -0.020893041 0.073580384 -0.013760291 0.0006366677
0003e0 7e 39 ed 3c ba 0e 37 bd 1e 2f 06 3d a7 d5 53 bd
       0.028958078 -0.04469178 0.03275978 -0.051717427
0003f0 52 e7 73 bb d9 cf 10 3c bc a1 8f 3c ef 6d ba bd
       -0.0037216735 0.008838617 0.017533176 -0.091029994

conv2.bias f4 [32]
000000 17 a3 34 bc 47 cb 69 3d 00 df 6c 3c 1d 73 2a bd
       -0.011025212 0.057078626 0.014457464 -0.041613687
000010 e5 04 90 bc 0c 4d 29 bd 29 0a 1d bd fb eb 2a bd
       -0.017580459 -0.041333243 -0.038339768 -0.041728955
000020 5b 77 89 3d 7b e5 52 bd 09 92 2d 3d 1b e8 64 bd
       0.067122184 -0.05148838 0.042375598 -0.055885416
000030 86 26 f8 3a 77 ae 39 3d 13 b7 c3 bc b6 9b ae bc
       0.0018932379 0.0453324 -0.023891008 -0.021314483
000040 a1 f9 04 bd 11 06 b6 bc 8d ff 9e 3c a6 63 21 bd
       -0.032464627 -0.02221969 0.019408965 -0.039401673
000050 9d c7 0f bd 4a d1 72 3d 55 c6 71 3d d3 8b 99 bc
       -0.035102475 0.059281625 0.059027035 -0.018743431
000060 a4 a2 cc bb ab 04 3a bb 19 bc 41 3d 33 00 8d bd
       -0.006244974 -0.002838413 0.047298525 -0.068848036
000070 d6 89 6f bd 0c da 15 3d 35 c0 56 3c 0e 32 61 bc
       -0.05848106 0.0365849 0.013107349 -0.013744844

batch2.weight f4 [32]
000000 5b e9 8e 3f 33 46 5f 3f d2 2e 87 3f 0b 6d 6a 3f
       1.1164964 0.8721649 1.0561163 0.91572636
000010 e6 10 71 3f c2 03 77 3f e8 be 88 3f d8 9b 79 3f
       0.9416641 0.9649011 1.068326 0.97503424
000020 74 6a 88 3f fb 65 92 3f 53 93 88 3f 28 8a 8b 3f
       1.0657487 1.1437372 1.066996 1.0901537
000030 81 ab 6e 3f 18 a5 84 3f e4 c1 68 3f 03 e3 81 3f
       0.93230444 1.0362883 0.90920854 1.0147403
000040 4e 76 82 3f dd a5 70 3f f2 ea 83 3f 48 19 79 3f
       1.0192354 0.9400309 1.0306075 0.973042
000050 9f 97 84 3f 3b 12 88 3f ab 8c 81 3f 34 5f 64 3f
       1.0358771 1.0630563 1.0121053 0.8920777
000060 2d b3 83 3f ed 93 88 3f 40 30 63 3f f6 16 86 3f
       1.0289055 1.0670143 0.887455 1.0475757
000070 0b 73 92 3f 93 33 8b 3f 60 c3 72 3f 16 88 87 3f
       1.1441358 1.0875114 0.9482937 1.0588405

batch2.bias f4 [32]
000000 c8 5b 19 bd 6c 5b af bd e3 bc 17 3e 7f 46 03 be
       -0.037441045 -0.08562359 0.14818148 -0.12819861
000010 48 b9 19 be 06 fa cc bd f6 9e 2f bd 1d ac d0 bd
       -0.15012085 -0.10008626 -0.042876206 -0.10189078
000020 61 12 3c bd fa e5 c3 3d 7c ae 9d 3d f8 4e 9b bc
       -0.045915965 0.09565349 0.07699296 -0.018958554
000030 29 57 dd bc 58 55 8f bc 90 d3 c6 bd a9 f1 3a 3d
       -0.0270191 -0.01749675 -0.09708321 0.04564062
000040 f1 26 0b 3d ba cb 40 be ab 12 e1 bd c8 3b da bd
       0.033972684 -0.18827716 -0.10989889 -0.106559336
000050 64 d2 b8 3d 8f b4 a5 3b d7 4a 65 3d af 3a 1b be
       0.09024504 0.0050569247 0.055979576 -0.15159105
000060 80 bb 71 3e 9f 11 b6 3d d7 27 13 be b8 53 c2 bd
       0.23606682 0.0889008 -0.14370666 -0.09488624
000070 12 76 8f 3b 6e fb be 3d 53 c1 48 be b0 4e 18 be
       0.0043780887 0.093253 -0.19604997 -0.14873767

conv3.weight f4 [32, 32, 3, 3]
000000 24 a2 40 3d 72 ca 84 3d 71 52 bc bd ce ff c6 3c
       0.04702963 0.06483926 -0.09195412 0.024291899
000010 92 2c ba 3c cc 3f 5e bd a4 7e cb bd 88 d4 c1 3c
       0.02272633 -0.05426006 -0.09936264 0.023660913
000020 63 6c 82 3d aa 88 d8 bb 76 53 bc bd 1f 19 d4 3a
       0.063683294 -0.0066080885 -0.091956064 0.0016181803
000030 9d cd 0a bd 0c 7c 69 bd 83 e8 98 3c ba 86 0a bc
       -0.033887494 -0.057003066 0.018665558 -0.008454973
000040 78 8d ff 3c 0c f2 f8 3c 8a 86 76 3d aa c9 6e 3c
       0.031195387 0.030388854 0.0601869 0.014574448
000050 70 df 1c 3d 66 e6 20 3d 5d 88 5e bb e2 9e 3b 3d
       0.038299024 0.039282225 -0.003395579 0.04580582
000060 df 0a 90 bd 80 c5 46 3d 97 47 ca bc c7 f1 0f 3c
       -0.070333235 0.048528194 -0.02469234 0.008785672
000070 5c 34 ba 3d 5c 5f 62 bd fd 52 d7 3a d8 5d 95 3d
       0.09092018 -0.055266723 0.0016427931 0.0729329
000080 46 60 86 3c d7 9f 95 bd 7d 3f bd bd ff 77 9d bd
       0.016403329 -0.07305878 -0.09240625 -0.07688903
000090 90 90 26 bd 24 a7 cc 3c 4f 1d 63 bc d3 79 4b 3b
       -0.04066521 0.024982043 -0.013861968 0.0031047955
0000a0 65 62 e6 3c 5f 07 0a 3d e0 0b 18 3d 8d b6 00 bb
       0.02812309 0.033698436 0.0371207 -0.0019640059
0000b0 b4 37 3e 3d 6f 90 20 3d 16 ee 3b 3d 26 58 c7 bc
       0.04643984 0.039200243 0.045881353 -0.024334025
0000c0 e8 91 a4 bc f2 de 49 3d f5 6d ff 3c ae 01 e6 39
       -0.020089105 0.049284883 0.031180361 0.0004387027
0000d0 cb 62 90 bd a6 f9 22 bb 7b d8 a9 bb 02 bf 41 bd
       -0.07050093 -0.002486804 -0.005183277 -0.0473013
0000e0 31 97 1b bd fd 20 bf 3c 71 9f b1 bc f0 c6 87 3d
       -0.037985984 0.02333116 -0.021682473 0.06629741
0000f0 35 f1 14 3d 7e 12 52 bc b0 8e 3d 3d cf 2f 9a 3c
       0.036362845 -0.012821792 0.046278656 0.018821625
000100 12 2e ce 3b 3d 91 07 bd 6a 0f 05 bd 11 0c 5a 3c
       0.006292113 -0.033097494 -0.032485403 0.013308541
000110 dd 9a 80 3c dd ab 01 be c4 9c bc bd c2 be 49 3c
       0.015698845 -0.12663217 -0.09209588 0.012313547
000120 4c 6d f4 3b c2 56 67 bd dc 8e 67 bd ea 96 93 bd
       0.0074593183 -0.056479223 -0.056532726 -0.07206519
000130 f0 49 08 bd 5c b6 b0 3d f8 2f a7 bc f1 50 d4 3d
       -0.033273637 0.08628532 -0.020408615 0.10367001
000140 c4 23 2b bd 58 f7 4c 3d e0 88 a8 bd ca 29 d3 3d
       -0.041782156 0.050040573 -0.08229232 0.10310705
000150 4c 41 26 bd 47 76 9c bd 1b b5 ec 38 30 13 40 bc
       -0.040589616 -0.07639747 0.000112870905 -0.011723325
000160 fd b6 8c 3c a0 e1 5a 3d 62 5d 83 3d 19 19 10 3b
       0.0171771 0.05343783 0.06414296 0.0021987616
000170 10 96 35 bd de 26 57 3c c5 54 29 bc 4c ca 43 3d
       -0.044332564 0.013131825 -0.010335152 0.047800347
000180 96 36 54 3d f9 f4 70 bd 12 30 95 bd 9b 32 93 bc
       0.05180987 -0.058827374 -0.07284559 -0.017968467
000190 8e f1 82 3d 47 14 db bd 77 44 61 bc d2 54 09 bd
       0.06393729 -0.10697227 -0.013749233 -0.033528157
0001a0 33 5d df bb a3 6b 49 3d ae 11 dc bc ca fe af 3b
       -0.00681653 0.049174916 -0.0268639 0.0053709494
0001b0 79 93 41 3d f7 6c e9 3b 19 3b 05 bc 59 86 1a bd
       0.04725978 0.0071235853 -0.008131766 -0.03772578
0001c0 fd 8d a1 bc 34 af d5 bc 98 9e be 3d 90 39 f7 bc
       -0.019721026 -0.02608452 0.09307593 -0.030178815
0001d0 74 41 bc bc a0 8c 1d 3c 28 61 d5 bc 13 21 5e bd
       -0.02298043 0.009616047 -0.026047304 -0.05423076
0001e0 69 4a 72 3d 78 48 3c bd 05 a1 05 bd 97 9e 48 bd
       0.059152994 -0.04596755 -0.032624263 -0.048979368
0001f0 db cb 1b 3d 3d 90 2b bb 43 f2 5b bd 4d 70 12 bd
       0.03803621 -0.0026178502 -0.053697836 -0.03575163
000200 a9 d8 52 bd 1a 3a bd 3c ee d7 bf bc 6a 46 5d bd
       -0.051476154 0.023098994 -0.023418393 -0.05402223
000210 cb b6 35 3d d9 86 50 bc 85 d3 21 3d 86 b4 26 bd
       0.044363778 -0.012727463 0.03950836 -0.040699504
000220 6c e7 d6 bc 8b 94 14 bd 88 ea 1e 3d 17 46 5a bc
       -0.026233397 -0.036274474 0.038797885 -0.013322375
000230 c8 af 91 3d a6 5d 63 3d 85 38 5c bc 4c 1c 89 bd
       0.07113606 0.055509232 -0.01344121 -0.0669485
000240 cc 0e e8 bc 46 46 8a 3d 5c 56 20 bc de af df 39
       -0.028327368 0.06751685 -0.009786215 0.00042664906
000250 e3 0c c1 3b d1 2c 54 3c 90 42 c4 3c 6e 18 25 bd
       0.005891429 0.012950138 0.02395752 -0.0403065
000260 27 7a 3a 3d 01 9b 05 3c 1c fd 8e bb e1 4f 0c bd
       0.04552665 0.008154632 -0.004363669 -0.034255866
000270 f1 19 50 3d 66 4f 70 3c 66 4d b5 bd a0 27 c7 3c
       0.05080599 0.014667368 -0.08852653 0.024310887
000280 28 62 ab bc 28 c0 fe 3d ca 81 a5 3c 86 5d 41 bb
       -0.020920828 0.12438995 0.02020349 -0.0029505207
000290 f3 73 b4 3c 71 3f 3f 3d a6 de b4 bb 6e c9 bf 3d
       0.022027945 0.04669136 -0.005519706 0.093645915
0002a0 c3 ed bf 3d d8 6a 18 bd 25 1e 1c b9 25 c2 26 3c
       0.09371521 -0.03721127 -0.00014888549 0.010178124
0002b0 ac c6 6d bd 72 a1 bf bc e0 80 8e bc 4b 2c bb bc
       -0.058050796 -0.023392413 -0.017395437 -0.022848269
0002c0 95 a0 64 bc 8b 8c f5 bb 79 dd 1b bd 16 0f 86 bd
       -0.013954301 -0.0074935607 -0.03805301 -0.06545846
0002d0 8a 85 97 bd 92 f6 3f 3d 63 af 9a 3b 00 35 a8 3c
       -0.073985174 0.046866007 0.0047206148 0.020533085
0002e0 47 f6 4d bc f7 ba c8 bd ab a5 a9 bc 5b 0a a6 bd
       -0.012570924 -0.09801286 -0.02070888 -0.08107444
0002f0 34 92 8f 3d 60 7b 04 3d 9e 36 c5 3c 42 ed fa 3c
       0.07010308 0.032344222 0.024073895 0.030630711
000300 62 da fe bc d2 a1 93 bc f1 6c a1 3d 6d 1f f4 3c
       -0.031109992 -0.018021498 0.07882107 0.029800141
000310 63 e7 3c 3d e0 4f 95 bd 46 16 d8 bc 45 77 33 3d
       0.046119105 -0.072906256 -0.026377808 0.043814916
000320 32 32 85 3c 3c cd 87 bd 4c 65 72 3d 12 ea 56 bd
       0.016259287 -0.06630942 0.059178635 -0.05246932
000330 d5 ea c0 3b 45 6a 65 bd 8a 65 42 bc 70 03 1a bd
       0.005887369 -0.05600955 -0.011865029 -0.037600935
000340 b5 09 17 bd cb 2e e6 bb b6 45 a3 bc 7d 50 4c 3c
       -0.03687449 -0.007024621 -0.019930702 0.012470362
000350 ef fd fa bc 2c d5 50 bd 3b 5a 2a bd ef 2e ac bd
       -0.030638663 -0.050984547 -0.041589957 -0.084073894
000360 20 4d c0 bb c0 0b 37 3d 4d 97 3e bc a3 10 98 3c
       -0.005868569 0.04468894 -0.011632753 0.01856262
000370 0e 05 1d 3c ed a0 25 3d 7a 2e 21 bd 82 eb 58 bd
       0.009583725 0.040436674 -0.039350964 -0.052958973
000380 82 f7 39 3d 0b d8 60 bc ad ed 6b 3d 16 60 11 3d
       0.045402057 -0.013723384 0.057599712 0.035492025
000390 5d e5 4f bd 95 81 08 3a fd ef a5 3c ce 27 b4 bc
       -0.050755847 0.00052072975 0.020256037 -0.021991637
0003a0 66 fd 62 bd 80 a4 5c 3c d2 d0 fd 3c ef 64 1c 3d
       -0.05541744 0.013466954 0.030983362 0.038182195
0003b0 5f 9b 8e bd 84 71 36 bc 27 f6 d1 bc 95 f4 24 3d
       -0.069632284 -0.011135463 -0.02563007 0.040272314
0003c0 d1 ff e4 bc 50 f0 ec bb a3 b0 14 bd bc e8 11 3b
       -0.027954014 -0.007230796 -0.036301266 0.0022263965
0003d0 2f 30 bf bd 63 f6 8f 3b fb b7 d4 bc ca 7a 10 bc
       -0.09335362 0.0043933853 -0.025966635 -0.008818338
0003e0 7c c1 84 3d 6e 23 a5 bd a7 90 83 3d 59 f4 85 3d
       0.06482217 -0.08063398 0.064240746 0.06540746
0003f0 31 f0 b9 3c 0b 49 14 bd af 6f 02 bc fe 59 e3 3c
       0.02269754 -0.03620247 -0.007961198 0.027752873

conv3.bias f4 [32]
000000 a9 c0 fb 3c 62 b5 8c 3c 1e d6 92 bb bb 4b 1f bd
       0.030731516 0.017176334 -0.004481091 -0.03889058
000010 81 5a 1e bd dd 29 3e ba 5f 30 fd bc e3 b4 18 3d
       -0.03866053 -0.0007254163 -0.030906854 0.037281882
000020 6a 3f 0c bd c8 a2 5f bd 8d e6 47 3d f2 17 1e bd
       -0.034240164 -0.0545986 0.048803855 -0.038597055
000030 a9 54 87 3c 66 6e 25 3d 61 4d 04 3b 2c 8a 59 3d
       0.016519861 0.040388487 0.0020187723 0.053110287
000040 a9 7d 67 bc 5d 89 45 bd 03 0c 39 bd 19 60 56 ba
       -0.014129081 -0.048226703 -0.04517747 -0.0008177772
000050 d4 ff 11 bd 28 aa cb bc d1 3c ac 3c eb c4 66 3d
       -0.035644367 -0.02486141 0.021025093 0.05634014
000060 06 4d 10 3d 6d 73 be 3c 91 00 5b bd 52 19 19 bc
       0.035229705 0.023248399 -0.053467337 -0.009344416
000070 47 a6 13 3d 15 de 64 3d b8 0d 2e bc eb ab e2 3c
       0.036047246 0.055875856 -0.010623388 0.027669868

batch3.weight f4 [32]
000000 3f 90 7a 3f e7 6b 78 3f 69 94 82 3f 99 74 72 3f
       0.9787635 0.97039646 1.0201541 0.94709164
000010 ed d6 7d 3f d4 de 82 3f da cf 7d 3f 4f 6f 81 3f
       0.99156076 1.0224252 0.9914528 1.0112094
000020 de 63 80 3f 93 61 80 3f 87 09 7a 3f 98 06 82 3f
       1.0030477 1.0029777 0.9767079 1.0158262
000030 60 2c 7c 3f 3c 9f 84 3f d4 65 6e 3f fa 1a 82 3f
       0.9850521 1.0361094 0.9312413 1.0164483
000040 e8 e8 7c 3f 3f 0d 81 3f 0d d3 85 3f 01 39 77 3f
       0.98792887 1.0082167 1.0455033 0.96571356
000050 fb b0 80 3f 2b 8c 82 3f 1b c5 70 3f 45 90 82 3f
       1.005401 1.0199026 0.9405076 1.0200278
000060 7b d7 87 3f 4a c6 80 3f ff e9 73 3f df 8a 7c 3f
       1.0612634 1.0060513 0.95278925 0.986494
000070 65 92 81 3f 28 a6 7c 3f cf d0 86 3f 10 a8 7a 3f
       1.0122801 0.98691034 1.0532473 0.97912693

batch3.bias f4 [32]
000000 11 65 a9 bd a2 fe 11 bd b1 33 9f bd c4 c4 dd bd
       -0.0827123 -0.035643227 -0.07773531 -0.10828546
000010 ac 90 69 bd 00 7d 2f 3d ae 1c aa bd f5 3d 12 3d
       -0.057022735 0.04284382 -0.083062515 0.035703618
000020 71 69 b3 bd c5 24 45 bd 3b 80 bc bd e6 34 4b bc
       -0.08760346 -0.04813077 -0.092041455 -0.012402749
000030 5d fb 03 be 9d 8a b3 bd b2 b7 89 bd cd 2a cc bd
       -0.12888856 -0.08766673 -0.0672449 -0.09969101
000040 eb d2 fe bd cc 34 00 bd 99 e1 e5 bd 1c 5a 1b be
       -0.12442573 -0.03130035 -0.1122467 -0.15171093
000050 69 b5 da bd 26 a0 61 bd f0 07 fd 3c fd 24 7c bd
       -0.106791325 -0.05508437 0.030887574 -0.061558712
000060 5e 84 6c bd 34 e1 ec bd 6a 46 2f be dd 41 68 bd
       -0.057743423 -0.115663916 -0.17116705 -0.056703437
000070 77 40 bd bc bc d8 14 bd 6a c6 12 3d 54 9d 16 bd
       -0.023102028 -0.036339507 0.035833754 -0.036771134

conv4.weight f4 [32, 32, 3, 3]
000000 d5 99 33 bd e1 9e 59 bd 08 54 36 bd 53 d1 4e bc
       -0.043847878 -0.053130034 -0.044513732 -0.012623149
000010 cd 8b c1 bc aa 61 48 bd b4 df b6 bc 19 2c f4 bc
       -0.023626233 -0.048921265 -0.022323467 -0.029806184
000020 c0 62 08 bd b9 35 14 bd 73 97 a1 bc ad 4e b9 bb
       -0.0332973 -0.036184046 -0.019725537 -0.005655131
000030 ad 6b 0f bc 3b 69 22 bd 27 b5 ad bc 09 55 06 bb
       -0.008753699 -0.039651137 -0.021204544 -0.0020497462
000040 fc 3c 5f 3c 8e a1 3a 3c dc de b4 3c 94 ac ec 3b
       0.01362538 0.011391057 0.022078924 0.0072227214
000050 a0 c3 68 3c 13 3c da 3c 87 f6 2d 3c d8 fa 8e 3d
       0.014206797 0.026639974 0.010617859 0.069814384
000060 08 00 c7 3c 72 fc 35 3c d4 cd 2c bc 12 4c 89 3d
       0.024292007 0.011107551 -0.01054712 0.067039624
000070 8a d9 dd 3c 83 ff 5c 3d cd ac 16 3d 30 77 2f 3d
       0.02708127 0.053954612 0.03678589 0.042838275
000080 39 e9 9a 3d da f3 1d 3d 6c 17 24 3d 88 e4 91 3c
       0.07564015 0.038562633 0.0400614 0.017809168
000090 68 20 64 3a e8 59 95 3b 11 5b cf bc 4b 7d 4f bc
       0.00087023387 0.004557837 -0.025311979 -0.0126641495
0000a0 36 56 e2 3c ee 66 c7 bc 8f fe bd 3a 07 f3 aa ba
       0.027629 -0.024341073 0.001449542 -0.0013042398
0000b0 57 ff 98 bc 74 fe 7d bd 9d 2a 32 bd 5c 03 92 bd
       -0.018676443 -0.062010244 -0.04349767 -0.07129547
0000c0 f8 67 58 bd 49 2a e6 bc 74 a7 b2 bd e3 07 84 bd
       -0.052833527 -0.028096335 -0.087233454 -0.06446817
0000d0 f9 58 64 bd ea 6a 94 bd 53 7a 39 bd 6c 5b 50 bd
       -0.055748913 -0.07246955 -0.045282673 -0.050868437
0000e0 af d0 1a bd 84 54 22 bd cb dc 2d bd b4 2c 16 bd
       -0.037796672 -0.03963138 -0.042446893 -0.036663726
0000f0 6b 90 f2 bc 6d 74 cd bc a2 1d 6f bd 85 bf 83 bd
       -0.02960988 -0.02507993 -0.05837787 -0.06433014
000100 10 31 33 bd f5 c8 3e bd 70 4f 24 bd 7c 9a c3 bc
       -0.04374796 -0.046578366 -0.04011482 -0.023877375
000110 b6 aa 0c bd 7a 3c 55 bd 5b c9 b9 ba aa db 39 bd
       -0.03434249 -0.052059628 -0.0014174388 -0.045375504
000120 9e 06 a3 3d b6 12 89 3d 5f 91 a7 3d cb 4b bc 3d
       0.079602465 0.06693022 0.08182024 0.09194144
000130 49 eb 56 3d 1e df a9 3d d5 a3 a3 3d 26 72 fa 3c
       0.05247048 0.08294509 0.07990233 0.030572008
000140 ba 56 cc 3d 17 5c 94 3c e7 2d 1d 3d f9 9b fd 3c
       0.09977479 0.018110318 0.038373854 0.030958163
000150 be 1f a8 bb 56 21 a1 3c b2 4a 8b 3c bd fd bc 3c
       -0.005130737 0.019669216 0.017003391 0.02307021
000160 be 5e 85 3c 1d 9e 39 3d fe 56 a9 3d b4 4e b1 3c
       0.016280528 0.045316804 0.082685456 0.021643974
000170 22 ab 91 3d 2f f4 3f 3d 6f c9 ab bb ac 56 4e 3d
       0.07112719 0.04686373 -0.0052425186 0.050375625
000180 74 2b 97 3d 69 d0 1b 3d 51 b5 8a 3d 74 a1 96 3c
       0.07381335 0.038040552 0.067728646 0.018387534
000190 a1 1c 7b bc 78 6c 94 bc f9 05 ec ba 3e 5d 9a bb
       -0.01532665 -0.018118128 -0.0018007151 -0.0047108224
0001a0 64 80 10 bd 46 b7 a0 3c 74 2d 40 bb 76 26 3a bb
       -0.035278693 0.019618642 -0.0029323967 -0.0028404272
0001b0 70 ac 33 ba aa 75 39 bc 84 0d 62 3b 05 5a 02 bc
       -0.00068540033 -0.011319557 0.003449292 -0.007956033
0001c0 18 d9 85 3c d1 19 a3 bc e3 59 19 3c 5c e7 39 bc
       0.01633887 -0.019909771 0.00935981 -0.011346664
0001d0 71 4a 81 3c 7a eb b4 3c 44 2a 4c 3c d9 e7 22 bb
       0.015782567 0.02208494 0.012461249 -0.002485743
0001e0 a2 e0 0b 3b c1 78 a9 bc 90 a9 0e 3c b0 5f d8 3c
       0.0021343608 -0.020687463 0.008707419 0.026412815
0001f0 74 76 b7 3b 2e e9 d4 bb e9 db 54 3d 04 23 0e 3d
       0.0055988375 -0.0064975237 0.051967535 0.034701362
000200 1e 70 1b 3d a7 39 84 3c 12 01 e9 3b a4 72 95 3b
       0.03794872 0.016140772 0.0071107233 0.0045607854
000210 51 8a bb 3c 87 f2 b9 bc 9b 65 b0 3c 78 e1 76 bd
       0.022893103 -0.022698654 0.021532824 -0.060273618
000220 1c 40 ec bc 4b 46 91 bc 60 b4 88 bc ee d7 d3 bc
       -0.028839163 -0.017733714 -0.016687572 -0.0258598
000230 cd 5f 68 bb b2 22 06 bd 51 8c b1 bc e7 21 2f bd
       -0.0035457492 -0.03274793 -0.021673353 -0.04275694
000240 76 0c 76 bd 6f 45 57 bd 74 d6 94 bc b7 4b 16 bd
       -0.060070477 -0.05255645 -0.018168665 -0.0366933
000250 2a 10 00 bc c1 45 23 bd 41 a6 68 bd c9 15 c2 bc
       -0.007816354 -0.039861444 -0.056799177 -0.023692029
000260 56 f0 6e bc e9 b8 bb bd 91 16 70 bd d3 ef 6b bd
       -0.014583668 -0.09166128 -0.05861527 -0.05760176
000270 4e ed 85 bd 40 bd 4a bd a7 77 9a bd 73 9d b8 bd
       -0.06539403 -0.04949689 -0.07542353 -0.09014406
000280 f4 c8 75 bd 63 d1 85 bd bc bd 9f 3c 9c 98 4f bb
       -0.060006097 -0.06534078 0.019499652 -0.0031676656
000290 fc 09 33 3a c5 e9 8b bb d6 f7 86 bc 91 9b a9 bc
       0.0006829796 -0.004269811 -0.0164756 -0.020704063
0002a0 1e 6e 94 bc 05 1a ba 3c 69 16 26 3c 5e 92 4a bd
       -0.018118914 0.022717485 0.010137179 -0.049455993
0002b0 39 0e 0b bd b5 53 3a bd ec d3 01 bd 93 fb 15 bc
       -0.03394911 -0.045489985 -0.031696245 -0.009154218
0002c0 fd 7a 03 bd d5 22 2f bd c7 4f 43 bc 59 1e 62 bd
       -0.032099713 -0.042757828 -0.011920876 -0.055204723
0002d0 3f 2c 9d 3d e7 ab 8c 3c f7 fc 55 3d dc 69 b1 3d
       0.07674455 0.017171813 0.0522432 0.08662769
0002e0 41 31 da 3c 09 a1 44 3d 94 c2 7e 3d bc d8 24 3d
       0.026634814 0.048005138 0.062197283 0.040245757
0002f0 20 8b 5c 3d 1a 09 e2 bc e7 5f 44 bc 75 0a ef 3b
       0.053843617 -0.02759223 -0.0119857555 0.0072949477
000300 0e 3a 86 3c d7 be 49 bc 2e a6 61 3c 32 b1 58 3c
       0.016385105 -0.012313566 0.0137725305 0.01322584
000310 c0 7b 80 3b c8 f8 64 3b 7f f6 b6 bc cc 19 3a bd
       0.003921002 0.0034938324 -0.022334335 -0.045434758
000320 6b a3 04 bc a7 cd 10 bd dd 62 b0 bc 1f 9d 1f bd
       -0.0080956025 -0.035352375 -0.021531517 -0.0389682
000330 8f 52 43 bd 2a 66 14 bd af 40 10 bd 8f b5 1a bd
       -0.047686156 -0.036230244 -0.035217937 -0.037770804
000340 d5 42 d2 bc be 39 c4 bc d4 fd 36 bd 54 80 f2 bc
       -0.025666634 -0.023953315 -0.044675663 -0.029602207
000350 f3 34 0b bd 4a ca 08 bd 2c 2a 82 bc 3b 24 bb bc
       -0.033986043 -0.033396043 -0.01588925 -0.022844424
000360 ca 9f 83 bc 5a 21 bd 3c d9 29 e0 3b f3 e0 9c bc
       -0.016067404 0.023087192 0.006840926 -0.019150233
000370 96 44 3d bd b4 56 b5 bb dc 9b 5a 3b 8c 41 fa bc
       -0.046207987 -0.0055340175 0.003335706 -0.030548833
000380 b1 c5 f8 3c 5c f4 ab bd c2 07 97 bc 58 9c 3f bc
       0.030367704 -0.08396217 -0.018436316 -0.01169499
000390 97 34 cf bc 31 55 c3 bb 07 bc 4f bc 0f 88 10 bd
       -0.025293631 -0.0059610833 -0.012679107 -0.035286006
0003a0 d7 4d 1a bc b6 ec b3 bb b2 70 e2 3c e1 49 42 3c
       -0.0094179725 -0.0054908646 0.027641628 0.011858434
0003b0 d4 80 a1 3c 96 ff 23 3d 3f 0e d3 3c 1b 4c 6f 3c
       0.01971475 0.040038668 0.025763629 0.014605547
0003c0 01 a5 12 3d 6a 51 2d 3d 15 da 7c 3c da 34 08 3d
       0.03580189 0.04231397 0.015432854 0.03325353
0003d0 19 cb 4f 3d 47 02 2a 3d fa 7e 3a bb 90 4c 38 3d
       0.0507308 0.041506078 -0.0028457032 0.04499489
0003e0 a5 b8 aa 3c ff 3d 09 3d a7 f0 26 3d 62 4d 2a 3d
       0.020839998 0.03350639 0.040756848 0.041577704
0003f0 98 bd 27 bd 8b df e9 bc 17 a2 b8 bc 0e 10 76 bd
       -0.040952295 -0.028548976 -0.022538228 -0.060073905

conv4.bias f4 [32]
000000 aa 94 7a bd ea af d4 bc 6b 97 32 bc 05 50 10 bc
       -0.061176933 -0.025962789 -0.010900359 -0.008808141
000010 d8 8d 2d 3d a1 10 8c bc f0 11 3f 3d 0d f5 3e bd
       0.0423716 -0.017097773 0.046647966 -0.046620417
000020 3d 58 bb 3a e1 7e a6 3c 1c 82 4a 3d 82 7e d8 3c
       0.0014293265 0.020324172 0.04944049 0.026427511
000030 7d 93 d5 3c 19 27 c8 3b 57 74 08 bd 68 ba 4e bd
       0.026071304 0.0061081764 -0.033314075 -0.05047074
000040 87 22 1f bd 82 d2 3e bc 3f 22 76 3b 74 d2 0c 3c
       -0.038851287 -0.011646869 0.0037557033 0.008595098
000050 b2 39 be bc 7d d2 db 3b bc be 1d bd 58 cb 20 bd
       -0.02322087 0.006708442 -0.038511977 -0.039256424
000060 0d af 2a bc 50 69 85 bd 5a e0 74 bd b2 19 98 3b
       -0.010417712 -0.065142274 -0.05978427 0.004641735
000070 73 38 40 3d 97 91 c8 bc 0d 5b cb bc 97 ad 14 3c
       0.046928834 -0.024483485 -0.02482369 0.00907459

batch4.weight f4 [32]
000000 c4 9e eb 3f f8 ed a1 3f be 56 ed 3f 88 e3 5c 3f
       1.8407826 1.2650747 1.8542097 0.86284685
000010 3f 73 e9 3f a2 f9 bc 3f 54 b3 a1 3f 17 f7 a2 3f
       1.8238295 1.4763682 1.2632852 1.2731656
000020 0a 4a ed 3f 26 c9 ea 3f 97 c2 15 3f a9 14 b1 3f
       1.853822 1.8342636 0.58500046 1.383443
000030 c7 23 c0 3f 97 c1 54 3f e2 61 2f 3f 08 8b b3 3f
       1.5010918 0.83107895 0.6850873 1.4026804
000040 3b ed a5 3f 35 96 e0 3f 52 71 cf 3f b6 cf e8 3f
       1.2963022 1.754584 1.6206458 1.8188388
000050 08 7d 86 3f 7d fa ce 3f f0 a3 d1 3f 9e e8 0a 3f
       1.0506907 1.6170193 1.6378155 0.54261196
000060 ee d0 f8 3f 2b 1d ee 3f d3 e6 c9 3f ed a9 fa 3f
       1.943876 1.8602651 1.5773567 1.9583107
000070 07 2c d8 3f cf c9 d9 3f 9c ba e3 3f 41 b1 e1 3f
       1.6888436 1.7014712 1.7791324 1.7632219

batch4.bias f4 [32]
000000 d3 e8 be 3d a1 8e cd bc 82 49 3c bd 05 aa 5b be
       0.093217514 -0.025092425 -0.04596854 -0.21451576
000010 f1 42 0a 3d a1 9f e9 bc 76 01 e8 bd 38 08 df bd
       0.033755247 -0.0285185 -0.11328404 -0.108902395
000020 6a 78 d0 bc be 56 9b bd f4 1c de be 0b 2c 37 be
       -0.025448043 -0.07584904 -0.43381464 -0.17887895
000030 8e 0d 0f bc 13 d5 70 be b9 5e c0 be f6 8d 3b 3b
       -0.008731259 -0.23518781 -0.37572268 0.002861855
000040 51 c4 c2 bd 28 ec 0e bd 70 91 5a bd c5 b4 9c 3d
       -0.09510101 -0.034893185 -0.053361356 0.076516666
000050 c6 11 20 be da ad 5d bd d8 14 16 be 30 54 dd be
       -0.1563178 -0.054120876 -0.14656389 -0.43228292
000060 08 e3 fc 3d 7a 65 f9 3d 77 5f ab bc 48 34 e1 3b
       0.1234799 0.12177558 -0.020919545 0.0068726875
000070 1c 23 11 bd 4b 8a 12 bc e1 5c 4a 3d 14 13 41 bd
       -0.035433874 -0.008944104 0.049404982 -0.047137335

lin1.weight f4 [5, 800]
000000 fc ee 3d b9 6a c8 65 3a 01 e1 c4 ba 40 2e da 3b
       -0.00018113473 0.0008765521 -0.001502067 0.0066583455
000010 90 94 f6 bb 9e 52 53 bc 7e 6a 81 bc c3 d4 b8 bb
       -0.0075250342 -0.012898115 -0.01579785 -0.0056405975
000020 06 f4 0d 3c 5f e5 1b bc d9 1c fd bb 14 70 37 bc
       0.008664137 -0.009515136 -0.007724386 -0.011196155
000030 a4 65 d6 3b a3 94 93 bb 55 52 f5 bb e3 31 e6 bb
       0.006542878 -0.004503803 -0.0074866214 -0.00702499
000040 ed 9f 0e 3c ef 0f 8f bb d5 80 79 bc 59 82 f7 3a
       0.008705121 -0.004365913 -0.01522847 0.0018883451
000050 9b 23 2c 3b 19 cc c0 3a 80 dd 0f b9 bf 59 bb 3b
       0.002626634 0.0014709263 -0.00013720058 0.0057174857
000060 73 23 c2 3b f7 75 9b bb bd 63 8a bc a7 8a c9 3a
       0.005924636 -0.004744287 -0.016893262 0.0015376405
000070 24 4a 14 3b d3 69 a6 3c 5a cd 87 bb bb a4 74 3b
       0.00226272 0.020314133 -0.004144353 0.0037329632
000080 1e 30 0d 3c 0d c4 54 ba 59 c3 75 3c b7 9d f4 3b
       0.008617429 -0.0008116372 0.015000188 0.00746509
000090 fc 92 3b 3b 5f c4 49 b8 75 6c a8 3c 62 01 ba 3b
       0.0028621545 -4.810502e-05 0.020559529 0.0056764344
0000a0 13 a4 b9 bc 8c cc bb ba 9a 94 55 bb 77 44 33 bc
       -0.022661244 -0.0014327927 -0.0032589794 -0.010941616
0000b0 b8 22 83 bb 3e db 9b bb 0b a6 14 3c b2 14 3f 3b
       -0.0040019415 -0.0047563603 0.009072791 0.0029156622
0000c0 19 b5 47 bb 48 42 ae bb 8a 0d ae bc 53 c9 86 bc
       -0.0030472933 -0.00531796 -0.02124669 -0.01645342
0000d0 9c 6c 83 36 87 ba 03 3c 42 e0 5d 3a 02 65 91 bb
       3.916748e-06 0.008040077 0.0008463898 -0.00443709
0000e0 23 fb 7f bc 17 81 c9 3b 5a 8f 69 bc 0c e1 b6 bb
       -0.0156238405 0.006149422 -0.014255369 -0.005581027
0000f0 1a 79 86 3c 18 5f 8c 3c 4a 2e 58 3b 56 e4 b3 bb
       0.016415168 0.017135188 0.0032986575 -0.0054898662
000100 7a 3d 2c bc 64 2b 06 3c 3b 62 0a 3c 7a c6 85 bb
       -0.010512704 0.008189056 0.0084462715 -0.004082498
000110 99 dc 2c bc a1 63 a5 bb 58 e6 86 bb 4d 87 58 bc
       -0.010550641 -0.005047277 -0.0041168146 -0.013215852
000120 b2 fa a3 bb 06 f5 27 3c 90 0d be bb 6a fe a1 bb
       -0.0050042504 0.010251289 -0.0057999566 -0.0049436586
000130 56 f4 20 39 b5 d8 99 bc 67 a8 81 bb 76 78 38 3c
       0.00015349811 -0.018780092 -0.0039568427 0.011259189
000140 60 6c 6a 3b 7a 74 ae bc c9 82 96 ba 4d a2 2e bb
       0.0035770163 -0.021295775 -0.0011483069 -0.0026647032
000150 80 40 24 3b 57 6f 4a 3b 70 79 f6 3a f1 93 63 3a
       0.002506286 0.0030889118 0.0018804502 0.0008681408
000160 81 87 54 bb 90 f3 76 bc da 44 47 bb f9 f5 77 3b
       -0.00324294 -0.015072718 -0.003040603 0.003783582
000170 7a 32 94 3b f4 32 27 3c e9 a4 2d bb 99 d4 00 bc
       0.004522619 0.010205019 -0.0026496 -0.007863187
000180 a8 32 25 bc cf 07 72 3c 19 6d 15 bc 25 66 28 3c
       -0.010082878 0.0147723695 -0.009120249 0.010278259
000190 36 ad 97 3b 0d ee 89 bc 8f 41 04 ba 99 7d 19 bc
       0.0046288026 -0.016837144 -0.00050451694 -0.009368324
0001a0 cd ff 36 3b b4 0e 5e 3a 58 93 02 3c d8 a0 53 bc
       0.0027923465 0.0008470819 0.0079697 -0.012916766
0001b0 78 8c 06 ba 96 53 94 bc e1 d4 93 3c f6 4b 02 3b
       -0.0005132626 -0.018106263 0.018045845 0.0019881702
0001c0 67 98 ca bb bd 74 71 bb 5c 06 59 ba b9 68 3e 3b
       -0.0061827186 -0.0036843263 -0.00082788407 0.0029054119
0001d0 4a c9 0d bc b1 ad 47 3b 28 bd 41 3c ee ac b1 bb
       -0.008653948 0.0030468518 0.0118248835 -0.005422226
0001e0 c0 a5 17 bb 10 3f 93 bb d0 62 a3 39 c1 20 63 bb
       -0.0023139566 -0.0044936016 0.00031163404 -0.0034656974
0001f0 f4 c3 7a bc 16 2b 63 3b 03 1e 11 3b 1d 1c 5f bc
       -0.015305508 0.0034663132 0.0022143133 -0.013617543
000200 56 1d c4 bb 01 ab c0 3a 54 38 78 3c db 0d 14 bc
       -0.0059849424 0.0014699401 0.015150148 -0.0090365065
000210 ab c4 6b bc 91 6b 9c 3c 6a a5 79 ba b4 54 8d b9
       -0.014390151 0.01909426 -0.0009523245 -0.00026956724
000220 18 43 f7 3b cf c5 57 bb 9b 8c 15 ba 31 fd 41 bc
       0.00754584 -0.00329243 -0.0005704851 -0.011840151
000230 7e 7c 39 3a e2 08 8d 3a fc 83 2d bc 94 a8 1a 3b
       0.0007075741 0.0010760094 -0.01059055 0.0023599016
000240 04 90 2c 3b 15 79 1e 3c fd 16 81 bc 10 2b 6f 3c
       0.0026330957 0.009672423 -0.015758032 0.014597669
000250 e1 8e f8 b8 24 ed 44 3b 9e 39 ce 3a 77 52 0b bc
       -0.00011852175 0.0030048573 0.0015733724 -0.008503548
000260 86 fa 06 3c ef 86 95 bb d9 6c 3a 3b ce 47 4b 3c
       0.00823844 -0.0045632045 0.0028446226 0.012407256
000270 93 db 99 ba 8d be 9d 3b da e5 2c 3c e7 1d 80 bb
       -0.0011738412 0.004813975 0.010552848 -0.0039098146
000280 cb 4d 84 3b 45 f5 61 3a 0d c3 78 3b 9e 29 16 bb
       0.004037594 0.0008619617 0.0037958056 -0.002291299
000290 29 01 0a bc 1d a3 5d 3b cd b1 1e 3a ed 23 03 3c
       -0.008423128 0.0033819147 0.0006053716 0.008004171
0002a0 d6 bd ac bb 1e 3d 2c 3c f7 19 4e 3c 86 6c 29 bc
       -0.0052716536 0.010512618 0.012579433 -0.010340815
0002b0 3c da 70 3c 4e 8b 1b bc 15 61 19 3c 20 a2 ce bb
       0.014700469 -0.009493662 0.009361525 -0.006305948
0002c0 89 99 80 bc a8 20 92 bb b1 eb 56 3b 8b e4 21 bb
       -0.015698211 -0.0044594593 0.0032794292 -0.0024702873
0002d0 85 a2 79 bc 33 b7 20 bc 40 be ef ba 32 84 17 bb
       -0.015236502 -0.009809303 -0.0018290952 -0.0023119566
0002e0 c6 bd 5c bb 62 22 32 bc 79 3c 11 3c 4d 48 ec bb
       -0.003368245 -0.010872455 0.008864515 -0.0072107674
0002f0 5c ed ba 3a 47 f8 71 3c 77 14 bb ba 96 ad dc 3b
       0.0014261412 0.014768667 -0.0014273067 0.0067345602
000300 d5 bd ed 3b 88 2b 46 bc 46 25 c7 bb f2 0d c5 bb
       0.0072552958 -0.01209534 -0.0060774414 -0.0060136253
000310 0e a6 64 b9 b1 b9 2e 3b e9 2f 8b ba 48 e5 df 3a
       -0.00021805635 0.0026660974 -0.0010619137 0.0017081881
000320 01 2f 05 3a 74 81 a7 bb 8a 95 00 bc 11 0a c7 39
       0.00050805515 -0.0051118676 -0.007848153 0.00037963738
000330 75 d7 9d bb fb 6c 58 3b 82 bc 24 bc 1c 68 01 bc
       -0.0048169442 0.0033023942 -0.010054709 -0.007898357
000340 25 80 21 bc f9 a4 7f bc 69 54 bc 3c 9f 3b b3 3a
       -0.009857212 -0.015603297 0.022989469 0.0013674385
000350 81 6c 9d bb 7c 1d a7 39 fd ec 8c 3c 86 f7 a3 bb
       -0.0048041944 0.0003187469 0.017202849 -0.0050038723
000360 8c 69 2a 3c d1 60 6b bc 1a c9 9d bb 5b cc a6 3c
       0.010401141 -0.014366345 -0.004815233 0.020361116
000370 de 27 0f bc 14 ae 12 ba e3 59 ee bb dd bd 06 bc
       -0.008737532 -0.00055953977 -0.007273899 -0.008223978
000380 2a 41 22 bb cb dd 23 3c 6a ab 05 3b 28 21 3f 3c
       -0.002475808 0.01000161 0.002039636 0.01166562
000390 cb cd 90 bb 19 b8 8e 3b 59 a8 c7 bb d3 c5 ef bb
       -0.0044190637 0.0043554422 -0.0060930667 -0.0073172837
0003a0 17 2e 06 3b 97 fd f8 3b 02 8a d9 3b 06 7a 4e bc
       0.002047425 0.0075985896 0.0066387663 -0.012602335
0003b0 26 45 2d bc fe a2 15 bb f6 a0 18 bc f9 da 8a bc
       -0.010575568 -0.0022832747 -0.00931572 -0.016950117
0003c0 5e 1f 18 bc 81 b1 4c 3c f3 4d 40 3c 01 5f 46 39
       -0.009284822 0.012493492 0.011737335 0.00018918143
0003d0 d1 e3 af bb 31 77 30 bc 10 2a c1 ba 5c 45 b5 3b
       -0.005367734 -0.010770605 -0.0014737267 0.00553195
0003e0 62 13 17 3c df c2 94 3b 7b f0 80 bc ee 4e 2b 3b
       0.00922093 0.004539832 -0.01573967 0.0026139575
0003f0 dc 3c 97 bc d4 b6 0b bc 8f 28 d2 bb 60 db b6 bb
       -0.018461637 -0.008527476 -0.0064135264 -0.0055803508

lin1.bias f4 [5]
000000 36 5a 8e bc 92 7f 01 bc e3 96 82 bc 28 31 28 bc
       -0.017377 -0.00790395 -0.015941089 -0.010265626
000010 07 05 a1 bc
       -0.019655718
