results_auto/01_domain_adaptation/maml_supervised/June/officehome_maml_order_2_seed_0_shots_1_ways_5_meta-lr_0.0001_dropout_0.2_RandAugment-prob_0.5_datetime_11_06_2021_09_41_05/intermediate_50000_model.pt (torch, 412181 bytes, 54 tensors)

conv1.weight f4 [32, 3, 3, 3]
00000000: eb7b 283c 240b da3d ef0e 20be 6b7a 17be
00000010: 9ca9 9bbd 1cf4 8c3d 4607 8c3c f0d8 343e
00000020: 30d2 eb3b d4fd 4e3d cd48 9bbd 7da3 46bd
00000030: b322 61be 53a2 27be 915e a8bd 9319 243c
00000040: ddcc c83d ef33 0a3e 7e40 28be 1a02 e6bd
00000050: f9f5 903d 25e6 153e bcdd 8dbd 6819 0e3e
00000060: cc4a 23bc e6be 1a3d 672a 4a3e de1e 3cbe
00000070: 74ab ddbd 0252 27bd cc01 4abd 89d6 563e
00000080: 7887 e2bd eef7 45bd 6a6a c6bd 28e4 2fbe
00000090: 59dd eabd a9ea 373e ba4b b63d f7b5 e03d
000000a0: f7dd 2c3d f641 c1bd 77f1 903d bf61 1ebe
000000b0: 7641 1cbe de62 09be c050 0b3e 8bc7 de3d
000000c0: 3e40 aabd 23c0 bc3c 71f5 f63d 678c 6a3e
000000d0: 01ae e03d 4294 883c d217 2a3e a43f e8bd
000000e0: 752e b33c e26f e1bd a36f f8bd 9035 debd
000000f0: 23fc 003e c5cf b03d 3f4f e6bd cdb4 ab3d
00000100: c23f af3d 50f7 70bd 88e9 f93c a138 a43c
00000110: ea32 cd3d 0fe4 4b3e ca02 24be 604b c4bd
00000120: 6379 c83d 6d4b 1e3e 7d0c 073e f108 203e
00000130: 41c7 423c 6c92 4abe 2ae5 3e3b 27f8 43be
00000140: 5d0d 74be 27db 363e 3b38 2d3e d298 fdbd
00000150: fd88 e13c 5661 6dbd 7fc6 b0bb c647 b5bd
00000160: 8708 5d3d ca95 dcbd 1180 843d 3169 033e
00000170: de81 563e a800 373d 292f 5cbe af1e d3bd
00000180: b179 9e3d faa1 bf3b a54c 14be 9827 b3bd
00000190: 3dfe 753e 470c 6b3e a6e6 c1bd d418 52bd
000001a0: d473 dfbd 8461 f7bc ee8f 22be f14d c6bd
000001b0: fcb4 c13c 937d c13b 6f12 98bd b6dc 203e
000001c0: 13b1 e8bd 1c52 613e 38ec 1f3e 539e 4fbe
000001d0: 660d 2bbd 6958 8b3b a1ac e6bb faf9 453d
000001e0: e8f8 ce3d 9ef3 dfbb 76e9 12bd d7a8 b83d
000001f0: 5d80 73be 32da dcbd afcb fabc eebd d7bd
00000200: 03ce e8bc 7f58 95bd 9716 503c b485 033e
00000210: 1348 94bd 0874 19bd 5dc5 2e3e 9913 6dbd
00000220: 3c2f 7ebc 8fb3 4abd fb3c 0d3d d82c 0e3e
00000230: 4731 5d3e bf29 013e 7c50 4c3e 2f95 9bbc
00000240: 4620 3fbe 08a7 61bd b372 323e d024 2fbc
00000250: b2ce 84bd f3d4 e2bd 0bd2 3abe 0fb7 28be
00000260: eeeb 28bd 3bfd eb3d eb7a f93d 58ef 43be
00000270: ecb6 083e 8711 0cbe d3f0 e3bc 6300 44bd
00000280: 3c8b e6bb 9dcc 57bd 3157 34be b093 1cbe
00000290: 6e17 a9ba 9b91 873c 4468 b3bd ac86 e63d
000002a0: 04af 36be 368c 3e3a e35d 433e 0d5a afbd
000002b0: 9461 273e 8c05 b43d 9fa4 2cbe bf68 0d3e
000002c0: 2e6a 89bb 6526 b8bd d76d 413e c0c7 25be
000002d0: be28 c7ba 89ef 32bd c7bd 133e 30bb 913d
000002e0: b009 fa3d 8076 b53d f715 38bd d76c adbc
000002f0: 610b 35be b08f 1a3e 3555 4b3e f2aa 253e
00000300: c6e5 3bbe ca33 9ebc 1a74 19be b07f abbd
00000310: 95ca ebbd aa0d c93d fee9 e1bd f3a3 f4b9
00000320: f0ab f03c ee44 9f3d 1722 28be 86d2 09be
00000330: c2bf c6bd 901d 203e 073d 35bd f80a 393e
00000340: 253d 813d f327 5b3d 9648 ffbc b624 91bd
00000350: fc91 823c 894e eebc 11ab 8cbb a2d3 8b3c
00000360: 5bcf 23be 10f3 f6bd 5ce8 3a3e a19b 2dbe
00000370: 36b2 033c f420 643e 6881 643d cd26 e93c
00000380: e421 27be e393 033e b3d1 2abe 21c0 33bd
00000390: cee1 8fbd f488 08bd 6194 c1bc de9f 1a3e
000003a0: feeb 443d ab34 143e 9010 f63d ec3a 30be
000003b0: 5c20 ae3d c727 20be 28d7 cabd 676c 2d3d
000003c0: 47a8 813d 0811 163e 69f7 6fbd 8dfb 143d
000003d0: 90b1 bb3d 8815 3cbe e3d9 5d3e a649 1abe
000003e0: a8d1 093d ed8d cb3b 8794 3bbd 100a c33d
000003f0: 21c7 2b3e c18d aebd 58c0 01be 8e4f 2abd
0.010283451 0.10646656 -0.15630697 -0.14792792 -0.0760071 0.06882498 0.017093312 0.1766088
0.007196687 0.050535038 -0.07582245 -0.04849576 -0.21985893 -0.16370516 -0.08221162 0.010015863
0.098046996 0.13496374 -0.16430852 -0.112308696 0.070781656 0.14638574 -0.06927058 0.13876879
-0.009966563 0.03777971 0.19742738 -0.1837115 -0.10823718 -0.040849693 -0.04931812 0.20980276
-0.11060995 -0.048332147 -0.096882656 -0.17176878 -0.11468 0.1796061 0.089011624 0.10972207
0.04220387 -0.09436409 0.07077306 -0.15466975 -0.15259346 -0.13416621 0.13605022 0.108779036
-0.083130345 0.023040837 0.12058533 0.22905122 0.109706886 0.016672257 0.16610649 -0.113402635
0.021872738 -0.11007668 -0.12130668 -0.1085006 0.12596183 0.08633379 -0.11245584 0.083840944
0.08557083 -0.058829606 0.030506864 0.020046534 0.10019477 0.19911216 -0.16016689 -0.09584689
0.09788778 0.1545846 0.13188358 0.15628411 0.011888326 -0.19782418 0.0029128292 -0.19137631
-0.23833223 0.17857037 0.16915981 -0.12382664 0.027531141 -0.057954155 -0.0053947563 -0.0885158
0.05396321 -0.107707575 0.06469739 0.12833096 0.20947978 0.04467836 -0.21502365 -0.10308587
0.077380545 0.0058481665 -0.14482363 -0.08747786 0.24022765 0.22953902 -0.09467821 -0.05129321
-0.10910764 -0.030197866 -0.15875217 -0.09682835 0.02364587 0.005904862 -0.07425391 0.15709195
-0.11361899 0.22003978 0.15617454 -0.2027524 -0.041760825 0.0042524827 -0.007039622 0.0483341
0.10106069 -0.0068344614 -0.035867177 0.09016579 -0.23779435 -0.10783805 -0.030614702 -0.10534273
-0.028418547 -0.0729227 0.012700698 0.12843972 -0.072403096 -0.03746417 0.17067476 -0.057880018
-0.015514191 -0.049487647 0.034481984 0.13884294 0.21600829 0.12613581 0.19952577 -0.018992035
-0.18664655 -0.055090934 0.17426567 -0.010689929 -0.064847365 -0.11075773 -0.18244188 -0.16476081
-0.041240625 0.11522909 0.12181648 -0.19134271 0.13351029 -0.13678561 -0.027824795 -0.04785193
-0.007035641 -0.05268537 -0.17611386 -0.15290713 -0.0012900659 0.016548922 -0.087601215 0.11256155
-0.178402 0.0007268818 0.19078784 -0.08562098 0.16345817 0.087901205 -0.16859673 0.13809489
-0.004193566 -0.08991698 0.18889557 -0.1618948 -0.0015194637 -0.04368547 0.14427863 0.07115781
0.12208879 0.08860493 -0.044942822 -0.021170063 -0.17680122 0.15093875 0.19856723 0.16178492
-0.1834937 -0.019311804 -0.14985695 -0.08373964 -0.11513249 0.09817059 -0.110309586 -0.00046661458
0.029378861 0.07776819 -0.16419254 -0.13459215 -0.09704544 0.15636277 -0.044247653 0.1807059
0.063104905 0.053504895 -0.031162541 -0.0708708 0.015938751 -0.029090183 -0.0042928536 0.017068688
-0.15997069 -0.12058079 0.182527 -0.16953899 0.008038094 0.22278196 0.055787474 0.028460884
-0.16321522 0.12849383 -0.16681556 -0.0438844 -0.07025491 -0.033333734 -0.023630323 0.15100047
0.048076622 0.14473216 0.12014878 -0.17209977 0.08502266 -0.15640174 -0.09904319 0.04233971
0.063309245 0.14654934 -0.058585558 0.03637271 0.09164727 -0.18367589 0.21665148 -0.15067157
0.03364721 0.006211987 -0.045795944 0.09523404 0.1677518 -0.08523131 -0.1267103 -0.041579776

conv1.bias f4 [32]
00000000: 7f04 593e 1147 31bd f778 73bc 39a6 99bd
00000010: 0a5d 50bd b657 303d 843f a63c 0e02 a3bd
00000020: 8858 31be cf49 d03c 5337 b0bb 2cc7 df3c
00000030: a358 2c3e ff99 233e 9ebc dbbd 3c91 363c
00000040: b49b 4abd 5840 49be 74f5 16be 56f5 153e
00000050: a3b6 ed3d c63e 043e 714f 023e 1419 19be
00000060: ade3 9f3c e0b8 283e 4bae dcbd 8944 2f3e
00000070: ef53 803d fe7c 303e 3b10 aabd 512f b03d
0.21193121 -0.043280665 -0.014860383 -0.075024076 -0.05086998 0.043052398 0.020293958 -0.07959376
-0.17318928 0.02542582 -0.005377689 0.027316652 0.16830687 0.15976714 -0.10729335 0.011143025
-0.049464896 -0.19653451 -0.1474207 0.1464437 0.11607101 0.12914571 0.12725617 -0.14950973
0.019517744 0.16476774 -0.10775431 0.17115988 0.06266009 0.1723518 -0.08303877 0.08602775

batch1.weight f4 [32]
00000000: 850f 903f c05e 743f b35b 883f 357c 853f
00000010: 344a 813f c90e 693f 6ca7 893f c0dc 8b3f
00000020: c9cc 893f a249 863f 7314 7a3f 02b5 783f
00000030: eeda 613f 3c08 783f d524 5b3f 061c 723f
00000040: cf0f 7e3f c533 6c3f f549 6e3f 298f 723f
00000050: 078e 5d3f fae0 853f 2ccb 843f ec11 873f
00000060: 21b2 813f a5ad 833f f25e 823f 1517 8d3f
00000070: 75eb 873f 4557 7c3f d52a 783f 0265 6d3f
1.1254736 0.9545708 1.0652984 1.042853 1.010077 0.91038185 1.0754218 1.0926743
1.076562 1.0491221 0.97687453 0.97151196 0.88224685 0.96887565 0.85603076 0.9457401
0.9924287 0.92266494 0.930816 0.94749695 0.8654484 1.0459282 1.0374503 1.0552344
1.0132486 1.0287367 1.0185225 1.1022669 1.0618731 0.9857066 0.96940356 0.9273225

batch1.bias f4 [32]
00000000: a1eb 323e 92d3 42bd ab0e 2c3e 5aa0 28bd
00000010: 3e20 84bd d459 8cbc c8ee acbd e911 873d
00000020: a6db 3f3c f44c 2e3d 332f d6bd c462 673e
00000030: 087e a5bd 0ac1 bd3d 7b25 55bc 0abb 8fbc
00000040: f59d e7bc d36e 08be d9b1 0abe 7c75 84bd
00000050: 243d 28be da52 a03d 536b 5e3d d4c5 8c3e
00000060: ef64 85bc 3a98 abbd 42f4 1cbd 2042 c33c
00000070: a307 04bd 2a9f 2d3e 75e2 00be 63a1 24be
0.17472698 -0.04756505 0.1680247 -0.04116855 -0.06451462 -0.017132677 -0.084439814 0.06595213
0.011710083 0.042553857 -0.10458221 0.2259627 -0.08080679 0.09265335 -0.013009424 -0.017545242
-0.028273562 -0.13323526 -0.13544406 -0.06467721 -0.16429573 0.07828303 0.05430157 0.2749468
-0.01628348 -0.08378644 -0.03831888 0.023835242 -0.032233845 0.16955248 -0.12586387 -0.16077189

conv2.weight f4 [32, 32, 3, 3]
00000000: fb0c 25be 1daf d3ba 4f34 25bc 63d3 863d
00000010: e055 373d bd23 333d 674f 343d 02fc 5e3d
00000020: c20c cf3c 47d9 cbbc f665 debc bce0 953c
00000030: 6407 28bd 7d63 dcbc 4de3 ce3d 18dc 10bd
00000040: 9a66 38bc e2c9 293b 2e5b 3e3d 49ba 243d
00000050: 1709 68bd bb78 ffbc d9b5 873d 9bd8 873d
00000060: cf0e 1a3d f1a2 4bbd 12ba cdbd c1f0 853d
00000070: 2aba 2a3c 7c96 cabd 1047 4fbd 79d0 2bbd
00000080: 8265 d0bc 4213 4b3d f05d 253d 8577 18be
00000090: 2dd2 69bd fe48 963c 0332 30bc 01be 953c
000000a0: 22e8 373c 90d3 933a a524 b9bc 2db4 0abd
000000b0: d3f3 05bd a0d6 35bc 25a2 2a3c 6657 9a3b
000000c0: 8712 61bd fa9f 0ebd 0770 90bd da68 28bd
000000d0: b647 e23c 41e7 943c 1b1c 97bd 9c60 6ebd
000000e0: 6381 0dbd be85 d0bd 2c3f 383d 2f1c c43d
000000f0: 93a0 683d ccb5 03bc d2a1 c53c 4e8b 253d
00000100: a9e6 ebbd 0b48 b63c 74fd 3fbd b399 aabc
00000110: df89 d7bd 4bd4 0b3d cd38 133d 12d4 7dbb
00000120: eaee d0bd 39c7 afba f66b e536 bcfe 69bb
00000130: 1fe3 c43d 3799 b03c 7a64 d3bd 4da0 683c
00000140: 58dd 133d b114 6a3d 9229 26bd 5f3d 323d
00000150: ff93 b7bd 5eec 54bd ec2a c93c 7a22 c0bd
00000160: 2c3f ef3c bed6 46bd b814 adbc 9095 92bc
00000170: f85a dabc 2ec5 4f3c 5a7e 4f3d af6a 8a3d
00000180: 7f20 9d3b 23e7 e2bb 7e58 093d 245d a5bc
00000190: b5f6 963b 5572 f0bc dd6b ed3c 3740 1d3c
000001a0: b370 4a3b 94a4 80bd 7602 2c3d bbf1 05bd
000001b0: 3a5b f1ba 8f4b 5b3d 7bbb 16bd 5ebe 43bd
000001c0: 4987 7e3c 5c4a 96ba 9c7e 9c3c 63ea 263d
000001d0: a9d3 433d 2cbb d0bc 98cb b1ba dc91 283d
000001e0: 6067 913d 406b c0bc 31e4 09bd f1e0 c9bc
000001f0: 3834 d83c ebfd aebc 403a 43bd da37 4e3d
00000200: 89c4 0cbc aab4 babd 8d6f a4bd 679a 17bc
00000210: abe5 f9bb d4b3 4a3d 8f50 4b3d 2faa 093d
00000220: 412a 023d 5fe4 c83b 7c23 65bd 196e e33c
00000230: 63e9 89bc 5c97 d6bc ca0e 2fbd b68f 813d
00000240: 5727 3dbd c534 b13d 3031 c43c 0a83 3cbd
00000250: 0a41 bdba bd2c 953c 8c53 0c3b d5cb e63c
00000260: 705d dfbd a313 313d 8de4 0fbd a1a5 b6bd
00000270: 5221 903c 1672 9c3d 9939 d9bc 4ca8 67bc
00000280: 6edd 8b3c 8465 7e3d 5ed5 9d3d 7692 f3ba
00000290: 4b04 6f3b 6dfd 4c3d 2c36 443c ebf0 c33c
000002a0: 1504 54bc cf03 16bd aab2 b0bb bea2 c2bc
000002b0: 6b63 3d3d 4922 983d 2371 343c 1478 18bd
000002c0: 23fd b43a 517e 9dbd 9e0d 4a3d 411d cabc
000002d0: 7467 dabc bb78 37bd b9b0 e33c c1b3 23bd
000002e0: 2673 8c3d 44b2 a2bc b6c0 f63c 0dc5 3d3d
000002f0: 9b9c ba3c 86b7 493d eba2 763d 596a fabc
00000300: 480c 26bd 5271 b0bd 8523 5cbd 22fa 6c3d
00000310: f6be a5bc fb81 873d 9ca3 1ebb 46a6 82bd
00000320: 4cc9 543c 6ac3 63bd 6f66 e63c 8fe0 ae3c
00000330: ec36 72bc d16f 94ba a1b5 4d3d 5da5 173d
00000340: 0419 c8bc dc19 133d b1ea bfbc 5af0 09bd
00000350: 1255 8c3d 6411 20bc ddf3 413d e6e7 b2bd
00000360: 4b5d 5cbb 6cbd 1a3d 9b28 cbbc 4276 9bbd
00000370: 0e0e 5a3b 39c5 81bd 45a2 7ebd 5237 6cbd
00000380: c4ed 713d 6bc5 31bd 6381 5ebd b1a7 173d
00000390: 685a 1fbd 6fe6 613d ce2c 613c 9b83 e6bc
000003a0: fd24 803d 1be5 6abc c70e 8dbc 7ae4 0ebd
000003b0: 0326 19bc 19cc 743d 13a1 b5bc cc12 7fbc
000003c0: e827 80bc b6b0 a1bb d01e 163d d316 adbd
000003d0: a285 99bc c606 a63d 0662 29bc 4dea 2a3a
000003e0: 79f7 053d e5c1 28bd b8d3 0c3d f741 5cbd
000003f0: ae1b 92bb b936 153c 7a2a 863c 0633 cabd
-0.16118233 -0.001615021 -0.010083272 0.065832876 0.04475963 0.043735255 0.044021036 0.054439552
0.025274638 -0.02488388 -0.027148228 0.018295638 -0.041022673 -0.026902908 0.10101948 -0.035366148
-0.011254931 0.0025907685 0.046473674 0.040216718 -0.056649294 -0.031185498 0.066264816 0.06633111
0.03761178 -0.04971594 -0.10045256 0.06540061 0.0104203615 -0.09891984 -0.05060488 -0.041946862
-0.025439028 0.049578913 0.04037279 -0.14889343 -0.057085205 0.018345352 -0.010754111 0.018279077
0.011224778 0.001127826 -0.022600481 -0.033863235 -0.032703232 -0.011098534 0.010414635 0.0047101257
-0.05494931 -0.034820534 -0.070526175 -0.04111562 0.027622085 0.018176677 -0.073784076 -0.058197603
-0.03454722 -0.10181759 0.04498212 0.09575688 0.05679376 -0.008038949 0.024125014 0.040416054
-0.11518604 0.02225115 -0.04687257 -0.020825243 -0.10524344 0.034138005 0.03594284 -0.003873114
-0.10201819 -0.0013410813 6.8373e-06 -0.0035704812 0.096136324 0.021557434 -0.10321899 0.014198375
0.03609976 0.05714864 -0.04056699 0.04351556 -0.08963775 -0.05198323 0.0245566 -0.09381576
0.029204927 -0.048544638 -0.021128044 -0.017893583 -0.026654705 0.012681289 0.050657608 0.067586295
0.0047951336 -0.0069245263 0.03353166 -0.020186014 0.0046070465 -0.029351393 0.028982097 0.00959783
0.0030889928 -0.06281391 0.041994534 -0.032701235 -0.0018414028 0.053538855 -0.03679989 -0.04778897
0.015535184 -0.0011466253 0.01910334 0.040750872 0.047809277 -0.025479876 -0.0013564704 0.041154727
0.07099795 -0.02348864 -0.033664886 -0.024643393 0.026392087 -0.021361312 -0.047662973 0.050346233
-0.0085917795 -0.0911649 -0.08029089 -0.009253121 -0.0076262555 0.049487904 0.049637374 0.033609565
0.031778578 0.0061307396 -0.055942044 0.02776246 -0.01683492 -0.02619522 -0.042738713 0.06326239
-0.046180096 0.08652643 0.023949236 -0.046023406 -0.0014438939 0.01820981 0.0021412103 0.028173367
-0.10906494 0.043231618 -0.035130072 -0.0891831 0.017594013 0.07638948 -0.026516723 -0.014139246
0.01707336 0.06210853 0.07706712 -0.0018583077 0.0036471065 0.050046373 0.011975806 0.02391859
-0.012940426 -0.036624726 -0.005392392 -0.023759242 0.04623739 0.074284144 0.011013302 -0.03722389
0.0013808351 -0.076901086 0.049329393 -0.024672152 -0.026660658 -0.044792872 0.027794229 -0.03996635
0.068579 -0.019860394 0.030121189 0.0463305 0.022779753 0.049247287 0.060213964 -0.030568289
-0.040539056 -0.08615364 -0.05374481 0.057855733 -0.020232659 0.06616589 -0.0024206406 -0.063793704
0.012987446 -0.055606283 0.028125016 0.021347312 -0.014783602 -0.0011324828 0.050222043 0.037022937
-0.02442599 0.035913333 -0.02342734 -0.033676483 0.068521634 -0.009769771 0.047351707 -0.08735637
-0.0033624943 0.037778303 -0.024799636 -0.07590915 0.0033272537 -0.06336445 -0.06216647 -0.057669945
0.05906464 -0.043401163 -0.05432261 0.037025157 -0.038904577 0.0551514 0.013743592 -0.028138926
0.06257055 -0.01433685 -0.01721896 -0.03488586 -0.009347442 0.059764955 -0.022171533 -0.015568446
-0.015644029 -0.0049343957 0.03665048 -0.08451619 -0.018740479 0.08106761 -0.010338312 0.0006519899
0.03270671 -0.041200537 0.0343816 -0.053773846 -0.004458866 0.009107285 0.016377676 -0.09873013

conv2.bias f4 [32]
00000000: 65d5 bcbb 72e8 723d cc11 a93c 7af1 1ebd
00000010: be92 28bc 73dc 43bd 31f3 33bd 37b9 60bd
00000020: ce9b 893d 3852 43bd cb06 493d 9b87 4dbd
00000030: 78fc 123b 8d05 543d 846c 98bc 45b9 86bc
00000040: dc0d e2bc 2886 fcbc eaad e03c 822f 37bd
00000050: aeb5 0fbd f4fa 5a3d a4bd 683d a7dd 5dbc
00000060: 8732 95bb f5ab 13b9 6ae6 563d 744c 85bd
00000070: 265d 5ebd e3cb 283d dd3b 8e3c 6a23 7abc
-0.0057627433 0.05930371 0.020638369 -0.03880451 -0.010288892 -0.04781766 -0.043933097 -0.054864135
0.067191705 -0.04768583 0.049078744 -0.05017815 0.0022428315 0.051763106 -0.018606432 -0.016445765
-0.0275945 -0.03082569 0.027426679 -0.04472304 -0.035085373 0.053461984 0.05682148 -0.013541616
-0.0045531425 -0.00014083071 0.052465834 -0.06508723 -0.054288052 0.041210067 0.01736253 -0.015267232

batch2.weight f4 [32]
00000000: 7b80 8f3f 4699 593f cfc5 853f 14f2 673f
00000010: d70a 713f fce3 773f e5d8 883f bc23 793f
00000020: af4d 883f 1138 923f 94b4 883f fb0d 8b3f
00000030: 8a99 6e3f 41f0 853f 4a19 6a3f 2705 823f
00000040: 462f 813f 7a8c 723f 15f0 833f a6fa 763f
00000050: 295d 853f 0a72 883f b7d1 813f 1331 623f
00000060: b066 843f 88c1 883f cdeb 653f 95fb 853f
00000070: d639 933f 2463 8b3f 1694 703f c415 893f
1.1211084 0.849995 1.0450991 0.90603757 0.94157165 0.9683225 1.0691191 0.9732015
1.0648707 1.142336 1.0680108 1.0863642 0.9320303 1.0463945 0.9144484 1.0157822
1.0092552 0.947456 1.0307642 0.9647621 1.0419055 1.0659802 1.0142125 0.8835613
1.0343838 1.0684061 0.8981293 1.0467402 1.1502025 1.088963 0.9397596 1.0709767

batch2.bias f4 [32]
00000000: f452 2fbd 7aad ccbd ae9b 1f3e b655 03be
00000010: 6927 22be 2852 d1bd 5880 6bbd 4b7a e9bd
00000020: 6f84 3dbd b6aa b83d 38a6 9f3d 9410 febc
00000030: 2605 6ebc 306b 37bc fc33 9cbd b9c4 123d
00000040: 9674 633c 4202 38be cd82 00be 5854 04be
00000050: 9abd ce3d 0648 013c 1e0b 3c3d a32e 22be
00000060: 5b0f 7f3e 62dd b33d 3d8f edbd a23e d9bd
00000070: 29b0 7aba d05a b53d 526c 62be 5068 32be
-0.04280372 -0.099940255 0.15586731 -0.12825665 -0.15835346 -0.10220748 -0.057495445 -0.11400279
-0.046268877 0.090169355 0.077953756 -0.031013764 -0.014527595 -0.011194989 -0.07627103 0.03583214
0.013882777 -0.17969611 -0.12549897 -0.129228 0.100947574 0.007890707 0.04590904 -0.15838103
0.24908201 0.0878246 -0.11599586 -0.106076494 -0.0009562993 0.08855212 -0.22111633 -0.17422605

conv3.weight f4 [32, 32, 3, 3]
00000000: 285e 503d 6be7 833d 72e1 c0bd 9be2 7c3c
00000010: a54e 9c3c b47c 73bd 5211 c8bd 1617 c33c
00000020: b845 963d b830 c2bb c869 c3bd 832e 643b
00000030: 031e 0fbd ede9 79bd f9fe 883c fd90 07bc
00000040: 502d 0d3d d87b e23c 7691 843d a1e1 263c
00000050: 92ab 1e3d 2980 203d b984 113a ddb3 433d
00000060: b961 a0bd 5e60 423d 521c abbc 1808 663c
00000070: b8d9 bb3d 9201 4ebd 3114 cabb 7ed3 a13d
00000080: f1e8 653c 0606 9cbd 7e4f b7bd 8f0f a4bd
00000090: 88a6 23bd 9737 c23c cf74 7fbc 91e2 333b
000000a0: 3fcb 0b3d 381c f93c 2c9c 133d 50e2 a2ba
000000b0: 2e9a 323d 8bb1 053d 6d39 563d fc33 ebbc
000000c0: 6d73 d7bc 8694 523d 00e0 053d 83f9 fb3b
000000d0: bd67 84bd 0176 cdba d513 5e3a adaf 38bd
000000e0: 55d3 27bd 2cb2 ed3c 5719 98bc 630b 8c3d
000000f0: e391 0b3d 72d8 a0bc cdf3 453d ddf9 963c
00000100: 3707 3a3b 3c18 00bd e434 01bd 1cb2 2d3c
00000110: 3f2e 9a3c e5d1 02be 6913 c6bd 9c80 0c3c
00000120: bd26 dc3b 8c2c 5dbd fe41 55bd a7db 9ebd
00000130: cbb3 19bd a89c ae3d d7d3 a1bc c1da dc3d
00000140: a823 1dbd 2a75 5b3d a644 b2bd 5900 dd3d
00000150: 69da 49bd 9222 aabd 856f 533b 7c5e 6dbc
00000160: 27c8 903c 6832 503d 8628 953d 7dcd 903b
00000170: 2b8b 36bd 07e4 9b3c 9b74 98bc a485 3f3d
00000180: 6799 573d ae1d 80bd 8760 85bd f5f4 90bc
00000190: 8255 8b3d 233c ddbd 9c25 6abc 9d39 07bd
000001a0: 2ad0 16bb 18c3 3b3d 9cc2 d6bc 2b4b 3eb9
000001b0: d18c 3c3d 6d5e 2438 f39a 37bc 32d6 0fbd
000001c0: 0e60 b9bc b58b aabc b604 c23d 9ae3 0abd
000001d0: 0e34 c3bc 097e 993c c056 c1bc 7603 6cbd
000001e0: 7dfc 743d 47a4 3dbd 48b5 16bd df8c 51bd
000001f0: 5ce5 0e3d 0deb 3d3a bde0 5abd d745 26bd
00000200: dca7 69bd 4bd5 ad3c 5366 f7bc f6a8 79bd
00000210: bb83 383d a532 44bc 6a0a 213d 5caf 41bd
00000220: 2ddf ebbc 8665 11bd 9e6b 133d 7d33 83bc
00000230: c789 943d a636 633d bd4c 6cbc 282f 8cbd
00000240: e573 f8bc 6c04 863d 6301 00bc 0e40 8fbb
00000250: 3859 923b 773c 673c 2a2f d63c 3d15 30bd
00000260: f0b1 523d 11f0 2a3c 86e6 cbbb 847a 18bd
00000270: 6c5c 503d ddb4 e03b 2e08 c0bd 4502 ad3c
00000280: 8e43 c9bc d093 033e b41c b73c d545 18bc
00000290: ebb3 dd3c 2066 2f3d 240b e839 9ac7 bd3d
000002a0: 0142 cb3d 9ac3 19bd 1b72 613a 1381 613c
000002b0: 95c2 67bd 2d7b 89bc a5d7 6abc 93d0 f0bc
000002c0: c09a 7cbc 5d5a 38bb 00ea f1bc 3321 8cbd
000002d0: f278 99bd 5bb2 3c3d 5d3e 013c dbb3 bf3c
000002e0: 0c23 94bc 2213 dabd 85f5 bdbc 568b afbd
000002f0: 4e92 a43d 72eb 033d 9f29 993c 028b f43c
00000300: 0577 34bd f775 a3bc b7e7 a03d 340f 0b3d
00000310: 5461 493d dabe 9abd c0da dbbc 954a 383d
00000320: 7f89 b73c 55ce 8fbd d8e4 8a3d d5f5 62bd
00000330: 5272 5c3c 1217 5ebd 0e98 28bc 41bf 18bd
00000340: 0574 09bd f6df d3bb afc5 99bc bddf 333c
00000350: c387 01bd 9483 5abd 6aab 33bd 1c41 b6bd
00000360: 6f91 3bbc fa95 253d 1a59 19bc 3b4f aa3c
00000370: ed68 bf3b 585b 1d3d 0e4f 16bd f6e6 6fbd
00000380: 4e52 363d d990 b1bb 1464 523d 430e 2d3d
00000390: 7b44 62bd f1a0 cd3b cf4e 9e3c 7ad5 debc
000003a0: e561 62bd 9c0d 393c 6f0f e53c 1c27 353d
000003b0: 5f39 8abd 27a0 62bc 77a1 e7bc 6992 063d
000003c0: 30bc 0ebd e76a 2fbc 9e27 29bd ac7e 2f3c
000003d0: 438c cbbd e8a9 70ba 5ded f1bc 6d4c 1ebc
000003e0: 11f1 783d 2b7d b7bd f383 813d b964 843d
000003f0: 1d65 ba3c df53 26bd d446 5dbc 9b0b 063d
0.050871044 0.06440624 -0.09418 0.015434886 0.01908047 -0.059445098 -0.097689286 0.02381472
0.073375165 -0.005926218 -0.095416605 0.0034817762 -0.03494073 -0.061014105 0.016723143 -0.008274314
0.03446704 0.027646944 0.06473057 0.01018563 0.03873784 0.039184723 0.0005551088 0.047778953
-0.07831139 0.047455184 -0.020887528 0.014040016 0.09172386 -0.050294466 -0.006166958 0.07901667
0.014032588 -0.076183364 -0.08950709 -0.0801078 -0.03995374 0.023708148 -0.015591814 0.0027448277
0.034129377 0.030408964 0.03603761 -0.0012427066 0.04360407 0.03264002 0.05230086 -0.028711312
-0.026300156 0.051411174 0.032684326 0.007689656 -0.06465099 -0.0015675427 0.0008471583 -0.045089412
-0.040973026 0.029015623 -0.01856677 0.06838109 0.034074675 -0.01963446 0.04832821 0.018429691
0.0028385648 -0.03127311 -0.03154458 0.010601547 0.01882088 -0.12775381 -0.09671671 0.008575585
0.006718485 -0.05399756 -0.05206489 -0.07756739 -0.03752498 0.085259736 -0.019754333 0.107839115
-0.038364083 0.053578533 -0.087045 0.10791082 -0.049280558 -0.08307375 0.0032262516 -0.014487859
0.017673565 0.05082932 0.0728312 0.0044190274 -0.044566315 0.01902963 -0.01861029 0.04675831
0.05263653 -0.06255661 -0.06512552 -0.01769493 0.06803419 -0.10802486 -0.014291193 -0.03301393
-0.002301226 0.045840353 -0.026215844 -0.00018147814 0.04603273 3.9188588e-05 -0.011206376 -0.035116382
-0.02262881 -0.02081857 0.09473555 -0.033908464 -0.023828533 0.018736856 -0.023600936 -0.057620488
0.059811104 -0.046299245 -0.036793977 -0.051159736 0.034886703 0.0007244803 -0.053436983 -0.04059395
-0.05704485 0.02121987 -0.03020016 -0.06095215 0.045047503 -0.011974965 0.039316572 -0.047286376
-0.028792942 -0.03549721 0.035991304 -0.016015762 0.072528414 0.05547204 -0.014422593 -0.06844932
-0.0303287 0.06543812 -0.007812831 -0.0043716496 0.004466202 0.014113537 0.026145536 -0.042989004
0.051439226 0.010433213 -0.006222549 -0.037226215 0.05086939 0.006857498 -0.0937656 0.021119246
-0.024568345 0.12849355 0.022352554 -0.009293993 0.02706333 0.042822003 0.0004425879 0.092665866
0.099246986 -0.037540056 0.0008600072 0.013763684 -0.056582052 -0.016782368 -0.01433364 -0.029396331
-0.015417755 -0.0028130033 -0.029530525 -0.0684227 -0.074937716 0.04606853 0.007888404 0.023401191
-0.018083118 -0.106481805 -0.023188362 -0.08571498 0.08035718 0.03220696 0.018696604 0.02985144
-0.04405882 -0.019953711 0.07856696 0.033950046 0.049165085 -0.07555933 -0.026837707 0.044993002
0.02240443 -0.070217766 0.0678193 -0.055410225 0.01345499 -0.05422122 -0.010290159 -0.03729177
-0.03355791 -0.006465907 -0.01877102 0.010978636 -0.031623613 -0.05334814 -0.043864645 -0.088991374
-0.011448248 0.040426232 -0.009359622 0.020789733 0.0058413655 0.03841719 -0.036696486 -0.05856987
0.044512086 -0.0054188785 0.051364973 0.04224993 -0.05524109 0.006275289 0.019324688 -0.027201403
-0.05526914 0.011294749 0.02796146 0.04422675 -0.06749224 -0.013832129 -0.028275235 0.03285447
-0.03484744 -0.01070664 -0.041297548 0.010711353 -0.09938862 -0.00091805914 -0.029532129 -0.009661776
0.060776774 -0.08959421 0.063239954 0.06464524 0.022753293 -0.04060733 -0.013505656 0.03272591

conv3.bias f4 [32]
00000000: 6398 263d d104 883c 73e0 6aba 3a33 21bd
00000010: 8751 13bd 2cb1 1439 a904 06bd 4449 f23c
00000020: e5f7 07bd 0a54 6abd bf26 4f3d 2b1d 35bd
00000030: 1cf7 453c 9169 283d 52a0 133b 3d4b 743d
00000040: 0f32 92bc bb2d 58bd 25cb 38bd 54b8 0aba
00000050: 015a 0dbd 49e3 d2bc 3b3c d23c f608 7b3d
00000060: acdc 0a3d 0c17 d83c b47e 6cbd ad03 16bc
00000070: a1c3 143d 9551 733d 6eea 1cbc 1942 c03c
0.04067267 0.01660386 -0.0008959837 -0.039355494 -0.035966422 0.00014180382 -0.032719288 0.029575951
-0.033195395 -0.057209052 0.05057406 -0.04421727 0.012082841 0.0411163 0.0022525978 0.059642065
-0.017846135 -0.052777987 -0.04511561 -0.0005291749 -0.034509663 -0.025743144 0.025663486 0.061287843
0.033901855 0.026378177 -0.05773802 -0.00915615 0.03631938 0.059403975 -0.009577377 0.023469018

batch3.weight f4 [32]
00000000: 1e6f 7a3f 2ad4 783f b356 823f 1549 723f
00000010: 44f5 7d3f d5d5 823f a33f 7e3f 5c60 813f
00000020: 846d 803f 4ffa 7f3f fa92 793f 7209 823f
00000030: 74de 7b3f fa84 843f bef5 6d3f 96b1 813f
00000040: e3ca 7c3f d735 813f 40bc 853f c3f0 763f
00000050: 118a 803f 68b5 823f 2cc9 713f b486 823f
00000060: f469 873f 5c55 803f 46f7 733f 57ef 7c3f
00000070: 4bd6 813f 0f95 7c3f ced7 863f 7e9b 7a3f
0.978258 0.97198737 1.0182709 0.94642764 0.9920237 1.0221506 0.9931585 1.0107532
1.0033422 0.99991316 0.97489893 1.0159132 0.9838631 1.0353081 0.929531 1.013232
0.9874708 1.0094556 1.0448074 0.96461123 1.0042135 1.0211611 0.9444759 1.0197358
1.0579209 1.002605 0.95299184 0.98802704 1.0143522 0.98664945 1.0534608 0.9789351

batch3.bias f4 [32]
00000000: 41db b0bd 372e 21bd 9e5a b5bd bd02 fbbd
00000010: f5e7 67bd 2e90 393d e028 c0bd 6ed2 123d
00000020: 5ec3 bfbd 7e93 55bd 9b9c cbbd db88 89bc
00000030: f7ec 0abe 1fb6 cabd 3d44 99bd 2402 e5bd
00000040: efb1 0dbe 6f09 10bd 3514 f8bd 772a 24be
00000050: 7261 e6bd 8116 68bd d3d7 0b3d 985d 89bd
00000060: ee67 8abd f703 01be 0fa3 3fbe 5589 73bd
00000070: 0297 d3bc 7bd7 11bd a60a 0a3d 27c7 10bd
-0.08635569 -0.039350715 -0.088551745 -0.12256382 -0.056617696 0.045303516 -0.09382796 0.035845213
-0.09363435 -0.052142613 -0.099419795 -0.01678889 -0.13566957 -0.09898018 -0.074837185 -0.11182049
-0.13837408 -0.035165247 -0.12113229 -0.16031824 -0.11249055 -0.056662086 0.034141373 -0.06707305
-0.06758104 -0.12599169 -0.18714546 -0.059457142 -0.025828842 -0.03560589 0.03370156 -0.035346176

conv4.weight f4 [32, 32, 3, 3]
00000000: 72d4 2dbd 8acc 4dbd 7f03 33bd dac2 98bc
00000010: 1b7d c2bc aecc 4ebd 868c a6bc 0847 f8bc
00000020: ab4b 04bd 7a79 29bd 941c e4bc ecd2 b0bb
00000030: a965 17bc 38cc 37bd 485a c4bc 9e38 e5bb
00000040: 74a4 833b 8383 483c 1d01 a83c bf3f 0b3b
00000050: ba16 a13c 2641 f23c 7428 d23b 1929 8b3d
00000060: 13df 0a3d 482c 0d3c c0cd 0abc ea97 8e3d
00000070: 3bf1 063d ff68 673d 8ade 263d b67e 373d
00000080: 79e0 993d b892 343d 1344 2c3d bbbe 9a3c
00000090: 7241 df3a d39f c03b 21e9 ccbc abef 86bc
000000a0: e91c ab3c f2fc cebc bb4b 403b 5396 0c3a
000000b0: 2baf 8ebc fffc 69bd 60c1 32bd 9d1a 8cbd
000000c0: 6cf2 61bd 9d59 debc a17f b0bd 7cc5 85bd
000000d0: 342c 66bd e5a8 89bd 78d1 41bd acc1 46bd
000000e0: 9d10 2dbd 2f06 32bd 8cc5 29bd 4e2a 1abd
000000f0: c66a edbc 46c6 f5bc b80d 7cbd 5ab1 81bd
00000100: a20c 3fbd cce6 48bd 6f27 3cbd 6f0b c1bc
00000110: a4b0 11bd 02ca 4cbd 6815 28bb fab1 3fbd
00000120: 23ae a43d 6990 863d 707b b13d d97a c43d
00000130: 3da4 623d c54f a83d 1e84 9c3d 0f2a 0f3d
00000140: d5c2 cc3d 5ba9 b03c 0230 0b3d b9c0 043d
00000150: 7d4a cabb a76d a63c d309 393c e12b ab3c
00000160: 6084 6d3c 77a0 323d fb41 a33d 0d65 c23c
00000170: 08b0 8f3d 4516 5b3d 1026 1c3b 30d6 523d
00000180: 0790 923d 7e3e 1a3d b0eb 883d 8e79 843c
00000190: 7e20 4bbc be3d c5bc 8741 30bb 3470 9bbb
000001a0: 0fa6 06bd 1617 a23c 7900 353a 93ed 00bc
000001b0: 616a 2cbb eb3f 76bc 319a e2b8 66e8 4bbc
000001c0: 8a33 673c c94b 64bc f3fd ff3b 91f6 28bc
000001d0: d5e6 cb3c 4178 bc3c 7c54 423c 4ae3 14ba
000001e0: cd06 843b 8998 63bc 3be2 583c e76c d13c
000001f0: ee72 e93b 3f14 86bb b9fe 5c3d f65a 093d
00000200: b3e7 0d3d 083a ac3c 1a9d 023c ec48 a13b
00000210: 217e b43c e14e a6bc 6a68 ca3c c761 67bd
00000220: ba44 f5bc e1b7 8dbc f3e8 98bc d011 f0bc
00000230: a3ef 5dbb 8949 04bd b404 b3bc c7dc 37bd
00000240: f080 74bd f7c5 54bd 0adb 9cbc 706c 1abd
00000250: 0092 50bc e074 29bd 801a 69bd a051 f5bc
00000260: 2197 94bc a316 c4bd 52cf 71bd e703 76bd
00000270: e2fb 90bd 30cf 51bd 64f0 9dbd 33d8 b9bd
00000280: 724e 85bd f448 8cbd 0c7d 143c c5e7 4abb
00000290: 7ad7 fabb d669 cfbb 871f 95bc c431 b6bc
000002a0: 2627 9fbc eeff a73c ee46 8c3b 7f23 50bd
000002b0: 34a1 ecbc 5cba 53bd 5661 08bd 1b2d 4abc
000002c0: e1da fcbc 49d9 1bbd 361f 80bc 3f83 63bd
000002d0: c878 9f3d 2856 ab3c 69e9 553d f0fa ab3d
000002e0: ea0e fa3c 2646 4f3d 2f8d 843d 39b9 333d
000002f0: a84a 5d3d 5f0c fdbc 125d 84bc d899 203b
00000300: bbc1 923c be44 41bc 866f 823c 0b61 6b3c
00000310: 4d91 07ba 9c56 5c3a 3776 c8bc f145 49bd
00000320: 93f5 22bc 9e72 07bd ec34 aabc 74de 29bd
00000330: 154f 56bd c905 fdbc da9a 0ebd a3d4 2bbd
00000340: fbc6 ebbc 84eb b4bc 9bb9 3abd 64ff fabc
00000350: c02e 06bd 091b 13bd 918d 92bc 041b e7bc
00000360: da4d 1abc 4710 b43c 89d0 323c 9c57 8abc
00000370: 1a3b 3cbd 0f51 4f3b 41fc 00bb 53e3 f2bc
00000380: bf1c f73c ea3d a1bd 55a7 87bc da34 23bc
00000390: 61a9 aabc 00be debb 4441 cebb 8fbd edbc
000003a0: f5f0 00bc ada2 26bc 658c 0a3d f4f4 ad3c
000003b0: 1aa9 c73c aa35 4a3d b735 e93c 9038 a93c
000003c0: 9798 273d 29d2 3f3d 4f87 993c 645b 053d
000003d0: 00ed 4b3d 0f8f 313d e18c b33b af49 3c3d
000003e0: 9ea5 a83c 417f e23c 69c5 283d 20a6 363d
000003f0: b4e8 42bd a923 16bd 0999 99bc 32c1 80bd
-0.04243893 -0.05024389 -0.043704506 -0.0186476 -0.023741296 -0.050488167 -0.020330679 -0.030307308
-0.032298725 -0.041375615 -0.027845658 -0.0053962376 -0.009240546 -0.044872493 -0.02396883 -0.0069952747
0.004017407 0.012238386 0.020508343 0.0021247712 0.019664157 0.02957208 0.006413514 0.06794948
0.033904146 0.0086165145 -0.008471906 0.06962569 0.0329449 0.056496616 0.040739574 0.044798575
0.07513518 0.044085234 0.042057108 0.018889775 0.0017033054 0.0058784275 -0.025013508 -0.016471704
0.020887809 -0.025267098 0.0029342014 0.0005362976 -0.017417511 -0.05712604 -0.043641448 -0.068410136
-0.055162832 -0.02714234 -0.08618093 -0.06531808 -0.0561945 -0.06721667 -0.047318906 -0.048524544
-0.04225217 -0.04346293 -0.04144816 -0.037638 -0.028981578 -0.03000177 -0.06153652 -0.06332655
-0.046642907 -0.04904823 -0.045936044 -0.023565022 -0.03556885 -0.049997337 -0.0025647525 -0.04680059
0.080410264 0.06570513 0.08666122 0.09593744 0.05533241 0.0821834 0.07642387 0.03495222
0.09998099 0.02156513 0.03398133 0.032410357 -0.0061734305 0.020315958 0.011293846 0.020894947
0.014496893 0.043610062 0.07971569 0.023729825 0.07015997 0.053488035 0.0023826398 0.051473796
0.07156377 0.037657253 0.06685579 0.016171243 -0.012397883 -0.024077293 -0.0026894526 -0.0047436003
-0.03287321 0.019786399 0.00069046725 -0.007869142 -0.0026308524 -0.015029888 -0.0001080524 -0.012445545
0.014111409 -0.013934084 0.0078122555 -0.010312692 0.024890343 0.02300656 0.011860963 -0.00056796207
0.004029131 -0.013891348 0.013237531 0.025564624 0.0071242964 -0.004091769 0.05395386 0.033534013
0.034644794 0.021023765 0.007972026 0.004922023 0.0220328 -0.020301284 0.024707992 -0.056489732
-0.029939998 -0.017299594 -0.018665766 -0.029305369 -0.0033864758 -0.03229669 -0.021852829 -0.044888284
-0.059693277 -0.051946606 -0.019147415 -0.03770107 -0.012730122 -0.041371226 -0.056910038 -0.029946148
-0.01813847 -0.0957463 -0.059035607 -0.060062315 -0.07079293 -0.05122298 -0.077118665 -0.0907444
-0.06509103 -0.06849852 0.009063017 -0.00309609 -0.0076550813 -0.0063297553 -0.01820351 -0.022240527
-0.019427847 0.020507779 0.0042809164 -0.0508151 -0.028885461 -0.051691398 -0.03329595 -0.012339856
-0.030866088 -0.038049016 -0.015639883 -0.055545088 0.07786709 0.020915106 0.05222455 0.08397472
0.03052469 0.05060401 0.06472241 0.043877814 0.054026276 -0.030889688 -0.01615766 0.002450576
0.017914644 -0.011796175 0.01592232 0.014366399 -0.0005171493 0.000840524 -0.024470432 -0.049138967
-0.009946245 -0.03306829 -0.020777188 -0.041471913 -0.052321512 -0.030886548 -0.034815647 -0.041950833
-0.028781405 -0.022084959 -0.045587163 -0.030639358 -0.032759428 -0.035914455 -0.01788977 -0.028211124
-0.009417975 0.021980418 0.0109139765 -0.016887479 -0.0459548 0.0031634008 -0.0019681605 -0.029649412
0.030165074 -0.07873137 -0.016559282 -0.009961331 -0.02083272 -0.006797552 -0.0062944014 -0.029021053
-0.007869949 -0.010170621 0.033825297 0.021234967 0.024372626 0.049367584 0.028467996 0.020656854
0.040917005 0.046831284 0.018741278 0.03255786 0.049786568 0.043349322 0.0054794406 0.045968708
0.020586785 0.02764857 0.04120389 0.044592023 -0.047585204 -0.036655102 -0.01874973 -0.06286849

conv4.bias f4 [32]
00000000: ff68 8ebd c5e8 fdbc d272 6abc c952 36bc
00000010: fbfa 553d 24ca a6bc b69c 443d d0f3 40bd
00000020: a13c ea3b 921b d73c 018a 493d 5472 c83c
00000030: 18fd cb3c f25a 613a 63c9 0abd 4266 69bd
00000040: 8a5f 2abd 3064 0bbc 156b 343b db09 dc3a
00000050: 2b4a 06bd 5cb9 473c 05b6 07bd 487d 20bd
00000060: c68a 61bc 4c4e 97bd 57bd 82bd 9336 873b
00000070: 5000 483d e438 afbc b73c b8bc b90a 8d3c
-0.0695362 -0.030994782 -0.014309602 -0.011128136 0.052241307 -0.02036006 0.048001014 -0.047107518
0.007148341 0.026258264 0.049203876 0.024468578 0.024900958 0.0008596621 -0.033883464 -0.056982286
-0.04159502 -0.008507773 0.0027529646 0.0016787605 -0.032785576 0.012190189 -0.03313257 -0.039181978
-0.013765996 -0.07387981 -0.0638377 0.004126379 0.048828423 -0.021389432 -0.022489889 0.017217027

batch4.weight f4 [32]
00000000: 0a4b f73f 2aa5 a43f 6898 fb3f e87c 583f
00000010: ab55 f63f 649e c53f 5f3e a73f 26da af3f
00000020: cb21 fb3f e092 f93f f85c 0b3f 8cde b53f
00000030: f17f c83f 7e69 4f3f ef21 263f 285b b93f
00000040: 51bc ad3f 9fd7 ee3f 9029 dd3f fc50 f33f
00000050: 6ae2 843f 7d2a da3f e455 df3f b127 023f
00000060: 7eb8 0240 697e f93f ab6b d63f 0f58 0440
00000070: cb12 e53f 172f e53f cfc9 ef3f 5d4f ed3f
1.9319775 1.2862904 1.9655886 0.8456559 1.9244894 1.5438962 1.3065909 1.3738449
1.9619688 1.9497948 0.54438734 1.4208541 1.5664045 0.81020343 0.6489553 1.4480944
1.3573095 1.8659552 1.7278309 1.900909 1.0381596 1.7044216 1.7448087 0.50841814
2.0425105 1.9491702 1.6751608 2.0678747 1.789636 1.7904996 1.8733462 1.8539845

batch4.bias f4 [32]
00000000: d76c 573d 9f43 4fbd 611d b4bd f833 78be
00000010: 5f32 89bc 2990 79bd 30be 14be 67bb 0bbe
00000020: 28a0 7dbd b634 f2bd cb5b ecbe 46b8 68be
00000030: 4cde 1bbd 4c6e 8fbe a8ce d2be 8a12 c3bc
00000040: 6d97 f4bd 3b8a 9fbd cd9b bdbd 4e37 283d
00000050: a61d 45be db68 ddbd 73cb 3fbe a910 ebbe
00000060: 5cef 943d 8d08 9f3d 1762 5bbd 39d4 21bd
00000070: e6fe b2bd e062 3fbd 32e0 e63a f3ee b8bd
0.052594032 -0.050601598 -0.08794666 -0.24238575 -0.016747652 -0.060928497 -0.14525676 -0.13645707
-0.061920315 -0.1182646 -0.46163782 -0.22726545 -0.038053796 -0.28013837 -0.4117329 -0.023812551
-0.11942945 -0.07790037 -0.09258232 0.041068368 -0.19249591 -0.10811015 -0.18729953 -0.45911148
0.07272217 0.07765303 -0.053560343 -0.039509032 -0.08740024 -0.046725154 0.0017614423 -0.09029951

lin1.weight f4 [5, 800]
00000000: 66bf 863a a909 c339 c16a 62bb 41bf d33b
00000010: 4fec d4bb 677c 48bc ccc4 78bc 850e 9cbb
00000020: 3e32 0e3c 66f4 14bc b9a8 1cbc fe59 1fbc
00000030: 7c4f f13b 61af 97ba 1c03 d7bb 679b e1bb
00000040: b450 1b3c 0c51 8fbb e973 67bc 768d 933a
00000050: e336 0f3b efba f83a 74c6 853a 0265 9f3b
00000060: 00c9 123b 07be d3ba c1c0 74bc a178 2c3b
00000070: 710c 4eba 3a05 863c bc3a 08bb 4cf3 ef38
00000080: 9a4f 053c 87ff 42bb 6339 883c d22a 443c
00000090: cf8f 1b3b d7b7 f5ba a443 4b3c 4efd ff3a
000000a0: 1374 abbc dea8 51bb 04da 2abb 7acc 3fbc
000000b0: 113c 09bc 6362 8abb 5bce eb3b 3f11 023b
000000c0: a634 2dbb 5dfb adbb 2553 a0bc 2f89 97bc
000000d0: 4dff d939 42a5 df3b d197 383b 80d9 30bb
000000e0: f10c 6abc 1f29 e63b f1b9 62bc 618b 00bc
000000f0: e688 863c 9a23 903c 745d 743b bb43 edbb
00000100: 92fc 04bc ab62 173c 4c2e 293c 8315 2dbb
00000110: ce41 27bc 5f02 babb 0727 36bb 03f3 5cbc
00000120: a794 4bbb ec03 f93b b583 debb 0735 0dbc
00000130: d2c8 083c e609 6abc 207e 3a3b 9aa4 0f3c
00000140: d8ca 7c3b 7e83 93bc 99ff 4c3a f04b bfba
00000150: 0251 dc3b 0391 323c 30cd 9db9 0e53 88bb
00000160: a58f e9bb ce05 86bc 5614 81bb 9b77 993b
00000170: 4530 3a3b e889 3c3c fe38 a1bb 3b68 dbbb
00000180: cdeb 58bc a049 063c 0f8e 4dbc ab95 3b3c
00000190: 7509 0d3b 3bbf 66bc a5df 203a 098a 3dbc
000001a0: 4477 833b 696a 43bb 434e 9a3b 6ef7 71bc
000001b0: 8115 eb3a d905 99bc c3c5 913c 2d1e 2d3a
000001c0: e2e0 21bc d1b4 adbb 5671 d23a 0d81 1c3b
000001d0: 3041 4fbc 76c1 953b 4433 0b3c ee2e b4bb
000001e0: e23d aabb 0c8e b1bb 882a 38ba 51a9 a1bb
000001f0: 0bb8 48bc 9bb7 883b f770 613b 391d 85bc
00000200: cee3 c7bb 5052 1bbb eb20 913c 961d 19bc
00000210: 96f1 6cbc fa25 933c 6fd5 b7ba 4bb6 89ba
00000220: dc94 d53b 3c3c eebb c95b 25ba 409a 33bc
00000230: 6b4d 61b9 2c97 303a 2b37 53bc 1b7a 073b
00000240: c842 363b f165 293c d149 82bc 5311 583c
00000250: 05ad 24bb 8ef5 0a3a fe8f ad3b 39ff 03bc
00000260: 5b00 133b 3a2a dcbb 1bde 623b e481 4c3c
00000270: 1c18 c739 0f7c 963b 5121 643c 2918 8aba
00000280: a2ad 623b 960d 11bb 1ab3 f93a a5c7 9a3a
00000290: fc2e 07bc da11 5d3b d66a 36bb 9784 043c
000002a0: 1a66 e1bb 7a88 e13b 80b1 a83c f75e 1fbc
000002b0: 4093 823c a07b 30bc 4c00 b43b b3ce 953a
000002c0: ea45 95bc 0787 093a 3945 903b 1257 aabb
000002d0: b596 69bc 9b96 18bc a91c 8d38 1344 51bb
000002e0: 53d1 64bb def5 68bc 51c3 253c e309 12bc
000002f0: 0ebb 8f38 f603 653c 5c3e 6cbb 8162 023c
00000300: fb46 023c 78ef 5ebc c5b4 02bc 2a49 dbbb
00000310: 3ec9 83ba 846a d138 0681 abbb 07e2 98ba
00000320: 6b6b 8b3b 81a4 54bb 25c6 c5bb 1352 9f3a
00000330: fdde bebb 04b2 a73b 0f47 14bc ca5e 97bb
00000340: f7fd 23bc cf2f 67bc d4e0 bc3c decd bfb8
00000350: c930 68bb 2fdb aaba 9adf ae3c 9d67 92ba
00000360: 619b 3e3c e6b5 6dbc 9991 74bb 6b36 ba3c
00000370: 5406 e3bb 4a78 0ebb 01c7 aabb 8ce3 1abc
00000380: 2051 85ba d977 8a3c 9aa0 ca3b 0fe3 523c
00000390: 3b9c 07bb 124b 843b 8e2e fdbb 3b23 78bb
000003a0: 4985 cf3a 32ef 073c f8e6 443c da8b 4fbc
000003b0: 9edc 17bc 35a3 45bb 3dd8 2fbc d532 94bc
000003c0: 49b4 33bc 04e9 523c c42c 383c d2b9 863b
000003d0: e0a9 f0bb a701 03bc c60b b23a 80b5 e33b
000003e0: 8615 2a3c 4324 3a3b b584 edbb 010b d73b
000003f0: 846d 9abc 6610 70bc e6c9 adbb c10f dc3b
0.001028043 0.00037200496 -0.0034548494 0.006462008 -0.0064978967 -0.012236691 -0.015183639 -0.004762473
0.008678971 -0.009091472 -0.009561711 -0.009726046 0.0073642116 -0.0011572653 -0.00656165 -0.0068849805
0.00947969 -0.004373675 -0.014126756 0.0011257369 0.0021852783 0.0018976609 0.0010206238 0.004864336
0.0022397637 -0.0016154655 -0.014938534 0.0026317018 -0.000786013 0.016359914 -0.0020786962 0.00011441726
0.008136654 -0.0029754357 0.016628927 0.0119731 0.002373684 -0.0018746805 0.0124062635 0.0019530447
-0.020929372 -0.0031991522 -0.002606989 -0.011706466 -0.008376137 -0.0042231544 0.0071962303 0.0019846705
-0.0026429086 -0.005309506 -0.019570896 -0.018498031 0.0004157968 0.00682512 0.0028166662 -0.002698511
-0.014285312 0.007023945 -0.013838277 -0.0078457305 0.0164227 0.017595101 0.0037287148 -0.00724074
-0.008116858 0.009239833 0.010325979 -0.0026410527 -0.01020856 -0.005676552 -0.0027794258 -0.013485673
-0.0031063945 0.0075993445 -0.006790603 -0.0086186 0.008348661 -0.0142845865 0.0028456524 0.008767271
0.0038573053 -0.018007036 0.00078200694 -0.0014594775 0.006723524 0.010898831 -0.0003009825 -0.0041602915
-0.0071277195 -0.01636019 -0.003939192 0.0046834475 0.0028410119 0.011507489 -0.004920124 -0.006695775
-0.013239813 0.0081962645 -0.012546076 0.011449258 0.002152053 -0.014083679 0.0006136841 -0.011568555
0.0040120203 -0.0029818064 0.0047090366 -0.0147684645 0.0017935486 -0.018679546 0.017794495 0.0006603923
-0.009880276 -0.005301096 0.0016055505 0.0023880631 -0.012649819 0.0045701815 0.008496109 -0.0054987585
-0.0051953653 -0.0054185446 -0.00070253806 -0.004933514 -0.0122509105 0.004172278 0.0034399608 -0.016249286
-0.0061001545 -0.0023700185 0.017715892 -0.009345433 -0.014461895 0.017962445 -0.00140254 -0.0010506598
0.0065179896 -0.007270364 -0.00063079275 -0.010962069 -0.00021486513 0.00067363936 -0.012891571 0.0020672146
0.00278108 0.010339246 -0.015904339 0.013187724 -0.0025127542 0.0005300873 0.005296706 -0.008056455
0.0022430632 -0.006718901 0.0034617248 0.01248214 0.000379742 0.0045924257 0.013923959 -0.0010535765
0.0034588357 -0.0022133342 0.0019050569 0.0011808766 -0.008250948 0.0033732564 -0.0027834675 0.0080882525
-0.0068786265 0.0068827244 0.020592451 -0.009727231 0.015939355 -0.010771662 0.0054931995 0.0011429399
-0.018221814 0.0005246256 0.0044027832 -0.005198368 -0.014257123 -0.009313251 6.728742e-05 -0.0031931445
-0.0034914806 -0.014218776 0.010117368 -0.00891349 6.853613e-05 0.013977995 -0.0036047911 0.0079580555
0.007951493 -0.0136068985 -0.007977669 -0.0066920714 -0.0010054482 9.985737e-05 -0.0052338867 -0.0011664041
0.0042547486 -0.0032446685 -0.0060355836 0.0012155197 -0.005824922 0.0051176567 -0.009050145 -0.004619454
-0.01000928 -0.01411052 0.023056425 -9.1459355e-05 -0.003542947 -0.0013035293 0.021346856 -0.0011169795
0.011633725 -0.0145087 -0.0037318228 0.022731027 -0.0069282446 -0.0021739178 -0.0052117114 -0.009453665
-0.0010171272 0.016902851 0.006183696 0.012871518 -0.0020692486 0.0040372694 -0.007726497 -0.0037862796
0.0015832569 0.008296775 0.012017958 -0.012667621 -0.009268908 -0.0030157093 -0.010732708 -0.018090645
-0.010968276 0.012872938 0.011241142 0.004111507 -0.0073444694 -0.007995999 0.0013583831 0.0069491267
0.010381108 0.0028402961 -0.007248486 0.006562591 -0.01885105 -0.014652347 -0.005303609 0.006715745

lin1.bias f4 [5]
00000000: 6d66 b5bc 93f0 39bc 387f 70bc be2c 3fbc
00000010: bfe4 13bc
-0.022143567 -0.011348861 -0.014678769 -0.011668382 -0.009026705

exp_avg f4 [32, 3, 3, 3]
00000000: 3a06 b6bb a76e 0f3c b71d b43c 09a4 983c
00000010: 48b5 b73c 074c 043d 3165 d13c 6da2 1f3d
00000020: 1606 803d 92a4 bfba 177c 513b 9dca 8c3c
00000030: 5fa9 583c bcba 1f3c 9a37 9d3c 83d6 543c
00000040: ba4e cb3c 2dbb 493d a623 1b3c 8c6a e63b
00000050: ae40 1f3c 5cbe be3b a8e2 66bc d4e9 bebc
00000060: ee09 75bb 0f2f d1bc 00d1 97bc d5ba 1e3d
00000070: 58c6 1f3d eab9 323d 1d13 503c 7311 f63c
00000080: f391 2e3d 0c46 7fbc a568 993c 6b74 e93c
00000090: e987 473d 65fa 603d 4821 5e3d 0f15 023d
000000a0: 0f08 453d 5804 763d bd36 113c 93d7 173d
000000b0: fed4 363d 43e1 3a3d 9e67 6d3d b80a 693d
000000c0: dcb4 023d b914 5a3d a163 6c3d 3eb8 203c
000000d0: d9cf 1e3d ffb6 2d3d 0180 fa3b 0adb ef3c
000000e0: d298 2d3d 63a8 e83c 9861 323d bb8c e23b
000000f0: 2255 8a3c 8ac6 32bc bde4 7dbb 9fd5 e0bc
00000100: ab53 123a 845b a03c c921 e2bb b64a 273c
00000110: 3d9c 9abc 27ad 003b ae82 dabc 1641 8dbc
00000120: c62d 993b 5c95 183d 92f7 6a3d 5964 a33c
00000130: fc0f 2e3d b28f b13c b71f 273d 0358 923c
00000140: f964 b03c 07f6 1abd 44c8 1cbd e462 49bd
00000150: 96c8 3fbd 5978 1dbd 84c9 24bd 9dd3 21bd
00000160: 90fb 67bd bcf2 f3bc 425b 6bbd d70a 87bd
00000170: b272 83bd 41e5 76bd b27e 62bd afe4 6fbd
00000180: 1cab 49bd 6526 84bd de5d 19bd 61f3 a4bc
00000190: 4462 eabc c358 25bd 399b 02bd 3b87 18bd
000001a0: 6436 5ebd a6eb 09bd 5c8b 7bbd 39fa eabc
000001b0: a782 d13b 2419 0ebc 0152 6bbc 09dd 11bd
000001c0: 450a b3bc 114a 01bd ad8d 6ebb c27a 0e3c
000001d0: ae56 f63b 3c00 20bb fd45 aabc 9877 b9bc
000001e0: db71 5ebd 0c0f 06bd b166 2dbd 886a 52bc
000001f0: f709 78bc db6d 75bc 02c9 61bd 560e 47bd
00000200: 3c79 1bbd 28cf b1bd a313 59bd ff18 48bd
00000210: a6ba 2dbd bb72 c7bc c7cf 6bbc b55f a43c
00000220: dce4 153d 9768 fe3c c898 0d3d f702 493d
00000230: ac55 203d e177 1d3d 8e50 1b3d cf46 dc3c
00000240: 4875 d53c b71d ff3c 7389 e13c bd88 233d
00000250: 3d97 2e3d c9cb 0c3d f038 4a3d 6385 2c3d
00000260: a9d9 013d 9598 983c 0efb c53c 0baf 8a3c
00000270: 2414 153d a515 cd3c 606f 333c 09f6 253d
00000280: db3b af3c 67b3 9a3b 6fa8 003d ca60 7f3d
00000290: 0421 cc3c 228d 313d 53f0 103d 8f95 173d
000002a0: b923 4bbc a0b8 593a d176 32bc d66b f93c
000002b0: 0821 713d 2c1e d33c 67cd 273d 4b09 133d
000002c0: 996f 1b3d 7c75 d3bb 550d 3a3c b2cd f53b
000002d0: 4fd3 f43c 09e7 283d 33bb 8a3c 58af 153d
000002e0: 9a30 973c 3f10 f63c 0de8 f03b 0817 af3c
000002f0: c0f8 cb3c 870f a1bd 96b0 7cbd 12d2 a0bd
00000300: 1360 4bbd e209 79bd 65d9 4dbd df3f 23bd
00000310: d2e7 1bbd 1bec 49bd c6da d8bd 5d5a cfbd
00000320: 8b13 f5bd 9075 99bd 3af5 cbbd 5b28 bdbd
00000330: 9dae 7abd 2225 97bd 5d63 a0bd 09ae 8dbd
00000340: 099f 60bd e0e7 c3bd d3f0 62bd 96a1 c3bd
00000350: 474e d0bd 7e76 5ebd 4b6f 99bd 35f6 acbd
00000360: 7cf0 74bd 14a5 a1bd 1a1e 9dbd 00d2 b1bd
00000370: e29f a6bd 822e c4bd 16e2 8ebd 6f8f 85bd
00000380: 5312 4abd 1e03 7bbd 30a9 adbd 9f7c babd
00000390: f7d7 c3bd 563f b8bd 5754 c4bd d563 aebd
000003a0: 2fc2 acbd 7458 71bd 56de cdbc 6349 44bd
000003b0: 4288 77bd d943 68bd c35a 80bd ec5b 80bd
000003c0: c8d1 5bbd d32e 80bd 585f 4bbd 8c31 043a
000003d0: 10b7 05bb 3fa0 9f3c ee95 acbc 9e44 f5bc
000003e0: 192b c23c fb10 4ebd b7cb 56bc 5105 be3c
000003f0: 9643 e43b c426 513c 338e ea3c f73a 88bc
-0.0055549415 0.008754409 0.021986825 0.018632906 0.022425309 0.032299068 0.025560947 0.03897326
0.06251161 -0.0014621189 0.0031964832 0.017186457 0.013223975 0.009749111 0.019191552 0.012990597
0.024817813 0.04925077 0.0094689485 0.0070317443 0.009720011 0.0058210324 -0.014092125 -0.023304857
-0.0037389952 -0.025535135 -0.018532276 0.038752396 0.039007515 0.043634333 0.012699869 0.030037617
0.042619657 -0.015580665 0.018726656 0.028497895 0.0487136 0.054926295 0.05423096 0.031758364
0.04810339 0.060062736 0.008863148 0.037070822 0.04463672 0.045624983 0.057960145 0.056894988
0.031910762 0.05324242 0.0577122 0.009809552 0.038772438 0.042410847 0.007644654 0.02927925
0.04238207 0.028400606 0.043550104 0.006913749 0.016886298 -0.010911593 -0.0038741075 -0.027445612
0.00055819255 0.019574888 -0.006901 0.010210684 -0.018873328 0.0019634457 -0.026673641 -0.01724295
0.004674646 0.037251815 0.057365008 0.01994531 0.042495713 0.021674965 0.04080173 0.017864233
0.021532523 -0.037832286 -0.038276926 -0.049166575 -0.046822153 -0.03844485 -0.040231243 -0.03950845
-0.056636393 -0.02977883 -0.057460077 -0.065938644 -0.06418361 -0.060277227 -0.055296607 -0.0585677
-0.04923545 -0.06452636 -0.037443034 -0.020135583 -0.02861131 -0.040367853 -0.031886313 -0.03723834
-0.05425109 -0.033671997 -0.0614122 -0.028683769 0.006393749 -0.008672986 -0.014362813 -0.035611186
-0.021855483 -0.031564776 -0.0036400363 0.00869626 0.0075176572 -0.0024414202 -0.020785326 -0.022640035
-0.0543078 -0.032729194 -0.042334262 -0.012842782 -0.015139095 -0.014979805 -0.055123337 -0.048597656
-0.037957415 -0.0868209 -0.052997243 -0.048851963 -0.04241433 -0.0243467 -0.0143928 0.020065168
0.03659521 0.031055732 0.03456953 0.049075093 0.039144203 0.038444404 0.03791862 0.026889233
0.0260569 0.031142099 0.027531361 0.039925326 0.0426247 0.034374032 0.049370706 0.042119395
0.031701718 0.018627444 0.024167564 0.01692917 0.03639616 0.025034735 0.010951847 0.04051784
0.021390846 0.0047210935 0.03141063 0.062348165 0.024918087 0.043347485 0.03538544 0.037007865
-0.012398654 0.00083054043 -0.010892586 0.030446928 0.05886939 0.025771223 0.04096737 0.035897534
0.037948225 -0.006453214 0.011355718 0.0075013274 0.029885916 0.041235957 0.016934967 0.036544174
0.018455792 0.030037044 0.0073518814 0.021373287 0.024898887 -0.0786429 -0.061691843 -0.07852568
-0.04965217 -0.06080044 -0.05025615 -0.039855834 -0.038062878 -0.049297433 -0.10588603 -0.10124657
-0.11966618 -0.074931264 -0.09958883 -0.09236213 -0.06120168 -0.073801294 -0.07831452 -0.0691796
-0.054839168 -0.09565711 -0.05540545 -0.095523044 -0.1017118 -0.05431222 -0.074919306 -0.08445398
-0.059799656 -0.07892814 -0.07671757 -0.086826324 -0.08135964 -0.09579183 -0.06976716 -0.065214984
-0.04933388 -0.06128227 -0.084795356 -0.09105801 -0.095626764 -0.08996455 -0.09586399 -0.08515135
-0.08435475 -0.058922246 -0.025130432 -0.04792155 -0.06043268 -0.05670533 -0.062673114 -0.06267533
-0.05366686 -0.06258931 -0.049651474 0.00050427835 -0.0020403303 0.019485591 -0.021067586 -0.029939946
0.023702191 -0.050309163 -0.013110093 0.023195894 0.0069660647 0.01276559 0.028632259 -0.01662968
