results_auto/01_domain_adaptation/maml_supervised/June/officehome_maml_order_2_seed_0_shots_1_ways_5_meta-lr_0.0001_dropout_0.2_RandAugment-prob_0.5_datetime_11_06_2021_09_41_05/intermediate_15000_model.pt (torch, 412181 bytes, 54 tensors)

conv1.weight f4 [32, 3, 3, 3]
000000 ef 80 43 3c 4e 3c c9 3d 7a 79 1d be 52 6f 0b be
       0.011932596 0.09825955 -0.15378371 -0.13616684
000010 04 27 99 bd a3 06 58 3d c5 33 98 3c d5 a8 2e 3e
       -0.07478145 0.052740704 0.018579373 0.17056592
000020 a1 42 fa ba 19 18 47 3d 5b 68 92 bd 07 c9 1a bd
       -0.0019093343 0.048606966 -0.071488105 -0.03778937
000030 53 a6 47 be fd ba 0d be 38 43 ae bd bf 76 83 3c
       -0.19497041 -0.13840862 -0.08508915 0.016047833
000040 27 8c ab 3d a6 02 ff 3d d6 39 0f be d9 27 dc bd
       0.08376341 0.12451677 -0.13986906 -0.10749788
000050 61 24 81 3d 44 a4 15 3e db 76 60 bd 27 2b 09 3e
       0.06305767 0.14613444 -0.05480085 0.13395368
000060 68 ad ae bc 04 25 da 3c 65 42 39 3e 15 7a 2d be
       -0.02132292 0.026628979 0.18091734 -0.16941102
000070 8c f8 da bd 2a 17 0c bd 63 e7 5a bd 2f 81 39 3e
       -0.10691938 -0.03420178 -0.053443324 0.18115686
000080 df c0 e8 bd 9b cf 6f bd af a3 ee bd 82 e8 25 be
       -0.11364912 -0.058547597 -0.11652314 -0.16201976
000090 84 df ce bd 12 e7 3d 3e c6 90 cf 3d b2 b7 ed 3d
       -0.10101226 0.18545178 0.10135035 0.11607303
0000a0 99 8d d8 3c b8 c7 b2 bd 34 4f 76 3d 84 8a 2c be
       0.026434707 -0.087294996 0.060134128 -0.16849715
0000b0 23 ec 04 be 8d f1 c8 bd c5 2d 0c 3e ca 04 01 3e
       -0.12980704 -0.09811697 0.13689335 0.12599483
0000c0 39 c2 92 bd 92 dc ee 3b d8 45 06 3e bd 93 5d 3e
       -0.07165951 0.0072894776 0.13112581 0.21638389
0000d0 6f 60 bf 3d 7e 64 16 3d 65 a4 1d 3e b4 a5 dc bd
       0.09344565 0.03671693 0.15394743 -0.10773793
0000e0 e0 ba 24 3d 27 8b ff bd 80 7b 05 be 54 0b ce bd
       0.04021728 -0.12477713 -0.13035393 -0.100607544
0000f0 ec 2b c1 3d c0 a4 91 3d 79 a8 ea bd 75 09 94 3d
       0.094322056 0.07111502 -0.11457915 0.07228366
000100 24 57 be 3d 30 a8 1e bd 45 d1 95 3c ba ad ff 3c
       0.092939645 -0.038734615 0.018288264 0.031210769
000110 5d 53 c9 3d b8 00 40 3e 8b d8 20 be 9b d0 aa bd
       0.098303534 0.18750274 -0.15707605 -0.083405696
000120 2c fe 9d 3d 7e e3 0c 3e 92 d7 0d 3e 5e 12 1f 3e
       0.07714495 0.13758656 0.13851765 0.1553435
000130 08 62 09 3c 70 7b 4e be 4b 02 9c 3b 24 51 1f be
       0.008385189 -0.20164275 0.0047610155 -0.15558296
000140 d0 11 60 be b9 40 30 3e fe 20 22 3e bc 2d 19 be
       -0.21881795 0.1721219 0.15832898 -0.14958853
000150 f6 5b 61 3c f8 59 5c bd 6a 9c 27 bc 7f 8d c4 bd
       0.013754835 -0.05379674 -0.010230163 -0.09597301
000160 e4 d7 61 3d 67 df d3 bd 06 a8 a7 3d 83 46 f6 3d
       0.05513753 -0.10345345 0.08186345 0.12025168
000170 ac aa 41 3e b3 1f 5d 3d bf 9d 4e be d8 88 c5 bd
       0.18912762 0.05398531 -0.20177363 -0.096452415
000180 74 37 af 3d 0d 08 c6 3c f9 d3 0a be 6c 6b a6 bd
       0.08555499 0.02417376 -0.13557424 -0.08125958
000190 ec 2d 60 3e 38 7b 4a 3e 15 e2 ae bd 92 76 58 bd
       0.21892518 0.19773567 -0.085392155 -0.052847452
0001a0 fb e7 0a be 7d 3a 92 39 a1 81 14 be 21 df e1 bd
       -0.13565056 0.00027890867 -0.14502575 -0.110288866
0001b0 0d fe b5 3c a6 40 9a 3c 82 a9 7b bd 1d fd 19 3e
       0.022215867 0.018829655 -0.061440952 0.15037961
0001c0 b6 7c ce bd f0 01 50 3e 8b f7 1d 3e b6 8d 2d be
       -0.100823805 0.20313239 0.15426461 -0.1694859
0001d0 f8 a7 05 bd 50 f2 58 3b 04 e9 ff bb a5 4f 44 3d
       -0.03263089 0.0033103414 -0.00780976 0.047927517
0001e0 fb 61 be 3d ab c9 0e 3a 3c 2c 85 bd 92 30 b1 3d
       0.09296032 0.0005446921 -0.06502578 0.08651842
0001f0 bb 38 67 be e5 c8 eb bd c7 cc 5d bc 6b 63 a8 bd
       -0.22580235 -0.11512927 -0.013537592 -0.082220875
000200 3b f5 9f bc dd 18 b1 bd f9 94 87 b9 af 3d c5 3d
       -0.019526115 -0.086473204 -0.000258602 0.09630906
000210 52 4e b3 bd 5a 5c 06 bd 27 8a 10 3e 88 c9 a4 bc
       -0.08755173 -0.032802917 0.14115201 -0.020115629
000220 26 ae 59 3c d4 8d 2d bc fa 51 02 3d 57 61 10 3e
       0.013286149 -0.0105928965 0.03181646 0.14099632
000230 ee ec 48 3e 6c 4a 08 3e e0 38 4c 3e 78 67 28 bc
       0.19621632 0.1330964 0.19943571 -0.010278575
000240 a6 ed 30 be 84 5f a5 bd ce 5b 1a 3e 28 a7 73 bc
       -0.17278156 -0.08074859 0.15074083 -0.014871396
000250 a0 2a b4 bd bc dd 06 be f1 db 36 be 0e 4d 20 be
       -0.087971926 -0.13170522 -0.17857338 -0.15654394
000260 f7 28 23 bd 18 a5 f8 3d 1a 31 fa 3d 3e ec 30 be
       -0.03983399 0.12140864 0.12216397 -0.17277619
000270 20 87 fa 3d 4b 57 08 be a4 24 d0 bc 6b 90 6c bd
       0.12232804 -0.1331455 -0.025408097 -0.057754915
000280 01 26 97 bc 3e 76 0c bd d0 69 34 be 16 37 23 be
       -0.018450739 -0.034292452 -0.1761849 -0.15938982
000290 ce 51 6e bc 5c 31 a4 3a 2c 55 b7 bd bc 1c b6 3d
       -0.014545871 0.0012526917 -0.08951792 0.088921994
0002a0 c0 95 28 be b3 13 7c bb 19 43 3e 3e 8b e8 95 bd
       -0.16463375 -0.003846389 0.18580283 -0.07319745
0002b0 08 a6 3d 3e 51 a4 af 3d ba 07 28 be 48 a0 05 3e
       0.18520367 0.08576263 -0.16409197 0.13049424
0002c0 85 43 c0 3a 05 8a 90 bd ae 6c 35 3e f5 ac 05 be
       0.001466856 -0.07057575 0.1771724 -0.13054259
0002d0 82 8f 4a 3c 73 bc 05 bd c7 25 1e 3e eb 68 71 3d
       0.0123633165 -0.032650422 0.15444098 0.05893795
0002e0 d8 01 c9 3d 7e c1 b2 3d b2 0c 1b bd 62 7f e0 bc
       0.09814805 0.08728312 -0.037853904 -0.02740449
0002f0 1a a3 14 be 0c 0e fb 3d 5e c4 35 3e 1d 01 1a 3e
       -0.14515343 0.122585386 0.1775069 0.15039487
000300 f0 cf 17 be b3 28 e2 bb 13 e8 0c be 3f a5 d1 bd
       -0.14825416 -0.0069018244 -0.13760404 -0.10236596
000310 ee 80 e8 bd 5c 02 9c 3d 7b 57 d2 bd 0d fe 62 3c
       -0.113527164 0.076176375 -0.10270592 0.013854516
000320 0e 15 bf 3c 0c 2b df 3d 20 a3 1f be ed 67 04 be
       0.02332547 0.108968824 -0.15589571 -0.1293027
000330 ce 09 e1 bd dc ff 07 3e d6 07 56 bd bb fe 27 3e
       -0.10988198 0.13281196 -0.052253567 0.16405766
000340 f2 83 a2 3d 22 6d 0f 3d 41 10 83 bc ec eb 57 bd
       0.07935323 0.035016187 -0.015998961 -0.052715227
000350 42 dd 9b 3c 96 45 2f bd cc a4 9d bb 7f ec 0c 3d
       0.019026402 -0.04279097 -0.004810905 0.034405228
000360 23 8d 18 be a9 f3 da bd ed 37 26 3e bc ee 25 be
       -0.1489759 -0.10691006 0.16232271 -0.16204351
000370 e6 5c 32 bc d2 fd 46 3e 37 1b 94 3d 98 b5 bf 3c
       -0.0108864065 0.19432762 0.07231753 0.02340202
000380 c8 60 27 be 90 de d5 3d cf 28 17 be b8 4c 5d bd
       -0.16345513 0.10442841 -0.14761661 -0.054028243
000390 26 a9 84 bd ec e9 07 bd 6e 0f 56 bb a3 9c 24 3e
       -0.06477575 -0.03318207 -0.0032663005 0.16075377
0003a0 18 90 16 3d 9a 13 27 3e 87 2c e5 3d 5e c4 12 be
       0.036758512 0.16316071 0.111901335 -0.1433272
0003b0 92 53 95 3d e5 66 19 be 82 25 cc bd 12 ce 16 3d
       0.072913304 -0.14980657 -0.099680915 0.036817618
0003c0 fa 77 74 3d cd c2 1b 3e 05 1a 93 bd dd 76 bc 3c
       0.05968473 0.1521103 -0.07182697 0.023005897
0003d0 1e bc d0 3d cb a9 36 be 33 ba 3c 3e 40 37 0b be
       0.101921305 -0.17838208 0.18430404 -0.13595295
0003e0 da 25 0e 3d 9b a5 54 bb ad d9 a9 bd 86 2d 62 3d
       0.034704067 -0.0032447341 -0.082934715 0.055219196
0003f0 9d a2 24 3e 07 3f 9a bd 49 e5 05 be f4 61 5e bd
       0.16077657 -0.07531553 -0.13075747 -0.054292634

conv1.bias f4 [32]
000000 85 b3 45 3e 5e 36 9b bd 54 81 10 bc 02 47 c1 bd
       0.19306763 -0.07578729 -0.008819897 -0.09437372
000010 4e 60 d5 bc a5 16 73 3d 56 cc d2 3c 8b 57 5a bd
       -0.026046898 0.059347767 0.0257322 -0.053306144
000020 22 10 46 be 1e 9f 14 3c 17 de a7 bc e7 d6 18 3d
       -0.19342092 0.00907114 -0.020491643 0.03731432
000030 a0 e7 23 3e 7b be 38 3e e7 c7 fa bd f7 7b 23 bc
       0.16006327 0.18041413 -0.122451596 -0.009978286
000040 59 d2 83 bd bf da 39 be 0b 96 0d be 81 00 3e 3e
       -0.06436605 -0.18149851 -0.13826768 0.1855488
000050 97 96 da 3d c9 9b e5 3d 9a 07 e0 3d bf 70 1c be
       0.10673254 0.11211354 0.1093895 -0.15277384
000060 80 79 ab 3c 92 1e 31 3e 4d 3f ce bd 5d 5e 33 3e
       0.02093196 0.17296818 -0.100706674 0.17516465
000070 cd e5 4a 3d a5 6e 15 3e 21 0d 8a bd 9d 06 b8 3d
       0.04953556 0.14592989 -0.067407854 0.089856364

batch1.weight f4 [32]
000000 a5 d9 89 3f 45 bf 75 3f f8 e1 84 3f 15 d6 81 3f
       1.0769545 0.9599498 1.038146 1.0143458
000010 31 4e 77 3f 15 99 7b 3f ac 04 82 3f be bf 87 3f
       0.96603686 0.9828046 1.0157676 1.060539
000020 87 50 87 3f bd 3e 83 3f af ed 7c 3f ce 8e 7a 3f
       1.057145 1.0253521 0.98800176 0.9787415
000030 bc 50 77 3f 64 94 7b 3f a2 15 72 3f c0 a8 77 3f
       0.96607566 0.982733 0.9456426 0.9674187
000040 d2 e2 7b 3f 8a 75 76 3f 77 c3 73 3f f0 84 74 3f
       0.98392975 0.962731 0.9522013 0.95515347
000050 0c 8d 70 3f a4 ad 82 3f c9 30 80 3f 33 54 88 3f
       0.9396522 1.0209241 1.0014888 1.0650696
000060 75 e7 81 3f 36 3a 7f 3f 3f 36 82 3f dd 20 85 3f
       1.014876 0.996982 1.0172805 1.0400654
000070 06 dc 88 3f 3f e3 82 3f ed f0 7b 3f 69 a8 76 3f
       1.0692146 1.02256 0.984145 0.96350724

batch1.bias f4 [32]
000000 13 f4 be 3d fb 89 1f 3c 53 a8 e7 3d 54 e7 69 3c
       0.09323897 0.009737487 0.11311402 0.014276344
000010 fb d7 3c bd 0c 20 02 bd 59 07 26 bb 20 b3 91 3d
       -0.046104413 -0.031768844 -0.002533397 0.071142435
000020 28 5d fb 3c c7 28 3e 3d 01 19 fd bc 3f 61 2f 3d
       0.030684069 0.046425607 -0.030895712 0.04281735
000030 1f d7 d9 bc bb fc be 3c b6 a0 1d 3c c2 ae b0 bc
       -0.026591836 0.02331387 0.009620836 -0.021567706
000040 a6 74 49 bc 39 34 97 bd 06 c0 85 bd a5 9e c0 bc
       -0.012295878 -0.073830076 -0.06530766 -0.023513148
000050 f4 c2 51 bd 26 cf 4d 3d 4b ba 8d 3b 0a 28 0f 3e
       -0.051211312 0.05024638 0.0043251864 0.13980117
000060 e1 82 dd 3c 9d 08 8e bd a4 31 fa bc e2 5c 7d 3c
       0.027039947 -0.069352366 -0.030541249 0.0154640395
000070 93 f0 bd bb 57 2e 92 3c 1a d1 77 bb dc 74 aa bd
       -0.005796501 0.017844362 -0.0037813843 -0.083230704

conv2.weight f4 [32, 32, 3, 3]
000000 dd 3c f3 bd f8 dc 6c bc 5a 14 43 3b 90 b6 7a 3c
       -0.11876843 -0.01445698 0.002976677 0.015302315
000010 51 1c 80 3d 9d 15 4b 3d aa a7 69 3d 7b 72 35 3d
       0.06255401 0.04958116 0.057044663 0.04429863
000020 61 60 37 3d 34 2f 19 bd 9e 3d 1d bd 7c c9 8c bc
       0.04476965 -0.037398532 -0.03838884 -0.017185919
000030 bf cd 1f bd 90 8e 89 bc 16 93 04 3d 66 a9 e9 3b
       -0.039014574 -0.016791612 0.032366835 0.0071307896
000040 b9 ee a5 3c 68 45 8f bb 9c dd 3e 3d 68 17 29 3d
       0.020255433 -0.0043722875 0.046598062 0.041282088
000050 ad 31 29 bd ca 4c 87 bd fc ed 80 3d 62 35 33 3d
       -0.04130714 -0.06606443 0.06295392 0.04375208
000060 38 ed 1e 3d 6e d5 c7 bc 0c fb 77 bd a1 ac 3d 3d
       0.03880045 -0.024393763 -0.06054215 0.04630721
000070 29 63 0a 3d 77 ab 85 bd 1c cf be ba a5 6b 27 bd
       0.033785973 -0.06526845 -0.0014557573 -0.040874142
000080 ba 44 62 3d 2c f7 f4 3c 80 db 7e 3d de d4 55 bd
       0.055241324 0.029903017 0.06222105 -0.05220496
000090 1c 13 2c bd 5e 61 43 3d 1c 6c 1d 3d c5 32 91 3c
       -0.04201041 0.04770028 0.03843318 0.017724404
0000a0 6b c5 01 3d f7 cb 30 bd d9 9e 74 3c 85 d6 6a bd
       0.031682413 -0.043163266 0.01493045 -0.057333488
0000b0 04 3c 88 3b 08 88 2f bd a4 2d 16 bd c7 a2 3a 3c
       0.004157545 -0.04285434 -0.03666462 0.011391348
0000c0 e8 95 35 bd 03 bb c8 bc 55 4d 4f bd 57 58 40 bd
       -0.044332415 -0.024503237 -0.05061086 -0.046959247
0000d0 27 75 2e 3d 17 f6 d5 39 71 e7 96 bd 30 45 37 bc
       0.042592194 0.00040809877 -0.07368363 -0.011185929
0000e0 85 ea f8 bc d2 17 a9 bd d3 81 47 3d 4a c3 58 3d
       -0.030385265 -0.082564965 0.048707794 0.052920617
0000f0 1a b2 f2 3c 48 01 d3 bc ce 88 eb 3c 35 26 9c bb
       0.029625941 -0.025757447 0.028751757 -0.004765297
000100 18 b6 89 bd 61 0e 67 ba 10 22 a1 3c ef 2e c5 bd
       -0.06724185 -0.00088140933 0.019669563 -0.096280925
000110 cf 7c ad bd e0 e3 64 3b 00 20 0d 3d cc b6 42 bb
       -0.08471071 0.0034925863 0.034454346 -0.0029711006
000120 d8 11 80 bd b0 eb 7d 3c 74 20 3f 3c dd 3d 2e 3c
       -0.062534034 0.015498087 0.011665452 0.010634867
000130 e5 c9 a8 3d fa 6a 01 3d f9 fb 81 bd 7c 1f 7c bc
       0.08241633 0.03159616 -0.06346888 -0.015388366
000140 28 73 2a 3d 52 5d 50 3d 85 38 82 bd 4c 4c 20 3d
       0.041613728 0.050870247 -0.063584365 0.039135262
000150 a9 ad 42 bd da 2d 54 bd 03 8e 4c 3c 87 a9 69 bd
       -0.047528896 -0.05180154 0.01248503 -0.05704644
000160 5e 0e e0 3c 85 2b 6d bd 21 28 30 bd 7b db 11 bc
       0.0273506 -0.05790283 -0.04300702 -0.008902426
000170 e6 2f 64 bc bc e5 06 3d 1e 38 24 3c 7f ea 46 3d
       -0.0139274355 0.032933936 0.010023145 0.048563477
000180 9b bf ec bb 73 9b 80 bc ad 14 2a 3d 0d 3a 19 bc
       -0.0072249896 -0.015699124 0.041523624 -0.009352219
000190 7a f2 13 bb 44 ba 3e bc 14 bc af bc 54 0f b5 39
       -0.0022574947 -0.011641089 -0.021451987 0.0003453443
0001a0 5c 7e 3e bb a0 f9 64 bd 33 62 c6 3c 48 2e 48 bd
       -0.0029067015 -0.055902123 0.024216747 -0.048872262
0001b0 c1 f1 21 3c 0f 2e 5d 3d c1 7e a3 bc b2 6e 0f bd
       0.009884299 0.053999003 -0.019957902 -0.035017677
0001c0 15 6a 25 ba d5 e6 fd 3b ce 5b 45 3c b1 e2 b0 3c
       -0.0006310058 0.0077484646 0.012045814 0.02159247
0001d0 7e df e0 3c 6f 4b 03 bd a9 4d 26 bc 69 d2 d6 3c
       0.02745032 -0.03205436 -0.010150352 0.026223378
0001e0 08 4e 22 3d 6c f9 fa ba 3b a4 1d bd af 0e 0e bb
       0.039625198 -0.001914782 -0.0384867 -0.0021676233
0001f0 39 ee 28 3d 3e 02 af bc 0e 3c 9b bc ea 5e 31 3d
       0.04124281 -0.021363374 -0.018949535 0.043303408
000200 e2 65 f1 3b 4d b6 78 bd 8a 31 0d bd 53 f7 d0 3c
       0.0073668817 -0.06072073 -0.034471072 0.025508558
000210 50 3b 81 bc bf 45 22 3d 3f 70 3a 3d b0 37 9b bc
       -0.015775353 0.039617296 0.045517202 -0.018947452
000220 12 e0 34 bb 25 00 0d bb 2e e0 e6 bc df 77 49 3c
       -0.0027599377 -0.0021514979 -0.02818307 0.012296646
000230 83 a7 c9 bc c6 26 08 bd 57 3c 1e bd a1 2c 5e 3d
       -0.024616009 -0.033240102 -0.038631763 0.05424178
000240 85 87 49 bd 59 0b a6 3d ad 18 ae bb fb ee 5d bd
       -0.049201507 0.08107633 -0.005313 -0.054182988
000250 06 06 34 3d 84 01 d4 3b 20 1c 0c 3d 21 c0 12 3d
       0.043951057 0.0064699072 0.03420651 0.03582776
000260 a3 77 bd bd 74 29 2c 3d 44 46 f1 bb 87 00 dc bc
       -0.092513345 0.04203172 -0.0073631126 -0.02685572
000270 6a dd c7 3c 80 88 5b 3d fc df 32 bd 25 16 a9 bc
       0.02439757 0.053596973 -0.04367064 -0.020640442
000280 a4 ba 58 3d 75 8a 1b 3d 45 e8 7c 3d df 47 3d bc
       0.05291237 0.03797384 0.061744947 -0.01155278
000290 85 4f 96 bc 8e 96 16 3d 45 98 8c 3c da dc 5f 3d
       -0.018348465 0.036764674 0.017162452 0.05465398
0002a0 95 3e 2a bd bc a6 35 bd 76 9a d1 bc 29 16 31 bd
       -0.04156359 -0.044348463 -0.025586348 -0.043234024
0002b0 92 8a a2 3c 5b 12 8a 3d e6 91 1a 3c 73 b6 b6 bc
       0.019841466 0.06741782 0.009434199 -0.022303795
0002c0 a7 54 f0 3c 8b 9f 15 bd 56 bf 71 3d 7f 91 22 bd
       0.02933724 -0.036529105 0.059020363 -0.039689537
0002d0 7a 92 26 bd 25 02 6c bc d6 8e 8f 3d d6 d1 0d 3c
       -0.040667035 -0.014404808 0.07009666 0.008655986
0002e0 88 01 03 3d 4c 93 01 bd e7 a6 4f 3c 2b 4b 1f 3c
       0.031983882 -0.031634614 0.01267407 0.009722511
0002f0 50 24 0d 3d 4b 9d ff 3c 9f 51 24 3d c2 63 ad bc
       0.03445846 0.031202933 0.040116902 -0.021165732
000300 e2 94 c9 bc 74 83 8e bd cc df 0d bd 54 8b 72 3d
       -0.024607126 -0.069586664 -0.034637257 0.059214905
000310 d1 67 52 bc f8 46 3d 3d 6e 0b 81 39 cd e7 8d bc
       -0.012842135 0.04621026 0.00024613313 -0.017322445
000320 c9 5f dc 3c e3 5b 7a bd 4f b5 8b 3c 13 b7 c9 3c
       0.026901143 -0.061122786 0.017054228 0.02462343
000330 35 f3 97 bb 0d 25 b1 3b 85 0f ea 3c 9e 75 1d 3d
       -0.004637147 0.005406028 0.028571853 0.038442247
000340 06 f3 26 bd b2 a8 f8 3c 83 2b 4a bd bd 46 01 bd
       -0.04075911 0.030353878 -0.049357902 -0.031561602
000350 2f d5 52 3d 0f 76 f4 bb 52 43 1b 3c 8d e2 88 bd
       0.05147284 -0.0074603627 0.0094765 -0.06683836
000360 d6 b7 39 bd a2 6e e2 3c 3e 36 52 bd 74 c2 2f bd
       -0.045341335 0.027640644 -0.05132126 -0.042910054
000370 00 5f f2 39 07 80 6f bd 96 49 01 bd eb f6 60 bc
       0.00046228617 -0.058471706 -0.031564318 -0.013730745
000380 0a dd fd 3c 14 61 07 bd 89 6a 45 bd 44 85 0f 3d
       0.030989189 -0.033051565 -0.048197303 0.0350392
000390 12 b6 1a bd c4 49 52 3a 92 eb 0a 3c 90 33 24 bd
       -0.037771292 0.0008021856 0.008479016 -0.040088236
0003a0 79 49 13 3d 34 e1 f9 bc 22 57 99 bd d6 b3 04 3c
       0.03595874 -0.030502893 -0.074873224 0.008099517
0003b0 46 77 8e 3c 53 93 97 3d 3e ba fb 3b ac 1a d2 bb
       0.017390858 0.07401147 0.007682114 -0.006411871
0003c0 6c 57 52 bc a3 b4 24 bc 33 fc 56 3d 19 f4 a9 bd
       -0.012838226 -0.010052833 0.05248661 -0.08298511
0003d0 af c7 2f bd 57 ae 16 3d 99 b0 95 bc d0 b3 37 bc
       -0.042915042 0.036787357 -0.018272685 -0.011212304
0003e0 88 55 f2 3c a8 e8 7e bd d2 6a 75 3c ec b8 58 bd
       0.0295818 -0.062233597 0.014979081 -0.05291073
0003f0 f1 fb 59 bc db 7d 81 bc 8a de fc 3c d7 4d 89 bd
       -0.013304696 -0.015807083 0.030867834 -0.067043

conv2.bias f4 [32]
000000 39 b1 0d bd d5 f3 49 3d 79 fb ad 3c 95 3f 63 bd
       -0.03459284 0.049304802 0.021238076 -0.05548056
000010 e0 79 89 bb 44 81 20 bd 2f 41 3b bd a0 7a f1 bc
       -0.004195437 -0.039185777 -0.04571646 -0.029477417
000020 30 51 7a 3d 02 01 37 bd 90 67 12 3d 59 7e 5c bd
       0.061112583 -0.044678695 0.035743296 -0.053831432
000030 cd c7 ff ba 26 5b 3a 3d 3f 53 22 bc b9 39 df bc
       -0.0019514501 0.045497082 -0.009907543 -0.027249204
000040 e6 05 d2 bc b5 15 1d bd 4f 7f 4c 3c ac df 3e bd
       -0.025637578 -0.03835078 0.012481525 -0.04660003
000050 7b 0b 17 bd 3f 35 62 3d 31 ab 2f 3d 44 d5 be bc
       -0.036876183 0.05522656 0.04288787 -0.023295052
000060 72 aa 54 bb c4 a5 2d bc eb 95 40 3d bc 10 60 bd
       -0.0032450226 -0.010598604 0.047017973 -0.05470346
000070 da 3e 4d bd b1 1c 08 3d 17 48 68 3b d7 eb ab bc
       -0.050108768 0.033230487 0.003544336 -0.02098648

batch2.weight f4 [32]
000000 1a 06 87 3f f0 79 7e 3f 4d 31 86 3f 53 75 7d 3f
       1.0548737 0.9940481 1.0483795 0.9900715
000010 bc 3b 7d 3f 95 a2 78 3f 69 17 82 3f fb fc 72 3f
       0.9891927 0.9712308 1.0163394 0.9491727
000020 51 9e 88 3f 41 bb 88 3f e8 31 84 3f ec 8e 88 3f
       1.0673314 1.0682145 1.032773 1.0668616
000030 fe a2 7c 3f 47 1a 81 3f 84 bc 72 3f 8d 6d 7e 3f
       0.98686206 1.0086144 0.948189 0.9938591
000040 fa d6 81 3f e7 40 78 3f 6a a4 82 3f ad 06 83 3f
       1.0143731 0.96974033 1.0206425 1.0236412
000050 7a 9d 7e 3f d4 2a 80 3f 1e 4a 80 3f c6 93 7a 3f
       0.9945904 1.001307 1.0022619 0.97881734
000060 96 93 80 3f e6 df 7f 3f 3f 09 74 3f 08 f3 80 3f
       1.004504 0.99951017 0.9532661 1.0074167
000070 10 50 85 3f cb 48 82 3f 8a ca 83 3f ab f6 80 3f
       1.0415058 1.0178465 1.0296185 1.0075277

batch2.bias f4 [32]
000000 f0 03 99 3b 6b ea 0b bd 82 c4 d6 3c 96 86 33 bd
       0.004669659 -0.034159105 0.02621675 -0.043829523
000010 2d ac 57 bd f8 16 8e bc 54 07 47 3d 96 ac 58 bd
       -0.052654434 -0.017344937 0.048590973 -0.052898966
000020 94 1a 94 bb d7 63 27 3d 60 e5 59 bb 01 da 13 3d
       -0.00451977 0.0408667 -0.003324829 0.036096577
000030 c9 c6 98 ba 44 ce 22 bc 6c 2e 33 bd be 1f 0b 3d
       -0.0011655922 -0.009936873 -0.043745443 0.03396582
000040 38 b8 07 3d bd df 3d bd 16 f9 df 39 6a 2b 87 3c
       0.03313467 -0.04635595 0.00042719458 0.016500194
000050 45 73 b8 bb 9d 42 1f bd 18 2c fb 3c 19 7d 6c bd
       -0.0056289756 -0.038881887 0.030660674 -0.05773649
000060 88 a3 42 3d 28 1e ec 3c 76 3b 66 bc d0 87 a9 bc
       0.047519237 0.028822973 -0.0140522625 -0.020694643
000070 de 7b 3c bb 0d 42 14 3d cb 54 8b bc f2 ee 76 3c
       -0.0028760354 0.036195803 -0.017008206 0.015071617

conv3.weight f4 [32, 32, 3, 3]
000000 cc 32 69 3d f2 a4 42 3d 1a 4c 56 bd 38 7d 0c 3d
       0.05693321 0.047520585 -0.05231867 0.034299105
000010 92 26 ad 3c 5c a9 f5 bc d3 55 a8 bd 67 4c 40 3c
       0.021136556 -0.029987983 -0.08219495 0.011736966
000020 22 30 03 3d d1 28 9b bc 90 e3 80 bd f3 a4 12 3c
       0.032028325 -0.018940361 -0.06293404 0.00895046
000030 5d ba 4c bd d9 c8 28 bd ae 39 2a 3d 65 c7 77 3b
       -0.049982417 -0.04120717 0.041558914 0.0037808057
000040 09 f5 d5 3c 73 ca 26 3d e3 a7 ed 3c 79 62 32 3d
       0.026117818 0.040720414 0.029010719 0.043550942
000050 9a 07 15 3d 66 fc 36 3d 4c 94 fd bc 21 ff 40 3d
       0.036384203 0.0446743 -0.030954503 0.04711831
000060 c2 84 1a bd 4e 34 f9 3c 8a 01 e4 bc 5b a8 1f bd
       -0.037724264 0.030420449 -0.027832765 -0.038978916
000070 c1 18 83 3d ad 70 91 bd 5f f4 1b 3c cc 17 32 3d
       0.06401206 -0.07101569 0.009518712 0.043479726
000080 78 76 93 bb 08 a9 43 bd 19 d3 aa bd 12 0f 39 bd
       -0.0045002066 -0.047768623 -0.08341045 -0.045180388
000090 4a d8 ef bc 85 6f 88 3c c0 0b 72 bb 90 28 53 3c
       -0.02927794 0.01665474 -0.0036933273 0.012888089
0000a0 8f b6 1a bb 89 e4 2b 3d 18 c9 04 3d aa 3d 84 3c
       -0.0023607349 0.041965995 0.03241834 0.016142685
0000b0 8f 3f d0 3c 22 bf 49 3d 25 aa 16 3d e3 d9 8b 39
       0.025420932 0.049254544 0.036783356 0.00026674484
0000c0 e1 57 a6 3c 7e 7f 48 3d bc 07 50 3d 4c 21 8b bc
       0.020305576 0.04894971 0.050788626 -0.01698365
0000d0 1f 8b 5b bd c2 8f 25 3c 25 0a 9b bc 0d 11 8a bc
       -0.053599473 0.010105075 -0.018925736 -0.016853834
0000e0 b3 a2 e6 bc a9 3e 34 bb ba 94 80 bc 4c 05 23 3d
       -0.028153753 -0.0027503169 -0.015695918 0.039799973
0000f0 8a 60 b2 ba e2 84 f6 38 ab a3 0b 3d e3 8c 5d 3c
       -0.0013609093 0.000117549454 0.034091633 0.01352236
000100 a2 29 29 3c b5 b1 1a bd fa 74 ef bc 11 2c bc 3c
       0.010324867 -0.03776713 -0.029230583 0.022970231
000110 22 f0 ee 3c 67 61 b7 bd 51 83 8f bd 53 04 04 3d
       0.029167239 -0.08954125 -0.070074685 0.032230686
000120 6b 14 35 bd c6 45 8b bd a2 80 60 bd 17 26 81 bd
       -0.044208925 -0.068004176 -0.054810174 -0.06306093
000130 75 7f 11 bd 67 82 94 3d 17 44 31 bd 4c c3 8b 3d
       -0.035521943 0.07251435 -0.043277826 0.06824359
000140 c4 6e 50 bd f9 b6 9a 3c d9 f3 82 bd 60 57 90 3d
       -0.050886884 0.018886076 -0.063941665 0.070479155
000150 f7 e4 68 bd c7 90 52 bd 5b c7 9a bc 2c 8a 85 bc
       -0.056858983 -0.0514076 -0.018893888 -0.016301237
000160 b3 88 82 3c f8 55 7b 3d 50 6d a0 3d 76 46 25 bc
       0.015934324 0.061361283 0.0783335 -0.0100876
000170 09 46 eb bc a6 47 08 3b 4d e7 cd 3c 2c 53 51 3d
       -0.028719919 0.002079466 0.025134707 0.05110471
000180 30 d1 03 3d dc a6 15 bd a8 ea 6c bd 66 5e 65 bc
       0.03218192 -0.036536083 -0.057840973 -0.013999557
000190 f4 6c 3b 3d 14 57 ae bd c5 53 60 bc b2 30 eb bc
       0.045758203 -0.085127026 -0.013691847 -0.028709743
0001a0 0a 28 81 bc ea fb 37 3d 5a 4e a1 3b f4 71 23 3c
       -0.015766162 0.04491798 0.0049226703 0.009975899
0001b0 91 fd 42 3d af b3 b9 3c fb 3d 02 bb 8e 2c fb bc
       0.0476051 0.022668688 -0.001987337 -0.030660894
0001c0 af ec 0e bd c0 ad 11 bd c1 2e 64 3d 87 57 02 bd
       -0.034893688 -0.03556609 0.05570865 -0.031821754
0001d0 7d e0 0a bd 0d 8a 43 bc 20 a3 3a bd 6a bb cc bc
       -0.033905495 -0.011934769 -0.045565724 -0.02499171
0001e0 cd 9f d8 3c 2e 95 38 bd 6e 71 d5 bc b7 17 8d bc
       0.026443386 -0.045064144 -0.026055064 -0.017223222
0001f0 ca 28 dc 3c e7 3c 02 bc cb 13 46 bd 53 a7 6c bc
       0.026874918 -0.007949091 -0.04835872 -0.01444419
000200 89 03 ae bc 8e 43 d0 3c e0 99 50 3c c6 d2 9b bc
       -0.02124192 0.025422838 0.012731999 -0.019021403
000210 2d 37 22 3d c1 c4 87 bb ad 76 0b 3d cb b8 6d bc
       0.0396034 -0.004143328 0.034048725 -0.01450939
000220 91 74 1b bd 95 c7 c1 bc a1 0f 17 3c 04 44 66 3b
       -0.037952963 -0.023654738 0.009220035 0.0035135755
000230 e7 9d 47 3d dd ea 15 3d a0 26 59 bc ba 7b 80 bd
       0.04873457 0.036600936 -0.013253838 -0.06273599
000240 0c f0 e0 bc 69 b4 36 3d e8 09 06 bd 5a 33 1c bd
       -0.027458213 0.044605646 -0.03272429 -0.03813491
000250 59 7a 94 bc f0 1b fb 3b a5 d9 73 3c 58 0a ad bc
       -0.018124746 0.0076632425 0.0148834335 -0.021123096
000260 4b 1d 05 3d 2f b4 c4 bc 75 74 94 bc ca 5f 97 bc
       0.03249864 -0.0240117 -0.018121937 -0.018478293
000270 18 63 2b 3d a9 45 f1 3c d6 1b 86 bd a3 58 fc 3c
       0.04184255 0.029452162 -0.06548278 0.030803984
000280 df cf 04 bd 1d 4b 98 3d e3 fe 60 3c 69 27 06 3d
       -0.032424804 0.07436202 0.013732645 0.03275243
000290 5f a6 84 3c 10 fa 3f 3d 2d d3 e5 bc f8 53 84 3d
       0.016192613 0.046869338 -0.028054798 0.06461328
0002a0 b6 5d 95 3d 8f 62 87 bc 24 ce 51 3c e2 be 93 3c
       0.072932646 -0.016526489 0.012805495 0.018035356
0002b0 fe 8c 85 bd 88 33 2e bd ae b0 ec bc 0d f3 d8 3a
       -0.06521033 -0.042529613 -0.028892841 0.0016551927
0002c0 92 98 5d bc 1a 9b 8b bc cc 49 8e bd eb 0d 8a bd
       -0.013525145 -0.017041732 -0.069476694 -0.06740936
0002d0 d5 90 3b bd 9d f2 18 3d d8 aa 06 bc bc 9e ef 3c
       -0.04579242 0.03734075 -0.008219443 0.029250495
0002e0 8e 6f f6 3b d7 4c 20 bd 66 7c dc 3b 7f 6e 53 bd
       0.0075206226 -0.03913578 0.0067286966 -0.05161905
0002f0 4c 79 19 3a bc f1 52 3c 0e 60 0b 3d 8b c2 1a 3c
       0.00058545615 0.012875017 0.03402715 0.009445797
000300 dc a8 de 3c 74 6f e6 3c 6a cf 93 3d 6d 02 64 3c
       0.027180128 0.028129317 0.072172955 0.013916594
000310 6b 74 6c 3d b9 fb 0b bd ee b2 65 39 80 29 16 3c
       0.057728212 -0.03417561 0.00021905798 0.009165168
000320 c3 1d f4 3c df 3a 51 bd 54 3b 14 3d b3 66 85 bd
       0.029799348 -0.051081534 0.036189392 -0.06513729
000330 db bd 81 bc ba 7b 23 bd 8d 11 09 bd 35 92 f4 bc
       -0.0158376 -0.039912917 -0.033464003 -0.029854873
000340 88 62 3a bd 7c 39 92 bc 4b 2d 2d bc 9f 48 7f 3c
       -0.045504123 -0.017849676 -0.010569881 0.015581279
000350 32 84 2a bd 63 7f 56 bd 49 c8 19 bd 9d 43 52 bd
       -0.041629978 -0.05236758 -0.037544522 -0.051334012
000360 be 18 8a 3c 8e 2f 96 3d 27 39 26 bd 76 41 01 3d
       0.016857501 0.07333289 -0.04058185 0.03155657
000370 4d 69 d2 3c 6b a5 69 3d 54 be 27 bd 2f 49 fd bc
       0.025684977 0.05704252 -0.040952995 -0.030918686
000380 5b 18 60 3d dc d3 01 bd 96 e1 76 3d 17 b4 6c 3c
       0.054710727 -0.031696185 0.06027373 0.014447234
000390 3a ce f3 bc c3 1b 23 bd 11 12 c0 3b 03 53 7a 3b
       -0.029761422 -0.039821398 0.0058615287 0.0038196451
0003a0 ee e9 4e bd c4 8b c4 ba a7 82 e2 3c 10 5a 1f 3d
       -0.05051606 -0.0014995267 0.02765019 0.03890425
0003b0 5a d9 7e bd 62 d2 1a bc c3 30 ea 3b e6 ba 3b 3d
       -0.062219 -0.009449573 0.007146926 0.045832537
0003c0 cd d9 c5 3c 5b 76 6a 3c e0 f9 01 bc df 90 a9 bc
       0.024151707 0.014310445 -0.00793311 -0.020698963
0003d0 03 43 95 bd 5a 05 60 bb 11 eb 36 bc 77 01 36 bc
       -0.07288172 -0.0034182877 -0.011164443 -0.011108748
0003e0 65 c9 64 3d f0 ce 14 bd 12 c8 2a 3d 74 f6 e9 3c
       0.055856127 -0.036330163 0.04169471 0.0285599
0003f0 89 96 fd 3c e6 19 db 3c 0c 2e 3b bc 34 3a 16 3d
       0.03095557 0.026745748 -0.011424553 0.0366766

conv3.bias f4 [32]
000000 85 1f c6 3c 9c fe a9 3c f4 0d 6f bc 85 85 40 bd
       0.024184952 0.02075129 -0.014590729 -0.047002334
000010 8f 49 e2 bc 8c 58 a3 3c a2 c6 b9 bc e2 cf c1 3c
       -0.027622966 0.019939683 -0.022677723 0.023658697
000020 7c 22 fe bc 77 2b 2c bd d2 3f 2f 3d 01 bf 22 bd
       -0.031022303 -0.04203364 0.042785473 -0.039732937
000030 d8 c5 90 3c c0 d4 4f 3d cd 35 bd 3a ee 3e 10 3d
       0.017672464 0.050740004 0.001443559 0.035216264
000040 fc 39 98 bc 01 2a 43 bd 75 a1 dc bc 49 a4 97 bc
       -0.018582337 -0.04764748 -0.026932457 -0.018510954
000050 91 1f 0d bd aa 65 fb bc ee de e3 3c 41 4b 5c 3d
       -0.034453932 -0.030688126 0.027816262 0.053782705
000060 10 67 02 3d 60 e1 bf 3c 65 1a 4c bd c0 e5 1b bc
       0.03183657 0.023422897 -0.04982986 -0.009515226
000070 15 09 c5 3c b5 ac 61 3d 4e 38 e8 bc 66 9f 06 3d
       0.024052182 0.055096347 -0.02834716 0.032866858

batch3.weight f4 [32]
000000 17 78 7c 3f ee 56 7c 3f 46 bc 82 3f 20 20 73 3f
       0.9862074 0.98570144 1.0213706 0.94970894
000010 5b 01 7d 3f 60 a1 82 3f db 60 7e 3f 9d c4 81 3f
       0.98830193 1.0205498 0.9936654 1.0138127
000020 69 39 7f 3f 0f 22 80 3f 9b f9 77 3f 48 50 7e 3f
       0.99696976 1.0010394 0.9686524 0.9934125
000030 37 93 82 3f 42 23 85 3f c1 d4 72 3f 3c 9a 83 3f
       1.0201176 1.0401385 0.94855887 1.0281444
000040 60 d9 7a 3f ea 90 80 3f cc a7 83 3f e5 c4 7c 3f
       0.9798794 1.0044224 1.0285583 0.9873794
000050 ef c1 80 3f 4a be 80 3f ba 3b 74 3f 0f 68 83 3f
       1.0059184 1.0058072 0.95403636 1.0266131
000060 e4 ca 86 3f a4 b8 81 3f 97 53 7a 3f 86 e8 76 3f
       1.0530667 1.0134473 0.977838 0.9644855
000070 13 ce 82 3f 8d fa 7d 3f 9b c6 85 3f ca 3c 7a 3f
       1.0219139 0.99210435 1.0451235 0.97749007

batch3.bias f4 [32]
000000 ad dc 24 bc 0d 5e 11 3c 52 31 71 bb 89 e4 ba bc
       -0.010062379 0.008872521 -0.003680308 -0.022814052
000010 ae 5e 1e bc 68 c8 08 3d 34 79 92 bc 56 09 20 3d
       -0.009666128 0.033394247 -0.01788006 0.039071403
000020 ef b2 1f bd 05 ae 2e 3c d3 2b 70 bd d4 c2 54 3c
       -0.038989004 0.010661607 -0.058635544 0.012985904
000030 94 a2 de bc ee fc f6 bb 3d 00 8c bc 67 b3 05 bc
       -0.027177133 -0.007537476 -0.017089957 -0.008160449
000040 dd 88 18 bd 03 b6 03 bd a6 ee 47 bd d8 ba 92 bd
       -0.037239898 -0.032156 -0.048811577 -0.07164544
000050 fd dd 38 bd 21 59 a2 bc 23 97 2b bb 8f f1 7b bc
       -0.04513358 -0.01981789 -0.0026182614 -0.015377416
000060 00 f8 be 3c 73 0b fa bc e7 cb 6a bd 2d 90 f9 bc
       0.023311615 -0.030523038 -0.057323363 -0.030464256
000070 35 1d df ba c6 ea e6 bc 86 63 30 3d 54 8c a2 bc
       -0.0017022254 -0.02818812 0.043063663 -0.019842304

conv4.weight f4 [32, 32, 3, 3]
000000 14 1d a2 bc 90 bd 59 bd 0c 52 16 bd bd c0 c2 b8
       -0.019789256 -0.053159297 -0.03669934 -9.286541e-05
000010 6e 46 0f 3c ab f9 3a bd 12 b3 10 3c e9 17 cb bc
       0.008744819 -0.04564826 0.008831756 -0.024791675
000020 69 b0 0c bd c9 40 ef bb 6b 06 ce 3b 20 70 3a 3b
       -0.034347925 -0.007301424 0.006287386 0.002844818
000030 7b 2a 2a bd 8d cd 67 bd 07 e4 ad bb 8f 77 c2 3c
       -0.04154442 -0.056592513 -0.005306724 0.02373865
000040 2f 41 d8 3c 2f f9 20 3d 21 c1 5d 3d 7e cb 33 3c
       0.02639827 0.03930014 0.05413926 0.010973809
000050 cc b9 06 3d 50 1b 3f 3a 01 72 c6 bb 79 03 6c 3d
       0.032892033 0.00072901417 -0.006056071 0.0576205
000060 8b 18 84 3a 96 3b 56 3c 76 bd 9f bc 45 0a 82 3d
       0.0010078115 0.01307573 -0.019499522 0.06349615
000070 c3 98 74 bc f6 a1 fb 3c 9d db 7f 3c 5f 60 fb 3c
       -0.014928999 0.030716877 0.015616325 0.030685602
000080 75 0b 97 3d ef d5 2d 3c 56 7a 96 3c d7 4c b8 bb
       0.07375232 0.010610088 0.018368881 -0.0056243944
000090 d1 bc 0e 3d fd 52 6c 3c 86 7d 9c bc 82 c6 e2 ba
       0.034848038 0.014424083 -0.019102823 -0.0017301592
0000a0 64 c9 f2 3c 07 45 bd 3c d6 f5 ec 3c ec d0 03 bd
       0.029637046 0.023104204 0.028925817 -0.032181665
0000b0 ce de d4 bb 76 e1 83 bd 25 19 30 bd 7a a1 0d bd
       -0.006496287 -0.06439488 -0.04299273 -0.034577824
0000c0 b3 0b 9b bc 01 da 02 bd f9 b6 4f bd f3 b7 d1 bc
       -0.018926477 -0.031946186 -0.050711606 -0.02560041
0000d0 57 fa 16 bd a3 fa 99 bd a4 c1 f5 3b 77 23 f9 bc
       -0.036859836 -0.07518508 0.0074998904 -0.030412419
0000e0 9a 54 a3 ba bf 1e 0c 3a 20 43 41 bd 55 ce 61 bc
       -0.0012461126 0.00053451577 -0.047183156 -0.013782104
0000f0 e0 0c 84 bd 45 f2 ae 3c 58 5e 4a bd c5 03 b3 bc
       -0.06447768 0.021355757 -0.04940638 -0.021852383
000100 cb b4 8e bc b7 91 08 bd 9c 65 c6 bb 54 a1 18 bd
       -0.017420193 -0.03334209 -0.0060545933 -0.03726323
000110 b3 7a b6 bc 2e 30 03 bd 02 ae 77 3c 33 ce 4e bd
       -0.022275304 -0.03202837 0.01511717 -0.050489616
000120 8c 77 8c 3d 30 86 ac 3d f0 69 f9 3c c5 40 37 3d
       0.06858739 0.08424032 0.030446023 0.044739503
000130 60 6b ca 3c 31 a8 2e 3d bb 03 9f 3d 60 b9 11 3c
       0.024709404 0.04264087 0.077643834 0.0088942945
000140 3b 2c c3 3d c1 2a a6 bc 25 e7 93 3d 16 c2 c1 3c
       0.09529921 -0.020284059 0.07221822 0.023652118
000150 02 99 72 bb be 76 8d bc 3e 24 97 3c 9d e8 4c bc
       -0.003701747 -0.017268535 0.018449899 -0.012506631
000160 57 bc 95 bb e6 1d 39 3d 27 cd a5 3d ce 75 87 bc
       -0.004569571 0.04519453 0.0809577 -0.016535666
000170 ee 3b 94 3d 58 c3 b0 3c c4 c6 9c 3c b7 1b 1a 3c
       0.07237993 0.021577522 0.019137748 0.009406022
000180 f5 98 76 3c a8 d8 58 3d 68 34 96 3d b8 3c 4a bc
       0.015051116 0.052940995 0.073342144 -0.012343578
000190 9c 7a 9c 3c 4c 97 63 3c ec ef 4e 3c 29 18 91 bc
       0.019101433 0.013891052 0.012630444 -0.017711716
0001a0 f8 cd 1c bb 80 49 9a bc 9b 87 d0 3c 0d 1e 46 bc
       -0.0023926478 -0.018833876 0.025455287 -0.012092126
0001b0 23 0a 29 3c 5b e8 4e bc d6 67 45 3d 74 4d 45 3c
       0.010317358 -0.01262864 0.04819473 0.012042392
0001c0 b2 f5 82 3a 93 a6 ee bc b3 c7 68 3b de c9 87 3b
       0.0009991436 -0.029132163 0.003551942 0.0041439375
0001d0 f7 b0 13 3d a1 b7 a5 3c 86 2d 28 3d 85 35 17 bd
       0.03605744 0.020229163 0.04105904 -0.036916275
0001e0 a3 0d 4f 3c a0 26 21 bd e5 79 19 bd 61 36 21 3d
       0.012637529 -0.039343476 -0.037469763 0.0393585
0001f0 50 4a da bb 7f b2 7f 3b 77 df 71 3d c7 39 58 3d
       -0.006661691 0.0039016304 0.059051003 0.052789476
000200 cd b4 2f 3d 58 3c d7 bc ed d6 5f bc 83 41 77 bb
       0.042897034 -0.026273891 -0.013662082 -0.0037728257
000210 0f 4f e8 3c 4f 3e 31 bd 5c a6 f4 bb 29 dd 89 bd
       0.02835801 -0.043272313 -0.0074661206 -0.06731636
000220 23 e5 08 bd d2 bb d8 3b c2 a3 cb 3b 51 fd a6 bc
       -0.033421647 0.006614187 0.00621459 -0.020384463
000230 8e e5 76 3b c3 d8 84 bd 42 6a 42 bd cb 24 61 3c
       0.0037673446 -0.064866565 -0.047464617 0.013741682
000240 48 9b 00 bd aa 3b 92 bd b3 18 02 bd 11 58 80 bd
       -0.031398088 -0.07140286 -0.031761836 -0.06266797
000250 30 81 0d bd c1 b9 76 bb 51 a0 cf bc 97 17 96 bb
       -0.03454703 -0.003764734 -0.025345 -0.004580449
000260 05 8d e6 bb d0 37 af bd c8 65 39 bd bd 36 0f bd
       -0.007035854 -0.08555567 -0.04526308 -0.034964312
000270 77 cf 8e bb c8 c9 40 bd 29 48 0e bd f0 09 6a bd
       -0.004358228 -0.047067434 -0.034736786 -0.057138383
000280 3d bd 1c bd 60 97 d7 bc a1 1f 63 3d c0 1a c1 bb
       -0.03826641 -0.026317298 0.055450086 -0.0058930814
000290 46 a2 c5 3c 76 8e c9 bb fb 93 a5 ba 45 fe 3b bc
       0.02412523 -0.006151016 -0.0012632603 -0.011474197
0002a0 66 59 72 3b b4 d7 96 bc be f2 8c 3b 1b da 15 bd
       0.0036979555 -0.018413402 0.004301398 -0.036584955
0002b0 f0 25 7d bd 1a 0c 0f 3c e2 42 9f bd 4f be da ba
       -0.06180376 0.008730913 -0.07776429 -0.0016688796
0002c0 92 c5 63 bd 21 cb 55 bd ee e4 60 bc 7e 4b fc bb
       -0.05560834 -0.052195672 -0.013726456 -0.007699429
0002d0 af 66 9f 3d 41 e9 e9 3b 9d 56 42 3d d7 34 b2 3d
       0.07783257 0.0071384017 0.047445882 0.08701485
0002e0 f3 2a 90 bc 45 94 8f 3c ca 64 4e 3d 4d 07 4d 3c
       -0.017598605 0.017526755 0.05038909 0.012513948
0002f0 6b 9f 30 3b 94 79 24 3a 51 a6 c8 3c b7 05 88 3d
       0.002695049 0.000627422 0.024493368 0.06641715
000300 35 55 cf 3c 88 2b 23 3b 94 5f 6f 3c 4f d5 e6 bc
       0.025309185 0.0024897773 0.01461019 -0.028177885
000310 23 16 23 3d f7 15 f9 3b ba ae 64 3a 57 90 3c bd
       0.039816033 0.0076014954 0.0008723546 -0.04603609
000320 84 8b 36 bc 7a 27 85 bc 0b fd b7 3c 2d 9f 15 bb
       -0.011141662 -0.016254175 0.022459527 -0.0022830472
000330 a2 41 d0 3b ab eb ad bd 10 2e 0e bc 50 86 72 bd
       0.0063554803 -0.08492216 -0.008677974 -0.05921012
000340 17 e9 62 bd a9 31 c5 bc 18 2b 1a bd 8b 94 cc bb
       -0.055398073 -0.024071531 -0.037638754 -0.0062432936
000350 e1 e2 0c 3b b5 14 7c 3b f3 60 f5 bc 7a e9 90 3c
       0.0021497535 0.003846449 -0.029953456 0.017689455
000360 1f b7 0f bd f5 42 f5 3c cb e2 9c bc 39 a1 a9 bc
       -0.035086747 0.029939154 -0.019151112 -0.02070676
000370 33 f7 e6 bc ac 2d 9b bc 6c 45 06 3d 56 2e 5a bc
       -0.028194046 -0.018942676 0.03278105 -0.013316711
000380 31 f1 48 3d 6b 14 80 bd 39 f4 41 bd ab ce 6d bb
       0.049058143 -0.062538944 -0.04735205 -0.0036286514
000390 2d b3 6c bc 84 f9 b7 bb 4d 60 d6 bc 13 4d 6b 39
       -0.014447016 -0.0056144614 -0.026168967 0.00022440059
0003a0 3e e0 70 bd a6 63 de bc 03 5b 2a bd 40 0c 20 bd
       -0.058807604 -0.027147125 -0.0415907 -0.039074183
0003b0 34 2f ca bc f7 52 bd bc 7b 67 a9 3c fe 6a 36 bc
       -0.024680711 -0.02311085 0.020679226 -0.011133907
0003c0 28 8a 01 bc 42 52 b3 bc 9a a8 a1 bc e8 b1 5a 3d
       -0.007906474 -0.02188981 -0.019733716 0.05339232
0003d0 ce 5d e3 3a 1f a5 32 3d 28 e2 62 3b 5e ef 1a 3d
       0.0017346682 0.043614503 0.0034619663 0.037825935
0003e0 53 60 24 bc 13 38 79 3d 44 1d 15 3d 87 fa a4 3c
       -0.010032731 0.060844492 0.036404863 0.020138992
0003f0 0c 3c bb bc 15 7b 19 3c c7 70 65 bc 70 93 a9 3c
       -0.022855781 0.009367724 -0.014003939 0.020700186

conv4.bias f4 [32]
000000 d7 83 c6 bc 6f de bf ba f5 74 12 3b f9 5f 43 39
       -0.024232788 -0.0014638434 0.0022347544 0.00018632402
000010 ae 61 ea 3c 4f 4c 27 bc 75 f1 98 3c 55 7d 25 bd
       0.02861103 -0.0102110645 0.018669823 -0.04040273
000020 08 2c de bc cd dc 30 bb 99 f5 4a 3d 64 99 25 3d
       -0.027120605 -0.0026987076 0.049550626 0.040429488
000030 8c cb 1d 3d 5f 19 d2 3c f8 21 f8 bc 0b 95 a5 bc
       0.038524196 0.025646864 -0.030289635 -0.02021267
000040 3b 80 d8 bc 34 0d 1f bc d2 2c 76 3c 29 49 08 3d
       -0.026428333 -0.009707738 0.015025334 0.033272896
000050 3f 4c 07 3c 6b 29 94 bc c1 da 30 bd 11 2e 28 bd
       0.008257925 -0.018086156 -0.04317737 -0.041059557
000060 83 82 b7 3c ab 5a b8 bc 8e 5e 54 bd 7c b3 79 3c
       0.0224011 -0.022504171 -0.051847987 0.015240546
000070 98 f5 2a 3d 48 51 1e bd 18 03 db bb 5b 43 51 bb
       0.041738123 -0.038651735 -0.0066837184 -0.0031931016

batch4.weight f4 [32]
000000 99 87 8b 3f bd 51 74 3f 24 86 87 3f 65 0d 60 3f
       1.0900756 0.9543722 1.0587811 0.8752044
000010 20 b9 8e 3f 26 c5 78 3f 4b 25 74 3f 7b c1 5f 3f
       1.1150246 0.97175825 0.95369405 0.874046
000020 eb 52 89 3f 4f dd 84 3f 20 63 56 3f 82 47 81 3f
       1.072843 1.0380038 0.83745 1.0099947
000030 d7 86 81 3f 54 2a 5d 3f 0d 8e 5a 3f d1 c9 82 3f
       1.0119275 0.8639271 0.85373 1.021784
000040 37 79 6d 3f 97 35 84 3f 48 8c 79 3f 32 23 92 3f
       0.92763084 1.0328854 0.9747968 1.1416991
000050 ef 6b 70 3f d2 8f 82 3f 11 fe 7f 3f 9b 4d 4b 3f
       0.93914694 1.020014 0.9999705 0.7941529
000060 6a b1 94 3f 14 31 8d 3f d8 08 81 3f 7f 35 97 3f
       1.1616642 1.1030602 1.0080824 1.1813201
000070 80 2e 7c 3f 38 3d 87 3f 5b a2 8a 3f e0 47 85 3f
       0.98508453 1.0565557 1.0830797 1.041256

batch4.bias f4 [32]
000000 47 1c 19 bb a9 85 e7 bd be dc 48 bd 80 9f 24 be
       -0.0023362802 -0.113047905 -0.04903864 -0.1607647
000010 67 a7 17 bc ea ec d6 bd 14 45 e1 bd 1f 7f 03 be
       -0.00925622 -0.104944065 -0.10999504 -0.12841462
000020 2f 42 cc bd ae d0 fc bd ff 6c 4e be bd a1 e8 bd
       -0.09973561 -0.1234449 -0.20158766 -0.11358974
000030 ef 41 7b bd f4 e7 e6 bd be de 3e be a6 8e 83 bd
       -0.061342176 -0.1127471 -0.18639657 -0.064236924
000040 b3 3e 05 be e9 e1 97 bd 45 fa e1 bd ad 04 9c 3d
       -0.13012199 -0.07416136 -0.11034063 0.07618079
000050 2f 94 dc bd eb f1 ad bd e7 20 52 be 13 98 52 be
       -0.10770451 -0.08493408 -0.20520364 -0.20565824
000060 b8 27 74 3d 38 90 54 3d 6a af b5 bd 97 78 29 3d
       0.05960819 0.05189535 -0.08871348 0.04137477
000070 38 25 c5 bd 8f fd 7a bd cf 8f 3e 3d 72 9d 87 bd
       -0.096262395 -0.06127697 0.046523865 -0.06621827

lin1.weight f4 [5, 800]
000000 75 dc af 39 29 a3 02 3c df 2c 0a bc 26 e3 b8 b9
       0.00033542854 0.007973471 -0.00843355 -0.00035264454
000010 61 04 a9 bb 4d 2c 4c bc e9 77 7a bc ab 3a b8 bb
       -0.0051579927 -0.012461734 -0.015287378 -0.005622228
000020 bd 7e e3 3b 25 0d 42 bc 96 85 7a bc 81 11 2c bc
       0.0069425986 -0.011843954 -0.015290638 -0.01050222
000030 9a b4 25 3c 47 e7 35 3b 24 6b 64 bc ad bb 85 bb
       0.01011386 0.002775626 -0.01394156 -0.0040812106
000040 2e 1d 16 39 06 e2 95 bb 25 e3 75 bc 54 d0 2e 3b
       0.00014315985 -0.0045740632 -0.015007769 0.0026674466
000050 3b 48 3d 3b 37 5b 19 3c 86 41 f8 bb 45 5b 23 3c
       0.0028882164 0.009360126 -0.0075761704 0.009970491
000060 14 1d d9 3b 82 05 1f bc e9 f0 37 bc 92 ef 1a 3c
       0.006625781 -0.009705903 -0.011226871 0.009456532
000070 d6 83 b2 3a 3f 18 4e 3c 18 8e ac b8 4b 3c 9d 3b
       0.0013619612 0.012579023 -8.228066e-05 0.0047984472
000080 f4 0a d3 3b b5 c9 b3 bb f1 9c 48 3c 3f 11 d2 3b
       0.0064405147 -0.005486692 0.012244449 0.0064107473
000090 82 30 d4 bb f2 47 e1 bb 22 8c b4 3c 86 88 3f 3c
       -0.006475509 -0.0068750316 0.022039477 0.011690265
0000a0 6a e4 49 bc 4a b9 07 bb ce 02 8c bb de ca 99 bc
       -0.012322525 -0.0020709806 -0.0042727953 -0.018773492
0000b0 34 06 53 bb 74 05 62 ba de 6c 18 3c 92 f3 86 3b
       -0.0032199742 -0.00086220284 0.0093033 0.0041183913
0000c0 2e 23 44 bb c6 15 31 3b f4 62 94 bc 0c 0e 72 bc
       -0.0029928195 0.0027021035 -0.01811359 -0.014773857
0000d0 f7 fb 6b 3b 81 15 c4 3b 5c 1b a9 39 18 5d 63 bb
       0.0036008337 0.005984009 0.00032254576 -0.003469294
0000e0 f1 b4 5f bc bb 0d a5 3b 6b 7c 53 bc ea 93 d5 bb
       -0.01365398 0.005037037 -0.0129080815 -0.006517877
0000f0 c6 00 83 3c 26 77 04 3c ce 72 f7 3b f4 68 14 3b
       0.01599158 0.008085048 0.0075515276 0.0022645565
000100 6a 5a 75 bb ec e3 1d 3c 6a dc 83 3c 1d a7 cf bb
       -0.0037437924 0.00963686 0.016096313 -0.00633706
000110 9f 45 39 bc 33 9e 34 bc ae d0 9c ba 61 60 4e bc
       -0.011308103 -0.011024046 -0.0011964047 -0.012596221
000120 d8 71 5b 3a 09 84 c3 3b 67 f3 52 3a b2 50 98 bb
       0.0008371151 0.0059666676 0.0008047134 -0.0046482915
000130 26 32 11 3c c5 58 ab bc ad d7 fa 3b 47 c5 73 3c
       0.008862054 -0.020916352 0.007655105 0.014878578
000140 a4 88 17 3c e9 a9 9b bc 15 f3 cc 3b 1d 71 1f bb
       0.009248886 -0.019001918 0.0062545636 -0.0024328895
000150 f5 15 d7 3b 95 13 c4 3b df 79 a1 3b 3e 55 ba 3b
       0.006563897 0.0059837797 0.0049278582 0.005686431
000160 71 da 30 bc 4c d2 a1 bc a0 f0 f4 bb ca 64 10 3b
       -0.010794268 -0.019753598 -0.007474974 0.0022032731
000170 9c 76 9d 3b 61 ad 49 3c d3 8d f4 3b d1 9c 06 bc
       0.004805399 0.012309403 0.007463196 -0.008216099
000180 4f e6 15 bc 4d d8 36 3c ab 18 75 bc 4d 93 4d 3c
       -0.009149148 0.011159969 -0.014959495 0.012547326
000190 d2 26 22 bb 72 72 07 bc 9c f7 7e 3b 1b d5 68 bb
       -0.0024742377 -0.008267032 0.003890491 -0.0035527411
0001a0 09 cd e8 ba 2b 47 3e 3b b7 3f b0 3b 38 79 b8 bb
       -0.00177613 0.0029034119 0.005378689 -0.005629685
0001b0 74 1e 0f bc 1d 22 4d bc 7b c0 89 3c 81 3b 2d 3c
       -0.008735288 -0.01252034 0.016815415 0.010573269
0001c0 e7 ab 66 bb 74 10 29 bc 21 ef c2 3b d7 85 a0 3b
       -0.0035197677 -0.010318864 0.0059489165 0.0048987675
0001d0 55 08 4a bc cf e9 c5 3b 50 16 d7 3b 1c 04 eb bb
       -0.012331088 0.006039835 0.006563939 -0.0071721207
0001e0 94 4e ed 3b f8 07 21 bc 82 d1 57 bc 6c 01 b1 3a
       0.0072420333 -0.00982856 -0.013172509 0.0013504452
0001f0 22 aa 22 bc d6 a4 be 3b 76 f7 b8 3b 53 41 0e bc
       -0.009928258 0.00581799 0.005644734 -0.008682567
000200 e2 77 6c bc 81 ce 0f bc cd 5e 0f 3c d0 04 29 bc
       -0.014432879 -0.008777262 0.00875063 -0.010316089
000210 a4 cb 58 bc 5d a9 a6 3c f9 dc b8 3a 34 b2 2f 3c
       -0.013232145 0.02034443 0.0014103941 0.010723639
000220 f1 50 a2 3b 68 5f 09 bc 9f b3 34 bc fc 0c 0d bc
       0.0049534966 -0.008384563 -0.011029153 -0.008609053
000230 b8 73 13 bc a9 5a a7 37 24 08 88 bc b7 57 ae ba
       -0.0089997575 1.9950168e-05 -0.016605444 -0.0013301288
000240 39 30 12 3c 8b 5d 85 3b 6e e0 60 bc ba 76 63 3c
       0.00892263 0.004069989 -0.013725383 0.013883287
000250 e1 7b 81 3b b3 3b 8a b9 f2 f8 80 3b 67 82 33 bc
       0.003951535 -0.0002636589 0.0039359266 -0.010956383
000260 5c 4c 90 3c 81 95 0c bc eb da ee 3a 87 76 0f 3c
       0.017614536 -0.008580566 0.0018223202 0.008756286
000270 08 e0 6b 3a ce a4 66 bb 86 d6 cb 3c 85 42 c0 bb
       0.0008997922 -0.0035193446 0.024882566 -0.0058673047
000280 ec c3 03 3c 66 8d d1 ba 4a d3 70 3b 72 d4 a7 3b
       0.008042317 -0.0015987575 0.0036747032 0.005121761
000290 21 18 0f bc 21 e3 6a 3b 1e 04 b9 ba 86 49 ac 3b
       -0.00873378 0.0035840946 -0.0014115607 0.005257788
0002a0 8f 11 45 3a a2 67 85 3b 24 c2 23 3c 34 7d 2f bb
       0.000751757 0.004071192 0.009995017 -0.0026777508
0002b0 28 91 8b 3c 39 3b 8c bc 97 f1 6a 3c 9d 89 b5 bc
       0.01703699 -0.017118083 0.014339826 -0.022160346
0002c0 9d 46 a1 bb 32 9c 52 bc aa e6 b8 3c 79 84 19 bc
       -0.004921748 -0.012854623 0.022570927 -0.009369963
0002d0 bf b1 23 39 3f d7 17 bc 50 d5 d2 39 2e ba 01 3b
       0.00015611107 -0.009267627 0.00040213251 0.001979481
0002e0 b1 8f 53 bb 07 18 ab bc 30 7d b0 3c 41 5f a5 bb
       -0.0032281692 -0.02088548 0.021544069 -0.0050467555
0002f0 da 41 dc bb 8a 69 91 3c 26 64 35 3c 71 e8 39 3c
       -0.0067217173 0.01775052 0.0110712405 0.011346922
000300 60 97 f2 bb da 3e 76 bc d5 e4 01 3b 38 db 19 bc
       -0.007403299 -0.015029633 0.0019820232 -0.009390645
000310 b5 12 91 bc 24 35 86 3b fe 9f 5a 3c 04 9e 27 3b
       -0.017709116 0.0040956903 0.013343809 0.0025576362
000320 72 fb 3d 3c d5 e9 41 bc 02 8c 45 bc 22 da 41 bc
       0.011595594 -0.011835535 -0.012057306 -0.011831792
000330 b1 dc 41 3b 1a 03 7c bb bc 38 a9 ba d7 2b bd bb
       0.0029581005 -0.0038453997 -0.0012910585 -0.0057730484
000340 c1 4d 33 bc 8a 49 6a bc 4e c7 a8 3c d8 2e cc bb
       -0.010943831 -0.01429976 0.020602848 -0.00623117
000350 06 0d 3b bc 25 04 fc 3b 9e 2e 8f 3c 79 b3 22 bc
       -0.011416679 0.0076909238 0.017478283 -0.009930485
000360 19 cc 88 3c 98 f5 1f bc 42 bc 83 3b 2f 88 6b 3c
       0.016698884 -0.009763144 0.004020245 0.01437573
000370 46 6b f6 bb e2 e5 cd ba a6 7c 2b bc 06 57 0e 3c
       -0.007520112 -0.0015708769 -0.01046673 0.00868774
000380 18 9c b3 bc b4 ba 79 3b 15 36 ba 3b 7c 12 dd 3b
       -0.021925017 0.0038105669 0.0056827166 0.0067465883
000390 6f bf 4f bb 00 16 0c 3b 5f fe 34 3b 32 ac 7d bc
       -0.0031699797 0.0021375418 0.0027617437 -0.015482949
0003a0 d5 27 21 bb 92 1b 88 3a c6 27 58 3c 71 ea 42 bc
       -0.0024590392 0.0010384193 0.0131930765 -0.0118967155
0003b0 61 ff 5b bc 12 a0 62 3c 55 2a 8a bc b3 9e 6b bc
       -0.013427586 0.013832109 -0.016865889 -0.014381099
0003c0 b9 21 e0 ba da 32 87 3c c6 f3 d1 bb f2 24 46 ba
       -0.0017099894 0.01650374 -0.006407234 -0.0007558606
0003d0 cd b4 99 3b 79 92 6f bc f9 95 5d bc 91 62 6d 3c
       0.0046907426 -0.014622324 -0.013524526 0.014488832
0003e0 f6 c9 83 3c fc e2 2e 3b 32 20 d1 bb a5 1a b2 3c
       0.016087513 0.0026685586 -0.006382012 0.02174122
0003f0 87 11 2f bc a0 cf 7c bc fe d0 0a 3c 99 77 d5 bb
       -0.010685331 -0.015430361 0.008472679 -0.0065145013

lin1.bias f4 [5]
000000 cf 71 d7 3b b3 cc 68 bc 40 36 07 bd 31 28 65 bc
       0.0065748463 -0.01420896 -0.03301072 -0.013986633
000010 d4 df 8b bc
       -0.017074503
