results_auto/01_domain_adaptation/maml_supervised/June/officehome_maml_order_2_seed_0_shots_1_ways_5_meta-lr_0.0001_dropout_0.2_RandAugment-prob_0.5_datetime_11_06_2021_09_41_05/intermediate_46000_model.pt (torch, 412181 bytes, 54 tensors)

conv1.weight f4 [32, 3, 3, 3]
0.009850021 0.10788594 -0.15642527 -0.14725988 -0.07476791 0.06602931 0.015817182 0.17396897
0.0046082283 0.050665163 -0.073271774 -0.047897704 -0.21789053 -0.15997739 -0.08252771 0.011076691
0.096023366 0.13292703 -0.16138951 -0.1107811 0.070474215 0.14574821 -0.068579935 0.13659608
-0.008943085 0.03575427 0.19498251 -0.18245873 -0.111388244 -0.04101404 -0.04935839 0.20412278
-0.11225826 -0.050545055 -0.0997435 -0.17149693 -0.11146979 0.17866984 0.09104435 0.112450205
0.041380767 -0.092189014 0.07093602 -0.15433633 -0.15045534 -0.12900619 0.13505577 0.11106582
-0.08159225 0.021513877 0.12289781 0.22735581 0.10859873 0.018535012 0.1656082 -0.11370213
0.022412667 -0.11087785 -0.11989554 -0.10764456 0.12229894 0.08651069 -0.11284976 0.08160044
0.08505496 -0.057157498 0.029292345 0.021283628 0.09907914 0.19702315 -0.1591193 -0.09515962
0.09546659 0.15115215 0.12966879 0.15462321 0.010383362 -0.199895 0.0010802996 -0.18835962
-0.23834871 0.17864105 0.17133638 -0.124218374 0.026448196 -0.054292183 -0.0028336537 -0.09055715
0.05441848 -0.106238976 0.065325536 0.12694135 0.20832743 0.045538716 -0.21281745 -0.099143036
0.078732304 0.008067464 -0.14223893 -0.090429746 0.23519759 0.22659943 -0.09564611 -0.052828226
-0.11208954 -0.02953452 -0.15863763 -0.09759482 0.021527674 0.006549692 -0.07404534 0.15547135
-0.112921186 0.21840346 0.15576509 -0.19915399 -0.040198527 0.002204594 -0.008492573 0.04690738
0.10066219 -0.0061090784 -0.03860025 0.08876804 -0.23584415 -0.10586106 -0.029110653 -0.101003155
-0.026019566 -0.07128934 0.014673921 0.12645784 -0.07268706 -0.03472157 0.16955304 -0.052435577
-0.013411395 -0.048907913 0.03527893 0.13782616 0.21651845 0.12754017 0.199592 -0.018117758
-0.18295412 -0.05846653 0.16847953 -0.012158299 -0.06883683 -0.111063965 -0.18213326 -0.1641586
-0.04112786 0.11807863 0.121879965 -0.19273373 0.13242334 -0.13593514 -0.02461324 -0.047537014
-0.0060706185 -0.047942974 -0.17741981 -0.1519037 -0.0020056076 0.01373841 -0.08823748 0.10995452
-0.17691323 -0.00011011823 0.18904515 -0.08486562 0.1637846 0.08596183 -0.16751254 0.13742065
-0.004301213 -0.08622513 0.18607418 -0.15975419 -0.0016650299 -0.04194385 0.1469861 0.06964716
0.1192817 0.088881955 -0.043111045 -0.023500692 -0.17528345 0.14846013 0.19553545 0.15939529
-0.1812582 -0.020018563 -0.1478041 -0.086910464 -0.1131706 0.09806209 -0.10872361 -1.2242795e-05
0.02750073 0.08032608 -0.16354671 -0.13355553 -0.09705987 0.15313168 -0.043948885 0.17915386
0.06431762 0.052534286 -0.030144278 -0.07000607 0.017284239 -0.029062495 -0.0034166188 0.02085839
-0.16003059 -0.1174151 0.1801655 -0.1676708 0.006127138 0.22053486 0.05579727 0.026750019
-0.16089174 0.1253379 -0.16561374 -0.047252018 -0.0700782 -0.035662014 -0.022109523 0.15111843
0.046666883 0.14674775 0.118479714 -0.16893503 0.08289414 -0.15652952 -0.10066394 0.040966894
0.059295554 0.14737374 -0.061297983 0.03518795 0.09256741 -0.18077831 0.21342172 -0.14799798
0.033286847 0.00584519 -0.04747221 0.092845276 0.16914913 -0.08210035 -0.12401959 -0.042408675
00000000: fc61 213c 4ef3 dc3d f22d 20be 4bcb 16be
00000010: eb1f 99bd 603a 873d 0993 813c ec24 323e
00000020: 9f00 973b 4686 4f3d 830f 96bd 6230 44bd
00000030: b21e 5fbe 1dd1 23be 4a04 a9bd 027b 353c
00000040: e6a7 c43d 061e 083e 4b43 25be 34e1 e2bd
00000050: c954 903d 053f 153e a373 8cbd d8df 0b3e
00000060: 0486 12bc 1273 123d 7fa9 473e 76d6 3abe
00000070: 851f e4bd 57fe 27bd 062c 4abd 9005 513e
00000080: a9e7 e5bd 5508 4fbd 5246 ccbd e49c 2fbe
00000090: 464a e4bd 3af5 363e 7675 ba3d 4b4c e63d
000000a0: e17e 293d 98cd bcbd e746 913d 580a 1ebe
000000b0: f710 1abe 331a 04be 0f4c 0a3e 7a76 e33d
000000c0: d619 a7bd df3d b03c d9b1 fb3d f6cf 683e
000000d0: 0369 de3d bdd6 973c 3295 293e aadc e8bd
000000e0: c59a b73c ed13 e3bd cb8b f5bd c074 dcbd
000000f0: de77 fa3d 842c b13d c61d e7bd 221e a73d
00000100: 4b31 ae3d fb1d 6abd 80f6 ef3c 015b ae3c
00000110: 01ea ca3d 70c0 493e 2bf0 22be 0ce3 c2bd
00000120: fd83 c33d a1c7 1a3e e5c7 043e 8c55 1e3e
00000130: fa1e 2a3c 46b1 4cbe d798 8d3a 58e1 40be
00000140: af11 74be aeed 363e ce72 2f3e 3466 febd
00000150: e3a9 d83c 7b61 5ebd d2b4 39bb 0776 b9bd
00000160: e9e5 5e3d d293 d9bd 65c9 853d eafc 013e
00000170: c953 553e ce86 3a3d d1ec 59be 810b cbbd
00000180: 673e a13d 662d 043c 15a7 11be 3b33 b9bd
00000190: a3d7 703e ae09 683e 1ce2 c3bd 6962 58bd
000001a0: 338f e5bd 61f2 f1bc e771 22be cbdf c7bd
000001b0: ce5a b03c cc9e d63b 15a5 97bd e233 1f3e
000001c0: 3943 e7bd 28a5 5f3e e280 1f3e 06ef 4bbe
000001d0: 36a7 24bd f37a 103b 6f24 0bbc f421 403d
000001e0: fa27 ce3d aa2e c8bb 4c1b 1ebd 05cc b53d
000001f0: 2181 71be afcd d8bd 7779 eebc beda cebd
00000200: fc26 d5bc 2500 92bd e36a 703c 2a7e 013e
00000210: f4dc 94bd 3438 0ebd 509f 2d3e b0c6 56bd
00000220: 78bb 5bbc aa53 48bd a480 103d 4d22 0d3e
00000230: 03b7 5d3e e499 023e d861 4c3e b16b 94bc
00000240: 5358 3bbe 9a7a 6fbd e685 2c3e 9a33 47bc
00000250: 53fa 8cbd 8175 e3bd 2481 3abe 3119 28be
00000260: b075 28bd 35d3 f13d 349c f93d fe5b 45be
00000270: fc99 073e 9532 0bbe b5a1 c9bc 2cb6 42bd
00000280: 0aec c6bb da5f 44bd 8aad 35be a58c 1bbe
00000290: 8370 03bb 1117 613c dab5 b4bd d62f e13d
000002a0: be28 35be 46ef e6b8 0d95 413e 07ce adbd
000002b0: 26b7 273e c20c b03d 6888 2bbe 00b8 0c3e
000002c0: 31f1 8cbb cd96 b0bd 3b8a 3e3e 9a96 23be
000002d0: 223d daba 51cd 2bbd 8683 163e 2ca3 8e3d
000002e0: f749 f43d be07 b63d 3595 30bd 8684 c0bc
000002f0: 817d 33be ef05 183e 723a 483e 8538 233e
00000300: c09b 39be f8fd a3bc f559 17be 1dfe b1bd
00000310: fdc5 e7bd c7d4 c83d 7caa debd 6766 4db7
00000320: 3649 e13c 0082 a43d ca78 27be c8c2 08be
00000330: 53c7 c6bd 8dce 1c3e bf03 34bd 1c74 373e
00000340: f5b8 833d 312e 573d 22f1 f6bc 585f 8fbd
00000350: ad97 8d3c 7814 eebc 5ae9 5fbb 37df aa3c
00000360: 0fdf 23be 5477 f0bd 4e7d 383e e5b1 2bbe
00000370: 29c6 c83b e4d3 613e ae8b 643d db22 db3c
00000380: cec0 24be 9458 003e a696 29be 558b 41bd
00000390: 2985 8fbd 5512 12bd 081f b5bc cabe 1a3e
000003a0: c625 3f3d 0b45 163e 7ea5 f23d 4efd 2cbe
000003b0: 67c4 a93d 4649 20be e528 cebd e7cc 273d
000003c0: e5df 723d 24e9 163e 9813 7bbd 3d21 103d
000003d0: fb93 bd3d f31d 39be 398b 5a3e c88c 17be
000003e0: ca57 083d 0289 bf3b 3872 42bd aa25 be3d
000003f0: 6e35 2d3e 3a24 a8bd fcfd fdbd b8b4 2dbd

conv1.bias f4 [32]
0.2154855 -0.05038967 -0.016338876 -0.07130724 -0.042461812 0.049045116 0.0121069625 -0.08188921
-0.17611203 0.024531975 -0.011287767 0.017889824 0.16765527 0.16782823 -0.112175725 0.012133226
-0.051352374 -0.19711795 -0.14447536 0.16668682 0.11242795 0.12935674 0.12252421 -0.15100072
0.022970846 0.1705443 -0.10224958 0.16499488 0.046875093 0.17217942 -0.07732736 0.0887019
00000000: 3ba8 5c3e 6665 4ebd 1bd9 85bc 8809 92bd
00000010: 70ec 2dbd 88e3 483d 485c 463c 88b5 a7bd
00000020: b656 34be 48f7 c83c 54f0 38bc ae8d 923c
00000030: d3ad 2b3e 2adb 2b3e 63bc e5bd 70ca 463c
00000040: de56 52bd 4ad9 49be 59f1 13be f3af 2a3e
00000050: a040 e63d 1876 043e f9ed fa3d ef9f 1abe
00000060: 5b2d bc3c 2aa3 2e3e 3a68 d1bd 6bf4 283e
00000070: 1900 403d cd4f 303e cf5d 9ebd 57a9 b53d

batch1.weight f4 [32]
1.1234899 0.9558357 1.0641342 1.0434833 1.0040864 0.92588997 1.0680159 1.0922282
1.0782202 1.0462232 0.97772145 0.9744429 0.88902587 0.9687367 0.8639654 0.9482487
0.9906194 0.9244721 0.9273538 0.95304346 0.8693754 1.047225 1.0350143 1.0535504
1.0140088 1.0266398 1.013628 1.0956286 1.0627933 0.99416316 0.9693635 0.92778283
00000000: 84ce 8f3f a6b1 743f 8d35 883f dc90 853f
00000010: e785 803f 2007 6d3f bfb4 883f 22ce 8b3f
00000020: 1f03 8a3f a4ea 853f f44b 7a3f 1775 793f
00000030: 3397 633f 21ff 773f d62c 5d3f 6dc0 723f
00000040: 3c99 7d3f 34aa 6c3f 0f67 6d3f a8fa 733f
00000050: 638f 5e3f 780b 863f 597b 843f bdda 863f
00000060: 0acb 813f ef68 833f 90be 813f 8f3d 8c3f
00000070: 9c09 883f 7a81 7e3f 3528 783f 2d83 6d3f

batch1.bias f4 [32]
0.16750926 -0.054545347 0.16498412 -0.022614824 -0.059304584 -0.016473057 -0.084296376 0.072468966
0.01803535 0.043793883 -0.1010421 0.21629715 -0.07402559 0.08965481 -0.011991638 -0.015671624
-0.021861091 -0.12601946 -0.12741137 -0.057430126 -0.16644357 0.07132556 0.05220492 0.27030978
-0.014475858 -0.08547395 -0.038411476 0.036519557 -0.033625282 0.15548438 -0.111310564 -0.16008323
00000000: 8c87 2b3e f16a 5fbd 99f1 283e b942 b9bc
00000010: 5de9 72bd 81f2 86bc 94a3 acbd 9c6a 943d
00000020: dfbe 933c 3761 333d 29ef cebd 007d 5d3e
00000030: bb9a 97bd f19c b73d 9378 44bc c761 80bc
00000040: 0816 b3bc 3f0b 01be 2078 02be da3b 6bbd
00000050: 2f70 2abe 2313 923d d4d4 553d 0b66 8a3e
00000060: 262c 6dbc f70c afbd 5a55 1dbd 8895 153d
00000070: aaba 09bd 4c37 1f3e cbf6 e3bd dcec 23be

conv2.weight f4 [32, 32, 3, 3]
-0.15949965 0.00030026835 -0.010032794 0.058784626 0.04970095 0.04728568 0.045726854 0.05372426
0.026486117 -0.026114115 -0.031269763 0.014614399 -0.042440746 -0.022068206 0.098238945 -0.034687232
-0.008731805 -0.006492523 0.046982337 0.04213602 -0.05577409 -0.03418507 0.067156084 0.060629763
0.042287976 -0.04685125 -0.09763012 0.06364804 0.0074745724 -0.09602452 -0.0509963 -0.048281815
-0.021814657 0.04824754 0.0389013 -0.14420326 -0.05550219 0.02207201 -0.00847064 0.017001001
0.011643545 -0.0008235957 -0.023615638 -0.037799582 -0.03702066 -0.007625555 0.00985935 0.00349825
-0.051184375 -0.039012227 -0.0715547 -0.038362775 0.03168841 0.018403243 -0.06802269 -0.056828424
-0.03323005 -0.09659747 0.043858968 0.08953244 0.05509706 -0.007284139 0.027955495 0.036613103
-0.114069566 0.019561345 -0.041714482 -0.028594043 -0.104703784 0.030773882 0.035892367 -0.001936615
-0.09463907 0.0019723778 0.006611791 0.0008233485 0.0960143 0.024822036 -0.10014918 0.0138156125
0.03876195 0.056062505 -0.04241898 0.03865267 -0.081695534 -0.053686272 0.02214178 -0.08890721
0.030519273 -0.0493998 -0.025441347 -0.016559754 -0.027422985 0.018411076 0.05055948 0.063402295
-0.0008941616 -0.008930099 0.030706484 -0.0138113145 0.0061954563 -0.0266058 0.029859642 0.012841532
0.0037550735 -0.061012987 0.04119044 -0.029934647 0.00089998596 0.05920494 -0.030686945 -0.044889726
0.015132337 0.0007785901 0.018383779 0.04037573 0.049016915 -0.02143448 -0.00301576 0.03917509
0.070744984 -0.021535052 -0.03381411 -0.020387998 0.023935247 -0.018438758 -0.0433711 0.04670451
-0.0063193957 -0.08807183 -0.07699918 -0.006958184 -0.011331548 0.048542835 0.049932726 0.032192696
0.029250216 0.00580976 -0.051083706 0.028774025 -0.021986553 -0.029118443 -0.042878486 0.05902001
-0.047589358 0.08990027 0.020006472 -0.04947349 0.0033278496 0.014487699 0.004211283 0.027850492
-0.11180412 0.041950747 -0.035941023 -0.08032013 0.018517485 0.07483831 -0.024916736 -0.017401299
0.020166788 0.062929116 0.076139756 -0.0067750257 0.0021079422 0.0520253 0.01271538 0.026881596
-0.016509648 -0.038856946 -0.006719911 -0.03036187 0.04774885 0.07343834 0.0094440505 -0.04252318
0.0013369562 -0.07425998 0.051451717 -0.024233289 -0.028540231 -0.034033127 0.029230988 -0.03556229
0.06508906 -0.016956005 0.022410924 0.04935396 0.025499353 0.047727145 0.06308832 -0.02713791
-0.0319527 -0.083693035 -0.052114323 0.060353283 -0.02203821 0.06992515 -0.0071667503 -0.060368404
0.007393314 -0.054679442 0.024642672 0.021353237 -0.012420149 -5.2533065e-05 0.04591005 0.036758967
-0.023175158 0.03031441 -0.02093598 -0.030629786 0.069615684 -0.006633711 0.044087704 -0.08696363
-0.0023308534 0.040913172 -0.020327792 -0.073236726 0.007981014 -0.06196101 -0.058688052 -0.05257879
0.0595471 -0.03999504 -0.04972419 0.03555441 -0.034102667 0.052865855 0.015723702 -0.029008223
0.060301542 -0.014646239 -0.027935406 -0.034178138 -0.007278935 0.059619006 -0.017610414 -0.01510844
-0.015324327 -0.0074907904 0.03952291 -0.08411955 -0.020344753 0.076107495 -0.012443572 0.0019678962
0.03264523 -0.045119017 0.03171427 -0.05276543 -0.0052104215 0.008780082 0.0178197 -0.09574201
00000000: e053 23be 566d 9d39 9760 24bc 26c8 703d
00000010: 3993 4b3d a1ae 413d 154c 3b3d f80d 5c3d
00000020: 6af9 d83c 45ed d5bc b914 00bd 3b71 6f3c
00000030: 59d6 2dbd 62c8 b4bc 8031 c93d 3314 0ebd
00000040: d80f 0fbc 3bbf d4bb 8d70 403d d296 2c3d
00000050: 5f73 64bd a505 0cbd 2189 893d ea56 783d
00000060: 2836 2d3d 19e7 3fbd 4df2 c7bd e759 823d
00000070: 42ed f43b 81a8 c4bd 7fe1 50bd 27c3 45bd
00000080: a7b4 b2bc 369f 453d f856 1f3d 05aa 13be
00000090: 4456 63bd 5cd0 b43c 70c8 0abc af45 8b3c
000000a0: 91c4 3e3c 92e6 57ba 9575 c1bc bcd3 1abd
000000b0: faa2 17bd cbdf f9bb 1c89 213c e542 653b
000000c0: b5a6 51bd 49cb 1fbd 458b 92bd 4922 1dbd
000000d0: b5cb 013d 66c2 963c 7b4f 8bbd ecc4 68bd
000000e0: 3c1c 08bd e5d4 c5bd 76a5 333d c95c b73d
000000f0: 74ad 613d c9af eebb ec02 e53c 9ff7 153d
00000100: 4e9d e9bd 1d3f a03c cedc 2abd 0e3e eabc
00000110: f06e d6bd 8219 fc3c e003 133d 04d6 fdba
00000120: 21d2 c1bd 0243 013b b9a7 d83b fcd5 573a
00000130: 25a3 c43d 9557 cb3c 031b cdbd e15a 623c
00000140: dac4 1e3d cca1 653d 86bf 2dbd 4352 1e3d
00000150: fd4f a7bd 23e6 5bbd ae62 b53c fc14 b6bd
00000160: 8e03 fa3c 7257 4abd 5f6a d0bc 52a8 87bc
00000170: 2ba6 e0bc d3d2 963c 7517 4f3d 10d9 813d
00000180: 2b66 6aba 8d4f 12bc 2a8c fb3c da48 62bc
00000190: 4103 cb3b 68f4 d9bc 359c f43c 4a65 523c
000001a0: ae17 763b c1e8 79bd 4fb7 283d 8139 f5bc
000001b0: 09ed 6b3a e180 723d 3063 fbbc 4ade 37bd
000001c0: 9fed 773c 4c1a 4c3a 9499 963c 0561 253d
000001d0: f6c5 483d 5d97 afbc 0fa4 45bb 0f76 203d
000001e0: bfe2 903d 476a b0bc aa80 0abd bb04 a7bc
000001f0: da13 c43c e10c 97bc e5a5 31bd 3a4d 3f3d
00000200: ef12 cfbb 015f b4bd bfb1 9dbd 7a01 e4bb
00000210: f5a7 39bc dad4 463d 4286 4c3d 7ddc 033d
00000220: 269e ef3c cd5f be3b 263d 51bd 81b7 eb3c
00000230: 251d b4bc cd89 eebc 5aa1 2fbd f7be 713d
00000240: 0fed 42bd a21d b83d 9de4 a33c b7a4 4abd
00000250: 0d18 5a3b d05d 6d3c cdfe 893b b726 e43c
00000260: 8ff9 e4bd 8cd4 2b3d e536 13bd e17e a4bd
00000270: fbb1 973c d444 993d 2f1e ccbc 2b8d 8ebc
00000280: d234 a53c fbe0 803d 29ef 9b3d 0901 debb
00000290: 6725 0a3b 7b18 553d 2b54 503c cb36 dc3c
000002a0: 3e3f 87bc 7628 1fbd b332 dcbb 75b9 f8bc
000002b0: 4c94 433d d766 963d 38bb 1a3c c92c 2ebd
000002c0: ce3c af3a 9e15 98bd 09bf 523d e484 c6bc
000002d0: 34cd e9bc 5266 0bbd d375 ef3c c4a9 11bd
000002e0: 6a4d 853d 52e7 8abc 1d97 b73c 6127 4a3d
000002f0: 05e4 d03c 8a7d 433d 7334 813d 5250 debc
00000300: d6e0 02bd 4167 abbd d475 55bd 0135 773d
00000310: 7a89 b4bc eb34 8f3d 0fd7 eabb dc44 77bd
00000320: 9d43 f23b 8df7 5fbd 6edf c93c fcec ae3c
00000330: e17d 4bbc f356 5cb8 2d0c 3c3d 9290 163d
00000340: d4d9 bdbc ed55 f83c ef81 abbc 51eb fabc
00000350: ab92 8e3d 9a5f d9bb 4f95 343d fd19 b2bd
00000360: 3bc1 18bb 9294 273d 7886 a6bc 23fd 95bd
00000370: cdc2 023c d4ca 7dbd e262 70bd db5c 57bd
00000380: a9e7 733d d7d1 23bd 98ab 4bbd 80a1 113d
00000390: 3daf 0bbd de89 583d fece 803c a7a2 edbc
000003a0: c0fe 763d c7f6 6fbc cbd8 e4bc 60fe 0bbd
000003b0: 2284 eebb 0f33 743d b743 90bc 6489 77bc
000003c0: e312 7bbc 4e75 f5bb c6e2 213d df46 acbd
000003d0: 0aaa a6bc 3fde 9b3d 20e0 4bbc d2f7 003b
000003e0: 01b7 053d b8ce 38bd d3e6 013d 9020 58bd
000003f0: 2fbc aabb 55da 0f3c 9ffa 913c 6314 c4bd

conv2.bias f4 [32]
-0.009972765 0.05885345 0.013469897 -0.04418913 -0.011390823 -0.043808408 -0.039072935 -0.040714245
0.064674586 -0.052248765 0.042906437 -0.052820947 0.004492987 0.048491314 -0.024837984 -0.02089317
-0.032442506 -0.027783621 0.022470064 -0.039984033 -0.03653903 0.056239016 0.058897436 -0.016401997
-0.005773067 0.001832219 0.049985707 -0.06795812 -0.058279946 0.039777767 0.01352682 -0.011942487
00000000: cf64 23bc 5110 713d d8b0 5c3c a9ff 34bd
00000010: 93a0 3abc 7270 33bd f10a 20bd fbc3 26bd
00000020: 1c74 843d cd02 56bd a9be 2f3d c75a 58bd
00000030: e839 933b d49e 463d 0779 cbbc 2728 abbc
00000040: 6fe2 04bd 7a9a e3bc 2413 b83c 4cc6 23bd
00000050: f3a9 15bd e25a 663d 703e 713d 7b5d 86bc
00000060: ff2b bdbb 1127 f03a d0bd 4c3d a02d 8bbd
00000070: f4b6 6ebd 03ee 223d 989f 5d3c 6caa 43bc

batch2.weight f4 [32]
1.1184132 0.86753416 1.0531952 0.910594 0.94007295 0.96586704 1.0668429 0.9752475
1.0635805 1.1421086 1.0670996 1.0903184 0.9325183 1.0392382 0.91028816 1.0160235
1.0155877 0.9426111 1.02806 0.9706137 1.037692 1.0650367 1.0130309 0.89062196
1.0279394 1.0666523 0.8908461 1.0482864 1.1460642 1.0924367 0.94493294 1.0624676
00000000: 2a28 8f3f b816 5e3f 1acf 863f b01c 693f
00000010: 9fa8 703f 1043 773f 4f8e 883f d2a9 793f
00000020: 6823 883f 9d30 923f b896 883f 8e8f 8b3f
00000030: 85b9 6e3f c205 853f a508 693f 0f0d 823f
00000040: c7fe 813f f64e 713f 7897 833f 247a 783f
00000050: 17d3 843f 1f53 883f ffaa 813f cdff 633f
00000060: 8593 833f 1088 883f 7d0e 643f 402e 863f
00000070: 3bb2 923f f7d4 8b3f 20e7 713f f0fe 873f

batch2.bias f4 [32]
-0.04021475 -0.08803884 0.14833689 -0.12730968 -0.15532121 -0.101729244 -0.052139997 -0.106602326
-0.046896853 0.091490775 0.074181564 -0.025210008 -0.026393197 -0.015911372 -0.09147429 0.04094972
0.027667945 -0.18533559 -0.11674083 -0.11530582 0.09164415 0.0037015579 0.051413033 -0.15631777
0.24052796 0.08644705 -0.13740675 -0.100236155 0.0036961243 0.08986185 -0.20470098 -0.16054812
00000000: 39b8 24bd b54d b4bd a0e5 173e 785d 02be
00000010: 860c 1fbe 6c57 d0bd c090 55bd 5252 dabd
00000020: ea16 40bd 845f bb3d 81ec 973d 3885 cebc
00000030: 8c36 d8bc 9158 82bc df56 bbbd e5ba 273d
00000040: e3a7 e23c 9dc8 3dbe d115 efbd 7525 ecbd
00000050: eeaf bb3d d695 723b 7996 523d c411 20be
00000060: f64c 763e 270b b13d 5bb4 0cbe 9d48 cdbd
00000070: ad3a 723b 7d09 b83d 229d 51be ba66 24be

conv3.weight f4 [32, 32, 3, 3]
0.049574267 0.06376548 -0.09106716 0.021585902 0.023310421 -0.055007733 -0.09953098 0.023348305
0.06654256 -0.007818895 -0.09380017 0.00051523565 -0.035842802 -0.05946933 0.016801441 -0.009923033
0.03150354 0.028744131 0.063073404 0.01450685 0.038978443 0.03950249 -0.0009682013 0.046003163
-0.0728702 0.047427777 -0.024131909 0.011615224 0.09126925 -0.052967023 -0.00023300473 0.0767764
0.016382197 -0.072198994 -0.090442285 -0.078330375 -0.041081868 0.026247824 -0.013989468 0.0033426841
0.031466857 0.033770047 0.03718518 0.00083969627 0.04616597 0.036530145 0.046999842 -0.026814822
-0.021634411 0.050390333 0.030903066 0.0029796506 -0.06926044 -0.0013701181 -0.003598309 -0.048781976
-0.04080334 0.023989419 -0.020310303 0.06467881 0.035800472 -0.016417362 0.04487984 0.020407105
0.0060070767 -0.031050267 -0.030212864 0.014323155 0.016868738 -0.1252994 -0.09187457 0.010034856
0.0060663186 -0.05780879 -0.058190234 -0.074094914 -0.036210157 0.08303984 -0.020500889 0.10374569
-0.042542506 0.050904907 -0.08576213 0.10265884 -0.04313389 -0.07763318 -0.0008583399 -0.01282149
0.018089356 0.052022606 0.06719487 0.0043236343 -0.046223097 0.015216032 -0.01226426 0.047079027
0.05304011 -0.06034435 -0.07150909 -0.020327002 0.06498057 -0.108926184 -0.014794033 -0.03260789
-0.0050923903 0.048406936 -0.025473047 0.0031954413 0.04563414 0.0045754476 -0.010974797 -0.03720944
-0.020105658 -0.026002074 0.094099805 -0.031069463 -0.02250055 0.009695559 -0.02839165 -0.058735695
0.057611763 -0.048301794 -0.03567037 -0.049420036 0.035728212 -0.0041323714 -0.053802397 -0.03824706
-0.054482583 0.02275308 -0.024993012 -0.056619868 0.04585997 -0.011730547 0.03982381 -0.043224934
-0.027461877 -0.0355842 0.03743828 -0.01313871 0.07198596 0.055005107 -0.01244204 -0.0674261
-0.03038668 0.06550533 -0.009569522 0.00013730535 0.0044324845 0.012788092 0.023966396 -0.04169172
0.04704322 0.00763512 -0.0064684735 -0.037095793 0.050538875 0.011467436 -0.09062737 0.022998836
-0.02166374 0.12504199 0.01935033 -0.0054125674 0.024006704 0.046741333 -0.0032825968 0.094421715
0.096544616 -0.037736315 0.0005757982 0.012839923 -0.057542592 -0.020894846 -0.014619878 -0.024335053
-0.012651576 -0.0055465684 -0.03411295 -0.06607017 -0.07442598 0.04591482 0.004507406 0.021431731
-0.014589508 -0.1010997 -0.019770963 -0.08151288 0.07397084 0.03253226 0.021358391 0.029548738
-0.034333862 -0.01779145 0.0778612 0.032118667 0.046615154 -0.07410824 -0.026609553 0.044577498
0.017123805 -0.067242116 0.06279893 -0.05177107 0.009897856 -0.05525674 -0.01069797 -0.037820023
-0.03414251 -0.0061875107 -0.020026613 0.012388096 -0.03155771 -0.05102882 -0.040185593 -0.085268155
-0.008407827 0.043661155 -0.012505757 0.019443318 0.008523237 0.040020376 -0.037439547 -0.052968785
0.04434401 -0.010299276 0.05414025 0.035578094 -0.052097075 0.0031017088 0.02189383 -0.024499472
-0.05631981 0.0121017825 0.028785067 0.040013935 -0.07015119 -0.01332731 -0.027459368 0.036919042
-0.030782368 -0.008485428 -0.039044615 0.0040992303 -0.09576398 0.002106615 -0.027725482 -0.008048025
0.06398082 -0.08327054 0.06446123 0.064226195 0.023236746 -0.03910648 -0.009484593 0.029239396
00000000: 630e 4b3d 7a97 823d 6b81 babd ebd4 b03c
00000010: 7ff5 be3c ca4f 61bd e6d6 cbbd f244 bf3c
00000020: 7747 883d d31a 00bc 4e1a c0bd e110 073a
00000030: e7cf 12bd 1d96 73bd 2da3 893c 3894 22bc
00000040: db09 013d d078 eb3c a12c 813d 24ae 6d3c
00000050: dca7 1f3d 5dcd 213d e4ce 7dba d06d 3c3d
00000060: f93c 95bd a143 423d 48b0 c5bc c84d 3e3c
00000070: 5feb ba3d f3f3 58bd bb52 74b9 f23c 9d3d
00000080: f533 863c 11dd 93bd ce39 b9bd ad6b a0bd
00000090: 7645 28bd ad05 d73c 1534 65bc ef10 5b3b
000000a0: 64e3 003d 7652 0a3d 7d4f 183d 101f 5c3a
000000b0: 8718 3d3d a2a0 153d e882 403d c2aa dbbc
000000c0: a63a b1bc 1866 4e3d 6d28 fd3c 3e46 433b
000000d0: 6bd8 8dbd 8995 b3ba 9bd1 6bbb 9ccf 47bd
000000e0: 6721 27bd 7585 c43c cb61 a6bc 5376 843d
000000f0: 84a3 123d b47d 86bc ecd3 373d cd2c a73c
00000100: 03d7 c43b 215d febc f880 f7bc abab 6a3c
00000110: 4f30 8a3c 7c4e 00be bc28 bcbd 3d69 243c
00000120: f8c7 c63b e9c8 6cbd e258 6ebd 13bf 97bd
00000130: 1a51 14bd cb10 aa3d 7bf1 a7bc 9f78 d43d
00000140: 0d41 2ebd aa81 503d 0ea4 afbd cc3e d23d
00000150: 29ad 30bd 25fe 9ebd 3702 61ba 3a11 52bc
00000160: 2130 943c a815 553d 779d 893d 46ad 8d3b
00000170: 6e54 3dbd aa4c 793c 09f0 48bc f0d5 403d
00000180: 9640 593d a32b 77bd 5c73 92bd d084 a6bc
00000190: 8814 853d b114 dfbd ac62 72bc da8f 05bd
000001a0: 11de a6bb 5a46 463d daac d0bc 9c6a 513b
000001b0: ddea 3a3d a3ed 953b a3cf 33bc ed68 18bd
000001c0: 9fb4 a4bc 4d02 d5bc 66b7 c03d 6385 febc
000001d0: 1353 b8bc 1fda 1e3c 9b95 e8bc d794 70bd
000001e0: 50fa 6b3d 1ad8 45bd 181b 12bd aa6c 4abd
000001f0: bf57 123d d868 87bb e75f 5cbd f3a8 1cbd
00000200: 2129 5fbd ab64 ba3c 25be ccbc 3cea 67bd
00000210: aad7 3b3d 7b31 40bc 4b1e 233d a10c 31bd
00000220: bbf7 e0bc bdc0 11bd e258 193d be43 57bc
00000230: 606d 933d 094d 613d b3d9 4bbc b216 8abd
00000240: 7ded f8bc a927 863d 7cc9 1cbc a0f9 0f39
00000250: 603e 913b 2585 513c 2d55 c43c f0c4 2abd
00000260: 64b0 403d 0730 fa3b 7df5 d3bb c2f1 17bd
00000270: da01 4f3d eae1 3b3c d89a b9bd 0e68 bc3c
00000280: 2878 b1bc 020b 003e 9584 9e3c e85b b1bb
00000290: b5a9 c43c d773 3f3d d620 57bb 2c60 c13d
000002a0: 2fb9 c53d 6591 1abd 2af1 163a 8a5e 523c
000002b0: c8b1 6bbd ab2b abbc 3688 6fbc 4e5a c7bc
000002c0: 8e48 4fbc fdbf b5bb 05ba 0bbd cc4f 87bd
000002d0: a66c 98bd 2e11 3c3d ddb2 933b 9991 af3c
000002e0: d508 6fbc 5c0d cfbd b7f6 a1bc 3af0 a6bd
000002f0: 067e 973d 8c40 053d cbf7 ae3c 3210 f23c
00000300: aaa1 0cbd 60bf 91bc b175 9f3d dd8e 033d
00000310: 88ef 3e3d 10c6 97bd 47fc d9bc e596 363d
00000320: 3947 8c3c 3cb6 89bd ba9c 803d e70d 54bd
00000330: 9e2a 223c e454 62bd 8a46 2fbc 2be9 1abd
00000340: 04d9 0bbd 9ac0 cabb da0e a4bc 71f7 4a3c
00000350: a842 01bd 9903 51bd a699 24bd 12a1 aebd
00000360: fbc0 09bc 0ad6 323d f2e4 4cbc 9847 9f3c
00000370: 0ca5 0b3c 68ec 233d 365a 19bd ccf5 58bd
00000380: 11a2 353d 4bbe 28bc 2bc2 5d3d 56ba 113d
00000390: be63 55bd 0a46 4b3b b05a b33c 1eb3 c8bc
000003a0: 9aaf 66bd 8e46 463c a9ce eb3c a7e5 233d
000003b0: 6dab 8fbd ca5a 5abc 78f2 e0bc 6c38 173d
000003c0: 4e2b fcbc 7706 0bbc 3fed 1fbd d652 863b
000003d0: e81f c4bd 230f 0a3b 8d20 e3bc dddb 03bc
000003e0: 6008 833d bf89 aabd 4004 843d 0689 833d
000003f0: fd5a be3c 1e2e 20bd 4465 1bbc 7587 ef3c

conv3.bias f4 [32]
0.030634126 0.017071005 -0.005625206 -0.040749013 -0.037095737 -0.0018920823 -0.033071276 0.03862493
-0.03858337 -0.054247152 0.0500192 -0.03954912 0.014573225 0.041038148 0.0032655322 0.050958857
-0.017393956 -0.04922666 -0.04623727 0.0024797036 -0.036945768 -0.025989894 0.023063773 0.053915188
0.037759755 0.02602944 -0.054976773 -0.012349414 0.032703068 0.05810038 -0.007915067 0.023786409
00000000: 6bf4 fa3c 7ed8 8b3c a653 b8bb 70e8 26bd
00000010: b3f1 17bd bfff f7ba bf75 07bd 2d35 1e3d
00000020: 9909 1ebd 4332 5ebd efe0 4c3d 42fe 21bd
00000030: 89c4 6e3c 9e17 283d 8a02 563b 3cba 503d
00000040: c57d 8ebc e5a1 49bd 4b63 3dbd 8682 223b
00000050: 7254 17bd c2e8 d4bc 3df0 bc3c 2cd6 5c3d
00000060: f9a9 1a3d b13b d53c 532f 61bd 3255 4abc
00000070: a7f3 053d aafa 6d3d 32ae 01bc b7db c23c

batch3.weight f4 [32]
0.97838783 0.97164375 1.0204145 0.94632554 0.9919031 1.0221848 0.992262 1.0108837
1.002814 1.0016656 0.97647554 1.0152733 0.98508507 1.0360569 0.93079716 1.0159165
0.988037 1.0087298 1.0466721 0.9664941 1.0048574 1.0200421 0.94229215 1.0198874
1.0612851 1.0063475 0.9525463 0.98694736 1.0115385 0.986092 1.0540253 0.9786788
00000000: a077 7a3f a5bd 783f f19c 823f 6442 723f
00000010: 5ded 7d3f f4d6 823f e204 7e3f a364 813f
00000020: 365c 803f 9436 803f 4dfa 793f 7af4 813f
00000030: 892e 7c3f 839d 843f b948 6e3f 8d09 823f
00000040: feef 7c3f 0f1e 813f 5af9 853f 286c 773f
00000050: 2b9f 803f bd90 823f 0f3a 713f ac8b 823f
00000060: 31d8 873f ffcf 803f 13da 733f 95a8 7c3f
00000070: 187a 813f 8670 7c3f 4dea 863f b28a 7a3f

batch3.bias f4 [32]
-0.084857896 -0.036850013 -0.07986412 -0.11281577 -0.058056694 0.04385609 -0.08593553 0.035025332
-0.08992754 -0.04862714 -0.09465076 -0.014185357 -0.1311345 -0.09038445 -0.07056755 -0.10544175
-0.12993193 -0.032116756 -0.11470851 -0.15334071 -0.10804799 -0.055740785 0.030006813 -0.061795674
-0.061674085 -0.11882296 -0.17546272 -0.05792013 -0.024543744 -0.035627894 0.036246873 -0.03635921
00000000: fac9 adbd 0af0 16bd cd8f a3bd f40b e7bd
00000010: dbcc 6dbd 72a2 333d f8fe afbd b976 0f3d
00000020: ee2b b8bd 402d 47bd 42d8 c1bd b369 68bc
00000030: 1f48 06be 7c1b b9bd b885 90bd d8f1 d7bd
00000040: e00c 05be dc8c 03bd 4cec eabd 5905 1dbe
00000050: 4448 ddbd 7350 64bd d9d0 f53c 761d 7dbd
00000060: f79d 7cbd 7459 f3bd 80ac 33be a93d 6dbd
00000070: f60f c9bc 8eee 11bd 9a77 143d 65ed 14bd

conv4.weight f4 [32, 32, 3, 3]
-0.04424964 -0.051111005 -0.044353656 -0.016128393 -0.023798898 -0.049362756 -0.022876667 -0.030506363
-0.032071713 -0.036657833 -0.025386168 -0.0052118422 -0.006980133 -0.041769855 -0.026299063 -0.0038054741
0.0072729127 0.006576677 0.024400191 0.004057503 0.017766438 0.028014855 0.007967875 0.07037056
0.028325116 0.0065769097 -0.010713429 0.066469386 0.029338324 0.055960875 0.03601626 0.041427717
0.0745951 0.039767776 0.04086023 0.019804092 0.0005681644 0.006013653 -0.022724696 -0.014684078
0.023178222 -0.021760017 0.0012349557 -3.7697115e-05 -0.014993399 -0.060186557 -0.042920362 -0.06995609
-0.053772185 -0.02795427 -0.08681762 -0.06465825 -0.054501392 -0.069324255 -0.04538614 -0.05078566
-0.038520273 -0.040478762 -0.04206965 -0.03674386 -0.028041465 -0.026625957 -0.058991566 -0.06426983
-0.043902107 -0.048382353 -0.042904258 -0.023523128 -0.03455124 -0.05122502 -0.0020329375 -0.045590013
0.079573326 0.06731107 0.08276881 0.09268822 0.054021206 0.0826545 0.079129 0.03278584
0.099593915 0.021509206 0.03758752 0.030678792 -0.003797745 0.019037249 0.015665917 0.022724202
0.016345493 0.046587817 0.0828986 0.023515834 0.07278236 0.050775312 -0.0012922005 0.04979811
0.07434663 0.038877457 0.06897194 0.019775417 -0.015915964 -0.02003761 -0.0012834192 -0.0037665227
-0.036398657 0.019452063 -0.0009586467 -0.005601024 0.0011738368 -0.011010852 0.0028998181 -0.0095107565
0.016931623 -0.017140564 0.010037296 -0.011407455 0.02059974 0.02360977 0.012431914 -0.0025534707
0.0034083992 -0.01911926 0.008359709 0.025746731 0.0068603074 -0.0067379912 0.051976684 0.035102684
0.037261054 0.01807371 0.008254101 0.007072496 0.023336744 -0.020588307 0.02331628 -0.059167314
-0.02890973 -0.018783655 -0.016827893 -0.025983755 -0.0023744106 -0.030843057 -0.020171618 -0.04222326
-0.059777316 -0.05154878 -0.018756194 -0.035645805 -0.011373092 -0.040510636 -0.054856904 -0.026107337
-0.016254988 -0.094359994 -0.05881262 -0.058006812 -0.06704949 -0.049221795 -0.07589949 -0.089076854
-0.062000677 -0.06511052 0.020675542 -0.0044555697 0.0005003998 -0.0037007893 -0.01718477 -0.0189835
-0.016097466 0.022137191 0.008292498 -0.053877596 -0.032500334 -0.049396086 -0.033325665 -0.011585571
-0.03171888 -0.04080736 -0.013411374 -0.054997433 0.07757584 0.018489977 0.053802274 0.08612519
0.027447047 0.049860444 0.06423425 0.041863747 0.05478591 -0.025990479 -0.0155430855 0.0030890328
0.016816083 -0.010600777 0.013111 0.013779604 0.004758227 0.0050477013 -0.021058336 -0.044473704
-0.005402671 -0.03187024 -0.021240719 -0.039636068 -0.04682799 -0.031316776 -0.03273554 -0.040179905
-0.029245611 -0.023200616 -0.04631259 -0.031067016 -0.03430248 -0.03355352 -0.016341422 -0.025447426
-0.010492461 0.021304827 0.008770169 -0.014683762 -0.04654011 -0.002352063 0.0019867136 -0.03179335
0.028418656 -0.08371694 -0.017479321 -0.015383921 -0.02557716 -0.00952992 -0.011584535 -0.033509996
-0.010687647 -0.007822016 0.02900195 0.014388522 0.021488113 0.04430075 0.025517985 0.017439919
0.03803015 0.04086557 0.018297762 0.033539515 0.050024018 0.042737376 0.002057358 0.045288835
0.020251794 0.03280887 0.03939856 0.04368311 -0.043601725 -0.030302214 -0.01967875 -0.0603771
00000000: 1c3f 35bd c659 51bd 2eac 35bd b11f 84bc
00000010: e8f5 c2bc 9a30 4abd d967 bbbc 7be8 f9bc
00000020: a15d 03bd 8626 16bd a7f6 cfbc 1ac8 aabb
00000030: 99b9 e4bb de16 2bbd 2271 d7bc 4365 79bb
00000040: 9d51 ee3b 2a81 d73b e9e2 c73c cdf4 843b
00000050: ec8a 913c 697f e53c b18b 023c 711e 903d
00000060: 130a e83c 1e83 d73b 6187 2fbc 1a21 883d
00000070: ed56 f03c 3b37 653d c985 133d 1cb0 293d
00000080: 51c5 983d 89e3 223d 0e5d 273d 313c a23c
00000090: def0 143a 2d0e c53b 2429 babc 7d95 70bc
000000a0: 41e0 bd3c 1042 b2bc 3dde a13a f81c 1eb8
000000b0: e0a6 75bc 2e86 76bd 43cd 2fbd 2345 8fbd
000000c0: 3940 5cbd 5a00 e5bc 70cd b1bd 8b6b 84bd
000000d0: da3c 5fbd e0f9 8dbd d1e6 39bd a004 50bd
000000e0: 6fc7 1dbd 0fcd 25bd 3a51 2cbd bb80 16bd
000000f0: 37b7 e5bc ae1e dabc 24a1 71bd e79f 83bd
00000100: b2d2 33bd 932c 46bd 60bc 2fbd 93b3 c0bc
00000110: 9a85 0dbd 54d1 51bd 083b 05bb 98bc 3abd
00000120: 57f7 a23d 63da 893d b282 a93d 52d3 bd3d
00000130: 5745 5d3d c346 a93d 630e a23d 724a 063d
00000140: e5f7 cb3d 1334 b03c 5ff5 193d 1752 fb3c
00000150: 97e3 78bb 01f4 9b3c cf55 803c 1b28 ba3c
00000160: fce6 853c ded2 3e3d bec6 a93d 47a4 c03c
00000170: eb0e 953d c6f9 4f3d 0e5f a9ba 1af9 4b3d
00000180: 0c43 983d f83d 1f3d 2941 8d3d 0e00 a23c
00000190: 3262 82bc ea25 a4bc 6738 a8ba c4d7 76bb
000001a0: c216 15bd ef59 9f3c b14d 7bba cb88 b7bb
000001b0: 6ddb 993a dc66 34bc e00a 3e3b 01d3 1bbc
000001c0: 30b4 8a3c 5e6a 8cbc 7973 243c 56e6 3abc
000001d0: c9c0 a83c 4769 c13c 3aaf 4b3c 2158 27bb
000001e0: 735f 5f3b ff9f 9cbc 29f7 083c cfea d23c
000001f0: 6ecc e03b 5eca dcbb 81e5 543d d5c7 0f3d
00000200: 0c9f 183d 510f 943c 353c 073c 66c0 e73b
00000210: b32c bf3c cfa8 a8bc c901 bf3c 6d59 72bd
00000220: 19d4 ecbc 2ee0 99bc a6da 89bc e2db d4bc
00000230: 009c 1bbb 94aa fcbc f33e a5bc 4cf2 2cbd
00000240: 0fd9 74bd d024 53bd 97a6 99bc 5601 12bd
00000250: 3556 3abc 7bee 25bd a2b1 60bd 0edf d5bc
00000260: 2e29 85bc d03f c1bd 80e5 70bd 8d98 6dbd
00000270: 3e51 89bd cb9c 49bd 3171 9bbd ed6d b6bd
00000280: 6cf4 7dbd aa58 85bd c15f a93c 0700 92bb
00000290: 432d 033a f188 72bb 13c7 8cbc 4983 9bbc
000002a0: d5de 83bc 0e59 b53c 42dd 073c c1ae 5cbd
000002b0: 121f 05bd 8d53 4abd 7e80 08bd 68d1 3dbc
000002c0: a8eb 01bd 9e25 27bd 61bb 5bbc fd44 61bd
000002d0: 15e0 9e3d 4b78 973c c65f 5c3d 6762 b03d
000002e0: a1d8 e03c 773a 4c3d 3f8d 833d 5279 2b3d
000002f0: 3167 603d fce9 d4bc 6da8 7ebc 5f71 4a3b
00000300: e2c1 893c e2ae 2dbc 85cf 563c d9c3 613c
00000310: e7ea 9b3b 3067 a53b 8882 acbc 0f2a 36bd
00000320: e408 b1bb 5e8a 02bd 0401 aebc 6e59 22bd
00000330: b5ce 3fbd 0546 00bd b415 06bd af93 24bd
00000340: 7e94 efbc 380f bebc 45b2 3dbd 4180 febc
00000350: c280 0cbd 6a6f 09bd 72de 85bc 1f77 d0bc
00000360: 92e8 2bbc 7687 ae3c c1b0 0f3c 2994 70bc
00000370: d8a0 3ebd 1225 1abb 8633 023b be39 02bd
00000380: 3ece e83c c973 abbd cb30 8fbc d70c 7cbc
00000390: 3187 d1bc 6223 1cbc 10cd 3dbc c741 09bd
000003a0: 3e1b 2fbc ea27 00bc 7f95 ed3c d6bd 6b3c
000003b0: d707 b03c b474 353d 180b d13c 29de 8e3c
000003c0: 81c5 1b3d a862 273d 30e5 953c bb60 093d
000003d0: fce5 4c3d 630d 2f3d bdd4 063b c980 393d
000003e0: 17e7 a53c 9862 063d 6260 213d 10ed 323d
000003f0: b997 32bd 593c f8bc 5435 a1bc fa4d 77bd

conv4.bias f4 [32]
-0.06635961 -0.027406972 -0.011749344 -0.009688234 0.04765116 -0.018891428 0.047476225 -0.04740262
0.002327322 0.022369128 0.049323667 0.024572155 0.025418786 0.004564089 -0.03348425 -0.05251801
-0.03967246 -0.011125678 0.0029003536 0.005066215 -0.026988328 0.00725031 -0.036715973 -0.039236095
-0.012606892 -0.066000536 -0.06167729 0.0027171578 0.047549378 -0.022740673 -0.024719425 0.012909839
00000000: 8ce7 87bd 9684 e0bc 5280 40bc 66bb 1ebc
00000010: dd2d 433d 32c2 9abc 6e76 423d 4029 42bd
00000020: fc85 183b 763f b73c 9d07 4a3d 8b4b c93c
00000030: 0f3b d03c 5a8e 953b c826 09bd 201d 57bd
00000040: 977f 22bd 7a48 36bc dc13 3e3b 7e02 a63b
00000050: a016 ddbc 0294 ed3b 7d63 16bd 07b6 20bd
00000060: 238d 4ebc 4a2b 87bd 53a1 7cbd 5812 323b
00000070: 23c3 423d a64a babc 6480 cabc ca83 533c

batch4.weight f4 [32]
1.8737144 1.2761507 1.8931917 0.8561774 1.854296 1.5014445 1.2756451 1.3092383
1.8928863 1.8760148 0.5677833 1.3953667 1.5238156 0.8290209 0.6722152 1.417205
1.318891 1.7904565 1.6553309 1.8466043 1.0511403 1.6456767 1.6752276 0.5275473
1.9788231 1.8942089 1.6081021 1.9966074 1.7250813 1.7313479 1.8146977 1.7962552
00000000: e0d5 ef3f e858 a33f 1b54 f23f 712e 5b3f
00000010: 9259 ed3f 552f c03f 5748 a33f 1f95 a73f
00000020: 194a f23f 4121 f03f 3f5a 113f 609b b23f
00000030: 640c c33f b73a 543f 4c16 2c3f f966 b53f
00000040: 6cd1 a83f ae2d e53f e2e1 d33f 885d ec3f
00000050: c48b 863f 89a5 d23f dc6d d63f 570d 073f
00000060: 134a fd3f 7075 f23f 4ad6 cd3f d590 ff3f
00000070: 77cf dc3f cf9c dd3f 0448 e83f b1eb e53f

batch4.bias f4 [32]
0.082940646 -0.032466568 -0.05806463 -0.22692594 0.015898956 -0.038760982 -0.12716371 -0.11602741
-0.034858845 -0.086672515 -0.44598383 -0.19825467 -0.021897148 -0.24783997 -0.38924813 -0.0071080355
-0.10154747 -0.046426795 -0.06409033 0.06406785 -0.16787814 -0.07272065 -0.15963049 -0.4444543
0.1104192 0.10958041 -0.031924535 -0.0059564426 -0.05029 -0.022250375 0.037577376 -0.060980853
00000000: c9dc a93d aafb 04bd 2dd5 6dbd 465f 68be
00000010: 873e 823c d6c3 1ebd 3437 02be c79f edbd
00000020: 26c8 0ebd 5c81 b1bd fe57 e4be 4603 4bbe
00000030: a661 b3bc c3c9 7dbe 884b c7be 86ea e8bb
00000040: 1ff8 cfbd 062a 3ebd ca41 83bd 0136 833d
00000050: 3fe8 2bbe 90ee 94bd 2d76 23be 848f e3be
00000060: 7623 e23d b26b e03d 4dc3 02bd 432e c3bb
00000070: e3fc 4dbd 6b46 b6bc bcea 193d 0fc7 79bd

lin1.weight f4 [5, 800]
-0.00034116334 0.0010660334 -0.003050844 0.006052053 -0.0078878 -0.011725035 -0.014632036 -0.0041719177
0.009349572 -0.012071867 -0.008184327 -0.012329449 0.0070631136 -0.003126132 -0.0069396063 -0.006354191
0.008607136 -0.0059579015 -0.016378574 0.0018394247 0.00067029515 0.00042680657 0.0016077901 0.0047490154
0.0041575683 -0.0041052317 -0.017522408 -0.0022031448 -0.00010853641 0.016417542 -0.0031531968 0.0007483513
0.00468986 -0.0017901802 0.013838043 0.007818733 0.0016801901 -0.003093151 0.018434668 0.002632001
-0.021344552 -0.00069194095 -0.0019909733 -0.010621843 -0.0053660832 -0.0052276365 0.0073471083 0.004209695
-0.0014520845 -0.003884737 -0.020535989 -0.01699184 0.00067864347 0.007771527 0.003088162 -0.002670414
-0.014644024 0.0064028045 -0.015456912 -0.0049359594 0.017094059 0.017950919 0.00333692 -0.0058325245
-0.009358667 0.009876668 0.008530231 -0.0034102714 -0.01062823 -0.0050731786 -0.002592993 -0.014246431
-0.004729759 0.009263897 -0.0039027175 -0.005032668 0.0055832504 -0.01771086 -0.00045673348 0.010783436
0.006640295 -0.016941968 0.0005880001 -0.0020842305 0.0016370614 0.005049855 -6.791454e-05 -0.00011822555
-0.003376749 -0.01529286 -0.0009040149 0.0080665555 0.0047810604 0.009477144 -0.0023462966 -0.0014109943
-0.00710454 0.017498987 -0.0066384515 0.013486183 0.003865125 -0.01614039 0.00069945795 -0.010212622
-0.000800319 -0.00021931606 0.007261933 -0.011429172 0.0012177315 -0.019461468 0.020371716 0.0020342674
-0.008347285 -0.004823178 -0.0010978499 0.0048902472 -0.011960575 0.004683763 0.010742315 -0.006167195
-0.0036454077 -0.0019989538 5.295155e-05 -0.0054381974 -0.015195841 0.0031915794 0.000271192 -0.016423546
-0.0053843204 -0.003203277 0.01564329 -0.008680611 -0.015476322 0.017994964 -0.003904693 -0.0014806929
0.0045266044 -0.0059292936 0.00014895413 -0.013512414 -0.0017225787 -0.0009936261 -0.012780139 0.00015715984
-0.0003329054 0.0076575116 -0.016857896 0.0120949 -0.002408484 0.0017034493 0.0051534013 -0.009546857
0.0068014436 -0.004633988 0.0017881504 0.013778182 -0.003339302 0.004205607 0.012654879 -0.0022394082
0.0032286088 -0.00040326224 0.0034981458 -0.00011009646 -0.007913222 0.003607079 -0.0019550526 0.00868144
-0.004562856 0.009165601 0.013025841 -0.010265166 0.015443141 -0.011276339 0.0038679752 -0.0062356624
-0.01597506 -0.0044424445 0.0023911688 -0.0055202506 -0.014808693 -0.008522753 -0.0015786246 -0.0017313188
-0.0031998286 -0.013493509 0.0075521306 -0.0090794545 0.0015081856 0.014768877 -0.0025999579 0.0082296515
0.008084973 -0.012676924 -0.0051871743 -0.009398037 -0.0012764945 0.0034064704 -0.0026558035 -0.0005987545
0.0006770212 -0.0028110894 -0.007554999 0.00049160456 -0.0066076564 0.0036777938 -0.010727733 -0.006086368
-0.00847821 -0.013091252 0.023623075 0.0028635946 -0.0029430636 0.000712647 0.018956682 -0.0032509537
0.0127011 -0.014874717 -0.006741311 0.021620687 -0.0072431252 -0.0017954273 -0.0053680805 -0.008173502
-0.0024107299 0.011394734 0.003342694 0.01392644 -0.0036097735 0.0052186153 -0.0066232886 -0.007286492
0.003263737 0.009777011 0.007594884 -0.012977606 -0.009904967 -0.0021182764 -0.009181993 -0.017487494
-0.010344337 0.0124777695 0.010301139 -0.00067651266 -0.006737649 -0.008748762 -0.0006478284 0.0070235156
0.009074838 0.004110794 -0.010430795 0.008726519 -0.018934656 -0.008033085 -0.0048152967 0.001776694
00000000: 2bde b2b9 25ba 8b3a abf0 47bb 4d50 c63b
00000010: d53b 01bc 5c1a 40bc 35bb 6fbc 95b4 88bb
00000020: f22e 193c 14c9 45bc 8e17 06bc 7501 4abc
00000030: b171 e73b cbdf 4cbb a365 e3bb d136 d0bb
00000040: f204 0d3c 803a c3bb 5c2c 86bc da18 f13a
00000050: bfb6 2f3a 02c5 df39 7cbc d23a a19d 9b3b
00000060: 363c 883b 2e85 86bb 278b 8fbc a362 10bb
00000070: 0b9e e3b8 157e 863c dda5 4ebb 012d 443a
00000080: 66ad 993b 7ba4 eaba f6b8 623c 251a 003c
00000090: d339 dc3a 76b6 4abb 4d04 973c a67d 2c3b
000000a0: c5da aebc 5f63 35ba fd7a 02bb 3d07 2ebc
000000b0: f8d5 afbb 984c abbb 03c0 f03b 7bf1 893b
000000c0: df53 beba 1297 7ebb 173b a8bc 7932 8bbc
000000d0: fee6 313a 4ba8 fe3b c362 4a3b 1d02 2fbb
000000e0: 7ded 6fbc 9ece d13b fd3e 7dbc d4bd a1bb
000000f0: d708 8c3c ce0d 933c 3ab0 5a3b c31e bfbb
00000100: 1855 19bc c0d1 213c 62c2 0b3c dc7e 5fbb
00000110: 0722 2ebc e83c a6bb 34ef 29bb dd69 69bc
00000120: 18fc 9abb 9ac7 173c bcc4 7fbb 14e9 a4bb
00000130: b3f3 b63b 5e16 91bc bb75 efb9 02ad 303c
00000140: d596 d93b e2c9 8abc 0524 1a3a 9697 08bb
00000150: aa92 d63a 4179 a53b 576d 8eb8 dcef f7b8
00000160: 734c 5dbb e78e 7abc 6afb 6cba 9629 043c
00000170: 71aa 9c3b 0646 1b3c 53c4 19bb 1df1 b8ba
00000180: 33cd e8bb 095a 8f3c 5e87 d9bb 27f5 5c3c
00000190: 094e 7d3b da38 84bc d45b 373a d752 27bc
000001a0: 80cc 51ba 35f8 65b9 82f5 ed3b 6c41 3bbc
000001b0: 4a9c 9f3a a86d 9fbc 96e2 a63c 5851 053b
000001c0: 0dc3 08bc c00b 9ebb bbe5 8fba 5e3e a03b
000001d0: 4af6 43bc 407a 993b 8900 303c 2e16 cabb
000001e0: cbe7 6ebb e100 03bb 4b18 5e38 e832 b2bb
000001f0: faf7 78bc d129 513b c62e 8e39 ac8a 86bc
00000200: f46e b0bb 12ee 51bb 5b26 803c 1f39 0ebc
00000210: 6690 7dbc 2d6a 933c e1e5 7fbb cf13 c2ba
00000220: e953 943b 854a c2bb 9230 1c39 2c63 5dbc
00000230: 26c8 e1ba 8f3c 82ba ca63 51bc 46cb 2439
00000240: ce89 aeb9 ddeb fa3b 9219 8abc b029 463c
00000250: a8d7 1dbb 4646 df3a dddd a83b 6c6a 1cbc
00000260: a5de de3b b5d8 97bb 5f60 ea3a e2bd 613c
00000270: 31d8 5abb 30cf 893b 6956 4f3c 09c3 12bb
00000280: 1197 533b f16c d3b9 2641 653b 96e3 e6b8
00000290: 75a6 01bc be64 6c3b 5720 00bb 993c 0e3c
000002a0: 0384 95bb 512b 163c 566a 553c 3a2f 28bc
000002b0: 3a05 7d3c 65c0 38bc db7d 7d3b 8754 ccbb
000002c0: 21de 82bc ed91 91bb 28b5 1c3b 38e3 b4bb
000002d0: 29a0 72bc 04a3 0bbc dae9 ceba 6bed e2ba
000002e0: 37b4 51bb e113 5dbc dd77 f73b fec1 14bc
000002f0: 50ae c53a 29f9 713c 0e64 2abb a9d5 063c
00000300: d676 043c dfb2 4fbc 2cf9 a9bb 39fa 19bc
00000310: 0c50 a7ba 173f 5f3b fd0c 2ebb bcf5 1cba
00000320: 207a 313a 413a 38bb ed8f f7bb 06df 003a
00000330: 0a85 d8bb 2407 713b 60c3 2fbc 2870 c7bb
00000340: 31e8 0abc b17c 56bc 2e85 c13c 25ab 3b3b
00000350: 6ae0 40bb eed0 3a3a 0b4b 9b3c f40d 55bb
00000360: 4618 503c 16b5 73bc 37e6 dcbb de1d b13c
00000370: bd57 edbb 8b54 ebba b9e6 afbb 27ea 05bc
00000380: 56fd 1dbb fab0 3a3c 1911 5b3b b92b 643c
00000390: f391 6cbb eb00 ab3b 2c08 d9bb 86c3 eebb
000003a0: 6ce4 553b c22f 203c 81de f83b 06a0 54bc
000003b0: 7148 22bc c8d2 0abb 1270 16bc ef41 8fbc
000003c0: 4b7b 29bc 8f6f 4c3c 1cc6 283c ff57 31ba
000003d0: 7fc7 dcbb f856 0fbc 07d3 29ba 8525 e63b
000003e0: a1ae 143c d7b3 863b ede5 2abc acf9 0e3c
000003f0: da1c 9bbc 339d 03bc a3c9 9dbb f5df e83a

lin1.bias f4 [5]
-0.016791485 -0.009718972 -0.020822104 -0.00984111 -0.01409323
00000000: 4c8e 89bc 533c 1fbc 1e93 aabc 9b3c 21bc
00000010: 4ae7 66bc

exp_avg f4 [32, 3, 3, 3]
0.035606466 0.03529404 0.017563632 0.046256434 0.040516157 0.027891465 0.048329353 0.04857516
0.039346278 0.021418402 0.01524707 0.013648363 0.03512123 0.025822043 0.023150839 0.038860925
0.035922635 0.02849484 0.0070632114 -0.0028769332 -0.004788596 0.008350911 -0.0016777095 0.002140127
0.014997161 0.0110684065 0.0131271565 -0.011415466 -0.015727837 -0.02319708 -0.013619976 -0.014071541
-0.020696338 -0.014668563 -0.011918891 -0.013194876 -0.0063626627 -0.0063609076 -0.013158404 -0.007862926
-0.0032220732 -0.007816028 -0.009501728 -0.006912439 -0.0049458947 -0.009170636 -0.009254539 -0.019885698
-0.013584293 -0.010371863 -0.02000338 -0.014835916 -0.013792704 -0.013984214 0.013389864 0.016257979
0.028243372 0.009619971 0.0124988705 0.019727897 0.0034994646 -0.0014423102 0.01974042 0.022853699
0.028183624 0.037974104 0.016990433 0.016726956 0.024460336 0.0145789245 0.007493863 0.021455277
0.020453675 0.023459844 0.03329142 0.020269841 0.018011764 0.02364384 0.021212285 0.016279785
0.023254555 -0.0041553266 -0.009117 -0.0140343 -0.016418492 -0.014874552 -0.013299889 -0.024582502
-0.023525704 -0.017994776 -0.007944105 -0.009272374 -0.018589929 -0.010399408 -0.00830822 -0.012559451
-0.010578382 -0.009409197 -0.0125849685 -0.00089063315 -0.0036559359 -0.011400445 0.0014262631 -0.0012729944
-0.008865947 0.0026039756 -0.0046404214 -0.009178396 -0.07969366 -0.08981709 -0.086383484 -0.06485153
-0.06984751 -0.06713542 -0.060883004 -0.055351604 -0.06343516 -0.0762145 -0.09521132 -0.10286754
-0.06507567 -0.07373979 -0.07994755 -0.056476668 -0.055977475 -0.07411886 -0.054211415 -0.07033674
-0.07600606 -0.044303637 -0.053764675 -0.06463945 -0.040791757 -0.05063623 -0.06405 0.030521285
0.022577416 0.017969223 0.036903247 0.0403445 0.043916166 0.03708365 0.046953473 0.048218824
0.037731644 0.02786244 0.01817812 0.034727328 0.036789916 0.037629537 0.031622496 0.040174987
0.041123357 0.039676987 0.03096747 0.021822302 0.038316216 0.038586363 0.04576832 0.036254272
0.038462386 0.04101449 -0.002164312 -0.000883253 -0.005397285 -0.008688505 -0.009644747 2.7304863e-05
0.010866106 0.019756973 0.021171471 0.009940984 0.0065025045 0.006196213 0.0012166156 0.0036991797
0.013239475 0.014983365 0.019117763 0.024567006 0.023955323 0.023584215 0.017687334 0.0049208836
0.010121242 0.02137407 0.015879951 0.021964455 0.033477522 -0.02651778 -0.01749208 -0.015678758
-0.028279347 -0.015217918 -0.020454384 -0.031281024 -0.017800067 -0.019493215 -0.020084899 -0.0019462149
-0.0089590745 -0.021745462 -0.0018370734 -0.0084076645 -0.029709237 -0.0124076195 -0.013044616 -0.034651663
-0.013136066 -0.020067403 -0.034659516 -0.012664711 -0.021968663 -0.03695924 -0.016317198 -0.01611517
0.0049518333 0.001957493 -0.009595906 0.01491098 0.0053953878 0.004797197 0.016946016 0.01651006
0.006854787 0.01616504 0.00646326 0.0011149148 0.012771759 0.0018191691 0.013506417 0.008457124
0.007394634 0.0028676896 0.018932946 0.013158832 0.0074667 0.01522261 0.006407771 0.016465932
0.01256434 0.015478501 0.005939245 0.015401565 0.0137847755 0.011567971 0.0134943 0.014748655
0.013166385 0.018785074 0.02391423 0.017533207 0.021718113 0.017724384 0.010714164 0.017628675
00000000: 16d8 113d 7c90 103d 9be1 8f3c 6377 3d3d
00000010: 45f4 253d a47c e43c 00f5 453d bff6 463d
00000020: 9029 213d a575 af3c d9ce 793c 629d 5f3c
00000030: 47db 0f3d c088 d33c d4a6 bd3c a22c 1f3d
00000040: 9d23 133d 036e e93c 8372 e73b ee8a 3cbb
00000050: a8e9 9cbb 42d2 083c 97e6 dbba 5f41 0c3b
00000060: a7b6 753c 4358 353c 4913 573c ef07 3bbc
00000070: aad7 80bc cd07 bebc 5226 5fbc 528c 66bc
00000080: 5e8b a9bc 6a54 70bc 7447 43bc 522f 58bc
00000090: e27d d0bb 296f d0bb 5996 57bc 81d3 00bc
000000a0: 6b29 53bb cc0e 00bc 23ad 1bbc be81 e2bb
000000b0: 2c11 a2bb 6f40 16bc 5aa0 17bc 55e7 a2bc
000000c0: a890 5ebc bfee 29bc 21de a3bc 5812 73bc
000000d0: cbfa 61bc 0b1e 65bc 2961 5b3c 742f 853c
000000e0: a55e e73c 159d 1d3c 10c8 4c3c 669c a13c
000000f0: 4657 653b e60b bdba a9b6 a13c ae37 bb3c
00000100: 58e1 e63c bc8a 1b3d 852f 8b3c f806 893c
00000110: 0b61 c83c 71dc 6e3c 148f f53b fac2 af3c
00000120: 778e a73c dc2e c03c 965c 083d f00c a63c
00000130: 688d 933c bab0 c13c 63c5 ad3c 2f5d 853c
00000140: 5680 be3c 6829 88bb 785f 15bc 1ff0 65bc
00000150: 1380 86bc 65b4 73bc c7e7 59bc 3e61 c9bc
00000160: fab8 c0bc c869 93bc fe27 02bc 28eb 17bc
00000170: e849 98bc 4762 2abc 331f 08bc 28c6 4dbc
00000180: f350 2dbc 0829 1abc 2f31 4ebc 6179 69ba
00000190: 6d98 6fbb efc8 3abc 73f1 ba3a 9bda a6ba
000001a0: 7a42 11bc 76a7 2a3b ad0e 98bb fc60 16bc
000001b0: 6e36 a3bd 06f2 b7bd d3e9 b0bd e1d0 84bd
000001c0: 360c 8fbd 4c7e 89bd 7560 79bd 5db8 62bd
000001d0: 4bea 81bd 5916 9cbd 27fe c2bd 38ac d2bd
000001e0: 6546 85bd e304 97bd 8bbb a3bd 1454 67bd
000001f0: a348 65bd a1cb 97bd ca0c 5ebd b50c 90bd
00000200: 11a9 9bbd bb77 35bd 5938 5cbd b061 84bd
00000210: 4215 27bd ef67 4fbd a52c 83bd c607 fa3c
00000220: 46f4 b83c 3134 933c dc27 173d 4640 253d
00000230: 70e1 333d 06e5 173d 4952 403d 1a81 453d
00000240: 7f8c 1a3d c63f e43c 48ea 943c 3e3e 0e3d
00000250: 06b1 163d 6e21 1a3d 9786 013d 878e 243d
00000260: f770 283d 5684 223d 7eaf fd3c afc4 b23c
00000270: 77f1 1c3d bc0c 1e3d 9077 3b3d 5c7f 143d
00000280: bc8a 1d3d cffe 273d 21d7 0dbb 1b8a 67ba
00000290: b5db b0bb 3b5a 0ebc 0005 1ebc bf0c e537
000002a0: c007 323c 60d9 a13c cb6f ad3c 82df 223c
000002b0: f612 d53b 9a09 cb3b d876 9f3a f06d 723b
000002c0: 62ea 583c ca7c 753c db9c 9c3c bf40 c93c
000002d0: f43d c43c af33 c13c 07e5 903c 5d3f a13b
000002e0: 91d3 253c ac18 af3c ac16 823c cdee b33c
000002f0: ba1f 093d d13b d9bc 8d4b 8fbc bd70 80bc
00000300: 17aa e7bc 9354 79bc f48f a7bc 8820 00bd
00000310: 72d1 91bc 3cb0 9fbc 1689 a4bc 2318 ffba
00000320: 15c9 12bc 8a23 b2bc f4c9 f0ba 4dc0 09bc
00000330: c960 f3bc 5449 4bbc 16b9 55bc e7ee 0dbd
00000340: a738 57bc 6564 a4bc 23f7 0dbd a67f 4fbc
00000350: a0f7 b3bc 9262 17bd a5ab 85bc f603 84bc
00000360: fd42 a23b 4849 003b 2638 1dbc 2f4d 743c
00000370: cbcb b03b ce31 9d3b 5fd2 8a3c 1b40 873c
00000380: 1f9e e03b 8c6c 843c c1c9 d33b 5522 923a
00000390: a440 513c 3071 ee3a 054a 5d3c c08f 0a3c
000003a0: b04e f23b d9ef 3b3b 4419 9b3c 2498 573c
000003b0: 38ab f43b 4168 793c 47f8 d13b 90e3 863c
000003c0: a9da 4d3c 8a99 7d3c 009e c23b d856 7c3c
000003d0: 8ad9 613c 9687 3d3c 3217 5d3c 58a4 713c
000003e0: d2b7 573c 28e3 993c c6e7 c33c cda1 8f3c
000003f0: 2fea b13c ba32 913c 768a 2f3c 036a 903c
