results_auto/01_domain_adaptation/maml_supervised/June/officehome_maml_order_2_seed_0_shots_1_ways_5_meta-lr_0.0001_dropout_0.2_RandAugment-prob_0.5_datetime_11_06_2021_09_41_05/intermediate_29000_model.pt (torch, 412181 bytes, 54 tensors)

conv1.weight f4 [32, 3, 3, 3]
0.004962561 0.104260795 -0.16015628 -0.1402736 -0.07039195 0.05616933 0.018576715 0.17100269
-0.0013510071 0.04525306 -0.069985054 -0.04393287 -0.20779002 -0.14411983 -0.08518053 0.01594776
0.08691157 0.12625013 -0.15262042 -0.10875243 0.0638329 0.14393233 -0.05826435 0.13376088
-0.008977021 0.029232267 0.18656632 -0.17584394 -0.11160902 -0.036094017 -0.05070868 0.18828565
-0.11402311 -0.052836526 -0.10601179 -0.16397782 -0.10589329 0.18301938 0.09920665 0.11730236
0.038362492 -0.08715771 0.06629985 -0.15711296 -0.13606407 -0.114699855 0.13423893 0.12025708
-0.0765875 0.017265795 0.13310426 0.22157001 0.10449268 0.033645116 0.168684 -0.10899292
0.029896691 -0.114217415 -0.11921951 -0.10543106 0.10521062 0.08027687 -0.11731781 0.07880789
0.08509594 -0.04741234 0.025160778 0.028904913 0.09721329 0.18897878 -0.15613168 -0.09067776
0.09047919 0.14119063 0.13198912 0.1536375 0.011656544 -0.19967832 0.0007527917 -0.16822904
-0.23068292 0.17611416 0.16779175 -0.13563824 0.015340922 -0.050959155 0.00045480346 -0.09369878
0.05635734 -0.10134905 0.07476058 0.123968236 0.20221464 0.042953644 -0.20715107 -0.091787465
0.08153037 0.01709692 -0.13757935 -0.08227162 0.22937962 0.21861422 -0.092427224 -0.049947552
-0.11898381 -0.009992616 -0.14583766 -0.10193516 0.023692861 0.01260818 -0.07298425 0.15578993
-0.10972935 0.21204259 0.15378098 -0.18458027 -0.035152216 0.0014897998 -0.00953598 0.043571666
0.10066158 -0.0028705837 -0.051423937 0.08631945 -0.22524865 -0.10195224 -0.019604422 -0.09165198
-0.025341019 -0.072835065 0.010422652 0.11043751 -0.08434388 -0.0321541 0.15398566 -0.035342705
-0.005011453 -0.033293113 0.028127512 0.13991247 0.20689242 0.13313127 0.19831538 -0.020491783
-0.17664707 -0.07848157 0.1572485 -0.0173423 -0.0824251 -0.11731613 -0.18235047 -0.1563075
-0.04293624 0.1214792 0.122743666 -0.18477175 0.12568201 -0.13315107 -0.019933185 -0.051696148
-0.01451415 -0.039971516 -0.18007126 -0.15601838 -0.0055006114 0.0039593056 -0.09021881 0.10055939
-0.1660174 -0.0045368103 0.18969974 -0.07949038 0.16792111 0.08411784 -0.164016 0.13450824
0.0016027662 -0.074481875 0.17365618 -0.14762957 -0.001403614 -0.042276584 0.15191877 0.060151223
0.10755608 0.091191895 -0.040080935 -0.03039071 -0.16500087 0.1349131 0.18495941 0.15296742
-0.16514534 -0.01574879 -0.14009312 -0.09146201 -0.10932544 0.08839884 -0.10437004 0.0055299173
0.023179296 0.096679926 -0.16356704 -0.13341963 -0.09548792 0.14464615 -0.04599464 0.1738366
0.07279058 0.04476164 -0.022549568 -0.06368904 0.014221074 -0.029909624 -0.0034835194 0.02716028
-0.15653814 -0.11044869 0.17271087 -0.1616889 0.0013069884 0.20652747 0.060534354 0.026097465
-0.15921736 0.118540026 -0.15784156 -0.051494814 -0.06576431 -0.036026236 -0.010812488 0.15478072
0.04031856 0.15291804 0.11538251 -0.15636663 0.07842759 -0.15050688 -0.10190374 0.03720906
0.05655228 0.15232149 -0.06946769 0.025973292 0.09659921 -0.17392825 0.19547057 -0.13732252
0.040898237 0.006363325 -0.05770915 0.082379125 0.16189988 -0.07796932 -0.12590905 -0.053327207
00000000: fb9c a23b af86 d53d 0200 24be e2a3 0fbe
00000010: a829 90bd d011 663d 322e 983c 541b 2f3e
00000020: 4714 b1ba 465b 393d 5354 8fbd f4f2 33bd
00000030: e8c6 54be 2694 13be 2173 aebd e0a4 823c
00000040: b1fe b13d b747 013e 8748 1cbe 98b9 debd
00000050: d3ba 823d ff62 133e 99a6 6ebd 9df8 083e
00000060: 5b14 13bc 8278 ef3c 3e0b 3f3e 6f10 34be
00000070: 4593 e4bd 52d7 13bd e8b3 4fbd f4cd 403e
00000080: f384 e9bd 1d6b 58bd b61c d9bd cde9 27be
00000090: 95de d8bd 6f69 3b3e db2c cb3d 383c f03d
000000a0: fd21 1d3d be7f b2bd 37c8 873d 38e2 20be
000000b0: 6154 0bbe c2e7 eabd ee75 093e 5849 f63d
000000c0: e8d9 9cbd ff70 8d3c 7c4c 083e 40e3 623e
000000d0: 4200 d63d 76cf 093d 80bb 2c3e ae37 dfbd
000000e0: e8e9 f43c d2ea e9bd 5c29 f4bd 3dec d7bd
000000f0: aa78 d73d 3368 a43d 5244 f0bd 0866 a13d
00000100: c846 ae3d 7133 42bd fa1d ce3c ffc9 ec3c
00000110: c317 c73d a783 413e fce0 1fbe 43b5 b9bd
00000120: 274d b93d 4794 103e 2828 073e 2653 1d3e
00000130: 17fb 3e3c 7978 4cbe ff56 453a 3c44 2cbe
00000140: 2538 6cbe 4557 343e 9ad1 2b3e c0e4 0abe
00000150: 7e58 7b3c 8cba 50bd b072 ee39 25e5 bfbd
00000160: f4d6 663d 1790 cfbd 131c 993d 0fe3 fd3d
00000170: 5b11 4f3e 29f0 2f3d 691f 54be 11fb bbbd
00000180: 65f9 a63d d70e 8c3c 9ae1 0cbe 067e a8bd
00000190: 7ee2 6a3e 68dc 5f3e 7c4a bdbd ce95 4cbd
000001a0: c9ad f3bd 12b8 23bc 7856 15be 62c3 d0bd
000001b0: 8817 c23c 8a92 4e3c c478 95bd 6587 1f3e
000001c0: c8b9 e0bd b121 593e c378 1d3e 9c02 3dbe
000001d0: c5fb 0fbd 6345 c33a cd3c 1cbc 3478 323d
000001e0: a927 ce3d 6720 3cbb e8a1 52bd 40c8 b03d
000001f0: 95a7 66be 56cc d0bd 7499 a0bc 09b4 bbbd
00000200: f897 cfbc 8d2a 95bd c5c3 2a3c 102d e23d
00000210: 7cbc acbd 04b4 03bd 6bae 1d3e 83c3 10bd
00000220: 1d37 a4bb 5c5e 08bd ab6b e63c 3745 0f3e
00000230: 9bdb 533e 9053 083e 3013 4b3e 62de a7bc
00000240: f8e2 34be f2ba a0bd c005 213e 7011 8ebc
00000250: 7ece a8bd 7043 f0bd 15ba 3abe 130f 20be
00000260: e9dd 2fbd 16ca f83d 0861 fb3d ce34 3dbe
00000270: c9b2 003e c158 08be eb4a a3bc 57bf 53bd
00000280: c2cc 6dbc 2cb9 23bd 9a64 38be 48c3 1fbe
00000290: 793e b4bb 10bd 813b a4c4 b8bd 15f2 cd3d
000002a0: 7700 2abe 86a9 94bb a640 423e dacb a2bd
000002b0: 83f3 2b3e f945 ac3d cff3 27be 87bc 093e
000002c0: e913 d23a f489 98bd edd2 313e 352c 17be
000002d0: 78f9 b7ba 362a 2dbd 9890 1b3e 2161 763d
000002e0: 5d46 dc3d d1c2 ba3d e82b 24bd f0f5 f8bc
000002f0: fdf5 28be a926 0a3e 0066 3d3e 7ea3 1c3e
00000300: dc1b 29be 9b03 81bc 9274 0fbe 6f50 bbbd
00000310: 04e6 dfbd 730a b53d f6bf d5bd 4f34 b53b
00000320: 82e2 bd3c 2000 c63d 1e7e 27be 289f 08be
00000330: 2c8f c3bd 1f1e 143e e064 3cbd 3902 323e
00000340: 3a13 953d fb57 373d dfb9 b8bc 666f 82bd
00000350: 82ff 683c 0705 f5bc c24b 64bb 3c7f de3c
00000360: 894b 20be ec32 e2bd 1edb 303e c691 25be
00000370: 414f ab3a f07b 533e dff2 773d 5aca d53c
00000380: e009 23be 1dc5 f23d 38a1 21be 3aec 52bd
00000390: 70af 86bd 3f90 13bd dd26 31bc d67e 1e3e
000003a0: 1325 253d 8c96 1c3e aa4d ec3d 931e 20be
000003b0: a59e a03d 7a1e 1abe e8b2 d0bd 8768 183d
000003c0: 5da3 673d 2afa 1b3e 1445 8ebd f1c5 d43c
000003d0: ced5 c53d 3f1a 32be 7029 483e 469e 0cbe
000003e0: e984 273d 7083 d03b 6e60 6cbd 63b6 a83d
000003f0: 15c9 253e 61ae 9fbd 4dee 00be a16d 5abd

conv1.bias f4 [32]
0.21926604 -0.059842497 -0.01179748 -0.06631846 -0.038909595 0.059879027 0.015405307 -0.059270192
-0.19102922 0.036494453 -0.012438113 0.034957115 0.16106401 0.1650277 -0.11186043 -0.0065817856
-0.061196264 -0.1976535 -0.14219993 0.17869996 0.099754155 0.13852221 0.102123834 -0.1587554
0.014722128 0.17431232 -0.09715935 0.17117707 0.06609204 0.15790692 -0.064585 0.09481997
00000000: 4787 603e 681d 75bd 384a 41bc f9d1 87bd
00000010: ab5f 1fbd b643 753d 8a66 7c3c 4dc5 72bd
00000020: 2a9d 43be 357b 153d 3ac9 4bbc 312f 0f3d
00000030: f7ed 243e 05fd 283e 1517 e5bd 05ac d7bb
00000040: efa8 7abd ae65 4abe dc9c 11be 1ffd 363e
00000050: e84b cc3d c4d8 0d3e 4d26 d13d c790 22be
00000060: 1535 713c ee7e 323e 7bfb c6bd 0b49 2f3e
00000070: 435b 873d 5ab2 213e 2445 84bd f930 c23d

batch1.weight f4 [32]
1.1091899 0.9639333 1.0462084 1.0272914 0.9746309 0.95951194 1.0526942 1.0857091
1.079142 1.0341719 0.96784055 0.9778122 0.93113714 0.9726488 0.8982959 0.9686117
0.9872589 0.9322594 0.9320886 0.95757055 0.89622754 1.0512706 1.0178766 1.0643759
1.0097665 1.0158752 1.0125065 1.0691183 1.0705796 1.0197796 0.9764478 0.94176054
00000000: eff9 8d3f 55c4 763f 28ea 853f 497e 833f
00000010: 6981 793f 93a2 753f afbe 863f 84f8 8a3f
00000020: 5321 8a3f bf5f 843f 66c4 773f e651 7a3f
00000030: 015f 6e3f 83ff 783f b8f6 653f f0f6 773f
00000040: 00bd 7c3f 8da8 6e3f 5c9d 6e3f 5823 753f
00000050: 2b6f 653f 0990 863f c849 823f 783d 883f
00000060: 0740 813f 3308 823f d099 813f ded8 883f
00000070: c108 893f 2388 823f 7cf8 793f 3817 713f

batch1.bias f4 [32]
0.15270314 -0.03203288 0.12621224 0.021090124 -0.03151752 -0.016221682 -0.04855025 0.06350332
0.036081742 0.03542289 -0.060524676 0.12374843 -0.059489824 0.054265834 0.0034217956 0.00029157288
-0.031855475 -0.09541197 -0.087743275 -0.05911161 -0.124413304 0.048147473 0.021880161 0.21115123
0.008094432 -0.088621184 -0.029304331 0.047326006 -0.0314755 0.08683452 -0.053348232 -0.1255534
00000000: 365e 1c3e e934 03bd c83d 013e 32c5 ac3c
00000010: 8418 01bd 55e3 84bc a0dc 46bd 070e 823d
00000020: 73ca 133d 9817 113d b9e8 77bd d16f fd3d
00000030: 9aab 73bd da45 5e3d 3440 603b 40de 9839
00000040: e37a 02bd 5a67 c3bd bfb2 b3bd 041f 72bd
00000050: 67cc febd 4936 453d 063e b33c 0738 583e
00000060: 829e 043c 067f b5bd a30f f0bc ead8 413d
00000070: 74ec 00bd 4cd6 b13d ad83 5abd 1291 00be

conv2.weight f4 [32, 32, 3, 3]
-0.14357078 -0.004408152 -0.0066096396 0.03361241 0.06593839 0.05050926 0.054067522 0.050081592
0.035245568 -0.04037195 -0.045159455 0.005443209 -0.038123723 -0.020321134 0.06581287 -0.017649252
0.004134413 -0.017079236 0.043612193 0.05627731 -0.03909357 -0.047988005 0.06722747 0.048449785
0.03984837 -0.037353687 -0.0844742 0.055520117 0.018061535 -0.071700335 -0.021977397 -0.057379775
0.01293649 0.05017274 0.04568966 -0.1041218 -0.05016723 0.034645602 0.0057018194 0.009300709
0.017208831 -0.026286662 -0.0035664432 -0.045820355 -0.019047791 -0.024020664 -0.016638257 -0.0011418124
-0.055291343 -0.040356625 -0.071286604 -0.04610283 0.040694825 0.009469243 -0.06438333 -0.034744356
-0.031204302 -0.09118176 0.041985884 0.07026143 0.04287653 -0.014283002 0.030946655 0.016003296
-0.100760326 0.017489335 -0.015379565 -0.06676563 -0.100258015 0.0003382056 0.030956782 -0.0007755218
-0.072220854 0.023675244 0.019610273 0.004065133 0.08439465 0.029713167 -0.08656253 -0.00571171
0.035630956 0.04968073 -0.05379066 0.0263733 -0.068306945 -0.048280828 0.016137978 -0.06332996
0.029693175 -0.04707289 -0.039589014 -0.011752319 -0.027268765 0.037137225 0.032022048 0.04858807
-0.010646501 -0.0138271805 0.026035992 -0.0038002306 0.0081536025 -0.01788553 -0.0011273157 0.020080812
-0.0009456996 -0.05961438 0.019531611 -0.027174212 0.005659886 0.059314765 -0.024981057 -0.039883666
0.009507421 4.5539273e-05 0.0087414365 0.03678173 0.03893054 -0.011257321 -0.0020973084 0.030046845
0.059175257 -0.015085335 -0.043045115 -0.0031064425 0.030748634 -0.011417679 -0.024228394 0.04660158
-0.0024739532 -0.07345709 -0.049688905 0.00870273 -0.01872801 0.045953255 0.047594484 0.015748879
0.018065846 -0.0027951708 -0.042700734 0.026952019 -0.03703673 -0.042938974 -0.045518428 0.048973937
-0.05477405 0.09178873 0.021804688 -0.045563206 0.024414852 0.004965228 0.01700613 0.032719497
-0.11281704 0.04303299 -0.01859934 -0.0586104 0.021795867 0.06524553 -0.024438621 -0.020943202
0.04719275 0.062347274 0.06999783 -0.009434347 -0.011041878 0.03896406 0.01670952 0.047897127
-0.03642428 -0.042172533 -0.019185232 -0.028607478 0.04512898 0.08387623 0.0009242757 -0.043702304
0.013440329 -0.051018227 0.068464346 -0.029010031 -0.034093134 -0.022524744 0.05159636 -0.0060248403
0.05251956 -0.022666104 0.005756807 0.034127332 0.035515487 0.043412805 0.055222023 -0.031234458
-0.030668257 -0.08447093 -0.05223657 0.06296097 -0.009455363 0.067318246 -0.009664589 -0.046562888
0.0049152183 -0.06039605 0.017612591 0.026456004 -0.0065679043 0.0066506416 0.032459315 0.02628692
-0.028024437 0.012945773 -0.03507905 -0.022869717 0.07236402 0.0064693657 0.029780498 -0.076360986
-0.0314669 0.042588077 -0.03219702 -0.051261213 0.016122924 -0.06760545 -0.045663945 -0.030774426
0.04412473 -0.033355907 -0.047072403 0.03125489 -0.0361442 0.029652027 0.016587662 -0.042512767
0.051362798 -0.021812951 -0.07274913 -0.017163675 0.008646997 0.061414503 -0.002201217 -0.017116686
-0.0035834233 -0.0021532597 0.04962824 -0.075891614 -0.03456767 0.057430744 -0.0139852 -0.007822221
0.028648032 -0.055611763 0.022193583 -0.053496104 -0.0059083146 0.0014498252 0.016950488 -0.068691336
00000000: 3804 13be 4272 90bb ad95 d8bb 2bad 093d
00000010: b50a 873d cce2 4e3d e875 5d3d 5b22 4d3d
00000020: a85d 103d 0f5d 25bd 1ff9 38bd f25c b23b
00000030: 9f27 1cbd 8278 a6bc e6c8 863d 2a95 90bc
00000040: f879 873b c1e9 8bbc b3a2 323d 0983 663d
00000050: 9420 20bd 128f 44bd 8eae 893d 4873 463d
00000060: 0b38 233d 2e00 19bd cf00 adbd 1069 633d
00000070: c9f5 933c a0d7 92bd f109 b4bc 0e07 6bbd
00000080: 92f3 533c ee81 4d3d 1525 3b3d cf3d d5bd
00000090: 277c 4dbd 8ce8 0d3d 54d6 ba3b 0062 183c
000000a0: 89f9 8c3c 2057 d7bc fdba 69bb 20ae 3bbd
000000b0: 1d0a 9cbc fcc6 c4bc f44c 88bc dea8 95ba
000000c0: 2d79 62bd fd4c 25bd b6fe 91bd 52d6 3cbd
000000d0: 9eaf 263d e224 1b3c 68db 83bd 1950 0ebd
000000e0: 2aa0 ffbc 81bd babd 64f9 2b3d 3ae5 8f3d
000000f0: 4d9f 2f3d 4103 6abc d783 fd3c 5819 833c
00000100: 6e5b cebd cb45 8f3c 92fa 7bbc 6bbc 88bd
00000110: 1354 cdbd 3051 b139 1499 fd3c 634c 4bba
00000120: 87e8 93bd 96f2 c13c b9a5 a03c cf34 853b
00000130: 1ad7 ac3d 0769 f33c b247 b1bd 4c29 bbbb
00000140: c4f1 113d 057e 4b3d 9853 5cbd d20c d83c
00000150: 83e4 8bbd 1ec2 45bd cb33 843c 23b3 81bd
00000160: 1a3f f33c 81cf 40bd 1728 22bd cc8c 40bc
00000170: bf62 dfbc 341d 183d 8d29 033d 4904 473d
00000180: a96e 2ebc 668b 62bc 6f49 d53c 4a0d 79bb
00000190: b096 053c ad84 92bc 70c2 93ba 8480 a43c
000001a0: d3e8 77ba 352e 74bd c200 a03c 749c debc
000001b0: 9176 b93b 0af4 723d 13a5 ccbc 0e5d 23bd
000001c0: 04c5 1b3c 6c01 3f38 3e38 0f3c 70a8 163d
000001d0: a175 1f3d a070 38bc ff72 09bb cd24 f63c
000001e0: c161 723d 7b28 77bc 1350 30bd 7595 4bbb
000001f0: 8fe4 fb3c 3711 3bbc a07a c6bc 4ce1 3e3d
00000200: 0c22 22bb ac70 96bd 9886 4bbd e595 0e3c
00000210: 7c6b 99bc 7b39 3c3d 6ff2 423d cb03 813c
00000220: d3fe 933c 2f2f 37bb f7e6 2ebd 7bca dc3c
00000230: d4b3 17bd c7e0 2fbd 8871 3abd e598 483d
00000240: c15a 60bd bbfb bb3d bf9f b23c 7ca0 3abd
00000250: a801 c83c 5ab3 a23b 7150 8b3c e104 063d
00000260: 9f0c e7bd 5c43 303d a55d 98bc 7511 70bd
00000270: 3f8d b23c 739f 853d 8133 c8bc 1491 abbc
00000280: 2f4d 413d db5f 7f3d 065b 8f3d 8592 1abc
00000290: fee8 34bc c798 1f3d 67e2 883c c72f 443d
000002a0: a031 15bd 1bbd 2cbd 592a 9dbc 3b5a eabc
000002b0: 2ad9 383d 4dc7 ab3d 184b 723a 3001 33bd
000002c0: d334 5c3c 7df8 50bd 0937 8c3d 72a6 edbc
000002d0: 3ea5 0bbd d085 b8bc b456 533d 066c c5bb
000002e0: c01e 573d 44ae b9bc 99a3 bc3b 1ac9 0b3d
000002f0: b078 113d a0d1 313d 7d30 623d 68df ffbc
00000300: ff3b fbbc 18ff acbd 03f6 55bd aef1 803d
00000310: abea 1abc 26de 893d 3958 1ebc bab8 3ebd
00000320: d70f a13b d961 77bd 4848 903c 43ba d83c
00000330: 9337 d7bb a0ed d93b 0ff4 043d ab57 d73c
00000340: 8193 e5bc 821a 543c 0daf 0fbd 4659 bbbc
00000350: 9633 943d f9fc d33b 3bf6 f33c 2663 9cbd
00000360: 70e3 00bd d670 2e3d 06e1 03bd 47f7 51bd
00000370: 3914 843c ba74 8abd 1e0a 3bbd a61a fcbc
00000380: 22bc 343d 34a0 08bd fece 40bd 2105 003d
00000390: f10b 14bd cfe8 f23c d9e2 873c de21 2ebd
000003a0: cc61 523d 13b1 b2bc 7ffd 94bd d69a 8cbc
000003b0: 22ac 0d3c c68d 7b3d 4b42 10bb 4b38 8cbc
000003c0: ded7 6abb b41d 0dbb fb46 4b3d 106d 9bbd
000003d0: d496 0dbd 803c 6b3d 2e22 65bc c628 00bc
000003e0: 47af ea3c 29c9 63bd 51cf b53c bb1e 5bbd
000003f0: 899a c1bb 1008 be3a c0db 8a3c 0bae 8cbd

conv2.bias f4 [32]
-0.02397573 0.05216342 0.009599818 -0.04470358 -0.012920933 -0.04189755 -0.0475378 -0.033101287
0.06951034 -0.043710843 0.041518167 -0.057905268 0.0030193734 0.049646568 -0.016979145 -0.023535898
-0.027452633 -0.028867805 0.021783698 -0.047705058 -0.038197253 0.056720484 0.054574825 -0.0182172
0.0011167548 -0.014802088 0.04604243 -0.056605604 -0.05899091 0.029432379 0.009024733 -0.013453336
00000000: c068 c4bc 4fa9 553d 8e48 1d3c 1a1b 37bd
00000010: 52b2 53bc c49c 2bbd ffb6 42bd 3795 07bd
00000020: 705b 8e3d 240a 33bd f40e 2a3d 132e 6dbd
00000030: aee0 453b 335a 4b3d d917 8bbc 5bce c0bc
00000040: 58e4 e0bc 2d7c ecbc ba73 b23c 6166 43bd
00000050: b974 1cbd bd53 683d da89 5f3d 3d3c 95bc
00000060: 1360 923a 7584 72bc fd96 3c3d 47db 67bd
00000070: 74a0 71bd 2c1c f13c 79dc 133c 626b 5cbc

batch2.weight f4 [32]
1.1005743 0.93638986 1.0865948 0.95064485 0.9592768 0.96377736 1.0533745 0.96902543
1.0657126 1.127863 1.0509768 1.0840861 0.96005243 1.0164331 0.9118431 0.9959793
1.0295345 0.94709545 1.0220127 0.9930703 1.0283613 1.0182797 1.0229516 0.9342356
1.0230179 1.0471079 0.8807894 1.0295149 1.1079693 1.0746341 0.991187 1.0382258
00000000: 9edf 8c3f 3fb7 6f3f 8a15 8b3f 765d 733f
00000010: 2a93 753f 1dba 763f fad4 863f 0d12 783f
00000020: 4569 883f d15d 903f 6886 863f 55c3 8a3f
00000030: ffc5 753f 7b1a 823f 8d6e 693f 80f8 7e3f
00000040: c9c7 833f d974 723f 50d1 823f db39 7e3f
00000050: 58a1 833f fd56 823f 14f0 823f 102a 6f3f
00000060: 40f2 823f a207 863f 6a7b 613f 25c7 833f
00000070: f0d1 8d3f 9c8d 893f 6ebe 7d3f 95e4 843f

batch2.bias f4 [32]
-0.020310853 -0.076579034 0.1049069 -0.09987292 -0.11625582 -0.081076205 0.0015925361 -0.08894909
-0.03901558 0.07925474 0.052704383 0.007894577 -0.042593334 -0.027866203 -0.12557493 0.04639878
0.044037443 -0.1534671 -0.05071534 -0.04345318 0.059892505 -0.036702707 0.065659486 -0.11942161
0.17233099 0.08117808 -0.10847745 -0.055694785 0.018261105 0.09101895 -0.10752552 -0.066809796
00000000: f262 a6bc 78d5 9cbd 6ed9 d63d 2c8a ccbd
00000010: 8817 eebd 480b a6bd a5bc d03a f12a b6bd
00000020: cdce 1fbd 4f50 a23d 8de0 573d 4258 013c
00000030: 5976 2ebd aa47 e4bc b796 00be a60c 3e3d
00000040: 9b60 343d 7b26 1dbe e3ba 4fbd f6fb 31bd
00000050: d851 753d 9455 16bd 7b78 863d 5193 f4bd
00000060: 8977 303e b140 a63d 6d29 debd 3720 64bd
00000070: 5098 953c 2568 ba3d 5736 dcbd 93d3 88bd

conv3.weight f4 [32, 32, 3, 3]
0.057075966 0.056406904 -0.07049455 0.03321514 0.013206758 -0.044050727 -0.09813211 0.02284131
0.052592855 -0.010238563 -0.07920098 0.0028311438 -0.041805204 -0.049442787 0.027635401 -0.0027702076
0.0246115 0.037593067 0.042379685 0.03022966 0.031973004 0.040461708 -0.0164944 0.046807595
-0.05079658 0.04192332 -0.031109417 -0.015622646 0.08048274 -0.069226176 0.013828591 0.055979352
0.003932143 -0.0669816 -0.09473139 -0.06568344 -0.036984447 0.018508822 -0.01011165 0.0060677007
0.0071132975 0.041399844 0.03941184 -0.00054910686 0.04774909 0.050117753 0.039732736 -0.0104731
-0.006320545 0.048230838 0.044235025 -0.01041163 -0.066774 0.008650962 -0.016480383 -0.034884814
-0.032230612 0.0079717785 -0.019231863 0.05781426 0.028443899 -0.0056453464 0.036686797 0.02041784
0.01345718 -0.03931867 -0.031022536 0.008506361 0.020089524 -0.12023623 -0.08800265 0.026445992
-0.011505303 -0.063932784 -0.060477853 -0.06248608 -0.03197477 0.08221398 -0.030198937 0.084480524
-0.05183824 0.039356504 -0.07532899 0.096356966 -0.039064445 -0.07019161 -0.005568481 -0.009228333
0.008013212 0.06035929 0.06376072 -0.0074199913 -0.0291195 0.0031697736 0.0036306372 0.05911396
0.04361222 -0.050042283 -0.08301033 -0.009407602 0.045100864 -0.097968094 -0.006531116 -0.027308058
-0.005257949 0.039450664 -0.01852183 0.0013618114 0.045673415 0.016691912 -0.003391057 -0.03823487
-0.021692066 -0.03732931 0.07985515 -0.02677468 -0.028383993 -0.011023863 -0.036489498 -0.0474414
0.04622579 -0.045161407 -0.033958558 -0.04158982 0.03045117 -0.011579894 -0.055101167 -0.024588494
-0.039146144 0.023790944 -0.008898198 -0.038676515 0.039090656 -0.009154118 0.032039706 -0.029397132
-0.023182262 -0.028875517 0.02881285 -0.0037034065 0.056850616 0.046582703 -0.018439524 -0.0642008
-0.036213115 0.060489975 -0.015521811 -0.008462453 0.0002639817 0.0045992485 0.021188987 -0.030070225
0.042255767 -0.007837573 -0.0114620365 -0.025627684 0.047385298 0.021445481 -0.08127456 0.026420536
-0.022161765 0.106114194 0.021569459 0.009697228 0.01513225 0.059786323 -0.010518782 0.08439437
0.07866685 -0.029556794 -0.0039014206 0.008077041 -0.062438395 -0.03727948 -0.027415754 -0.007280439
-0.010297967 -0.020456526 -0.056583166 -0.06893085 -0.0550592 0.05629638 -0.00023668364 0.021333538
-0.001247192 -0.07087301 -0.006275706 -0.06674641 0.03609507 0.013541988 0.02744185 0.0144773275
-0.0047456003 0.0024250657 0.072805814 0.011845306 0.04286023 -0.0703245 -0.015822394 0.03505091
0.016223915 -0.066043265 0.039291352 -0.051045977 -0.011595378 -0.05050251 -0.022415329 -0.038117293
-0.046038777 -0.0060113235 -0.021818433 0.014530441 -0.031627703 -0.053556707 -0.04313454 -0.065478556
0.00021534192 0.049948517 -0.021111824 0.015810756 0.018822083 0.046253033 -0.047227878 -0.04572391
0.042317647 -0.021171862 0.07386827 0.023812853 -0.033241883 -0.027031923 0.011850197 -0.00658866
-0.05826782 0.017444078 0.032168895 0.02744809 -0.0664826 -0.0011581872 -0.00991295 0.041307256
-0.0014870842 -0.004392116 -0.02424504 -0.013202918 -0.079209685 0.008820617 -0.025750834 -0.012716745
0.06566245 -0.058256935 0.05468213 0.05746006 0.023087274 -0.0047261966 -0.0008055415 0.021181373
00000000: 7dc8 693d ed0a 673d 725f 90bd 990c 083d
00000010: 2861 583c 896e 34bd 7df9 c8bd b31d bb3c
00000020: 9b6b 573d a5bf 27bc 2034 a2bd b68a 393b
00000030: ef3b 2bbd 8584 4abd a363 e23c 5f8c 35bb
00000040: 0e9e c93c 30fb 193d 5296 2d3d 31a4 f73c
00000050: 20f6 023d 2dbb 253d 441f 87bc 52b9 3f3d
00000060: 1310 50bd cab7 2b3d 2dd9 febc 20f6 7fbc
00000070: 23d4 a43d 74c6 8dbd 5191 623c 9b4a 653d
00000080: 35d9 803b a62d 89bd 8802 c2bd 0a85 86bd
00000090: 017d 17bd d09f 973c 56ab 25bc 90d3 c63b
000000a0: aa16 e93b e292 293d 4f6e 213d f0f1 0fba
000000b0: 8d94 433d 4648 4d3d cbbe 223d 5d97 2bbc
000000c0: 931c cfbb b38d 453d c92f 353d 8b95 2abc
000000d0: cfc0 88bd c4bc 0d3c de01 87bc 61e3 0ebd
000000e0: 3f04 04bd 109c 023c 248c 9dbc a5ce 6c3d
000000f0: 2e03 e93c 99fc b8bb e544 163d 5043 a73c
00000100: 817b 5c3c 9d0c 21bd f922 febc 445e 0b3c
00000110: c992 a43c 6a3e f6bd bc3a b4bd 44a5 d83c
00000120: bd80 3cbc 31ef 82bd a0b7 77bd 67f1 7fbd
00000130: faf7 02bd ce5f a83d c363 f7bc 2004 ad3d
00000140: 5654 54bd 4934 213d 1646 9abd cd56 c53d
00000150: 0a02 20bd 9ec0 8fbd ce77 b6bb 6f32 17bc
00000160: d949 033c 4e3b 773d fb94 823d 6623 f3bb
00000170: 058c eebc fabb 4f3b fcef 6d3b 7b21 723d
00000180: baa2 323d 23f9 4cbd 5201 aabd 5822 1abc
00000190: afbb 383d 7fa3 c8bd f902 d6bb 26b5 dfbc
000001a0: df4a acbb 0597 213d 18bb 97bc cf7e b23a
000001b0: 0c14 3b3d 7abd 883c 7f3c 5ebb 2b9c 1cbd
000001c0: 8fb3 b1bc 9ee6 18bd 198b a33d 9356 dbbc
000001d0: 8c85 e8bc 6f9d 34bc 0376 15bd ea51 42bd
000001e0: 4157 3d3d 2bfb 38bd 2118 0bbd 165a 2abd
000001f0: bb74 f93c 99b9 3dbc c3b1 61bd cf6d c9bc
00000200: b557 20bd 3ae5 c23c bfc9 11bc 446b 1ebd
00000210: 861d 203d 27fb 15bc 113c 033d 41d2 f0bc
00000220: bae8 bdbc 598c ecbc ed08 ec3c dab4 72bb
00000230: 31dc 683d 81cd 3e3d 7c0e 97bc b67b 83bd
00000240: 3454 14bd 56c4 773d 324f 7ebc 1aa6 0abc
00000250: 0667 8a39 4bb5 963b 8794 ad3c d555 f6bc
00000260: 6214 2d3d 2a69 00bc 44cb 3bbc 26f1 d1bc
00000270: 1617 423d 6fae af3c 4773 a6bd e16f d83c
00000280: 978c b5bc 6652 d93d 6fb2 b03c 1fe1 1e3c
00000290: 42ed 773c 81e2 743d f856 2cbc f5d6 ac3d
000002a0: 161c a13d 1721 f2bc faae 7fbb 9155 043c
000002b0: 67bf 7fbd 5eb2 18bd 0197 e0bc c090 eebb
000002c0: ceb8 28bc 7294 a7bc c0c3 67bd 9e2b 8dbd
000002d0: c185 61bd 0897 663d 482e 78b9 acc3 ae3c
000002e0: d278 a3ba de25 91bd 70a4 cdbb 58b2 88bd
000002f0: 6dd8 133d 37df 5d3c bbcd e03c 5032 6d3c
00000300: fb80 9bbb daed 1e3b 371b 953d d012 423c
00000310: 358e 2f3d 4b06 90bd f79d 81bc 8b91 0f3d
00000320: 04e8 843c b141 87bd f8ef 203d 9615 51bd
00000330: 8afa 3dbc b8db 4ebd 5aa0 b7bc e120 1cbd
00000340: 2893 3cbd a3fa c4bb 92bc b2bc 1611 6e3c
00000350: 0d8c 01bd 475e 5bbd d8ad 30bd 9f19 86bd
00000360: 68cd 6139 d196 4c3d b4f2 acbc 8f85 813c
00000370: c530 9a3c d273 3d3d 0572 41bd ff48 3bbd
00000380: 4555 2d3d 9d70 adbc 3f48 973d 2c13 c33c
00000390: a428 08bd 0d72 ddbc 5427 423c b0e5 d7bb
000003a0: 3daa 6ebd e2e6 8e3c 88c3 033d d1da e03c
000003b0: 0828 88bd 50ce 97ba ed69 22bc cc31 293d
000003c0: 44ea c2ba bdeb 8fbb 899d c6bc 0d51 58bc
000003d0: b038 a2bd 5984 103c 6af3 d2bc e559 50bc
000003e0: 097a 863d d39e 6ebd 5ffa 5f3d 3d5b 6b3d
000003f0: 8621 bd3c 36de 9abb fa2a 53ba 8f84 ad3c

conv3.bias f4 [32]
0.031654067 0.018093118 -0.010961394 -0.036010645 -0.030924577 0.017590363 -0.02348544 0.03157408
-0.0306436 -0.03984905 0.04677584 -0.0332279 0.012969455 0.051411554 0.0030319563 0.041186176
-0.015621432 -0.049153138 -0.035408348 -0.0087490585 -0.03479661 -0.027045762 0.024896743 0.05349957
0.03013904 0.02644168 -0.048698545 -0.013849044 0.032447714 0.05885333 -0.0158145 0.030508624
00000000: b2a7 013d 0538 943c 6b97 33bc e67f 13bd
00000010: 8a55 fdbc aa19 903c 8a64 c0bc d353 013d
00000020: 4908 fbbc c238 23bd 0698 3f3d fa19 08bd
00000030: d67d 543c ec94 523d c9b3 463b d6b2 283d
00000040: 09f1 7fbc cd54 49bd 5808 11bd 3658 0fbc
00000050: e486 0ebd 138f ddbc 41f4 cb3c 5d22 5b3d
00000060: 26e6 f63c 399c d83c 2078 47bd 1ae7 62bc
00000070: e5e7 043d 3010 713d 698d 81bc 39ed f93c

batch3.weight f4 [32]
0.9822235 0.9716433 1.0168655 0.9480442 0.98693544 1.0220281 0.9923127 1.0123554
1.0001656 1.0092473 0.9772193 1.0113096 0.997032 1.0399289 0.9356132 1.0210044
0.9930679 1.0044811 1.0422276 0.9705284 1.006068 1.0175061 0.9381882 1.0262473
1.0612226 1.0127329 0.95558965 0.9795832 1.0138392 0.99047065 1.0506262 0.97973603
00000000: 0073 7b3f 9ebd 783f a628 823f 06b3 723f
00000010: cda7 7c3f d1d1 823f 3508 7e3f dd94 813f
00000020: 6d05 803f 042f 813f 0b2b 7a3f 9872 813f
00000030: 7d3d 7f3f 641c 853f 5984 6f3f 46b0 823f
00000040: b339 7e3f d692 803f b767 853f 8d74 783f
00000050: d6c6 803f a43d 823f 1a2d 703f 125c 833f
00000060: 24d6 873f 3ba1 813f 86a1 743f f7c5 7a3f
00000070: 7cc5 813f 7c8f 7d3f eb7a 863f fbcf 7a3f

batch3.bias f4 [32]
-0.051940333 -0.019756338 -0.0478696 -0.07746174 -0.043278743 0.037990455 -0.056648687 0.04131566
-0.07027233 -0.036254533 -0.072418004 0.015080128 -0.095078796 -0.058568723 -0.046937488 -0.060074892
-0.08510337 -0.023062507 -0.093249306 -0.12384847 -0.08656009 -0.04373681 0.017054766 -0.039377756
-0.015920175 -0.081233054 -0.11741003 -0.04426756 -0.016538687 -0.025463277 0.040361833 -0.02523907
00000000: 63bf 54bd 0bd8 a1bc ea12 44bd 43a4 9ebd
00000010: 0d45 31bd e19b 1b3d 7408 68bd 9c3a 293d
00000020: f0ea 8fbd a27f 14bd e44f 94bd a412 773c
00000030: acb8 c2bd c2e5 6fbd 8641 40bd 1711 76bd
00000040: ad4a aebd 95ed bcbc 7ef9 bebd 44a4 fdbd
00000050: 6b46 b1bd 5f25 33bd 70b6 8b3c 924a 21bd
00000060: 076b 82bc 845d a6bd ab74 f0bd e751 35bd
00000070: 247c 87bc 5d98 d0bc 7352 253d 2bc2 cebc

conv4.weight f4 [32, 32, 3, 3]
-0.029053144 -0.059229255 -0.022529282 -0.0016617839 -0.013059606 -0.055478416 -0.026932234 -0.023256578
-0.032232344 -0.03110266 -0.02697672 -0.008703099 -0.021981424 -0.042687293 -0.02778547 0.0066585816
0.024410725 0.010239233 0.035991862 0.021017447 0.020289494 0.022377819 0.0013698698 0.08354048
0.009652988 0.0053440407 -0.0058146156 0.06352193 0.0063469866 0.046633564 0.03704198 0.037986998
0.086548924 0.034113497 0.04477335 0.018399764 0.007882328 0.010906112 -0.02184656 -0.0048014107
0.030966716 0.0019557946 0.009388687 -0.025981318 -0.028040387 -0.0667969 -0.04276139 -0.066323586
-0.037201494 -0.032676935 -0.076913 -0.05015312 -0.048378397 -0.07587506 -0.029988712 -0.049849454
-0.020538796 -0.026841557 -0.05330523 -0.030068457 -0.040327042 -0.004450834 -0.055550195 -0.054422148
-0.031254552 -0.045771208 -0.033411007 -0.029248217 -0.028348194 -0.053139675 -0.0016698473 -0.048502997
0.07604111 0.069962986 0.068415456 0.075692065 0.04859727 0.06719766 0.08420654 0.024762506
0.097959064 0.0052522966 0.04907804 0.024992794 0.004268868 0.013150167 0.017043563 0.009910606
0.008924865 0.044867367 0.09318606 0.008204462 0.0684789 0.037018973 0.0005685979 0.039189983
0.051721994 0.054134876 0.070096925 -0.0010831376 -2.156468e-06 -0.009503494 0.0057079545 -0.008016457
-0.03453819 0.029786209 -0.005842943 -0.0045789545 -0.0024677725 -0.007667246 0.024356956 0.0075041577
0.0026264698 -0.027462564 0.012821439 -0.0034380662 0.00982371 0.039922737 0.029055353 -0.0068601123
-0.005363529 -0.025422733 -0.0010358677 0.033614572 -0.0019126626 -0.009085147 0.05039237 0.034915384
0.04324734 -0.0047425665 -0.0005839658 0.0014381428 0.021019679 -0.03448764 0.014642833 -0.06428846
-0.033269707 -0.017197922 -0.008491493 -0.02442026 -0.004008054 -0.04562826 -0.036056925 -0.025847632
-0.048976578 -0.06622057 -0.038555726 -0.05698543 -0.0114931995 -0.035662897 -0.04103306 -0.025604067
-0.025101807 -0.07704567 -0.04649843 -0.044763632 -0.048882347 -0.051964026 -0.064663894 -0.07283232
-0.046984673 -0.05921875 0.037382334 -0.026537966 0.008740667 -0.0042785904 -0.015449627 -0.02584709
-0.021659622 0.00922837 0.017126251 -0.045859747 -0.035681512 -0.019872002 -0.038078815 -0.0065824357
-0.030351542 -0.057132017 -0.01258535 -0.036057103 0.06861744 0.012821073 0.04798983 0.09195719
0.013882038 0.043015677 0.054013927 0.026726061 0.045027874 -0.027157376 -0.0005113353 0.021176891
0.025241373 -0.027902255 0.0074440967 0.004088014 0.01717039 -0.00113869 -0.015301736 -0.04215248
-0.0142332055 -0.032694254 -0.012116393 -0.0221381 -0.025438633 -0.05622329 -0.01931327 -0.034013737
-0.019595267 -0.01681429 -0.04488559 -0.020964887 -0.029301377 -0.010864801 -0.016312717 0.0039946116
-0.03436934 0.020119943 -0.0035100493 -0.019016337 -0.041464947 -0.010356369 0.01899949 -0.022318058
0.041190457 -0.078890726 -0.03609792 -0.013063121 -0.026475446 -0.0007914641 -0.030983163 -0.04639036
-0.022605931 -0.015243479 0.0124165295 -0.013099007 0.0066683204 0.012443505 0.026213875 0.0018285081
0.0329451 0.021456212 -0.004340159 0.051557936 0.029867023 0.054423448 -0.014760703 0.03923734
0.0124697285 0.054704778 0.034723036 0.043575615 -0.008761794 -0.005507008 -0.020687427 -0.03138675
00000000: dc00 eebc 609a 72bd 548f b8bc 37d0 d9ba
00000010: f5f7 55bc 563d 63bd fda0 dcbc 9484 bebc
00000020: 1006 04bd 01cb febc 48fe dcbc 7197 0ebc
00000030: 6312 b4bc dfd8 2ebd 5b9e e3bc 3b30 da3b
00000040: 00f9 c73c 75c2 273c 346c 133d c82c ac3c
00000050: 2736 a63c b051 b73c 348d b33a 4517 ab3d
00000060: 9127 1e3c 101d af3b 8888 bebb c917 823d
00000070: 62fa cf3b d602 3f3d 55b9 173d 4198 1b3d
00000080: 9040 b13d 98ba 0b3d 4364 373d 1abb 963c
00000090: e124 013c 8daf 323c 8ff7 b2bc 2755 9dbb
000000a0: e9ad fd3c ca2c 003b 02d3 193c c6d6 d4bc
000000b0: f4b4 e5bc d0cc 88bd 9126 2fbd a9d4 87bd
000000c0: 9860 18bd 40d8 05bd 9084 9dbd 5c6d 4dbd
000000d0: 6d28 46bd 6264 9bbd e3aa f5bc f12e 4cbd
000000e0: fa40 a8bc d3e2 dbbc 9656 5abd 2052 f6bc
000000f0: f82d 25bd 4dd8 91bb 9a88 63bd c2e9 5ebd
00000100: c604 00bd 977a 3bbd fbd9 08bd f599 efbc
00000110: 793a e8bc fda8 59bd c7de daba 14ab 46bd
00000120: 71bb 9b3d c148 8f3d 671d 8c3d 7104 9b3d
00000130: ee0d 473d ed9e 893d 7a74 ac3d bdda ca3c
00000140: c39e c83d 751b ac3b 0e06 493d b0bd cc3c
00000150: dce1 8b3b cc73 573c f19e 8b3c 1860 223c
00000160: 9939 123c d8c6 373d 55d8 be3d 026c 063c
00000170: aa3e 8c3d 35a1 173d f60d 153a ad85 203d
00000180: 71da 533d 88bc 5d3d fa8e 8f3d 11f8 8dba
00000190: d7b7 10b6 8bb4 1bbc cb09 bb3b 7557 03bc
000001a0: eb77 0dbd 3502 f43c 2976 bfbb 0e0b 96bb
000001b0: 5aba 21bb 853d fbbb 3d88 c73c 70e5 f53b
000001c0: da20 2c3b 2cf9 e0bc 0311 523c 2e51 61bb
000001d0: a0f3 203c 0686 233d 7e05 ee3c cbca e0bb
000001e0: 8bc0 afbb 5643 d0bc f4c5 87ba 6faf 093d
000001f0: 4fb2 faba ded9 14bc 3b68 4e3d 6f03 0f3d
00000200: 1f24 313d 8867 9bbb 4815 19ba 1180 bc3a
00000210: 7631 ac3c e942 0dbd 7ee8 6f3c aba9 83bd
00000220: d145 08bd a8e2 8cbc e71f 0bbc ff0c c8bc
00000230: fe55 83bb b3e4 3abd 6db0 13bd 6abe d3bc
00000240: aa9b 48bd a69e 87bd 9cec 1dbd 8e69 69bd
00000250: f94d 3cbc 4213 12bd 4812 28bd 9fbf d1bc
00000260: 4ea2 cdbc 1fca 9dbd 2375 3ebd 125a 37bd
00000270: db38 48bd 3bd8 54bd 816e 84bd 1d29 95bd
00000280: 0073 40bd 5c8f 72bd 381e 193d 2666 d9bc
00000290: 0435 0f3c 6b33 8cbb 6f20 7dbc 47bd d3bc
000002a0: 856f b1bc 9732 173c 5a4c 8c3c 6ed7 3bbd
000002b0: c726 12bd 9cca a2bc 88f8 1bbd 79b1 d7bb
000002c0: cca3 f8bc 4303 6abd c932 4ebc 9db0 13bd
000002d0: 4d87 8c3d 7a0f 523c fc90 443d 0d54 bc3d
000002e0: 7d71 633c 3531 303d b53d 5d3d 9df0 da3c
000002f0: 266f 383d 2579 debc 220b 06ba 297b ad3c
00000300: ffc6 ce3c 4593 e4bc 9ced f33b bff4 853b
00000310: eba8 8c3c 1940 95ba 22b4 7abc 14a8 2cbd
00000320: 6432 69bc 69ea 05bd d683 46bc f65a b5bc
00000330: ae64 d0bc 644a 66bd dd36 9ebc fd51 0bbd
00000340: 4186 a0bc 1fbe 89bc f4d9 37bd 8ebe abbc
00000350: 7109 f0bc 4702 32bc 3fa2 85bc 3be5 823b
00000360: ddc6 0cbd 94d2 a43c db08 66bb 26c8 9bbc
00000370: 26d7 29bd c3ad 29bc d2a4 9b3c 5cd4 b6bc
00000380: 53b7 283d 7691 a1bd 6adb 13bd b306 56bc
00000390: 09e3 d8bc 427a 4fba 67d0 fdbc d103 3ebd
000003a0: 1330 b9bc c9bf 79bc b36e 4b3c 389d 56bc
000003b0: ed81 da3b d8df 4b3c 7bbe d63c 8daa ef3a
000003c0: 71f1 063d f0c4 af3c e437 8ebb 6a2e 533d
000003d0: b0ab f43c 1feb 5e3d e0d6 71bc 55b7 203d
000003e0: d54d 4c3c 1e12 603d be39 0e3d 587c 323d
000003f0: a18d 0fbc 2274 b4bb ae78 a9bc 658f 00bd

conv4.bias f4 [32]
-0.035714645 -0.0072019985 -0.0043415786 -0.0052846526 0.035247903 -0.00922415 0.037543163 -0.04122961
-0.020933272 0.0051375255 0.05024 0.038812652 0.032198403 0.017439837 -0.031255916 -0.032850835
-0.030992204 -0.013460675 0.007678712 0.026030155 -0.0031953976 -0.0076131457 -0.043925446 -0.038470253
0.006933626 -0.04151944 -0.05446269 0.011725795 0.03951897 -0.033455666 -0.015769225 0.0032665178
00000000: 8549 12bd befe ebbb cd43 8ebb e12a adbb
00000010: 1b60 103d e420 17bc dcc6 193d 61e0 28bd
00000020: 417c abbc b058 a83b 75c8 4d3d 04fa 1e3d
00000030: 79e2 033d fddd 8e3c 3406 00bd 998e 06bd
00000040: 5de3 fdbc 2a8a 5cbc b49d fb3b 313d d53c
00000050: e069 51bb b277 f9bb 2beb 33bd fc92 1dbd
00000060: 7833 e33b 4a10 2abd 4514 5fbd 8d1d 403c
00000070: a5de 213d cf08 09bd 762e 81bc 1313 563b

batch4.weight f4 [32]
1.5199347 1.1633968 1.50675 0.87734354 1.5178638 1.2455105 1.1260303 0.99839336
1.4955367 1.4723159 0.7039456 1.2414694 1.2730443 0.86102587 0.7772341 1.2378057
1.1192443 1.4388404 1.2964735 1.5518312 1.0267626 1.3473016 1.329933 0.653648
1.6043435 1.533508 1.295996 1.6284816 1.3587272 1.408263 1.4694836 1.4446139
00000000: 388d c23f 30ea 943f 2fdd c03f 9699 603f
00000010: 5c49 c23f e36c 9f3f c321 903f b596 7f3f
00000020: bf6d bf3f d974 bc3f c735 343f 78e8 9e3f
00000030: 1ef3 a23f 316c 5c3f d0f8 463f 6b70 9e3f
00000040: 6643 8f3f ec2b b83f d8f2 a53f 68a2 c63f
00000050: f56c 833f 6174 ac3f 3f3b aa3f 7a55 273f
00000060: 215b cd3f fd49 c43f 32e3 a53f 1672 d03f
00000070: c6ea ad3f f641 b43f 0a18 bc3f 1ce9 b83f

batch4.bias f4 [32]
0.115373835 -0.011375816 0.01787312 -0.15450564 0.07870422 -0.0032434075 -0.08011654 -0.111059114
0.0025158564 -0.038315743 -0.3313466 -0.08372421 0.007266852 -0.13878077 -0.27578932 0.013634206
-0.07851015 0.0030002517 -0.020757329 0.13208365 -0.100352444 -0.0075131995 -0.10981337 -0.3409094
0.17092596 0.15975296 -0.0087101655 0.083232984 0.022177782 0.018658714 0.09938787 0.00044647005
00000000: 1e49 ec3d a161 3abc a66a 923c ba36 1ebe
00000010: ae2f a13d 598f 54bb 2414 a4bd f672 e3bd
00000020: 11e1 243b f8f0 1cbd 43a6 a9be 9977 abbd
00000030: c61e ee3b 8c1c 0ebe 4234 8dbe 0162 5f3c
00000040: eec9 a0bd df9f 443b 460b aabc f040 073e
00000050: 9585 cdbd 4931 f6bb d5e5 e0bd ad8b aebe
00000060: 3707 2f3e 4896 233e 15b5 0ebc 0e76 aa3d
00000070: 2eae b53c 29da 983c de8b cb3d 3214 ea39

lin1.weight f4 [5, 800]
-0.0012266902 0.0017633268 -0.0026597043 0.0002887744 -0.007575954 -0.014517323 -0.014296416 -0.006279049
0.006682292 -0.01051227 -0.008159347 -0.012940685 0.0074996487 -0.003045876 -0.007850648 -0.0054378305
0.0061601396 -0.0035184883 -0.016649019 0.0038406462 0.0038580233 0.0011056272 0.00068530784 0.0040355423
0.0043727853 -0.006869257 -0.014650411 0.0022290177 0.00047863214 0.016655484 -0.007885142 -0.00023021542
0.009088874 -0.0014481196 0.01510143 0.008576042 -0.00020993421 -0.005272345 0.017033517 0.0060380767
-0.021817004 -0.0023958278 -0.0027753701 -0.010709984 -0.0037069495 -0.00084898685 0.012350583 0.003929366
0.0004576455 -0.007127806 -0.018143505 -0.01727482 0.00266823 0.007414057 0.0065248357 -0.0014771563
-0.014885076 0.00591351 -0.015957506 -0.0028294749 0.016909325 0.013815267 0.0031398851 -0.00635223
-0.008274306 0.009895499 0.009973099 -0.0037000226 -0.009308355 -0.0031185523 -0.00083469634 -0.014626342
-0.0053785513 0.011192343 -0.0034764458 -0.0037685118 0.009179123 -0.01770181 0.0002635152 0.011069852
-0.0019935658 -0.01804589 0.0014303679 -0.002548612 0.0047893054 0.0061067324 0.00047596014 -0.0004466088
-0.0054582558 -0.012927923 -0.0065308674 0.007896925 0.007886451 0.012593262 -8.85674e-05 -0.006520627
-0.005232822 0.014559379 -0.013554445 0.013119252 0.0056969607 -0.013837951 0.0020255107 -0.0075607277
0.0039005764 0.00066647126 0.008740424 -0.009993562 -0.0025292165 -0.020407928 0.015295785 0.0028450761
-0.0062047304 -0.0053280513 -0.001249666 0.005515885 -0.010154002 0.0028501374 0.010409462 -0.0059542097
-0.00064998615 -0.004651176 -0.0012564902 -0.0023978848 -0.014901117 0.004370474 0.00034374525 -0.015239799
-0.006766644 -0.0028922195 0.010691653 -0.014419197 -0.013430731 0.015003005 -0.0038772472 -0.0020373
0.005265422 -0.006494817 -0.0044254027 -0.011525926 -0.00035334716 -0.0017182338 -0.012791701 0.0039769793
0.0019912503 0.011207688 -0.016453074 0.011028083 0.0006431767 0.0011637526 0.009065314 -0.0070216525
0.009049816 -0.0045501995 0.009214603 0.011320151 0.0020839535 0.0046016364 0.012934455 -0.002329775
0.0053457352 0.00036695343 0.0048964764 -0.0020879586 -0.0061389715 0.001047243 -0.0016275728 0.012556721
-0.0048092655 0.007353043 0.016062068 -0.010015091 0.015984721 -0.0077952673 0.0101423375 -0.0077725686
-0.012499102 0.00017518642 0.0075913984 -0.0076486208 -0.008326573 -0.009650362 -0.00067356514 0.003072363
-0.007078561 -0.017254068 0.01123508 -0.0091275675 -0.0013373378 0.016524628 0.0027055345 0.0060305945
0.0014405678 -0.010225007 -0.007208049 -0.008917836 -0.0014567139 0.003978395 0.0018466907 0.0004976762
0.0027078865 -0.0049921423 -0.0064707315 -0.0012650737 -0.0055673164 0.0021094491 -0.006001964 -0.008383271
-0.007675705 -0.013822012 0.019316282 -0.00043316875 -0.0040551084 0.003155671 0.018677553 -0.0044339346
0.015332865 -0.011178672 -0.0037109584 0.021441467 -0.011077628 0.0015111383 -0.006087753 -0.0038009242
-0.0016425805 0.012929652 0.0064353016 0.009655434 -0.0042610103 0.0050161444 -0.003176095 -0.0057028774
0.0012055082 0.0045778723 0.012251202 -0.011246745 -0.009536576 0.000107470245 -0.008996274 -0.014771629
-0.0031851502 0.016024001 0.00918008 0.004661628 -0.0045171217 -0.010725741 0.0018437039 0.010901504
0.012872922 0.0070643635 -0.010402819 0.011812304 -0.017155455 -0.013714033 -0.0026805603 -0.0021111467
00000000: e5c8 a0ba 6e1f e73a 6f4e 2ebb a566 9739
00000010: b53f f8bb 11da 6dbc 843b 6abc 7bc0 cdbb
00000020: 21f7 da3b a83b 2cbc c8ae 05bc 2b05 54bc
00000030: 9dbf f53b 529d 47bb 01a0 00bc d42f b2bb
00000040: ffda c93b 7096 66bb 8663 88bc 5ab3 7b3b
00000050: e4d6 7c3b b1ea 903a 3ba6 333a 953c 843b
00000060: 9549 8f3b 8117 e1bb 4708 70bc b614 123b
00000070: ebf0 fa39 1571 883c af30 01bc fb65 71b9
00000080: 80e9 143c d5ce bdba fd6b 773c 8782 0c3c
00000090: c921 5cb9 a3c3 acbb e089 8b3c 0fdb c53b
000000a0: 93b9 b2bc 5203 1dbb fce2 35bb ee78 2fbc
000000b0: 4bf0 72bb 8b8e 5eba 1a5a 4a3c e9c1 803b
000000c0: 24f0 ef39 5f90 e9bb b0a1 94bc ec83 8dbc
000000d0: 79dd 2e3b 9ef1 f23b 4ace d53b 249d c1ba
000000e0: 89e0 73bc 1ec6 c13b 51b9 82bc b66e 39bb
000000f0: 6d85 8a3c 6e59 623c 88c6 4d3b 5e26 d0bb
00000100: f490 07bc bb20 223c 3666 233c 147c 72bb
00000110: 1282 18bc a060 4cbb 86cf 5aba 53a3 6fbc
00000120: 8f3e b0bb 1760 373c 15d5 63bb 23f9 76bb
00000130: 0864 163c 6303 91bc 6928 8a39 535e 353c
00000140: 7ca6 02bb f9d4 93bc 2f7b bb3a 9d06 27bb
00000150: 9bef 9c3b fc1a c83b 4a8a f939 d226 eab9
00000160: 2bdb b2bb a4cf 53bc e300 d6bb 1b62 013c
00000170: 2c36 013c f853 4e3c 43bd b9b8 fcaa d5bb
00000180: 1878 abbb 768a 6e3c 7613 5ebc 22f2 563c
00000190: 92ad ba3b 93b8 62bc 6ebe 043b fbbf f7bb
000001a0: d0a0 7f3b 21b6 2e3a ff33 0f3c 09bc 23bc
000001b0: 36c1 25bb 872e a7bc 2c9b 7a3c 7574 3a3b
000001c0: 0d51 cbbb ef96 aebb d5cb a3ba 99be b43b
000001d0: f95c 26bc 5fc9 3a3b 738c 2a3c 881b c3bb
000001e0: d563 2aba e468 98bb d1b0 a4ba d525 1dbb
000001f0: d123 74bc 3136 8f3b b538 b439 5ab0 79bc
00000200: b9ba ddbb 648b 3dbb 0b2c 2f3c 7f3e 6cbc
00000210: 920c 5cbc 2acf 753c 6a19 7ebb 3984 05bb
00000220: 9089 ac3b 79d2 d4bb f802 91bb 3dd7 3cbc
00000230: 7441 b9b9 5c36 e1ba 4894 51bc 5251 823b
00000240: a37f 023b 73a0 373c 99c8 86bc 22af 343c
00000250: dc9a 283a 0f89 983a af86 143c e415 e6bb
00000260: ae45 143c d719 95bb d9f8 163c 2878 393c
00000270: f092 083b 53c9 963b 09eb 533c 23af 18bb
00000280: 472b af3b a863 c039 9f72 a03b 22d6 08bb
00000290: 6d29 c9bb a543 893a 4854 d5ba b5ba 4d3c
000002a0: 0b97 9dbb ccf1 f03b 9994 833c 5616 24bc
000002b0: 64f2 823c 716f ffbb 0c2c 263c 08b1 febb
000002c0: 09c9 4cbc 3fb2 3739 44c1 f83b 48a1 fabb
000002d0: 2e6c 08bc 8d1c 1ebc 3192 30ba b359 493b
000002e0: 46f3 e7bb 6758 8dbc 5713 383c cb8b 15bc
000002f0: 9c49 afba a85e 873c 564f 313b 4b9c c53b
00000300: 6fd1 bc3a ca86 27bc 7f31 ecbb 1d1c 12bc
00000310: 35ef beba 325d 823b a80c f23a 7c76 023a
00000320: cc76 313b 2095 a3bb 6e08 d4bb d4d0 a5ba
00000330: 096e b6bb af3e 0a3b 20ac c4bb fd59 09bc
00000340: 7b84 fbbb b875 62bc 2e3d 9e3c ed1a e3b9
00000350: b7e0 84bb 60cf 4e3b ab01 993c 8a4a 91bb
00000360: b236 7b3c c026 37bc 8d33 73bb 04a6 af3c
00000370: f07e 35bc 6311 c63a c67b c7bb ed18 79bb
00000380: db4b d7ba e4d6 533c 39df d23b d331 1e3c
00000390: f29f 8bbb 785e a43b 0826 50bb 34df babb
000003a0: 2502 9e3a fa01 963b 44b9 483c 4444 38bc
000003b0: 4d3f 1cbc a661 e138 1c65 13bc b404 72bc
000003c0: f4bd 50bb c444 833c 0c68 163c 92c0 983b
000003d0: 5d04 94bb 05bb 2fbc 70a8 f13a 399c 323c
000003e0: f3e8 523c 2d7c e73b 9670 2abc 6588 413c
000003f0: 9989 8cbc d3b0 60bc 57ac 2fbb 2a5b 0abb

lin1.bias f4 [5]
-0.007917957 -0.008333113 -0.023810076 -0.019129984 -0.01384222
00000000: 52ba 01bc 9c87 08bc 590d c3bc 7cb6 9cbc
00000010: 7bca 62bc

exp_avg f4 [32, 3, 3, 3]
0.028756008 0.038457405 0.040505987 0.032246634 0.038221788 0.041821703 0.021736456 0.034318585
0.04338659 0.034214243 0.039601672 0.041523073 0.040514328 0.04806985 0.04584004 0.03463125
0.044625632 0.050111175 0.037662987 0.036791574 0.040709596 0.03585055 0.045211125 0.044881947
0.033691384 0.048015364 0.048014678 0.026375093 0.023321016 0.01990143 0.02325809 0.018840197
0.010871704 0.011938095 0.008833878 0.0033487522 0.027378349 0.023671981 0.020809479 0.02558087
0.017453365 0.010212006 0.014031956 0.007119007 0.0034161406 0.023116333 0.020972768 0.014493682
0.019501178 0.012812128 0.005353393 0.008442847 0.002853356 -0.0038643552 0.019964356 0.012931536
0.011563058 0.020530855 0.013007452 0.017192611 0.013185685 0.0130632045 0.013458889 0.010952484
0.008089761 0.0062023425 0.014060448 0.007329373 0.008997026 0.004779994 0.0049489625 0.005456348
0.02524267 0.023293972 0.019784026 0.027952222 0.021995373 0.020378532 0.0225176 0.02312934
0.020980556 0.009344956 0.004521577 0.00781614 0.0097911125 0.004769868 0.0068561174 0.011162262
0.01231669 0.01294583 0.0046541207 0.0046455744 0.009575663 0.0067481752 0.003153693 0.006583875
0.011221473 0.011113129 0.009361096 0.0029813768 0.0030616124 0.005611985 0.0054865233 0.0029008957
0.0045002205 0.010628488 0.008259609 0.0064324522 -0.01042335 -0.0035818943 -0.0018634174 -0.019217642
-0.015457285 -0.010114696 -0.024751896 -0.022254271 -0.015134322 -0.0039282152 0.0051715863 0.007877323
-0.007717601 -0.005228179 -0.007005423 -0.015939653 -0.016381815 -0.011038016 0.01003039 0.016982878
0.017185083 -0.0010492373 0.0013639096 0.0016831519 -0.006139501 -0.007474302 -7.974513e-05 -0.00024360522
-0.007074056 -0.01633977 0.0049509592 0.00479747 -0.0067447675 -0.015356823 -0.013287179 -0.015748927
0.0025275955 -0.005299023 -0.01679498 0.009311442 0.008216784 -0.0036236162 -0.0069136396 -0.008851786
-0.012272445 0.0024866648 -0.0035856592 -0.013530329 0.011145648 0.00579967 -0.006834043 -0.0046195043
-0.008154618 -0.012938056 -0.009350926 -0.009997029 -0.015822701 -0.006264108 -0.009966171 -0.014920286
-0.024228204 -0.023850236 -0.025966862 -0.011635995 -0.014446298 -0.01745089 -0.011004862 -0.014028512
-0.018326422 -0.024689244 -0.027989244 -0.030317154 -0.017375024 -0.022762671 -0.023280878 -0.014289469
-0.02011384 -0.025807276 -0.02396641 -0.02666598 -0.032138094 0.017929513 0.015589557 0.012438854
0.023968026 0.013290474 0.0018238175 0.039449546 0.034302518 0.023977583 0.012280308 0.010265102
0.0083642695 0.017263737 0.008232245 -0.0005695107 0.033466753 0.029077725 0.020064095 0.0064293183
0.014619971 0.016866714 0.019852107 0.01203801 0.010839714 0.037379198 0.031544816 0.028002772
0.018269585 0.012640358 0.009459766 0.008137989 0.007444298 0.008918433 0.00516928 0.009226146
0.010041646 0.011693312 0.011171778 0.0065499824 0.008441991 0.011799075 0.0074044685 0.0009855931
0.010937001 0.008117908 0.008185771 0.0033203657 -0.00048393055 0.0051624808 0.0038159103 0.0022841042
0.006003794 0.01660449 0.008498846 0.002979691 0.0027297302 -0.009134485 -0.0021310092 0.0009457471
-0.0026819506 -0.01361845 -0.013243719 -0.016786935 0.00069050473 -0.0014529668 -0.01532678 -0.0034809029
00000000: b891 eb3c 8385 1d3d 9be9 253d 0c15 043d
00000010: 738e 1c3d 3c4d 2b3d a710 b23c a591 0c3d
00000020: 23b6 313d 3c24 0c3d 5d35 223d 1914 2a3d
00000030: 5af2 253d e4e4 443d c4c2 3b3d 7fd9 0d3d
00000040: 5ec9 363d 6041 4d3d 8144 1a3d c3b2 163d
00000050: 1bbf 263d 07d8 123d 4d2f 393d 22d6 373d
00000060: faff 093d c2ab 443d 0aab 443d 9410 d83c
00000070: b70b bf3c 5308 a33c c087 be3c c256 9a3c
00000080: 3b1f 323c 0098 433c f8bb 103c bd76 5b3b
00000090: 8f48 e03c beeb c13c a478 aa3c f98e d13c
000000a0: 5cfa 8e3c 4250 273c 4ae6 653c 8f46 e93b
000000b0: 54e1 5f3b 775e bd3c 15cf ab3c e976 6d3c
000000c0: efc0 9f3c f6e9 513c 846b af3b de53 0a3c
000000d0: 5fff 3a3b 1f41 7dbb 4a8c a33c cbde 533c
000000e0: fb72 3d3c 5330 a83c 351d 553c 85d7 8c3c
000000f0: c508 583c 0d07 563c ac82 5c3c 0c72 333c
00000100: eb8a 043c 053d cb3b cb5d 663c 3d2b f03b
00000110: 4368 133c 7fa1 9c3b e82a a23b 2acb b23b
00000120: b7c9 ce3c 00d3 be3c 1c12 a23c 0ffc e43c
00000130: a42f b43c e1f0 a63c d476 b83c be79 bd3c
00000140: 6adf ab3c 961b 193c bd29 943b 440f 003c
00000150: e76a 203c 8e4c 9c3b 48a9 e03b ece1 363c
00000160: f1cb 493c bf1a 543c 9881 983b e739 983b
00000170: 3ee3 1c3c cc1f dd3b 30ae 4e3b 8cbd d73b
00000180: 45da 373c d713 363c 485f 193c 3463 433b
00000190: 55a5 483b bee4 b73b 4bc8 b33b f41c 3e3b
000001a0: 9676 933b 1c23 2e3c 5053 073c 52c7 d23b
000001b0: b3c6 2abc 37be 6abb ea3d f4ba 516e 9dbc
000001c0: 8d40 7dbc 1cb8 25bc 7dc4 cabc 974e b6bc
000001d0: f3f5 77bc 42b8 80bb 6976 a93b e30f 013c
000001e0: eee3 fcbb 2551 abbb bf8d e5bb e093 82bc
000001f0: 2833 86bc cbd8 34bc 8156 243c ad1f 8b3c
00000200: bbc7 8c3c 9086 89ba 36c5 b23a 359d dc3a
00000210: de2d c9bb fdea f4bb d73c a7b8 4770 7fb9
00000220: 7ccd e7bb fbda 85bc a83b a23b 1834 9d3b
00000230: 3603 ddbb 2f9b 7bbc 78b2 59bc e503 81bc
00000240: 04a6 253b 6da3 adbb a095 89bc 058f 183c
00000250: b19f 063c 317a 6dbb d08b e2bb 1507 11bc
00000260: 5d12 49bc 50f7 223b 61fd 6abb 50ae 5dbc
00000270: 3c9c 363c 280b be3b 1cf0 dfbb 365f 97bb
00000280: f29a 05bc 24fa 53bc a034 19bc 94ca 23bc
00000290: 9c9e 81bc 2543 cdbb 2749 23bc 3774 74bc
000002a0: 3a7a c6bc 9261 c3bc 75b8 d4bc e6a4 3ebc
000002b0: 2ab0 6cbc 2bf5 8ebc bd4d 34bc d8d7 65bc
000002c0: 4b21 96bc 1941 cabc b349 e5bc ae5b f8bc
000002d0: 1156 8ebc c878 babc 8ab7 bebc 611e 6abc
000002e0: c8c5 a4bc c869 d3bc 3455 c4bc 9d72 dabc
000002f0: 3ca3 03bd eae0 923c 576b 7f3c 56cc 4b3c
00000300: 9858 c43c 4ac0 593c 290d ef3a d995 213d
00000310: cc80 0c3d a36c c43c 5833 493c f52e 283c
00000320: 4a0a 093c ae6c 8d3c 8ae0 063c 374b 15ba
00000330: 6f14 093d 6934 ee3c 755d a43c 08ad d23b
00000340: 9a88 6f3c 102c 8a3c e3a0 a23c 133b 453c
00000350: 0e99 313c ee1a 193d 2335 013d 1266 e53c
00000360: 19aa 953c 8119 4f3c 22fd 1a3c 3355 053c
00000370: 4cef f33b 9f1e 123c 1063 a93b 4329 173c
00000380: b785 243c 4e95 3f3c d509 373c 3ca1 d63b
00000390: 4750 0a3c e850 413c 2fa1 f23b 042f 813a
000003a0: 1b31 333c f900 053c 9d1d 063c 7e9a 593b
000003b0: 0fb8 fdb9 072a a93b 5a14 7a3b e9b0 153b
000003c0: 79bb c43b 2406 883c be3e 0b3c eb46 433b
000003d0: 46e5 323b cfa8 15bc 67a8 0bbb 03ec 773a
000003e0: aac3 2fbb eb1f 5fbc 2ffc 58bc c184 89bc
000003f0: fd02 353a 7a71 beba 2d1d 7bbc dc1f 64bb
