results_auto/01_domain_adaptation/maml_supervised/June_14/officehome_maml_order_2_seed_0_shots_1_ways_5_meta-lr_0.0001_dropout_0.1_RandAugment-prob_0.5_pre-train-wts_datetime_13_06_2021_17_37_42/intermediate_25000_model.pt (torch, 412181 bytes, 54 tensors)

conv1.weight f4 [32, 3, 3, 3]
00000000: fcf9 e43e 31a7 be3d 1545 c6bd 3999 70bd
00000010: d50f 45be e636 21be 29f8 053e c9c8 113d
00000020: 908f 1dbe bc0e ca3b d5c1 5ebe c0ca 9d3d
00000030: 63c8 aebe eda4 16be 6908 42bc c830 baba
00000040: 17df 153e 8389 923e 8d23 53bf 1dbd f0be
00000050: 0315 173e 3c25 90be 8df3 843d a33c 093f
00000060: bc74 12be c9b7 a13e f396 483f 127f ca3d
00000070: ff7d 6e3c f8b8 b33e 5952 14be 4c13 593e
00000080: 3653 ad3e b58f 00bf a536 f7be 297d adbd
00000090: be67 3abd b05a 743e 6e8d b13e 42a3 36be
000000a0: 09c9 d0bc 79e1 c03d 00a9 02bf 04a1 14bf
000000b0: c057 8fbe f424 543e 8353 b33e d8c9 ea3e
000000c0: 2c61 44be 17e4 c73c 509a 9c3e cc03 3b3c
000000d0: 68fd 0dbe 75fa b8bc 189c bf3e d26f b33d
000000e0: 8976 873e 8fe3 90be 1ff4 a2be d5f0 bcbe
000000f0: 098f 33bd 6783 62bd bae0 b7bd 9ee7 ba3e
00000100: 9540 a23e 7666 fa3d 5853 9dbb 42d5 59bd
00000110: 3b28 28be de99 413d 2f14 a3be 895d 24be
00000120: d060 f53e 45a8 ee3e d383 0c3f e943 2c3e
00000130: 1c82 6abd 86cf afbe 6042 78be fa4f eebe
00000140: 3cad b8be c60a fc3e 7fc3 b83e 13f1 5dbd
00000150: 9b38 15be 48c3 c3be 67b4 d9be 65e4 603d
00000160: 1c8a 273e 3aff 85bd 5a90 da3e 38e8 e83e
00000170: 8599 d83e ec05 64be cf56 09bf 4ebd 01bf
00000180: b69e b53d c09c d53d d343 0abe 7974 723c
00000190: 8ab4 d03e 3d55 053f af9d ebbe d38c c6be
000001a0: 6320 a9be 044c 7ebd 654d 19bd 40e7 ac3d
000001b0: b85f 94bd 47bb 943d 36f7 97bd 4566 d83d
000001c0: db68 febd 38c2 1a3e a170 073d 5944 8bbe
000001d0: 3c42 4ebe 726e 443e b3b3 b73e 3e99 513e
000001e0: 6929 543e 0d6f 313e a324 a9bc 4fe5 d0bd
000001f0: 9e8b 9fbe b420 a1be b058 8bbf 109a b13d
00000200: 4132 53be ddc1 49bf 327b 973e d0ce 31bc
00000210: e077 a7bf 5437 533e 104a 92be e43a 69be
00000220: 2198 09bd c849 36be 8ee3 f53d aa24 813e
00000230: 0e4e 9d3e 25e8 d53e edaa 1f3f a26e 403e
00000240: 3136 cebe 30f5 cabd 9a00 2f3d 51cb b3be
00000250: df07 c5be 6462 a0be 4849 0ebf c11c b9be
00000260: 4671 b5be 0398 cb3e e102 f93e 58b2 d8bc
00000270: d25c 933e f687 a73c c7a8 c93d 70b8 74bd
00000280: e48c 9f3d e738 18be cd7d 17bf 0421 8cbe
00000290: 5cd9 40be 09b5 7ebd 4910 e93d a5d9 593e
000002a0: d0c5 41ba 237a f13e e282 fb3e 912b c8be
000002b0: 448f 593e a31c 30bc e504 b3be 3d34 8c3e
000002c0: 56c8 c3bb b53c 97be e082 993e ef82 50be
000002d0: 022d 3a3e f6cf d23e 3aa5 c23e dc7f 5dbc
000002e0: 96ca 853e f72e 723d 2181 e3be cd36 03be
000002f0: 4b43 eebe eddc 543d 1e2f be3e 32e7 563e
00000300: 4f01 21bf e8c6 5cbe 5099 0bbf b706 fe3c
00000310: 574b 6b3e a4b2 7d3e 9edb 3dbe 5cf0 853e
00000320: 54f9 573d aec5 cfbe b6b4 b0be d598 19bf
00000330: d556 f63d d45f 263f c9b3 493e bb4e 363e
00000340: f398 803e 6deb a33d 91ae a9be b389 7fbe
00000350: 9538 aebe 8d34 903e 1b48 db3e be43 8c3e
00000360: 0d53 51be 9b5c edbe bf70 173f aab7 ccbe
00000370: 91c8 97be 035d 0c3f ee9a 05be 0818 69be
00000380: 58e4 a23d 1218 853e bbcc 02bf 14b9 e03d
00000390: f781 c43c cb21 41be 8562 523e 8337 8e3e
000003a0: 5336 44bd c616 b13e e207 a33e bca1 c1be
000003b0: bd76 993e 37b0 11be 7221 8fbe 6626 423e
000003c0: c342 873d 2f7a 53bd 40a1 19bd 2f99 ba3e
000003d0: 4b52 bd3e 1dbd fbbd ed5f 0a3f c7da c23d
000003e0: 8095 8abd e883 b93e 1428 86bc 0b43 1c3c
000003f0: 322f 9a3e 8562 c1bd 572d 8cbe af40 41bd
0.44721973 0.09309233 -0.09681145 -0.058739875 -0.1924432 -0.15743598 0.13082947 0.035591874
-0.15386796 0.0061663073 -0.21753629 0.07704687 -0.34137258 -0.14711352 -0.011842825 -0.0014205212
0.14635883 0.28620538 -0.8247612 -0.47019282 0.14754109 -0.28153408 0.06491766 0.5360815
-0.14302343 0.3158553 0.7835533 0.09887518 0.014556407 0.35102057 -0.14484538 0.21198767
0.33852547 -0.5021928 -0.48283878 -0.08471138 -0.045509093 0.2386272 0.34678215 -0.17835715
-0.025486486 0.094180055 -0.51039124 -0.5805819 -0.27996635 0.20717221 0.35024652 0.4585712
-0.19177693 0.024400754 0.3058648 0.011414479 -0.13866198 -0.022580365 0.37423778 0.087615624
0.26457623 -0.28298613 -0.31826875 -0.3690249 -0.04383758 -0.055301096 -0.0897841 0.36504835
0.31689897 0.12226574 -0.004801195 -0.053181894 -0.16421597 0.04726588 -0.31851336 -0.16051306
0.47925425 0.46612754 0.5488865 0.1682278 -0.05725299 -0.34338015 -0.2424407 -0.46545392
-0.36069667 0.4922697 0.36086652 -0.054184984 -0.14572375 -0.38234925 -0.4252045 0.054905314
0.16361278 -0.06542821 0.42688257 0.4548967 0.42304626 -0.22267884 -0.53648084 -0.5067948
0.08868162 0.10430288 -0.13502435 0.014798277 0.4076274 0.5208319 -0.4601874 -0.38779315
-0.33032522 -0.062084213 -0.037427325 0.08442545 -0.072448194 0.07262283 -0.074201986 0.10566381
-0.12422343 0.15113151 0.033066396 -0.27200583 -0.20142454 0.19182757 0.35879287 0.20468614
0.20718922 0.17327519 -0.020647353 -0.10199987 -0.31161207 -0.31470263 -1.088644 0.08671963
-0.20624639 -0.78811437 0.29586178 -0.010852531 -1.3083458 0.20626575 -0.2857213 -0.22776371
-0.033592347 -0.17801583 0.12006293 0.25223285 0.30723614 0.41778675 0.6237019 0.18792203
-0.4027572 -0.09910047 0.042725183 -0.35116056 -0.38482568 -0.31325066 -0.5558057 -0.3615475
-0.35437983 0.39764413 0.4863501 -0.026452228 0.28781754 0.020450573 0.09846645 -0.059746206
0.07790545 -0.14865457 -0.5917633 -0.2736894 -0.18832916 -0.062184367 0.11380059 0.21274431
-0.0007391842 0.47163495 0.49123293 -0.3909574 0.21246058 -0.010749015 -0.34964672 0.27383605
-0.0059748096 -0.29538503 0.29982662 -0.20362447 0.18181232 0.41174287 0.38016683 -0.013519254
0.26131123 0.05912682 -0.44434455 -0.12813874 -0.46535715 0.051968504 0.37145323 0.20986632
-0.6289262 -0.21560252 -0.5453081 0.031009061 0.22977959 0.24775177 -0.18540809 0.26159942
0.052728012 -0.40580505 -0.34512872 -0.5999883 0.12028281 0.6498997 0.19697489 0.17803471
0.2511669 0.08003888 -0.33140996 -0.24954872 -0.34027544 0.28165093 0.4282845 0.27395433
-0.20441838 -0.46359715 0.5915641 -0.39983875 -0.29645208 0.54829425 -0.13047382 -0.22763073
0.07953709 0.25994927 -0.51093644 0.10972801 0.023987753 -0.18860547 0.20545395 0.27776727
-0.04790337 0.34587687 0.31841952 -0.37818706 0.29973403 -0.14227377 -0.27955204 0.1895996
0.06604531 -0.051630195 -0.037507296 0.36444995 0.36976847 -0.1229193 0.5405262 0.09514385
-0.06766796 0.3623345 -0.016376533 0.009537469 0.30114132 -0.09442619 -0.27378342 -0.047180828

conv1.bias f4 [32]
00000000: 4a9e abbd 2f8a c6bf 1ea6 943d 85dc 70be
00000010: 0785 38bf f523 d8c0 1f71 45bd 75a2 b3bd
00000020: 3d76 90be 9686 5a3e 25bf 95be 69aa 08bd
00000030: fb5e 633f e312 d3bf a7b0 50be f642 1abe
00000040: 407b cabc 9836 9bbe b72e 4dbe 43cf 62c0
00000050: 14b0 7f3f b85b 5f3d cb9b a93d 9698 093e
00000060: 6f25 24c1 6870 613e 23f7 33be e877 8ebd
00000070: 2133 7d3e 43b1 f0be 1fc3 2bc0 e55c 9b3d
-0.083798006 -1.551092 0.07258247 -0.23521622 -0.72077984 -6.7543893 -0.048203584 -0.087712206
-0.2821521 0.21340403 -0.29247394 -0.03336564 0.88816804 -1.6490139 -0.20379888 -0.15064606
-0.024716973 -0.3031509 -0.20037352 -3.5439003 0.9987805 0.05453083 0.08281668 0.13437113
-10.259139 0.22015536 -0.17574744 -0.06956464 0.24726535 -0.4701024 -2.6837842 0.075860776

batch1.weight f4 [32]
00000000: 1855 a43f 8da6 853f 03f3 263f 485f 9b3f
00000010: 7e12 6f3f 760b 583f 836c 853f 9f52 893f
00000020: 1607 573f 66ff 893f 9a46 a63f d771 543f
00000030: 8f9b 683f d386 1b3f a8cd 003f 3a77 713f
00000040: b596 4c3f 9a4a 8e3f ac9d 9d3f f14d 2a3f
00000050: 4316 463f 24b8 733f e10e 6a3f e436 943f
00000060: db12 4c3f 9585 913f 1a57 b53f 856e 6e3f
00000070: 68d3 ae3f b9de 103f 164e 2e3f 44a0 043f
1.2838469 1.0441452 0.65214556 1.2138453 0.9338759 0.8439249 1.042374 1.0728339
0.8399519 1.0781066 1.2990296 0.82986206 0.90862364 0.607526 0.50313807 0.9432255
0.7991746 1.1116517 1.2313743 0.6652518 0.7737772 0.9520285 0.91428953 1.1579251
0.7971627 1.1368891 1.4167206 0.9313739 1.3658266 0.5658985 0.680879 0.51807046

batch1.bias f4 [32]
00000000: 1923 143f 515f 29bf bb2d 663f 24c2 1a3d
00000010: 99c4 02bf 750e 8e3e 1e42 bc3f abe9 153f
00000020: f0c8 2a40 b634 fb3d 951b 8f3f ff3d f5be
00000030: 2dcd d2bd 3d81 2cbe 8e28 7c3c 93d2 15bf
00000040: f630 8cbd eb01 98bd 3596 4ebf c4bd 8abe
00000050: b90e 193d 00d2 203e 66d6 693c 6ada b03d
00000060: d1b0 673e aae6 12bd 02a5 943e b0b4 e23c
00000070: c329 77bd 693e d23d 3ce3 c33f d410 4cbd
0.57866055 -0.66161066 0.8991353 0.037782803 -0.51081234 0.27745405 1.4707677 0.58559674
2.6685143 0.12265913 1.1180292 -0.47898862 -0.102930404 -0.16846175 0.015390528 -0.58524436
-0.06845276 -0.07422241 -0.8069795 -0.27097905 0.037367556 0.15705109 0.014272308 0.08635409
0.22626044 -0.03586451 0.2903214 0.02767405 -0.06034256 0.1026581 1.5303721 -0.049820736

conv2.weight f4 [32, 32, 3, 3]
00000000: bbcf 01be d276 0b3e f588 f3bb 7549 eabd
00000010: f73f ae3e eb72 e33e cebf 6fbd cb7b 4b3e
00000020: 05eb 183d 09e9 4e3d e1db b8bd a2ad d83d
00000030: 7a05 d4bc 3d0d 8abd c315 0c3f 4520 6dbe
00000040: fc7f 85be 3fdc 5b3d 3299 28bf 6e6a fdbe
00000050: 2ac2 f5be a969 fabe 91c9 3bbe e230 62bf
00000060: e4c0 c93d ff6d 1b3e 60e6 8f3e 6b59 c93e
00000070: 4575 683e 2e23 9dbe c0ec 0abe efc1 1abe
00000080: 9a65 52bf 4479 ce3d afff 1fbe 95dd bcbe
00000090: f628 c63e 4fd7 5e3e c7a3 9d3d 212b 9e3e
000000a0: 00af 023e 57f2 6d3d 30bd 493e 4075 38bd
000000b0: dd0f 863d 5a08 18be b11b 66be f48c 23be
000000c0: ddec 853d 2fd0 3fbd 8990 f43d ceda 4b3e
000000d0: d9cb 7e3d 2abd 163e 8779 e43d 831a 87bd
000000e0: 50e4 d8bd 1131 373e 44ad cdbc f280 923d
000000f0: 5890 2d3e 60fc 93bd 5fa0 803e 73a1 2a3e
00000100: 7661 013e 652c f1bd 480a 613e dd12 4dbd
00000110: 9449 37be 1fb6 f2bc e214 4a3e bc07 c3bd
00000120: ece6 32bd c423 8e3e c96e 883e 685c 2cbe
00000130: 7b26 8b3e 93ef c63e 9edd 09bf 57d5 0ebe
00000140: a58c 95bd fd80 5bbe 9aac 20bf 74c9 98be
00000150: d7e5 bbbe 15c0 94be 5dba 653e b409 cb39
00000160: f035 283d d4a5 f53e c512 a0be dc30 13be
00000170: e543 d0bb adcb 2abe ca82 1c3e 65ff 193e
00000180: 769d f8bd 591c e8be 147a a2be ea80 03bf
00000190: c621 2cbe 2c98 8cbe c451 afbe 752c 953e
000001a0: 7c5f f53d ad97 85be 31b1 f03e 5d59 8f3e
000001b0: c397 b8be d50f 5abe e236 53be c8c7 3d3e
000001c0: 1e0a 6c3e 7e74 93bc 0274 52be 4639 dab9
000001d0: c434 9e3e e646 1a3e 908b 093d e463 bf3d
000001e0: 8bed 133e b902 0bbb 79db f3bd c774 7d3e
000001f0: cd40 f23d db0d 6abe 0d61 17bf 661a 11bf
00000200: 6c1d 92be 5d5a e3bd 1c70 2bbe d77c 303e
00000210: a176 fd3d 82b3 4c3e a52a f63e 99dc 803e
00000220: 2d01 92be a8c5 3dbd 8176 d53e b978 2b3e
00000230: 3764 cc3d 225d 943d a86b 1bbe b5d1 84be
00000240: abf8 1abf 4319 14be 5409 afbe f498 b93c
00000250: 8f4a 083f 5f5a 7a3e f109 7fbd b922 933e
00000260: 0c51 223e 9e20 823e e656 8d3c 8cac 803e
00000270: 2037 993c e1eb 013d 2f57 9dbd a8c1 31be
00000280: c124 37be aad5 cfbe 33e2 87bc 3855 48be
00000290: 50ca c4bd 32a0 983e 13cb ea3c ae62 d53e
000002a0: 5673 113f fe79 523d ee0f bb3e c165 443e
000002b0: 355a aebe fd50 b539 421c 193e 5a5c c23d
000002c0: f4c6 3c3d 3d7b 0fbc 37dc 6e3d aca7 61be
000002d0: 3d0f 763c cc21 c0bd c2a3 79be 1773 3c3d
000002e0: b461 2e3e b3e5 0e3d dca8 66bd 5dad 4f3e
000002f0: 31aa 983d 869f ea3d df10 c13d d005 98bd
00000300: f930 b1be 0a6e 05be d481 48be a6a9 13be
00000310: 3bcc 61bc 93db fc3d 09b2 b6be 5e69 30bf
00000320: 4524 9abe 205f f0be c5b7 3d3c f446 a53e
00000330: 8bc5 873d d5d0 8c3e 67ab 373f e0e3 cdbd
00000340: be7f 80be 1a55 443e 72e7 d5bd bfc4 613d
00000350: 22a5 6e3e 017e dc3d cc71 193d 0ed8 103e
00000360: 4fc6 c3be 808a 59be efcf 773d 48dc 1dbe
00000370: 6020 183b f417 d63e 3bdf e4be f9aa d9bd
00000380: 5b82 b3bd 47a2 a9bc d819 1bbe 6f39 f7be
00000390: 5837 82be 774f 2fbe 0d00 58bf 49c7 063d
000003a0: b34b a73d ed8c b13d 8289 483e 4e9c 083d
000003b0: ade4 98be 7926 953e 1d49 1f3e 2cf3 4a3d
000003c0: 30ec c4be 4668 6dbe 52cf 03bf a7d5 a43d
000003d0: c67d a43e fcc8 7e3d 142a 2b3d 1b28 213e
000003e0: 43e9 953d 830f 9bbe b932 6a3d 4ca1 9abb
000003f0: 2a66 39be 1ef6 e1be 42a8 cd3d 9522 81ba
-0.12676899 0.13619545 -0.007432098 -0.11439792 0.34033176 0.44423613 -0.05853253 0.19871442
0.037333507 0.05051521 -0.090263136 0.10579993 -0.025881518 -0.06740806 0.54720706 -0.23156841
-0.26074207 0.05367684 -0.6585876 -0.49495262 -0.47999698 -0.48908737 -0.1833861 -0.8835584
0.09851244 0.15178679 0.2810545 0.39326033 0.22700985 -0.30690902 -0.13566875 -0.15113042
-0.8218628 0.10081723 -0.1562488 -0.36887804 0.38703126 0.21761821 0.07697254 0.3089228
0.1276207 0.05809244 0.19701076 -0.045033693 0.065459944 -0.14846936 -0.22471501 -0.15971738
0.06539319 -0.0468294 0.119416304 0.19907686 0.062206123 0.14720598 0.11155992 -0.065968536
-0.10590422 0.17889811 -0.025107034 0.071535006 0.16949594 -0.07225871 0.25122353 0.1666315
0.12634835 -0.11776046 0.21976578 -0.050066818 -0.17899162 -0.029627858 0.19734529 -0.095229596
-0.043677256 0.27761662 0.26647022 -0.16832125 0.27177796 0.38854656 -0.53853786 -0.1394857
-0.073022164 -0.21435924 -0.6276337 -0.29841197 -0.3669879 -0.29052797 0.22434373 0.00038726407
0.041067064 0.4797808 -0.3126432 -0.14374107 -0.00635575 -0.16679259 0.15284267 0.15038832
-0.12139408 -0.45334128 -0.31733763 -0.5136858 -0.16809759 -0.27459848 -0.3424207 0.2913548
0.11981103 -0.26092282 0.47010186 0.27997866 -0.36053285 -0.21295102 -0.20626405 0.18533242
0.23050734 -0.017999884 -0.20552066 -0.00041622872 0.30899632 0.15066108 0.033580363 0.093452245
0.14446084 -0.002121134 -0.119070955 0.24751578 0.11828766 -0.22856848 -0.5913246 -0.56680906
-0.28538072 -0.1110122 -0.16741985 0.17235123 0.12376142 0.19990352 0.4807941 0.25168303
-0.28516522 -0.046331078 0.41691974 0.16745271 0.09980052 0.07244326 -0.15177786 -0.25941244
-0.6053569 -0.14462762 -0.34186804 0.022655942 0.5323877 0.24448536 -0.06226534 0.2873743
0.1585123 0.2541551 0.01725335 0.25131643 0.018703043 0.031719092 -0.076826446 -0.1735903
-0.17885114 -0.405927 -0.016587352 -0.19563758 -0.096089005 0.2980972 0.028661286 0.4167685
0.56816614 0.051385872 0.3653559 0.19179441 -0.34053198 0.0003458335 0.14952186 0.09490271
0.046088174 -0.00875741 0.058315482 -0.22036618 0.0150182815 -0.09381446 -0.24378875 0.046008196
0.17029458 0.034887027 -0.05631338 0.20280977 0.074543364 0.11456208 0.09427046 -0.07422984
-0.34607676 -0.13030258 -0.19580775 -0.14420184 -0.0137816025 0.12346568 -0.35682705 -0.6891078
-0.30105796 -0.46947575 0.011579459 0.32280695 0.06629475 0.27503076 0.71745914 -0.10053229
-0.2509746 0.19173089 -0.10444535 0.055119272 0.2330518 0.10766221 0.03746204 0.14144918
-0.38237235 -0.2124424 0.060501035 -0.15416062 0.0023212656 0.4181515 -0.4470156 -0.106283136
-0.08765098 -0.020707263 -0.15146577 -0.48286006 -0.2543285 -0.17120157 -0.8437508 0.032904897
0.08168735 0.086694576 0.19583705 0.03335219 -0.29861966 0.29130915 0.15555234 0.049548313
-0.38461447 -0.23184308 -0.5148822 0.080485635 0.32127208 0.062203392 0.041788176 0.15737955
0.07319882 -0.30285272 0.05717728 -0.004718935 -0.18105379 -0.44133085 0.10041858 -0.0009852225

conv2.bias f4 [32]
00000000: 509c c53d 2099 153e 3698 093e be53 153e
00000010: 2801 913d 7809 be3d 9d56 b1bf b83a 12bd
00000020: 28d7 bc3e 0d76 abbe 0e5e 843e 9ecd 15be
00000030: 54f2 60bd 403f 343e 2d7e 553d 7155 b7bd
00000040: c759 84bd a0c7 31be fabd 74bd faa8 d4bd
00000050: 0dab 42bd f726 2d3d 80f9 053e db8c 173d
00000060: d1d5 a33e b0e1 353b 9ff5 ac3b d3d1 08be
00000070: 6902 11bf eca0 b03e aea6 31bd 925f c53e
0.09648955 0.14609194 0.1343697 0.14582726 0.07080299 0.0927915 -1.3854557 -0.03570053
0.368829 -0.33488503 0.25853008 -0.14629218 -0.054918602 0.17602253 0.052122284 -0.089518435
-0.06462436 -0.17361307 -0.05975149 -0.10383792 -0.047526408 0.042273488 0.13083458 0.036999565
0.31999066 0.0027752928 0.0052783038 -0.13361292 -0.566443 0.34497774 -0.04337185 0.38549477

batch2.weight f4 [32]
00000000: 947a 633f be44 7f3f cfd5 b73f cd65 913f
00000010: de86 803f 12ac 9b3f ebdd 9b3f ccd7 2c3f
00000020: 1216 9a3f 41aa 793f 22da 983f aee2 6b3f
00000030: deae 0f3f 10eb a93f b853 883f 551c ab3f
00000040: 73dd 4a3f a37c 643f 464b 713f 595a 493f
00000050: 1af6 963f c8f8 823f 951c 943f 15cd 8b3f
00000060: ed8b 783f 4071 353f e198 4b3f 64ca 1f3f
00000070: d4e6 893f 9bd1 803f 3544 663f 0c65 5f3f
0.88858914 0.9971427 1.4362124 1.1359192 1.0041158 1.2161887 1.2177099 0.6751678
1.2037985 0.9752541 1.1941569 0.9214276 0.561262 1.327486 1.0650549 1.3368021
0.79244155 0.8925268 0.94255483 0.78653485 1.1793854 1.0232172 1.1571223 1.0921961
0.9708851 0.7087593 0.7953015 0.624182 1.0773568 1.0063967 0.89947826 0.8726356

batch2.bias f4 [32]
00000000: fd5e 99bd 57f8 08bf 2346 7ebe 8444 12bf
00000010: eab7 94be 9750 1cbf 9f31 c0be f90e f2bd
00000020: 2c79 efbe b345 69be ef22 dfbe 57a3 abbe
00000030: b0cd 5abc 364c ccbe 8cf6 c1be c351 fabe
00000040: d467 c2be 3a23 cdbe a730 e4be 082a 3a3c
00000050: c134 d1be 5faa c4be 63cc 13bf 5e84 9cbe
00000060: 490d 0bbf f46e 85be 2e2e 65be ba2a 89be
00000070: ce35 9dbd a75d a0be ad31 adbe 3d6a eabe
-0.07488821 -0.53503937 -0.24831443 -0.57135797 -0.29046565 -0.6106047 -0.37537858 -0.11819262
-0.46772134 -0.22780494 -0.4358134 -0.33523056 -0.013354704 -0.39901894 -0.37883413 -0.48890504
-0.3796984 -0.40065938 -0.4456837 0.01136256 -0.4086056 -0.38411233 -0.57733744 -0.30569738
-0.54317147 -0.26061213 -0.22380897 -0.2679041 -0.07676278 -0.3132145 -0.33826962 -0.45784178

conv3.weight f4 [32, 32, 3, 3]
00000000: a4c5 023f 3ee2 ec3e efec 163e bc31 d8be
00000010: 4e8b 8cbc 3026 853e e355 ddbe ec66 8cbe
00000020: 6164 60bd 20c8 003e c04e 873c ea9a e3be
00000030: 6348 76be 6032 93bd 8711 993d 8703 953d
00000040: b01b 0b3e fc19 bfbe 9f19 253d 7dc5 7ebd
00000050: 81c5 cbbe 97f3 843e 6a5a a53d bbe7 27be
00000060: 6fb3 f53d 692d 933c 40bd 86be bf46 d4be
00000070: 4fde e0bd a935 c63e bd35 afbc 6fca b7be
00000080: da01 383f 6903 dcbe 1a88 07be 7e46 d63e
00000090: 8faf 8b3e 67ba fa3e 00f3 e83d 86d0 88bd
000000a0: c4a3 f33d 6f24 1fbd 1ffd 3d3c 268b 433c
000000b0: 9334 30bd c732 9d3e c467 c13e c9c6 913e
000000c0: f99a 72bd 4e82 b13e 47e5 773e 940c d6be
000000d0: 3ddb 423e 0f0a 4bbe e246 c13e 4e7e c6bc
000000e0: 6c9c 84be e396 373e 04fc e3bd 7707 7cbd
000000f0: 6e41 9c3e 5088 bf3e 71ad d33d f606 a0be
00000100: bf21 a9be 850b 18bf e7e9 583e 8db3 46be
00000110: 22c1 99be 910e 31be cd89 7cbd 15f5 a13d
00000120: d5c4 aa3c 9a72 6fbe 7492 a7be 7f8f 58bc
00000130: b300 c0ba 1e0a 863e d502 103e 6afb 963d
00000140: cc37 8a3e a09d 62bf 1084 cbbd fcf0 a23e
00000150: dfef 33bf 002f a9be cc93 923e 49e7 32be
00000160: bd38 a1bd 4b94 be3d 0952 04bd fcd5 02bf
00000170: 19fb bd3e 64bf 4ebe adc6 91bc b138 283e
00000180: 60f7 96bd 04e5 17be 6fcc 06be 4563 9c3c
00000190: 0daa 33bd c81c 7f3e cae4 8a3e ad3e 1ebe
000001a0: 38ac 35be 734a 243e f27f 8a3e 9b01 4cbe
000001b0: f5c7 59bd 9206 6fbd 57ba 87be a90f 26be
000001c0: ffd7 203c e5ce 95be e3a8 6fbe 863d 963c
000001d0: 18e4 7dbe 84f6 9abd f076 0bbd a5d2 d03d
000001e0: 9c72 833e 10b0 2f3b 1372 e7bd 5165 45bd
000001f0: 2ea9 d43c 8398 cfbe 19ae 49be 6065 a3be
00000200: 103f 22bf 40ec d5bd 9f69 4abd 0f7f ac3d
00000210: 3d93 e73d 5d73 633e 1781 1abd c1d4 853e
00000220: ec8e 20bd 027c 99be 74f9 1c3e d0dd 92be
00000230: 8645 29bf d227 44be 31d8 9a3e c1da b2be
00000240: 87d6 423e fc1a 07bd 042d 1abf 8f5e 30bc
00000250: d150 ae3c 70c0 fe3b 3215 2bbe 1234 07be
00000260: 4657 46be b85c fc3c b485 76be dcb3 dd3e
00000270: 931e 603e 48dc 643e 04d8 553e e59a 55be
00000280: e0d9 ed3d f81b 273e 0449 07bd acf1 173e
00000290: 411c b63e a1e2 5dbd 1ecc 32be 615c 3dbe
000002a0: 65f6 ec3d 8cc4 ddbe 74cf c9be b268 8ebe
000002b0: b2d8 2a3c ba1d 133e 3845 bcbe 8e53 c23c
000002c0: 9f5a 4abe a482 acbe b76f 8ebe eaf1 31be
000002d0: 6f3a febd 612d a6bc 4cd3 943e 4f6a 893e
000002e0: 5f82 75bd b70d 473e 2209 9b3e 2aa5 8b3d
000002f0: 061b ef3d 2588 b93e 496b 773d 76a8 b03d
00000300: 91c0 aa3e c927 dabe 60d8 85be 722c c2bd
00000310: 7959 d43c 53a4 0a3e 728d 813e e30e bd3c
00000320: 3f05 80be 3b1f aa3e fdc3 d33e 5dae 233e
00000330: 0188 1abd 1b77 4c3e 7b33 993c 1a2d ea3d
00000340: acfe 98be 78f9 28be ee98 9abe 0b06 65be
00000350: ae03 b9bc 622a 25bf efb0 6cbc 2e7a 7f3e
00000360: 00eb 673e 095a c1bd a2ff 6dbf b66c 2d3e
00000370: 0743 9cbe 6d53 95be 4b5c ffbc dc14 4cbe
00000380: 432e acbd c15a 7f3d d315 30be 1795 16bf
00000390: e909 8ebe c303 66bb a2de f7be 98ec 2cbd
000003a0: d3ee 9d3e cdc6 7b3e 6e7d 6b3e ddbb 303e
000003b0: 514d a3be 3ae5 f03e cb1a 7a3e a779 02bf
000003c0: 23d3 023f 4427 a03d c5c0 80be 3dee 693d
000003d0: 252c 17be ec48 9ebd b799 823e 893f 8b3e
000003e0: 99b5 2dbe 9faa 85bb f588 8abe b722 12bf
000003f0: f67f 13be 8376 8dbe e781 0d3e 2722 42bd
0.51082826 0.4626636 0.1473882 -0.42225444 -0.01715627 0.26005697 -0.4322959 -0.27422273
-0.05478323 0.12576342 0.016517043 -0.44454128 -0.24051051 -0.07187343 0.07474046 0.072760634
0.1358478 -0.37324512 0.040307637 -0.06220006 -0.3979912 0.25967094 0.08073886 -0.16396992
0.11997115 0.01796599 -0.2631626 -0.41460225 -0.10979902 0.38712814 -0.02138793 -0.35896632
0.71877825 -0.42971352 -0.13235512 0.41850656 0.27282378 0.4897034 0.113744736 -0.06680398
0.1189647 -0.038853105 0.011595993 0.011935031 -0.04301889 0.30702803 0.3777448 0.28471974
-0.059229825 0.34669727 0.24208556 -0.4180647 0.19028945 -0.19828056 0.37749392 -0.024230149
-0.2590059 0.17928652 -0.111320525 -0.061530557 0.3051867 0.37408686 0.10335816 -0.3125531
-0.3303356 -0.5939258 0.21182977 -0.1940443 -0.3003016 -0.17290713 -0.061654855 0.07908074
0.02084581 -0.23383561 -0.32728922 -0.013217806 -0.0014648646 0.26179594 0.1406358 0.07372172
0.26995695 -0.88521767 -0.09937298 0.3182448 -0.7028789 -0.3304367 0.28628385 -0.17471041
-0.0787215 0.093056284 -0.032304797 -0.51107764 0.37105635 -0.20190197 -0.017794931 0.16427876
-0.07371402 -0.14833456 -0.13163923 0.019090304 -0.043863345 0.24913323 0.27127677 -0.15453596
-0.17741477 0.16044025 0.2705074 -0.19922487 -0.05316921 -0.058355875 -0.26509354 -0.16216911
0.0098171225 -0.2925941 -0.23404269 0.018339884 -0.24794042 -0.075665504 -0.034048975 0.10196427
0.25673378 0.0026807822 -0.11301055 -0.048192326 0.025959577 -0.40546045 -0.19695319 -0.3191328
-0.63377476 -0.10445452 -0.049417134 0.08422672 0.1130738 0.22211976 -0.037720766 0.2613888
-0.0391988 -0.29977423 0.15329534 -0.28684855 -0.6612171 -0.19155815 0.30243066 -0.3493252
0.19027148 -0.03298472 -0.6022494 -0.010764732 0.02127877 0.007774405 -0.16707304 -0.13203457
-0.1936923 0.03080593 -0.24074441 0.43301284 0.21886663 0.22349656 0.20883185 -0.20859869
0.11613822 0.16319263 -0.033028618 0.14838284 0.3556843 -0.05417121 -0.17460677 -0.18492271
0.115704335 -0.43314016 -0.39416087 -0.2781425 0.010427641 0.14366809 -0.3677156 0.023721483
-0.19761132 -0.3369342 -0.27819607 -0.17377439 -0.12413489 -0.02028531 0.29067457 0.2683892
-0.059938785 0.19438826 0.30280405 0.06818612 0.11675076 0.36236683 0.06040505 0.086258814
0.33350042 -0.4260848 -0.26141644 -0.094811335 0.02592157 0.13539247 0.25303227 0.023078388
-0.25004002 0.33226952 0.41360465 0.15984483 -0.03772736 0.1996731 0.018701306 0.11434384
-0.298818 -0.16501415 -0.301948 -0.22365586 -0.022584762 -0.64517796 -0.014446481 0.24948952
0.22648239 -0.09441001 -0.9296819 0.16936001 -0.30519888 -0.2916521 -0.031171938 -0.19929832
-0.08407261 0.06234241 -0.17195825 -0.58821243 -0.27741936 -0.0035097457 -0.48412043 -0.04221782
0.3084627 0.24587555 0.22997066 0.17259164 -0.31894925 0.47049886 0.24424283 -0.50966877
0.5110342 0.07819989 -0.2514707 0.057111967 -0.14762934 -0.077287525 0.255079 0.2719691
-0.16963805 -0.0040791775 -0.27057615 -0.5708422 -0.14404282 -0.2762948 0.13819085 -0.04739585

conv3.bias f4 [32]
00000000: e981 703e 5ea5 763e c6bf ec3e 77f3 a63d
00000010: d36a 233e 4ffc cc3d fb7c e2bf 3d98 8b3e
00000020: 6c58 27bd 4089 d1be a2eb c33d fdbb 33bb
00000030: 00cd 0e3f 1c59 be3e 30e4 5f3d 863c e23e
00000040: 55b2 263f c8ad 1b3e 076d 903e 53f9 183f
00000050: 937e 073f 7308 adbc 0ed9 6f3e 9b7e 643f
00000060: 14f9 a43d d3af a33f 2ac1 be3e 2165 f63e
00000070: 2ccc c43e d143 603e 6712 92be 29e2 22bf
0.23487057 0.2408652 0.46240062 0.08151906 0.15958719 0.100090615 -1.7694391 0.27264586
-0.04085581 -0.40925026 0.09566428 -0.0027425282 0.55781555 0.3717736 0.054660976 0.441868
0.65115863 0.15203011 0.2820818 0.5975544 0.5292751 -0.021122193 0.23422644 0.89255685
0.080553204 1.2788032 0.37256747 0.4812403 0.3843702 0.2190087 -0.28529665 -0.63626343

batch3.weight f4 [32]
00000000: a21c 423f 4c99 563f 76b5 843f 6fc2 653f
00000010: 51ef 433f 9399 613f 048e ad3f d862 4d3f
00000020: 1eb9 973f 034f 8b3f 5970 3d3f 30de 433f
00000030: 4fce 673f adc1 8a3f 0f1e 183f c3f3 483f
00000040: 4b90 6b3f ba2b 6c3f c229 3b3f 4a35 573f
00000050: 3041 683f edd5 6d3f a28f 353f b263 d33f
00000060: e8d6 4b3f 0a4e 893f 8bc5 703f 46fe 7a3f
00000070: 1d08 473f cf78 343f 8a66 853f 0b32 823f
0.7582494 0.8382766 1.0367877 0.8974981 0.7653704 0.8812496 1.3558965 0.8022895
1.1853368 1.0883487 0.73999554 0.76510906 0.90549177 1.0840355 0.59420866 0.7849695
0.9201705 0.9225422 0.7311059 0.8406569 0.9072447 0.9290455 0.7092229 1.65148
0.79624796 1.0726941 0.94051427 0.9804424 0.77746755 0.7049684 1.0421917 1.0171522

batch3.bias f4 [32]
00000000: a438 8bbe 4a3f 9cbe e78b d9be 940d f2be
00000010: 81db 8fbe 2f17 22bf a276 3fbf e652 80be
00000020: 464c 56bf de2b 84be daec 00bf 64d4 22be
00000030: 52b8 a3be d144 e4be cb08 80bc 6d56 94be
00000040: d706 ddbe 8462 c5be 2647 80be ab49 b0be
00000050: 86b2 25bf 0c51 d0be a3c9 65be 5fd6 7fbf
00000060: c536 12bf 9be9 24bf 3078 95be 6fd9 16bf
00000070: 3e49 03be b49b 95be 79fd 9bbe eb59 74bf
-0.2719165 -0.30517036 -0.4248955 -0.47275984 -0.28097156 -0.63316625 -0.74790394 -0.25063246
-0.83710134 -0.25814718 -0.50361407 -0.15901333 -0.31976563 -0.44583753 -0.015629193 -0.28972188
-0.4316928 -0.38551724 -0.25054282 -0.34431204 -0.6472553 -0.40686834 -0.224402 -0.9993648
-0.5711482 -0.64418954 -0.29193258 -0.5892553 -0.12820908 -0.29220355 -0.30466822 -0.95449704

conv4.weight f4 [32, 32, 3, 3]
00000000: 7eab 03be 46a6 d739 afe2 5e3c 70f1 f0bd
00000010: 7689 3cbd 1674 10bd 1027 d9bd b41a 15be
00000020: 8cbc 023e 1dd9 933d ad3c 823d 4bf1 8d3d
00000030: d321 eabc 8965 c7bd adb5 793c fa92 163d
00000040: 35aa 23bd dd77 0bbd f856 bc3d 5c86 ad3c
00000050: c228 243d 9fb0 6d3d 5819 a7bb a978 773d
00000060: 42f5 323c c27f 4bbd 0713 07bd bb2a 1cbe
00000070: c484 9dbc 4d82 49bd 8906 00be c754 903c
00000080: b654 a7bd b8c4 29be fa16 89bc 43c6 473d
00000090: 1724 763c a85d e83d 00a4 7b3d 9579 bf3d
000000a0: 12a5 213e 4bb0 783d 214c 093e 3c93 5f3d
000000b0: b013 ebba f4f0 053e e56a 733c 39c4 c73d
000000c0: c07f e93d a7a9 4bbd 71f0 5bba 7586 fa3d
000000d0: 74ee da3d b8b7 053d 463a 60bc b20f 2e3d
000000e0: f0f1 c73b 4018 a03d 78c8 61bd e3a5 033d
000000f0: eff1 66be 104a 073d 296e 623d d3ed 7c3d
00000100: 27ee 243b 3e9d ce3c 2b7c 1b3e 4b37 5cbd
00000110: 33c7 7fbc 45fa b53c c937 d63c 8b64 3b3d
00000120: 7935 11be 7698 d03d 0742 323d e418 51be
00000130: df0c fcbd 3e7d b93d 9578 3bbe 648f e9bc
00000140: b6e6 57bd 8172 d8be 0d3b cc3b 6778 58ba
00000150: f2a2 c1be 9c5e 47bc 4a84 fd3a db9c cfbe
00000160: 9151 753d ddb1 a93d ff9e c13b cb07 efb9
00000170: 5908 8b3d eece 5b3b 6a80 eb3c acff f43d
00000180: d683 6fbd b209 eb3c 8d0b 133e d096 bbbd
00000190: 9a14 173d 306e e03c fba6 3fbd 1d59 84bd
000001a0: 156f 20bd 7790 9cbd 9a8f 013d fd75 913d
000001b0: 59dc 313d 6fe5 eb3c f5db afbc 4ce9 4a3b
000001c0: 01ba bc3b a286 5cbd 403e 9b3d 135d 343c
000001d0: d391 9c3d 8949 483d a0b5 0b3e 505d f63c
000001e0: a82f 213e dab0 0c3e e70a 4e3b c674 1b3e
000001f0: f9e6 a03d 8668 6ebc 25f6 d63d 9fa1 ac3d
00000200: 9b12 753c 0d4d cd3d b9d4 2d3d ea8b 41bd
00000210: 83ba 263e aa12 6f3d 24a6 023e c1c4 423d
00000220: 6f8a 8a3d 659a 973d 57bd 913d 6487 89bd
00000230: 69c2 8d3d b544 75bc f68f 123d 52c6 e13c
00000240: 12ba 093d e995 1b3d 44a6 babd fa72 4f3d
00000250: 1150 e7bc 26ce 11bd 9075 7d3d bf53 3f3d
00000260: 84d6 d9bc 41b3 3ebe 733e 093d 0791 51bc
00000270: fe99 4bbd c14d 653b 5dca 55bd cc17 2bbe
00000280: 8ee6 6f3d 8f82 633d 8af7 1d3e fc76 2f3d
00000290: ddb5 833d a4a9 bd3d 6e4f 933d 7cd8 993d
000002a0: 0a45 193e 976b 5e3d ccc2 903d 9251 063e
000002b0: 1385 9b3d 47cf dd3d f400 da3d 6612 f33d
000002c0: dbbe 973b cbc5 d53d dc5b f03c d0fa 223d
000002d0: ddb5 b03d 6c76 4cbd cee5 963d c34d 133e
000002e0: 840a 463d 5a53 0d3d d77f 153e 9182 283e
000002f0: 02df 3dbc 5231 d5bc 84b0 bebd e3ec 463d
00000300: 90ec 443d b4aa e1bd 39bb 823d 2ae6 adbd
00000310: 4c0b 663d 198b e73d e01f 55bd a955 9a3c
00000320: 029d 29ba 6cfd 50bd 859a ac3d 5991 6dbc
00000330: ef54 503b e7db 85bd 77b6 623d e002 e3be
00000340: 5782 82bd 3197 7bbc b869 e3be 65c1 a7bd
00000350: 67d4 033e 36d4 d8be 53e6 8cbd 551c 503d
00000360: 8320 cf3c 3c40 493d 8f08 413d c6e0 983d
00000370: b109 89bd 7281 2abd cbf0 383d 10ab b2bd
00000380: 6999 773d 91fb 823d 1015 953d a9f2 b93d
00000390: 69cd e83d 44ba 1dbd 68b1 063e b67e 9b3d
000003a0: 99ad 0b3d 310e 403c a730 87be 765c ac3d
000003b0: 9c53 aa3d 6739 45be f01c fa3d f99b be3c
000003c0: 87e1 83be 19f3 f3bc 8423 7dbb d907 f03d
000003d0: d20f 43bd 7b09 91bc 34cb 5a3d f75f 923c
000003e0: 8216 65bd 0bbf 9c3d 1e73 6b3d 610f 8b3d
000003f0: 03fa 54bd f890 9abd 2855 293d e047 a03d
-0.12858388 0.0004113188 0.01360385 -0.117648005 -0.04602953 -0.03526696 -0.10603154 -0.14560968
0.12767237 0.072191454 0.06359229 0.069307886 -0.028580582 -0.09736163 0.015241069 0.03676126
-0.039957244 -0.034049857 0.091962755 0.021182232 0.040077932 0.058029767 -0.0050994568 0.060417805
0.010922732 -0.049682386 -0.03297713 -0.15250675 -0.019228347 -0.04919653 -0.12502493 0.01761855
-0.08170454 -0.16578948 -0.016734589 0.04877306 0.015023253 0.113459885 0.0614357 0.09349362
0.15785626 0.060715 0.13407947 0.054583773 -0.0017934944 0.13080198 0.014857029 0.097542234
0.114013195 -0.04972234 -0.00083900156 0.12232677 0.106900126 0.03264591 -0.0136857685 0.042495437
0.0061018392 0.07817125 -0.055122823 0.032140624 -0.22553228 0.033029616 0.05528084 0.061750244
0.0025166364 0.025221463 0.15184085 -0.05376367 -0.015611458 0.022214064 0.026149647 0.045750182
-0.14180554 0.101853296 0.04352 -0.20419651 -0.123071425 0.09057091 -0.18307717 -0.028510757
-0.052710257 -0.4227486 0.0062326253 -0.00082576874 -0.3781963 -0.012168553 0.0019341793 -0.4054936
0.05989224 0.08285878 0.0059088464 -0.00045591439 0.067887016 0.0033540088 0.028747756 0.11962828
-0.058475338 0.028691147 0.14359875 -0.091596246 0.03688488 0.027396291 -0.046790104 -0.064623095
-0.039168436 -0.07644742 0.03163109 0.071025826 0.04342303 0.028795926 -0.021467188 0.003096181
0.005759478 -0.053839333 0.075802326 0.011008519 0.07645001 0.048898254 0.13643503 0.030073792
0.15740836 0.13739339 0.0031439604 0.15181264 0.078565545 -0.0145512875 0.10496167 0.08429264
0.014958049 0.10024462 0.042439196 -0.047252573 0.16282086 0.05836741 0.1275869 0.04755092
0.06764685 0.07402495 0.07116192 -0.06715277 0.069218464 -0.014969994 0.035781823 0.027560387
0.033624716 0.037984762 -0.09113744 0.05064676 -0.02823642 -0.03559699 0.061879694 0.046710726
-0.026591547 -0.18623067 0.03350682 -0.012790925 -0.049707405 0.0034988972 -0.05219494 -0.16708297
0.058569483 0.055544432 0.1542646 0.04283808 0.06431172 0.09260872 0.071928844 0.07511994
0.14967743 0.054301824 0.070684046 0.13117054 0.07593741 0.10830551 0.10644713 0.118687436
0.004630906 0.10438117 0.029340677 0.039789975 0.08628438 -0.049917623 0.073680505 0.14385132
0.048349872 0.03450332 0.14599548 0.16456057 -0.011588814 -0.026024494 -0.093110114 0.048565757
0.048077166 -0.11018887 0.06383366 -0.08491166 0.056163117 0.11305828 -0.05203235 0.018839674
-0.00064702344 -0.051022932 0.0842791 -0.014499986 0.0031788906 -0.06536084 0.055349793 -0.4433813
-0.063725166 -0.015355871 -0.44416595 -0.08191184 0.12873994 -0.42349404 -0.06879868 0.05080827
0.025284057 0.049133524 0.047127303 0.07464747 -0.066913016 -0.041627355 0.045151513 -0.08724034
0.060449038 0.06395639 0.07279408 0.09079487 0.11367304 -0.038507715 0.13153613 0.075925276
0.034101103 0.0117221335 -0.26404306 0.08416073 0.083167285 -0.19260179 0.12212551 0.023267733
-0.25758 -0.029779004 -0.0038625905 0.11720247 -0.04762251 -0.017704716 0.053416446 0.017868025
-0.05592967 0.07653626 0.05748283 0.06790043 -0.051996242 -0.07547182 0.041340977 0.07826209

conv4.bias f4 [32]
00000000: 9c52 7dbc 4b20 5b3f bc8f fd3c ddeb 393c
00000010: 9108 bd3e a68d 41bc 033c 9f3e cce2 0dbd
00000020: d874 83bc edca 923c 7ba0 dc3e ca3b 573e
00000030: d99e 9f3e 924a d93e 57c4 123e 9cfb ae3d
00000040: 8ec4 ce3e e115 83bb 5bd8 773c fc6a 443d
00000050: 621d af3e 7b8f 483e a1c5 a23d fa8c 1bbd
00000060: 99d6 563d 0e53 483f a30a 4dbd 6ff1 4e3d
00000070: e097 4a3d b2bb f63c f276 d13e 1903 d83c
-0.01546159 0.8559615 0.030952327 0.011347738 0.36920598 -0.011813557 0.31100473 -0.03464012
-0.016046926 0.017919028 0.43091187 0.21018901 0.3117588 0.42439705 0.1433271 0.085440844
0.40384334 -0.004000411 0.015127267 0.04795359 0.34202105 0.19585983 0.07947851 -0.037976243
0.05245075 0.7825173 -0.050058972 0.050523218 0.049461246 0.030118797 0.4091106 0.026368665

batch4.weight f4 [32]
00000000: d78d 9f3e 030d b440 80c1 593f b0cf c03e
00000010: 42ae 8340 1209 ca3e bf6f 7f40 6cfe c03e
00000020: 0e5f e83e 1ce7 873f 3f2d 9940 f9b8 4440
00000030: ca3c 4740 9454 8540 c744 4340 aee0 d93f
00000040: b7b9 9c40 2b22 9d3e 8d56 bf3e 6b71 953e
00000050: 98c8 6240 3428 6740 b0a3 4340 5aa5 c13e
00000060: e870 4d3f d0bc 3e40 96dd d83e e35f 3b3f
00000070: b026 d13e b2db b53f abfb 7b40 885f 7c3f
0.31162903 5.6265883 0.8506088 0.37658453 4.1150217 0.39460045 3.9911954 0.37694108
0.4538502 1.0617404 4.786773 3.0737898 3.1130853 4.1665745 3.0510728 1.7021692
4.8976703 0.3069013 0.3737072 0.29188094 3.5434933 3.6118288 3.0568657 0.37821466
0.80250406 2.9802742 0.42356557 0.73193187 0.4084983 1.4207671 3.9372356 0.9858327

batch4.bias f4 [32]
00000000: b4da 2dbf 96f5 84c0 be7c a5bf 6af9 1cbf
00000010: 3fbe 1ec0 8610 53bf cb8f 4dc0 7d84 2ebf
00000020: 0111 4cbf 9f0e c1bf d4b9 45c0 f56c fcbf
00000030: 6aa4 1ec0 933d 40c0 51f8 11c0 a2dc f8bf
00000040: b8e1 16c0 c676 2dbf 94de 2dbf f901 2cbf
00000050: 6b13 2ec0 62ca 07c0 be71 ecbf 65de 38bf
00000060: e8d3 acbf e265 9ebf d7ed 58bf 8362 8cbf
00000070: 897d 33bf 6fc1 06c0 a9a9 69c0 2721 c7bf
-0.6791184 -4.1549788 -1.2928693 -0.61318076 -2.4803617 -0.8244709 -3.2119014 -0.6817091
-0.79713446 -1.5082587 -3.089467 -1.9720751 -2.478785 -3.0037582 -2.280781 -1.9442332
-2.3575268 -0.6775936 -0.6791775 -0.6719051 -2.7199352 -2.1217275 -1.8472211 -0.7221435
-1.3502169 -1.2374842 -0.84737915 -1.0967563 -0.70113426 -2.1055562 -3.6509802 -1.5556992

lin1.weight f4 [5, 800]
00000000: 441d 11bd 42d1 113c 4070 90bc b9f7 1fbc
00000010: 51f9 d2bc 70fa d1bc a4cd 7bbc fc95 893c
00000020: b084 233a 6935 85bc 5423 0cbe a635 26bc
00000030: eac3 143d 2cfe 7abd e4b1 a1bc 2839 ec3b
00000040: 6c15 c0bd 9a6c 543c b29e 5ebd 1606 73ba
00000050: 5c2b 7fbc a25e d73c fe1b 08bd 54f5 aa3c
00000060: d0e7 6c3b b946 dd3a 9730 6abc 90ba 3cbb
00000070: a97b 65bb bae6 bd3c ee7c d9bb ee8d bbbb
00000080: 8514 843a 13eb 20bc 1823 4b3c ea97 423c
00000090: 572b a1bb 0159 32bc f594 243c a7ab 8e3b
000000a0: f462 b1bc 5056 15bc 8488 55bc 4e11 89bc
000000b0: d110 0cbb e862 c73b 77e5 603a 92ed 2abb
000000c0: 268f a7bb 8597 66bb b38a 6a3d d09a e43b
000000d0: 933b 293d a400 1b3d 46da b23c 7c12 fb3c
000000e0: ccbb 55be a65c 2fbe 175c 6bbe 1dd5 703d
000000f0: 0229 90be 2ffe 32be 9593 b2bd e7cb c9bd
00000100: 92b4 79bd 8ff8 74be 454f fabb 249c 3abe
00000110: a509 0cbe 4beb a2bb c6ba 6dbd 5eb3 09be
00000120: 70d5 1cbe bd20 2ebe 0001 1cbe ebf9 3ebd
00000130: 0388 b93b b7a3 f9bb f881 543c a96b 283c
00000140: 3fd2 afbc c60b 9bbd 10db afbc 6773 b7bd
00000150: 0597 dabd dd80 073d b53c 3cbc 7a8a 5d3d
00000160: f9c1 a8bc b543 fcbd 7a2e 17bd f3fd 55bc
00000170: 0f9c 89bb 5c10 3e3c a24e 88bc c9e2 493c
00000180: ca77 6abb 860f 97bc d25b 463b 9e61 5e3d
00000190: 189d fc3b 6ad2 72bc d238 6d3a 50bc 6bbc
000001a0: cabc 803b b671 cbba 142b 063b 1fbd 81bc
000001b0: 7dd8 ffbb 0a97 bbbc 818a a83c f0c2 30bb
000001c0: e55c 58bc 49e3 22bc 8336 7ebb 79c7 d23b
000001d0: 3787 6dbc cb12 5ab9 1e95 923b 786f 59bc
000001e0: 2cb7 b13b 846e 3dbc eec4 84bb 1cc0 14bc
000001f0: 411e dfbc b66f b33c a767 56bc 9927 abbd
00000200: 2d99 cbbc 9311 8bbb c832 17bd 6818 0ebe
00000210: 98f7 593c f66f b0bd ed00 f4bc a3fb 7ebc
00000220: 34d0 7dbd d3ef cdb9 1ecd 60bd b998 e8bd
00000230: 9ee0 89bb c3be 103d 3917 ef3d cb6a 4abd
00000240: 85e6 3abd 6819 d4ba 3ab3 253d ffbd 773d
00000250: 4295 28bd 4399 abbc dcc9 773c 5765 0cbc
00000260: df0a 28ba 8616 1abb 7f64 8d3c 972a 3a3c
00000270: bb93 c6bb e316 273b 0d50 b73b 471a f9ba
00000280: 306e 4c3c 2305 3fbb a386 debb 569c a7bb
00000290: d72a f5bb 6177 5d3b 0025 e2bb 970c df3b
000002a0: 550e 33bc cbbb 3f3c 6893 113d a6c9 17bc
000002b0: 5175 6f3c 043a 42bc 5171 4f3c 79b6 cebc
000002c0: 0421 a5ba ee88 2abc 55b7 1f3c da73 45bc
000002d0: 5dd1 523b b88c 993b af51 1d3b 7b7e 4f3b
000002e0: 401d 8ebc fd6c 61bc 798f c73c 058b d2bb
000002f0: 671b e63b ed84 623c 682f e03c c235 823b
00000300: 6ec4 bfbc ea6d 8ebc d1f9 013c a3c9 0abc
00000310: 61c2 04bc aa88 3d3c 5f74 2c3b aad0 9dbb
00000320: 229c 05bd 2362 5bbc ae72 12bb f504 c4bb
00000330: 8b00 20bd 75eb fc3c c432 2eba b240 ccb9
00000340: 01f7 ccbb 02ee d4bb f8ad 623d 8d56 9c3c
00000350: c567 89bc 9ce1 cbbc 2b32 583c 8b83 42bd
00000360: 7257 543d c4e4 0bba 07f7 873c 2fbb 4c3d
00000370: 99f7 63bd f103 c1ba 79b3 f2ba edbf 6e3c
00000380: bee2 8ebc 2f01 8c3d a3bb de3d 82ae 01be
00000390: 90c8 8ebe 763e 3bbd f3b5 273d 2d0d 6dbb
000003a0: 917f f13c 2226 4839 12c8 16bd 5b51 c8bd
000003b0: 4962 0ebe 625b d33d ffee 2abe b0e2 00be
000003c0: 7133 4a3d 6b22 2cbd 6d9e 683d fb48 40be
000003d0: c257 8fbd 2fff 043d 9939 66bd 7e73 5ebd
000003e0: 14f3 32be e562 fd3c 6574 1ebc fcd3 113c
000003f0: 0413 49bc cb43 38bb cca8 52bc 8ca7 ad3b
-0.0354283 0.008899989 -0.01763165 -0.0097636515 -0.025753649 -0.025632113 -0.015368853 0.016795151
0.00062377285 -0.01626082 -0.13685352 -0.010144627 0.03631965 -0.061277553 -0.019738145 0.007208962
-0.09379086 0.012965346 -0.054350562 -0.0009270621 -0.0155743025 0.026290242 -0.03322982 0.020868935
0.0036148913 0.0016882039 -0.014293811 -0.0028797723 -0.0035016334 0.023181308 -0.006637207 -0.0057237064
0.0010076916 -0.009821671 0.012398504 0.011877039 -0.0049184966 -0.010885478 0.01004528 0.0043539586
-0.02165363 -0.009114817 -0.013033036 -0.016731884 -0.0021372328 0.0060847886 0.0008579115 -0.0026081544
-0.0051135 -0.0035185528 0.05726118 0.006976463 0.04131658 0.037842408 0.021832597 0.030648462
-0.2087242 -0.17125186 -0.22984348 0.05879699 -0.28156286 -0.17479776 -0.08719555 -0.098533444
-0.06096322 -0.23922943 -0.007638844 -0.18223625 -0.13675554 -0.0049718968 -0.05803945 -0.1344733
-0.15315795 -0.17004676 -0.15234756 -0.04662506 0.005661966 -0.0076183933 0.01297044 0.010279574
-0.021462558 -0.07570605 -0.021466762 -0.08957558 -0.10673336 0.033081878 -0.011489083 0.05408714
-0.020600306 -0.123176016 -0.036909558 -0.0130610345 -0.004199512 0.01160058 -0.016639058 0.012322136
-0.0035776966 -0.01844002 0.0030267132 0.054292314 0.0077091567 -0.014820674 0.00090492994 -0.014388159
0.0039287554 -0.0015521559 0.0020472454 -0.01583725 -0.00780779 -0.02289917 0.020573856 -0.002697166
-0.0132057415 -0.009941884 -0.0038789816 0.0064324704 -0.01449757 -0.00020797101 0.0044733426 -0.013271205
0.005423447 -0.0115619935 -0.004051796 -0.009079006 -0.027236106 0.021903854 -0.013086236 -0.08357162
-0.024853313 -0.0042440384 -0.036913663 -0.13876498 0.01330366 -0.08615105 -0.029785598 -0.015562925
-0.061966136 -0.0003927933 -0.054883115 -0.113572545 -0.0042076847 0.035338175 0.11674351 -0.049418252
-0.045629997 -0.0016181888 0.040454127 0.06048393 -0.04115797 -0.020947104 0.015123811 -0.008569083
-0.00064103113 -0.002351196 0.017259834 0.011362693 -0.0060600913 0.002549582 0.0055942596 -0.0019005024
0.012477443 -0.0029147349 -0.0067909523 -0.0051150722 -0.0074819135 0.003379308 -0.0069013834 0.0068069207
-0.01092871 0.011702488 0.03554097 -0.009264385 0.014615373 -0.011854652 0.012661294 -0.025233494
-0.001259834 -0.010408623 0.0097483 -0.012051547 0.0032168247 0.0046859644 0.0024004986 0.0031661082
-0.017347932 -0.013758895 0.024360405 -0.006425264 0.0070223096 0.013825637 0.027366355 0.0039736936
-0.023409095 -0.017386395 0.007933096 -0.0084709255 -0.008102984 0.011568228 0.002631448 -0.0048161345
-0.032619603 -0.013390097 -0.0022346186 -0.0059820362 -0.039063018 0.030873993 -0.0006645138 -0.00038958114
-0.006255031 -0.0064980993 0.05534169 0.01908424 -0.016773114 -0.024887852 0.013195555 -0.04748873
0.051841207 -0.0005336518 0.016597284 0.0499832 -0.05565605 -0.0014725906 -0.0018516622 0.014572126
-0.017442103 0.06836163 0.108756326 -0.12664226 -0.27887392 -0.045713864 0.040945005 -0.0036171183
0.029479774 0.00019087692 -0.036811896 -0.09781142 -0.1390468 0.10320164 -0.16692732 -0.12586474
0.049365465 -0.04202501 0.05679171 -0.1877784 -0.0699916 0.032469925 -0.056207273 -0.05430936
-0.1747554 0.030930946 -0.009671305 0.008900639 -0.0122726 -0.002811658 -0.012857627 0.005299514

lin1.bias f4 [5]
00000000: fb27 3ebc 8041 ccbc 4199 8fbc d25c 8bbc
00000010: 6bac a3bc
-0.011606212 -0.024933577 -0.017529132 -0.017012034 -0.019979676

exp_avg f4 [32, 3, 3, 3]
00000000: eace be3c 9013 b73c cfcb cb3c 3415 d53c
00000010: a8a2 ca3c ca74 e13c 290d df3c 0249 c03c
00000020: d456 d73c 0f85 bc3c 6ef7 b53c 96c8 b43c
00000030: 693f cb3c 7aff c03c 89ae d53c 5d91 c73c
00000040: 4c25 b53c a486 b83c 13f3 863c 411b 873c
00000050: b0ab 913c 50af 8d3c 560e 9d3c 26e0 ac3c
00000060: 84dd 813c b0c9 883c 533c 883c f40a dfbb
00000070: 6ada 7fbb 28fd 51bb a490 bcbb f181 92bb
00000080: 8cd4 8cbb be24 77bb 85f6 36bb 0ac5 71bb
00000090: 4fca d2bb 11f6 8cbb f9e2 6dbb 4e68 c6bb
000000a0: 4c40 9cbb 6e33 a9bb 0c58 7dbb d9a6 62bb
000000b0: 68f4 a2bb 1372 92bb 5090 55bb ec63 85bb
000000c0: 77b4 96bb bab6 7cbb 32c9 b0bb a867 4ebb
000000d0: 96fe 49bb c521 b2bb d1a0 903c fbc5 9e3c
000000e0: eb68 a53c 3802 8a3c d4be 8d3c bcd2 893c
000000f0: f5b3 863c 088d 933c 6abe 903c dfcf 733c
00000100: 33b7 8e3c b936 9b3c a46c 673c 8ee8 843c
00000110: 8b07 863c 8fc4 6d3c 604a 873c afd2 8a3c
00000120: 2412 4a3c 8f6a 693c 37bb 7e3c 3bf9 3e3c
00000130: de9c 503c dc81 543c 2faf 423c a475 613c
00000140: ff4b 643c 802e bc3c e6b4 c23c 9499 c53c
00000150: c842 b23c 1162 b83c a563 c23c b19c b63c
00000160: 5c87 af3c b9b6 bf3c e7b9 903c daba 993c
00000170: f9ce a23c 0e19 853c f675 893c 8042 9c3c
00000180: 3563 8a3c 0d50 873c 4675 903c 916a 7a3c
00000190: 75c3 873c c500 883c 8359 7b3c 4ea1 813c
000001a0: 697c 813c cfde 893c 2ca2 7b3c ee6c 7b3c
000001b0: e637 1dbb 8998 d7ba 956a 04bb b28b 32bb
000001c0: b55f 14bb ef47 07bb 3d2e c5ba 7610 a0ba
000001d0: f9d3 c1ba add3 acba 0a72 28ba ea9c 6dba
000001e0: 7e2f e8ba 6cea 93ba 8480 5bba 9363 18ba
000001f0: 7083 a2b9 81ec 32ba 0138 ceb9 db11 5839
00000200: 66e2 41b9 9442 5dba 155d c6b9 1c68 6338
00000210: d1d0 023a 1162 f639 9896 cd39 88de e63c
00000220: fc1d ef3c 8457 a43c 046d dd3c 50f0 da3c
00000230: b6e5 9c3c 9417 b93c ae48 ab3c a9c0 793c
00000240: 0cc5 d43c b2f2 df3c 6c56 aa3c e9b2 c73c
00000250: d637 d23c 967d a13c 3d33 9e3c 83ca a63c
00000260: caea 803c 00b8 c53c 7fee df3c 6045 b53c
00000270: 890a c43c 3d82 dc3c 6eb0 b33c cc33 9b3c
00000280: efee a93c 33a0 913c 1a71 cf3b 1f1b 173c
00000290: e9a9 103c c279 1e3c 5ec6 373c 3925 2e3c
000002a0: 36b1 573c 139d 753c 574d 843c e998 ac3b
000002b0: b1b7 c23b cd2e b73b 59ed 203c 0a9d 1c3c
000002c0: 3ebc 053c 4c92 483c 28d6 5a3c 0f37 5e3c
000002d0: db7e 2d3b f5b2 3d3b bed0 803b 35c1 c73b
000002e0: 12f5 de3b e159 fc3b 6a3f 0b3c 4b5c 233c
000002f0: 2f25 5f3c 240a 793c 3e70 8e3c c3f0 a03c
00000300: 607d 863c 2261 943c fc8d a93c 420a 8d3c
00000310: 8b5a 903c 2b4c ab3c ad5d 4b3c ddf7 6b3c
00000320: d7bf 7f3c 2b6f 2e3c cc62 493c 792d 773c
00000330: 7df6 353c 0b08 403c 165f 793c a2e9 733c
00000340: 673d 813c d445 893c 495e 6b3c 8ca7 5d3c
00000350: b7e2 833c 7724 5f3c 10b0 483c 3195 833c
00000360: b5f0 8cbc 46a2 88bc a8a2 8bbc 2dc9 66bc
00000370: 3d9b 54bc 6e07 84bc f9ac 76bc 22fc 76bc
00000380: 1b32 98bc 2ba5 6bbc 6a0e 82bc 8da9 7dbc
00000390: 90ca 3ebc 402a 38bc 9ead 52bc 0209 47bc
000003a0: fc76 49bc c8eb 69bc 48c1 80bc f3be 99bc
000003b0: ae1d 93bc e99e 67bc 6a27 60bc aa2d 6dbc
000003c0: 71a7 6ebc 0c92 5fbc 546b 81bc c4bf c8b7
000003d0: e890 ccba ecb1 2bbb b67a b338 411e 8b39
000003e0: 5d2c 2bba f985 9bb9 c9d5 a0b9 7c16 1437
000003f0: c1d7 0dbb 600d 0bbb 3f32 f6ba e1c1 dfba
0.023292024 0.022348195 0.024877457 0.026011087 0.024735764 0.02752151 0.027227955 0.023472313
0.02628652 0.023012666 0.02221271 0.022068303 0.02481051 0.02355932 0.026084201 0.024361307
0.022112511 0.02252514 0.016473329 0.016492488 0.017782062 0.01729551 0.019171875 0.021102976
0.015852697 0.016697735 0.016630327 -0.0068067256 -0.0039040097 -0.0032041762 -0.005754547 -0.0044710566
-0.0042977985 -0.003771111 -0.0027917933 -0.0036891126 -0.0064328085 -0.0043017943 -0.0036298616 -0.0060549146
-0.004768407 -0.0051636016 -0.0038657216 -0.0034584312 -0.004972983 -0.004469165 -0.0032587238 -0.0040707495
-0.00459915 -0.0038561062 -0.005395078 -0.003149489 -0.003082191 -0.0054361545 0.017654808 0.019381514
0.02019163 0.016846761 0.017302908 0.016824119 0.016443232 0.018011585 0.017668922 0.014881103
0.01742134 0.018946992 0.014125023 0.016224172 0.016361019 0.014512195 0.016514957 0.016946165
0.012333427 0.014246597 0.015547565 0.011656101 0.012732713 0.012970414 0.011882587 0.013760958
0.0139341345 0.022971392 0.0237679 0.024121083 0.02176036 0.0225077 0.023729155 0.022291513
0.021426849 0.023402559 0.01766677 0.018765856 0.019874083 0.016247299 0.016779881 0.019074678
0.016893009 0.016517663 0.017634045 0.0152841965 0.016572693 0.01660193 0.0153411655 0.015823986
0.015806394 0.016829876 0.015358489 0.015345795 -0.0023989617 -0.0016448657 -0.002020513 -0.002724391
-0.0022640054 -0.002064224 -0.0015043687 -0.0012211937 -0.0014787904 -0.0013185643 -0.00064256846 -0.00090642145
-0.0017714349 -0.0011285073 -0.00083733373 -0.00058131776 -0.00030996976 -0.0006825403 -0.00039333108 0.00020606017
-0.00018490254 -0.0008440402 -0.00037834854 5.4217977e-05 0.00049902225 0.00046993842 0.00039212848 0.028182283
0.029189102 0.020061262 0.027029522 0.026725918 0.019152503 0.02259425 0.02090868 0.015243688
0.025972866 0.027337406 0.020793162 0.024377303 0.02566139 0.019713204 0.019311542 0.020360237
0.015736956 0.02413559 0.027335403 0.022127807 0.023930805 0.026917571 0.021934714 0.018945597
0.020743815 0.017776584 0.0063306214 0.009222775 0.008829572 0.009672584 0.011216728 0.010628992
0.013164809 0.014991063 0.01615016 0.0052672517 0.005942308 0.005590296 0.009822213 0.009558925
0.008162556 0.012241911 0.013356723 0.013562932 0.0026473317 0.0028945778 0.003931134 0.00609603
0.006804117 0.007701144 0.008499006 0.009970735 0.013619705 0.015200172 0.017387506 0.019646054
0.016417205 0.018112723 0.020697586 0.017216805 0.0176213 0.020910343 0.012412471 0.014402357
0.015609703 0.010646622 0.012291621 0.015086525 0.011106131 0.011720668 0.015220424 0.014887245
0.01577635 0.01675693 0.014365741 0.013528716 0.016099317 0.013619534 0.012249008 0.016062351
-0.017204622 -0.01667894 -0.017045334 -0.01408605 -0.012976465 -0.016116824 -0.015055888 -0.015074762
-0.01857858 -0.014382641 -0.015876014 -0.015482319 -0.011644974 -0.011240542 -0.012858776 -0.012148144
-0.0122964345 -0.014277406 -0.015717164 -0.01876781 -0.017958488 -0.014137008 -0.013681272 -0.014476219
-0.014566288 -0.01364566 -0.015798248 -2.3931156e-05 -0.001560715 -0.002619858 8.558242e-05 0.00026534687
-0.0006529743 -0.0002966372 -0.0003067686 8.8267225e-06 -0.0021643492 -0.002121769 -0.0018783285 -0.001707133
