results_auto/01_domain_adaptation/maml_supervised/June_14/officehome_maml_order_2_seed_0_shots_1_ways_5_meta-lr_0.0001_dropout_0.1_RandAugment-prob_0.5_pre-train-wts_datetime_13_06_2021_17_37_42/intermediate_2000_model.pt (torch, 412181 bytes, 54 tensors)

conv1.weight f4 [32, 3, 3, 3]
00000000: 7eec df3e 1686 b83d f22c cebd ccb7 92bd
00000010: 098e 3dbe 29db 25be ad7e 003e b1bb fb3c
00000020: a7b2 23be 86d4 013d 7faf 46be 4217 a13d
00000030: 7d73 afbe daa9 0dbe cf13 d5bc fb58 fcbb
00000040: 01c6 fb3d 0907 8b3e 49c8 54bf ad04 ecbe
00000050: ebd4 263e 7a05 93be 9ece a33d 2899 0c3f
00000060: a400 15be 845a a13e c630 463f 5e62 623d
00000070: bfae f23c 459e ac3e d3e9 17be c204 693e
00000080: df24 a83e 3f8b efbe 7cf6 eebe b388 bebd
00000090: 7f6a 23be 8d2d 4c3e 29b2 a93e 041e 7dbe
000000a0: ffa8 6bbd 060f 013e c6fa 03bf babf 10bf
000000b0: f9d2 71be 9a9c a03d 53eb a23e 0a8e 003f
000000c0: 82f1 84be 7167 7e3c acb0 c03e 6fe3 00bd
000000d0: 6e46 05be 812a 473d bbfc ba3e 4ff3 b53d
000000e0: efff 893e b39e 94be 6c23 9dbe 1bd9 c2be
000000f0: ba57 78bd 3e54 82bd a27c e4bd 2da1 bb3e
00000100: 1665 a43e ecdf 0f3e ad74 cebb c5a1 e0bc
00000110: 734f 23be 4341 1b3d bfb5 a1be 322d 22be
00000120: c981 f23e 681a ef3e 1203 0d3f 3470 2c3e
00000130: e6d3 07bd 3f5b b2be 1d40 7bbe 4610 e4be
00000140: 5d2f b7be b00b 003f 06a5 bc3e 854f 78bd
00000150: 4060 0fbe 12ab bbbe 8f87 d9be 5b74 a73d
00000160: 90dc 343e 0563 99bd 5883 d93e 4a13 e73e
00000170: 4021 d93e 3af7 62be f090 06bf a1df febe
00000180: e185 d53d 6577 df3d 1edb 0bbe a7ef 303b
00000190: 0f5c cc3e 5d48 ff3e 242a f4be ddb2 c5be
000001a0: 067f b0be 6336 9dbd d215 58bd b9ba 7a3d
000001b0: 5831 66bc cbf7 ec3d a89d 08bd 9bf2 073e
000001c0: 8b13 b7bd 502d 4a3e 717d 443d 1ba8 64be
000001d0: 02d0 f5bd 1f18 353e 7d9e b13e 3d18 4f3e
000001e0: 194e 313e f988 323e 9ce0 9abc 07a3 f5bd
000001f0: a2bc 94be 4708 91be 10ae 8cbf 447f ee3d
00000200: 9159 23be c918 5ebf f1ba 9f3e ebba 2e3d
00000210: 3625 bcbf c31b 743e 29d7 5cbe 40ba 75be
00000220: 2cc6 0fbd bf9b 41be 15c7 b43d 938f 6b3e
00000230: d485 9c3e 8547 c43e 8516 193f 8837 533e
00000240: c8e2 dbbe 2638 d0bd b734 f03c 77db bdbe
00000250: 0079 c7be b527 9cbe 02db 13bf c1d0 babe
00000260: 5fb7 a3be 0461 c63e 2d6c 053f 7dcf 4f3c
00000270: 2ce3 8a3e a778 1b3d bf5c 113e c0f9 97bd
00000280: 1df0 b83d 6ac6 9cbd 9fa0 21bf 18ad 97be
00000290: 3ab7 42be afb1 c0bd 117b be3d d300 4d3e
000002a0: 0acc 1dbc 57cd e63e 2389 023f 3ef6 c9be
000002b0: d11e 563e cc4e 073c 4bf0 abbe 5e0c 903e
000002c0: 4a6f 3f3c 59bf 83be 645b aa3e abb0 1cbe
000002d0: 4fbe 1a3e 6340 cb3e 0b8e d23e 6226 34bd
000002e0: 1e22 873e 91f7 7d3d 7465 d8be 11af e5bd
000002f0: 2296 dbbe 5e18 873d 7db0 c33e 634d 5b3e
00000300: 66c6 1fbf f863 63be 893f 10bf 6dc6 173d
00000310: c9d5 613e 2eda 6a3e 1bd1 31be dcb1 873e
00000320: dec9 663d c601 cbbe 8f14 b1be ae40 1dbf
00000330: 3802 003e 9f2f 233f e575 313e 2462 2c3e
00000340: 5d81 723e f46b 683d 1200 a9be 15f6 80be
00000350: 14c9 b9be 06c0 903e eaea d23e 2671 7a3e
00000360: 5ff3 4ebe a951 e9be 2068 183f 9187 ccbe
00000370: eede 91be 5dd5 0d3f 3b61 09be a9b5 4ebe
00000380: 0f81 a43d e065 813e f85c 04bf 39fe da3d
00000390: 84b2 923b d310 46be a7b3 473e 4852 8a3e
000003a0: 004f eabc 8002 af3e 430d 953e 99d8 c7be
000003b0: b5b9 973e 8d5b 35be 7aa5 95be c7a6 353e
000003c0: 52f0 2c3d a57c 25bd 664a 39bd 2f7e b33e
000003d0: f3e9 bc3e b359 e8bd 812e 053f 6429 c23d
000003e0: 7d57 72bd a8a9 ac3e 9c6a 40bc af16 af3c
000003f0: 5112 913e f679 c2bd 04c1 89be adfd 82bd
0.43735117 0.0900995 -0.100671664 -0.07163963 -0.18511213 -0.16196884 0.12548323 0.030729147
-0.15986119 0.03169682 -0.19402884 0.07865764 -0.34267798 -0.13834324 -0.026010422 -0.007701037
0.122936256 0.27153805 -0.8311811 -0.46097317 0.1629216 -0.28715116 0.079983935 0.549212
-0.14551026 0.3151437 0.7741817 0.05526959 0.029624341 0.337145 -0.1483529 0.22755721
0.3284063 -0.46785924 -0.46672428 -0.09303417 -0.15958594 0.19939251 0.33143738 -0.24718481
-0.057534214 0.12603387 -0.51554525 -0.5654255 -0.23615636 0.078423694 0.31820163 0.50216734
-0.25965506 0.015527592 0.3763479 -0.031466898 -0.13015148 0.04862452 0.36520943 0.08884298
0.26953074 -0.29027328 -0.30691087 -0.38056263 -0.060630538 -0.06363724 -0.11156584 0.36646405
0.32108372 0.14050263 -0.00630053 -0.027420888 -0.15948276 0.037904035 -0.31583974 -0.15837553
0.47364643 0.46699834 0.5508281 0.16839677 -0.033161066 -0.3483524 -0.24536176 -0.44543666
-0.35778323 0.50017834 0.36844653 -0.06062271 -0.1400156 -0.36653954 -0.42486235 0.0817649
0.17662263 -0.074895896 0.4248302 0.45131904 0.4240818 -0.22164622 -0.5256491 -0.4977999
0.10425926 0.109114446 -0.13657805 0.0026998313 0.39913985 0.49859896 -0.476884 -0.38613024
-0.3447191 -0.07676389 -0.052755184 0.06121323 -0.01404985 0.115707 -0.033353478 0.1327614
-0.089392744 0.19743848 0.047971193 -0.22329752 -0.12002565 0.17684983 0.3469123 0.2022409
0.17314948 0.17435063 -0.01890593 -0.119939856 -0.29050165 -0.28326628 -1.099062 0.11645368
-0.15952136 -0.8675657 0.31197312 0.042658728 -1.4698856 0.23838715 -0.21566452 -0.2399683
-0.0351011 -0.18907069 0.088270344 0.23003988 0.30570853 0.38335815 0.5979999 0.20626652
-0.42946458 -0.101669595 0.029322011 -0.370815 -0.38959503 -0.30499044 -0.57756054 -0.36487392
-0.3197584 0.38745892 0.5211819 0.012683746 0.27126443 0.03795686 0.14195536 -0.07420683
0.09030173 -0.07655032 -0.63135713 -0.29624248 -0.19015208 -0.094088905 0.09300817 0.20019846
-0.009631166 0.45078537 0.50990504 -0.3944568 0.20910193 0.008258533 -0.33581766 0.28134435
0.011684248 -0.25731924 0.3327285 -0.15301768 0.1511166 0.3969756 0.41123995 -0.043981917
0.26393217 0.062003676 -0.42264903 -0.11215032 -0.4288798 0.065964445 0.38220587 0.2141624
-0.62412107 -0.22206104 -0.56346947 0.037054468 0.22054209 0.22934791 -0.17364924 0.26502883
0.05634486 -0.3964979 -0.34585997 -0.6142682 0.12500846 0.6374454 0.1733013 0.16834313
0.2368216 0.056743577 -0.33007866 -0.25187746 -0.36286223 0.28271502 0.4119485 0.24457225
-0.20210026 -0.45570114 0.5953388 -0.3994718 -0.28490394 0.5540369 -0.13415997 -0.20186485
0.080324285 0.25273037 -0.5170436 0.106930204 0.004476847 -0.19342355 0.19502126 0.270159
-0.028602123 0.34181595 0.2911168 -0.39032438 0.2963387 -0.17710705 -0.2922781 0.17739402
0.042221375 -0.040402073 -0.045236968 0.35057208 0.3689724 -0.11345234 0.52024084 0.09480551
-0.059165467 0.33723187 -0.011744168 0.021373121 0.28334287 -0.094959185 -0.26905072 -0.06396041

conv1.bias f4 [32]
00000000: 0a00 acbd 4da3 c5bf 0332 743d 2dbd 71be
00000010: 2981 38bf f444 dbc0 857a e9bc 7b55 52bd
00000020: d72c 95be b61b 5e3e 4696 9dbe e9b4 08bd
00000030: 8038 603f da3b d2bf d9ae 4cbe 96b1 18be
00000040: 87f6 0bbd 70e3 91be ed65 53be 76f0 63c0
00000050: c6d2 803f 6c32 273d b262 9e3d a868 e13d
00000060: 4cda 24c1 5955 6c3e 2c22 28be 1bd3 84bd
00000070: 0c24 843e b365 ebbe d13f 2bc0 3bd9 9a3d
-0.08398445 -1.544046 0.059618007 -0.23607321 -0.7207208 -6.852167 -0.028500805 -0.05135105
-0.29135773 0.21690258 -0.30778712 -0.033375654 0.8758621 -1.6424515 -0.19988574 -0.14911494
-0.034170654 -0.28493834 -0.2064435 -3.5615516 1.0064323 0.04081957 0.077336684 0.1100629
-10.303295 0.23079433 -0.16419286 -0.06485578 0.25808752 -0.45976028 -2.67577 0.07560965

batch1.weight f4 [32]
00000000: fb46 9b3f 3068 813f d6fb 303f 48ed 933f
00000010: 74cb 7b3f f022 653f 1d8e 813f eaca 893f
00000020: 5acf 463f d99a 843f 02ab a63f 5c9d 583f
00000030: fdd9 673f 0111 2a3f a8a4 f43e 2fa4 703f
00000040: 9b31 4c3f d17c 883f 7b09 9c3f 1d53 1f3f
00000050: 56fc 3f3f 101e 723f 3d3c 733f d0df 943f
00000060: d72d 703f 52a4 8e3f 0f63 b63f 5bfd 783f
00000070: 2b7a ac3f 6c74 093f 760f 313f 63f1 143f
1.2131037 1.010992 0.6913427 1.1556787 0.9835732 0.89506435 1.0121495 1.076505
0.77660143 1.0359756 1.3020937 0.8461511 0.90567 0.66432196 0.47781873 0.94000524
0.7976319 1.0663091 1.2190393 0.62236196 0.7499441 0.9457712 0.9501379 1.1630802
0.93819946 1.1143897 1.424898 0.9726159 1.3474783 0.5369327 0.69164217 0.58180827

batch1.bias f4 [32]
00000000: 3435 4b3f 041f 30bf 27ad 683f 3cec 933d
00000010: ea01 05bf 612c 463e 1b34 bd3f c1d5 403f
00000020: 2079 2c40 6aa3 a53d da51 873f 0730 ffbe
00000030: 166f 3fbe 0702 4abe 34a0 2f3d 2259 12bf
00000040: 0e65 3a3a 789e a8bd 0ac3 3dbf 98d9 5ebe
00000050: e35d 7ebd f1b6 203e 10a5 a73d f1b9 003e
00000060: dcb8 923e 99ea 84bd 96f6 b13e 60bb cc3d
00000070: 9332 b7bd a253 b23d cdec c93f 648a 22bd
0.79378057 -0.68797326 0.9088921 0.072227925 -0.51956046 0.19352867 1.4781526 0.7532616
2.694893 0.080878094 1.0571854 -0.4984133 -0.1869472 -0.19727336 0.04287739 -0.57167256
0.0007110395 -0.082333505 -0.7412573 -0.21762693 -0.062101256 0.15694787 0.0818578 0.12570931
0.28656662 -0.064900585 0.34758443 0.099966764 -0.08945193 0.08707358 1.5775391 -0.03968276

conv2.weight f4 [32, 32, 3, 3]
00000000: a69c dcbd 5827 433e b6c6 843d 7fec b6bd
00000010: 93fc b43e 0e59 0c3f 7757 d93c 034f 6e3e
00000020: c926 493e 9f29 523d ea55 5cbe 3461 91ba
00000030: ca29 423d 9fff 213b d11d 0e3f f386 82be
00000040: 5b71 7ebe 0291 0d3e 66f4 31bf fc0b 2abf
00000050: 388e febe 2ebd e0be b1ba 75be 4583 66bf
00000060: b9c3 8f3d 1d4b d83d 551a ba3e 695c c33e
00000070: 68fe 053e 7a5b afbe 1915 07be acab 1abe
00000080: f1be 54bf 3c04 bf3d f5c5 cdbd 68a5 76be
00000090: 6437 873e 5897 123e b654 be3c a55d 593e
000000a0: 7725 ad3d f8c9 a1bc e4cc 253d e80c 33be
000000b0: cf98 aabd 828f 2ebe 190c 74be b840 1ebe
000000c0: 174c f4bc f44c 65bd 1f0a c43d ae55 143e
000000d0: 1521 bf3c 6b85 fd3d bf32 1e3d 64c6 b4bd
000000e0: 05c1 2bbe 1d73 fe3d cb87 893c 10f8 b13c
000000f0: 0ffd 1e3e 4f00 d0bd 15d4 623e 709b e13d
00000100: 71bc 423d 5e67 51be a9bf 0f3e 990f 883b
00000110: 78ef 03be 79ab 2c3d 4529 7f3e 86e5 00bd
00000120: 472a 34be 8400 503e 48a6 7b3e a009 79be
00000130: 06ed 343e 36d7 c83e 4134 00bf 1128 62be
00000140: 7b89 083d 795c 4bbe 58d4 31bf b9ea a2be
00000150: 6500 a9be 8201 94be ddc8 623e 61f7 81b9
00000160: 0f23 033a fb5a ec3e 68e5 59be 7d38 1bbe
00000170: c82e c23d 6b74 2abe 102c 453e 27db 2e3e
00000180: e52e f0bd f2ca d8be 70b3 abbe bf77 0abf
00000190: bc78 18be bb72 4dbe 704a bfbe 3578 9b3e
000001a0: 4f7f d83d 3c0e afbe a05b d03e e374 5c3e
000001b0: 8843 bbbe 353d 8ebe a57a 7cbe 7671 713e
000001c0: f2c7 b53e f1e2 723d 557d 7abe dd7c aa3b
000001d0: aebf c13e 496d c33d 8acc 53bd 9c20 9cbb
000001e0: e3c6 7b3d fb8e 01be f84e 99be 4ea8 0f3e
000001f0: f9d3 f43b 0ff2 d6be 2c87 f6be 63d0 edbe
00000200: caee 49be 1dd3 46bd a812 b8bd f934 653e
00000210: bcfc 163e 768e 583e 71d5 f03e fd74 5a3e
00000220: 2cad a5be 98ba 883c 6553 c23e 9472 c13d
00000230: 1aeb 8b3d 5bc5 663d 54b7 99be 59bb 6abe
00000240: 0bfe 24bf d0de 1cbe 944f a9be 1c91 90bb
00000250: e848 063f e533 6a3e ae19 aabd 074b 963e
00000260: dbb8 933e 0c23 883e 0b05 133c dfcb a03e
00000270: 3075 d33d b9e4 1c3c e1b6 91bd bb98 dbbd
00000280: 5141 48be a2cc a1be 7acd 02bb fc5c 82be
00000290: bab3 0ebe 8994 7d3e c37b 89bc 2ceb b03e
000002a0: ce7f 063f 6d69 233d ba3e bb3e 6339 523e
000002b0: 3e7f a4be 49f5 41bd fa98 d23d 0529 693d
000002c0: 4de4 f53c 79e1 cfbb d7f2 bc3b 45d7 71be
000002d0: 9097 d23b fcb2 d4bd a928 83be f84b 0b3d
000002e0: 1d74 5c3e 4060 153e 94f5 bd3b ca78 2d3e
000002f0: 7d95 b23d 8d8a 173e b818 983d 0b89 9dbc
00000300: d8d1 c6be 793b 23be 9500 23be 89d6 18be
00000310: 3c12 a33d b76b 2b3e 8953 75be 6736 2dbf
00000320: 14b9 86be 904b cfbe 5df0 8d3d 3ab0 b43e
00000330: 32b7 513d 2860 713e 5ce0 373f e69f ecbd
00000340: 14fd 8abe 0acf 653e 7148 65bd 1c21 883c
00000350: c680 1f3e 577e c83d bb97 46bc b6b8 a63d
00000360: 05ae bdbe 57fa 05be 6be0 cb3d d1f7 4ebe
00000370: b063 4d3d 3f77 e93e f516 e2be ec51 24be
00000380: 0f1d 2abd eb9a 9e3c 1a7f 54be ea14 fdbe
00000390: b0c5 73be f78d 30be a98b 43bf 93a0 e3bc
000003a0: 1e7b 663d ee51 e93d 2acb 6b3e f0c7 763c
000003b0: cdcc 95be 1715 8a3e 89d7 183e eada bf3d
000003c0: 0637 a4be f277 52be 6547 01bf 2e67 d63d
000003d0: bf04 a93e 59a9 f13d 3f99 afbd 2866 1c3e
000003e0: 598d d83c cf0a 92be 271c 8b3d 6518 16bd
000003f0: 2ae0 1abe 8475 bcbe 4d34 b13d 4a2c 203c
-0.10772066 0.19057977 0.064832136 -0.08931827 0.3534895 0.54823387 0.026530964 0.23272328
0.19643702 0.051309224 -0.21517149 -0.0011091591 0.047403134 0.0024719012 0.55514246 -0.25493583
-0.24847929 0.13824847 -0.6951355 -0.66424537 -0.4971788 -0.43894333 -0.23996998 -0.9004405
0.07019753 0.10561202 0.36348215 0.3815644 0.1308533 -0.3424948 -0.13191642 -0.1510455
-0.83103853 0.093269795 -0.10047523 -0.24086535 0.26409447 0.14315546 0.023233753 0.21227129
0.084544115 -0.019749627 0.040478602 -0.17485392 -0.08329927 -0.17046931 -0.2383274 -0.15454376
-0.029821439 -0.05598159 0.09572243 0.14485809 0.023331204 0.12378963 0.038622614 -0.088269025
-0.1677285 0.124243 0.016788384 0.02172473 0.15526222 -0.10156309 0.22151215 0.110159755
0.047542993 -0.20449588 0.14037956 0.00415225 -0.12884319 0.042155717 0.24918087 -0.03146889
-0.17594253 0.20312697 0.2457515 -0.24320078 0.17668542 0.39226693 -0.50079733 -0.22085597
0.033334237 -0.19859494 -0.69464636 -0.31819704 -0.33008114 -0.289074 0.22146936 -0.0002478911
0.00050024776 0.46163163 -0.21278918 -0.15158267 0.09481579 -0.16645972 0.1925509 0.17075787
-0.117276944 -0.42342335 -0.33535337 -0.5408897 -0.14889807 -0.20063297 -0.3736148 0.30365148
0.10571157 -0.34190547 0.40694904 0.21528964 -0.3657496 -0.27781072 -0.2465616 0.23578438
0.3550411 0.05929846 -0.24461873 0.005202873 0.37841552 0.09542329 -0.051708736 -0.0047646295
0.06146897 -0.12652199 -0.2994306 0.14029047 0.007471558 -0.4198155 -0.48150003 -0.4644805
-0.19719997 -0.048541177 -0.089879334 0.22383489 0.14744848 0.21148095 0.47037843 0.2133369
-0.32358682 0.016690537 0.3795425 0.09445682 0.068319514 0.056340557 -0.3002268 -0.2292303
-0.6445014 -0.15319371 -0.33068526 -0.0044118296 0.52454996 0.22871359 -0.08305679 0.29354116
0.2885197 0.2658924 0.00897337 0.3140554 0.10325086 0.009576016 -0.071149595 -0.107224904
-0.19556166 -0.31601435 -0.00199589 -0.25461566 -0.13935748 0.24763693 -0.016782647 0.34554422
0.52538764 0.039895464 0.36571294 0.20529704 -0.32128328 -0.047353063 0.10283084 0.056923885
0.030016089 -0.006344017 0.0057662535 -0.23617275 0.006426759 -0.10385701 -0.2561696 0.034007996
0.21528669 0.14587498 0.0057970975 0.16940609 0.08719919 0.14798947 0.0742659 -0.019230386
-0.38831973 -0.15940656 -0.15918191 -0.14925589 0.07962462 0.16740309 -0.23957647 -0.67661136
-0.26313078 -0.40487337 0.06930611 0.352907 0.0512001 0.23571837 0.7182672 -0.11553936
-0.27146208 0.2244226 -0.05597729 0.01661735 0.15576467 0.097897224 -0.012121136 0.081406996
-0.3704683 -0.13083778 0.09954914 -0.20211722 0.050143898 0.4559879 -0.4415814 -0.16046876
-0.04153162 0.01936098 -0.2075161 -0.4943002 -0.2380588 -0.17241655 -0.7638498 -0.027786529
0.056269757 0.1139258 0.2302672 0.015062317 -0.29257813 0.26969215 0.1492597 0.093679264
-0.3207323 -0.20553568 -0.50499564 0.10468899 0.33011433 0.117998786 -0.08574151 0.15273345
0.026434587 -0.2852387 0.06792479 -0.03664436 -0.15124574 -0.36808407 0.08652554 0.009776184

conv2.bias f4 [32]
00000000: 8a5c c43d 263c 173e 24f5 033e 4617 133e
00000010: 3125 8a3d e2b1 bb3d 0a9d b0bf 5a1d 0fbd
00000020: d67e bc3e 5211 acbe 704b 853e 1aa9 14be
00000030: 2b39 5cbd da80 333e c37c 543d 143c b9bd
00000040: d518 86bd b794 32be 003c 7fbd 7d24 d0bd
00000050: b441 41bd 91ec 343d a67b 063e c9f3 0f3d
00000060: 5cac a23e 3ca8 6d3b eed0 f73b 3096 09be
00000070: a5fb 10bf 27d6 af3e bf08 35bd f747 c53e
0.09587963 0.14769039 0.12886482 0.14364347 0.06745375 0.09164788 -1.3797925 -0.0349401
0.36815518 -0.33606964 0.26034117 -0.14517632 -0.053765457 0.17529622 0.051876795 -0.09044662
-0.06547705 -0.17439543 -0.06231308 -0.101632096 -0.0471818 0.04417092 0.13133106 0.0351446
0.31772125 0.0036263606 0.007562748 -0.13436198 -0.5663398 0.34343073 -0.044197794 0.38531467

batch2.weight f4 [32]
00000000: fb69 433f 5725 6b3f c298 b63f f072 8f3f
00000010: e798 803f 5a99 9a3f 962f 9f3f a766 313f
00000020: d832 943f dd7e 6e3f 8ccb 973f 06ab 653f
00000030: d472 143f 4183 a83f 1b08 893f f020 a13f
00000040: dbaf 563f 0b81 623f 4ab6 6b3f 69ec 443f
00000050: 02bf 933f 6b76 823f daf6 983f c34d 883f
00000060: 8eb2 7b3f 111a 363f 7c01 3f3f 4ab5 223f
00000070: 8439 953f 2298 7c3f 53f0 673f 70b0 5b3f
0.7633359 0.9185385 1.4265368 1.1206951 1.0046662 1.2078049 1.2436397 0.6929726
1.1578016 0.9316233 1.1858993 0.89714086 0.57987714 1.3165056 1.0705599 1.2588177
0.83862084 0.88478154 0.92075026 0.76923233 1.1542666 1.0192388 1.1950333 1.0648731
0.9831933 0.71133524 0.7461164 0.63557875 1.1658177 0.98669636 0.9060108 0.858161

batch2.bias f4 [32]
00000000: f13a ffbd e24f 04bf b0c3 45be ba40 19bf
00000010: 1b61 98be 7850 22bf 9678 b5be cab2 2ebe
00000020: 3080 03bf 4ea6 80be cd75 f9be 4443 babe
00000030: 507b 993c d4b3 e5be 9b86 eebe fbb1 12bf
00000040: 3e20 b1be f719 eabe 673d e8be 3dc7 14bc
00000050: 4519 f6be 94ad d9be e51f 0dbf c041 b4be
00000060: 7692 00bf d80d 90be 6c50 7ebe 073b 85be
00000070: d197 fdbd a426 aabe f229 b5be aac7 e3be
-0.12462414 -0.5168439 -0.1931293 -0.5986439 -0.29761586 -0.63404036 -0.35443562 -0.1706039
-0.51367474 -0.2512688 -0.48722687 -0.36379445 0.018735558 -0.4486376 -0.4658707 -0.57302827
-0.3459491 -0.45722935 -0.45359346 -0.009080705 -0.48066154 -0.42515242 -0.5512679 -0.35206413
-0.5022348 -0.28135562 -0.24835366 -0.26021597 -0.12382472 -0.33232605 -0.35383564 -0.4448827

conv3.weight f4 [32, 32, 3, 3]
00000000: 22ef ea3e 00d1 093f eaab 0d3e 2389 98be
00000010: 62cd 6a3c d4f8 933e 6467 a7be 515e 60be
00000020: 2128 c63c 3be2 e83d 7fa4 833d ee4b 86be
00000030: 551b 42be 6608 b4bd 1346 203e e384 683e
00000040: 3264 773e 4021 a7be 9173 083d 7e42 c4bc
00000050: 090e ddbe 50af 6c3e 45e2 a73d aee8 54be
00000060: aa31 f23d ceaf 883d 61eb 0bbe 605c 35be
00000070: a389 80be 19f5 d83e 779a 323e 9db0 2abe
00000080: 4b51 153f d825 d2be 5592 8c3c b248 b03e
00000090: ed37 983e e113 143f 0a4e 1c3e ec17 923c
000000a0: c8ee 733e 4695 633b 5c70 85bd d25d dfbc
000000b0: 2072 b1bc 84d2 bc3e 426a 943e 846a 3f3e
000000c0: ac4a a93d 0f06 a13e ebac 5f3e 8b5f b9be
000000d0: 31b6 3f3e 8189 92be c825 db3e 3770 c03c
000000e0: 35a2 86be 21f2 713e 7021 aabd 648e 24bc
000000f0: 2796 9a3e d151 b13e 9192 db3d 49d1 adbe
00000100: aca6 ebbe 3a13 34bf 86bf 6d3e 87b0 76be
00000110: 6729 c2be 4ef2 a7bd e13e 6bbd a311 863c
00000120: 0dd0 0d3e ead0 0cbe aead 9dbe 9a04 44bc
00000130: 3fe2 cdbc 6539 7e3e 5c2e 803d ffd0 77bc
00000140: 2a54 823e a4ed 40bf e52f 9bbd c3ae 8d3e
00000150: ab0f 07bf 1e0e 6dbe 32d5 2c3e 4b6c 89bd
00000160: 4ae0 773c 011a 993d 18d4 99bd f5b5 08bf
00000170: 55e9 c53e 2751 02be 68a6 533d 12f2 543e
00000180: a10e 56bd 996d b4bd 6049 cfbd 7f1b 02bc
00000190: 4717 debc 093d 543e 5c5c 6c3e 741f 30be
000001a0: 303e 13be 83b7 cd3d 2cc6 843e 16cc 12be
000001b0: 9882 06be d88f febd ae1a d2be 1028 92be
000001c0: 99a9 bcbd 883d b2be f39f 94be 1a7f 393c
000001d0: 403b 8bbe cf41 d7bd b646 a2bd 5fbb fe3c
000001e0: c8c9 803e 3d4c d63d 5da0 0cbe 303e d0bb
000001f0: 553b 453d 2785 debe 32fb 50be d7f7 a8be
00000200: 8ed4 38bf 3d6a a1bd c9a2 e5bd e63e 413d
00000210: b938 5e3d 5ca2 953e 2e10 6a3d 9820 b53e
00000220: 328b a6bc d051 fdbd 21cd 793e 4ef5 70be
00000230: 8740 0fbf 46b7 bcbd 9b34 c23e 0d59 9ebe
00000240: 48f6 1e3e 14de 48bd f6de 19bf 770a 1bbd
00000250: e8d9 2abd 72c7 36bc da10 45be a1d9 42be
00000260: 6618 61be f882 a1bc 64de 4dbe 7371 d33e
00000270: 54dc 483e d9cb 3e3e b910 453e 5533 0cbe
00000280: 43c9 e13d 9b69 303e 27b3 25bc b045 3a3e
00000290: 523e a93e fe58 31be b370 39be 6587 4ebe
000002a0: db54 b63d 569f ebbe 256f bfbe dcd9 87be
000002b0: eb00 0dbd 8236 4a3d be21 a7be 4526 5e3d
000002c0: c750 5bbe fd9b 9cbe 8997 86be 915c 2cbe
000002d0: 8e05 07be 6ffc 533d b018 be3e 6da6 853e
000002e0: bfdf 933c 1f8e 373e 1695 943e 9db3 1d3e
000002f0: 0e59 e53d da64 883e e15e d53b 2cf7 8f3c
00000300: d854 893e 1a09 e3be 76ce a6be f1ce e9bd
00000310: a4ac 7cbd 165b 933d 88be 8d3e 0cf9 e63c
00000320: 0a47 9ebe 1fc5 c43e 3da5 de3e 47e6 0e3e
00000330: 3f02 c43d 3527 6b3e 31c2 8f3d aa3c 2c3e
00000340: f532 6abd 05fd 06be 24bf cbbe ef9f 7ebe
00000350: 4fde 613d 61ad 0dbf 007e 693c 158b c23e
00000360: f952 6c3e 8559 10be bdfa 85bf b386 283e
00000370: 2552 bcbe f7cd a0be 92a2 03bc 5105 c5be
00000380: 4dd2 92be b484 8f3b 1fd5 52be d67e 0dbf
00000390: ceaa 96be af42 01bd cd47 01bf f6a3 b43b
000003a0: bfdf a73e 15ba 893e c925 673e cc58 7f3e
000003b0: 2f1f 71be 1460 f93e 063d 7f3e e458 f1be
000003c0: f0c4 003f 7103 aa3d 383a 52be 8efb f23c
000003d0: 20c9 0abe dce0 89bd 74c5 a33e 1dae 953e
000003e0: fb3f 2ebe 0b90 953d 849f 45be db73 0dbf
000003f0: cb93 b0bd a775 a2be 6062 b53d edc8 463d
0.4588557 0.53834534 0.13835111 -0.29792127 0.014331194 0.28900778 -0.32696068 -0.21910979
0.024189057 0.11371275 0.064278595 -0.26229805 -0.18955739 -0.087906644 0.15651731 0.22706942
0.24159315 -0.32642555 0.033313338 -0.023957487 -0.4317477 0.23113751 0.08197454 -0.20791885
0.11825879 0.06674157 -0.13664009 -0.1771102 -0.25105008 0.42374495 0.17441736 -0.16668935
0.5832717 -0.41044497 0.01715962 0.34430462 0.29730168 0.5784283 0.15264145 0.017833672
0.23821557 0.0034726425 -0.065155715 -0.027266417 -0.021660864 0.3687936 0.28987318 0.18692976
0.08266196 0.31449935 0.21843307 -0.36205706 0.18721844 -0.28620532 0.42802262 0.023491008
-0.2629563 0.23627521 -0.08307159 -0.010043714 0.30192682 0.34632733 0.10721315 -0.33948734
-0.46025598 -0.7034184 0.23217592 -0.24090777 -0.37922212 -0.08200513 -0.057433013 0.016365832
0.13848896 -0.1375157 -0.3079657 -0.011963988 -0.025132297 0.24826582 0.06258842 -0.015125512
0.25454837 -0.7536261 -0.075774945 0.27672395 -0.5275828 -0.23149917 0.16878203 -0.06710108
0.015129158 0.07475663 -0.07511157 -0.53402644 0.3865458 -0.1272627 0.05167237 0.20795467
-0.052260045 -0.088099666 -0.10121417 -0.007941126 -0.027110709 0.20726408 0.23082107 -0.17199498
-0.14379191 0.10044768 0.25932443 -0.14335665 -0.13135755 -0.1242978 -0.4103598 -0.2854619
-0.09212036 -0.3481257 -0.29028282 0.011321807 -0.27193642 -0.10510599 -0.07923643 0.031095205
0.25153947 0.1046376 -0.13733049 -0.0063550696 0.048152287 -0.43460962 -0.20408323 -0.33001587
-0.7219933 -0.078815915 -0.112126894 0.047179125 0.054253314 0.29225433 0.057144336 0.3537643
-0.020330045 -0.1236912 0.24394657 -0.23531076 -0.55957836 -0.09214644 0.3793076 -0.30927315
0.15523636 -0.049039915 -0.60105836 -0.037851777 -0.041711718 -0.01115595 -0.1924471 -0.19028331
-0.21981964 -0.019715771 -0.20104367 0.41297492 0.19615299 0.18632449 0.1924466 -0.13691457
0.11024716 0.17227785 -0.010113514 0.18190646 0.3305536 -0.17319104 -0.18109398 -0.20168836
0.08902904 -0.4602 -0.37389484 -0.265334 -0.034424704 0.04936839 -0.3264293 0.054235715
-0.21417533 -0.3058776 -0.26287487 -0.16832186 -0.13185713 0.05175441 0.3712821 0.26103535
0.018051026 0.17925309 0.29019994 0.15400548 0.111986265 0.26639444 0.0065115546 0.017573915
0.26822543 -0.4434288 -0.32579392 -0.11416424 -0.06168808 0.07195108 0.27684426 0.028194927
-0.30913574 0.3843164 0.43485442 0.13955031 0.09570741 0.22964175 0.07019461 0.16820017
-0.057177503 -0.13182457 -0.39794266 -0.24865697 0.05514365 -0.5534268 0.014251232 0.37996736
0.23078527 -0.14096649 -1.0467144 0.16457634 -0.3678142 -0.3140714 -0.008034365 -0.3848062
-0.28676072 0.004379833 -0.20589112 -0.5527166 -0.2942719 -0.031557735 -0.50500184 0.0055127097
0.32787892 0.26899782 0.22573008 0.24936217 -0.23547052 0.48706114 0.24925622 -0.4713813
0.503005 0.08301438 -0.20530021 0.029660966 -0.13553286 -0.06732342 0.31986582 0.292344
-0.17016594 0.07302865 -0.19299132 -0.55254906 -0.08621939 -0.31730387 0.08856654 0.04853146

conv3.bias f4 [32]
00000000: 274e 6d3e 04ec 783e 1321 ec3e 0fc8 a33d
00000010: cb48 243e e072 cb3d e2c5 e1bf aa50 8a3e
00000020: faee 29bd 75a0 d0be 79d3 c53d 0bc4 f4ba
00000030: ac83 0e3f b4b1 be3e 5279 593d 3f82 e13e
00000040: c403 273f 99c9 183e 9dd0 903e 952d 183f
00000050: 7f7d 053f fafd bebc 8f4b 6d3e ae2b 653f
00000060: befd a33d 4871 a33f 0543 be3e ad58 f63e
00000070: 474b c53e fedc 5e3e 26a6 92be d394 21bf
0.23174344 0.24308783 0.46118984 0.079971425 0.16043393 0.0993402 -1.7638514 0.27014667
-0.04148767 -0.4074742 0.09659476 -0.0018674148 0.55669665 0.37244952 0.053094216 0.44044682
0.6524012 0.14920653 0.2828416 0.5944455 0.52144617 -0.023314465 0.23173355 0.89519775
0.08007382 1.2768946 0.37160507 0.4811453 0.38533995 0.2176399 -0.28642386 -0.6311771

batch3.weight f4 [32]
00000000: a0e2 423f 2661 5d3f 889e 823f 6a81 5f3f
00000010: 0471 3d3f d102 603f 1782 ac3f 5c0b 483f
00000020: e4c3 943f 51f9 8f3f 7134 373f f5cf 403f
00000030: bd79 683f 4326 8c3f 8dd7 173f 8c56 463f
00000040: 8200 683f c2cf 5f3f f883 3c3f d2e5 5f3f
00000050: 996d 683f c9c0 773f 0a11 393f bafa dc3f
00000060: 9c13 463f 4183 8a3f d335 783f 23a4 753f
00000070: e0a4 3c3f e88d 393f 15f5 863f cc3c 883f
0.7612705 0.8647636 1.020463 0.87306845 0.74000573 0.875043 1.34772 0.78142333
1.1622281 1.124796 0.71564394 0.7531732 0.9081076 1.0949177 0.5931328 0.7747581
0.90625775 0.8742639 0.7363887 0.8746005 0.9079223 0.9677854 0.72291625 1.7264016
0.7737367 1.0821306 0.9695713 0.9595358 0.7368908 0.72482157 1.0543543 1.0643554

batch3.bias f4 [32]
00000000: f639 85be 20ae 80be bef9 d6be c3f7 eabe
00000010: f27e 89be 2513 25bf 173f 49bf 5a3a 78be
00000020: 5841 57bf 6570 86be 9bc7 02bf ed8a 2cbe
00000030: 5c96 98be 80f0 e5be 687a d1bb f544 a4be
00000040: f246 e6be 67ca a1be cc49 79be 8d47 9dbe
00000050: 5061 24bf 44d2 bebe 228c 4bbe cb34 72bf
00000060: 1eab 0ebf 7dbb 18bf bc98 91be f782 13bf
00000070: cc88 1abe f986 67be be01 86be f1d7 77bf
-0.26020783 -0.25132847 -0.41987413 -0.45892152 -0.26854664 -0.6448234 -0.7861189 -0.2424101
-0.8408408 -0.26257625 -0.51085824 -0.16849871 -0.29802215 -0.4491005 -0.006392766 -0.3208386
-0.44976002 -0.31599733 -0.24344558 -0.3071865 -0.6421099 -0.37269795 -0.19877675 -0.94611806
-0.55729854 -0.59661084 -0.2843684 -0.5762171 -0.15091246 -0.22610082 -0.26173204 -0.96813875

conv4.weight f4 [32, 32, 3, 3]
00000000: 283d fdbd 0b51 203b 3884 53bc 4d41 eabd
00000010: 85e4 4fbd a59f 3cbd 7483 b9bd e7d8 16be
00000020: 92fa e13d 4586 9f3d ff5d 9f3d a0fa b23d
00000030: bb79 01bd dd7c cbbd c4d5 223c 2892 493d
00000040: b65f 04bd 9698 ccbc b33b da3d 3595 db3c
00000050: 5d2e 5a3d 9d75 743d b942 863c dd5a 783d
00000060: 908b 953c dabd 57bd cd54 babc a980 28be
00000070: 62d2 f8bb 830e 25bd fe09 f7bd 6693 c83c
00000080: 21fa a2bd 7695 2dbe ff08 89bc e8de 833d
00000090: cfd8 493c da31 f13d b04d 9e3d f8ca eb3d
000000a0: 521d 243e 3d63 843d c86c 113e 226b 963d
000000b0: 7142 8b3c cf15 e33d a84c 843b c2d2 983d
000000c0: 7a7c 093e a4d0 17bd bb7c 283c 3e69 f83d
000000d0: 4d90 cd3d 1898 043d 71ba 953b 5872 8d3d
000000e0: 9c17 933c f901 8b3d 9575 65bd a1ad bd3c
000000f0: 2604 5cbe 8b7a 273d 2f31 643d 5d74 7b3d
00000100: 9c70 54bb cce9 d43c 5529 1b3e af7d 1dbd
00000110: ec46 b4bc 98f9 c73c 3e5b 313c 2e16 2f3d
00000120: 5f3b 0ebe bdbb e23d 3042 5d3d 910b 57be
00000130: 136e f1bd 533f d93d 07d4 40be 94e9 11bd
00000140: abf8 65bd cebc d7be 88c6 0d3b bbe8 9f3a
00000150: 6b2d bfbe 6576 22bc a6ff 513c 4a1e ccbe
00000160: d072 603d e247 d53d f646 463c 393a 9d3c
00000170: 469e c13d 3a85 973c 306f 213d 8c5a f33d
00000180: 18ef 4cbd b132 7f3c c0e3 143e 4c00 b6bd
00000190: b75a 3b3d 8286 1f3d 3ac3 0bbd 4e06 8ebd
000001a0: 308b 04bd 9382 8bbd 7e05 103d 5aaa a53d
000001b0: f58f 933d 7664 013d 3dab e6bb 738c a93b
000001c0: 37d0 5a3c 22dd 27bd faa1 b83d 77ed 793c
000001d0: e1a9 b13d cf3f 473d 4c68 063e 8490 aa3c
000001e0: 4bea 1f3e 62ae 0c3e 20d9 7b3b 4e60 2a3e
000001f0: ed60 be3d 8126 d23b ab26 da3d 6f2f 923d
00000200: f1f6 483c 78af d73d f9be 3d3d 598a 1fbd
00000210: 8df8 193e b007 573d a671 0c3e 75df 353d
00000220: f37f 5e3d cc17 863d c17c 653d fee4 86bd
00000230: e916 813d c1e0 8f3b b590 c83c a2c3 003d
00000240: 61b0 123d 685f f93c c5a9 c1bd b2fb 903d
00000250: 5f82 bebc 21b6 8fbc 3010 673d 7c2c 6d3d
00000260: 067a 18bc 317e 3ebe c71a 383d 2b5e 88ba
00000270: f099 7dbd 2ec0 043c 493c 26bd aceb 23be
00000280: f9c2 643d 5bbe 4e3d e3b7 193e ca60 633d
00000290: 8dde 8d3d aa01 b73d 1fa2 843d cfbd 6f3d
000002a0: fe58 103e 3467 803d 1bb8 9e3d f62c 0e3e
000002b0: 1095 973d c806 cf3d 98f1 db3d 4c36 f43d
000002c0: d1b6 2f3b e1fe c63d 7ced 073d 6fbb de3c
000002d0: 52d2 d13d d229 17bd 9b75 8e3d e993 233e
000002e0: 2efc 893d cf38 4f3d cc9e 253e 0f5a 2e3e
000002f0: c84d 963b c591 bdbc fb50 a2bd 089f 443d
00000300: f1d8 453d 2042 e7bd a999 823d f060 d0bd
00000310: ef8a 743d 415a 003e 0281 85bd 9860 a93b
00000320: f8fb 903b 7512 1bbd c423 ab3d e348 1abc
00000330: caed c73c 8451 4abd 0d6c 3d3d 8521 e4be
00000340: b7e4 7dbd 2a44 27bc cb39 e5be 57d3 a6bd
00000350: 9a75 093e f35e d9be 2d21 b7bd f29d 583d
00000360: 6ed3 0f3d f6ba fd3c 7ab2 5d3d d670 7f3d
00000370: dcae 72bd 1c68 60bd 07df 393d c308 bdbd
00000380: 3040 1b3d 3323 b03d d846 b03d bb80 e53d
00000390: cc4a 033e 10ae 08bd 7146 043e 5d7e 933d
000003a0: 6e50 133d 47d9 373c c004 86be 209f c83d
000003b0: a540 ad3d 5dd1 45be e466 f43d 9617 963c
000003c0: 021d 78be 411b 92bb 15f9 ca3c 94a9 f63d
000003d0: f7e1 febc 5c61 debc 6286 443d 4db8 6a3c
000003e0: 540b 5ebd dcd2 9f3d 789a 453d 2346 363d
000003f0: 49e5 33bd 3210 74bd 9e0b 3a3d 2056 b23d
-0.1236518 0.0024462368 -0.012909941 -0.114382364 -0.050755043 -0.046050686 -0.09058276 -0.14731179
0.110341206 0.07789282 0.077816 0.08739209 -0.03161023 -0.09935925 0.009938661 0.04921165
-0.03231784 -0.024975102 0.10655918 0.026804546 0.05326687 0.059682477 0.016389238 0.06063353
0.018255025 -0.05267129 -0.022745514 -0.1645533 -0.007593439 -0.040297043 -0.12062453 0.024484348
-0.079578646 -0.16951546 -0.016727922 0.06439 0.012319758 0.117770866 0.077296615 0.115133226
0.1602681 0.06464241 0.14201653 0.07344653 0.016999455 0.11088144 0.0040374584 0.07462074
0.1342639 -0.03706421 0.010283644 0.12129448 0.10037289 0.03237161 0.0045693447 0.06906575
0.017955594 0.06787486 -0.056020338 0.023154082 -0.21485958 0.04088835 0.055710968 0.06139027
-0.0032415753 0.02599039 0.15152486 -0.03844994 -0.022006474 0.024411008 0.0108249765 0.04274576
-0.13889836 0.110709645 0.0540182 -0.21000506 -0.11788573 0.10607781 -0.18830882 -0.035623148
-0.05614535 -0.42136234 0.0021633226 0.0012200096 -0.3733934 -0.009915923 0.012817299 -0.3986686
0.054796994 0.10414101 0.012101879 0.019192802 0.094540164 0.018496145 0.039412677 0.11882505
-0.050032705 0.015576051 0.14540005 -0.088867754 0.04574081 0.038946636 -0.03412173 -0.06934796
-0.032359302 -0.068120144 0.035161488 0.080891326 0.07205192 0.031589948 -0.007039456 0.0051742136
0.013355306 -0.040982373 0.090152696 0.01525437 0.0867498 0.048644837 0.13125724 0.020820864
0.1561672 0.13738397 0.0038428977 0.166383 0.09295831 0.0064132814 0.106519066 0.071379535
0.012265907 0.10531515 0.046324704 -0.038950298 0.15036221 0.052497566 0.13715228 0.04440256
0.05432124 0.06547508 0.056027178 -0.065866455 0.06303198 0.0043908064 0.024483064 0.03143657
0.03581274 0.030441001 -0.09456209 0.07079257 -0.023255525 -0.0175429 0.056411922 0.05790375
-0.009306436 -0.18602826 0.044947412 -0.0010404041 -0.061914384 0.00810246 -0.040584836 -0.1600787
0.055850003 0.050474506 0.15011553 0.055512227 0.06927214 0.08935864 0.06476235 0.058530625
0.14096448 0.062696844 0.07749959 0.13884339 0.07401478 0.10108715 0.1073944 0.11924419
0.0026811848 0.09716583 0.033185467 0.027188985 0.102451935 -0.036905117 0.06956025 0.15974392
0.067375526 0.050591286 0.16173857 0.17026542 0.004586909 -0.023140797 -0.07925602 0.048003227
0.048302595 -0.11291909 0.063769646 -0.10174739 0.05970281 0.12534429 -0.06518747 0.0051689856
0.0044245683 -0.0378594 0.08356431 -0.009416792 0.024405379 -0.049394146 0.046245623 -0.44556823
-0.061985698 -0.010209123 -0.44770655 -0.081457786 0.13423768 -0.42455253 -0.08941875 0.052885003
0.035113744 0.030972939 0.054125287 0.062363468 -0.05924879 -0.054786786 0.04537871 -0.09230187
0.03790301 0.08600464 0.086072624 0.11206194 0.12821501 -0.033369124 0.12917496 0.07201836
0.035965376 0.011221237 -0.261755 0.09795976 0.084595956 -0.19318147 0.11933687 0.018321794
-0.24229816 -0.0044588153 0.024776975 0.12044063 -0.031113608 -0.027146034 0.04797972 0.014326167
-0.054210022 0.0780389 0.048243016 0.04450048 -0.043919835 -0.059585758 0.045421235 0.08707833

conv4.bias f4 [32]
00000000: 955a 7dbc f1b9 593f 7893 fd3c afe0 393c
00000010: 61e0 b93e 0186 41bc 65c3 9f3e f5e2 0dbd
00000020: 8571 83bc 072f 923c 3ba2 e13e ce1a 603e
00000030: 25dc a03e d94c d23e 9677 143e f4fd ae3d
00000040: d85c c83e ae16 83bb 127f 773c a66a 443d
00000050: e0a7 b13e cf3a 513e 5b02 9a3d 9b8c 1bbd
00000060: 6bed 563d 0f7a 493f 4b0a 4dbd c6da 4e3d
00000070: f799 4a3d 61b1 f63c 9bec cf3e d602 d83c
-0.015463491 0.8504935 0.030954108 0.011345073 0.36304 -0.011811734 0.31203762 -0.03464027
-0.016045341 0.01784469 0.44069085 0.21885225 0.31417957 0.41074255 0.14498743 0.085445315
0.39133334 -0.0040005064 0.0151059795 0.04795327 0.3469839 0.2043259 0.075199805 -0.03797589
0.052472513 0.7870187 -0.050058644 0.050501607 0.04946324 0.030113878 0.40610203 0.02636854

batch4.weight f4 [32]
00000000: 19f4 9f3e 1f5d b040 5428 643f d0b5 b93e
00000010: 58ce 7e40 5aee ce3e 9e7b 7240 4f0c c33e
00000020: a8b0 e73e 4484 8b3f d9e8 9840 b147 4940
00000030: d629 4640 4753 8640 5681 4540 432c df3f
00000040: d2fb 9940 54c2 9e3e 190a c13e fc3f 973e
00000050: db80 6240 e98d 6740 5322 4640 3b1e c33e
00000060: 75b7 503f a897 4240 e7f8 d93e 1612 3d3f
00000070: 1ee7 c53e 6bb5 b83f ef06 7940 3cd4 7d3f
0.3124092 5.5113673 0.89124036 0.36271524 3.9813442 0.40416223 3.788795 0.38095328
0.45251966 1.0899739 4.778424 3.1450007 3.0963035 4.1976657 3.086019 1.7435383
4.81199 0.31007636 0.37703016 0.29541004 3.5391147 3.6180365 3.095845 0.38109002
0.81529933 3.0405064 0.4257271 0.7385572 0.3865289 1.4430364 3.8910482 0.9915197

batch4.bias f4 [32]
00000000: 641f 2ebf db50 83c0 8bce a0bf 6143 20bf
00000010: 927e 20c0 c2cb 50bf 6fcb 4ec0 778a 2dbf
00000020: 4537 4cbf 4469 bebf 1f96 3cc0 75ac edbf
00000030: 307c 19c0 6ca8 35c0 5e3e 0ec0 27b1 f3bf
00000040: ffb8 10c0 d1a6 2cbf 8ab9 2cbf 24b2 2abf
00000050: a9bd 26c0 79ef 03c0 0b01 d9bf 2629 38bf
00000060: a82b abbf aeee 8bbf 796a 58bf cd88 8bbf
00000070: d3f1 38bf a258 05c0 801f 66c0 a769 c6bf
-0.6801665 -4.10362 -1.2563032 -0.6260281 -2.5077252 -0.8156091 -3.2311666 -0.67789406
-0.79771835 -1.4875875 -2.9466627 -1.8568255 -2.3982048 -2.8384047 -2.2225566 -1.9038438
-2.2612913 -0.6744204 -0.6747061 -0.6667807 -2.605326 -2.0614913 -1.6953443 -0.7193779
-1.3372698 -1.0932214 -0.84537464 -1.0901123 -0.72243994 -2.0835347 -3.5956726 -1.5500993

lin1.weight f4 [5, 800]
00000000: 441d 11bd 42d1 113c 4070 90bc b9f7 1fbc
00000010: 8756 0abc 70fa d1bc b14a 50bc 2db6 a23c
00000020: 439f c13a 782c a4bc 5423 0cbe dfe2 59bc
00000030: 37e2 303d 2cfe 7abd c711 a3bc 2839 ec3b
00000040: 7e82 96bd 117b 6b3c 0dc3 4fbd 3162 283b
00000050: 5c2b 7fbc 2dc3 f23c 0572 a7bc 30c2 2f3c
00000060: 5690 453c 79d6 e3bb 4b8e 31bc c831 69ba
00000070: c30f b6bb 5ef8 8b3c abfc a33b 9b47 0cbb
00000080: d168 893b 381c c2bb 90c8 863c 0b6f c6ba
00000090: 21e7 93bb 244d 41bc be1d 1b3c e473 d4bb
000000a0: 27bb 89bc 948e f7bb 818e 31bc 02cb 5dbc
000000b0: b3a8 913b 65eb 923b 4c00 413b fc2b aeba
000000c0: 82de 1ebc bfee 56bc 735b 393d 7c58 e73c
000000d0: 9b25 2d3d da9e 133d d066 d93c 34dc d23c
000000e0: 585c 4bbe afbf 37be 95dd 54be 897e a03d
000000f0: 5508 7fbe d723 34be a6bf b2bd 9384 d7bd
00000100: 8004 b3bd 830c 6bbe 3f6e 503b aa10 27be
00000110: 5a8f f5bd 6a46 eb3b 9900 53bd 7044 f2bd
00000120: 2daa 10be fc4b 39be b5a2 0abe ebf9 3ebd
00000130: 0388 b93b b7a3 f9bb 3c8e 203c a96b 283c
00000140: 3fd2 afbc 30a8 82bd b996 63bc e9b8 88bd
00000150: 27cf bbbd 20a1 133d 882f d53b 85ac 6d3d
00000160: dfde cebc 5cdb e6bd 6086 07bd 40e9 c2bc
00000170: a49c 053b dcbd b23c a3bc edbb d19d 253c
00000180: 7a64 4ebb a119 adbc 8c40 843c 80be 5d3d
00000190: b0b3 1cbb 77e0 4fba 6e7f e5bb 4bae a9bc
000001a0: aef2 963c 67e0 0d3c cf10 063b 5067 8dbc
000001b0: f64f 9abb cf34 cbbc e843 223b f24b a9bb
000001c0: 30a2 82bc 626c 95bb 175b 97bb e63d 083c
000001d0: b2ad 93bc 7f93 683a 17a4 d03b 003d 94bc
000001e0: 44f8 6fbb 3179 12bc fc6b 47bb d140 c0bb
000001f0: a884 e3bc 03d8 e33c 4e72 57bc 229e 9dbd
00000200: fb9f b2bc 189f f2bb fe1d 0cbd 1c52 0bbe
00000210: ee1d b33c f66f b0bd 996f c1bc c7c4 3dbb
00000220: f638 42bd d3ef cdb9 c482 6dbd 1417 efbd
00000230: 07d3 f03b c986 ff3c 4bf3 fb3d 14b1 35bd
00000240: 8d13 04bd 7787 993c 3ca8 473d e4e9 603d
00000250: c750 1dbd fd0b 09bd b7cb 293c 4bcf 21bc
00000260: b376 403c b1aa 6dba 4a53 1c3d 45de 4ebb
00000270: 04f0 c8b8 cf9f 413b 90dd 163c fe61 6bbc
00000280: f3a0 a33c ad04 bcba 4767 c5bb c88f b0bb
00000290: 87db f7bb 6a3f 6dbc 0827 40bb 45be 803b
000002a0: 9647 2cbc 120c 223a 8a8e 423d aa60 703c
000002b0: b6ae 9b3b 0729 07bc 9ce2 bbbc 79b6 cebc
000002c0: 0421 a5ba ee88 2abc 55b7 1f3c da73 45bc
000002d0: 5dd1 523b b88c 993b 6830 bf3b 7b7e 4f3b
000002e0: 401d 8ebc fd6c 61bc 798f c73c 058b d2bb
000002f0: 41f5 263c 1626 633c 682f e03c c235 823b
00000300: 6ec4 bfbc ea6d 8ebc b505 3a3c a3c9 0abc
00000310: eea9 a1bb aa88 3d3c 5f74 2c3b aad0 9dbb
00000320: 6862 00bd c1ef 4cbb 0386 12bc 488e a6bb
00000330: 27f4 2cbd 4d63 0b3d c432 2eba 0271 9f3b
00000340: 01f7 ccbb 02ee d4bb aef3 593d a4b9 c93c
00000350: c567 89bc ab7c 80bc 6237 c03b 8b83 42bd
00000360: 507d 463d c4e4 0bba ba58 803c 3810 4a3d
00000370: a953 12bd f103 c1ba e311 1dbc edbf 6e3c
00000380: bc4e 15bc bc6e 6c3d 5916 f13d 8874 10be
00000390: 3bcb 96be 9550 28bd ba7e 263d 585c 8d3a
000003a0: 9397 a23c 1542 aa3c 2187 57bd b3f7 b9bd
000003b0: c5ec 08be cb1f 0a3e d91e 38be 5667 0dbe
000003c0: a5f2 6c3d 1d8b 13bd 0ba9 a83d 5128 46be
000003d0: 94e7 5cbd ccaf 9f3b 7f5c 4cbd 1ae1 98bc
000003e0: 86ca 1abe aafa 6e3d 3b13 8abb cfaa fb3c
000003f0: 603e 47bc 9904 57bc 7a8b 39bc 8d26 b73b
-0.0354283 0.008899989 -0.01763165 -0.0097636515 -0.008443481 -0.025632113 -0.01271312 0.019862259
0.0014772195 -0.020040736 -0.13685352 -0.013298719 0.043184485 -0.061277553 -0.019905938 0.007208962
-0.07349108 0.014372603 -0.050723124 0.0025693292 -0.0155743025 0.029634083 -0.020440111 0.01072745
0.012058338 -0.0069530574 -0.010837148 -0.00088956626 -0.005556078 0.017086204 0.0050044856 -0.0021404985
0.0041934033 -0.005923774 0.016453058 -0.0015139295 -0.0045136367 -0.011798177 0.00946754 -0.006483542
-0.016812874 -0.0075548384 -0.010837198 -0.01353717 0.0044451593 0.0044836276 0.002944964 -0.0013288255
-0.009696605 -0.013118445 0.04525323 0.028240435 0.04227219 0.036040165 0.026538283 0.025739767
-0.19859445 -0.17944215 -0.20787652 0.07836635 -0.24905522 -0.17591797 -0.0872796 -0.105233334
-0.08741093 -0.22953992 0.0031803993 -0.1631495 -0.11990233 0.007180025 -0.05151424 -0.1182946
-0.14127417 -0.18095392 -0.1353863 -0.04662506 0.005661966 -0.0076183933 0.009799536 0.010279574
-0.021462558 -0.063797355 -0.013890916 -0.06675894 -0.091703705 0.036042333 0.0065059103 0.058025856
-0.025252758 -0.11272308 -0.033087134 -0.023792863 0.0020387555 0.021819048 -0.0072551533 0.010108427
-0.0031492994 -0.021130385 0.01614406 0.054136753 -0.0023910813 -0.0007929871 -0.007003716 -0.020712992
0.018426266 0.008659459 0.0020456796 -0.017261177 -0.004709239 -0.024805455 0.0024759714 -0.005166524
-0.015946478 -0.0045600394 -0.004619013 0.008315539 -0.01802716 0.0008872076 0.0063672173 -0.018095493
-0.0036616484 -0.008940027 -0.0030429354 -0.0058671017 -0.027773216 0.027812963 -0.013149811 -0.07696177
-0.0218048 -0.0074042194 -0.03420829 -0.13605541 0.021864858 -0.08615105 -0.023612784 -0.00289564
-0.047417603 -0.0003927933 -0.057986036 -0.11674324 0.007349375 0.0311922 0.12302264 -0.044358328
-0.032245208 0.018741352 0.048744425 0.054910555 -0.038407113 -0.0334587 0.010363511 -0.009876083
0.01174705 -0.00090662675 0.03816537 -0.0031565588 -9.5814496e-05 0.0029544716 0.009208098 -0.014366625
0.019974208 -0.0014344655 -0.0060242745 -0.005388234 -0.0075640115 -0.014480451 -0.002932014 0.003928932
-0.010515114 0.0006181608 0.047499217 0.014671484 0.004751052 -0.008249528 -0.022935204 -0.025233494
-0.001259834 -0.010408623 0.0097483 -0.012051547 0.0032168247 0.0046859644 0.005834628 0.0031661082
-0.017347932 -0.013758895 0.024360405 -0.006425264 0.010190309 0.013864061 0.027366355 0.0039736936
-0.023409095 -0.017386395 0.0113539 -0.0084709255 -0.0049335873 0.011568228 0.002631448 -0.0048161345
-0.031343848 -0.0031270834 -0.008943084 -0.005082879 -0.04222503 0.034030247 -0.0006645138 0.0048657665
-0.006255031 -0.0064980993 0.053210907 0.024624653 -0.016773114 -0.015684446 0.005865977 -0.04748873
0.04845935 -0.0005336518 0.015667308 0.049331874 -0.035724316 -0.0014725906 -0.009586784 0.014572126
-0.00911301 0.057722792 0.117718406 -0.14106953 -0.29451928 -0.041092474 0.0406482 0.0010784967
0.019847667 0.020783463 -0.052619103 -0.09080448 -0.1337157 0.1348869 -0.17980517 -0.13808951
0.05784859 -0.03602134 0.082353674 -0.19351317 -0.053931788 0.0048732515 -0.0498929 -0.018662024
-0.15116319 0.05834452 -0.004213718 0.030721096 -0.012160867 -0.013123655 -0.011324758 0.0055893124

lin1.bias f4 [5]
00000000: 6d5f eabc fe04 fbbc 6a1e a73c 5fc5 cabc
00000010: da7f d6bc
-0.028609956 -0.030642029 0.020400245 -0.024752317 -0.026184011

exp_avg f4 [32, 3, 3, 3]
00000000: ee61 8dbb e703 dfba 1c26 79bb 3d4a 58bb
00000010: 3368 11bb 9045 9ebb 8559 84bb 41d7 43bb
00000020: 2360 99bb e328 a9bb b758 35bb e89f 97bb
00000030: a53f 8bbb d212 57bb cf0e c7bb ce04 bcbb
00000040: be51 9abb 48c5 cbbb f619 fabb 6bea 97bb
00000050: 445b cabb 024a d0bb 2188 93bb 145c d9bb
00000060: 465e ecbb b9fa a6bb 367c d1bb 9b6e ac38
00000070: 069e 89ba 39fb 9fb9 835e 59b9 8812 aaba
00000080: 7c32 26ba e160 5bb8 3e0f 9dba 2146 a3b9
00000090: fc47 9bb8 5942 9eba ded5 61b9 5206 7ab9
000000a0: 0051 bdba f2be deb9 51ee b039 fa8a 59ba
000000b0: 10dd a939 869b 9039 30cd 5cba 9992 7b39
000000c0: 3493 d035 5c59 8dba ea20 4d37 0a4b dc39
000000d0: 912f 4fba 29f0 f939 5ed3 96bb 9ed3 a1bb
000000e0: 9c55 8ebb b8b8 97bb a578 98bb ed8f 99bb
000000f0: 4863 9cbb d0ef 9ebb 21f5 a0bb 24c9 c8bb
00000100: 0284 cebb 080b b9bb da9c c5bb d1fe bfbb
00000110: 8ab6 bebb 0944 cabb 2994 ccbb 25e2 c7bb
00000120: 8e6f ccbb 3c36 cdbb 52ba b2bb ea61 cebb
00000130: 64e9 bfbb 172f bcbb 7aa5 d7bb 54db ccbb
00000140: f912 cdbb 1a98 dbbb 89c5 d3bb ca41 f5bb
00000150: d72f c3bb cd80 c5bb 5678 d8bb 3be7 b1bb
00000160: 0c21 acbb b063 c7bb 87db e8bb 32ca e9bb
00000170: 1287 f9bb 636c d7bb 47b2 dabb 6790 e0bb
00000180: 6c5b cebb 5c6a d7bb f1c2 e9bb 0fab 2dbc
00000190: 0a5e 26bc de8f 32bc 35d4 15bc 40ac 0ebc
000001a0: b8fd 13bc 7f44 10bc e401 08bc 9a76 0dbc
000001b0: 4bd2 143b f2a9 19ba 5460 d1b9 854e 1b3b
000001c0: 7753 18ba 0dce a4b9 d57e 123b 8a2f 50ba
000001d0: 6ba4 12ba 8f24 f23a 47b9 78ba b186 41ba
000001e0: 21ec f33a 0a9a 83ba 27eb 26ba a5d5 d43a
000001f0: 7073 adba 7a14 7fba a51d dc38 81a8 18bb
00000200: 69a7 04bb 584f 2438 684d 19bb 2e89 f0ba
00000210: 9851 b338 36a6 21bb a581 04bb d81d f03b
00000220: 35e0 9c3a a4cf aeba 18e5 083c 19f3 283b
00000230: 2f21 b738 c3d1 003c 900a 033b cd35 ef38
00000240: fc61 c63b b00f 9139 7af4 02bb 4c22 de3b
00000250: cb91 cc3a e058 ecb9 121a e43b af04 973a
00000260: aa6b d1b9 8573 f13b 00da b53a dede 9dba
00000270: 306c 033c 667f 373b e194 5339 93d9 043c
00000280: 3d36 1b3b 371c 153a e887 28bb c11d dbba
00000290: 1568 f4ba e0ec c3ba a087 95ba 2a68 fbba
000002a0: 191b f7ba afdc f3ba 4707 d4ba 711b 35bb
000002b0: 1f53 1bbb 0bd9 2dbb f919 b0ba 4532 c4ba
000002c0: 923d 0cbb 6823 b2ba bb1b e9ba 6145 acba
000002d0: de02 0bbb bde3 b8ba b911 acba 44ac 95ba
000002e0: 1cf4 7dba 37b6 91ba 78f5 b0ba c5b1 81ba
000002f0: 4861 60b4 7057 37bc 21b9 6ebc 7504 69bc
00000300: 547b 4cbc 23a1 88bc 1ee8 81bc 7d79 40bc
00000310: 3361 7fbc 3812 77bc c703 5cbc a63d 89bc
00000320: cd1b 81bc a93e 6fbc 5611 9bbc 6005 8ebc
00000330: a63c 66bc 026c 94bc 1cb2 87bc 0052 7cbc
00000340: 39d4 8fbc 02df 82bc 61c5 81bc 2bfd 97bc
00000350: d73b 8abc 2317 75bc 63ec 96bc 21ff 89bc
00000360: b669 bdb9 8699 1bbb fb01 e7ba f866 3aba
00000370: 55a8 19bb 98ad 33bb eee1 e9b9 981d 17bb
00000380: a694 11bb e172 f2ba c94a 70bb 2e84 4bbb
00000390: ad93 1cbb 40a5 78bb 915e 88bb 65f7 03bb
000003a0: d1d7 59bb 57de 6cbb f7b2 ea39 5d06 74ba
000003b0: 115a ebb9 a349 23ba 555e ebba 59a8 0fbb
000003c0: 7f3e e6b9 cefc e3ba ac64 edba 1304 2bbb
000003d0: ed38 05bb d777 3bbb 5297 0dbb 513d ccba
000003e0: 5384 31bb da58 3cbb ec0f ecba 27ca 27bb
000003f0: 7056 1dbb f511 e9ba c125 33bb ec4d 0cbb
-0.0043146526 -0.0017014713 -0.00380171 -0.0033003234 -0.0022187352 -0.00483007 -0.004038992 -0.002988294
-0.00468065 -0.005162345 -0.0027671286 -0.0046272166 -0.0042495304 -0.0032817614 -0.0060747634 -0.0057378775
-0.0047094515 -0.006218586 -0.0076324893 -0.004636099 -0.0061754305 -0.0063564787 -0.004502312 -0.006633291
-0.0072133867 -0.0050958064 -0.006392981 8.222201e-05 -0.0010499365 -0.0003051402 -0.00020729941 -0.0012975493
-0.000633992 -5.2303894e-05 -0.0011982692 -0.00031142033 -7.404384e-05 -0.0012074217 -0.00021537344 -0.00023844212
-0.0014443696 -0.00042485405 0.00033746895 -0.0008298602 0.00032398896 0.00027581694 -0.00084229093 0.00023991837
1.5540049e-06 -0.0010784077 1.2226616e-05 0.00042017578 -0.0007903511 0.00047671914 -0.0046028337 -0.004938557
-0.0043437015 -0.0046301745 -0.004653054 -0.0046863467 -0.0047725774 -0.004850365 -0.004912034 -0.0061274935
-0.0063023577 -0.005647067 -0.006030661 -0.005859234 -0.0058201 -0.006172661 -0.006243248 -0.0060999566
-0.0062388843 -0.0062625688 -0.00545434 -0.0062982934 -0.0058566798 -0.0057429182 -0.0065810056 -0.006251732
-0.006258365 -0.0067014815 -0.006462757 -0.0074846493 -0.0059566307 -0.006027317 -0.006606142 -0.005429176
-0.005252963 -0.0060848817 -0.007106248 -0.0071346993 -0.0076149786 -0.0065742 -0.0066740843 -0.0068531516
-0.0062975194 -0.0065739583 -0.0071338345 -0.010599866 -0.010154257 -0.010898558 -0.009144832 -0.00870806
-0.009032659 -0.008805393 -0.008301232 -0.008634234 0.0022708352 -0.00058618106 -0.00039935356 0.0023697924
-0.0005810777 -0.00031434037 0.002235343 -0.0007941654 -0.0005593958 0.001847403 -0.00094880577 -0.00073824363
0.0018609801 -0.0010040414 -0.0006367438 0.0016237987 -0.0013233256 -0.0009730529 0.00010495939 -0.0023293796
-0.0020241386 3.917454e-05 -0.0023392085 -0.001835143 8.550583e-05 -0.002466572 -0.0020218876 0.0073277764
0.0011968674 -0.0013337028 0.008355401 0.0025779663 8.732301e-05 0.007862511 0.001999531 0.00011406429
0.006054161 0.00027668243 -0.0019982145 0.006778991 0.0015607415 -0.00045079645 0.0069611156 0.0011521782
-0.00039943802 0.0073685073 0.0013874173 -0.0012044569 0.008021399 0.002799952 0.0002017799 0.008108514
0.0023683452 0.0005688103 -0.0025715772 -0.0016717241 -0.0018646742 -0.0014947914 -0.0011408217 -0.0019180824
-0.001885268 -0.0018605198 -0.0016176485 -0.0027634765 -0.0023700667 -0.0026527073 -0.0013435475 -0.0014968595
-0.0021399003 -0.0013590874 -0.0017784754 -0.0013143235 -0.0021211426 -0.0014105957 -0.001312784 -0.0011419137
-0.0009687559 -0.0011116926 -0.001350089 -0.0009894898 -2.0897016e-07 -0.01119028 -0.014570505 -0.014222254
-0.012480576 -0.016678398 -0.015857752 -0.011747715 -0.015587139 -0.015080027 -0.013428635 -0.01675303
-0.015760327 -0.014602342 -0.018929165 -0.017336547 -0.014052546 -0.018117908 -0.016564421 -0.01540041
-0.01755725 -0.015975479 -0.015841188 -0.018553337 -0.016874237 -0.0149591295 -0.018423265 -0.016845288
-0.0003612765 -0.002374263 -0.0017624492 -0.00071106805 -0.002344628 -0.0027416702 -0.00044609554 -0.002305841
-0.0022213846 -0.0018497371 -0.003666567 -0.0031054127 -0.0023891733 -0.0037940294 -0.004161664 -0.0020136472
-0.003324021 -0.0036143267 0.00044765297 -0.00093088095 -0.00044889798 -0.0006228929 -0.001795719 -0.0021920411
-0.00043915582 -0.0017394067 -0.0018111668 -0.0026094958 -0.002032812 -0.0028605366 -0.0021605087 -0.0015582239
-0.0027086928 -0.0028739483 -0.0018010116 -0.002560267 -0.002400782 -0.0017781841 -0.0027335736 -0.002140875
