results_auto/01_domain_adaptation/maml_supervised/June_14/officehome_maml_order_2_seed_0_shots_1_ways_5_meta-lr_0.0001_dropout_0.1_RandAugment-prob_0.5_pre-train-wts_datetime_13_06_2021_17_37_42/intermediate_45000_model.pt (torch, 412181 bytes, 54 tensors)

conv1.weight f4 [32, 3, 3, 3]
0.45346144 0.09602367 -0.074519046 -0.05170105 -0.19108343 -0.14794268 0.13636984 0.01842421
-0.15534481 -0.0037517035 -0.22870934 0.10140909 -0.344429 -0.1424733 0.011982444 0.011638123
0.14791015 0.30098623 -0.82497686 -0.47968447 0.1607144 -0.28907156 0.051437166 0.5317909
-0.13528132 0.29274303 0.7870656 0.11192 -0.012432102 0.36086565 -0.15804352 0.1900801
0.3323373 -0.52853906 -0.44768074 -0.07636056 -0.015385304 0.23765661 0.35872197 -0.1788268
-0.01597248 0.06328732 -0.5372766 -0.5378678 -0.28650495 0.26836383 0.36315915 0.4679542
-0.19633704 0.016747527 0.27615815 -0.021774536 -0.12743235 -0.045570422 0.37682927 0.085911356
0.26009393 -0.28622803 -0.32415187 -0.3691532 -0.038761564 -0.047262676 -0.08443409 0.35326654
0.3086989 0.10971968 -0.010245896 -0.06998687 -0.1697654 0.05086429 -0.3195881 -0.16669191
0.4803657 0.47008783 0.54855484 0.16287829 -0.06504953 -0.34494773 -0.24531662 -0.4727665
-0.36642736 0.49592832 0.35759312 -0.046703104 -0.13580494 -0.38723508 -0.41787398 0.057492994
0.16802855 -0.05710567 0.41570497 0.45153973 0.4181967 -0.22422008 -0.5464733 -0.52226496
0.08971662 0.110795595 -0.13729894 0.015957644 0.4085963 0.5185787 -0.45544696 -0.3922216
-0.34164014 -0.05706462 -0.02197559 0.08869632 -0.08006784 0.08661484 -0.09937855 0.10713952
-0.12806618 0.112712294 0.06827895 -0.26036993 -0.24198878 0.24444029 0.4090169 0.21159697
0.23570716 0.19470486 -0.02385877 -0.028996369 -0.2761625 -0.3090322 -1.0281965 0.14564396
-0.22115673 -0.7302097 0.34595546 -0.0490485 -1.1938944 0.23657179 -0.345115 -0.25130934
-0.03375595 -0.18345506 0.119487815 0.26300502 0.3044208 0.3979558 0.6255747 0.17160422
-0.4043382 -0.08344613 0.05815666 -0.35073718 -0.37003344 -0.3084274 -0.5680447 -0.35163483
-0.3631729 0.39740467 0.4994765 -0.025306724 0.29759705 0.0374466 0.08842386 -0.06980364
0.08829953 -0.1681355 -0.58175665 -0.2631551 -0.17803136 -0.051133603 0.12120801 0.2228807
0.0052473755 0.48844182 0.491131 -0.39775935 0.21519977 -0.02820806 -0.36172476 0.27176216
-0.0142416665 -0.3085713 0.27715418 -0.21038207 0.19117288 0.42782798 0.3698208 -0.0009874954
0.26721433 0.06515437 -0.43713805 -0.12138624 -0.46463445 0.038680468 0.35650116 0.20336996
-0.6323485 -0.2156364 -0.54221016 0.02124651 0.23629488 0.2475763 -0.19967742 0.2553034
0.046767488 -0.40612656 -0.33234236 -0.58984756 0.12390229 0.6703547 0.20559949 0.1805078
0.25400934 0.08007208 -0.33626467 -0.2501914 -0.33475798 0.27559778 0.44638342 0.28234908
-0.2130906 -0.47104645 0.5978966 -0.40760335 -0.3065889 0.5483921 -0.12538645 -0.23281471
0.08541784 0.25595024 -0.49914965 0.11406561 0.022401124 -0.18405008 0.20956294 0.26836103
-0.050197475 0.35725883 0.31835973 -0.3740666 0.29167357 -0.14248295 -0.28693703 0.17925079
0.06702688 -0.058198716 -0.038128994 0.37497988 0.36365464 -0.13450862 0.54937506 0.086145476
-0.07962654 0.36637026 -0.033263408 -0.0061521875 0.32274264 -0.088430166 -0.27161658 -0.040124424
00000000: 192c e83e 0fa8 c43d 719d 98bd 7bc4 53bd
00000010: 60ab 43be 497e 17be 89a4 0b3e 5eee 963c
00000020: b612 1fbe 24df 75bb c832 6abe 92af cf3d
00000030: ff58 b0be 85e4 11be 0352 443c d3ad 3e3c
00000040: c275 173e de1a 9a3e af31 53bf 3499 f5be
00000050: 5192 243e 3001 94be c7af 523d 7323 083f
00000060: 3087 0abe 6ae2 953e 227d 493f 5036 e53d
00000070: 04b0 4bbc 62c3 b83e 29d6 21be 5ca4 423e
00000080: 1d28 aa3e 564e 07bf 6936 e5be ed62 9cbd
00000090: a412 7cbc 415c 733e 68aa b73e 5f1e 37be
000000a0: b8d8 82bc c89c 813d f68a 09bf b4b1 09bf
000000b0: c7b0 92be fc66 893e ffef b93e b197 ef3e
000000c0: 940c 49be 1c32 893c 9a64 8d3e 8360 b2bc
000000d0: a07d 02be 0da8 3abd c4ef c03e 4bf2 af3d
000000e0: 082b 853e 7b8c 92be 3cf7 a5be a601 bdbe
000000f0: 72c4 1ebd 8296 41bd c8eb acbd 5adf b43e
00000100: c80d 9e3e b6b4 e03d 67de 27bc 4755 8fbd
00000110: fbd6 2dbe 1357 503d 0da1 a3be 49b1 2abe
00000120: 7ef2 f53e 5aaf f03e 176e 0c3f 91c9 263e
00000130: b038 85bd fd9c b0be 4834 7bbe 730e f2be
00000140: 5e9c bbbe 51ea fd3e 7216 b73e c14b 3fbd
00000150: 7310 0bbe ad43 c6be 94f3 d5be c67d 6b3d
00000160: ad0f 2c3e a3e7 69bd 48d7 d43e 3730 e73e
00000170: e11d d63e f399 65be ade5 0bbf 28b3 05bf
00000180: 59bd b73d cde8 e23d 1898 0cbe 9bb9 823c
00000190: 8933 d13e 93c1 043f 5830 e9be 45d1 c8be
000001a0: 75eb aebe 97bc 69bd 2706 b4bc 6ba6 b53d
000001b0: 9cfa a3bd 1f63 b13d fb86 cbbd f76b db3d
000001c0: c823 03be b4d5 e63d d6d5 8b3d 354f 85be
000001d0: e8cb 77be 8e4e 7a3e aa6a d13e e0ac 583e
000001e0: 385d 713e b660 473e 7873 c3bc cb89 edbc
000001f0: 2c65 8dbe 7839 9ebe f19b 83bf b123 153e
00000200: e976 62be 06ef 3abf 1321 b13e 14e7 48bd
00000210: 88d1 98bf e03f 723e eab2 b0be 9eab 80be
00000220: ae43 0abd a5db 3bbe 07b6 f43d 98a8 863e
00000230: 0bdd 9b3e ddc0 cb3e aa25 203f 04b9 2f3e
00000240: 6b05 cfbe cee5 aabd ae35 6e3d d393 b3be
00000250: 0675 bdbe 32ea 9dbe 616b 11bf 7b09 b4be
00000260: ccf1 b9be a078 cb3e 62bb ff3e 0c50 cfbc
00000270: a45e 983e 9b61 193d 9217 b53d 36f5 8ebd
00000280: 62d6 b43d b62b 2cbe 01ee 14bf 44bc 86be
00000290: da4d 36be 7871 51bd e83b f83d d73a 643e
000002a0: 2df2 ab3b 0c15 fa3e 8675 fb3e 1da7 cbbe
000002b0: 545d 5c3e 9714 e7bc fd33 b9be 6924 8b3e
000002c0: e155 69bc 0ffd 9dbe 27e7 8d3e 666e 57be
000002d0: d3c2 433e 450c db3e 2759 bd3e d96e 81ba
000002e0: 51d0 883e a86f 853d 8fd0 dfbe 5999 f8bd
000002f0: 91e4 edbe 696f 1e3d 5287 b63e 3740 503e
00000300: 97e1 21bf cacf 5cbe 49ce 0abf 290d ae3c
00000310: 49f7 713e a484 7d3e 3d78 4cbe 21b7 823e
00000320: 448f 3f3d d2ef cfbe c728 aabe 4000 17bf
00000330: 7cc0 fd3d 5e9c 2b3f ac88 523e 09d7 383e
00000340: 830d 823e d5fc a33d e22a acbe 1619 80be
00000350: 6665 abbe 271b 8d3e 5e8c e43e 0f90 903e
00000360: 6c34 5abe 002d f1be c00f 193f 63b1 d0be
00000370: 38f9 9cbe 6d63 0c3f 4e65 00be fb66 6ebe
00000380: 8cef ae3d e90b 833e 8b90 ffbe 3b9b e93d
00000390: 9082 b73c a077 3cbe ab97 563e 9e66 893e
000003a0: de9b 4dbd a1ea b63e 0c00 a33e a885 bfbe
000003b0: 3d56 953e 0de7 11be 69e9 92be 858d 373e
000003c0: 6445 893d c761 6ebd 262d 1cbd 5dfd bf3e
000003d0: f130 ba3e a1bc 09be d8a3 0c3f 0a6d b03d
000003e0: 3d13 a3bd e294 bb3e 363f 08bd 4a98 c9bb
000003f0: 863e a53e e01a b5bd 5411 8bbe 8259 24bd

conv1.bias f4 [32]
-0.08425922 -1.5628495 0.074472696 -0.24572638 -0.7314276 -6.675325 -0.058269642 -0.10668023
-0.29083383 0.21706675 -0.29945138 -0.045699615 0.9015349 -1.6131022 -0.19300343 -0.15368177
-0.019766083 -0.305756 -0.19390106 -3.4838617 0.969946 0.053011466 0.10083744 0.1458195
-10.288507 0.2097139 -0.18624516 -0.06860198 0.2355268 -0.504537 -2.6905773 0.08043315
00000000: 1990 acbd 740b c8bf 2485 983d b29f 7bbe
00000010: d73e 3bbf 439c d5c0 26ac 6ebd 2a7b dabd
00000020: 2ce8 94be bf46 5e3e b151 99be 852f 3bbd
00000030: feca 663f 227a cebf b1a2 45be c15e 1dbe
00000040: 7bec a1bc 0d8c 9cbe 008e 46be 97f7 5ec0
00000050: 624e 783f 8d22 593d dc83 ce3d b551 153e
00000060: ba9d 24c1 3ebf 563e 0db7 3ebe 327f 8cbd
00000070: f02d 713e 5629 01bf 6b32 2cc0 23ba a43d

batch1.weight f4 [32]
1.3191955 1.0652963 0.65325415 1.2144722 0.897076 0.79525185 1.0466365 1.0594287
0.8743184 1.0776427 1.2983831 0.8200657 0.9025163 0.58269805 0.5000345 0.9691771
0.7712809 1.1478537 1.2359734 0.68847525 0.771568 0.9730133 0.88517356 1.1741378
0.7341851 1.1389716 1.4038202 0.9214739 1.3668479 0.5905278 0.6752314 0.47911832
00000000: 66db a83f a15b 883f aa3b 273f d373 9b3f
00000010: c6a6 653f a095 4b3f 2ff8 853f 5c9b 873f
00000020: 55d3 5f3f 32f0 893f 6b31 a63f d3ef 513f
00000030: 4f0b 673f b32b 153f 4302 003f fe1b 783f
00000040: aa72 453f dfec 923f 6034 9e3f ea3f 303f
00000050: 7b85 453f 6617 793f bc9a 623f 264a 963f
00000060: 8ef3 3b3f d2c9 913f 61b0 b33f b7e5 6b3f
00000070: dff4 ae3f d42c 173f f7db 2c3f ff4e f53e

batch1.bias f4 [32]
0.5082788 -0.6856699 0.87973934 0.045044877 -0.49220133 0.28388134 1.4692597 0.5357984
2.6837175 0.14733844 1.1325848 -0.4638605 -0.106868125 -0.18372418 -0.014059921 -0.58993405
-0.06417187 -0.07405945 -0.8477279 -0.29786173 0.05849074 0.17090563 -0.005509401 0.09146905
0.21779269 -0.03026855 0.22554868 0.03919411 -0.052075524 0.110034704 1.5148025 -0.06294048
00000000: 8f1e 023f 1088 2fbf 9936 613f fa80 383d
00000010: d001 fcbe e558 913e b410 bc3f 152a 093f
00000020: 07c2 2b40 e3df 163e 8af8 903f 207f edbe
00000030: addd dabd 3122 3cbe 955b 66bc eb05 17bf
00000040: 8b6c 83bd 7bac 97bd b204 59bf 5581 98be
00000050: fc93 6f3d e301 2f3e 3588 b4bb 2054 bb3d
00000060: 0c05 5f3e c0f5 f7bc 3cf6 663e 018a 203d
00000070: 254d 55bd e059 e13d 0ce5 c13f f0e6 80bd

conv2.weight f4 [32, 32, 3, 3]
-0.1622344 0.082495645 -0.03546679 -0.14995174 0.3619963 0.42343408 -0.033209216 0.21191253
0.032021232 0.056419984 0.033496212 0.14161237 -0.084884085 -0.10828886 0.55541474 -0.22768523
-0.28697667 0.00783454 -0.6740777 -0.40976337 -0.47461545 -0.49706224 -0.14916399 -0.8485946
0.09422587 0.17401189 0.22199869 0.36184672 0.23875435 -0.29995307 -0.16869204 -0.116255336
-0.8238439 0.14242628 -0.12668864 -0.42465955 0.41495612 0.23221333 0.05564195 0.30529505
0.08908105 0.031280488 0.20768344 -0.047679335 0.06839171 -0.12759195 -0.224207 -0.18130985
0.102610275 -0.051859472 0.06535287 0.23902172 0.08570929 0.08764163 0.16957228 -0.03461388
-0.12529168 0.13462743 -0.071682744 0.06518408 0.16299851 -0.09486783 0.2146019 0.16653596
0.11710563 -0.0507411 0.24055184 -0.065816164 -0.2128677 0.007665117 0.27465346 -0.119122006
0.018980917 0.31860644 0.26239806 -0.13112111 0.30543178 0.36579597 -0.4806625 -0.14391723
-0.1235785 -0.18904327 -0.6074296 -0.2441652 -0.36442345 -0.268014 0.22986904 0.030583784
0.078364685 0.4553441 -0.308502 -0.10603924 -0.011204681 -0.16950943 0.12480806 0.16020262
-0.12968697 -0.45375836 -0.34334695 -0.5124958 -0.18002607 -0.30462456 -0.36918905 0.2607941
0.09069867 -0.29006675 0.46577644 0.2967067 -0.3434331 -0.15285297 -0.17376624 0.1279898
0.15727007 -0.02752898 -0.20713417 -0.023985928 0.27960047 0.16272625 0.041023117 0.109566815
0.16376467 0.015568042 -0.07017185 0.25677067 0.09128878 -0.19453125 -0.6495785 -0.6507185
-0.37007248 -0.15355793 -0.21518806 0.10563298 0.08596716 0.15967521 0.42684594 0.25780156
-0.30152696 -0.099280424 0.41317168 0.13717487 0.08701554 0.068647854 -0.09614071 -0.24878953
-0.5766209 -0.13204522 -0.30061242 0.0063275704 0.5307034 0.26426417 -0.06442528 0.30282828
0.11678423 0.27758598 0.018808326 0.22927333 -0.03342584 0.047613654 -0.08931013 -0.1023098
-0.21075307 -0.40897933 0.042143572 -0.15030803 -0.05215684 0.2604349 0.0034603777 0.46145284
0.61605054 0.034535047 0.32679176 0.206224 -0.3743396 0.020233696 0.14666846 0.14189427
0.06459219 -0.010138789 0.10822422 -0.16014947 0.044359658 -0.13915741 -0.22983252 0.046250302
0.16910332 -0.016205806 -0.10628316 0.21905248 0.089996904 0.059971336 0.059844457 -0.0901905
-0.37691867 -0.07134173 -0.17518947 -0.10897681 -0.02255726 0.15379089 -0.38171577 -0.7292646
-0.31626698 -0.5255984 -0.008584228 0.29287967 0.07554315 0.28359172 0.6756296 -0.077078596
-0.24969116 0.18764448 -0.1014396 0.057407547 0.30628225 0.15996908 0.05686336 0.21098782
-0.41994908 -0.2758315 0.0153067 -0.11542283 -0.027180424 0.41931617 -0.42808256 -0.08223246
-0.09409749 -0.03662383 -0.10818418 -0.46930927 -0.2872657 -0.15961476 -0.86520267 0.012826972
0.07262508 0.073947616 0.1960148 0.053004667 -0.2212399 0.26677898 0.16266073 0.027458997
-0.32327932 -0.22102366 -0.51358986 0.062652305 0.30058172 0.014441165 0.07101121 0.16811664
0.09360135 -0.30577365 0.114254236 0.023271734 -0.20542265 -0.5109404 0.08278419 -0.053082585
00000000: c620 26be 7af3 a83d a045 11bd f38c 19be
00000010: 9457 b93e 5acc d83e 6306 08bd 99ff 583e
00000020: b228 033d a418 673d 5333 093d d502 113e
00000030: b5d7 adbd 8dc6 ddbd a92f 0e3f 5126 69be
00000040: 9bee 92be 715c 003c 5b90 2cbf 81cc d1be
00000050: cc00 f3be f17e febe 72be 18be 7f3d 59bf
00000060: 7ef9 c03d 2c30 323e a053 633e f943 b93e
00000070: 057c 743e 7393 99be 9bbd 2cbe 4717 eebd
00000080: 6fe7 52bf 32d8 113e abba 01be fa6c d9be
00000090: 2175 d43e 55c9 6d3e d0e8 633d a24f 9c3e
000000a0: 2070 b63d f81f 003d f8aa 543e 684b 43bd
000000b0: f410 8c3d 77a7 02be 8596 65be 4aa9 39be
000000c0: 5625 d23d 996a 54bd bad7 853d 1cc2 743e
000000d0: 5a88 af3d 747d b33d 5ba4 2d3e 49c7 0dbd
000000e0: 764c 00be c6db 093e 67ce 92bd 3b7f 853d
000000f0: 15e9 263e 114a c2bd 9ac0 5b3e 6788 2a3e
00000100: 14d5 ef3d e6d5 4fbd 3953 763e a0ca 86bd
00000110: fef9 59be a92b fb3b 619f 8c3e 3df6 f3bd
00000120: de7d 9b3c 6220 a33e 0a59 863e 9d44 06be
00000130: 8e61 9c3e 9c49 bb3e 6519 f6be 0a5f 13be
00000140: b916 fdbd 8f94 41be 8280 1bbf 7106 7abe
00000150: b695 babe 2239 89be ca62 6b3e d88a fa3c
00000160: aa7d a03d dd22 e93e f9f3 9dbe 1a2b d9bd
00000170: d793 37bc e193 2dbe 5e9b ff3d 280c 243e
00000180: a9cc 04be 0453 e8be 2ccb afbe ed32 03bf
00000190: c158 38be c0f7 9bbe 5906 bdbe ce86 853e
000001a0: 39c0 b93d a183 94be 407a ee3e f1e9 973e
000001b0: 77d6 afbe 7d85 1cbe c7ef 31be c20f 033e
000001c0: 680b 213e 7584 e1bc fb1a 54be 237e c4bc
000001d0: cb27 8f3e b6a1 263e db07 283d 9164 e03d
000001e0: edb1 273e 1a11 7f3c 42b6 8fbd 7277 833e
000001f0: 9df5 ba3d 3333 47be c74a 26bf 7d95 26bf
00000200: 247a bdbe 4a3e 1dbe 425a 5cbe 1b56 d83d
00000210: 8d0f b03d e681 233e 8d8b da3e 91fe 833e
00000220: be61 9abe 8953 cbbd 3d8b d33e 9277 0c3e
00000230: 3435 b23d 3f97 8c3d 6ce5 c4bd afc2 7ebe
00000240: 6d9d 13bf dd36 07be dfe9 99be 8257 cf3b
00000250: 2edc 073f a24d 873e 67f1 83bd 4f0c 9b3e
00000260: 922c ef3d c01f 8e3e eb13 9a3c a1c6 6a3e
00000270: 89e9 08bd 8906 433d 3be8 b6bd cd87 d1bd
00000280: a7cf 57be bd65 d1be bd9e 2c3d 59ea 19be
00000290: 69a2 55bd b957 853e 81c7 623b 8c43 ec3e
000002a0: 7db5 1d3f 9f74 0d3d 4051 a73e 622c 533e
000002b0: 71a9 bfbe 23c1 a53c 4230 163e bb4c 113e
000002c0: e948 843d 2a1d 26bc a9a4 dd3d 39fe 23be
000002d0: 79b2 353d 487f 0ebe 3759 6bbe f570 3d3d
000002e0: 6c29 2d3e 0ac2 84bc fcaa d9bd 4b4f 603e
000002f0: 4c50 b83d 81a4 753d 761f 753d ccb5 b8bd
00000300: 7cfb c0be 9d1b 92bd de64 33be 3c2f dfbd
00000310: 01ca b8bc 5c7b 1d3e 4070 c3be 16b1 3abf
00000320: bfed a1be 9e8d 06bf dda4 0cbc 53f4 953e
00000330: 5eb6 9a3d ef32 913e 10f6 2c3f 62db 9dbd
00000340: 0aaf 7fbe e025 403e 91bf cfbd 2d24 6b3d
00000350: 07d1 9c3e efce 233e 8ee9 683d 310d 583e
00000360: 9103 d7be c939 8dbe f4c8 7a3c ce62 ecbd
00000370: 7ba9 debc 9cb0 d63e a32d dbbe 7e69 a8bd
00000380: 2fb6 c0bd df02 16bd ab8f ddbd 4e49 f0be
00000390: 7d14 93be 0d72 23be ec7d 5dbf 3828 523c
000003a0: 75bc 943d d971 973d 1bb8 483e 6c1b 593d
000003b0: b68c 62be 4197 883e 8990 263e b1f1 e03c
000003c0: de84 a5be 0754 62be a07a 03bf da4f 803d
000003d0: d9e5 993e a39a 6c3c 536e 913d c526 2c3e
000003e0: 11b2 bf3d 5d8e 9cbe 20fe e93d 5da4 be3c
000003f0: 515a 52be fdcc 02bf c28a a93d 206d 59bd

conv2.bias f4 [32]
0.09889594 0.14481413 0.13101062 0.14634225 0.072196454 0.094610676 -1.3958132 -0.03297598
0.37088388 -0.3381276 0.26169345 -0.14853466 -0.054552086 0.17829166 0.051902935 -0.09417636
-0.06677716 -0.16999486 -0.06164316 -0.10493646 -0.051254224 0.04073875 0.13029186 0.036473323
0.32636595 0.002797615 0.0044390024 -0.13410667 -0.5663949 0.3500783 -0.045836106 0.3885085
00000000: f489 ca3d 284a 143e a627 063e beda 153e
00000010: bcdb 933d 3ec3 c13d 02aa b2bf d211 07bd
00000020: 7ee4 bd3e 101f adbe affc 853e 7819 18be
00000030: 0272 5fbd 1792 363e 2c98 543d 89df c0bd
00000040: 77c2 88bd 2213 2ebe 8a7d 7cbd ede8 d6bd
00000050: f3ef 51bd addd 263d 3b6b 053e 0d65 153d
00000060: 7019 a73e 3158 373b 0d75 913b 4253 09be
00000070: 42ff 10bf 773d b33e a4be 3bbd 96ea c63e

batch2.weight f4 [32]
0.93532825 1.0429147 1.4087954 1.1575925 0.9753603 1.1984543 1.2169758 0.6791269
1.2030145 0.972825 1.1898661 0.928143 0.54334015 1.304448 1.0577024 1.330467
0.79741836 0.89107734 0.9617414 0.80008525 1.1874069 1.0224471 1.1612396 1.101949
0.98549783 0.71260685 0.8026789 0.66135067 1.0884775 0.99926823 0.9014657 0.90856344
00000000: ac71 6f3f 3b7e 853f 6853 b43f fe2b 943f
00000010: 36b1 793f f366 993f ddc5 9b3f 43db 2d3f
00000020: 61fc 993f 0f0b 793f 884d 983f c89a 6d3f
00000030: 5718 0b3f 27f8 a63f cb62 873f be4c aa3f
00000040: 9c23 4c3f a51d 643f af34 763f 63d2 4c3f
00000050: f3fc 973f 8cdf 823f 80a3 943f aa0c 8d3f
00000060: 9649 7c3f 676d 363f 5d7c 4d3f 474e 293f
00000070: 3b53 8b3f 0bd0 7f3f 75c6 663f 9d97 683f

batch2.bias f4 [32]
-0.07000869 -0.54726297 -0.2592359 -0.5627892 -0.28302145 -0.6002317 -0.38467005 -0.13203712
-0.46657363 -0.2135023 -0.4087425 -0.35360652 -0.040733017 -0.38968775 -0.31141552 -0.48767504
-0.37786812 -0.3678131 -0.4238808 -0.015525133 -0.37709692 -0.3605383 -0.5862086 -0.28774327
-0.54609466 -0.24331844 -0.21229047 -0.27536556 -0.043160398 -0.2877421 -0.32195312 -0.46128112
00000000: b760 8fbd 6d19 0cbf 91ba 84be f412 10bf
00000010: 30e8 90be c9a8 19bf 79f3 c4be bd34 07be
00000020: bde2 eebe 59a0 5abe b246 d1be ea0b b5be
00000030: aad7 26bd 2785 c7be db71 9fbe 8bb0 f9be
00000040: ee77 c1be 0052 bcbe e706 d9be 215d 7ebc
00000050: d912 c1be 7a98 b8be c411 16bf 1653 93be
00000060: dccc 0bbf 7828 79be ac62 59be b7fc 8cbe
00000070: f5c8 30bd ef52 93be 0ad7 a4be 0a2d ecbe

conv3.weight f4 [32, 32, 3, 3]
0.5425989 0.4050094 0.118742414 -0.4129325 -0.0031940523 0.28322828 -0.3988606 -0.30345303
-0.07332192 0.14494848 0.06842347 -0.48272923 -0.27390817 -0.029235266 0.015628433 0.053954348
0.096494734 -0.33569494 0.036847968 -0.07990763 -0.38337994 0.24326345 0.059523467 -0.09290647
0.13487591 0.037561897 -0.24932688 -0.4437104 -0.030268041 0.34231114 -0.079082794 -0.3904615
0.71276873 -0.30354673 -0.15816556 0.41650152 0.2747452 0.44401076 0.10510826 -0.08726776
0.07977212 -0.034073774 0.051716216 0.044326283 -0.025267832 0.2962391 0.43508574 0.27931997
-0.06933173 0.37403113 0.24154982 -0.4277564 0.15587604 -0.120486796 0.40764853 -0.056403115
-0.26340258 0.16657981 -0.124006964 -0.088714354 0.33463857 0.3816797 0.07751412 -0.28978634
-0.29059273 -0.5959269 0.22589605 -0.16189097 -0.28600496 -0.21285544 -0.039767824 0.09007829
-0.0136353765 -0.32854763 -0.36115548 -0.009998538 -0.030999491 0.25967956 0.17799106 0.07982223
0.2715292 -0.8552339 -0.08401236 0.2914443 -0.72211933 -0.3485325 0.33195144 -0.18424778
-0.09465363 0.0381619 -0.025753759 -0.5323106 0.31241813 -0.22031766 -0.026483893 0.16987607
0.0101842405 -0.17042577 -0.15492523 0.011650025 -0.05454472 0.2721817 0.3077736 -0.13291748
-0.20674099 0.17149432 0.26994857 -0.2252753 -0.053985134 -0.061157204 -0.21945564 -0.099682085
0.057354476 -0.24124633 -0.211275 0.001287458 -0.22419292 -0.07456856 0.027813418 0.18239498
0.26343536 -0.030700527 -0.065003864 -0.07670674 0.019872898 -0.37551013 -0.22569214 -0.33220467
-0.590162 -0.12921757 -0.02526536 0.07928835 0.16559657 0.21233013 -0.104878895 0.21668778
-0.0103496425 -0.3051703 0.15888837 -0.29911923 -0.6433512 -0.1577413 0.33018118 -0.33848333
0.15887158 -0.0646748 -0.63677025 -0.009822698 0.058546837 0.03648508 -0.17943585 -0.098912716
-0.1790222 0.033565443 -0.24920152 0.3905742 0.18044889 0.21129432 0.19092646 -0.22396585
0.11039229 0.18453622 -0.07672393 0.11148533 0.39372924 0.022356566 -0.15169041 -0.19633067
0.13754162 -0.44316617 -0.43898848 -0.26999754 0.002967227 0.1495451 -0.3908961 -0.040419795
-0.24824987 -0.3298229 -0.28860816 -0.19565663 -0.14714985 -0.06943148 0.24747334 0.27752897
-0.07100951 0.19605252 0.31016645 0.012708882 0.11113442 0.4160259 0.07635528 0.1010092
0.34898755 -0.47242296 -0.21897885 -0.11715977 0.047459345 0.19892238 0.21924476 -0.026739541
-0.25499743 0.31590092 0.3950976 0.20206952 -0.0728965 0.22002116 0.029363498 0.17521451
-0.32886654 -0.1351437 -0.19557926 -0.22083344 -0.021088554 -0.6701892 -0.070526734 0.21214381
0.2391548 -0.057958703 -0.9402948 0.23967876 -0.2864991 -0.24385041 -0.0778537 -0.14256309
-0.0303931 0.07362614 -0.14559133 -0.5999725 -0.2950295 0.004023068 -0.4388623 -0.020783113
0.31447497 0.2713089 0.25008777 0.17740102 -0.343783 0.4727192 0.21554625 -0.5261414
0.5145848 0.062132258 -0.24498102 0.066086486 -0.13547207 -0.09538867 0.23028237 0.28086808
-0.14972523 -0.05148034 -0.28674045 -0.58605605 -0.1515628 -0.24757127 0.14711218 -0.08816972
00000000: c3e7 0a3f 645d cf3e 392f f33d e36b d3be
00000010: 4e53 51bb 4c03 913e 7537 ccbe 325e 9bbe
00000020: ce29 96bd 606d 143e 9b21 8c3d 4928 f7be
00000030: b13d 8cbe cc7e efbc 3307 803c 3cff 5c3d
00000040: 089f c53d 35e0 abbe e5ed 163d 9da6 a3bd
00000050: 604a c4be 0e1a 793e e1ce 733d bf45 bebd
00000060: e91c 0a3e 81da 193d 8c4f 7fbe 022e e3be
00000070: aff4 f7bc 6843 af3e 29f6 a1bd 92ea c7be
00000080: 0378 363f 7a6a 9bbe 27f6 21be b03f d53e
00000090: 67ab 8c3e 6155 e33e 0043 d73d 70b9 b2bd
000000a0: 915f a33d f190 0bbd 62d4 533d 7a8f 353d
000000b0: 7cfe cebc a7ac 973e 8fc3 de3e 0703 8f3e
000000c0: cbfd 8dbd 0281 bf3e d658 773e e302 dbbe
000000d0: f89d 1f3e c8c1 f6bd 4fb7 d03e f406 67bd
000000e0: b4dc 86be e693 2a3e 5df7 fdbd dfaf b5bd
000000f0: bf55 ab3e 866b c33e b9bf 9e3d e05e 94be
00000100: 92c8 94be aa8e 18bf 4b51 673e bfc6 25be
00000110: 3e6f 92be c7f6 59be 96e3 22bd f77a b83d
00000120: ea66 5fbc 6537 a8be 5fe9 b8be e8d0 23bc
00000130: a5f2 fdbc b8f4 843e 4a43 363e d679 a33d
00000140: e005 8b3e 9cf0 5abf ac0e acbd 3038 953e
00000150: d0dc 38bf da72 b2be 8af5 a93e 73ab 3cbe
00000160: c3d9 c1bd a74f 1c3d 8cf9 d2bc 8245 08bf
00000170: 45f5 9f3e f49a 61be c0f4 d8bc fef3 2d3e
00000180: cddb 263c 1884 2ebe b8a4 1ebe bfdf 3e3c
00000190: 496a 5fbd 665b 8b3e 8094 9d3e 851b 08be
000001a0: e9b3 53be 359c 2f3e b336 8a3e 91ae 66be
000001b0: 841f 5dbd fa7f 7abd fbb8 60be 1f26 ccbd
000001c0: 87ec 6a3d 4709 77be 7958 58be ecbf a83a
000001d0: d492 65be 67b7 98bd f7d8 e33c c0c5 3a3e
000001e0: 00e1 863e ac7f fbbc bf20 85bd 6c18 9dbd
000001f0: 7dcc a23c dd42 c0be d71b 67be bb16 aabe
00000200: db14 17bf 9c51 04be 4df9 cebc ee61 a23d
00000210: 2692 293e 126d 593e bfca d6bd 67e3 5d3e
00000220: 8c91 29bc 483f 9cbe a2b3 223e 2826 99be
00000230: aab2 24bf ef86 21be 820d a93e b04d adbe
00000240: 3baf 223e 3974 84bd 6003 23bf 62ef 20bc
00000250: cfce 6f3d 6171 153d 08be 37be c092 cabd
00000260: 9851 37be eb7b 093d af2e 7fbe 57f9 c73e
00000270: 98c7 383e 8a5d 583e 3a82 433e 4e57 65be
00000280: 5a15 e23d 10f7 3c3e 7021 9dbd 6c52 e43d
00000290: e196 c93e 1e25 b73c bb54 1bbe e80a 49be
000002a0: b6d7 0c3e ade6 e2be 19c3 e0be 1e3d 8abe
000002b0: cf75 423b 5a22 193e 8923 c8be 3a8f 25bd
000002c0: 3735 7ebe 8cde a8be 73c4 93be 365a 48be
000002d0: 73ae 16be 1732 8ebd a769 7d3e 4718 8e3e
000002e0: 6f6d 91bd fec1 483e 23ce 9e3e ea38 503c
000002f0: 719a e33d 5901 d53e 2860 9c3d e9dd ce3d
00000300: 7fae b23e 6ce1 f1be fe3b 60be 76f1 efbd
00000310: bb64 423d 4fb2 4b3e b381 603e e20c dbbc
00000320: 068f 82be c4bd a13e 3c4a ca3e 50eb 4e3e
00000330: c34a 95bd 3a4d 613e b88b f03c 6f6b 333e
00000340: 3261 a8be 1c63 0abe ee45 48be 2922 62be
00000350: e7c1 acbc 8591 2bbf 5270 90bd 3a3c 593e
00000360: ffe4 743e 1b66 6dbd 29b7 70bf 596e 753e
00000370: 03b0 92be ecb3 79be c371 9fbd 0ffc 11be
00000380: f3fa f8bc 4dc9 963d e515 15be cc97 19bf
00000390: 1b0e 97be f1d3 833b 8fb2 e0be 5941 aabc
000003a0: dd02 a13e 00e9 8a3e 810b 803e 9da8 353e
000003b0: 5304 b0be 4008 f23e 28b8 5c3e 34b1 06bf
000003c0: d4bb 033f 657e 7e3d 4edc 7abe 5a58 873d
000003d0: 31b9 0abe 235b c3bd 24cf 6b3e f1cd 8f3e
000003e0: 9251 19be 0ddd 52bd a5cf 92be c507 16bf
000003f0: 4733 1bbe 5383 7dbe 93a4 163e 5392 b4bd

conv3.bias f4 [32]
0.24363802 0.23715965 0.464643 0.08677051 0.16168259 0.102089405 -1.7771689 0.27495152
-0.043852 -0.4100463 0.09681531 -0.0006336729 0.5591079 0.37006786 0.052122526 0.4421117
0.6500172 0.16116117 0.2859274 0.60301155 0.53663194 -0.022957858 0.23583363 0.88837874
0.08559436 1.2816862 0.37579247 0.47966328 0.38592556 0.2208781 -0.28332403 -0.6463463
00000000: 3f7c 793e fbd9 723e b0e5 ed3e bdb4 b13d
00000010: 1f90 253e 4014 d13d 457a e3bf 72c6 8c3e
00000020: 289e 33bd 97f1 d1be 1b47 c63d 121d 26ba
00000030: b221 0f3f 8979 bd3e 6e7e 553d 775c e23e
00000040: 8767 263f 6f07 253e 1465 923e f75e 1a3f
00000050: b660 093f 1e12 bcbc 5f7e 713e ca6c 633f
00000060: 194c af3d 4b0e a43f df67 c03e 6d96 f53e
00000070: 0998 c53e de2d 623e d90f 91be f376 25bf

batch3.weight f4 [32]
0.7371841 0.840807 1.0388756 0.89898354 0.74440414 0.8811807 1.3557203 0.7945394
1.1976019 1.0669502 0.74042195 0.7495231 0.91045845 1.0845159 0.59894925 0.8033989
0.91539985 0.92903215 0.73517966 0.8448368 0.910374 0.93522227 0.71362805 1.616296
0.79847604 1.0783217 0.9267847 1.002159 0.785674 0.7006346 1.034441 1.003248
00000000: 19b8 3c3f 213f 573f e0f9 843f c923 663f
00000010: 4591 3e3f 0f95 613f 3e88 ad3f ef66 4b3f
00000020: 054b 993f d391 883f 4b8c 3d3f bfe0 3f3f
00000030: ce13 693f 6bd1 8a3f bd54 193f 8dab 4d3f
00000040: a557 6a3f 0dd5 6d3f bc34 3c3f 3947 583f
00000050: 450e 693f ba6a 6f3f 54b0 363f cae2 ce3f
00000060: ed68 4c3f 7206 8a3f c341 6d3f bf46 803f
00000070: ee21 493f ca5c 333f 9068 843f 6e6a 803f

batch3.bias f4 [32]
-0.2754423 -0.31364673 -0.43967587 -0.49664652 -0.29005453 -0.6398446 -0.7049617 -0.27128053
-0.8446923 -0.26620576 -0.5071912 -0.18175305 -0.3322046 -0.43067715 -0.0224383 -0.27244037
-0.4222582 -0.42868927 -0.239404 -0.35172695 -0.65079683 -0.42381316 -0.23209336 -0.9865795
-0.59158957 -0.66559416 -0.29974407 -0.6201606 -0.13329816 -0.3211828 -0.34229577 -0.9035737
00000000: c606 8dbe 4e96 a0be 321d e1be 7448 febe
00000010: 0782 94be dbcc 23bf 5f78 34bf 48e5 8abe
00000020: c13d 58bf 1f4c 88be 48d7 01bf 791d 3abe
00000030: b916 aabe b781 dcbe 87d0 b7bc 4e7d 8bbe
00000040: 3a32 d8be 297d dbbe 5226 75be 8e15 b4be
00000050: 9f9a 26bf 0afe d8be e2a9 6dbe 7990 7cbf
00000060: 6a72 17bf 6164 2abf 0e78 99be d8c2 1ebf
00000070: 507f 08be 1272 a4be 6441 afbe 9b50 67bf

conv4.weight f4 [32, 32, 3, 3]
-0.14210474 0.014257354 0.014163104 -0.12302635 -0.05661141 -0.03516129 -0.10374971 -0.13495609
0.12005012 0.045650784 0.043737132 0.06518574 -0.026395459 -0.12751661 0.0032334882 0.032014035
-0.051306866 -0.043317005 0.07977795 0.008979387 0.037673816 0.056381617 -0.010149589 0.084604524
0.025078516 -0.042260032 -0.033314947 -0.14295073 -0.01685584 -0.030801661 -0.102402166 0.027673505
-0.07887948 -0.1673186 -0.018374031 0.033729058 0.014390823 0.13131554 0.060338374 0.07445501
0.1465005 0.07032942 0.12927836 0.037267793 -0.027537122 0.1349992 0.012832111 0.12614512
0.08553257 -0.06465815 0.0024278422 0.13776228 0.094486 0.025427213 -0.0149816545 0.034713347
0.014550426 0.066744834 -0.059270557 0.022271903 -0.23989943 0.021011276 0.064403184 0.06548461
0.012042791 0.040762175 0.14782193 -0.044775948 -0.018234015 0.022990247 0.011406399 0.025658626
-0.15394147 0.09197449 0.018050076 -0.20340031 -0.1440624 0.10207347 -0.18742913 -0.025832651
-0.06503467 -0.42632556 -0.012881468 -0.0027444623 -0.38300267 -0.027744062 -0.0075027137 -0.40739805
0.051065788 0.07873996 -0.00043129298 0.018735658 0.06240713 -0.009909228 0.013748543 0.12841317
-0.054261994 0.0620332 0.15458871 -0.07764141 0.030055927 0.03269139 -0.049474657 -0.06114425
-0.044237513 -0.09010387 0.013402391 0.0388383 0.047441605 0.009484932 -0.013561735 0.0014803383
-0.013207947 -0.043025304 0.08643547 0.0064141983 0.064892516 0.04225546 0.13586748 0.031409048
0.12618428 0.114055455 -0.0126681775 0.129433 0.057943802 -0.018024378 0.09485972 0.08498788
0.011803386 0.08369984 0.03240187 -0.043430403 0.15214202 0.021783154 0.111054964 0.040160477
0.06588974 0.0878281 0.05581196 -0.084162146 0.06937105 -0.010550919 0.03497449 0.029776372
0.03899026 0.022090774 -0.090096585 0.053498596 -0.050572872 -0.045209263 0.07759409 0.032785665
-0.03417843 -0.1922448 0.04788429 -0.023432393 -0.06297695 0.018832147 -0.065087475 -0.17304987
0.047256753 0.049856517 0.1576297 0.055999536 0.080996476 0.06922593 0.071642324 0.09591433
0.1725293 0.07218859 0.09425153 0.12911063 0.07577811 0.11245322 0.095455945 0.10370478
0.011643627 0.107339785 0.047565654 0.03249563 0.06582608 -0.08132905 0.05656378 0.12116444
0.019856352 0.0104925865 0.13497412 0.15517701 -0.028795525 -0.027248286 -0.09934806 0.042912796
0.061462574 -0.10832106 0.060655814 -0.108459756 0.07265795 0.111453295 -0.05092683 0.0392568
-0.0058937226 -0.069675945 0.08818171 -0.007773219 -0.006987104 -0.08189101 0.038873225 -0.4454296
-0.06947279 -0.0047219237 -0.44462734 -0.085702755 0.14181744 -0.42602038 -0.07511524 0.06363577
0.012836517 0.0410796 0.023813574 0.08037254 -0.07845682 -0.03958539 0.046846118 -0.07871551
0.06334372 0.044016335 0.09403553 0.10248938 0.12167912 -0.037070595 0.13378231 0.07609919
0.026756188 0.030026015 -0.2560433 0.0749293 0.10260164 -0.18727253 0.13526347 0.04393644
-0.2731386 -0.036319558 -0.010350244 0.13290532 -0.03553795 -0.02421406 0.052435294 0.0042882026
-0.045032967 0.07411277 0.06374737 0.060127456 -0.048470885 -0.07224548 0.058940496 0.0844351
00000000: e883 11be ad97 693c 5d0c 683c 3df5 fbbd
00000010: 5ee1 67bd 4905 10bd ba7a d4bd ee31 0abe
00000020: d6dc f53d 51fc 3a3d b525 333d 1a80 853d
00000030: 4a3b d8bc b793 02be eee8 533b 2621 033d
00000040: 2627 52bd 2c6d 31bd 9f62 a33d 471e 133c
00000050: dc4f 1a3d 69f0 663d 764a 26bc 2345 ad3d
00000060: 7671 cd3c db18 2dbd 4175 08bd ad61 12be
00000070: 4215 8abc c453 fcbc 3ab8 d1bd 8cb3 e23c
00000080: 918b a1bd 9155 2bbe 2385 96bc 7b27 0a3d
00000090: 7dc7 6b3c 9577 063e 5f25 773d de7b 983d
000000a0: 3a04 163e df08 903d 8c61 043e 1da6 183d
000000b0: 8895 e1bc 3b3d 0a3e c63d 523c 302c 013e
000000c0: b32b af3d 7e6b 84bd 6f1c 1f3b 8e11 0d3e
000000d0: e081 c13d bb4c d03c 9d75 75bc 952f 0e3d
000000e0: e964 6e3c 84b1 883d afc5 72bd 9173 b63c
000000f0: 32a8 75be d71f ac3c d1e5 833d cc1c 863d
00000100: 204f 453c 3df6 263d a25e 173e fc66 37bd
00000110: 805f 95bc 0b56 bc3c e8e1 3a3c 0a32 d23c
00000120: d5a2 1dbe 1f5d bc3d c1dd 933c 2c48 50be
00000130: 1885 13be e50b d13d 6ced 3fbe ff9e d3bc
00000140: e630 85bd 5847 dabe cb0c 53bc 70dc 33bb
00000150: ed18 c4be 8447 e3bc 53d9 f5bb 7a96 d0be
00000160: 5c2a 513d 6b42 a13d 2a1f e2b9 867b 993c
00000170: 9e9e 7f3d 515a 22bc 9241 613c be7e 033e
00000180: d341 5ebd 8616 7e3d 814c 1e3e 7602 9fbd
00000190: d937 f63c 68e7 053d f0a5 4abd 6572 7abd
000001a0: 6532 35bd 6188 b8bd b495 5b3c e914 1f3d
000001b0: 2152 423d b066 1b3c 0a32 5ebc e907 c23a
000001c0: 2566 58bc 4d3b 30bd 1405 b13d 322e d23b
000001d0: 5ee6 843d 1014 2d3d d820 0b3e c6a6 003d
000001e0: 7436 013e e895 e93d 308e 4fbc 168a 043e
000001f0: 7b56 6d3d dca7 93bc d045 c23d 200e ae3d
00000200: fd62 413c d26a ab3d d3b7 043d 14e4 31bd
00000210: 1ecb 1b3e 9672 b23c c970 e33d 507f 243d
00000220: 33f1 863d 38df b33d 159b 643d 345d acbd
00000230: 6912 8e3d c3dd 2cbc 6941 0f3d 94ed f33c
00000240: 40b4 1f3d b6f7 b43c 8f84 b8bd 5821 5b3d
00000250: 8025 4fbd 592d 39bd a6e9 9e3d 434a 063d
00000260: aefe 0bbd d2db 44be 5122 443d 4af5 bfbc
00000270: 0ffa 80bd e045 9a3c 954c 85bd fc33 31be
00000280: 4c90 413d 5936 4c3d ae69 213e c55f 653d
00000290: 7be1 a53d 53c6 8d3d 36b9 923d bb6e c43d
000002a0: 85ab 303e 9dd7 933d f206 c13d 9435 043e
000002b0: 8e31 9b3d e04d e63d 687e c33d 2c63 d43d
000002c0: e9c4 3e3c f6d4 db3d 34d4 423d 231a 053d
000002d0: d3cf 863d d88f a6bd 6caf 673d 1025 f83d
000002e0: caa9 a23c 19e9 2b3c a836 0a3e b9e6 1e3e
000002f0: 98e4 ebbc cc37 dfbc ff76 cbbd 54c5 2f3d
00000300: 2ec0 7b3d 6fd7 ddbd 3b72 783d 2620 debd
00000310: b1cd 943d a041 e43d a798 50bd bdcb 203d
00000320: 2120 c1bb 43b2 8ebd 9d98 b43d 7db6 febb
00000330: 14f4 e4bb 79b6 a7bd 8839 1f3d 590f e4be
00000340: c047 8ebd 5eba 9abb 32a6 e3be ed84 afbd
00000350: 9738 113e 581f dabe 05d6 99bd 7853 823d
00000360: 4150 523c 1543 283d af14 c33c 5c9a a43d
00000370: f8ad a0bd 4a24 22bd b7e1 3f3d 9935 a1bd
00000380: 5aba 813d 794a 343d b395 c03d f4e5 d13d
00000390: e732 f93d 56d7 17bd 3bfe 083e e4d9 9b3d
000003a0: cb2f db3c 1ef9 f53c 1b18 83be 8874 993d
000003b0: cf20 d23d 5fc4 3fbe 8282 0a3e b2f6 333d
000003c0: d3d8 8bbe d1c3 14bd 1294 29bc 5518 083e
000003d0: 3e90 11bd 905c c6bc 64c6 563d 0d84 8c3b
000003e0: 7d74 38bd 70c8 973d fb8d 823d 3548 763d
000003f0: 6889 46bd 70f5 93bd 976b 713d 4fec ac3d

conv4.bias f4 [32]
-0.015453398 0.8865783 0.031036794 0.011462147 0.3774711 -0.011829643 0.3223564 -0.03463401
-0.016042143 0.018017959 0.42275608 0.20477512 0.31244236 0.44565463 0.14388281 0.085363284
0.43269342 -0.004001428 0.015297963 0.047962163 0.345838 0.19218317 0.09330104 -0.03799402
0.052713495 0.7813604 -0.05005882 0.050626457 0.049458962 0.03015326 0.4166612 0.02636863
00000000: 4030 7dbc ccf6 623f e040 fe3c bbcb 3b3c
00000010: e443 c13e 1ed1 41bc e60b a53e 64dc 0dbd
00000020: d06a 83bc 669a 933c 7c73 d83e 92b0 513e
00000030: 72f8 9f3e d82c e43e 0456 133e f2d2 ae3d
00000040: fe89 dd3e 691e 83bb 4fa4 7a3c f973 443d
00000050: ae11 b13e aacb 443e 9e14 bf3d 9e9f 1bbd
00000060: 1bea 573d 3c07 483f 7a0a 4dbd b05d 4f3d
00000070: 7b95 4a3d f803 f73c 9e54 d53e 0603 d83c

batch4.weight f4 [32]
0.3123011 5.9626007 0.777933 0.3603807 4.413258 0.39600754 4.230228 0.3740877
0.43484312 1.0020131 4.9018135 3.006422 3.203265 4.2669015 3.0634656 1.688809
5.180409 0.3120469 0.3522991 0.28849185 3.6912568 3.7062945 3.1632388 0.380904
0.7799548 2.9941633 0.4109133 0.71909064 0.38655862 1.3828924 4.0138264 0.9870468
00000000: eee5 9f3e a0cd be40 9e26 473f d283 b83e
00000010: 6939 8d40 80c1 ca3e 075e 8740 6c88 bf3e
00000020: c2a3 de3e f741 803f a8db 9c40 3869 4040
00000030: 4b02 4d40 758a 8840 d20f 4440 e52a d83f
00000040: e9c5 a540 9cc4 9f3e 8c60 b43e 34b5 933e
00000050: 8d3d 6c40 ee33 6d40 8172 4a40 d905 c33e
00000060: 1eab 473f 5fa0 3f40 3a63 d23e 5316 383f
00000070: 03eb c53e 9e02 b13f 4471 8040 19af 7c3f

batch4.bias f4 [32]
-0.6797907 -4.222528 -1.3588781 -0.6272385 -2.489192 -0.8222834 -3.2662504 -0.68637615
-0.81385356 -1.5579065 -3.3038955 -2.1148899 -2.5150435 -3.2502959 -2.3387494 -1.955559
-2.495769 -0.673471 -0.69946486 -0.67204165 -2.8313901 -2.1584678 -1.9891081 -0.7195943
-1.3690933 -1.3412801 -0.85972565 -1.1075342 -0.7186228 -2.1419878 -3.8002617 -1.5545837
00000000: c306 2ebf f31e 87c0 b8ef adbf b492 20bf
00000010: ec4e 1fc0 2a81 52bf 3f0a 51c0 59b6 2fbf
00000020: b558 50bf 7b69 c7bf 0673 53c0 5b5a 07c0
00000030: 79f6 20c0 d904 50c0 12ae 15c0 c24f fabf
00000040: aeba 1fc0 9868 2cbf 2110 33bf ec0a 2cbf
00000050: 7f35 35c0 5624 0ac0 189b febf 5537 38bf
00000060: 733e afbf 11af abbf fb16 5cbf aec3 8dbf
00000070: aaf7 37bf 5416 09c0 7d37 73c0 99fc c6bf

lin1.weight f4 [5, 800]
-0.0354283 0.0011844109 -0.030091155 -0.01357259 -0.031800084 -0.022459896 -0.02798203 -0.0021460145
-0.018597357 -0.03212798 -0.13685352 -0.0027548068 0.04216968 -0.06391211 -0.0276536 0.0026688434
-0.094094396 0.014829469 -0.04845532 0.004739925 -0.020672398 0.011510113 -0.037707563 0.02466416
-0.008345811 -0.002177416 -0.013723853 -0.003434652 -0.002393403 0.020564301 -0.008308647 -0.004957152
0.001714643 -0.003922106 0.013537301 0.007845156 -0.0075735766 -0.010217086 0.011998594 0.0057002674
-0.022102164 -0.01047261 -0.013321886 -0.017179644 -0.006526657 0.0045158076 0.00062994845 -0.0035738684
-0.009280264 -0.0061843144 0.048447892 0.0069428277 0.025035406 0.03771247 0.011230736 0.028769404
-0.18895864 -0.17265736 -0.23116922 0.05884534 -0.26230076 -0.15767671 -0.06901658 -0.10433524
-0.06555936 -0.23700789 -0.027439712 -0.17015997 -0.16070698 -0.028961454 -0.058847744 -0.12652688
-0.14441504 -0.15426968 -0.13711809 -0.07762433 -0.0029339716 -0.011478343 0.03324123 -0.011943326
-0.014073291 -0.06484715 -0.027139876 -0.07497335 -0.11348578 0.03630827 -0.018583046 0.04378663
-0.030378286 -0.095446795 -0.02241763 -0.005339038 -0.013568072 0.006944115 -0.013594425 0.008053444
-0.0034490437 -0.028701717 -0.008722492 0.07532341 0.0052594864 -0.01390404 0.0014809736 -0.013917409
0.0028247042 0.00097161456 0.0015666935 -0.01863406 -0.0051159207 -0.022530826 0.0118938945 -0.004500027
-0.013167204 -0.010256189 -0.006535076 0.0041174595 -0.0147143025 -0.0022032105 0.007903383 -0.01493414
-0.0027297062 -0.009792969 -0.007075264 -0.00909098 -0.031235801 0.020071736 -0.06204434 -0.09173639
-0.047750164 -0.010063787 -0.047673147 -0.14503992 0.016652973 -0.086497 -0.04766816 0.0047741057
-0.07966486 -0.030562906 -0.05241276 -0.108269244 -0.024962416 0.034084987 0.12525894 -0.05595115
-0.060840506 -0.0040511154 0.046270978 0.086458534 -0.037464563 -0.025486114 0.012296843 0.0015057126
0.0012825669 0.0031381978 0.01742867 0.009017155 -0.008849296 0.00024267817 0.0071387556 0.0002327814
0.00091286574 -0.007229533 -0.004812898 -0.007403306 -0.0114872595 0.0025185882 -0.010988456 0.004854737
-0.009000005 0.009701586 0.042609584 -0.0056008687 0.015483419 -0.009298388 0.016491123 -0.025233494
-0.001259834 -0.021048257 0.015738666 -0.012051547 0.004082481 -0.010468315 -0.0031157807 -0.0051583545
-0.016261784 -0.0142583875 0.017382301 -0.016973525 -0.018312288 0.018807381 0.027424134 0.0038945577
-0.015153783 -0.031932 -0.0007364727 -0.017338758 -0.0075573837 0.009976529 0.0026657667 -0.015567112
-0.038156558 -0.01161799 0.004435203 -0.005533868 -0.033930797 0.030873993 -0.0006645138 0.011992044
-0.006255031 0.004708494 0.04331305 0.019421093 -0.026152357 -0.029191973 0.012807383 -0.05066446
0.054001346 -0.0005336518 0.016510572 0.0499832 -0.06752136 -0.0013622963 -0.0115282275 0.016303632
-0.020065779 0.07243155 0.11954837 -0.10496228 -0.27550325 -0.051469028 0.03818401 -0.004904604
-0.0068114623 -0.021843804 -0.033553686 -0.10209962 -0.086678915 0.07676027 -0.14468624 -0.09117994
0.066731386 -0.047681436 0.04847118 -0.17722866 -0.07434289 0.025554955 -0.041810177 -0.07811304
-0.15066668 0.017604038 -0.0054275473 0.009048315 -0.01667058 -0.0030225578 -0.015946565 0.0052537564
00000000: 441d 11bd 3c3e 9b3a ba81 f6bc 925f 5ebc
00000010: ce40 02bd d1fd b7bc 923a e5bc 26a4 0cbb
00000020: 7c59 98bc a198 03bd 5423 0cbe fd89 34bb
00000030: 1dba 2c3d 5ae4 82bd cd89 e2bc c3e7 2e3b
00000040: 90b4 c0bd 4df7 723c 1679 46bd 5f51 9b3b
00000050: 2959 a9bc ea94 3c3c 3f73 1abd 7e0c ca3c
00000060: debc 08bc fbb2 0ebb 03da 60bc e617 61bb
00000070: a4da 1cbb 7776 a83c fe20 08bc 9b6f a2bb
00000080: dfbd e03a 0385 80bb 8ecb 5d3c f888 003c
00000090: c42b f8bb 9165 27bc c095 443c 4fc9 ba3b
000000a0: 990f b5bc 4f95 2bbc 0a44 5abc 53bc 8cbc
000000b0: 91dd d5bb 57f9 933b 2023 253a 9037 6abb
000000c0: 400c 18bc caa5 cabb 4c71 463d a980 e33b
000000d0: 0d17 cd3c 6478 1a3d 1f01 383c d0ad eb3c
000000e0: 607e 41be 17cd 30be a0b7 6cbe d007 713d
000000f0: 494c 86be 0176 21be 9158 8dbd b7ad d5bd
00000100: fc43 86bd 32b2 72be 3fc9 e0bc 6a3e 2ebe
00000110: 5f90 24be 9240 edbc 550a 71bd 4390 01be
00000120: 89e1 13be dff8 1dbe af68 0cbe 81f9 9ebd
00000130: e047 40bb a90f 3cbc f527 083d f1ad 43bc
00000140: a993 66bc 95ce 84bd 7254 debc a18b 99bd
00000150: 3c6b e8bd fbb7 143d 793b 98bc 9c59 333d
00000160: e2db f8bc 9c79 c3bd 2da5 b7bc 19f3 aebb
00000170: 9e4c 5ebc 758b e33b 27bb 5ebc 98f2 033c
00000180: 5a09 62bb dd1f ebbc c8e8 0ebc 2943 9a3d
00000190: c557 ac3b c5cd 63bc 3a1d c23a d805 64bc
000001a0: ac1e 393b f3b3 7e3a 8359 cd3a 75a6 98bc
000001b0: 74a3 a7bb 9192 b8bc 9cde 423c f674 93bb
000001c0: 42bb 57bc 9309 28bc 3124 d6bb c1eb 863b
000001d0: 4214 71bc bd63 10bb 317d 013c 53ae 74bc
000001e0: dfe4 32bb b072 20bc 9ed7 e7bb 55f2 14bc
000001f0: 39e2 ffbc 7b6d a43c 3522 7ebd 4ae0 bbbd
00000200: ad95 43bd 95e2 24bc eb44 43bd 5885 14be
00000210: d16b 883c 5725 b1bd b03f 43bd 1a70 9c3b
00000220: 5527 a3bd 0f5f fabc c3ae 56bd 44bc ddbd
00000230: fb7d ccbc b39c 0b3d e143 003e 082d 65bd
00000240: e533 79bd 38bf 84bb a386 3d3d 2c11 b13d
00000250: 7174 19bd 41c8 d0bc b378 493c 555b c53a
00000260: ce1b a83a 39aa 4d3b 92c6 8e3c b0bc 133c
00000270: a3fc 10bc 6d77 7e39 39ec e93b c816 7439
00000280: 624d 6f3a b8e5 ecbb 84b5 9dbb 6f97 f2bb
00000290: 0f35 3cbc e60e 253b ed08 34bc 7c14 9f3b
000002a0: c274 13bc 67f3 1e3c 6387 2e3d 7e87 b7bb
000002b0: 2bae 7d3c 4458 18bc 6418 873c 79b6 cebc
000002c0: 0421 a5ba 656d acbc 60ee 803c da73 45bc
000002d0: 55c6 853b 4c83 2bbc 2032 4cbb 6a07 a9bb
000002e0: 6f37 85bc 039c 69bc 5465 8e3c 100c 8bbc
000002f0: a703 96bc f011 9a3c 94a8 e03c d63b 7f3b
00000300: 9347 78bc 21cb 02bd d90f 41ba 030a 8ebc
00000310: eea3 f7bb 9874 233c 25b4 2e3b 330d 7fbc
00000320: 0d4a 1cbd 6259 3ebc 2e55 913b 7355 b5bb
00000330: 05fb 0abd 75eb fc3c c432 2eba 477a 443c
00000340: 01f7 ccbb b649 9a3b 0669 313d fc18 9f3c
00000350: 783d d6bc 0124 efbc 0fd6 513c 8985 4fbd
00000360: 8430 5d3d c4e4 0bba 2e41 873c 2fbb 4c3d
00000370: a448 8abd 148f b2ba e4e0 3cbc 328f 853c
00000380: fd60 a4bc fe56 943d c7d5 f43d 77f6 d6bd
00000390: c30e 8dbe 30d1 52bd d666 1c3d cdb6 a0bb
000003a0: b032 dfbb c7f1 b2bc 976f 09bd 9b19 d1bd
000003b0: b784 b1bd 7d34 9d3d a128 14be 8cbc babd
000003c0: 77aa 883d 9c4d 43bd b789 463d 6e7b 35be
000003d0: 1641 98bd a058 d13c 2641 2bbd bbf9 9fbd
000003e0: 5e48 1abe 5836 903c 91d9 b1bb 623f 143c
000003f0: bd90 88bc 1b16 46bb 5fa2 82bc b427 ac3b

lin1.bias f4 [5]
-0.017049775 -0.02296377 -0.013075917 -0.022055991 -0.0148832165
00000000: f8ab 8bbc 841e bcbc 5f3c 56bc c4ae b4bc
00000010: bcd8 73bc

exp_avg f4 [32, 3, 3, 3]
-0.009387437 -0.009811857 -0.010458438 -0.008283601 -0.0054971264 -0.0085730795 -0.01614953 -0.008135326
-0.011416375 -0.0124191055 -0.012883417 -0.011671268 -0.013165816 -0.010326935 -0.011264167 -0.020680768
-0.016226847 -0.016016206 -0.013580231 -0.011931654 -0.00968242 -0.012574721 -0.007799854 -0.009092069
-0.017215187 -0.012598588 -0.013602022 0.0034657845 0.0020610793 -0.0010574965 0.003450726 0.0012572437
-0.0033842823 0.0029187405 0.0009746773 -0.0030001872 0.0019058441 0.0003155821 -0.0017340073 0.0016613534
-0.00027362123 -0.0052344566 0.00070804835 -0.002285352 -0.0061356495 0.0051616025 0.0030828721 0.0014461008
0.004517111 0.0016852922 -0.0026841797 0.002619551 -0.0005200824 -0.0038113394 -0.002236731 -0.0009339071
-0.003091678 -0.0023682257 -0.0023274338 -0.0040667816 -0.0026007434 -0.002121312 -0.004774058 -0.0041082376
-0.003372872 -0.0047410023 -0.0045406595 -0.004381691 -0.0047830194 -0.0031502405 -0.0030255765 -0.0047621056
-0.0035454584 -0.0036750978 -0.0052078627 -0.0033937453 -0.0039741322 -0.004870475 -0.0014916771 -0.0025421912
-0.0046995883 0.0019849937 0.0052324836 0.0068461485 0.0012234271 0.0040964345 0.003202252 0.0007663365
0.004062982 0.0058832914 -0.0007646467 0.0058153905 0.010134052 -0.0006304061 0.0062561883 0.008071816
-0.0022442802 0.0010962718 0.0060007293 -0.0036122806 0.0024954402 0.006828689 -0.001776293 0.003406621
0.006387578 -0.004652886 -0.0017007588 0.0031540096 0.0012455902 0.0023781443 0.0017520959 -0.00029473408
0.00085423194 0.0011174353 -0.0013932284 0.00025113806 0.0005474494 0.0009956444 0.002672527 0.0030262787
5.9466118e-05 0.0013726362 0.0020943452 -0.0006799063 0.0011409759 0.0012997523 0.0009842814 0.0022018268
0.0029464907 0.00014821043 0.0014745395 0.0022160509 -5.8196038e-05 0.00094268844 0.0011148991 0.00095370907
-0.003213034 -0.009438171 -0.0018270413 -0.005965517 -0.013831154 -0.0022896843 -0.0057866634 -0.015027386
0.0008137933 -0.0026473594 -0.008604437 -0.00075029326 -0.005734711 -0.013692209 -0.0023141522 -0.0076338965
-0.015307629 -0.0039519053 -0.0053363 -0.011932464 -0.0051516606 -0.009854841 -0.015123304 -0.008228158
-0.0121225435 -0.018612714 0.0044786977 0.0042222906 0.0010187419 -0.0013553273 0.0032003983 -0.00040270571
0.005626207 0.005224116 0.0020148666 0.004496714 0.008648902 0.00774316 0.00247528 0.0060804836
0.006761978 0.0048176674 0.008700077 0.009233404 0.0009664103 0.0019184008 0.0012036411 -0.0018839132
-0.002976712 -0.0022593383 0.00016254005 -0.0011076797 0.0009590406 0.012084196 0.012670293 0.0125442995
0.009642547 0.012598821 0.01126663 0.011037736 0.011056158 0.012558954 0.011330333 0.01054879
0.011875676 0.008230144 0.008786652 0.009971822 0.009951253 0.008031144 0.008184291 0.008486678
0.007817728 0.009949514 0.009515141 0.009562847 0.010894346 0.012000754 0.00865049 0.0071025295
-0.0045470363 -0.007082327 -0.005583872 -0.002536542 -0.00912531 -0.010063933 -0.0017331396 -0.006620065
-0.008658366 -0.00076768006 -0.0023761778 -0.00014378798 -0.0018155733 -0.007366575 -0.007135447 -0.001936207
-0.0069760345 -0.008075955 0.0018058718 0.0015708103 0.00582466 0.0025237536 -0.0014094511 -0.0014104205
0.0036223724 -0.0006092599 -0.002253115 -0.025571289 -0.021344256 -0.019432517 -0.025227891 -0.02427128
-0.021892348 -0.028909685 -0.02740813 -0.02604356 -0.029632853 -0.026116656 -0.023541484 -0.028307818
00000000: c4cd 19bc e9c1 20bc de59 2bbc f1b7 07bc
00000010: 3d21 b4bb 1a76 0cbc 054c 84bc 084a 05bc
00000020: bf0b 3bbc 8179 4bbc f814 53bc d938 3fbc
00000030: 6fb5 57bc 4e32 29bc 578d 38bc b76a a9bc
00000040: 2aee 84bc 6b34 83bc 9e7f 5ebc fc7c 43bc
00000050: 03a3 1ebc 3406 4ebc eb95 ffbb e7f6 14bc
00000060: dd06 8dbc 4f6a 4ebc 04db 5ebc 3722 633b
00000070: 2c13 073b b29b 8aba 9325 623b 19ca a43a
00000080: d6ca 5dbb 5748 3f3b 7d81 7f3a ca9e 44bb
00000090: 84cd f93a b674 a539 a147 e3ba c5c1 d93a
000000a0: d274 8fb9 ce85 abbb 529c 393a d8c5 15bb
000000b0: 8f0d c9bb a922 a93b 030a 4a3b 178b bd3a
000000c0: 4604 943b 06e5 dc3a 10e9 2fbb c6ac 2b3b
000000d0: 2456 08ba aac7 79bb 1e96 12bb 72d1 74ba
000000e0: c09d 4abb 3c34 1bbb dc87 18bb a342 85bb
000000f0: 3c71 2abb b605 0bbb b36f 9cbb 659e 86bb
00000100: 670b 5dbb 695a 9bbb d0c9 94bb 4a94 8fbb
00000110: e0ba 9cbb 4474 4ebb c048 46bb 700b 9cbb
00000120: ec5a 68bb e9d9 70bb b8a6 aabb 9969 5ebb
00000130: 7039 82bb 8198 9fbb 6184 c3ba e49a 26bb
00000140: 01ff 99bb ab16 023b 4175 ab3b a855 e03b
00000150: 675b a03a 623b 863b e0dc 513b f9e3 483a
00000160: c322 853b a0c8 c03b 9272 48ba 088f be3b
00000170: 4b09 263c d641 25ba b600 cd3b a63f 043c
00000180: c614 13bb c7b0 8f3a c4a1 c43b 03bc 6cbb
00000190: 8a8a 233b 32c3 df3b 81d2 e8ba 9e41 5f3b
000001a0: e34e d13b 3d77 98bb ffeb deba 80b3 4e3b
000001b0: 1243 a33a a4da 1b3b 95a6 e53a 8a86 9ab9
000001c0: 89ee 5f3a e876 923a fd9c b6ba 2eab 8339
000001d0: b582 0f3a 4880 823a 9025 2f3b 8854 463b
000001e0: 426b 7938 07ea b33a 4841 093b bd3b 32ba
000001f0: cc8c 953a 735c aa3a 0103 813a 864c 103b
00000200: e919 413b ef68 1b39 5645 c13a 2a3b 113b
00000210: 8517 74b8 c01e 773a ce21 923a 5502 7a3a
00000220: c491 52bb 8fa2 1abc 5579 efba 627a c3bb
00000230: 119c 62bc 870e 16bb 0d9e bdbb 6d35 76bc
00000240: be54 553a 527f 2dbb a0f9 0cbc 54af 44ba
00000250: 3eea bbbb 4955 60bc 08a9 17bb c425 fabb
00000260: d9cc 7abc fc7e 81bb 21dc aebb 6280 43bc
00000270: 43cf a8bb 3376 21bc bcc7 77bc 65cf 06bc
00000280: a29d 46bc b179 98bc 0ac2 923b 245b 8a3b
00000290: 4e87 853a 3da5 b1ba c6bd 513b 3f22 d3b9
000002a0: 0c5c b83b 102f ab3b da0b 043b 2c59 933b
000002b0: 20b4 0d3c 55ba fd3b 4f38 223b cb3e c73b
000002c0: 9593 dd3b 86dd 9d3b c58a 0e3c b447 173c
000002d0: b356 7d3a d972 fb3a 7ec3 9d3a a3ed f6ba
000002e0: f114 43bb 6811 14bb 836f 2a39 902f 91ba
000002f0: 2068 7b3a cbfc 453c 1097 4f3c 9b86 4d3c
00000300: c6fb 1d3c 496b 4e3c ac97 383c 9fd7 343c
00000310: e324 353c 12c4 4d3c dca2 393c d5d4 2c3c
00000320: 3292 423c bad7 063c e4f5 0f3c da60 233c
00000330: 950a 233c 0f95 033c 6817 063c b50b 0b3c
00000340: ee15 003c 4903 233c 65e5 1b3c 7dad 1c3c
00000350: 337e 323c cf9e 443c c9ba 0d3c 56bc e83b
00000360: 4eff 94bb dd12 e8bb eaf8 b6bb 1d3c 26bb
00000370: 5382 15bc 32e3 24bc 842a e3ba 21ed d8bb
00000380: d2db 0dbc 233e 49ba a6b9 1bbb cbc5 16b9
00000390: 88f8 edba 4f63 f1bb 78d0 e9bb 53c8 fdba
000003a0: 3897 e4bb 0351 04bc 01b3 ec3a a6e3 cd3a
000003b0: cadc be3b 8f65 253b 55bd b8ba dcdd b8ba
000003c0: 5365 6d3b bdb6 1fba ffa8 13bb e17a d1bc
000003d0: 26da aebc f130 9fbc b9aa cebc 90d4 c6bc
000003e0: 9557 b3bc 01d4 ecbc 0487 e0bc 4e59 d5bc
000003f0: 99c0 f2bc 99f2 d5bc 12da c0bc cce5 e7bc
