results_auto/01_domain_adaptation/maml_supervised/June_14/officehome_maml_order_2_seed_0_shots_1_ways_5_meta-lr_0.0001_dropout_0.1_RandAugment-prob_0.5_pre-train-wts_datetime_13_06_2021_17_37_42/intermediate_43000_model.pt (torch, 412181 bytes, 54 tensors)

conv1.weight f4 [32, 3, 3, 3]
0	0x3ee7a95f	0.45246407
1	0x3dc2714f	0.09494268
2	0xbd9f6470	-0.07782829
3	0xbd595b45	-0.053065557
4	0xbe45650b	-0.19276826
5	0xbe18f68e	-0.14937803
6	0x3e096472	0.13417223
7	0x3c9642bc	0.018342368
8	0xbe1f15c1	-0.15535642
9	0xbb8f6493	-0.004376003
10	0xbe6aef37	-0.22942816
11	0x3dc607ee	0.09669481
12	0xbeb0e92d	-0.345529
13	0xbe146e1e	-0.14495131
14	0x3c03f35f	0.00805363
15	0x3c08fc03	0.0083608655
16	0x3e15a7af	0.14614747
17	0x3e9909e7	0.29890367
18	0xbf53bd29	-0.8271051
19	0xbef6d238	-0.4820726
20	0x3e1eb12b	0.15497272
21	0xbe94bfe1	-0.29052642
22	0x3d46ac15	0.048503954
23	0x3f075e6b	0.52878445
24	0xbe0e115c	-0.1387381
25	0x3e95bcf4	0.29245722
26	0x3f48f5f2	0.7850028
27	0x3de60217	0.11230867
28	0xbbc4508c	-0.0059910472
29	0x3eb7ec67	0.35922548
30	0xbe1edf6e	-0.15514919
31	0x3e4708b6	0.19436917
32	0x3ea9752f	0.33097216
33	0xbf06af69	-0.52611405
34	0xbee68c12	-0.4502874
35	0xbda25cfc	-0.079278916
36	0xbc92be7c	-0.017913096
37	0x3e778595	0.24172051
38	0x3eb7a07c	0.35864627
39	0xbe3591ae	-0.17731354
40	0xbc67a843	-0.014139238
41	0x3d86d5a9	0.06583721
42	0xbf08cd9e	-0.53438747
43	0xbf0ad71d	-0.54234487
44	0xbe930c65	-0.28720394
45	0x3e862de2	0.2620688
46	0x3eba52aa	0.36391193
47	0x3eef050a	0.46683532
48	0xbe4889cd	-0.19583817
49	0x3c956ac2	0.018239383
50	0x3e8dc296	0.2768752
51	0xbc91b119	-0.017784642
52	0xbe035a51	-0.12827422
53	0xbd36a1d2	-0.044587918
54	0x3ec0fb45	0.37691703
55	0x3db0cb7e	0.08632563
56	0x3e85a348	0.26101136
57	0xbe9283c8	-0.28616166
58	0xbea5ccd7	-0.32382843
59	0xbebcf443	-0.36905107
60	0xbd202341	-0.03909612
61	0xbd459548	-0.04823807
62	0xbdadc04a	-0.08483942
63	0x3eb58fab	0.35461172
64	0x3e9e8fae	0.30968994
65	0x3de3ca51	0.11122573
66	0xbc25a5e7	-0.010110355
67	0xbd8cfde8	-0.06884366
68	0xbe2cd33b	-0.16877453
69	0x3d4dffea	0.050292887
70	0xbea3a79d	-0.31963816
71	0xbe29e154	-0.16589862
72	0x3ef5bcb0	0.4799552
73	0x3ef03479	0.46915033
74	0x3f0c6f31	0.54857165
75	0x3e2664bf	0.16249369
76	0xbd8507e0	-0.06495643
77	0xbeb04441	-0.34427074
78	0xbe7b76f3	-0.24557094
79	0xbef1ee31	-0.47252038
80	0xbebb052e	-0.3652739
81	0x3efdd63e	0.49577516
82	0x3eb76a03	0.35823068
83	0xbd435dd1	-0.047696892
84	0xbe0c22a3	-0.13685088
85	0xbec5b63f	-0.38615605
86	0xbed69570	-0.41910887
87	0x3d6b8673	0.057501268
88	0x3e2c0ac4	0.16800982
89	0xbd6a5612	-0.05721099
90	0x3ed5865a	0.41704065
91	0x3ee75fa7	0.45190164
92	0x3ed65f90	0.41869783
93	0xbe651dda	-0.22374669
94	0xbf0b85b4	-0.5450089
95	0xbf054bdf	-0.52068895
96	0x3db8596d	0.090014316
97	0x3de2d17b	0.110751115
98	0xbe0bad32	-0.13640288
99	0x3c79f8a2	0.015257033
100	0x3ed0ff3e	0.40819734
101	0x3f04bfb6	0.5185503
102	0xbee9b79f	-0.45647904
103	0xbec86884	-0.3914224
104	0xbeae61a8	-0.3405888
105	0xbd6b8818	-0.057502836
106	0xbcbd978e	-0.023143556
107	0x3db720cb	0.08941802
108	0xbda93e6f	-0.082638614
109	0x3da8ab59	0.08235807
110	0xbdca7593	-0.09885707
111	0x3dd88f54	0.10574213
112	0xbe040fde	-0.12896678
113	0x3dedadb5	0.116053976
114	0x3d80c9bf	0.0628848
115	0xbe8632cf	-0.2621064
116	0xbe73921a	-0.23786202
117	0x3e73e916	0.23819384
118	0x3ece48a1	0.40289786
119	0x3e5619b0	0.20908237
120	0x3e6fb428	0.23408568
121	0x3e45db28	0.19321883
122	0xbcbc72e7	-0.023004008
123	0xbd153351	-0.036425892
124	0xbe8eb01e	-0.27868742
125	0xbe9e1e09	-0.3088229
126	0xbf84c11e	-1.0371435
127	0x3e0e95c9	0.13924326
128	0xbe617448	-0.22017014
129	0xbf3c46ae	-0.7354535
130	0x3eaf7a0c	0.34272802
131	0xbd2c8da7	-0.042127278
132	0xbf9a82f0	-1.2071209
133	0x3e72769f	0.23678063
134	0xbeabae54	-0.3353144
135	0xbe7e7f04	-0.2485314
136	0xbd038af5	-0.03211494
137	0xbe39aa5d	-0.18131395
138	0x3df272c1	0.11838294
139	0x3e860208	0.26173425
140	0x3e9c2f07	0.3050463
141	0x3ecc535f	0.39907357
142	0x3f20174a	0.62535536
143	0x3e322b67	0.17399369
144	0xbecee703	-0.40410623
145	0xbdabc7cb	-0.08387717
146	0x3d6aa15d	0.057282794
147	0xbeb41521	-0.3517237
148	0xbebe4055	-0.37158456
149	0xbe9de88e	-0.30841488
150	0xbf115f51	-0.56786066
151	0xbeb46d73	-0.35239753
152	0xbeb8f4b4	-0.36124194
153	0x3ecb4800	0.3970337
154	0x3effce9d	0.4996232
155	0xbcc1c025	-0.023651192
156	0x3e977733	0.2958313
157	0x3d1677c4	0.03673531
158	0x3dba1231	0.09085501
159	0xbd8d859e	-0.06910251
160	0x3db5eb92	0.08882822
161	0xbe27a948	-0.1637317
162	0xbf15166d	-0.58237344
163	0xbe872e3d	-0.26402465
164	0xbe37bb9a	-0.17942658
165	0xbd56197f	-0.05227041
166	0x3df6d302	0.12051965
167	0x3e62e7fd	0.22158809
168	0x3b905ef8	0.0044058524
169	0x3ef98fae	0.4874243
170	0x3efb5c74	0.49093974
171	0xbecbc644	-0.39799702
172	0x3e5bd139	0.21466531
173	0xbcddf89e	-0.027096089
174	0xbeb8d994	-0.361035
175	0x3e8adc80	0.27121353
176	0xbc5f472b	-0.013627808
177	0xbe9d7efd	-0.30760947
178	0x3e8f2dc3	0.279646
179	0xbe5757d7	-0.21029602
180	0x3e425b8f	0.1898024
181	0x3eda1b8e	0.42599148
182	0x3ebd2a86	0.36946505
183	0xbae4d0d0	-0.001745725
184	0x3e87ee38	0.26548934
185	0x3d84177a	0.0644979
186	0xbee0489b	-0.43805394
187	0xbdfab46b	-0.12241443
188	0xbeee47c8	-0.4653914
189	0x3d29202b	0.041290443
190	0x3eb88073	0.360355
191	0x3e5308ae	0.2060878
192	0xbf215ddc	-0.63033843
193	0xbe5b1b2b	-0.21397083
194	0xbf0a669b	-0.54062814
195	0x3cb9aba7	0.022664858
196	0x3e730cb4	0.23735315
197	0x3e7ff2ba	0.24994937
198	0xbe496e7e	-0.19671056
199	0x3e841457	0.25796768
200	0x3d4743e2	0.048648722
201	0xbecefda6	-0.40427893
202	0xbeaa0150	-0.33204126
203	0xbf16dbba	-0.58929026
204	0x3dfda154	0.123842865
205	0x3f2b9335	0.67021495
206	0x3e53358d	0.20625897
207	0x3e3952b1	0.1809795
208	0x3e8306bc	0.25591075
209	0x3da6dea1	0.08147932
210	0xbeab55ca	-0.3346389
211	0xbe7eced7	-0.2488359
212	0xbeaaff04	-0.33397686
213	0x3e8d3ee7	0.27587053
214	0x3ee47310	0.44619036
215	0x3e90cba8	0.28280377
216	0xbe5907fb	-0.2119445
217	0xbef0b6ce	-0.4701447
218	0x3f18d850	0.59705067
219	0xbed011f9	-0.40638712
220	0xbe9c328c	-0.30507314
221	0x3f0c7630	0.5486784
222	0xbe00bf1d	-0.12572904
223	0xbe6d01a7	-0.23145162
224	0x3dafc3ee	0.085822925
225	0x3e832722	0.25615793
226	0xbf002c60	-0.5006771
227	0x3de8d321	0.11368395
228	0x3cba9658	0.022776768
229	0xbe3d00a9	-0.18457283
230	0x3e569a4b	0.20957296
231	0x3e8a01cb	0.26954493
232	0xbd4c3ad9	-0.04986081
233	0x3eb6c313	0.35695705
234	0x3ea2dd66	0.3180954
235	0xbec00c81	-0.3750954
236	0x3e958d99	0.29209593
237	0xbe11ba9e	-0.14231345
238	0xbe9287a6	-0.28619117
239	0x3e39210a	0.1807901
240	0x3d8a60ca	0.06756742
241	0xbd6c7413	-0.057727885
242	0xbd196fac	-0.037460014
243	0x3ebf53e8	0.37368703
244	0x3eba8d3e	0.36435884
245	0xbe0887a8	-0.13332999
246	0x3f0c411e	0.5478686
247	0x3db1774a	0.08665331
248	0xbda12a45	-0.078693904
249	0x3ebb1a08	0.36543298
250	0xbd03081c	-0.031990156
251	0xbbb1adf4	-0.005422348
252	0x3ea434f8	0.32071662
253	0xbdb68494	-0.08912006
254	0xbe8b3f12	-0.27196556
255	0xbd2a57f4	-0.041587785

conv1.bias f4 [32]
0	0xbda9ebb5	-0.08296911
1	0xbfc80cbe	-1.5628889
2	0x3d9291b3	0.07156696
3	0xbe762630	-0.24038005
4	0xbf3a80ec	-0.7285297
5	0xc0d59cb4	-6.675379
6	0xbd696fe6	-0.05699148
7	0xbdd76558	-0.10517377
8	0xbe9561ce	-0.29176182
9	0x3e582da7	0.21111165
10	0xbe96cf6f	-0.29455134
11	0xbd3bc401	-0.04584122
12	0x3f66ce7e	0.9015883
13	0xbfce038b	-1.6094831
14	0xbe45f70d	-0.19332524
15	0xbe1665a4	-0.1468721
16	0xbcf39bf1	-0.029737445
17	0xbe99d613	-0.30046138
18	0xbe460254	-0.19336826
19	0xc05f3222	-3.4874349
20	0x3f783b24	0.9696524
21	0x3d4a04a7	0.049320843
22	0x3dcb8f68	0.09939462
23	0x3e139ed2	0.14416054
24	0xc1248070	-10.281357
25	0x3e5c6702	0.2152367
26	0xbe3c573b	-0.18392651
27	0xbd8a5809	-0.067550726
28	0x3e720079	0.23632993
29	0xbf00979c	-0.5023134
30	0xc02bf4c5	-2.6868145
31	0x3da7784c	0.08177242

batch1.weight f4 [32]
0	0x3fa85d02	1.3153384
1	0x3f880b21	1.0628396
2	0x3f265cb9	0.64985234
3	0x3f9b8696	1.2150447
4	0x3f6721e0	0.90286064
5	0x3f4c7995	0.7987302
6	0x3f85ec49	1.0462734
7	0x3f87f2c8	1.0620966
8	0x3f5f29ec	0.8717334
9	0x3f8a0335	1.0782229
10	0x3fa62d7c	1.2982631
11	0x3f524b0a	0.8214575
12	0x3f66e831	0.90198046
13	0x3f14c7d9	0.58117443
14	0x3f009118	0.50221395
15	0x3f77a9ce	0.96743476
16	0x3f470a00	0.77749634
17	0x3f929919	1.1452972
18	0x3f9e2171	1.2353956
19	0x3f2f66b5	0.68516093
20	0x3f45cab0	0.772624
21	0x3f7912d3	0.9729435
22	0x3f62af5c	0.8854883
23	0x3f95f7c6	1.171624
24	0x3f3d2c60	0.73895836
25	0x3f91f0a1	1.1401559
26	0x3fb3fe50	1.4061985
27	0x3f6bc4d7	0.9209723
28	0x3faeeade	1.3665426
29	0x3f16f439	0.58966404
30	0x3f2d7f2e	0.67772186
31	0x3ef5a19b	0.47974858

batch1.bias f4 [32]
0	0x3f03b5c5	0.51449233
1	0xbf2f8cc7	-0.68574184
2	0x3f61008a	0.8789145
3	0x3d2a0726	0.041510724
4	0xbefbe4ec	-0.4919809
5	0x3e9183f1	0.28420976
6	0x3fbc59e0	1.4714928
7	0x3f099d24	0.537554
8	0x402b71cf	2.6788213
9	0x3e1957dc	0.14974922
10	0x3f90b484	1.1305089
11	0xbeedd442	-0.46451002
12	0xbddbe82c	-0.10737643
13	0xbe3cd63f	-0.18441103
14	0xbc4f3ea9	-0.012649217
15	0xbf174acd	-0.5909851
16	0xbd7eb505	-0.062184352
17	0xbd8e66f0	-0.069532275
18	0xbf57c7eb	-0.84289426
19	0xbe97a339	-0.29616717
20	0x3d6dd265	0.058061976
21	0x3e273623	0.16329245
22	0xbba4dc48	-0.0050311424
23	0x3dbb4b62	0.091452375
24	0x3e5ef008	0.21771252
25	0xbcffacc6	-0.031210314
26	0x3e6fccf3	0.23418026
27	0x3cfa5798	0.030559346
28	0xbd52db1c	-0.05147849
29	0x3de14cd1	0.1100098
30	0x3fc1b9ee	1.5134866
31	0xbd8435da	-0.06455584

conv2.weight f4 [32, 32, 3, 3]
0	0xbe27b812	-0.16378811
1	0x3dabcf62	0.083891645
2	0xbcff16d1	-0.03113881
3	0xbe1979b7	-0.14987837
4	0x3eb7ec95	0.35922685
5	0x3eda84f9	0.42679575
6	0xbd0ea26c	-0.034822866
7	0x3e580fae	0.21099731
8	0x3d04eb40	0.032450914
9	0x3d78f0a9	0.060776386
10	0x3c9ba4b3	0.018999433
11	0x3e0ac077	0.13549982
12	0xbda85688	-0.082196295
13	0xbdd7fffc	-0.10546872
14	0x3f0e8304	0.55668664
15	0xbe66eece	-0.22552034
16	0xbe90cf1e	-0.28283018
17	0x3c4cd056	0.012500843
18	0xbf2c40a2	-0.6728612
19	0xbed63ead	-0.41844693
20	0xbef52a2c	-0.47883737
21	0xbefec3f3	-0.49758872
22	0xbe1d14e3	-0.15339999
23	0xbf59e3b9	-0.851131
24	0x3dc4b9c5	0.09605745
25	0x3e2e465d	0.17019029
26	0x3e68037b	0.22657578
27	0x3eb992e2	0.36244875
28	0x3e73040c	0.23732013
29	0xbe9a24cb	-0.30106196
30	0xbe2aa44a	-0.16664234
31	0xbdf38a61	-0.11891628
32	0xbf51f8b5	-0.8202012
33	0x3e0fbd06	0.1403695
34	0xbe03be60	-0.12865591
35	0xbed69cae	-0.41916412
36	0x3ed42fbb	0.41442665
37	0x3e6ceb27	0.23136579
38	0x3d6e9da3	0.058255803
39	0x3e9d2bee	0.30697578
40	0x3dc12047	0.094299845
41	0x3d124401	0.035709385
42	0x3e54592a	0.20737138
43	0xbd4302ae	-0.047609977
44	0x3d8f6ada	0.07002802
45	0xbe02c787	-0.12771426
46	0xbe64efe6	-0.22357139
47	0xbe36c1a0	-0.178473
48	0x3dcd5b6a	0.100272015
49	0xbd4a4acd	-0.04938774
50	0x3d9ab944	0.07554868
51	0x3e738ae8	0.23783457
52	0x3dae81ad	0.085208274
53	0x3dc723cb	0.09723624
54	0x3e29344c	0.16523856
55	0xbd204fd9	-0.03913865
56	0xbdf723f5	-0.12067405
57	0x3e0b529c	0.13605732
58	0xbd8e75d5	-0.069560684
59	0x3d8c3c1c	0.068474025
60	0x3e2619e5	0.16220815
61	0xbdc76045	-0.09735159
62	0x3e5db3a6	0.21650562
63	0x3e27628e	0.1634619
64	0x3de96d4c	0.113978
65	0xbd6188cf	-0.05506211
66	0x3e71a1cf	0.23596881
67	0xbd8a0ca8	-0.06740695
68	0xbe58eaea	-0.21183363
69	0x3bbe4889	0.0058069867
70	0x3e89b8c2	0.26898772
71	0xbdeff526	-0.1171668
72	0x3c89bf35	0.016814807
73	0x3e9f5fb9	0.31127718
74	0x3e87a3fa	0.26492292
75	0xbe0864e8	-0.13319743
76	0x3e9a5e9a	0.301503
77	0x3ebdf2a0	0.3709917
78	0xbef8e808	-0.48614526
79	0xbe168b8c	-0.1470167
80	0xbdf25f4b	-0.11834582
81	0xbe43a8fb	-0.1910743
82	0xbf1b9b03	-0.60783404
83	0xbe8012b1	-0.2501426
84	0xbeba8cac	-0.3643545
85	0xbe88a64e	-0.2668938
86	0x3e6ce6a1	0.23134853
87	0x3cdc55ab	0.026896318
88	0x3d97b29c	0.07407114
89	0x3ee98208	0.45607018
90	0xbe9efe74	-0.31053507
91	0xbde14731	-0.10999907
92	0xbc4e8edc	-0.0126073025
93	0xbe2c271c	-0.16811794
94	0x3e026222	0.12732747
95	0x3e213f25	0.15746744
96	0xbe056939	-0.1302842
97	0xbee9ade0	-0.4564047
98	0xbeaf6f6e	-0.34264702
99	0xbf030ed1	-0.51194483
100	0xbe382b52	-0.17985275
101	0xbe9a1f5a	-0.30102044
102	0xbebb9827	-0.3663952
103	0x3e86b50e	0.2631001
104	0x3dc00da7	0.09377604
105	0xbe92ea0b	-0.28694186
106	0x3eee66b0	0.4656272
107	0x3e96c887	0.29449865
108	0xbeb10a5f	-0.34578225
109	0xbe25f451	-0.1620648
110	0xbe3be8e6	-0.18350562
111	0x3e058ce5	0.13042028
112	0x3e27b031	0.16375805
113	0xbcc77b2d	-0.024350727
114	0xbe503a1c	-0.20334667
115	0xbcb06ad1	-0.021535309
116	0x3e9058dd	0.28192797
117	0x3e26dae2	0.16294435
118	0x3d2c1980	0.042016506
119	0x3ddd76d1	0.10813678
120	0x3e2b47f5	0.16726668
121	0x3c9bbdc8	0.019011393
122	0xbd92fcf3	-0.071771525
123	0x3e849adf	0.25899407
124	0x3dc6f993	0.09715571
125	0xbe487573	-0.19576053
126	0xbf24a60d	-0.64315873
127	0xbf24cc03	-0.643738
128	0xbebaa317	-0.36452553
129	0xbe17fed9	-0.1484331
130	0xbe57854d	-0.21046944
131	0x3de5806f	0.112061374
132	0x3db806a0	0.089856386
133	0x3e266c72	0.16252306
134	0x3edd42b9	0.43214968
135	0x3e883378	0.26601768
136	0xbe9bd0df	-0.30432793
137	0xbdc9703b	-0.098358594
138	0x3ed7e52a	0.42167026
139	0x3e0e588d	0.13900967
140	0x3daf51d0	0.08560526
141	0x3d997355	0.07492701
142	0xbdc39d2b	-0.09551462
143	0xbe7f0d5b	-0.24907438
144	0xbf15518d	-0.5832756
145	0xbe0ea081	-0.13928415
146	0xbe9edd52	-0.3102823
147	0x3bb38e85	0.005479636
148	0x3f06c06c	0.5263736
149	0x3e84bf5a	0.2592724
150	0xbd87a4e1	-0.06623245
151	0x3e98fcc9	0.2988036
152	0x3dee0c73	0.11623468
153	0x3e8c46b5	0.27397695
154	0x3c902964	0.017597862
155	0x3e6cff2b	0.23144214
156	0xbcf63b24	-0.030057497
157	0x3d3ccff7	0.04609677
158	0xbdae5dbc	-0.08513972
159	0xbde0c742	-0.109755054
160	0xbe57afe4	-0.2106319
161	0xbed18c24	-0.4092723
162	0x3d1f5ac3	0.038904916
163	0xbe1c76c3	-0.15279679
164	0xbd555681	-0.05208445
165	0x3e89154a	0.26774055
166	0x3be8dc67	0.007106352
167	0x3eea318f	0.45740935
168	0x3f1dd045	0.6164592
169	0x3d238316	0.039919935
170	0x3eaa1d52	0.33225495
171	0x3e514000	0.2043457
172	0xbebd3daa	-0.36961108
173	0x3cadcfd1	0.021217259
174	0x3e1cead8	0.15323961
175	0x3e0bafd2	0.13641289
176	0x3d7d479c	0.06183587
177	0xbb668921	-0.003517695
178	0x3dd8bd2e	0.10582958
179	0xbe2b5b86	-0.16734132
180	0x3d13b11b	0.036057573
181	0xbe0843ce	-0.13307115
182	0xbe6a960a	-0.22908798
183	0x3d44192d	0.047875572
184	0x3e299d8e	0.16564009
185	0xbc56501e	-0.013080625
186	0xbdcc005e	-0.099610075
187	0x3e5ed5f4	0.21761304
188	0x3dafb225	0.085789
189	0x3d82276a	0.06355174
190	0x3d6ac4d3	0.057316612
191	0xbdbc058f	-0.09180748
192	0xbec08f68	-0.3760941
193	0xbda51bd8	-0.080619514
194	0xbe37ead0	-0.17960668
195	0xbddddb91	-0.108328946
196	0xbca566c1	-0.020190598
197	0x3e1c7366	0.15278396
198	0xbec296c9	-0.38005665
199	0xbf39ce76	-0.7258066
200	0xbea19b43	-0.31563768
201	0xbf050e24	-0.519747
202	0xbbf03be2	-0.0073313573
203	0x3e965d70	0.29368162
204	0x3d997baf	0.07494294
205	0x3e902a27	0.2815716
206	0x3f2dcff8	0.6789546
207	0xbda55492	-0.08072771
208	0xbe80e084	-0.25171292
209	0x3e3ea448	0.18617356
210	0xbdcebf08	-0.1009503
211	0x3d72905a	0.059219696
212	0x3e9a4d9b	0.30137333
213	0x3e1f280e	0.15542623
214	0x3d6800ea	0.056641497
215	0x3e516fe3	0.20452838
216	0xbed65ba8	-0.41866803
217	0xbe8b2155	-0.27173868
218	0x3c8b0054	0.01696793
219	0xbdf4ccca	-0.11953123
220	0xbcd7b93e	-0.026333448
221	0x3ed583ea	0.41702205
222	0xbedc8c49	-0.4307578
223	0xbdaf2d4b	-0.08553561
224	0xbdc4c81f	-0.096084826
225	0xbd1a2432	-0.037632175
226	0xbdea1882	-0.11430456
227	0xbef31430	-0.4747634
228	0xbe92791f	-0.28608033
229	0xbe2750f5	-0.16339476
230	0xbf5c7e94	-0.8613064
231	0x3c9e557f	0.019327877
232	0x3d97be0a	0.07409294
233	0x3d9721ed	0.07379518
234	0x3e479300	0.1948967
235	0x3d51d0a3	0.051224362
236	0xbe6847a6	-0.22683582
237	0x3e895d40	0.26828957
238	0x3e25ac39	0.16178979
239	0x3ce81f11	0.028335126
240	0xbea7db6e	-0.327846
241	0xbe62eb63	-0.22160105
242	0xbf039698	-0.5140166
243	0x3d7fc439	0.062442992
244	0x3e98d0e6	0.29846877
245	0x3ca839cf	0.020535378
246	0x3d8d1cd4	0.06890264
247	0x3e29d6d8	0.16585863
248	0x3dbcd2a0	0.09219861
249	0xbe9b1fbf	-0.30297658
250	0x3de29f3b	0.11065527
251	0x3cb089b2	0.021550033
252	0xbe50e2ae	-0.20398971
253	0xbf01ddef	-0.5072927
254	0x3dad61ab	0.08465894
255	0xbd47c5fb	-0.048772793

conv2.bias f4 [32]
0	0x3dc85f3c	0.097837895
1	0x3e130d0c	0.14360446
2	0x3e0713d5	0.13191159
3	0x3e162d66	0.14665756
4	0x3d942839	0.07234234
5	0x3dc21fe9	0.09478743
6	0xbfb285db	-1.39471
7	0xbd0b3f00	-0.03399563
8	0x3ebd4d70	0.36973143
9	0xbead3f29	-0.3383725
10	0x3e8654fb	0.2623671
11	0xbe18cc13	-0.14921598
12	0xbd5f33d0	-0.05449277
13	0x3e355c5f	0.17711018
14	0x3d530f43	0.051528227
15	0xbdc3b4ef	-0.09555995
16	0xbd8760c2	-0.06610252
17	0xbe2fd120	-0.17169619
18	0xbd7b6d72	-0.061383672
19	0xbdd52cd0	-0.10408938
20	0xbd52f61c	-0.05150424
21	0x3d231541	0.03981519
22	0x3e057142	0.13031486
23	0x3d1bf0c7	0.03807142
24	0x3ea68778	0.3252523
25	0x3ae80bbc	0.0017703692
26	0x3b9b76ba	0.004744378
27	0xbe09b784	-0.13448912
28	0xbf1101b6	-0.56643236
29	0x3eb33f5b	0.35009274
30	0xbd3bdbbd	-0.045863856
31	0x3ec682f8	0.38771796

batch2.weight f4 [32]
0	0x3f6ec76c	0.93273044
1	0x3f854a16	1.0413234
2	0x3fb44be6	1.4085662
3	0x3f946731	1.1593992
4	0x3f7a4ef5	0.9777673
5	0x3f99ead0	1.2024784
6	0x3f9b448b	1.2130293
7	0x3f2df892	0.67957413
8	0x3f9a17f7	1.2038563
9	0x3f78c02d	0.97168237
10	0x3f97f7c6	1.187249
11	0x3f6ce801	0.9254151
12	0x3f0abc33	0.5419342
13	0x3fa6f19d	1.3042485
14	0x3f8770d3	1.0581306
15	0x3faa8b7d	1.3323818
16	0x3f4c6c89	0.7985311
17	0x3f646ab0	0.8922529
18	0x3f756cfc	0.9586942
19	0x3f4d33a5	0.8015693
20	0x3f98132f	1.1880854
21	0x3f836325	1.0264632
22	0x3f94c6f8	1.162322
23	0x3f8d09d1	1.1018621
24	0x3f7c02f1	0.9844199
25	0x3f370a19	0.7149978
26	0x3f4daf22	0.80345356
27	0x3f27e64c	0.6558578
28	0x3f8b09d5	1.0862375
29	0x3f7fe9e8	0.9996629
30	0x3f66f27d	0.9021376
31	0x3f68b22a	0.90896857

batch2.bias f4 [32]
0	0xbd8adf65	-0.067808904
1	0xbf0b1057	-0.5432181
2	0xbe865382	-0.26235586
3	0xbf0f500b	-0.5598151
4	0xbe90e681	-0.2830086
5	0xbf1970a2	-0.5993749
6	0xbec57de9	-0.38572624
7	0xbe0531ad	-0.13007231
8	0xbeedad63	-0.46421346
9	0xbe5f3b07	-0.21799861
10	0xbed40c0e	-0.41415447
11	0xbeb5407e	-0.35400766
12	0xbd43b8fe	-0.047783844
13	0xbec8cc24	-0.39218247
14	0xbea13664	-0.3148681
15	0xbef9b2f1	-0.48769334
16	0xbec0c0eb	-0.37647185
17	0xbebde9b1	-0.37092355
18	0xbed96a17	-0.42463753
19	0xbc2ab91d	-0.010420111
20	0xbec0b149	-0.37635258
21	0xbeb7e717	-0.35918495
22	0xbf157e3e	-0.58395755
23	0xbe949eb0	-0.2902732
24	0xbf0c07b2	-0.5469924
25	0xbe7aa74a	-0.24477878
26	0xbe5d1600	-0.21590424
27	0xbe8d24b8	-0.27567077
28	0xbd3dccb0	-0.046337783
29	0xbe95f9fe	-0.2929229
30	0xbea6108f	-0.32434508
31	0xbee8ecac	-0.45493066

conv3.weight f4 [32, 32, 3, 3]
0	0x3f0bd782	0.54625714
1	0x3ed439b8	0.41450286
2	0x3dfcafe3	0.12338235
3	0xbed5107e	-0.41614145
4	0xbbc6da86	-0.0060685305
5	0x3e8c5d0e	0.27414745
6	0xbecc2203	-0.398697
7	0xbe98c8ad	-0.29840603
8	0xbd91015c	-0.070803374
9	0x3e0fec96	0.14055094
10	0x3d7df06d	0.061996866
11	0xbef48415	-0.4775702
12	0xbe8bb793	-0.27288494
13	0xbd06c6f3	-0.032904577
14	0x3cb923c5	0.022600064
15	0x3d5d03f6	0.053958856
16	0x3dd16cf3	0.102258585
17	0xbead3665	-0.33830562
18	0x3d13fd32	0.036130138
19	0xbda53b7f	-0.080679886
20	0xbec4a76a	-0.38408977
21	0x3e795dd2	0.24352196
22	0x3d760d8c	0.060071513
23	0xbdcb2af0	-0.09920299
24	0x3e07378a	0.1320478
25	0x3d042f83	0.032271873
26	0xbe820e39	-0.25401476
27	0xbee21687	-0.44157812
28	0xbd210f55	-0.039321262
29	0x3eafce5b	0.34337124
30	0xbd97b1d8	-0.07406968
31	0xbec83770	-0.39104795
32	0x3f379be7	0.71722263
33	0xbea399cb	-0.31953272
34	0xbe1d7a9c	-0.15378803
35	0x3ed51c07	0.41622946
36	0x3e8d2564	0.2756759
37	0x3ee5d0c6	0.44885844
38	0x3ddd1fd7	0.107970886
39	0xbdb30933	-0.08741989
40	0x3dab3185	0.083590545
41	0xbd15d852	-0.036583252
42	0x3d4d123e	0.050066225
43	0x3d309d9e	0.043119065
44	0xbcdc5aa1	-0.026898684
45	0x3e98668b	0.29765734
46	0x3edcb600	0.43107605
47	0x3e8fb464	0.28067315
48	0xbd8a73ad	-0.06760345
49	0x3ebe2e63	0.37144765
50	0x3e74f418	0.2392124
51	0xbedade26	-0.4274761
52	0x3e242156	0.16028342
53	0xbe07b65f	-0.13253163
54	0x3ecfd492	0.40591866
55	0xbd5a6ecf	-0.05332833
56	0xbe85537c	-0.26040256
57	0x3e2d8f00	0.16949081
58	0xbdfe1c56	-0.124077484
59	0xbdaf65db	-0.08564349
60	0x3ea9f9ea	0.33198482
61	0x3ec32e3d	0.38121215
62	0x3da2f4c2	0.0795684
63	0xbe94a72a	-0.29033786
64	0xbe962e1b	-0.2933205
65	0xbf190770	-0.59776974
66	0x3e651e86	0.22374925
67	0xbe29c4bb	-0.16578953
68	0xbe94ef8e	-0.29089016
69	0xbe552c8a	-0.20817772
70	0xbd305c5f	-0.043056842
71	0x3db22369	0.0869816
72	0xbc2c29ce	-0.010508014
73	0xbea30cba	-0.31845647
74	0xbeb5a51e	-0.35477537
75	0xbc2bd1fc	-0.010487076
76	0xbce077c0	-0.027400851
77	0x3e86189c	0.2619065
78	0x3e3774b8	0.17915618
79	0x3da4ee6f	0.0805329
80	0x3e8b882a	0.27252322
81	0xbf5aef65	-0.8552154
82	0xbdb226f0	-0.08698833
83	0x3e96a054	0.29419196
84	0xbf38d151	-0.7219439
85	0xbeb0b67a	-0.3451422
86	0x3ea77b00	0.3271103
87	0xbe3f57b7	-0.18685804
88	0xbdc3dcac	-0.09563574
89	0x3d253457	0.04033312
90	0xbcdf2134	-0.027237512
91	0xbf08b06c	-0.533942
92	0x3ea1f943	0.31635484
93	0xbe5d2f94	-0.21600181
94	0xbccba995	-0.024861136
95	0x3e2d9cb4	0.16954309
96	0x3a9b0a28	0.0011828588
97	0xbe2c26f6	-0.16811737
98	0xbe1e42d1	-0.15455176
99	0x3c52b7df	0.012861221
100	0xbd5ec332	-0.05438537
101	0x3e8b4b1c	0.2720574
102	0x3e9bf8e6	0.30463332
103	0xbe0b67ca	-0.13613811
104	0xbe4dc999	-0.20096435
105	0x3e2d061d	0.16896863
106	0x3e89a1f9	0.26881388
107	0xbe637286	-0.22211656
108	0xbd5d1fa1	-0.05398524
109	0xbd7de927	-0.06198993
110	0xbe6638ed	-0.22482653
111	0xbddaa6e2	-0.106763616
112	0x3d547455	0.051868755
113	0xbe7cc351	-0.24683882
114	0xbe5df04c	-0.21673697
115	0xba47cc85	-0.00076217233
116	0xbe6a4c7b	-0.22880737
117	0xbd947ccb	-0.07250365
118	0x3cb78025	0.022399971
119	0x3e32b2c5	0.17451008
120	0x3e85dc51	0.2614465
121	0xbce8b09d	-0.028404528
122	0xbd95c87c	-0.0731363
123	0xbd8fe2ff	-0.07025718
124	0x3cba11c9	0.022713559
125	0xbec1cdad	-0.3785223
126	0xbe613b6b	-0.21995322
127	0xbea813e2	-0.3282767
128	0xbf173615	-0.590669
129	0xbe0103bc	-0.12599081
130	0xbcd67cec	-0.026182614
131	0x3da6f12d	0.081514694
132	0x3e27b1ca	0.16376415
133	0x3e5931bd	0.2121038
134	0xbdc48675	-0.09595958
135	0x3e643f17	0.22289692
136	0xbc8e1eb8	-0.017348632
137	0xbe9d7c15	-0.3075873
138	0x3e244540	0.16042042
139	0xbe986a1a	-0.2976845
140	0xbf24b313	-0.64335746
141	0xbe23e892	-0.16006687
142	0x3eaa4437	0.3325517
143	0xbeac3d9f	-0.33640763
144	0x3e266ab6	0.16251644
145	0xbd772fd7	-0.060348358
146	0xbf21d48e	-0.6321496
147	0xbc07abae	-0.008280678
148	0x3d6999d1	0.057031456
149	0x3d06a4a1	0.032871846
150	0xbe34221b	-0.17591135
151	0xbdcb872c	-0.09937891
152	0xbe38a891	-0.18033053
153	0x3d07e3e8	0.033176333
154	0xbe7fe42c	-0.24989384
155	0x3ec87000	0.3914795
156	0x3e3e26ef	0.1856954
157	0x3e5cc709	0.21560301
158	0x3e44a528	0.19203627
159	0xbe65d046	-0.22442731
160	0x3de7f692	0.113263264
161	0x3e3cc15e	0.18433139
162	0xbd978556	-0.07398479
163	0x3de72bd9	0.1128766
164	0x3ec73bfe	0.38912958
165	0x3c758b75	0.014986862
166	0xbe1d2da7	-0.15349446
167	0xbe4777e9	-0.19479336
168	0x3e05e67c	0.13076204
169	0xbee3784c	-0.44427717
170	0xbedfbc95	-0.43698564
171	0xbe8a4efa	-0.2701338
172	0x3ad6afba	0.0016379275
173	0x3e16f8a9	0.14743294
174	0xbec687c7	-0.38775465
175	0xbd151c3c	-0.03640388
176	0xbe7e98b6	-0.24862942
177	0xbea8fb2e	-0.33004135
178	0xbe916e38	-0.28404403
179	0xbe477a17	-0.19480167
180	0xbe132bb4	-0.1437214
181	0xbd858932	-0.065203086
182	0x3e80f8d6	0.25189847
183	0x3e8f4407	0.27981588
184	0xbd8cf5d4	-0.068828255
185	0x3e48346c	0.19551247
186	0x3e9d776e	0.3075518
187	0x3c57bcd6	0.013167581
188	0x3dddf291	0.108372815
189	0x3ed3242e	0.4123854
190	0x3d991b5c	0.074759215
191	0x3dd2ceee	0.10293375
192	0x3eb238ee	0.3480906
193	0xbef00eb4	-0.46886218
194	0xbe622596	-0.2208465
195	0xbde29d0c	-0.110651106
196	0x3d3e2c36	0.04642888
197	0x3e415a0d	0.18882008
198	0x3e632eca	0.22185817
199	0xbcdb2090	-0.026748925
200	0xbe83dae6	-0.25752944
201	0x3ea364e5	0.31912914
202	0x3eca741a	0.39541703
203	0x3e4973c0	0.19673061
204	0xbd8d95ea	-0.069133595
205	0x3e5a858a	0.21340004
206	0x3cc6940f	0.024240522
207	0x3e26f5c4	0.1630469
208	0xbea91496	-0.33023518
209	0xbe119094	-0.14215308
210	0xbe53bbec	-0.20677155
211	0xbe5fd8eb	-0.21860091
212	0xbccd29b9	-0.025044309
213	0xbf2b8653	-0.6700184
214	0xbd862b10	-0.06551182
215	0x3e57056b	0.2099816
216	0x3e78f983	0.24313931
217	0xbd7f92c4	-0.062395826
218	0xbf70c687	-0.9405293
219	0x3e707456	0.23481879
220	0xbe920c8d	-0.285252
221	0xbe81386f	-0.25238368
222	0xbd92a529	-0.07160408
223	0xbe18045b	-0.14845411
224	0xbd0d7739	-0.034537528
225	0x3d92a070	0.07159507
226	0xbe193901	-0.14963152
227	0xbf190b8f	-0.5978326
228	0xbe962bcb	-0.29330286
229	0x398301ad	0.00024987516
230	0xbee2f643	-0.44328508
231	0xbcb1baa9	-0.021695452
232	0x3e9f75b7	0.31144497
233	0x3e8aa64c	0.2708
234	0x3e7f0101	0.24902727
235	0x3e3332fe	0.1749992
236	0xbeaeb5a8	-0.34122968
237	0x3ef16ffd	0.47155753
238	0x3e5cece5	0.21574743
239	0xbf069b51	-0.52580744
240	0x3f040d9d	0.5158327
241	0x3d83f873	0.06443872
242	0xbe7ae93a	-0.24503031
243	0x3d82d2c1	0.06387854
244	0xbe0d7644	-0.13814646
245	0xbdc36b63	-0.09541967
246	0x3e6a570c	0.22884768
247	0x3e8daef2	0.27672535
248	0xbe1e88ea	-0.15481916
249	0xbd4527f0	-0.04813379
250	0xbe91aec1	-0.2845364
251	0xbf155602	-0.5833436
252	0xbe1dea41	-0.15421392
253	0xbe821e4a	-0.25413734
254	0x3e160717	0.14651142
255	0xbdafb612	-0.08579649

conv3.bias f4 [32]
0	0x3e79aded	0.24382754
1	0x3e730df7	0.23735796
2	0x3eedc047	0.46435758
3	0x3db2307f	0.08700656
4	0x3e25bf37	0.16186224
5	0x3dd2eb9d	0.10298846
6	0xbfe35e2f	-1.7763118
7	0x3e8bcbf4	0.2730404
8	0xbd3082ac	-0.04309337
9	0xbed23fab	-0.410642
10	0x3dc55362	0.09635045
11	0xba30811a	-0.0006733105
12	0x3f0efcc2	0.5585443
13	0x3ebdbf4f	0.3706002
14	0x3d562fe5	0.05229177
15	0x3ee23be7	0.44186327
16	0x3f269ece	0.65086067
17	0x3e25426e	0.16138622
18	0x3e921498	0.28531337
19	0x3f1a1a99	0.60196835
20	0x3f093c8c	0.5360801
21	0xbcbb23d3	-0.02284423
22	0x3e71876a	0.23586813
23	0x3f6382f9	0.88871723
24	0x3dae839c	0.08521196
25	0x3fa3ffe9	1.2812473
26	0x3ec00bf9	0.37509134
27	0x3ef55675	0.47917524
28	0x3ec59483	0.38589868
29	0x3e617681	0.22017862
30	0xbe9170d2	-0.28406388
31	0xbf254613	-0.6456005

batch3.weight f4 [32]
0	0x3f3ccc09	0.7374883
1	0x3f55fe8d	0.8359154
2	0x3f8510d5	1.0395762
3	0x3f66c02e	0.9013699
4	0x3f3f1ee4	0.7465651
5	0x3f616202	0.88040173
6	0x3fad963a	1.356147
7	0x3f4b9a84	0.7953265
8	0x3f99256b	1.1964544
9	0x3f88f857	1.0700787
10	0x3f3dcac6	0.7413753
11	0x3f40176b	0.75035733
12	0x3f69769a	0.91196597
13	0x3f8a8435	1.0821596
14	0x3f1934a7	0.59845966
15	0x3f4d2f88	0.8015065
16	0x3f6a92cd	0.9163025
17	0x3f6df368	0.92949533
18	0x3f3b7dda	0.7323891
19	0x3f57d5cc	0.84310603
20	0x3f68edec	0.9098804
21	0x3f6f4a1e	0.9347247
22	0x3f36600b	0.712403
23	0x3fcf4aa9	1.619466
24	0x3f4c922d	0.79910547
25	0x3f8a1404	1.0787358
26	0x3f6da9a4	0.92836976
27	0x3f7ff8f0	0.99989223
28	0x3f499c9f	0.7875461
29	0x3f3324e9	0.69978195
30	0x3f842d36	1.0326297
31	0x3f80b96a	1.0056584

batch3.bias f4 [32]
0	0xbe8c7afa	-0.27437574
1	0xbea1dd41	-0.31614116
2	0xbee06b0f	-0.4383168
3	0xbefc5b07	-0.49288198
4	0xbe93b377	-0.28847858
5	0xbf23d344	-0.6399424
6	0xbf35bd39	-0.70991856
7	0xbe8a1798	-0.26971126
8	0xbf582660	-0.84433556
9	0xbe880d1f	-0.2657251
10	0xbf01786e	-0.50574386
11	0xbe389d2d	-0.18028708
12	0xbea80b10	-0.3282094
13	0xbedd7f26	-0.4326107
14	0xbcb9e848	-0.022693768
15	0xbe8b5d01	-0.27219394
16	0xbed82380	-0.42214584
17	0xbed933a7	-0.4242222
18	0xbe78fc30	-0.24314952
19	0xbeb4ec71	-0.3533664
20	0xbf26d896	-0.65174234
21	0xbed7e08d	-0.42163506
22	0xbe703a56	-0.23459753
23	0xbf7d14de	-0.98859966
24	0xbf16a80d	-0.58850175
25	0xbf29a3fd	-0.6626585
26	0xbe98536a	-0.2975114
27	0xbf1def0e	-0.61692894
28	0xbe042f5d	-0.12908693
29	0xbea2c8aa	-0.3179372
30	0xbeaf541b	-0.34243855
31	0xbf6824c7	-0.9068112

conv4.weight f4 [32, 32, 3, 3]
0	0xbe0dbecc	-0.13842314
1	0x3c195b51	0.00936015
2	0x3c933027	0.017967297
3	0xbe01f6d5	-0.12691815
4	0xbd5c427f	-0.053774353
5	0xbd0ce739	-0.0344002
6	0xbdd31fa3	-0.103087686
7	0xbe095369	-0.13410725
8	0x3df78212	0.12085356
9	0x3d2c74fb	0.04210375
10	0x3d37aef0	0.044844568
11	0x3d87adb5	0.06624929
12	0xbc98ed86	-0.018667948
13	0xbdf9414f	-0.1217066
14	0x3c174930	0.009233758
15	0x3d1255d4	0.035726383
16	0xbd467ad2	-0.048456974
17	0xbd157f28	-0.03649822
18	0x3da5f661	0.08103634
19	0x3c281d36	0.010260871
20	0x3d182747	0.037146833
21	0x3d43fb20	0.047846913
22	0xbc11b7be	-0.008893905
23	0x3da462ef	0.080266826
24	0x3c8a4452	0.01687828
25	0xbd2bdeba	-0.041960455
26	0xbd07a48a	-0.0331159
27	0xbe0cc9cc	-0.13748854
28	0xbc65d7cb	-0.0140285
29	0xbd0ac220	-0.03387654
30	0xbdcaba5f	-0.09898829
31	0x3cc5017e	0.024048563
32	0xbda9f0de	-0.08297895
33	0xbe2bfca5	-0.16795595
34	0xbccf2a3c	-0.025288694
35	0x3d034480	0.03204775
36	0x3c78a151	0.01517518
37	0x3e088f56	0.13335928
38	0x3d79e1fb	0.061006527
39	0x3d9c7c35	0.07640878
40	0x3e190816	0.14944491
41	0x3d8c4979	0.06849951
42	0x3e08e23a	0.13367549
43	0x3d1a6ca7	0.037701275
44	0xbcdf3e40	-0.027251363
45	0x3e0b70b2	0.13617209
46	0x3c43c199	0.011948013
47	0x3e02d4ac	0.1277644
48	0x3dbcdb3f	0.092215054
49	0xbd7d361c	-0.06181918
50	0x39fea36b	0.0004856841
51	0x3e11e69b	0.14248125
52	0x3dcaafb2	0.098967925
53	0x3ce172e5	0.027520606
54	0xbc9faa70	-0.01949045
55	0x3cf8512b	0.030312141
56	0x3bb928ea	0.0056506293
57	0x3d74f0c5	0.05979993
58	0xbd803fc1	-0.0626216
59	0x3c9c9f62	0.019118968
60	0xbe736711	-0.23769785
61	0x3ca87f14	0.020568408
62	0x3d838090	0.06421006
63	0x3d834c83	0.06411078
64	0x3c0d7e2c	0.008636039
65	0x3d2f48ca	0.042794026
66	0x3e14ade0	0.14519453
67	0xbd41e5c3	-0.04733826
68	0xbc607827	-0.013700522
69	0x3cb09d8c	0.0215595
70	0x3c138ce8	0.009005763
71	0x3cc9dcc7	0.024641408
72	0xbe1e5a05	-0.15464027
73	0x3dbabdbd	0.09118221
74	0x3ca9105b	0.020637682
75	0xbe511b08	-0.20420468
76	0xbe0b0896	-0.13577494
77	0x3dc93a28	0.098255455
78	0xbe45bfbf	-0.19311427
79	0xbd01a81b	-0.03165446
80	0xbd6efbdc	-0.05834566
81	0xbed97fab	-0.42480215
82	0xbc8495b6	-0.016184669
83	0xbbccbeda	-0.006248337
84	0xbec25da6	-0.37962073
85	0xbcd62d53	-0.02614466
86	0xbb3e2e5b	-0.002901933
87	0xbecea645	-0.4036123
88	0x3d580444	0.052738443
89	0x3da82467	0.08210068
90	0xbba37a04	-0.0049889106
91	0x3c9942c8	0.018708602
92	0x3d88d5e1	0.06681419
93	0xbbf26767	-0.0073975804
94	0x3c8c549f	0.017130194
95	0x3e00eb9c	0.12589878
96	0xbd6d4908	-0.057930976
97	0x3d632c9c	0.055462465
98	0x3e1a9edf	0.15099667
99	0xbd9f7fb2	-0.07788028
100	0x3d03bb95	0.032161314
101	0x3cecdad1	0.028912934
102	0xbd55d9c3	-0.052209627
103	0xbd7e38b5	-0.0620658
104	0xbd38f888	-0.045158893
105	0xbdadfbf9	-0.084953256
106	0x3ca3b206	0.01998235
107	0x3d35f325	0.044421334
108	0x3d40adb5	0.04704066
109	0x3bbc2140	0.0057412684
110	0xbc2d7bc6	-0.010588592
111	0x3a4e4901	0.0007869155
112	0xbc78b6cb	-0.0151803
113	0xbd268880	-0.04065752
114	0x3db67ab0	0.089101195
115	0x3a9ee040	0.0012121275
116	0x3d863bd9	0.06554384
117	0x3d402d8d	0.04691844
118	0x3e0d7d79	0.13817395
119	0x3d08a600	0.033361435
120	0x3e08dc83	0.13365369
121	0x3deb6f75	0.11495868
122	0xbc1deb28	-0.009638585
123	0x3e0dd0d5	0.13849194
124	0x3d6c9630	0.057760417
125	0xbc96098b	-0.018315097
126	0x3dc4fe93	0.09618869
127	0x3db22776	0.08698933
128	0x3c6082d1	0.013703064
129	0x3dae94da	0.08524485
130	0x3cf0c9b7	0.02939306
131	0xbd278068	-0.040893942
132	0x3e226305	0.15858085
133	0x3ced7d2a	0.028990347
134	0x3de5cccc	0.112207025
135	0x3d2c923e	0.042131655
136	0x3d96f8f6	0.07371704
137	0x3dae9558	0.08524579
138	0x3d6a10eb	0.05714504
139	0xbdaf121c	-0.08548376
140	0x3d890dd1	0.066920884
141	0xbc3a8942	-0.011385264
142	0x3d1769a4	0.03696598
143	0x3cd41506	0.025888931
144	0x3d29b96f	0.04143661
145	0x3cf407ba	0.02978884
146	0xbdba5593	-0.09098353
147	0x3d4f6f8b	0.050643485
148	0xbd3219f5	-0.043481786
149	0xbd2d138b	-0.042254966
150	0x3db37d0c	0.08764085
151	0x3d216ea3	0.039412152
152	0xbcf4b024	-0.029869147
153	0xbe43e0f7	-0.19128786
154	0x3d2ccf44	0.04218985
155	0xbccde2be	-0.025132533
156	0xbd806ec3	-0.06271126
157	0x3c832d64	0.016012855
158	0xbd886f4c	-0.06661853
159	0xbe3513ff	-0.17683409
160	0x3d40e86e	0.047096662
161	0x3d48cc9f	0.049023267
162	0x3e1ee689	0.1551763
163	0x3d73ff9d	0.059569944
164	0x3da815fc	0.08207318
165	0x3d947cb9	0.072503515
166	0x3da0788b	0.07835492
167	0x3dc60bd8	0.09670228
168	0x3e30d3ee	0.17268345
169	0x3d9b8625	0.075939454
170	0x3dc26d13	0.094934605
171	0x3e03645a	0.1283125
172	0x3da55727	0.080732636
173	0x3de50564	0.11182669
174	0x3dc71c20	0.09722161
175	0x3dda30a8	0.10653812
176	0x3bd1f697	0.0064075696
177	0x3ddaeb9f	0.106894724
178	0x3d51c69d	0.051214803
179	0x3d1191ec	0.035539553
180	0x3d6aae7b	0.057295304
181	0xbd93be18	-0.07213992
182	0x3d78afec	0.060714647
183	0x3e012b89	0.12614264
184	0x3cbcaee2	0.02303261
185	0x3c82fc25	0.015989373
186	0x3e0d687f	0.13809393
187	0x3e20a29f	0.15687035
188	0xbcd3106b	-0.025764665
189	0xbcf28a94	-0.029607095
190	0xbdd6a46b	-0.10480579
191	0x3d12d433	0.0358469
192	0x3d6cd7a5	0.057822842
193	0xbddd0986	-0.10792832
194	0x3d6ba350	0.057528794
195	0xbde3fa8b	-0.11131772
196	0x3d9a9d61	0.07549549
197	0x3de52494	0.11188617
198	0xbd43780b	-0.047721904
199	0x3d296a1f	0.04136097
200	0xbb70c494	-0.0036738263
201	0xbd7f9de3	-0.062406432
202	0x3dafa32f	0.08576047
203	0xbc09ea89	-0.008417734
204	0xbb662512	-0.003511731
205	0xbd9ed5b9	-0.07755608
206	0x3d2eb0f4	0.042649224
207	0xbee390ae	-0.4444632
208	0xbd998c59	-0.07497472
209	0xbbbf80d2	-0.005844214
210	0xbee2a1b1	-0.44263986
211	0xbdb65b32	-0.08904113
212	0x3e100d82	0.14067653
213	0xbed8c7e5	-0.42340007
214	0xbd8c324b	-0.0684553
215	0x3d83506e	0.06411825
216	0x3c1f5eaa	0.0097271595
217	0x3d150485	0.036381263
218	0x3cffc46e	0.031221595
219	0x3d971854	0.07377687
220	0xbd983006	-0.07431035
221	0xbd277dd1	-0.040891472
222	0x3d225c0d	0.039638568
223	0xbda6154f	-0.08109533
224	0x3d834f14	0.06411567
225	0x3d2e2e44	0.04252459
226	0x3dcecb40	0.100973606
227	0x3dd5a824	0.10432461
228	0x3df7173b	0.12064978
229	0xbd1d7928	-0.03844562
230	0x3e076564	0.13222271
231	0x3d99c3b4	0.075080305
232	0x3ce22ceb	0.02760931
233	0x3cd4ba22	0.025967661
234	0xbe8121bb	-0.25221047
235	0x3da60d16	0.08107965
236	0x3ddf2fa0	0.108977556
237	0xbe3653be	-0.17805383
238	0x3e12dbe8	0.143417
239	0x3d46df1a	0.04855261
240	0xbe88740c	-0.26651037
241	0xbd0afaca	-0.033930577
242	0xbc11795d	-0.008879033
243	0x3e079834	0.13241655
244	0xbd17958c	-0.037007853
245	0xbcb6ed97	-0.022330089
246	0x3d5774d4	0.05260165
247	0xba50b754	-0.00079618883
248	0xbd46462f	-0.048406776
249	0x3d979771	0.07401932
250	0x3d865e0f	0.06560909
251	0x3d6fc07d	0.05853318
252	0xbd499d0a	-0.04922203
253	0xbd9c8a76	-0.07643597
254	0x3d50e3c6	0.05099847
255	0x3da53344	0.08066419

conv4.bias f4 [32]
0	0xbc7d4d36	-0.015460303
1	0x3f62bcaf	0.8856916
2	0x3cfe3186	0.031029474
3	0x3c3bbf45	0.011459176
4	0x3ec01c35	0.3752152
5	0xbc41d2b2	-0.011830019
6	0x3ea47f53	0.3212839
7	0xbd0ddb8d	-0.034633208
8	0xbc836c34	-0.016042806
9	0x3c93705b	0.017997911
10	0x3ed94d61	0.42441848
11	0x3e53003a	0.20605555
12	0x3e9fed16	0.3123557
13	0x3ee2c91f	0.44294068
14	0x3e1364e1	0.14393951
15	0x3daed3d6	0.08536498
16	0x3edc3f55	0.43017069
17	0xbb831da2	-0.0040013352
18	0x3c7b76ab	0.015348117
19	0x3d446c1a	0.047954656
20	0x3eb0907e	0.3448524
21	0x3e44cdff	0.19219206
22	0x3dbcbf75	0.09216205
23	0xbd1ba64f	-0.0380004
24	0x3d57ec4c	0.052715585
25	0x3f47f775	0.78111964
26	0xbd4d0a04	-0.05005838
27	0x3d4f5840	0.05062127
28	0x3d4a93ad	0.04945724
29	0x3cf706ca	0.030154604
30	0x3ed4d785	0.41570678
31	0x3cd80306	0.02636863

batch4.weight f4 [32]
0	0x3ea1100a	0.3145755
1	0x40bd3f10	5.913948
2	0x3f4797d6	0.7796606
3	0x3eb61bc8	0.3556807
4	0x408c57bf	4.385711
5	0x3ecb51f1	0.39710954
6	0x40867516	4.2017927
7	0x3ebd2edd	0.36949816
8	0x3ede007e	0.4335975
9	0x3f803203	1.0015262
10	0x409c363a	4.8816195
11	0x40409d3f	3.0095975
12	0x404c2705	3.1898816
13	0x4088175c	4.2528515
14	0x4043f45b	3.0617893
15	0x3fd8425c	1.6895251
16	0x40a49ebf	5.144378
17	0x3e9fae2b	0.31187567
18	0x3eb2ebeb	0.34945616
19	0x3e925053	0.28576908
20	0x406b0d16	3.6726737
21	0x406c4e9a	3.6922975
22	0x404944b0	3.1448174
23	0x3ec43ec9	0.3832915
24	0x3f49bd01	0.7880402
25	0x403f53f3	2.9894989
26	0x3ed02649	0.4065421
27	0x3f3790e0	0.71705437
28	0x3ec5c908	0.38629937
29	0x3fb12ae2	1.3841212
30	0x40801ef8	4.0037804
31	0x3f7caf19	0.9870468

batch4.bias f4 [32]
0	0xbf2d5bc8	-0.6771817
1	0xc0871e28	-4.222431
2	0xbfade90d	-1.3586746
3	0xbf21d461	-0.6321469
4	0xc01e97f6	-2.478025
5	0xbf52094a	-0.82045424
6	0xc050c951	-3.2622874
7	0xbf30e066	-0.69092405
8	0xbf50d1d5	-0.8157018
9	0xbfc79c02	-1.5594485
10	0xc0525454	-3.286397
11	0xc00663c2	-2.0998387
12	0xc020d989	-2.5132773
13	0xc04e333a	-3.2218766
14	0xc0153a6d	-2.331691
15	0xbffa4c76	-1.9554584
16	0xc01f02be	-2.4845424
17	0xbf2c6b01	-0.67350775
18	0xbf33c450	-0.70221424
19	0xbf2cda18	-0.67520285
20	0xc034512d	-2.8174546
21	0xc00a352f	-2.159496
22	0xbffd8cc5	-1.9808584
23	0xbf37992c	-0.71718097
24	0xbfae393c	-1.3611217
25	0xbfaa9379	-1.3326255
26	0xbf5d2a8c	-0.86393046
27	0xbf8e22fe	-1.1104429
28	0xbf37f5ad	-0.71859246
29	0xc0090b03	-2.141297
30	0xc0724b5a	-3.785849
31	0xbfc6fc99	-1.5545837

lin1.weight f4 [5, 800]
0	0xbd111d44	-0.0354283
1	0xb9e43241	-0.0004352499
2	0xbccf0231	-0.0252696
3	0xbc970b11	-0.018437894
4	0xbd011e75	-0.031523187
5	0xbcb7fdd1	-0.022459896
6	0xbd05bdad	-0.032651592
7	0x3b5e1fb9	0.003389342
8	0xbc99cdc1	-0.018774869
9	0xbcec7778	-0.02886556
10	0xbe0c2354	-0.13685352
11	0xbb2e8d4c	-0.0026634512
12	0x3d25025d	0.040285457
13	0xbd8c1128	-0.0683921
14	0xbce73dd9	-0.028227733
15	0xb66ba326	-3.5112694e-06
16	0xbdbb2278	-0.09137434
17	0x3c251f14	0.01007821
18	0xbd591835	-0.0530016
19	0x3b1fe853	0.002439995
20	0xbca95929	-0.020672398
21	0x3c5aea18	0.013361476
22	0xbd364b56	-0.04450544
23	0x3cc720d0	0.024307638
24	0xbbbe3a4f	-0.005805291
25	0xbb6618e7	-0.0035110058
26	0xbc82dcc6	-0.015974414
27	0xbb471adb	-0.0030380997
28	0xbb288f4a	-0.0025720173
29	0x3c83f80e	0.016109493
30	0xbb404a3e	-0.0029341127
31	0xbbdfe8e9	-0.006833185
32	0x3b324a82	0.0027205055
33	0xbb8af1d0	-0.004240252
34	0x3c71d8b8	0.014761142
35	0x3c3cb6ff	0.011518239
36	0xbbbe0daf	-0.005799971
37	0xbc1c453e	-0.009537993
38	0x3c47e5fe	0.0122008305
39	0x3c07a9e0	0.008280247
40	0xbc8752cf	-0.016518978
41	0xbbb74d14	-0.005593905
42	0xbc4eca55	-0.012621482
43	0xbc83f1b6	-0.016106468
44	0xbbd69d56	-0.0065495176
45	0x3b2f2763	0.0026726357
46	0x3b22382a	0.0024752715
47	0xbb56d556	-0.0032780967
48	0xbc02474f	-0.007951572
49	0xbbe08267	-0.0068514827
50	0x3d4b884a	0.049690522
51	0x3c044fb9	0.008075648
52	0x3cd54194	0.026032247
53	0x3d1f51f5	0.03889652
54	0x3c3e13f9	0.011601442
55	0x3cd60825	0.02612693
56	0xbe4701ef	-0.19434331
57	0xbe2df952	-0.1698964
58	0xbe6bdca5	-0.23033388
59	0x3d5d8821	0.0540849
60	0xbe879534	-0.2648102
61	0xbe211b0b	-0.15732972
62	0xbd8ef7de	-0.06980871
63	0xbdd6feab	-0.10497793
64	0xbd91475a	-0.07093687
65	0xbe7493a8	-0.23884451
66	0xbd1dab1b	-0.038493257
67	0xbe32ee6e	-0.17473766
68	0xbe20dd46	-0.15709409
69	0xbcf6c5d9	-0.030123638
70	0xbd75ef43	-0.06004263
71	0xbe08ffd2	-0.13378838
72	0xbe10a65d	-0.14125963
73	0xbe18c1b9	-0.1491765
74	0xbe0d68fd	-0.13809581
75	0xbda966c1	-0.08271552
76	0x3892310c	6.970958e-05
77	0xbc717246	-0.014736718
78	0x3d0a361d	0.033743013
79	0xbc2ee64b	-0.010675023
80	0xbca0182c	-0.019542776
81	0xbd79e25e	-0.061006896
82	0xbca620f6	-0.020279389
83	0xbda1824f	-0.078861825
84	0xbde1666c	-0.110058635
85	0x3d0a7b99	0.03380928
86	0xbc9e6282	-0.019334082
87	0x3d3c2f32	0.045943446
88	0xbcf0f38c	-0.029413007
89	0xbdd0502f	-0.10171544
90	0xbcf3a7f7	-0.029743178
91	0xbc108a29	-0.008822002
92	0xbc652d2d	-0.0139878215
93	0x3b212534	0.0024588825
94	0xbc5217db	-0.01282307
95	0x3bb8debf	0.005641788
96	0xbb14fed3	-0.0022734895
97	0xbd01a70f	-0.03165346
98	0xbc45e2ab	-0.012077968
99	0x3d9c95b8	0.07645744
100	0x3be68e96	0.0070360405
101	0xbc61bf8e	-0.01377858
102	0x3a0e5619	0.00054296997
103	0xbc6fcc31	-0.014636085
104	0x3b9bb2ac	0.004751524
105	0x3b515f87	0.0031947808
106	0x3ad2cb1a	0.0016082257
107	0xbc935761	-0.017986001
108	0xbbf31e5e	-0.0074193915
109	0xbcd32db5	-0.02577863
110	0x3c5dcc45	0.013537471
111	0xbba626bb	-0.005070535
112	0xbc572403	-0.013131144
113	0xbc480c84	-0.012210015
114	0xbc0380bf	-0.008026301
115	0x3bd6d89b	0.006556583
116	0xbc7d763b	-0.015470083
117	0xba4c0d97	-0.00077840075
118	0x3bef53e5	0.007303702
119	0xbc877a0a	-0.016537685
120	0xbb8e34f7	-0.00433981
121	0xbc0fa9d7	-0.00876852
122	0xbbe8db16	-0.007106195
123	0xbc144554	-0.009049732
124	0xbce2ca35	-0.02768431
125	0x3ccd7998	0.025082394
126	0xbd4cfbf3	-0.050044965
127	0xbdc4fa60	-0.09618068
128	0xbd3a65ed	-0.04550736
129	0xbba7fdd4	-0.005126694
130	0xbd46146d	-0.048359323
131	0xbe114a5f	-0.14188527
132	0x3ca1f0ba	0.019768108
133	0xbdb4ebcf	-0.088340394
134	0xbd3a57ba	-0.04549382
135	0x3a6afc10	0.0008963952
136	0xbda18536	-0.07886736
137	0xbce46c06	-0.02788354
138	0xbd68dbc8	-0.056850225
139	0xbded2855	-0.11579958
140	0xbccca2e7	-0.024980022
141	0x3ce058ed	0.027386153
142	0x3dfe909f	0.12429928
143	0xbd63f14b	-0.055650037
144	0xbd7cb1c7	-0.06169298
145	0xbaf0a02a	-0.001835828
146	0x3d1f712f	0.0389263
147	0x3db02e9d	0.08602641
148	0xbd0be9c2	-0.034158476
149	0xbcb7d70e	-0.022441413
150	0x3c32a190	0.010902777
151	0xbbc6c61d	-0.0060660974
152	0x3a238699	0.0006238013
153	0xbab29929	-0.0013625968
154	0x3c987234	0.018609144
155	0x3c89e69d	0.016833598
156	0xbc1237db	-0.00892445
157	0xb73d6a44	-1.129002e-05
158	0x3c111b29	0.008856573
159	0x3b2968a2	0.002584972
160	0x3b702cab	0.0036647718
161	0xbba7bcbd	-0.005118935
162	0xbb7203e2	-0.0036928584
163	0xbbb4e9a7	-0.0055210176
164	0xbc503a0c	-0.012709152
165	0x3b99b737	0.0046910304
166	0xbbf3386d	-0.007422498
167	0x3b88a4b9	0.004170027
168	0xbc1326ab	-0.008981387
169	0x3c524f78	0.01283633
170	0x3d206bb0	0.0391652
171	0xbc02b174	-0.007976878
172	0x3c25661c	0.010095146
173	0xbc3ca933	-0.01151495
174	0x3c712e04	0.014720444
175	0xbcceb679	-0.025233494
176	0xbaa52104	-0.001259834
177	0xbcac6d65	-0.021048257
178	0x3c80ee60	0.015738666
179	0xbc4573da	-0.012051547
180	0x3b84850a	0.00404418
181	0xbbf66d3e	-0.007520347
182	0xbb2f9e78	-0.0026797336
183	0xbb81c653	-0.0039604097
184	0xbc9b7a08	-0.018979087
185	0xbc84c32b	-0.016206345
186	0x3c9829a5	0.018574545
187	0xbc42cd17	-0.011889718
188	0xbc93d09c	-0.018043809
189	0x3c945dce	0.018111136
190	0x3ce7ac8d	0.02828052
191	0x3b8a77f0	0.0042257234
192	0xbca57f43	-0.020202285
193	0xbd013d2f	-0.03155249
194	0x3b7fac6f	0.003901269
195	0xbc978379	-0.018495308
196	0xbbf7a3ee	-0.0075573837
197	0x3c18e251	0.009331302
198	0xbb1dc3b6	-0.0024072952
199	0xbc588abc	-0.013216671
200	0xbd0f7fb5	-0.0350339
201	0xbc3e5962	-0.01161799
202	0x3bcfcbdc	0.0063414406
203	0xbbb55573	-0.005533868
204	0xbd0afb05	-0.033930797
205	0x3cfceb75	0.030873993
206	0xba2e32c4	-0.0006645138
207	0x3c5b5d51	0.013388948
208	0xbbccf701	-0.006255031
209	0xb9093ba9	-0.00013087563
210	0x3d36735e	0.044543616
211	0x3c9f18fc	0.019421093
212	0xbcc8c56a	-0.024508197
213	0xbce7e221	-0.028306069
214	0x3c7ecc20	0.015551597
215	0xbd4f8589	-0.05066446
216	0x3d5d3084	0.054001346
217	0xba0be4c4	-0.0005336518
218	0x3c87412e	0.016510572
219	0x3d4cbb2f	0.0499832
220	0xbd81a9a7	-0.06331187
221	0x3ad30232	0.0016098677
222	0xbc2ec5f6	-0.010667315
223	0x3c858f32	0.016303632
224	0xbca460fd	-0.020065779
225	0x3d924a73	0.07143106
226	0x3de8a9ec	0.11360535
227	0xbddeb5d0	-0.10874522
228	0xbe8a4892	-0.27008492
229	0xbd452ffa	-0.048141457
230	0x3d1daf49	0.038497243
231	0xbc06a377	-0.008217684
232	0xbb663e02	-0.0035132174
233	0xbc95dc97	-0.018293662
234	0xbd0997b7	-0.033591952
235	0xbdccebb3	-0.100058936
236	0xbdc23c24	-0.09484127
237	0x3da44e93	0.08022799
238	0xbe1953e7	-0.14973412
239	0xbdcf38fd	-0.101182915
240	0x3d8197d5	0.06327788
241	0xbd4c6de1	-0.049909476
242	0x3d22e6c4	0.039770856
243	0xbe362bd4	-0.17790157
244	0xbd95ec46	-0.07320456
245	0x3d00d525	0.03145327
246	0xbd346c0b	-0.04404835
247	0xbda3c6c3	-0.07996895
248	0xbe107257	-0.14106117
249	0x3cadb692	0.02120522
250	0xbbce8108	-0.006302003
251	0x3c2e3e2a	0.010634938
252	0xbc78c2be	-0.015183149
253	0x3af06fd0	0.001834387
254	0xbc846565	-0.01616163
255	0x3bf542af	0.007484756

lin1.bias f4 [5]
0	0xbcab3034	-0.020897008
1	0xbcff3389	-0.031152504
2	0xbc484dde	-0.012225596
3	0xbc5cf18a	-0.013485322
4	0xbc4ac723	-0.012376579
