results_auto/01_domain_adaptation/maml_supervised/June_14/officehome_maml_order_2_seed_0_shots_1_ways_5_meta-lr_0.0001_dropout_0.1_RandAugment-prob_0.5_pre-train-wts_datetime_13_06_2021_17_37_42/intermediate_7000_model.pt (torch, 412181 bytes, 54 tensors)

conv1.weight f4 [32, 3, 3, 3]
00000000: 50ad e03e 95cc b33d 229d d2bd 7cf6 8cbd
00000010: 71fe 3ebe fa9e 24be a839 033e 3280 183d
00000020: d693 1fbe abdb e53c 6252 4ebe 1f8f 973d
00000030: 2297 afbe 6a84 12be 737c cebc 03ed 0dbc
00000040: 612f 043e 7611 8d3e b6c2 54bf 241e eebe
00000050: 1015 203e b5ef 93be ae72 973d d407 0b3f
00000060: 22dc 16be 549d a23e 6418 463f abf5 803d
00000070: e404 a73c 172c a83e 44bd 14be e3b6 5b3e
00000080: 27c1 a43e 55ea f4be e47b fcbe 6788 dbbd
00000090: 6bd7 debd adcb 693e 6a9a b33e fa81 4cbe
000000a0: 0a40 0fbd a73d 063e df7f fcbe 3512 13bf
000000b0: 14b2 81be b216 003e a202 ac3e a006 ff3e
000000c0: c9de 61be ba70 c03c 9620 b73e 559c 02bc
000000d0: 3ef9 13be 8535 893c 1607 c03e cc15 bc3d
000000e0: 64c5 8b3e ca89 8fbe 8db1 9cbe e08a bebe
000000f0: 7ead 58bd 8b43 7abd 1958 d4bd c1a1 c03e
00000100: f577 a63e cc34 133e e111 823b 8118 cfbc
00000110: 5021 1cbe 0585 3d3d fbcd 9ebe 151e 1cbe
00000120: d7b6 f53e 6229 ef3e a020 0d3f 2885 313e
00000130: c661 14bd f02d b0be 75be 77be 53e4 e4be
00000140: 5846 b6be 0790 fe3e 9126 bb3e fde3 75bd
00000150: d236 15be b22c bfbe 0f75 dabe 2988 933d
00000160: bad7 2e3e 2ed9 92bd c6c9 db3e cf62 e83e
00000170: c0d4 d93e 5c57 62be e82d 07bf 9126 febe
00000180: 978f cd3d 765a dd3d 9762 06be 7ea7 253c
00000190: 2c11 cf3e 23fb 013f e3c0 f0be 1972 c4be
000001a0: c38d abbe 7ca1 91bd 723a 3dbd 59ba 963d
000001b0: af9e 42bd e882 be3d 5e3f 6bbd 9112 e03d
000001c0: 5702 e3bd 53da 323e 41ff c53c 7bb5 79be
000001d0: 993b 13be 2c96 2b3e 471d ac3e beea 413e
000001e0: cbd6 2a3e 7621 263e 0e64 0bbd 195b 06be
000001f0: 9c29 9cbe 33f0 98be 5cab 8dbf 2044 d23d
00000200: e2eb 35be 258b 5dbf 5877 993e 12b2 c23c
00000210: d777 b9bf 66a6 673e d277 6ebe e79e 60be
00000220: c57e ffbc 3b8c 46be f605 e53d 1cf6 733e
00000230: b121 9b3e 0cb2 d23e 3be6 1c3f c189 4e3e
00000240: c54d d0be 64f2 cfbd 5806 a53c a395 b4be
00000250: f39e c8be c6fe a1be b652 0ebf 2e96 babe
00000260: bd22 acbe b672 cd3e c95b 013f f0e1 3ebc
00000270: e164 913e 7a9a c43c 9d52 f33d dd35 76bd
00000280: 9fbd a03d 5fc3 d8bd 6c25 1dbf d6d3 90be
00000290: 71f0 44be 3ab2 acbd 1987 d23d 79de 4d3e
000002a0: f125 1dbc 402b ed3e 759b 013f dfb1 c7be
000002b0: b2f7 593e aef7 e83a a562 aebe c79c 8f3e
000002c0: 6326 3c3a bc9a 89be 626c ab3e d7bd 2bbe
000002d0: d565 203e 80b4 cc3e e2ff cc3e edcc 2abd
000002e0: fe14 873e 598a 683d 7ec4 dcbe 74d1 e2bd
000002f0: 98e0 e0be 23c4 6a3d 4db9 bf3e 4995 573e
00000300: b844 21bf 73bf 67be b30b 10bf 96e3 073d
00000310: 0a83 603e 94c2 6c3e ed93 35be b7ea 853e
00000320: 42ff 633d 2140 cdbe c054 b3be 3a01 1dbf
00000330: 0a54 f93d e9dd 223f 27f9 343e b1c7 303e
00000340: 54e0 743e 5df6 853d 9a8e a7be a8d8 80be
00000350: 4d81 b5be 260e 923e e9be d43e f5b6 813e
00000360: 5656 4dbe 3a09 e9be eb33 183f 1b37 cbbe
00000370: 6cbd 92be 3c97 0d3f f4bd 06be 5f73 55be
00000380: 513b a53d 0743 853e 87da 02bf 26de e13d
00000390: 697b 743c f238 42be 7701 4c3e 3c06 8f3e
000003a0: 9126 00bd c0e0 af3e 30cd 9a3e de51 c4be
000003b0: 4083 9a3e cc22 29be 291e 93be ac73 3a3e
000003c0: 903b 583d 9513 2ebd a1fc 2fbd 9a72 b43e
000003d0: 3e54 bb3e f758 f5bd 0ac7 063f cb67 bf3d
000003e0: fa3b 83bd ecaf b13e 745e 32bc d207 993c
000003f0: 0da3 913e 62d2 c9bd 3115 8cbe 7c9d 69bd
0.43882227 0.08779255 -0.10283877 -0.06882951 -0.18651749 -0.1607627 0.12814963 0.03723163
-0.15583739 0.028058847 -0.20148614 0.07400345 -0.34294993 -0.14308324 -0.025205826 -0.008662465
0.12908699 0.27552384 -0.83109605 -0.4650737 0.15633035 -0.2889382 0.0739492 0.5430882
-0.14732412 0.31760657 0.7738097 0.062968574 0.020388074 0.32846138 -0.14525324 0.21456484
0.32178614 -0.4783503 -0.4931327 -0.10719376 -0.108809315 0.22831602 0.35078746 -0.19971457
-0.03497318 0.13109456 -0.49316308 -0.57449657 -0.25331175 0.12508658 0.3359576 0.49809742
-0.22057642 0.023491252 0.3576705 -0.007971843 -0.14450547 0.016749153 0.37505406 0.09183845
0.27299035 -0.28034812 -0.3060421 -0.37215328 -0.05289983 -0.06109957 -0.10368366 0.37623408
0.32513395 0.14375609 0.0039694165 -0.025280239 -0.15247083 0.046269435 -0.31016526 -0.1524585
0.47991058 0.4671126 0.55127907 0.17335951 -0.036226057 -0.34410048 -0.24193747 -0.44705448
-0.35600543 0.4971926 0.3655286 -0.06003188 -0.14571694 -0.37338787 -0.42667434 0.07203705
0.1707448 -0.0717033 0.42927378 0.45387885 0.42545128 -0.22103637 -0.5280442 -0.496388
0.10037153 0.1080827 -0.13123547 0.010110734 0.4044279 0.5077383 -0.4702216 -0.383683
-0.33506593 -0.07110879 -0.046198316 0.07359762 -0.047514614 0.09302312 -0.05743348 0.10941041
-0.11084431 0.17466097 0.024169566 -0.24385636 -0.14378203 0.16756505 0.33616087 0.18937203
0.166835 0.16223702 -0.034030966 -0.13120688 -0.30500495 -0.29870757 -1.106792 0.102669
-0.17765763 -0.8654044 0.29973865 0.023766551 -1.4489697 0.2262207 -0.23287895 -0.21935616
-0.031188378 -0.19389431 0.111827776 0.23824352 0.30299142 0.41151464 0.61288804 0.20169736
-0.40684333 -0.10153654 0.020144626 -0.35270414 -0.3918377 -0.3163969 -0.55594957 -0.36442703
-0.33620253 0.4012658 0.5053068 -0.011650547 0.28397277 0.023999441 0.118809916 -0.06010996
0.07848667 -0.10584139 -0.61385226 -0.28286618 -0.19232346 -0.084324315 0.10279674 0.20104398
-0.0095915655 0.4632206 0.50627834 -0.39002892 0.21285895 0.001777401 -0.34059635 0.280493
0.0007177351 -0.26875865 0.33481127 -0.16771637 0.15663846 0.3998146 0.40038973 -0.04169934
0.26383203 0.056772564 -0.43118662 -0.11075106 -0.4392135 0.057315957 0.3744606 0.21053042
-0.6299548 -0.22631626 -0.5626785 0.033176027 0.21924987 0.231211 -0.1773221 0.26155636
0.055663355 -0.4008799 -0.35025597 -0.61329997 0.12174232 0.6361986 0.17673169 0.17263676
0.239137 0.06541131 -0.32725984 -0.25165296 -0.3545021 0.2852642 0.41551903 0.25334898
-0.20052466 -0.45514852 0.5945422 -0.3969048 -0.28660142 0.5530889 -0.13158399 -0.20844792
0.08067954 0.260277 -0.51114696 0.110286996 0.014922001 -0.18967035 0.19922434 0.27934444
-0.03128678 0.34351158 0.3023467 -0.3834371 0.3017826 -0.1651718 -0.28733948 0.18208188
0.05279118 -0.042499144 -0.042965535 0.35243684 0.3658771 -0.11979859 0.5264746 0.09345969
-0.06407924 0.3470453 -0.010886777 0.018680487 0.2844471 -0.098545805 -0.27359918 -0.057034954

conv1.bias f4 [32]
00000000: 7dee bdbd 30b9 c5bf ccef 8c3d b69c 72be
00000010: 911f 38bf abac dac0 6862 16bd 0042 74bd
00000020: 9de9 96be 5393 513e edc1 96be ea0d 16bd
00000030: 5c01 603f b902 d2bf 5d5f 53be fc49 1bbe
00000040: 5da6 2dbd 2b59 94be 743f 57be 1496 63c0
00000050: 2245 803f 1497 273d 7cbe 973d f1bd e83d
00000060: 8a6f 24c1 c8b5 6d3e 3f0a 2bbe 72ef 92bd
00000070: 67e9 873e 8557 e8be 142c 2bc0 9a52 963d
-0.09274004 -1.544714 0.06881675 -0.23692593 -0.71923167 -6.8335776 -0.03671494 -0.059633255
-0.29475108 0.20466356 -0.2944483 -0.036634363 0.87502074 -1.6407081 -0.20641847 -0.15164942
-0.042394985 -0.2897428 -0.21020299 -3.556035 1.0021098 0.040915564 0.07409379 0.113643534
-10.277231 0.23213875 -0.16703127 -0.07174577 0.2654526 -0.45379272 -2.6745653 0.07339974

batch1.weight f4 [32]
00000000: 84cc 9e3f 99db 813f b825 2c3f cd3d 973f
00000010: 0143 783f 3188 663f 3158 833f 7982 883f
00000020: 626b 473f 2be9 873f da86 a53f c36d 5c3f
00000030: d11a 683f 299c 223f 9fae fc3e 9ffa 6a3f
00000040: e141 453f 3304 893f 8d0c 9c3f 9651 223f
00000050: 5c48 443f b91e 753f 3a0a 703f 216f 953f
00000060: 573f 663f f28b 8e3f b639 b63f 3f8a 733f
00000070: 08ba b03f 9273 063f 3dff 2e3f f784 103f
1.2406163 1.0145141 0.67245054 1.1815735 0.9697724 0.9005156 1.0261289 1.0664817
0.7789823 1.0618032 1.2931778 0.86104983 0.9066592 0.6351953 0.49351975 0.9178867
0.7705365 1.0704406 1.219133 0.6340574 0.7667291 0.95750004 0.93765604 1.1674539
0.899404 1.1136458 1.4236362 0.9513282 1.3806772 0.52520096 0.6835821 0.5645289

batch1.bias f4 [32]
00000000: 5c9c 413f 081d 2fbf 60a3 6a3f 5088 723d
00000010: f936 05bf b8db 6b3e 71ec bc3f 8bf5 393f
00000020: a516 2c40 e18c 923d e467 8b3f 400a f2be
00000030: 28fe 19be 0173 43be e652 793d 2347 17bf
00000040: d9a7 e5bc ead7 c7bd c4f2 3dbf 59ac 66be
00000050: 6692 15bd 46f4 373e 1c53 6d3d 11b2 f73d
00000060: 3ab7 983e 1f9e 3cbd 0b73 ab3e 8e11 3c3d
00000070: c140 9dbd 25e1 bc3d 4f9a c93f 61b8 07bd
0.7562921 -0.68403673 0.9165554 0.05921203 -0.52037007 0.23033035 1.4759656 0.72640294
2.688882 0.07155777 1.089108 -0.47273445 -0.15038359 -0.1908684 0.060870074 -0.5909292
-0.028034138 -0.09757979 -0.74198556 -0.22526683 -0.03651657 0.17964277 0.057940587 0.1209451
0.2982729 -0.046049234 0.33486208 0.04591518 -0.076783665 0.092226304 1.5750216 -0.03313482

conv2.weight f4 [32, 32, 3, 3]
00000000: 49a8 eabd c08d 263e 873f 003d 22be d0bd
00000010: aacf a63e 0ea3 fe3e 26bf 14bc ef4c 553e
00000020: d3d1 f73d 573a 633d 9096 3ebe 165b 5e3d
00000030: 2092 283d deef c2bc 0a9a 0b3f 56d4 5ebe
00000040: f972 73be 62ce f53d 66ed 2ebf 7124 1fbf
00000050: 28da fbbe 1ab2 edbe 6091 7fbe 6cb1 67bf
00000060: f15b d03d 77f8 ed3d 3196 ae3e 7b53 cc3e
00000070: d60d 253e 311a acbe 7cbf ffbd 8f18 1ebe
00000080: c49e 51bf 3c6d ee3d 826c f7bd 01bb 8abe
00000090: 4cbf 973e 9d7b 203e 5d3a 193d 4a4e 783e
000000a0: dd93 c53d e3b4 cf3a 1c17 c03d 2a50 0bbe
000000b0: 8279 29bd e183 2fbe af95 6bbe 338a 10be
000000c0: a0e8 93bc 5c9d 67bd 7158 e93d 1e26 1f3e
000000d0: dbf6 093d 1278 143e 867c 843d 023e 97bd
000000e0: 93ab eabd 92bb 223e fd00 eb3c 3185 7b3d
000000f0: 657e 363e d349 91bd 01bd 743e b546 0e3e
00000100: 6c7f a43d 1f5c 3bbe b027 293e c58f 83ba
00000110: 68aa 06be 0d2c 6d3c a9f9 633e 02d8 2abd
00000120: 960c 1cbe 6937 6f3e a21d 913e 1e37 6bbe
00000130: be60 623e 0156 d33e 6a02 00bf 3c1d 37be
00000140: 54c7 883b 43d9 5fbe e63b 2dbf 0c02 a0be
00000150: 8965 b0be f89b 93be 8064 793e c686 853b
00000160: 6038 e63b 7f29 fb3e e38c 81be 872b 25be
00000170: f2bf 683d 2b42 38be 92bc 393e a4f1 2e3e
00000180: 7c2d 0ebe ed12 e7be 92e3 9fbe a1e8 06bf
00000190: 2b04 1fbe 70b0 6abe 263e b4be c1d0 9b3e
000001a0: fded f83d 0637 9dbe eb3b d93e f112 763e
000001b0: 4467 bcbe 8c63 83be 0131 63be 7397 653e
000001c0: 9ca8 983e 934c 183c 0d71 5cbe f7f9 3c3c
000001d0: a23c b63e 9061 a93d 892f 79bd 7b57 3fbb
000001e0: b47c 643d c6e5 fbbd 43a2 8ebe 2b27 1c3e
000001f0: 71c0 b43c a948 c0be c290 02bf 307a f7be
00000200: 0633 4cbe 617c 8abd 8272 e6bd 2682 643e
00000210: ef0c 143e 5e84 5b3e c113 f83e 3956 4d3e
00000220: 2eb3 a8be 5fbf a93c 3cd2 b93e acae c43d
00000230: 51e6 6a3d 34b6 643d d6a3 8bbe bb64 7dbe
00000240: d4d2 22bf 81b1 16be cc96 b0be 5a92 11bc
00000250: 9439 023f 3b8c 5f3e 629c 94bd 55c6 8b3e
00000260: a814 7f3e 8a79 853e 728a c83c fcfa a33e
00000270: c8c7 c63d d3d9 d93c 1849 acbd a4f6 0ebe
00000280: b5d6 40be 56db b8be f39f 8ebc eeae 7cbe
00000290: 8519 08be 65a7 8b3e f41b 823b 2f11 bd3e
000002a0: 2527 073f 5e56 353d eba9 c53e fb0f 483e
000002b0: ce4a a4be cd1b 5fbc 3a5b f43d fb49 9b3d
000002c0: 9b2b 213d 4b2b 983c b7de 1b3d 07ff 65be
000002d0: bbfc 3b3c 0084 afbd 6dfd 70be 212c 3a3d
000002e0: 6c16 663e e2b7 fe3d 2d19 453c 4b61 4a3e
000002f0: bb49 bd3d d52a 213e d5e6 e53d fde0 f73b
00000300: b3a4 b5be b54e 1ebe cd2f 33be de4c 22be
00000310: 2c6d 4c3d 3f0f 153e 5374 89be 3d6e 29bf
00000320: e7aa 86be 77a6 d3be 07f1 8e3d f0ac bf3e
00000330: 7faf 653d 4207 7f3e 33ac 403f c317 febd
00000340: bbec 8bbe c38b 563e 6420 9fbd ae24 823c
00000350: ba68 1c3e 8fd6 d93d 2d69 b63b e357 c03d
00000360: f5e8 b5be 0af3 06be 99d7 eb3d 2ab8 47be
00000370: 9cc3 2e3d 07fd df3e b7fc dabe 7a88 09be
00000380: 6bf7 60bd b8d2 3e3c d594 3abe c52c e8be
00000390: 8ebf 67be d6e3 31be 27e1 4dbf 04de f23c
000003a0: 64ad b73d 3ef4 e63d f436 593e 2f67 f53b
000003b0: d5bf a3be f49c 8c3e 4aaa 103e 9638 9a3d
000003c0: 5190 bcbe 8d7d 6ebe 8e34 07bf 09cb b93d
000003d0: e77f a33e 3e2c da3d 6e14 8ebd ae2a 0d3e
000003e0: edb8 0e3d 7b82 a1be 9f48 283d 1f77 23bd
000003f0: 8650 21be e02c c2be d4cc f73d 314a 453c
-0.11457879 0.16265011 0.031310584 -0.10192515 0.3258031 0.49733776 -0.009078776 0.20830129
0.12100568 0.05547556 -0.18612123 0.054286085 0.04115498 -0.023796018 0.5453192 -0.21760687
-0.23774327 0.12002255 -0.6833099 -0.6216498 -0.49189878 -0.46424943 -0.249578 -0.905051
0.101737864 0.116196565 0.34098962 0.3990744 0.16118559 -0.33613732 -0.124876946 -0.15439056
-0.8188288 0.116419286 -0.12081243 -0.27095798 0.29638135 0.15672155 0.037409175 0.24248615
0.09647343 0.0015846755 0.09379408 -0.13604799 -0.041375645 -0.17140152 -0.23006319 -0.14115219
-0.01805526 -0.056546554 0.11393822 0.15541884 0.033682685 0.14498928 0.064690635 -0.07384874
-0.114585064 0.15891865 0.028686995 0.061406318 0.17821653 -0.07094159 0.23900224 0.1389416
0.08032116 -0.1829686 0.16519046 -0.0010037353 -0.13150942 0.014475835 0.22263207 -0.041709907
-0.15239176 0.23360981 0.2834292 -0.22970244 0.22107217 0.41276553 -0.50003684 -0.17882246
0.0041741524 -0.21860223 -0.6766952 -0.31251562 -0.34452465 -0.28829932 0.24354744 0.004074904
0.0070257634 0.49055097 -0.253028 -0.16129886 0.05682368 -0.17993991 0.1813834 0.17084366
-0.13884538 -0.45131627 -0.3122831 -0.52698714 -0.15528934 -0.22918868 -0.35203665 0.30432704
0.12154768 -0.30706042 0.42428526 0.24030663 -0.36797535 -0.25661886 -0.22186662 0.22421055
0.2981614 0.0092956005 -0.215275 0.011534206 0.35593134 0.08270562 -0.06083635 -0.002919643
0.05578299 -0.12299685 -0.2785817 0.15249316 0.02206442 -0.37555435 -0.5100213 -0.4833541
-0.19941339 -0.06762005 -0.112523094 0.22315273 0.14458059 0.21437213 0.4845257 0.20052423
-0.32949203 0.020721136 0.3629321 0.096036285 0.057348553 0.055837825 -0.27273434 -0.24745457
-0.6360295 -0.1471615 -0.3449005 -0.008884991 0.5086911 0.21830837 -0.0725639 0.27299753
0.24910223 0.2606929 0.024480078 0.32027423 0.09706074 0.026593124 -0.08412379 -0.13961273
-0.18831904 -0.3610484 -0.017410254 -0.24676105 -0.13290985 0.2727615 0.0039706174 0.36927173
0.52794105 0.04427182 0.386062 0.19537346 -0.3208832 -0.013617468 0.119314626 0.0758247
0.039348226 0.018575331 0.038054194 -0.22460566 0.01147383 -0.08570099 -0.23534174 0.04545224
0.22469491 0.124374166 0.012029928 0.19763677 0.092425786 0.15738995 0.11225668 0.0075646625
-0.35477218 -0.15459712 -0.17498703 -0.15849635 0.049908802 0.14556597 -0.2684656 -0.66183835
-0.26302263 -0.4133794 0.06979566 0.37436628 0.05607557 0.24905112 0.75262755 -0.12406876
-0.2732905 0.20951752 -0.0776985 0.01588663 0.15274325 0.10636627 0.005566737 0.09391763
-0.35529295 -0.1317865 0.11515731 -0.19503847 0.042667016 0.43747732 -0.4277093 -0.13430968
-0.054923456 0.011646919 -0.18220837 -0.45346656 -0.22631666 -0.17372069 -0.8042168 0.02964688
0.089686185 0.11277054 0.21212369 0.007489107 -0.31982294 0.27463496 0.1412746 0.07530324
-0.36828855 -0.23290081 -0.5281457 0.09071929 0.3193352 0.1065297 -0.069374904 0.13785812
0.034844328 -0.3154486 0.041084882 -0.039908525 -0.15753374 -0.37924862 0.12099615 0.012041614

conv2.bias f4 [32]
00000000: e7bf c33d 582b 173e 06f5 033e badb 133e
00000010: a7d7 8a3d 2dfe bc3d dd85 b0bf 3caf 0fbd
00000020: 0ff4 bb3e 3082 acbe 140d 853e ae2c 15be
00000030: d30c 5bbd 0e13 343e c5ae 563d d45f babd
00000040: 22c5 85bd 8f23 32be 01b4 7dbd b8f5 cfbd
00000050: 53bb 41bd 8677 333d 8529 063e 7fc7 103d
00000060: 7296 a23e 5335 8b3b f8d2 dd3b a22a 09be
00000070: 1b40 11bf d4d4 af3e da81 33bd adf5 c43e
0.09558087 0.14762628 0.12886438 0.14439288 0.06779414 0.09228168 -1.3790852 -0.035079226
0.3670964 -0.33693075 0.2598654 -0.14567825 -0.053479027 0.17585394 0.052412767 -0.09100309
-0.06531741 -0.17396377 -0.061939243 -0.10154289 -0.047297787 0.04381516 0.13101776 0.035346504
0.31755406 0.0042483 0.006769534 -0.1339517 -0.5673844 0.34342062 -0.043825008 0.38468686

batch2.weight f4 [32]
00000000: daf3 493f e0cb 6d3f 0db1 b93f 344c 8f3f
00000010: ea19 853f 9f32 9c3f cb3e 9e3f 9823 2d3f
00000020: d086 963f e4fe 713f 1da8 983f ba5e 683f
00000030: 438f 143f f231 ac3f 2e79 883f 0645 a93f
00000040: c532 533f 2270 603f 5a62 693f 2e3e 433f
00000050: e05b 953f e5f5 823f fe44 963f 4960 883f
00000060: 68c9 753f 5290 383f 9887 413f fd4b 1a3f
00000070: df1b 913f 4292 803f 7580 673f 36f5 573f
0.7888771 0.92889214 1.4507157 1.119513 1.0398533 1.2202948 1.2362913 0.67632437
1.1759892 0.9452956 1.1926304 0.9076954 0.580311 1.3452742 1.0661981 1.3224189
0.82499343 0.876711 0.911657 0.76266754 1.1668663 1.0231291 1.1739805 1.0654384
0.96010447 0.72095215 0.75597525 0.602722 1.133663 1.0044634 0.90430385 0.8435854

batch2.bias f4 [32]
00000000: b84b 9fbd abf3 03bf c2a8 47be f36d 17bf
00000010: cd75 8bbe 781d 20bf fa7e b9be a086 21be
00000020: 37c9 fdbe aa45 6fbe bd35 f6be 8f64 b5be
00000030: 520a 1f3d b91b d6be 4a66 e9be 2f75 03bf
00000040: 53d8 b4be d93d e3be 6108 f1be 618c 983b
00000050: 5f33 e8be 5309 d4be 7ae6 0fbf 9667 b3be
00000060: 0ca9 08bf d514 86be b355 65be 60ce 8cbe
00000070: acd8 eebd 1f9e a9be fd5a afbe 6014 eabe
-0.07778114 -0.5154368 -0.1949797 -0.59152144 -0.27238312 -0.62544966 -0.36229688 -0.15774012
-0.49567577 -0.23366418 -0.48087874 -0.35428283 0.0388282 -0.41818026 -0.45585853 -0.5135068
-0.35321292 -0.44383124 -0.47076705 0.0046554063 -0.45351693 -0.41413364 -0.56211054 -0.35039967
-0.53382945 -0.2618777 -0.22395973 -0.27501202 -0.11662421 -0.3312845 -0.34249106 -0.4571867

conv3.weight f4 [32, 32, 3, 3]
00000000: e0a2 e63e 420c 033f 4b8b 093e cf10 b1be
00000010: 949d cabb d3e4 893e 7124 cabe c932 78be
00000020: e4eb 76bc e068 fb3d a5aa 053d 852f a4be
00000030: ac68 5cbe 3e6f b2bd 6e70 183e d5cd 153e
00000040: b93f 583e f842 b0be 7855 4c3d afe4 c1bc
00000050: decb e2be 0ddb 863e 00e4 d73d 885a 53be
00000060: 68f0 0e3e 5772 943d 1e88 31be 4d15 92be
00000070: 75c6 4fbe 7b29 d03e 60ea d03d 78cf 75be
00000080: cef7 213f 7679 edbe ed8d 82bd a0f8 bd3e
00000090: 5e57 943e 76e8 0d3f 312b 083e 4fe2 96bc
000000a0: 57f4 3e3e 4e4a aebc d8d1 27bd 0f3d c3bc
000000b0: c26b 2ebd 0fdb b03e bbed a03e dac6 653e
000000c0: f518 c53c 9767 a03e ee29 6a3e 9504 d3be
000000d0: 65f5 223e a9c4 94be 4890 ca3e f7a6 563b
000000e0: b9e9 84be 5897 4f3e 5556 cebd 0878 b6bc
000000f0: dc09 8f3e 251c aa3e 63b5 d53d 5b2f acbe
00000100: 919f d1be a6fb 25bf 08c9 663e ccaa 64be
00000110: 32cf acbe 82e6 04be 8fb9 90bd 4259 173d
00000120: 66b0 be3d 7b3c 28be c58c 9bbe 550b e3bc
00000130: 466a f4bc 5516 893e 4683 963d 0132 f1bb
00000140: 1434 8c3e 8ab6 4dbf 93bb 97bd d606 9c3e
00000150: ead0 18bf 72a3 87be ea55 5a3e 7bee 05be
00000160: 218b dabc ba0e d93d 5779 91bd 80a1 07bf
00000170: a4c3 cb3e fc5a 25be df3c ab3c 4c08 483e
00000180: 5c18 fdbd 6cd2 03be 0b2f f2bd 662d 693c
00000190: b57e 17bd 0db4 683e a6d2 6a3e 0d01 3abe
000001a0: 90cd 21be 1c11 0d3e fc67 893e ca7a 1bbe
000001b0: 9208 abbd 4695 b9bd 05a3 bcbe 7808 6fbe
000001c0: ae25 7abd 9d00 b0be de41 81be 1894 d03c
000001d0: 14db 88be 2e37 d1bd cc4d 78bd c59d 8a3d
000001e0: d06f 783e 0f43 a83d a2ce f1bd b286 90bc
000001f0: 5d8e 153d 71b4 d6be e5a1 40be cbe7 a2be
00000200: 4288 35bf d025 adbd e802 ccbd 7c07 533d
00000210: d586 a03d c7e6 8a3e 06ef c63c 272d 9c3e
00000220: c456 4abd b0f3 4bbe 4635 453e 8929 89be
00000230: 028d 1ebf ffd3 13be 2689 a93e 6a8d acbe
00000240: eeaa 2d3e 54e6 05bd d78c 1abf 64f6 02bd
00000250: 2ae6 fbbc 7170 3dbc 7d99 3dbe 818e 31be
00000260: 2dde 60be 28a0 09bc 06ee 50be 382e ee3e
00000270: 74bc 583e f192 4b3e bedb 633e cb13 33be
00000280: d7f8 dd3d 261d 273e 2bdb 8dbb 4d12 353e
00000290: 62ce ab3e 5446 0cbe 8e07 3dbe d683 51be
000002a0: 0a90 ee3d a1af e2be e4aa bdbe 2946 89be
000002b0: 2d39 7abc 20b2 be3d 17c5 b1be 4fd1 2c3d
000002c0: f7f7 3dbe f9dc a7be 66c0 8bbe 6f9b 24be
000002d0: 0987 0fbe b10b 653c 728b b43e 0fce 6a3e
000002e0: f7e1 18bd 44ea 303e 2bbe 903e bf02 df3d
000002f0: baff cd3d cfb6 9c3e 3e3c 253d 471b 2f3d
00000300: 12f1 923e df98 dabe 2601 96be d8e5 cabd
00000310: 5588 e7bc 29f8 db3d 041f 893e 57b8 bf3c
00000320: 336b 9dbe 47c1 bb3e 5f52 df3e 6c56 0c3e
00000330: d2c4 353d f33d 553e 2a32 333d 922c 1b3e
00000340: 09ce 0bbe d9c5 1bbe e028 c2be 7247 75be
00000350: eca6 f53c ce8d 15bf 5552 693c 89b8 ad3e
00000360: 46e9 523e 6c34 06be cafb 7fbf 02fa 113e
00000370: 12bf b6be 6ecb a5be f21d 03bd cdd7 a5be
00000380: 13ea 76be ae8e b33c cd1d 4ebe 1d20 13bf
00000390: 9b68 96be 9df6 82bc 42df ffbe 84d3 a7bc
000003a0: c385 963e b29d 7c3e b5f7 663e 7261 653e
000003b0: 5155 8ebe fb96 f73e 9ebf 883e 70f1 f7be
000003c0: d5dd 023f b363 a03d d9a2 78be 5582 103d
000003d0: d6a0 13be e603 98bd 09f2 9f3e ccc3 943e
000003e0: 28a7 33be dcbe 783d 0d36 59be f937 0cbf
000003f0: 73f0 dabd 692b 9dbe 8672 f43d bff6 2a3c
0.4504614 0.5119058 0.13432042 -0.34583136 -0.0061833356 0.26932392 -0.39480928 -0.24238123
-0.015070889 0.12275863 0.032633442 -0.32067505 -0.21524304 -0.08712624 0.14886639 0.146293
0.21118058 -0.34426093 0.049886197 -0.023668615 -0.44296163 0.26338997 0.105415344 -0.20640004
0.13958895 0.07248371 -0.17337081 -0.28531876 -0.20290549 0.40656647 0.102009535 -0.24004924
0.63268745 -0.4638173 -0.063747264 0.37103748 0.28972906 0.5543283 0.13297726 -0.01841846
0.18647896 -0.021275666 -0.040971607 -0.023832826 -0.042583235 0.34542128 0.31431374 0.22439137
0.024059752 0.31329033 0.22867557 -0.41214433 0.15913923 -0.2905629 0.39563203 0.0032753327
-0.25959566 0.20272577 -0.1007506 -0.022274032 0.2793721 0.33224598 0.104349874 -0.3362988
-0.40942052 -0.6483711 0.22537625 -0.22330779 -0.33751827 -0.12978557 -0.070666425 0.036950357
0.09310989 -0.16429321 -0.30380836 -0.027715364 -0.029835831 0.2677485 0.07349257 -0.0073606973
0.27383482 -0.8035666 -0.07408824 0.30473965 -0.5969378 -0.26491886 0.21321836 -0.13079254
-0.02667767 0.10598512 -0.07103222 -0.52980804 0.397977 -0.16147989 0.020903049 0.19534415
-0.12358162 -0.12873238 -0.11825379 0.014232015 -0.03698607 0.22724934 0.22931919 -0.18164463
-0.15801072 0.13776058 0.26837146 -0.15183559 -0.08351244 -0.09061675 -0.36843124 -0.23343074
-0.06107109 -0.34375468 -0.25245565 0.025461242 -0.26729643 -0.10215603 -0.060621068 0.067683734
0.24261403 0.082159154 -0.1180699 -0.017642353 0.03651272 -0.4193454 -0.18811758 -0.3181747
-0.7091104 -0.08454478 -0.09961492 0.05152081 0.07838217 0.27129194 0.024283897 0.30503199
-0.049399152 -0.19917178 0.19258603 -0.267895 -0.6193391 -0.14436339 0.33112448 -0.3370164
0.16959736 -0.03269036 -0.60371155 -0.031973258 -0.0307494 -0.011562453 -0.18515582 -0.17339517
-0.21959753 -0.008400001 -0.20403299 0.46519637 0.21165639 0.19880272 0.22251794 -0.17488019
0.10838478 0.16319713 -0.0043291054 0.17682762 0.33555895 -0.13698703 -0.18459913 -0.20460448
0.11648567 -0.4427462 -0.37044442 -0.2681134 -0.015272421 0.093113184 -0.3472068 0.0421918
-0.18551622 -0.32785776 -0.27295226 -0.16074918 -0.14016356 0.013979838 0.35262638 0.22930168
-0.037324872 0.17276865 0.28270087 0.10889196 0.100585416 0.30608222 0.040340655 0.042750623
0.28699547 -0.42694756 -0.2929775 -0.099071205 -0.02826325 0.10740692 0.26781476 0.02340333
-0.3074585 0.36670896 0.43617532 0.13704842 0.044377156 0.20824413 0.043749012 0.15153721
-0.13652815 -0.15212192 -0.3792181 -0.23953035 0.029986821 -0.584195 0.014240821 0.33929852
0.20596799 -0.13105935 -0.99993575 0.14255527 -0.3569265 -0.32381767 -0.03201098 -0.32391205
-0.2411273 0.02191862 -0.20128556 -0.57470876 -0.29376683 -0.015986735 -0.4997502 -0.0204866
0.29398927 0.24669531 0.2255543 0.22400454 -0.27799466 0.48357376 0.26708692 -0.4842639
0.5111974 0.07831516 -0.24280871 0.035280544 -0.14416823 -0.074226186 0.31239346 0.2905563
-0.17544234 0.060728893 -0.21212025 -0.5477291 -0.10690393 -0.30697182 0.11935906 0.010434805

conv3.bias f4 [32]
00000000: beb8 6d3e c6df 783e 6be1 eb3e 2cec a23d
00000010: 61db 233e 1961 cb3d a9bf e1bf 8228 8a3e
00000020: 49e3 27bd 7069 d0be e1c8 c63d baaf bbba
00000030: 5292 0e3f 5a69 be3e 00af 593d 1d87 e13e
00000040: 5e2d 273f 44d4 183e 5ebc 903e a5ff 173f
00000050: bf9b 053f 9328 c1bc d30c 6d3e 6d00 653f
00000060: 048b a43d b16b a33f 3ee8 bd3e 6272 f63e
00000070: 1279 c53e ffd6 5e3e 8b71 92be 41ba 21bf
0.23215005 0.24304113 0.46070418 0.079552025 0.16001655 0.09930629 -1.7636615 0.2698403
-0.04098824 -0.40705442 0.09706283 -0.0014319338 0.5569202 0.37189752 0.05314541 0.44048396
0.653036 0.14924723 0.28268713 0.5937446 0.52190775 -0.023578918 0.23149423 0.89453775
0.080343276 1.276724 0.3709125 0.48134142 0.38568932 0.21761702 -0.2860225 -0.63174826

batch3.weight f4 [32]
00000000: f5af 4b3f 71ed 5b3f 5579 843f 743c 653f
00000010: dc38 413f d348 603f b5c1 ad3f ad0a 4a3f
00000020: 9cdd 943f 482f 8e3f 8f78 3a3f ed22 433f
00000030: 42ea 693f 8e21 8b3f 8268 1a3f c0b7 443f
00000040: 2720 693f 9362 653f 14bb 3a3f a9da 593f
00000050: 2a51 673f 6dc7 703f 84f7 373f e39c da3f
00000060: 112f 473f b569 893f f83a 753f 365a 733f
00000070: 40b7 443f 4506 3a3f 78d7 863f 855f 873f
0.79565364 0.8590918 1.0349528 0.8954537 0.75477386 0.8761112 1.357474 0.7892254
1.163013 1.1108179 0.7284021 0.7622517 0.91373074 1.0869615 0.60315716 0.7684288
0.91064686 0.8960354 0.7294171 0.85099274 0.9035822 0.940543 0.71862054 1.7079128
0.7780619 1.0735384 0.95793104 0.95059526 0.7684212 0.72665817 1.0534506 1.0576025

batch3.bias f4 [32]
00000000: 8b0b 81be 176d 89be 7809 d1be 170d e4be
00000010: 50cf 8abe 4ff5 24bf 7a99 48bf 48bc 68be
00000020: 75dc 54bf 2355 85be c00f 01bf c145 1dbe
00000030: 96b0 9dbe bc00 e8be 7ddc 7c3c 7eac 9ebe
00000040: 0f3d e3be e18b a5be b8a4 71be db75 a5be
00000050: d2b1 22bf 54ff c6be 4a1c 52be 632d 74bf
00000060: 69ce 0ebf d0c1 1cbf 1978 91be 79c7 14bf
00000070: 8222 0dbe eba6 72be 65fb 8abe ed79 77bf
-0.2520412 -0.2684104 -0.40827537 -0.44541237 -0.27111292 -0.6443681 -0.78359187 -0.22728074
-0.8314889 -0.26041517 -0.5041466 -0.1535864 -0.30798787 -0.4531306 0.015433428 -0.30990976
-0.44382522 -0.32333282 -0.23597991 -0.3231648 -0.6355258 -0.38866675 -0.20518604 -0.95381755
-0.55783707 -0.61233234 -0.2841194 -0.5811687 -0.13782695 -0.23696487 -0.27144924 -0.9667042

conv4.weight f4 [32, 32, 3, 3]
00000000: 283d fdbd 0b51 203b 3884 53bc 4d41 eabd
00000010: 85e4 4fbd a59f 3cbd 7483 b9bd e7d8 16be
00000020: 92fa e13d 4586 9f3d ff5d 9f3d a0fa b23d
00000030: bb79 01bd dd7c cbbd c4d5 223c 2892 493d
00000040: b65f 04bd 9698 ccbc b33b da3d 3595 db3c
00000050: 5d2e 5a3d 9d75 743d b942 863c dd5a 783d
00000060: 908b 953c dabd 57bd cd54 babc a980 28be
00000070: 62d2 f8bb 830e 25bd fe09 f7bd 6693 c83c
00000080: 21fa a2bd 7695 2dbe ff08 89bc e8de 833d
00000090: cfd8 493c da31 f13d b04d 9e3d f8ca eb3d
000000a0: 521d 243e 3d63 843d c86c 113e 226b 963d
000000b0: 7142 8b3c cf15 e33d a84c 843b c2d2 983d
000000c0: 7a7c 093e a4d0 17bd bb7c 283c 3e69 f83d
000000d0: 4d90 cd3d 1898 043d 71ba 953b 5872 8d3d
000000e0: 9c17 933c f901 8b3d 9575 65bd a1ad bd3c
000000f0: 2604 5cbe 8b7a 273d 2f31 643d 5d74 7b3d
00000100: 9c70 54bb cce9 d43c 5529 1b3e af7d 1dbd
00000110: ec46 b4bc 98f9 c73c 3e5b 313c 2e16 2f3d
00000120: 5f3b 0ebe bdbb e23d 3042 5d3d 910b 57be
00000130: 136e f1bd 533f d93d 07d4 40be 94e9 11bd
00000140: abf8 65bd cebc d7be 88c6 0d3b bbe8 9f3a
00000150: 6b2d bfbe 6576 22bc a6ff 513c 4a1e ccbe
00000160: d072 603d e247 d53d f646 463c 393a 9d3c
00000170: 469e c13d 3a85 973c 306f 213d 8c5a f33d
00000180: 18ef 4cbd b132 7f3c c0e3 143e 4c00 b6bd
00000190: b75a 3b3d 8286 1f3d 3ac3 0bbd 4e06 8ebd
000001a0: 308b 04bd 9382 8bbd 7e05 103d 5aaa a53d
000001b0: f58f 933d 7664 013d 3dab e6bb 738c a93b
000001c0: 37d0 5a3c 22dd 27bd faa1 b83d 77ed 793c
000001d0: e1a9 b13d cf3f 473d 4c68 063e 8490 aa3c
000001e0: 4bea 1f3e 62ae 0c3e 20d9 7b3b 4e60 2a3e
000001f0: ed60 be3d 8126 d23b ab26 da3d 6f2f 923d
00000200: f1f6 483c 78af d73d f9be 3d3d 598a 1fbd
00000210: 8df8 193e b007 573d a671 0c3e 75df 353d
00000220: f37f 5e3d cc17 863d c17c 653d fee4 86bd
00000230: e916 813d c1e0 8f3b b590 c83c a2c3 003d
00000240: 61b0 123d 685f f93c c5a9 c1bd b2fb 903d
00000250: 5f82 bebc 21b6 8fbc 3010 673d 7c2c 6d3d
00000260: 067a 18bc 317e 3ebe c71a 383d 2b5e 88ba
00000270: f099 7dbd 2ec0 043c 493c 26bd aceb 23be
00000280: f9c2 643d 5bbe 4e3d e3b7 193e ca60 633d
00000290: 8dde 8d3d aa01 b73d 1fa2 843d cfbd 6f3d
000002a0: fe58 103e 3467 803d 1bb8 9e3d f62c 0e3e
000002b0: 1095 973d c806 cf3d 98f1 db3d 4c36 f43d
000002c0: d1b6 2f3b e1fe c63d 7ced 073d 6fbb de3c
000002d0: 52d2 d13d d229 17bd 9b75 8e3d e993 233e
000002e0: 2efc 893d cf38 4f3d cc9e 253e 0f5a 2e3e
000002f0: c84d 963b c591 bdbc fb50 a2bd 089f 443d
00000300: f1d8 453d 2042 e7bd a999 823d f060 d0bd
00000310: ef8a 743d 415a 003e 0281 85bd 9860 a93b
00000320: f8fb 903b 7512 1bbd c423 ab3d e348 1abc
00000330: caed c73c 8451 4abd 0d6c 3d3d 8521 e4be
00000340: b7e4 7dbd 2a44 27bc cb39 e5be 57d3 a6bd
00000350: 9a75 093e f35e d9be 2d21 b7bd f29d 583d
00000360: 6ed3 0f3d f6ba fd3c 7ab2 5d3d d670 7f3d
00000370: dcae 72bd 1c68 60bd 07df 393d c308 bdbd
00000380: 3040 1b3d 3323 b03d d846 b03d bb80 e53d
00000390: cc4a 033e 10ae 08bd 7146 043e 5d7e 933d
000003a0: 6e50 133d 47d9 373c c004 86be 209f c83d
000003b0: a540 ad3d 5dd1 45be e466 f43d 9617 963c
000003c0: 021d 78be 411b 92bb 15f9 ca3c 94a9 f63d
000003d0: f7e1 febc 5c61 debc 6286 443d 4db8 6a3c
000003e0: 540b 5ebd dcd2 9f3d 789a 453d 2346 363d
000003f0: 49e5 33bd 3210 74bd 9e0b 3a3d 2056 b23d
-0.1236518 0.0024462368 -0.012909941 -0.114382364 -0.050755043 -0.046050686 -0.09058276 -0.14731179
0.110341206 0.07789282 0.077816 0.08739209 -0.03161023 -0.09935925 0.009938661 0.04921165
-0.03231784 -0.024975102 0.10655918 0.026804546 0.05326687 0.059682477 0.016389238 0.06063353
0.018255025 -0.05267129 -0.022745514 -0.1645533 -0.007593439 -0.040297043 -0.12062453 0.024484348
-0.079578646 -0.16951546 -0.016727922 0.06439 0.012319758 0.117770866 0.077296615 0.115133226
0.1602681 0.06464241 0.14201653 0.07344653 0.016999455 0.11088144 0.0040374584 0.07462074
0.1342639 -0.03706421 0.010283644 0.12129448 0.10037289 0.03237161 0.0045693447 0.06906575
0.017955594 0.06787486 -0.056020338 0.023154082 -0.21485958 0.04088835 0.055710968 0.06139027
-0.0032415753 0.02599039 0.15152486 -0.03844994 -0.022006474 0.024411008 0.0108249765 0.04274576
-0.13889836 0.110709645 0.0540182 -0.21000506 -0.11788573 0.10607781 -0.18830882 -0.035623148
-0.05614535 -0.42136234 0.0021633226 0.0012200096 -0.3733934 -0.009915923 0.012817299 -0.3986686
0.054796994 0.10414101 0.012101879 0.019192802 0.094540164 0.018496145 0.039412677 0.11882505
-0.050032705 0.015576051 0.14540005 -0.088867754 0.04574081 0.038946636 -0.03412173 -0.06934796
-0.032359302 -0.068120144 0.035161488 0.080891326 0.07205192 0.031589948 -0.007039456 0.0051742136
0.013355306 -0.040982373 0.090152696 0.01525437 0.0867498 0.048644837 0.13125724 0.020820864
0.1561672 0.13738397 0.0038428977 0.166383 0.09295831 0.0064132814 0.106519066 0.071379535
0.012265907 0.10531515 0.046324704 -0.038950298 0.15036221 0.052497566 0.13715228 0.04440256
0.05432124 0.06547508 0.056027178 -0.065866455 0.06303198 0.0043908064 0.024483064 0.03143657
0.03581274 0.030441001 -0.09456209 0.07079257 -0.023255525 -0.0175429 0.056411922 0.05790375
-0.009306436 -0.18602826 0.044947412 -0.0010404041 -0.061914384 0.00810246 -0.040584836 -0.1600787
0.055850003 0.050474506 0.15011553 0.055512227 0.06927214 0.08935864 0.06476235 0.058530625
0.14096448 0.062696844 0.07749959 0.13884339 0.07401478 0.10108715 0.1073944 0.11924419
0.0026811848 0.09716583 0.033185467 0.027188985 0.102451935 -0.036905117 0.06956025 0.15974392
0.067375526 0.050591286 0.16173857 0.17026542 0.004586909 -0.023140797 -0.07925602 0.048003227
0.048302595 -0.11291909 0.063769646 -0.10174739 0.05970281 0.12534429 -0.06518747 0.0051689856
0.0044245683 -0.0378594 0.08356431 -0.009416792 0.024405379 -0.049394146 0.046245623 -0.44556823
-0.061985698 -0.010209123 -0.44770655 -0.081457786 0.13423768 -0.42455253 -0.08941875 0.052885003
0.035113744 0.030972939 0.054125287 0.062363468 -0.05924879 -0.054786786 0.04537871 -0.09230187
0.03790301 0.08600464 0.086072624 0.11206194 0.12821501 -0.033369124 0.12917496 0.07201836
0.035965376 0.011221237 -0.261755 0.09795976 0.084595956 -0.19318147 0.11933687 0.018321794
-0.24229816 -0.0044588153 0.024776975 0.12044063 -0.031113608 -0.027146034 0.04797972 0.014326167
-0.054210022 0.0780389 0.048243016 0.04450048 -0.043919835 -0.059585758 0.045421235 0.08707833

conv4.bias f4 [32]
00000000: 955a 7dbc 1d1f 593f c293 fd3c afe0 393c
00000010: 4b74 b93e 0186 41bc 8b3e 9d3e f5e2 0dbd
00000020: 8571 83bc 072f 923c 2b1e e13e bed5 5d3e
00000030: a130 a03e 4de1 d13e 144f 133e c501 af3d
00000040: 871e c63e ae16 83bb 027f 773c a66a 443d
00000050: 12bc b03e 69d0 4d3e 1858 943d 9b8c 1bbd
00000060: 6bed 563d 45da 483f 4b0a 4dbd c6da 4e3d
00000070: f799 4a3d 61b1 f63c f205 d03e d602 d83c
-0.015463491 0.848131 0.030954245 0.011345073 0.36221537 -0.011811734 0.3071178 -0.03464027
-0.016045341 0.01784469 0.4396833 0.21663567 0.312871 0.40992203 0.14385635 0.085452594
0.38695166 -0.0040005064 0.015105965 0.04795327 0.34518486 0.20099033 0.07243365 -0.03797589
0.052472513 0.7845805 -0.050058644 0.050501607 0.04946324 0.030113878 0.40629536 0.02636854

batch4.weight f4 [32]
00000000: 19f4 9f3e cbb6 b040 c8be 633f d0b5 b93e
00000010: 9cd7 7f40 5aee ce3e 9035 7540 4f0c c33e
00000020: a8b0 e73e 2af4 8b3f b1bc 9840 f56c 4940
00000030: 18ff 4540 630a 8640 bd92 4540 71b9 dd3f
00000040: 51d6 9a40 54c2 9e3e ec8c be3e fc3f 973e
00000050: 60ef 6140 16d5 6740 c6d2 4540 3b1e c33e
00000060: 75b7 503f 3237 4240 e7f8 d93e 1612 3d3f
00000070: 1ee7 c53e 6bb5 b83f dc48 7940 3cd4 7d3f
0.3124092 5.5223136 0.88962984 0.36271524 3.9975348 0.40416223 3.8313942 0.38095328
0.45251966 1.0933888 4.7730336 3.1472752 3.0936947 4.188768 3.0870812 1.7322217
4.8386617 0.31007636 0.3721689 0.29541004 3.5302353 3.6223807 3.0909896 0.38109002
0.81529933 3.0346189 0.4257271 0.7385572 0.3865289 1.4430364 3.895072 0.9915197

batch4.bias f4 [32]
00000000: 641f 2ebf 0008 83c0 49fc a0bf 6143 20bf
00000010: 0b81 1fc0 c2cb 50bf a3d0 4cc0 778a 2dbf
00000020: 4537 4cbf 14f9 bdbf f9b3 3cc0 6558 ecbf
00000030: f554 1ac0 ecc2 36c0 df77 0dc0 ff29 f5bf
00000040: 3f63 0ec0 d1a6 2cbf 700e 2ebf 24b2 2abf
00000050: 6f5a 27c0 8d61 03c0 1d94 d8bf 2629 38bf
00000060: a82b abbf 4f41 8dbf 796a 58bf cd88 8bbf
00000070: d3f1 38bf a258 05c0 19bf 65c0 a769 c6bf
-0.6801665 -4.0947266 -1.2576991 -0.6260281 -2.4922512 -0.8156091 -3.2002342 -0.67789406
-0.79771835 -1.4841638 -2.9484847 -1.8464476 -2.4114354 -2.855647 -2.2104414 -1.9153441
-2.2248075 -0.6744204 -0.6799078 -0.6667807 -2.6148946 -2.052829 -1.69202 -0.7193779
-1.3372698 -1.1035556 -0.84537464 -1.0901123 -0.72243994 -2.0835347 -3.5897887 -1.5500993

lin1.weight f4 [5, 800]
00000000: 441d 11bd 42d1 113c 4070 90bc b9f7 1fbc
00000010: 8756 0abc 70fa d1bc b14a 50bc 2db6 a23c
00000020: 439f c13a 782c a4bc 5423 0cbe dfe2 59bc
00000030: 37e2 303d 2cfe 7abd c711 a3bc 2839 ec3b
00000040: 7e82 96bd 117b 6b3c 0dc3 4fbd 3162 283b
00000050: 5c2b 7fbc 2dc3 f23c 0572 a7bc 30c2 2f3c
00000060: 5690 453c b9f0 1fbc 99c9 00bc efa0 84bb
00000070: d65f 96bb dcb1 603c 6949 17bb b7f0 b0bb
00000080: a6c9 ba3b 92f3 b6bb 596f 6d3c 25d6 4b3b
00000090: ca89 debb 1c9d 2bbc 8f27 113c 6e57 aabb
000000a0: 0e0d 7cbc e41d 17bc 1915 31bc 44d5 69bc
000000b0: 1ef6 cabb ac81 8d39 0503 093b 5e61 8fba
000000c0: 104a 47bb 1262 cebb 735b 393d 7c58 e73c
000000d0: 9b25 2d3d da9e 133d d066 d93c 34dc d23c
000000e0: 585c 4bbe afbf 37be 737c 5dbe 897e a03d
000000f0: 5508 7fbe d723 34be a6bf b2bd 9384 d7bd
00000100: 1e57 adbd 830c 6bbe 3f6e 503b aa10 27be
00000110: 5a8f f5bd 6a46 eb3b 9900 53bd 7044 f2bd
00000120: 2daa 10be fc4b 39be ca19 0abe ebf9 3ebd
00000130: 0388 b93b b7a3 f9bb 3c8e 203c a96b 283c
00000140: 3fd2 afbc 30a8 82bd b996 63bc e9b8 88bd
00000150: 27cf bbbd 20a1 133d 882f d53b 85ac 6d3d
00000160: dfde cebc 5cdb e6bd 6086 07bd 40e9 c2bc
00000170: a49c 053b dcbd b23c a3bc edbb d19d 253c
00000180: 7a64 4ebb a119 adbc 8c40 843c 80be 5d3d
00000190: 6d2e 26bc 1137 24bc fa36 acbb 4fb4 9abc
000001a0: 281e 263c ee79 963b 7d56 99ba 24d1 86bc
000001b0: 1241 acbb fd38 c8bc c0a9 01bc c583 bfbb
000001c0: 6aff 83bc 2c00 1ebc 120e fcbb 6439 7c3a
000001d0: cf7f 6ebc 3e4a f4b8 06d1 333b a74f 97bc
000001e0: 8c0c 76bc db6b 5abc 41a0 06bc 0073 1dbc
000001f0: 9d2e c1bc 03d8 e33c 4e72 57bc 229e 9dbd
00000200: fb9f b2bc 189f f2bb fe1d 0cbd 1c52 0bbe
00000210: ee1d b33c f66f b0bd 996f c1bc c7c4 3dbb
00000220: f638 42bd d3ef cdb9 c482 6dbd 1417 efbd
00000230: 07d3 f03b c986 ff3c 4bf3 fb3d 14b1 35bd
00000240: 8d13 04bd 7787 993c 3ca8 473d e4e9 603d
00000250: c750 1dbd fd0b 09bd 4b4c c33c 9ca7 29bc
00000260: 44ac 823b ae63 e0bb dd53 1b3d 8bd8 813c
00000270: dcd8 dfbb 581c 053b a1b6 383c a88d d3bb
00000280: 4c83 713c ee05 efba 3bca 53bb bcff 75bb
00000290: fa57 73bc a780 9fbb 8cfe afbb ba38 e23b
000002a0: 3902 19bc 20c6 133c d2d6 093d 1b49 0ebc
000002b0: 6a94 0b3c 561e f1ba ae0c 14bc 79b6 cebc
000002c0: 0421 a5ba ee88 2abc 55b7 1f3c da73 45bc
000002d0: 5dd1 523b b88c 993b 6830 bf3b 7b7e 4f3b
000002e0: 401d 8ebc fd6c 61bc 798f c73c 058b d2bb
000002f0: 41f5 263c 1626 633c 682f e03c c235 823b
00000300: 6ec4 bfbc ea6d 8ebc b505 3a3c a3c9 0abc
00000310: eea9 a1bb aa88 3d3c 5f74 2c3b aad0 9dbb
00000320: 6862 00bd c1ef 4cbb 0386 12bc 488e a6bb
00000330: 27f4 2cbd 4d63 0b3d c432 2eba 0271 9f3b
00000340: 01f7 ccbb 02ee d4bb aef3 593d a4b9 c93c
00000350: c567 89bc ab7c 80bc 6237 c03b 8b83 42bd
00000360: 507d 463d c4e4 0bba ba58 803c 3810 4a3d
00000370: a953 12bd f103 c1ba e311 1dbc edbf 6e3c
00000380: bc4e 15bc bc6e 6c3d 5916 f13d 8874 10be
00000390: 3bcb 96be 9550 28bd ba7e 263d 585c 8d3a
000003a0: 9397 a23c 1542 aa3c 2187 57bd b3f7 b9bd
000003b0: c5ec 08be cb1f 0a3e d91e 38be 058f 0ebe
000003c0: a5f2 6c3d 1d8b 13bd 0ba9 a83d 5128 46be
000003d0: 832d 53bd ccaf 9f3b 7f5c 4cbd 1ae1 98bc
000003e0: 86ca 1abe 57f2 6b3d 08b3 4fbc b1b3 203c
000003f0: b069 93bc 63b9 e6bb bdb4 60bc c4e9 67ba
-0.0354283 0.008899989 -0.01763165 -0.0097636515 -0.008443481 -0.025632113 -0.01271312 0.019862259
0.0014772195 -0.020040736 -0.13685352 -0.013298719 0.043184485 -0.061277553 -0.019905938 0.007208962
-0.07349108 0.014372603 -0.050723124 0.0025693292 -0.0155743025 0.029634083 -0.020440111 0.01072745
0.012058338 -0.009761983 -0.007860565 -0.004047505 -0.0045890613 0.01371428 -0.0023084527 -0.005399789
0.005700308 -0.005583235 0.014491879 0.0031102982 -0.006791328 -0.0104744695 0.008859529 -0.0051984107
-0.015383972 -0.009223435 -0.010808253 -0.014272038 -0.0061938902 0.0002699023 0.002090634 -0.0010939052
-0.0030409135 -0.006298312 0.04525323 0.028240435 0.04227219 0.036040165 0.026538283 0.025739767
-0.19859445 -0.17944215 -0.21629505 0.07836635 -0.24905522 -0.17591797 -0.0872796 -0.105233334
-0.08463882 -0.22953992 0.0031803993 -0.1631495 -0.11990233 0.007180025 -0.05151424 -0.1182946
-0.14127417 -0.18095392 -0.134864 -0.04662506 0.005661966 -0.0076183933 0.009799536 0.010279574
-0.021462558 -0.063797355 -0.013890916 -0.06675894 -0.091703705 0.036042333 0.0065059103 0.058025856
-0.025252758 -0.11272308 -0.033087134 -0.023792863 0.0020387555 0.021819048 -0.0072551533 0.010108427
-0.0031492994 -0.021130385 0.01614406 0.054136753 -0.010142905 -0.0100228945 -0.005255577 -0.018884806
0.010139026 0.004592172 -0.0011698749 -0.016457148 -0.0052567804 -0.024441237 -0.007914007 -0.0058445656
-0.016113002 -0.009643596 -0.007692107 0.0009621589 -0.014556839 -0.00011648655 0.002743782 -0.018470598
-0.01501764 -0.013331379 -0.008216918 -0.009609938 -0.023581797 0.027812963 -0.013149811 -0.07696177
-0.0218048 -0.0074042194 -0.03420829 -0.13605541 0.021864858 -0.08615105 -0.023612784 -0.00289564
-0.047417603 -0.0003927933 -0.057986036 -0.11674324 0.007349375 0.0311922 0.12302264 -0.044358328
-0.032245208 0.018741352 0.048744425 0.054910555 -0.038407113 -0.0334587 0.02384009 -0.010354903
0.003987821 -0.0068478202 0.037921775 0.015850326 -0.0068312716 0.0020311084 0.011274011 -0.0064560957
0.014740776 -0.001823602 -0.0032316584 -0.0037536463 -0.014852518 -0.0048676315 -0.0053709205 0.006903735
-0.009338909 0.009019405 0.033652134 -0.008684422 0.008519271 -0.0018395882 -0.009036226 -0.025233494
-0.001259834 -0.010408623 0.0097483 -0.012051547 0.0032168247 0.0046859644 0.005834628 0.0031661082
-0.017347932 -0.013758895 0.024360405 -0.006425264 0.010190309 0.013864061 0.027366355 0.0039736936
-0.023409095 -0.017386395 0.0113539 -0.0084709255 -0.0049335873 0.011568228 0.002631448 -0.0048161345
-0.031343848 -0.0031270834 -0.008943084 -0.005082879 -0.04222503 0.034030247 -0.0006645138 0.0048657665
-0.006255031 -0.0064980993 0.053210907 0.024624653 -0.016773114 -0.015684446 0.005865977 -0.04748873
0.04845935 -0.0005336518 0.015667308 0.049331874 -0.035724316 -0.0014725906 -0.009586784 0.014572126
-0.00911301 0.057722792 0.117718406 -0.14106953 -0.29451928 -0.041092474 0.0406482 0.0010784967
0.019847667 0.020783463 -0.052619103 -0.09080448 -0.1337157 0.1348869 -0.17980517 -0.13921745
0.05784859 -0.03602134 0.082353674 -0.19351317 -0.051557075 0.0048732515 -0.0498929 -0.018662024
-0.15116319 0.05760416 -0.012676962 0.009808467 -0.017994732 -0.007041143 -0.013714966 -0.00088467845

lin1.bias f4 [5]
00000000: 50d8 b4bc a2a8 ebbc d918 0d3c af01 e2bc
00000010: 1229 a7bc
-0.022075802 -0.028766934 0.008611881 -0.027588693 -0.020405326

exp_avg f4 [32, 3, 3, 3]
00000000: c2a1 0cbc f021 efbb 1f51 f8bb c5ad 07bc
00000010: 0622 d9bb 175d 01bc e151 28bc c283 04bc
00000020: c360 19bc 007e e4bb 2434 a2bb 9155 c7bb
00000030: dc22 b6bb 84eb aabb c355 cebb ccc8 0ebc
00000040: aaae e9bb e675 e0bb f8ff 08bc b8a3 d5bb
00000050: ba8e e2bb c1d9 04bc 639e e8bb 2160 e5bb
00000060: 732e 2cbc a704 08bc b73d fcbb 01f8 a538
00000070: cd9a a2ba 221c 98ba bcbe 51ba 1ee8 d8ba
00000080: 2963 11bb 0233 eeb7 46d0 b0ba bae9 1abb
00000090: b7cd 3039 962a a6ba cfc2 94ba 0ca1 0a36
000000a0: bc19 90ba 18ec deba 36c3 8f3a 0f1d 13ba
000000b0: 5a7d f4ba d440 1c3b d4d8 a93a 666d b13a
000000c0: 8265 e43a 0e53 653a 703d bf39 7a99 2b3b
000000d0: bc7b 5a3a a14d 70b9 bc87 f6bb 0c82 f6bb
000000e0: 365d dbbb c9f6 04bc ae2e f6bb 13ef e9bb
000000f0: 8555 01bc 0fe2 f1bb 8734 e8bb b9ca 0fbc
00000100: fd6b 10bc d654 07bc 6e37 19bc ea6c 10bc
00000110: 7bf1 0bbc 073a 1abc a97b 14bc 81c5 0bbc
00000120: f32a c9bb dda1 c8bb efb0 c0bb e48a d7bb
00000130: bd4f cdbb 2fac c6bb e46b e1bb ffec d2bb
00000140: e48d c6bb 6264 afbb 99b0 9abb 91e7 c4bb
00000150: 7806 87bb f95c 73bb 5cc6 abbb cf5c 8abb
00000160: 35e0 94bb da74 d7bb b8ca f5bb fded cbbb
00000170: c2fd e5bb c664 d7bb e4c3 bbbb cb5e d8bb
00000180: 2b86 d5bb 3a55 d3bb 3444 08bc b530 febb
00000190: d0dd edbb b50d 13bc 0a7e e7bb de63 efbb
000001a0: f304 18bc 945f f9bb 3eb1 08bc 00f7 33bc
000001b0: e8de 3439 fd11 24ba 779b e8b9 3b82 97b9
000001c0: f010 43ba 911a e9b9 cbeb c6b8 43c9 10ba
000001d0: 8b0c 56b9 795d ffb9 1e31 acba f74d 88ba
000001e0: 62bd 69ba 6176 c7ba abf5 94ba fd86 2aba
000001f0: 612e a5ba f1ec 66ba a070 5236 9855 22ba
00000200: 10a0 4aba e8ce 81b9 ff70 72ba ca36 57ba
00000210: 5cd5 2db9 4d67 4fba 88a1 4bba 2466 15bc
00000220: 9aec 1ebc 98d3 36bc 8d35 26bc 50d2 35bc
00000230: ac8c 4fbc b156 10bc 143c 2ebc 9305 38bc
00000240: 713a d0bb 6ea7 f6bb 2baf 10bc a082 f3bb
00000250: 6269 06bc ed0a 29bc 8305 b3bb b93c e4bb
00000260: 76c8 04bc f266 7ebb ad61 7fbb 814b c8bb
00000270: ac66 9fbb b8a7 acbb 514a fcbb cc8e 6cbb
00000280: ff78 a3bb 3c1e d3bb c8e9 ce3a 6825 513b
00000290: dc2f d13a ef7e 443b f164 1c3b bb91 2a39
000002a0: 44e1 863b 31f2 403b 0dcc a43a 326b 083b
000002b0: 802d 393b e950 1b3b 016d 4c3b c005 4f3b
000002c0: 7fdb 1a3b 08e8 5d3b e137 783b e79e 453b
000002d0: 21df 463a 0a67 e23a 6c40 e23a 8002 c53a
000002e0: b532 eb3a c4de b83a 0e6e 823a d7dd a03a
000002f0: b563 c13a aa4c abbb 4419 cfbb fe79 b4bb
00000300: 6ab7 ccbb c609 d3bb 7398 e4bb c751 f3bb
00000310: d58f 00bc 0f98 07bc 0ebd 08bc 440a 14bc
00000320: 05fd fcbb ce5c 0ebc 9d18 13bc 7d49 10bc
00000330: 6c7c 10bc 47af 21bc a688 1fbc e4de eebb
00000340: 5275 0abc 7112 04bc 9dee f9bb d330 09bc
00000350: 3d50 18bc af81 edbb 3d91 08bc f395 12bc
00000360: 4177 2bbc 8fe1 3dbc 0d91 47bc db96 2ebc
00000370: 4fa0 30bc 1680 38bc 14ce 23bc 85f7 27bc
00000380: bcce 23bc 2c2d 3dbc 16e2 55bc fbe7 5fbc
00000390: ebcd 34bc eabe 4bbc 6e6d 4cbc 29e1 2cbc
000003a0: f815 37bc 5003 33bc 4e49 5ebc d4b5 5fbc
000003b0: 03e5 6fbc 18af 41bc 619a 51bc 4683 56bc
000003c0: 4207 4cbc 3124 4cbc 139d 45bc 667c 133c
000003d0: c012 203c 8c6e 1b3c 0ba8 0b3c 11a1 1d3c
000003e0: 222f 163c b992 cb3b 1aed f73b 6613 f63b
000003f0: c94d 163c d89e 1d3c 5d8a 193c 6ce5 093c
-0.008583488 -0.007297747 -0.0075780298 -0.008281176 -0.0066263704 -0.0078957295 -0.010273428 -0.008088054
-0.009361449 -0.006973028 -0.0049500633 -0.0060831984 -0.005558355 -0.005216064 -0.0062968447 -0.008714866
-0.0071314173 -0.006849992 -0.008361809 -0.006519761 -0.006913987 -0.008108557 -0.0070989593 -0.006999985
-0.010509121 -0.00830189 -0.0076977867 7.9140074e-05 -0.0012405753 -0.0011605064 -0.0008001139 -0.0016548669
-0.0022184348 -2.8395563e-05 -0.0013489805 -0.0023637847 0.00016861303 -0.0012677487 -0.0011349561 2.0657344e-06
-0.0010993998 -0.0017007617 0.0010968212 -0.0005611935 -0.001865308 0.0023842352 0.0012958297 0.0013536632
0.0017425271 0.0008748033 0.00036476133 0.0026184008 0.0008334478 -0.00022917103 -0.007523505 -0.007522827
-0.006694461 -0.008115479 -0.007512889 -0.0071390956 -0.007893925 -0.0073816846 -0.00708634 -0.00877636
-0.008814809 -0.008259973 -0.009351594 -0.00881503 -0.00854146 -0.009413249 -0.009062686 -0.008530975
-0.006139153 -0.006122811 -0.005880467 -0.0065778363 -0.006265609 -0.0060630064 -0.0068793166 -0.0064369435
-0.006059395 -0.0053525427 -0.004720759 -0.00600905 -0.004120644 -0.0037134273 -0.005242152 -0.0042224894
-0.004543329 -0.006575209 -0.0075009726 -0.006223439 -0.0070187757 -0.0065732924 -0.005730139 -0.006603097
-0.006516238 -0.006449369 -0.008317042 -0.007757271 -0.007259108 -0.008975436 -0.0070645856 -0.0073056063
-0.009278524 -0.0076102708 -0.008343039 -0.010984182 0.00017249177 -0.0006258784 -0.0004436632 -0.00028897994
-0.00074411836 -0.00044461017 -9.4852956e-05 -0.00055231544 -0.00020413303 -0.00048707033 -0.0013137197 -0.0010399212
-0.0008916465 -0.0015217775 -0.0011364719 -0.00065051 -0.0012602323 -0.0008809111 3.1357995e-06 -0.0006192564
-0.00077295396 -0.00024758955 -0.0009248405 -0.00082097633 -0.00016578048 -0.00079118164 -0.00077679055 -0.0091185905
-0.009699965 -0.011158846 -0.010144603 -0.011097506 -0.012667816 -0.008809731 -0.010634441 -0.011231798
-0.006354623 -0.0075272834 -0.008830826 -0.007431343 -0.008203836 -0.010317546 -0.0054633035 -0.0069652465
-0.008104434 -0.0038818684 -0.0038968131 -0.0061125164 -0.0048645344 -0.005269017 -0.007699289 -0.0036095856
-0.004988789 -0.006442813 0.0015786225 0.0031913165 0.0015959698 0.0029982885 0.0023863877 0.00016266752
0.004116209 0.0029441232 0.0012573019 0.0020815847 0.002825588 0.002369935 0.00311929 0.003158912
0.0023629365 0.0033860225 0.0037875103 0.0030154528 0.00075863494 0.001727314 0.0017261631 0.0015030652
0.0017944189 0.0014104475 0.0009951012 0.0012273145 0.0014754446 -0.005227645 -0.0063201506 -0.0055077067
-0.0062474506 -0.006440374 -0.006976181 -0.00742552 -0.007846792 -0.008276 -0.008345855 -0.009035651
-0.007720592 -0.008689119 -0.008978036 -0.0088065835 -0.008818727 -0.0098684495 -0.009737169 -0.007289754
-0.008450823 -0.008061037 -0.007627322 -0.008373457 -0.009296474 -0.0072481255 -0.008335409 -0.0089468835
-0.010465444 -0.011589422 -0.012180579 -0.010656084 -0.010780408 -0.011261007 -0.009997863 -0.010251884
-0.00999802 -0.011546414 -0.013054391 -0.013666148 -0.011035423 -0.012435654 -0.012477262 -0.010551729
-0.011174671 -0.010926083 -0.013567282 -0.013654191 -0.014642003 -0.011821531 -0.012793154 -0.013092821
-0.012452902 -0.012459801 -0.012061375 0.009001827 0.009770095 0.009486806 0.008523951 0.009620921
0.009166511 0.006212559 0.0075661065 0.0075096367 0.009173819 0.009620391 0.009371367 0.008416515
