results_auto/01_domain_adaptation/maml_supervised/June_14/officehome_maml_order_2_seed_0_shots_1_ways_5_meta-lr_0.0001_dropout_0.1_RandAugment-prob_0.5_pre-train-wts_datetime_13_06_2021_17_37_42/intermediate_1000_model.pt (torch, 412181 bytes, 54 tensors)

conv1.weight f4 [32, 3, 3, 3]
000000 64 0d e0 3e e8 bc bd 3d 58 b6 cb bd c3 eb 90 bd
       0.43760216 0.09264547 -0.09946889 -0.07076218
000010 18 70 3a be 2b 4d 24 be f6 02 01 3e f2 18 05 3d
       -0.18206823 -0.16045062 0.12598786 0.032494493
000020 c3 b6 21 be 83 58 00 3d 85 4c 44 be 04 90 a2 3d
       -0.15792374 0.03133441 -0.19169815 0.07937625
000030 8d 79 af be 40 92 0b be 67 02 d4 bc e0 76 07 bc
       -0.34272423 -0.13630009 -0.025880052 -0.008268088
000040 d0 c4 fb 3d 22 ea 8a 3e d8 ed 54 bf e5 f3 ea be
       0.122933984 0.27131754 -0.8317542 -0.45889202
000050 45 11 28 3e 48 ba 92 be ec ce a8 3d 6e fa 0c 3f
       0.16412838 -0.28657746 0.08242592 0.55069625
000060 36 6b 15 be fc 9b a1 3e 8c 55 46 3f 19 1b 65 3d
       -0.14591679 0.3156432 0.77474284 0.055934045
000070 84 d5 ce 3c d2 4f aa 3e 94 81 18 be de 27 65 3e
       0.025248297 0.33264023 -0.1489318 0.2237849
000080 31 19 a6 3e f9 aa f0 be d6 77 f0 be 7e 89 c3 bd
       0.32441095 -0.47005442 -0.46966428 -0.09547709
000090 b4 ec 28 be a5 4a 42 3e ba d2 a4 3e b0 45 82 be
       -0.16496545 0.18973787 0.32192022 -0.25443792
0000a0 cb 9d 88 bd 6c 36 f4 3d 0e 85 05 bf 6e 37 12 bf
       -0.066707216 0.11924443 -0.5215615 -0.5711583
0000b0 84 2c 75 be 5a 00 a0 3d a4 56 a0 3e d7 ea ff 3e
       -0.23942763 0.07812567 0.31316102 0.49983856
0000c0 6e f4 85 be 3d 45 48 3c 59 3b c1 3e 66 15 05 bd
       -0.26163048 0.012223539 0.3774059 -0.03249111
0000d0 c8 e6 05 be 85 71 55 3d 2c 38 b9 3e 9b 70 b0 3d
       -0.13076317 0.052110214 0.36175668 0.08615228
0000e0 6f f5 88 3e 3d c4 96 be 36 1e 9e be 1e 60 c4 be
       0.2674975 -0.29446593 -0.30882424 -0.38354582
0000f0 37 c9 83 bd de 09 88 bd c5 63 ec bd 0b bc b8 3e
       -0.06434863 -0.06642507 -0.11542467 0.36080965
000100 8a ed a1 3e ad 85 0b 3e c4 0c 4c bc 4f 0b 02 bd
       0.3162654 0.13625212 -0.012454215 -0.031749066
000110 4c 52 28 be 6a ab 03 3d 43 87 a4 be 9f d3 27 be
       -0.16437644 0.032145895 -0.32134447 -0.16389321
000120 3e b7 ef 3e bd d5 ec 3e d4 f2 0b 3f 53 f3 26 3e
       0.4681949 0.4625682 0.546674 0.16303758
000130 b7 da 17 bd ee f0 b4 be 45 49 80 be a1 4f e6 be
       -0.037073817 -0.35340065 -0.250559 -0.44982627
000140 49 f6 b9 be ec 74 01 3f 37 6b bf 3e 0c ef 64 bd
       -0.36320713 0.50569034 0.37386486 -0.055892035
000150 d5 9a 08 be 92 6a b8 be 68 af d6 be 2b ca b1 3d
       -0.13340314 -0.36018807 -0.419307 0.086811386
000160 8d 34 3a 3e b8 11 91 bd 51 34 db 3e 48 e0 e8 3e
       0.18184109 -0.07083458 0.42813352 0.45483613
000170 41 0b db 3e b3 c7 5e be 16 71 05 bf 6c c6 fc be
       0.42782024 -0.21755867 -0.5212568 -0.49370134
000180 f9 90 da 3d 2b 04 e5 3d 39 a1 09 be 5c 88 28 3b
       0.106721826 0.111824356 -0.13440408 0.0025716042
000190 5e c4 cc 3e d3 c7 ff 3e bc 0e f4 be a4 08 c5 be
       0.39993566 0.4995714 -0.4766749 -0.38483155
0001a0 21 b5 af be 26 57 a0 bd 4d 7b 5a bd 00 a3 79 3d
       -0.34317878 -0.07829122 -0.053340245 0.060946465
0001b0 5a c7 00 bb c5 17 f6 3d 97 8c e7 bc e7 ae 12 3e
       -0.0019650073 0.120162524 -0.02826528 0.14324532
0001c0 6a 84 ae bd 11 a1 4e 3e 2a fe 6c 3d c3 71 61 be
       -0.0852135 0.2017863 0.057859577 -0.22016053
0001d0 85 f5 ed bd 5e 66 3e 3e a7 be b2 3e 79 46 52 3e
       -0.11619095 0.18593737 0.3491108 0.20534696
0001e0 51 23 3a 3e 57 ef 34 3e eb 17 81 bc 4f 58 e8 bd
       0.18177535 0.17669426 -0.015758475 -0.113449685
0001f0 13 fb 93 be d8 db 8f be 18 81 8b bf 2f 6b f0 3d
       -0.28902492 -0.28097415 -1.0898771 0.11739194
000200 e9 14 21 be 2b 47 5c bf 5f 23 a0 3e 7e 65 38 3d
       -0.15730633 -0.86046094 0.31276986 0.045018665
000210 91 04 bc bf 77 51 74 3e 9f d6 5a be 68 c4 7a be
       -1.4688894 0.23859201 -0.21370934 -0.24488986
000220 47 e1 11 bd 39 56 3c be 8e fa aa 3d 5b fd 6b 3e
       -0.03561523 -0.18392266 0.08348571 0.23045866
000230 35 57 9f 3e e4 54 c1 3e d7 9f 18 3f e3 dd 58 3e
       0.3112122 0.3776008 0.59618896 0.21178393
000240 19 a2 de be 40 b7 cd bd 79 2b 13 3d fd e9 bf be
       -0.43483046 -0.10044718 0.03593013 -0.37483206
000250 64 d7 c5 be 73 46 98 be 56 07 15 bf 37 f1 b9 be
       -0.38640893 -0.29741248 -0.5821432 -0.36316845
000260 ed d6 9f be 59 12 c4 3e a3 54 06 3f b6 39 ae 3c
       -0.31218663 0.38295248 0.52472895 0.021267753
000270 31 84 89 3e 4b be 31 3d 0d 9c 1b 3e b9 3a 9e bd
       0.26858667 0.04339437 0.15196247 -0.07726044
000280 f6 ef c0 3d 47 ce 88 bd ac ec 21 bf 51 d9 97 be
       0.09420769 -0.06679969 -0.6325176 -0.29657987
000290 4c 64 40 be d2 4f bf bd a8 6c bd 3d 89 4f 4f 3e
       -0.1878826 -0.093413964 0.0924924 0.20245184
0002a0 ea 8c 2a bc 02 d0 e4 3e a3 af 02 3f 60 1a ca be
       -0.010409573 0.44689947 0.5104925 -0.39473248
0002b0 03 5c 56 3e 4d 4f 28 3c 27 4a ab be d8 fd 8f 3e
       0.20933537 0.010272813 -0.3345501 0.28123355
0002c0 8e 67 6e 3c 84 05 84 be 75 b5 a8 3e 13 a0 1b be
       0.014551057 -0.25785458 0.3295094 -0.15197782
0002d0 90 c7 17 3e d4 67 ca 3e 79 28 d4 3e 89 08 3b bd
       0.14822221 0.3953234 0.41437128 -0.045662437
0002e0 87 12 86 3e ba 9f 80 3d 44 d0 d9 be a1 3e ef bd
       0.2618601 0.062804654 -0.42541707 -0.116818674
0002f0 0e 09 dc be a1 6b 8b 3d 36 cd c4 3e 08 e3 5c 3e
       -0.42975658 0.06807638 0.38437814 0.2157098
000300 a6 6b 1f bf bd 38 62 be e3 26 10 bf f0 e0 19 3d
       -0.62273633 -0.22091956 -0.56309336 0.037568033
000310 2c f4 61 3e a4 e8 6a 3e 0a 6b 30 be 80 8c 88 3e
       0.220658 0.22940308 -0.17228332 0.26669693
000320 54 92 6c 3d d6 78 ca be 75 6a b0 be cf 16 1d bf
       0.057756737 -0.39545316 -0.3445622 -0.6136293
000330 4c 7d 00 3e b2 47 23 3f c4 74 31 3e 31 65 2c 3e
       0.12547797 0.63781273 0.17329699 0.16835476
000340 28 3e 73 3e ff 5b 68 3d 4b 21 a9 be fb cc 80 be
       0.2375418 0.05672836 -0.33033213 -0.25156388
000350 d3 05 ba be e4 7c 90 3e c7 8f d2 3e 76 71 79 3e
       -0.3633257 0.28220284 0.41125318 0.24359688
000360 df cb 4a be b1 11 e7 be 4f 5a 19 3f 5c 21 cb be
       -0.19804333 -0.45130685 0.59903425 -0.3967389
000370 13 44 8f be af 09 0f 3f 76 d4 06 be 5f 12 49 be
       -0.27981624 0.5587415 -0.13166985 -0.19635914
000380 55 bb ae 3d 30 1c 82 3e 52 ec 03 bf f3 37 df 3d
       0.085318245 0.2541213 -0.5153247 0.10899343
000390 78 4b 8d 3b ac 54 43 be 75 cf 4a 3e 0c 53 8a 3e
       0.004311975 -0.19075269 0.19805701 0.27016485
0003a0 f7 87 cc bc 9c 13 b1 3e f0 fb 95 3e 4b 98 c6 be
       -0.024967177 0.34585273 0.29293776 -0.38788065
0003b0 10 0a 99 3e b2 10 35 be 4d 2c 94 be 58 22 39 3e
       0.2989049 -0.1768215 -0.2894005 0.18079507
0003c0 16 9e 2e 3d 21 a5 15 bd 0a 1e 28 bd 72 d5 b1 3e
       0.04263123 -0.036534432 -0.041044272 0.34733158
0003d0 3c 7c bb 3e 3b d0 eb bd fb 26 04 3f 30 e0 ba 3d
       0.3661822 -0.11514326 0.5162198 0.091247916
0003e0 dc 85 7c bd 2b 8f a9 3e 07 1e 84 bc f3 c5 98 3c
       -0.061651096 0.3311704 -0.0161276 0.018649077
0003f0 f2 f8 8e 3e c0 b1 c8 bd 70 a5 8a be 86 3c 8e bd
       0.27924305 -0.09799528 -0.27079344 -0.06945138

conv1.bias f4 [32]
000000 df f0 a9 bd f0 d4 c5 bf 0a 6e 68 3d a3 41 74 be
       -0.08297896 -1.5455608 0.056745566 -0.23853163
000010 50 a4 38 bf 83 92 db c0 c8 23 cf bc 5d 2f 4d bd
       -0.7212572 -6.8616347 -0.025285617 -0.050093997
000020 62 0a 97 be 49 bf 5d 3e 87 d4 9e be 17 9e 05 bd
       -0.2950011 0.21655001 -0.3102152 -0.03262147
000030 62 aa 60 3f 9f 75 d2 bf f0 77 4a be 4c fd 17 be
       0.87759984 -1.6442145 -0.19772315 -0.14842719
000040 4d 10 0e bd 59 b7 90 be fa e9 55 be 5d 25 64 c0
       -0.034683514 -0.28264883 -0.20890036 -3.5647805
000050 10 95 81 3f b1 db 29 3d 5e 0c a3 3d cc 78 e2 3d
       1.0123615 0.04146928 0.07961343 0.110581964
000060 ea 03 25 c1 6a f8 6c 3e 27 9e 22 be 29 4e 8f bd
       -10.313456 0.23141637 -0.15880643 -0.0699733
000070 87 9d 83 3e 1c 1e eb be 09 27 2b c0 11 17 9e 3d
       0.2570612 -0.4592141 -2.6742575 0.07719243

batch1.weight f4 [32]
000000 05 de 9a 3f ee 8e 81 3f 48 59 32 3f 51 42 94 3f
       1.2099005 1.0121744 0.6966748 1.1582738
000010 51 83 7c 3f b8 8b 67 3f 61 c3 81 3f 20 83 89 3f
       0.9863787 0.9044757 1.013775 1.0743141
000020 ad 32 44 3f d8 3d 84 3f 4b 81 a6 3f cd ab 58 3f
       0.76639825 1.0331373 1.3008207 0.8463715
000030 e0 e5 66 3f 25 b6 28 3f 75 8e f3 3e 68 ea 71 3f
       0.9019451 0.6590293 0.47569624 0.944983
000040 43 3d 4e 3f 29 d5 88 3f e1 f3 9b 3f 59 fc 1e 3f
       0.8056223 1.0690051 1.2183801 0.621038
000050 03 e6 3f 3f da b8 70 3f f0 b2 73 3f 9a e6 93 3f
       0.74960345 0.9403206 0.9519491 1.1554749
000060 87 e2 70 3f 40 91 8e 3f a6 eb b5 3f 5e bb 7a 3f
       0.94095653 1.1138077 1.4212539 0.9794215
000070 46 c4 ab 3f c0 e0 0a 3f 03 f1 31 3f 07 af 15 3f
       1.3419273 0.5424919 0.6950838 0.58470196

batch1.bias f4 [32]
000000 93 70 4b 3f 24 fd 2f bf 3b cb 68 3f cb 89 9e 3d
       0.7946865 -0.68745637 0.90935105 0.07741126
000010 5c c6 03 bf 89 5a 3e 3e 0b 80 be 3f 69 88 3e 3f
       -0.5147455 0.18589224 1.4882826 0.74426895
000020 bf 9b 2c 40 7f 9b b2 3d b6 ad 85 3f c2 74 00 bf
       2.697006 0.08721065 1.0443637 -0.5017816
000030 6c d7 47 be 88 b6 51 be 31 2f 21 3d b0 d8 11 bf
       -0.1951577 -0.20479786 0.039351646 -0.56971264
000040 e0 18 e9 3b 96 1f 9b bd e7 ab 3d bf c6 89 5f be
       0.007113561 -0.07574384 -0.7409043 -0.218299
000050 44 c1 8a bd ec 1a 18 3e 82 9a bf 3d 13 c1 00 3e
       -0.06775144 0.1485402 0.09355642 0.12573652
000060 e2 92 8e 3e 9b d3 92 bd be 52 ae 3e b6 76 cd 3d
       0.27846438 -0.07169267 0.34047502 0.10032408
000070 0d da b2 bd 2c 20 ae 3d 36 81 c9 3f cc 72 3d bd
       -0.08732996 0.0850223 1.5742557 -0.046252057

conv2.weight f4 [32, 32, 3, 3]
000000 7e 45 d3 bd 1f 4e 47 3e fc e7 89 3d af 35 b3 bd
       -0.10315989 0.19463395 0.06733701 -0.08750474
000010 cb 71 b4 3e 76 6d 0d 3f 89 54 03 3d f1 63 6d 3e
       0.35243067 0.5524515 0.03206304 0.23182656
000020 f9 93 51 3e 49 12 64 3d 14 8f 5d be 0f c8 3c bc
       0.20466603 0.0556815 -0.21636611 -0.011522307
000030 4f 6b 44 3d ea 15 1b 3c 22 4b 0e 3f 88 21 83 be
       0.0479539 0.009465674 0.55583394 -0.2561152
000040 a9 81 7b be 39 9d 12 3e 48 33 31 bf 9d c5 2a bf
       -0.2456118 0.14317788 -0.69218874 -0.66707784
000050 a3 41 ff be 6b 8c df be a5 c3 78 be b2 81 67 bf
       -0.49854764 -0.43661818 -0.24293382 -0.90432274
000060 70 a7 8a 3d 5c 4e d5 3d 32 6a bb 3e 7c 9e c2 3e
       0.067702174 0.104153365 0.36604458 0.3801154
000070 78 80 00 3e a6 63 b0 be ae d6 09 be 8a 92 1e be
       0.12549007 -0.34451026 -0.134608 -0.15485588
000080 11 45 55 bf 96 94 b2 3d 03 99 cf bd bd c9 73 be
       -0.8330851 0.08719747 -0.101366065 -0.23807426
000090 eb 54 83 3e 24 b9 0d 3e c0 50 90 3c 13 65 51 3e
       0.25650725 0.13840157 0.01761663 0.20448713
0000a0 29 53 a1 3d 98 3c d4 bc 20 f4 f9 3c 95 bc 3b be
       0.0787719 -0.0259078 0.030511916 -0.18333657
0000b0 2d 3b ba bd 48 3e 32 be b5 d6 78 be b4 19 26 be
       -0.09093318 -0.17406571 -0.24300654 -0.16220742
0000c0 b0 1e 09 bd fa 6f 6b bd 9e 2b b9 3d 61 c5 12 3e
       -0.03347653 -0.057479836 0.090415224 0.14333107
0000d0 c3 78 b0 3c 7c 75 f7 3d 71 c5 1b 3d c6 fd af bd
       0.021541959 0.12082955 0.03803009 -0.08593325
0000e0 71 e4 36 be ee 15 ff 3d df ac 8f 3c 74 12 59 3c
       -0.17860581 0.12455355 0.017538486 0.0132490285
0000f0 ed 42 20 3e cd 33 d9 bd 6b cc 5d 3e d3 2e e8 3d
       0.1565053 -0.10605583 0.2166001 0.11337056
000100 c6 9c 44 3d b8 fd 51 be 20 dd 0b 3e a2 50 bc 3a
       0.048001073 -0.20506942 0.13658571 0.0014367292
000110 30 4f 05 be ba 7e 46 3d d6 92 81 3e 39 2e 00 bd
       -0.13018489 0.0484607 0.2530734 -0.03129408
000120 24 75 34 be ac 5b 4b 3e 38 26 70 3e 05 a9 7c be
       -0.1762281 0.19859189 0.2345208 -0.24673851
000130 67 2d 27 3e 3e a1 c2 3e a5 c2 ff be fe a5 69 be
       0.16325913 0.38013643 -0.4995319 -0.22817227
000140 33 1d 01 3d df 58 4d be f2 e2 33 bf 40 60 a5 be
       0.031521987 -0.20053433 -0.70268166 -0.32299995
000150 2c 3e a9 be 6c 7c 96 be 65 82 5c 3e 76 1c 2b b9
       -0.33055246 -0.293918 0.21534117 -0.00016318433
000160 c7 49 41 ba 7b 97 ea 3e eb fa 50 be 62 ec 19 be
       -0.00073733594 0.45818695 -0.20408218 -0.15031579
000170 90 9b ce 3d f0 66 23 be 48 2e 43 3e 63 a2 2c 3e
       0.10088265 -0.15957236 0.19060624 0.1685882
000180 2d d0 e1 bd 4d 6d d8 be 53 0d af be 83 f0 0a bf
       -0.110260345 -0.4227089 -0.34189853 -0.5427324
000190 16 c3 18 be ee 50 4c be d8 e8 c1 be 4e ea 99 3e
       -0.1491817 -0.19952747 -0.37872958 0.30061573
0001a0 fc ed ca 3d 53 54 b1 be 02 e3 cd 3e a6 47 56 3e
       0.09908673 -0.34634647 0.40212256 0.20925769
0001b0 07 7d b3 be 51 ed 87 be 65 1a 75 be e0 ed 7a 3e
       -0.35056326 -0.26548246 -0.2393585 0.24504805
0001c0 87 0a be 3e bd 95 98 3d b6 b6 73 be 4e 5e 4f 3c
       0.37117407 0.07450435 -0.23800167 0.012656761
0001d0 1d 1a c6 3e 06 60 bd 3d d4 be 5a bd 4c 14 1a bc
       0.38691798 0.09246831 -0.053404644 -0.009404253
0001e0 86 57 6c 3d 74 e3 04 be 1d 35 9c be fd e9 06 3e
       0.057700656 -0.12977391 -0.30509272 0.13175197
0001f0 64 bb ce b9 b9 a2 dc be 12 39 f2 be 32 a9 e9 be
       -0.00039431 -0.43092898 -0.47309166 -0.45636898
000200 10 80 44 be 58 a1 1d bd 56 3b a0 bd 6e 26 6f 3e
       -0.19189477 -0.038483948 -0.078238174 0.23354504
000210 1a 33 21 3e 13 9b 63 3e df 0f f6 3e cf 8a 5e 3e
       0.1574215 0.22227125 0.48058984 0.21732639
000220 9b 82 a4 be f5 de bd 3b e7 55 c4 3e 50 fa cf 3d
       -0.32130894 0.005794401 0.38346788 0.10155165
000230 1e f3 86 3d 91 24 6e 3d 37 46 97 be 51 2b 6a be
       0.0658934 0.05814034 -0.29545757 -0.22868086
000240 72 dc 26 bf 81 14 28 be df f0 ad be f6 dd 50 bc
       -0.6518012 -0.16414072 -0.33972833 -0.012748232
000250 b4 c8 03 3f d1 c6 60 3e cd 48 b9 bd c3 04 93 3e
       0.51478124 0.21950842 -0.09047089 0.2871457
000260 d3 fe 91 3e a4 3c 86 3e 3c 10 d0 39 af 55 9c 3e
       0.28514728 0.2621814 0.00039684947 0.3053412
000270 f7 0c cd 3d a1 40 c4 3a 62 f6 98 bd 8c c2 d6 bd
       0.100122385 0.0014972874 -0.07468869 -0.104863256
000280 6d 88 4e be f6 41 a1 be 62 4b dd 3b 2d 8e 80 be
       -0.2016923 -0.31495637 0.006753371 -0.25108472
000290 8e d3 09 be 5a ab 7c 3e 7d ed 9a bc dd 93 b0 3e
       -0.13459608 0.2467474 -0.018912071 0.3448781
0002a0 7f 62 06 3f 7a 81 15 3d 09 7b b9 3e 92 11 50 3e
       0.52494043 0.03650043 0.3622668 0.20319203
0002b0 d5 67 a6 be 60 b2 6a bd 0c 9a c7 3d 9e e5 4e 3d
       -0.32501093 -0.057299018 0.09746179 0.05051195
0002c0 3b aa bf 3c 0d 82 7b bc 16 13 80 37 a2 42 7b be
       0.023396602 -0.015350831 1.5267677e-05 -0.24537137
0002d0 9e 64 30 3b 95 f3 e1 bd 8a d9 86 be 7a 83 de 3c
       0.0026915441 -0.11032788 -0.26337844 0.027162302
0002e0 e3 31 55 3e 26 79 11 3e cd d4 51 b8 52 c7 28 3e
       0.20819812 0.1420637 -5.002767e-05 0.16482285
0002f0 95 15 a0 3d 1b 93 11 3e ab 72 89 3d 9c e6 e1 bc
       0.078166164 0.14216273 0.06711324 -0.027575783
000300 fa 8a c9 be 4d 34 25 be a8 20 21 be f2 fd 15 be
       -0.39363843 -0.16133232 -0.15735114 -0.14647654
000310 23 5b af 3d 5f 33 30 3e 6e 6f 74 be f6 68 2f bf
       0.08562305 0.17207097 -0.23870632 -0.6851953
000320 88 0b 88 be e7 72 d0 be dd d8 7d 3d 6a 45 b0 3e
       -0.26571298 -0.40712664 0.061974395 0.3442796
000330 31 40 46 3d 23 a0 6a 3e 42 cc 35 3f 1d c7 f2 bd
       0.04840106 0.2291265 0.710148 -0.11854384
000340 41 98 8d be b3 d6 5d 3e 1e 67 6d bd 51 53 34 3c
       -0.27655223 0.21663933 -0.05795967 0.011006192
000350 3e d5 16 3e 1c bd c1 3d 61 9a a6 bc f7 16 93 3d
       0.14729783 0.09459898 -0.020337285 0.071821146
000360 2b 80 c1 be 9d 2d 11 be 70 f8 a6 3d 72 3c 58 be
       -0.37793097 -0.14177556 0.081528544 -0.21116808
000370 f2 9b 1d 3d e9 d8 e2 3e f4 c9 e6 be 9a 9f 31 be
       0.0384788 0.44306114 -0.45075953 -0.1734604
000380 ce 33 5e bd 29 92 a7 3c c2 9e 54 be fa 15 01 bf
       -0.054248624 0.020455437 -0.20763686 -0.5042416
000390 d6 33 78 be 78 b0 33 be fc 4c 42 bf 18 88 11 bd
       -0.24238524 -0.17547786 -0.7589872 -0.03553018
0003a0 ff 60 5e 3d 4d eb e8 3d 7c 52 73 3e f1 15 b0 3c
       0.05429172 0.11373005 0.23761934 0.021494837
0003b0 32 d6 90 be 0c 53 8c 3e 38 57 1e 3e 5d da cf 3d
       -0.28288418 0.2740711 0.15462959 0.10149071
0003c0 4d 96 9f be 9c 33 4c be c9 4d ff be 47 f6 dc 3d
       -0.31169358 -0.19941562 -0.49864033 0.10789161
0003d0 28 76 a9 3e a9 23 ed 3d fc 2d b7 bd 4c db 1a 3e
       0.3309796 0.11579067 -0.08944318 0.15122718
0003e0 12 dd b3 3c d4 a0 92 be 28 91 86 3d 6a c9 24 bd
       0.021956 -0.28638327 0.06570655 -0.040231146
0003f0 e7 4b 1b be f4 58 bc be e5 bb 97 3d 18 55 0e 3c
       -0.15165673 -0.36786616 0.07408885 0.00868728

conv2.bias f4 [32]
000000 27 6c c4 3d 23 38 17 3e e0 06 04 3e 8d ac 12 3e
       0.09590941 0.14767508 0.12893248 0.14323635
000010 f1 98 89 3d e5 90 bb 3d e4 9e b0 bf 6d 16 0e bd
       0.067186244 0.09158496 -1.379849 -0.034689356
000020 64 c7 bc 3e 1c 19 ac be c8 7f 85 3e bb dc 14 be
       0.36870873 -0.33612907 0.26074052 -0.14537327
000030 a5 48 5c bd 06 9a 33 3e f6 d6 54 3d c2 c2 b8 bd
       -0.053780217 0.17539224 0.051962815 -0.09021522
000040 37 70 86 bd 2a 9a 32 be b9 22 7f bd 8c 50 d0 bd
       -0.06564372 -0.17441621 -0.062288973 -0.10171613
000050 85 2e 41 bd be 75 35 3d 15 94 06 3e 77 f0 0f 3d
       -0.047163505 0.04430174 0.13142426 0.035141435
000060 e1 a9 a2 3e 0b d2 6f 3b fe ab fd 3b ce ae 09 be
       0.31770232 0.0036593701 0.0077414503 -0.13445589
000070 88 19 11 bf 6c de af 3e 70 ad 34 bd dc 1a c5 3e
       -0.5667958 0.34349382 -0.044110715 0.38497055

batch2.weight f4 [32]
000000 16 60 44 3f 2f 4d 6b 3f e8 98 b5 3f f3 d0 8e 3f
       0.76709116 0.9191465 1.4187288 1.1157516
000010 cb 6b 7d 3f c1 3e 9a 3f 49 73 9f 3f 5e 6c 33 3f
       0.98992604 1.2050401 1.2457057 0.7008723
000020 f6 36 94 3f d1 b7 6c 3f 8b bd 96 3f 77 58 65 3f
       1.1579273 0.9246798 1.1776594 0.8958811
000030 db 85 13 3f ce 35 a6 3f 70 03 88 3f ce a1 9e 3f
       0.5762612 1.298517 1.0626049 1.2393129
000040 f7 ba 55 3f 26 7c 63 3f 8e 9c 6c 3f 4d 33 46 3f
       0.8348841 0.8886131 0.92426383 0.7742203
000050 9d 87 94 3f ce b1 81 3f 53 53 99 3f a9 56 88 3f
       1.1603886 1.0132387 1.1978554 1.0651447
000060 6e 0e 7e 3f 26 c0 34 3f 15 fb 3e 3f 00 73 24 3f
       0.9924077 0.70605695 0.7460187 0.64237976
000070 4f a5 96 3f cd 3b 79 3f db 72 67 3f 1f 21 5e 3f
       1.1769198 0.97356874 0.9040963 0.8676929

batch2.bias f4 [32]
000000 3d 2d 06 be d4 75 04 bf 58 9d 4a be be 45 1a bf
       -0.13103195 -0.5174229 -0.19786584 -0.6026267
000010 47 a1 9b be e6 80 23 bf e8 61 b3 be 09 3e 28 be
       -0.30396482 -0.6386856 -0.35035634 -0.16429915
000020 46 76 03 bf e5 f7 86 be 33 ba fe be 98 60 bc be
       -0.51352346 -0.26361004 -0.49751434 -0.36792445
000030 c6 9c 4f 3b 81 4f ee be cb cc f1 be 0a 44 17 bf
       0.0031679138 -0.46545032 -0.47226557 -0.59088194
000040 c7 3b b4 be e2 9c ed be 95 49 e6 be a1 37 d0 bb
       -0.35201856 -0.46408755 -0.44978014 -0.0063542877
000050 92 98 f8 be 93 fd dd be 44 a7 0c bf b1 14 b6 be
       -0.48553902 -0.43357524 -0.5494273 -0.3556266
000060 64 11 fd be bf 92 92 be 5f 1e 84 be e8 a3 81 be
       -0.4942733 -0.28627583 -0.2580442 -0.25320363
000070 03 78 fd bd 4e 38 ac be 50 72 b8 be eb 08 e0 be
       -0.12376406 -0.33636707 -0.36024714 -0.43756804

conv3.weight f4 [32, 32, 3, 3]
000000 cf 66 e9 3e 89 a0 08 3f 88 15 0b 3e a2 ed 93 be
       0.4558625 0.5336996 0.13582432 -0.28892237
000010 19 09 77 3c 4f a6 97 3e 31 ec a6 be e9 9a 68 be
       0.015077853 0.2961907 -0.32602075 -0.22715344
000020 84 f2 c8 3c b7 7c dc 3d 77 71 8d 3d 43 1d 85 be
       0.024529703 0.10765975 0.06906407 -0.25998887
000030 f0 ca 40 be f6 fd c8 bd 43 50 19 3e f6 0f 78 3e
       -0.18827415 -0.09814064 0.14972024 0.24224839
000040 f1 95 7b 3e 21 a0 a2 be 4d 29 bd 3c c6 c1 f5 bc
       0.24568917 -0.31762794 0.023090983 -0.029999625
000050 49 31 da be 31 ee 5e 3e 1b 8f 94 3d 62 49 54 be
       -0.42615727 0.2177055 0.07253858 -0.20731118
000060 ec c2 e0 3d 71 93 81 3d 29 6c 0b be 4d 7f 1f be
       0.109746784 0.0632695 -0.13615479 -0.15575905
000070 7e 56 88 be a0 27 d4 3e a3 15 41 3e 29 09 16 be
       -0.26628488 0.4143648 0.1885591 -0.14651932
000080 09 4d 11 3f b5 b0 ce be 00 ba ed 3c 3a 80 a8 3e
       0.5675817 -0.40369192 0.029019356 0.3291033
000090 23 64 93 3e 27 da 11 3f da fe 18 3e fd 03 9e 3c
       0.28787336 0.569735 0.14940968 0.019289011
0000a0 dd 53 7a 3e 93 43 02 3b cd df 9c bd c1 d8 00 bd
       0.24446054 0.0019876703 -0.07659874 -0.031456713
0000b0 6a 9d b3 bc 32 e5 be 3e f1 53 8f 3e ed 17 2b 3e
       -0.021925647 0.37284237 0.2799373 0.16708346
0000c0 62 61 c2 3d ff a7 9f 3e 37 13 50 3e 9c c1 b2 be
       0.094912305 0.31182858 0.2031983 -0.34913337
0000d0 e3 03 46 3e f7 74 93 be 12 44 e0 3e 5f 13 10 3d
       0.1933742 -0.28800175 0.43801934 0.035174724
0000e0 40 8d 86 be a0 ad 7d 3e 4f f6 94 bd d4 86 e1 bb
       -0.2627964 0.24773264 -0.07273542 -0.006882528
0000f0 44 4d 9f 3e a4 18 b5 3e be be dd 3d ee 45 a9 be
       0.31113636 0.35370362 0.10827397 -0.33061165
000100 a3 40 ee be 06 9a 38 bf 82 2b 7b 3e 1d 02 72 be
       -0.4653369 -0.7211002 0.24528316 -0.23633619
000110 67 86 c5 be d0 7d 84 bd c7 d6 4a bd c7 39 7a 3c
       -0.38579103 -0.06469309 -0.049521234 0.015272564
000120 9b 0b 1a 3e 62 7d 04 be 84 04 9f be f8 a6 2b bc
       0.1504349 -0.12938455 -0.31058133 -0.01047682
000130 65 42 c0 bc d4 f0 76 3e 6d ea 66 3d 65 22 67 bc
       -0.02346916 0.24115306 0.05637591 -0.014107321
000140 35 49 7f 3e 45 f3 3e bf 20 71 ac bd 79 b9 86 3e
       0.2493027 -0.7458995 -0.084200144 0.2631338
000150 26 13 05 bf 43 17 6c be d0 97 1e 3e c8 e5 69 bd
       -0.51982343 -0.23055749 0.154876 -0.057103902
000160 fd 51 aa 3c 50 a6 87 3d c0 b8 92 bd 7c 0b 07 bf
       0.020791048 0.066235185 -0.071641445 -0.527519
000170 0b 6b c3 3e cd d3 e9 bd 29 c7 83 3d 19 3f 5e 3e
       0.38167605 -0.11417351 0.06434471 0.21703757
000180 19 13 0c bd 49 b0 9a bd 5b f9 c1 bd ed c7 45 bc
       -0.0341979 -0.07553155 -0.09471389 -0.012071592
000190 56 71 8a bc 61 42 53 3e 8f b4 72 3e 92 42 22 be
       -0.016899746 0.2063079 0.2370169 -0.15845707
0001a0 ad 05 0a be 3d a3 b5 3d 7a 10 84 3e d4 83 13 be
       -0.13478728 0.08869026 0.2579382 -0.14405757
0001b0 45 50 14 be 09 1a 06 be ad 69 d5 be b1 18 98 be
       -0.14483745 -0.13095869 -0.41682187 -0.29706338
0001c0 ee 9b c6 bd b1 34 b1 be a3 f4 99 be f5 5a 0a 3c
       -0.0969771 -0.34610513 -0.30069456 0.008444537
0001d0 69 5e 8a be 52 f0 d3 bd 9d cc ae bd 78 5f 87 3c
       -0.27025154 -0.10348572 -0.08535121 0.016525015
0001e0 8e fd 82 3e 80 07 e2 3d ab 00 13 be 70 38 1a bb
       0.25584072 0.11036587 -0.14355724 -0.0023532175
0001f0 ce cd 57 3d 04 55 e1 be dd e6 4c be e7 0e a7 be
       0.052686505 -0.44010174 -0.20009942 -0.32628557
000200 3f 56 38 bf b2 06 8c bd 13 42 d8 bd c9 59 4e 3d
       -0.720066 -0.068372145 -0.10559478 0.050378595
000210 c2 f6 58 3d 5e 61 98 3e bc 8a 77 3d 80 0d bd 3e
       0.0529697 0.29761785 0.06043504 0.36924362
000220 36 9e 5f bc ba 2f e3 bd 05 4d 85 3e 3d af 63 be
       -0.01364856 -0.110930875 0.26035324 -0.22234817
000230 b8 da 0a bf 33 9f 9d bd 05 e6 c7 3e fc 88 9a be
       -0.5423999 -0.076963805 0.39042678 -0.30182636
000240 cc dd 1a 3e 00 82 62 bd e3 a6 19 bf 9d 29 31 bd
       0.15123671 -0.05529976 -0.60020274 -0.043252576
000250 a1 58 46 bd 35 a5 3a bc 57 f5 47 be ee ed 49 be
       -0.048424367 -0.0113919275 -0.19527183 -0.19719669
000260 1a 18 61 be 43 23 bf bc 1f eb 4f be 1c 16 cc 3e
       -0.2198185 -0.023332244 -0.20304535 0.39860618
000270 d6 8b 46 3e fb a2 36 3e c6 d0 3d 3e e6 f2 02 be
       0.1938928 0.1783561 0.18536672 -0.12787971
000280 46 41 d3 3d 3a c5 29 3e 6a 8f 00 bc f1 4a 40 3e
       0.10315184 0.16579142 -0.007846693 0.18778588
000290 2c f8 aa 3e 55 a4 30 be 96 b5 2f be 4b ef 43 be
       0.33392465 -0.17250188 -0.17159113 -0.19134252
0002a0 26 a8 b3 3d 15 33 e9 be 55 2f bc be 56 7f 86 be
       0.08772306 -0.45546785 -0.3675486 -0.26269025
0002b0 c3 ef 1a bd d3 53 1e 3d 8b 2b a4 be 91 48 55 3d
       -0.03782631 0.03865416 -0.3206447 0.052071158
0002c0 74 23 68 be ff 66 99 be 0e 11 86 be 69 c5 2d be
       -0.22669774 -0.29961392 -0.26184887 -0.16969837
0002d0 0d 09 0e be 30 2f 65 3d f2 94 ba 3e fd 2c 88 3e
       -0.1387064 0.055953205 0.3644176 0.26596823
0002e0 56 f3 e7 3c d2 a9 34 3e 50 77 96 3e 0c f2 27 3e
       0.028314274 0.17642906 0.29387903 0.16400927
0002f0 ad c6 ea 3d ae 00 84 3e 1c bd 0b b9 42 18 6f 3c
       0.11463676 0.2578177 -0.00013326522 0.014593186
000300 71 56 84 3e 5c 15 e6 be 33 21 a9 be c4 46 f8 bd
       0.258472 -0.4493817 -0.33033141 -0.121228725
000310 5d 00 87 bd 32 25 96 3d 16 90 8e 3e c1 26 b8 3c
       -0.06591866 0.07331313 0.27844304 0.022479417
000320 92 ec 9f be cf cf c7 3e b3 a1 dc 3e 4a ed 11 3e
       -0.31235176 0.39025733 0.43092117 0.14250675
000330 c9 b4 da 3d c5 c1 70 3e a1 5c 98 3d ef 95 1a 3e
       0.10679013 0.23511417 0.074395426 0.15096258
000340 68 08 5a bd 90 c1 07 be 33 1f d0 be 09 47 80 be
       -0.053230673 -0.13257432 -0.40648803 -0.25054196
000350 a1 5f 75 3d 7b 62 0d bf b1 bc 68 3c 66 aa c5 3e
       0.059905652 -0.55228394 0.014205144 0.38606566
000360 cd 7f 76 3e 7d 09 15 be c2 2f 89 bf 14 9f 34 3e
       0.2407219 -0.145544 -1.07177 0.17638808
000370 20 bd b9 be 53 cc 9f be 48 e8 20 3a b9 21 cc be
       -0.36277103 -0.31210575 0.0006138128 -0.39869478
000380 84 4f 9a be 87 79 f7 3b 5c b0 49 be 37 cd 09 bf
       -0.3013879 0.007552329 -0.19696182 -0.5382876
000390 aa c0 92 be 54 ae f9 bc c3 21 00 bf 79 0a 86 3c
       -0.28662616 -0.030478634 -0.50051516 0.016362416
0003a0 7a c1 ad 3e b6 dc 8c 3e 2a 48 6c 3e 26 1f 82 3e
       0.33936673 0.2751214 0.23074403 0.2541439
0003b0 5e 5b 67 be 04 b0 fa 3e 80 c6 7c 3e 4b 7c ef be
       -0.22593448 0.48962414 0.24685097 -0.46774516
0003c0 61 d7 01 3f 9e 13 ae 3d dc 52 48 be b9 fe bf 3c
       0.5071927 0.084998354 -0.19562858 0.02343689
0003d0 fe 6b 14 be 74 e0 97 bd 18 d7 a0 3e 2c a9 91 3e
       -0.14494321 -0.07415858 0.31414104 0.2844938
0003e0 c5 ea 32 be 5f b0 9c 3d 74 1d 45 be 09 f3 0d bf
       -0.1747237 0.076508276 -0.19249517 -0.5544897
0003f0 6c 44 b0 bd aa 8c a6 be cc 7b 96 3d bd b5 4e 3d
       -0.086068004 -0.32529193 0.07347831 0.050466288

conv3.bias f4 [32]
000000 2c 83 6d 3e a8 c5 78 3e 6c 23 ec 3e ff 87 a3 3d
       0.2319457 0.2429415 0.46120775 0.079849236
000010 67 3c 24 3e a4 46 cb 3d 1d c8 e1 bf a1 57 8a 3e
       0.16038667 0.09925583 -1.7639195 0.2701998
000020 20 2e 2a bd 08 a5 d0 be f4 7b c5 3d 13 b2 fb ba
       -0.041547894 -0.4075091 0.09642783 -0.001920285
000030 a8 84 0e 3f b2 9c be 3e 6f 20 58 3d ea 8a e1 3e
       0.5567117 0.37228924 0.052765306 0.44051296
000040 b8 f9 26 3f f6 f4 18 3e 2d e0 90 3e 0f 23 18 3f
       0.6522479 0.14937195 0.28296033 0.59428495
000050 4c 8a 05 3f e1 2b be bc da 49 6d 3e 50 2e 65 3f
       0.5216415 -0.023214282 0.23172703 0.8952379
000060 ed f2 a3 3d 1f 73 a3 3f 5c 3b be 3e 43 6c f6 3e
       0.08005319 1.2769507 0.37154663 0.48129472
000070 99 5c c5 3e 6f dc 5e 3e fd 95 92 be 52 96 21 bf
       0.3854721 0.21763776 -0.28630057 -0.63119996

batch3.weight f4 [32]
000000 bf d0 3f 3f 5d a6 5c 3f 4b f6 82 3f 65 71 60 3f
       0.74927896 0.8619135 1.0231413 0.87673026
000010 0d 5d 3a 3f 4d 11 5f 3f 28 28 ac 3f e2 02 48 3f
       0.72798234 0.87135774 1.3449755 0.781294
000020 5c 65 95 3f 8e 2c 90 3f 3c 46 39 3f 68 07 3f 3f
       1.1671557 1.1263597 0.72372794 0.74620676
000030 26 f7 66 3f 29 94 8c 3f c1 35 16 3f 70 58 46 3f
       0.9022087 1.0982715 0.5867577 0.77478695
000040 03 b6 67 3f fb de 5e 3f fa bd 3d 3f 2c d6 5e 3f
       0.905121 0.8705899 0.74118006 0.8704555
000050 a6 93 67 3f cb f2 78 3f f0 8d 38 3f 4a 2d dd 3f
       0.9045967 0.9724547 0.7209158 1.7279446
000060 88 60 48 3f 7d b5 8a 3f 61 a1 76 3f 94 39 77 3f
       0.78272295 1.0836636 0.96339995 0.9657223
000070 41 7d 3a 3f 5e 10 38 3f 80 b6 87 3f c6 4a 87 3f
       0.7284737 0.71899974 1.060257 1.0569694

batch3.bias f4 [32]
000000 79 19 8b be be 77 82 be 35 1a d5 be db a6 eb be
       -0.27167872 -0.2548198 -0.41621557 -0.46025738
000010 9f f6 8d be f0 b7 25 bf ae cb 49 bf 7f 9a 80 be
       -0.2772722 -0.6473379 -0.78826416 -0.2511787
000020 bb c9 56 bf ac df 87 be f9 f2 00 bf 1f c3 33 be
       -0.83901566 -0.26537836 -0.50370747 -0.17554902
000030 64 ed 97 be 5c d7 e4 be 21 b8 86 bc 6a c9 a6 be
       -0.29673302 -0.44695556 -0.016445221 -0.32575542
000040 67 c5 e6 be 36 3a a2 be 2e fa 7b be 8c 1f a1 be
       -0.4507248 -0.31685036 -0.24607155 -0.3146938
000050 40 f4 25 bf 72 6c be be 56 43 4f be 52 db 73 bf
       -0.6482582 -0.37192112 -0.2024053 -0.9525653
000060 d2 8f 0c bf 5e d6 18 bf d3 69 95 be f6 e6 11 bf
       -0.5490695 -0.597021 -0.291823 -0.56993043
000070 a7 03 1e be 3a 66 6e be 19 16 84 be 93 93 79 bf
       -0.15431081 -0.23281184 -0.2579811 -0.97490805

conv4.weight f4 [32, 32, 3, 3]
000000 28 3d fd bd 0b 51 20 3b 38 84 53 bc 4d 41 ea bd
       -0.1236518 0.0024462368 -0.012909941 -0.114382364
000010 85 e4 4f bd a5 9f 3c bd 74 83 b9 bd e7 d8 16 be
       -0.050755043 -0.046050686 -0.09058276 -0.14731179
000020 92 fa e1 3d 45 86 9f 3d ff 5d 9f 3d a0 fa b2 3d
       0.110341206 0.07789282 0.077816 0.08739209
000030 bb 79 01 bd dd 7c cb bd c4 d5 22 3c 28 92 49 3d
       -0.03161023 -0.09935925 0.009938661 0.04921165
000040 b6 5f 04 bd 96 98 cc bc b3 3b da 3d 35 95 db 3c
       -0.03231784 -0.024975102 0.10655918 0.026804546
000050 5d 2e 5a 3d 9d 75 74 3d b9 42 86 3c dd 5a 78 3d
       0.05326687 0.059682477 0.016389238 0.06063353
000060 90 8b 95 3c da bd 57 bd cd 54 ba bc a9 80 28 be
       0.018255025 -0.05267129 -0.022745514 -0.1645533
000070 62 d2 f8 bb 83 0e 25 bd fe 09 f7 bd 66 93 c8 3c
       -0.007593439 -0.040297043 -0.12062453 0.024484348
000080 21 fa a2 bd 76 95 2d be ff 08 89 bc e8 de 83 3d
       -0.079578646 -0.16951546 -0.016727922 0.06439
000090 cf d8 49 3c da 31 f1 3d b0 4d 9e 3d f8 ca eb 3d
       0.012319758 0.117770866 0.077296615 0.115133226
0000a0 52 1d 24 3e 3d 63 84 3d c8 6c 11 3e 22 6b 96 3d
       0.1602681 0.06464241 0.14201653 0.07344653
0000b0 71 42 8b 3c cf 15 e3 3d a8 4c 84 3b c2 d2 98 3d
       0.016999455 0.11088144 0.0040374584 0.07462074
0000c0 7a 7c 09 3e a4 d0 17 bd bb 7c 28 3c 3e 69 f8 3d
       0.1342639 -0.03706421 0.010283644 0.12129448
0000d0 4d 90 cd 3d 18 98 04 3d 71 ba 95 3b 58 72 8d 3d
       0.10037289 0.03237161 0.0045693447 0.06906575
0000e0 9c 17 93 3c f9 01 8b 3d 95 75 65 bd a1 ad bd 3c
       0.017955594 0.06787486 -0.056020338 0.023154082
0000f0 26 04 5c be 8b 7a 27 3d 2f 31 64 3d 5d 74 7b 3d
       -0.21485958 0.04088835 0.055710968 0.06139027
000100 9c 70 54 bb cc e9 d4 3c 55 29 1b 3e af 7d 1d bd
       -0.0032415753 0.02599039 0.15152486 -0.03844994
000110 ec 46 b4 bc 98 f9 c7 3c 3e 5b 31 3c 2e 16 2f 3d
       -0.022006474 0.024411008 0.0108249765 0.04274576
000120 5f 3b 0e be bd bb e2 3d 30 42 5d 3d 91 0b 57 be
       -0.13889836 0.110709645 0.0540182 -0.21000506
000130 13 6e f1 bd 53 3f d9 3d 07 d4 40 be 94 e9 11 bd
       -0.11788573 0.10607781 -0.18830882 -0.035623148
000140 ab f8 65 bd ce bc d7 be 88 c6 0d 3b bb e8 9f 3a
       -0.05614535 -0.42136234 0.0021633226 0.0012200096
000150 6b 2d bf be 65 76 22 bc a6 ff 51 3c 4a 1e cc be
       -0.3733934 -0.009915923 0.012817299 -0.3986686
000160 d0 72 60 3d e2 47 d5 3d f6 46 46 3c 39 3a 9d 3c
       0.054796994 0.10414101 0.012101879 0.019192802
000170 46 9e c1 3d 3a 85 97 3c 30 6f 21 3d 8c 5a f3 3d
       0.094540164 0.018496145 0.039412677 0.11882505
000180 18 ef 4c bd b1 32 7f 3c c0 e3 14 3e 4c 00 b6 bd
       -0.050032705 0.015576051 0.14540005 -0.088867754
000190 b7 5a 3b 3d 82 86 1f 3d 3a c3 0b bd 4e 06 8e bd
       0.04574081 0.038946636 -0.03412173 -0.06934796
0001a0 30 8b 04 bd 93 82 8b bd 7e 05 10 3d 5a aa a5 3d
       -0.032359302 -0.068120144 0.035161488 0.080891326
0001b0 f5 8f 93 3d 76 64 01 3d 3d ab e6 bb 73 8c a9 3b
       0.07205192 0.031589948 -0.007039456 0.0051742136
0001c0 37 d0 5a 3c 22 dd 27 bd fa a1 b8 3d 77 ed 79 3c
       0.013355306 -0.040982373 0.090152696 0.01525437
0001d0 e1 a9 b1 3d cf 3f 47 3d 4c 68 06 3e 84 90 aa 3c
       0.0867498 0.048644837 0.13125724 0.020820864
0001e0 4b ea 1f 3e 62 ae 0c 3e 20 d9 7b 3b 4e 60 2a 3e
       0.1561672 0.13738397 0.0038428977 0.166383
0001f0 ed 60 be 3d 81 26 d2 3b ab 26 da 3d 6f 2f 92 3d
       0.09295831 0.0064132814 0.106519066 0.071379535
000200 f1 f6 48 3c 78 af d7 3d f9 be 3d 3d 59 8a 1f bd
       0.012265907 0.10531515 0.046324704 -0.038950298
000210 8d f8 19 3e b0 07 57 3d a6 71 0c 3e 75 df 35 3d
       0.15036221 0.052497566 0.13715228 0.04440256
000220 f3 7f 5e 3d cc 17 86 3d c1 7c 65 3d fe e4 86 bd
       0.05432124 0.06547508 0.056027178 -0.065866455
000230 e9 16 81 3d c1 e0 8f 3b b5 90 c8 3c a2 c3 00 3d
       0.06303198 0.0043908064 0.024483064 0.03143657
000240 61 b0 12 3d 68 5f f9 3c c5 a9 c1 bd b2 fb 90 3d
       0.03581274 0.030441001 -0.09456209 0.07079257
000250 5f 82 be bc 21 b6 8f bc 30 10 67 3d 7c 2c 6d 3d
       -0.023255525 -0.0175429 0.056411922 0.05790375
000260 06 7a 18 bc 31 7e 3e be c7 1a 38 3d 2b 5e 88 ba
       -0.009306436 -0.18602826 0.044947412 -0.0010404041
000270 f0 99 7d bd 2e c0 04 3c 49 3c 26 bd ac eb 23 be
       -0.061914384 0.00810246 -0.040584836 -0.1600787
000280 f9 c2 64 3d 5b be 4e 3d e3 b7 19 3e ca 60 63 3d
       0.055850003 0.050474506 0.15011553 0.055512227
000290 8d de 8d 3d aa 01 b7 3d 1f a2 84 3d cf bd 6f 3d
       0.06927214 0.08935864 0.06476235 0.058530625
0002a0 fe 58 10 3e 34 67 80 3d 1b b8 9e 3d f6 2c 0e 3e
       0.14096448 0.062696844 0.07749959 0.13884339
0002b0 10 95 97 3d c8 06 cf 3d 98 f1 db 3d 4c 36 f4 3d
       0.07401478 0.10108715 0.1073944 0.11924419
0002c0 d1 b6 2f 3b e1 fe c6 3d 7c ed 07 3d 6f bb de 3c
       0.0026811848 0.09716583 0.033185467 0.027188985
0002d0 52 d2 d1 3d d2 29 17 bd 9b 75 8e 3d e9 93 23 3e
       0.102451935 -0.036905117 0.06956025 0.15974392
0002e0 2e fc 89 3d cf 38 4f 3d cc 9e 25 3e 0f 5a 2e 3e
       0.067375526 0.050591286 0.16173857 0.17026542
0002f0 c8 4d 96 3b c5 91 bd bc fb 50 a2 bd 08 9f 44 3d
       0.004586909 -0.023140797 -0.07925602 0.048003227
000300 f1 d8 45 3d 20 42 e7 bd a9 99 82 3d f0 60 d0 bd
       0.048302595 -0.11291909 0.063769646 -0.10174739
000310 ef 8a 74 3d 41 5a 00 3e 02 81 85 bd 98 60 a9 3b
       0.05970281 0.12534429 -0.06518747 0.0051689856
000320 f8 fb 90 3b 75 12 1b bd c4 23 ab 3d e3 48 1a bc
       0.0044245683 -0.0378594 0.08356431 -0.009416792
000330 ca ed c7 3c 84 51 4a bd 0d 6c 3d 3d 85 21 e4 be
       0.024405379 -0.049394146 0.046245623 -0.44556823
000340 b7 e4 7d bd 2a 44 27 bc cb 39 e5 be 57 d3 a6 bd
       -0.061985698 -0.010209123 -0.44770655 -0.081457786
000350 9a 75 09 3e f3 5e d9 be 2d 21 b7 bd f2 9d 58 3d
       0.13423768 -0.42455253 -0.08941875 0.052885003
000360 6e d3 0f 3d f6 ba fd 3c 7a b2 5d 3d d6 70 7f 3d
       0.035113744 0.030972939 0.054125287 0.062363468
000370 dc ae 72 bd 1c 68 60 bd 07 df 39 3d c3 08 bd bd
       -0.05924879 -0.054786786 0.04537871 -0.09230187
000380 30 40 1b 3d 33 23 b0 3d d8 46 b0 3d bb 80 e5 3d
       0.03790301 0.08600464 0.086072624 0.11206194
000390 cc 4a 03 3e 10 ae 08 bd 71 46 04 3e 5d 7e 93 3d
       0.12821501 -0.033369124 0.12917496 0.07201836
0003a0 6e 50 13 3d 47 d9 37 3c c0 04 86 be 20 9f c8 3d
       0.035965376 0.011221237 -0.261755 0.09795976
0003b0 a5 40 ad 3d 5d d1 45 be e4 66 f4 3d 96 17 96 3c
       0.084595956 -0.19318147 0.11933687 0.018321794
0003c0 02 1d 78 be 41 1b 92 bb 15 f9 ca 3c 94 a9 f6 3d
       -0.24229816 -0.0044588153 0.024776975 0.12044063
0003d0 f7 e1 fe bc 5c 61 de bc 62 86 44 3d 4d b8 6a 3c
       -0.031113608 -0.027146034 0.04797972 0.014326167
0003e0 54 0b 5e bd dc d2 9f 3d 78 9a 45 3d 23 46 36 3d
       -0.054210022 0.0780389 0.048243016 0.04450048
0003f0 49 e5 33 bd 32 10 74 bd 9e 0b 3a 3d 20 56 b2 3d
       -0.043919835 -0.059585758 0.045421235 0.08707833

conv4.bias f4 [32]
000000 95 5a 7d bc bb b8 59 3f 78 93 fd 3c af e0 39 3c
       -0.015463491 0.850475 0.030954108 0.011345073
000010 39 0f ba 3e 01 86 41 bc fc 59 a0 3e f5 e2 0d bd
       0.3633974 -0.011811734 0.31318653 -0.03464027
000020 85 71 83 bc 07 2f 92 3c f3 e8 e1 3e b8 ae 60 3e
       -0.016045341 0.01784469 0.4412304 0.2194165
000030 ce 14 a1 3e d7 57 d2 3e 77 82 14 3e 70 fd ae 3d
       0.31461185 0.4108264 0.14502893 0.08544433
000040 74 86 c8 3e ae 16 83 bb 12 7f 77 3c a6 6a 44 3d
       0.3916508 -0.0040005064 0.0151059795 0.04795327
000050 4b ef b1 3e bd 2f 52 3e 20 cb 9b 3d 9b 8c 1b bd
       0.3475288 0.20526023 0.076071024 -0.03797589
000060 6b ed 56 3d 80 d9 49 3f 4b 0a 4d bd c6 da 4e 3d
       0.052472513 0.78847504 -0.050058644 0.050501607
000070 f7 99 4a 3d 61 b1 f6 3c 71 ff cf 3e d6 02 d8 3c
       0.04946324 0.030113878 0.40624574 0.02636854

batch4.weight f4 [32]
000000 19 f4 9f 3e 19 6a b0 40 54 28 64 3f d0 b5 b9 3e
       0.3124092 5.5129514 0.89124036 0.36271524
000010 b1 7e 7e 40 5a ee ce 3e 92 93 71 40 4f 0c c3 3e
       3.9764826 0.40416223 3.774632 0.38095328
000020 a8 b0 e7 3e 44 84 8b 3f 02 c2 98 40 03 24 48 40
       0.45251966 1.0899739 4.7736826 3.127198
000030 53 f7 45 40 a3 78 86 40 65 b4 45 40 b0 64 df 3f
       3.0932205 4.202226 3.0891354 1.7452602
000040 0b fb 99 40 54 c2 9e 3e 76 08 c1 3e fc 3f 97 3e
       4.811895 0.31007636 0.37701768 0.29541004
000050 59 db 62 40 a6 16 67 40 58 ee 45 40 3b 1e c3 3e
       3.544638 3.6107574 3.0926723 0.38109002
000060 75 b7 50 3f dd 98 42 40 e7 f8 d9 3e 16 12 3d 3f
       0.81529933 3.04058 0.4257271 0.7385572
000070 1e e7 c5 3e 6b b5 b8 3f 5d 1b 79 40 3c d4 7d 3f
       0.3865289 1.4430364 3.8922951 0.9915197

batch4.bias f4 [32]
000000 64 1f 2e bf c9 6e 83 c0 8b ce a0 bf 61 43 20 bf
       -0.6801665 -4.1072736 -1.2563032 -0.6260281
000010 79 e0 20 c0 c2 cb 50 bf 2e 00 50 c0 77 8a 2d bf
       -2.5137007 -0.8156091 -3.250011 -0.67789406
000020 45 37 4c bf 44 69 be bf b6 2c 3d c0 d9 bb f0 bf
       -0.79771835 -1.4875875 -2.955854 -1.8807327
000030 f2 8c 19 c0 28 70 35 c0 d6 2d 0e c0 ac 7d f3 bf
       -2.3992276 -2.8349705 -2.2215476 -1.9022727
000040 6e d3 10 c0 d1 a6 2c bf 51 ba 2c bf 24 b2 2a bf
       -2.2629046 -0.6744204 -0.67471796 -0.6667807
000050 26 8c 26 c0 c8 c3 04 c0 bc 6c da bf 26 29 38 bf
       -2.602304 -2.0744495 -1.7064433 -0.7193779
000060 a8 2b ab bf 73 5c 8c bf 79 6a 58 bf cd 88 8b bf
       -1.3372698 -1.0965713 -0.84537464 -1.0901123
000070 d3 f1 38 bf a2 58 05 c0 c8 30 66 c0 a7 69 c6 bf
       -0.72243994 -2.0835347 -3.5967274 -1.5500993

lin1.weight f4 [5, 800]
000000 44 1d 11 bd 42 d1 11 3c 40 70 90 bc b9 f7 1f bc
       -0.0354283 0.008899989 -0.01763165 -0.0097636515
000010 87 56 0a bc 70 fa d1 bc b1 4a 50 bc 2d b6 a2 3c
       -0.008443481 -0.025632113 -0.01271312 0.019862259
000020 43 9f c1 3a 78 2c a4 bc 54 23 0c be df e2 59 bc
       0.0014772195 -0.020040736 -0.13685352 -0.013298719
000030 37 e2 30 3d 2c fe 7a bd c7 11 a3 bc 28 39 ec 3b
       0.043184485 -0.061277553 -0.019905938 0.007208962
000040 7e 82 96 bd 11 7b 6b 3c 0d c3 4f bd 31 62 28 3b
       -0.07349108 0.014372603 -0.050723124 0.0025693292
000050 5c 2b 7f bc 2d c3 f2 3c 05 72 a7 bc 30 c2 2f 3c
       -0.0155743025 0.029634083 -0.020440111 0.01072745
000060 56 90 45 3c 2e 8b 7c ba d5 05 45 bc 58 08 a0 3a
       0.012058338 -0.00096337765 -0.012025316 0.0012209518
000070 e6 53 2a bb 63 ad 8d 3c 90 9a 9e 3b fe 89 8b bb
       -0.0025989949 0.017294591 0.0048402026 -0.0042583933
000080 a5 1e 3b 3a 52 8e ba bb 73 c2 85 3c 51 ee ec ba
       0.000713805 -0.0056932354 0.016328072 -0.0018076395
000090 42 33 a7 bb a6 83 4d bc 15 4d d4 3b 72 48 29 bb
       -0.005102546 -0.012543594 0.0064789155 -0.0025830534
0000a0 54 b9 88 bc da ca 20 bc 2f d6 20 bc cb 83 61 bc
       -0.016689934 -0.009813989 -0.00981669 -0.013764332
0000b0 0f 6c d3 3a 67 7d 06 3b 66 b4 fe ba 4a 17 ef ba
       0.0016130226 0.0020521523 -0.0019432425 -0.0018241194
0000c0 e0 9e 29 bc f1 4c a3 bc 73 5b 39 3d 7c 58 e7 3c
       -0.01035282 -0.01993415 0.04525323 0.028240435
0000d0 9b 25 2d 3d da 9e 13 3d d0 66 d9 3c 34 dc d2 3c
       0.04227219 0.036040165 0.026538283 0.025739767
0000e0 58 5c 4b be af bf 37 be 95 dd 54 be 89 7e a0 3d
       -0.19859445 -0.17944215 -0.20787652 0.07836635
0000f0 55 08 7f be d7 23 34 be a6 bf b2 bd 93 84 d7 bd
       -0.24905522 -0.17591797 -0.0872796 -0.105233334
000100 80 04 b3 bd 83 0c 6b be 3f 6e 50 3b aa 10 27 be
       -0.08741093 -0.22953992 0.0031803993 -0.1631495
000110 5a 8f f5 bd 6a 46 eb 3b 99 00 53 bd 70 44 f2 bd
       -0.11990233 0.007180025 -0.05151424 -0.1182946
000120 2d aa 10 be fc 4b 39 be b5 a2 0a be eb f9 3e bd
       -0.14127417 -0.18095392 -0.1353863 -0.04662506
000130 03 88 b9 3b b7 a3 f9 bb 3c 8e 20 3c a9 6b 28 3c
       0.005661966 -0.0076183933 0.009799536 0.010279574
000140 3f d2 af bc 30 a8 82 bd b9 96 63 bc e9 b8 88 bd
       -0.021462558 -0.063797355 -0.013890916 -0.06675894
000150 27 cf bb bd 20 a1 13 3d 88 2f d5 3b 85 ac 6d 3d
       -0.091703705 0.036042333 0.0065059103 0.058025856
000160 df de ce bc 5c db e6 bd 60 86 07 bd 40 e9 c2 bc
       -0.025252758 -0.11272308 -0.033087134 -0.023792863
000170 a4 9c 05 3b dc bd b2 3c a3 bc ed bb d1 9d 25 3c
       0.0020387555 0.021819048 -0.0072551533 0.010108427
000180 7a 64 4e bb a1 19 ad bc 8c 40 84 3c 80 be 5d 3d
       -0.0031492994 -0.021130385 0.01614406 0.054136753
000190 b1 cf 53 bb 86 fc 19 3b 5d 28 14 bc fc f9 ce bc
       -0.0032319839 0.0023496463 -0.0090428265 -0.025265686
0001a0 46 89 95 3c 11 f1 15 3c be da 7c 3b ba 36 9b bc
       0.018253934 0.009151713 0.003858253 -0.018946994
0001b0 45 c5 e4 bb d4 2b cf bc 69 3a 1e 3b 06 4f f8 bb
       -0.006981524 -0.025289454 0.0024143702 -0.0075777797
0001c0 c6 f7 94 bc b3 49 e4 bb a5 9d 53 bb e5 e1 22 3c
       -0.018184554 -0.0069667934 -0.0032290008 0.009941553
0001d0 d7 b1 84 bc 6d aa 11 3b d8 57 f4 3b 8a 74 85 bc
       -0.016198082 0.0022226826 0.007456761 -0.016290922
0001e0 4f d8 65 bb c2 1d 0b bc 8a 9a 6b ba 12 4d 84 bb
       -0.0035071557 -0.0084909815 -0.00089875667 -0.004037508
0001f0 67 1e e1 bc 03 d8 e3 3c 4e 72 57 bc 22 9e 9d bd
       -0.027480317 0.027812963 -0.013149811 -0.07696177
000200 fb 9f b2 bc 18 9f f2 bb fe 1d 0c bd 1c 52 0b be
       -0.0218048 -0.0074042194 -0.03420829 -0.13605541
000210 ee 1d b3 3c f6 6f b0 bd 99 6f c1 bc c7 c4 3d bb
       0.021864858 -0.08615105 -0.023612784 -0.00289564
000220 f6 38 42 bd d3 ef cd b9 c4 82 6d bd 14 17 ef bd
       -0.047417603 -0.0003927933 -0.057986036 -0.11674324
000230 07 d3 f0 3b c9 86 ff 3c 4b f3 fb 3d 14 b1 35 bd
       0.007349375 0.0311922 0.12302264 -0.044358328
000240 8d 13 04 bd 77 87 99 3c 3c a8 47 3d e4 e9 60 3d
       -0.032245208 0.018741352 0.048744425 0.054910555
000250 c7 50 1d bd fd 0b 09 bd 46 06 55 3c 29 96 56 bc
       -0.038407113 -0.0334587 0.013001984 -0.013097324
000260 b6 de 69 3c 3d c5 bb 3a ac ec 22 3d bd cb 85 bb
       0.01427429 0.0014325749 0.03977649 -0.0040831254
000270 b2 c7 04 bb 10 bc 1c 3b 06 a9 46 3c ae fe 26 bc
       -0.002026063 0.0023915805 0.012125259 -0.010192556
000280 91 a7 a8 3c ce cd 81 bb 30 12 02 bc 8c a4 83 bb
       0.020587714 -0.0039613014 -0.007938907 -0.0040174183
000290 bd 06 3e bb 57 4c 6e bc ec f7 ad bb b2 e3 5b 3b
       -0.0028995716 -0.014544568 -0.0053090956 0.0033552465
0002a0 e7 4c 30 bc 20 e1 6b 3b a8 b4 34 3d da 78 97 3c
       -0.010760522 0.003599234 0.0441176 0.018490244
0002b0 35 bb bc 3b 42 65 00 bc b9 39 cf bc 79 b6 ce bc
       0.0057596215 -0.007836642 -0.025296079 -0.025233494
0002c0 04 21 a5 ba ee 88 2a bc 55 b7 1f 3c da 73 45 bc
       -0.001259834 -0.010408623 0.0097483 -0.012051547
0002d0 5d d1 52 3b b8 8c 99 3b 68 30 bf 3b 7b 7e 4f 3b
       0.0032168247 0.0046859644 0.005834628 0.0031661082
0002e0 40 1d 8e bc fd 6c 61 bc 79 8f c7 3c 05 8b d2 bb
       -0.017347932 -0.013758895 0.024360405 -0.006425264
0002f0 41 f5 26 3c 16 26 63 3c 68 2f e0 3c c2 35 82 3b
       0.010190309 0.013864061 0.027366355 0.0039736936
000300 6e c4 bf bc ea 6d 8e bc b5 05 3a 3c a3 c9 0a bc
       -0.023409095 -0.017386395 0.0113539 -0.0084709255
000310 ee a9 a1 bb aa 88 3d 3c 5f 74 2c 3b aa d0 9d bb
       -0.0049335873 0.011568228 0.002631448 -0.0048161345
000320 68 62 00 bd c1 ef 4c bb 03 86 12 bc 48 8e a6 bb
       -0.031343848 -0.0031270834 -0.008943084 -0.005082879
000330 27 f4 2c bd 4d 63 0b 3d c4 32 2e ba 02 71 9f 3b
       -0.04222503 0.034030247 -0.0006645138 0.0048657665
000340 01 f7 cc bb 02 ee d4 bb ae f3 59 3d a4 b9 c9 3c
       -0.006255031 -0.0064980993 0.053210907 0.024624653
000350 c5 67 89 bc ab 7c 80 bc 62 37 c0 3b 8b 83 42 bd
       -0.016773114 -0.015684446 0.005865977 -0.04748873
000360 50 7d 46 3d c4 e4 0b ba ba 58 80 3c 38 10 4a 3d
       0.04845935 -0.0005336518 0.015667308 0.049331874
000370 a9 53 12 bd f1 03 c1 ba e3 11 1d bc ed bf 6e 3c
       -0.035724316 -0.0014725906 -0.009586784 0.014572126
000380 bc 4e 15 bc bc 6e 6c 3d 59 16 f1 3d 88 74 10 be
       -0.00911301 0.057722792 0.117718406 -0.14106953
000390 3b cb 96 be 95 50 28 bd ba 7e 26 3d 58 5c 8d 3a
       -0.29451928 -0.041092474 0.0406482 0.0010784967
0003a0 93 97 a2 3c 15 42 aa 3c 21 87 57 bd b3 f7 b9 bd
       0.019847667 0.020783463 -0.052619103 -0.09080448
0003b0 c5 ec 08 be cb 1f 0a 3e d9 1e 38 be 56 67 0d be
       -0.1337157 0.1348869 -0.17980517 -0.13808951
0003c0 a5 f2 6c 3d 1d 8b 13 bd 0b a9 a8 3d 51 28 46 be
       0.05784859 -0.03602134 0.082353674 -0.19351317
0003d0 94 e7 5c bd cc af 9f 3b 7f 5c 4c bd 1a e1 98 bc
       -0.053931788 0.0048732515 -0.0498929 -0.018662024
0003e0 86 ca 1a be aa fa 6e 3d fe 4e 01 bb 67 c5 05 3d
       -0.15116319 0.05834452 -0.001973092 0.03265896
0003f0 cd 8d 78 bc de 8e 6e bc 7d c8 3c bc fb a3 ad 3b
       -0.015170527 -0.014560429 -0.0115224095 0.005299089

lin1.bias f4 [5]
000000 6f 64 08 bd 8f cd 08 bd 69 32 d9 3c b9 fe c4 bc
       -0.033298906 -0.03339916 0.026513295 -0.024047242
000010 23 1e cf bc
       -0.025282925
