results_auto/01_domain_adaptation/maml_supervised/June_14/officehome_maml_order_2_seed_0_shots_1_ways_5_meta-lr_0.0001_dropout_0.1_RandAugment-prob_0.5_pre-train-wts_datetime_13_06_2021_17_37_42/intermediate_14000_model.pt (torch, 412181 bytes, 54 tensors)

conv1.weight f4 [32, 3, 3, 3]
000000 d0 b4 e1 3e 43 7a b3 3d 18 ba d3 bd e6 c2 83 bd
       0.4408326 0.08763554 -0.10338229 -0.06433658
000010 c4 f6 40 be fc a6 23 be 2f be 06 3e 69 f3 32 3d
       -0.18844134 -0.15981668 0.13158487 0.043689165
000020 f5 01 1f be f6 a4 a4 3c 24 95 53 be 0a 03 99 3d
       -0.1552809 0.02009819 -0.20662361 0.07471283
000030 84 02 ae be 70 ec 12 be 6f 86 97 bc fe 1f 1b bb
       -0.33986294 -0.14348006 -0.01849672 -0.0023670192
000040 55 2d 13 3e 86 bf 8f 3e 1f 06 54 bf f5 1b ef be
       0.14372762 0.28075808 -0.8282184 -0.46701017
000050 21 da 1a 3e 81 f9 90 be c3 a3 93 3d 1e 3e 0a 3f
       0.15122272 -0.28315356 0.072089694 0.54001033
000060 1d 0c 12 be a6 79 a5 3e f7 eb 46 3f 33 4b af 3d
       -0.14262433 0.32319373 0.77703804 0.08559265
000070 f3 43 8f 3c bf b4 aa 3e ed 02 0b be 49 7f 59 3e
       0.017488455 0.33341023 -0.13575335 0.21239962
000080 b8 f1 a7 3e 09 f1 f8 be 66 ce fd be 78 7f cc bd
       0.32801604 -0.48621395 -0.49571532 -0.0998525
000090 8d b4 8a bd 32 13 70 3e b4 41 b0 3e ec e1 34 be
       -0.067727186 0.23444822 0.34425128 -0.17664307
0000a0 59 f3 02 bd 8e ec e6 3d 7a df fd be 5d ef 16 bf
       -0.031970356 0.11275588 -0.49584562 -0.5895899
0000b0 5a 25 8e be e8 80 2e 3e 81 94 b0 3e 5a 9b f4 3e
       -0.27762872 0.17041361 0.344883 0.47774774
0000c0 d4 80 49 be 38 27 d2 3c 4c e7 a9 3e 99 68 2c 3b
       -0.1967805 0.025653467 0.33184278 0.0026307462
0000d0 8d da 1e be e7 78 82 bc 8c cb bf 3e 4f 49 b4 3d
       -0.15513058 -0.015926791 0.3745998 0.08803045
0000e0 1b d4 88 3e df 78 8f be dd 3b a0 be 6e 33 bd be
       0.26724324 -0.28021905 -0.31295672 -0.369533
0000f0 74 13 4e bd 44 51 82 bd 79 0f c8 bd 05 a4 bf 3e
       -0.05031152 -0.063631564 -0.09768576 0.37429824
000100 ac 1d a5 3e 88 a7 0a 3e d0 44 48 3b 5e 09 13 bd
       0.322492 0.1354047 0.0030558594 -0.035897605
000110 4a 50 1e be f4 ca 40 3d 74 ac a1 be 60 84 1e be
       -0.15460315 0.04706855 -0.31576884 -0.15480185
000120 c2 ec f5 3e 5c 68 ee 3e c1 88 0c 3f 6e 86 30 3e
       0.48032194 0.46563995 0.5489617 0.17238781
000130 ef ed 3a bd c2 44 af be 6c 6a 77 be 47 99 e9 be
       -0.045637067 -0.34232146 -0.2416169 -0.45624754
000140 dc 52 b7 be 58 cc fd 3e 3c eb ba 3e 1b 38 73 bd
       -0.35805404 0.49569964 0.36507595 -0.05937968
000150 c5 ca 16 be 85 4e c1 be 53 ed da be 56 e2 79 3d
       -0.14725788 -0.37755218 -0.4275919 0.061006866
000160 32 06 29 3e 8f b1 8f bd e5 f7 dc 3e 1d 9b e9 3e
       0.1650627 -0.070162885 0.4315788 0.45626155
000170 db 9c d8 3e ca ca 62 be 11 e5 07 bf 3f 7f ff be
       0.4230717 -0.2214767 -0.530839 -0.4990177
000180 4d 01 be 3d 43 25 d7 3d 72 52 07 be 79 43 4f 3c
       0.09277592 0.10505154 -0.13215044 0.012650364
000190 86 fe cf 3e d0 1c 03 3f ae 3c ee be c0 24 c5 be
       0.40623873 0.5121584 -0.4653067 -0.385046
0001a0 49 4c a9 be e5 61 8c bd f7 9a 31 bd ea 3b a3 3d
       -0.33066013 -0.068546094 -0.043360677 0.07970412
0001b0 96 59 8d bd ff 09 a2 3d 47 3c 8f bd 79 a5 c4 3d
       -0.06901853 0.07912063 -0.06993919 0.09601874
0001c0 57 28 00 be 91 60 26 3e 74 c3 8e 3c 11 d7 86 be
       -0.12515388 0.16247775 0.017427184 -0.26335958
0001d0 3b d6 2e be 01 52 29 3e 5b f4 ab 3e ae 3f 41 3e
       -0.1707391 0.16535188 0.33584866 0.18871948
0001e0 33 69 2d 3e ff a1 1e 3e 21 18 0a bd e5 ca 0a be
       0.16934662 0.15491484 -0.033714417 -0.1355396
0001f0 01 0e a4 be c1 91 9f be fa 70 8d bf 06 4e b1 3d
       -0.32041934 -0.3116589 -1.1050103 0.0865746
000200 4d 01 4a be 6d 45 58 bf f0 d4 91 3e d9 1d c2 3b
       -0.19727059 -0.84480935 0.2848277 0.0059239683
000210 c2 13 b1 bf eb ba 55 3e d9 c2 82 be 7b ec 5d be
       -1.3834155 0.20872085 -0.25539282 -0.21672241
000220 c0 f6 f4 bc 62 4d 3f be 9c 7e f6 3d 1b 32 7b 3e
       -0.029902816 -0.18681863 0.120358676 0.24530832
000230 02 9c 9c 3e a5 ee d6 3e dc 10 1e 3f f6 d1 46 3e
       0.30587775 0.41978946 0.61744475 0.19416031
000240 4a 9d cc be ac 5d cc bd 56 bc de 3c c5 33 b2 be
       -0.39963752 -0.09978804 0.027189415 -0.34805122
000250 33 9d c7 be f9 9a a1 be 60 70 0d bf a4 30 bc be
       -0.3898712 -0.31563547 -0.55249596 -0.3675586
000260 78 80 b2 be 93 62 ce 3e 3a f8 fc 3e 0c cf b8 bc
       -0.3486364 0.4030958 0.49408132 -0.022559665
000270 31 4d 93 3e ce 15 97 3c 24 cd dd 3d ae f9 6e bd
       0.2876983 0.018443014 0.10830143 -0.05834358
000280 8f 1b 95 3d 2e 27 04 be f4 9d 19 bf df d7 8c be
       0.07280647 -0.12905571 -0.6000664 -0.27508447
000290 1a 22 41 be f0 9d 92 bd 29 44 e5 3d 41 8a 55 3e
       -0.18860665 -0.071590304 0.11194641 0.20853521
0002a0 e5 a2 fb bb 9e 4a ef 3e c5 98 ff 3e a5 79 c6 be
       -0.0076793307 0.46736616 0.4992124 -0.38764682
0002b0 76 be 5b 3e 24 95 16 ba 47 20 af be 9b 3e 90 3e
       0.21459374 -0.00057442696 -0.34204313 0.28172764
0002c0 9b 9b fe b7 fc 8c 91 be 58 ef a3 3e 62 08 3e be
       -3.0351619e-05 -0.28427875 0.32018542 -0.18557885
0002d0 7b 1a 28 3e c3 2a cd 3e ab 71 c9 3e 5e c8 04 bd
       0.16416351 0.40071687 0.39344534 -0.032417648
0002e0 f1 c2 85 3e 1e 37 5c 3d 5a 26 e2 be 2b 40 fc bd
       0.2612529 0.0537635 -0.44169885 -0.123169266
0002f0 5a 3a e9 be 1b 84 5e 3d fa 9f bf 3e 8e d2 57 3e
       -0.4555233 0.054325204 0.3742674 0.21076414
000300 cb 2e 21 bf 06 c3 62 be 3e cb 0d bf 5d 25 0b 3d
       -0.62962025 -0.22144708 -0.5538825 0.03397118
000310 eb af 65 3e db c3 73 3e 24 d4 38 be f5 37 86 3e
       0.22430389 0.23805182 -0.18049675 0.26214567
000320 ed a4 62 3d 28 e4 ce be 62 3b b3 be 5a 89 1b bf
       0.055333067 -0.40408444 -0.35006243 -0.60756457
000330 13 0e fa 3d 4c 0d 24 3f df 90 3e 3e c4 e4 32 3e
       0.12209716 0.6408279 0.18609951 0.1747008
000340 c1 71 79 3e 41 35 96 3d 52 2b a8 be 48 92 80 be
       0.243598 0.07334376 -0.3284555 -0.25111604
000350 58 5f b1 be 82 e7 91 3e 0a f4 d6 3e 9f a0 86 3e
       -0.34643054 0.2849694 0.41983062 0.2629442
000360 5e e2 52 be 5a fd ea be 5d 5f 17 3f e9 dc cc be
       -0.20594165 -0.45896417 0.5912989 -0.4001229
000370 f6 2a 95 be 43 c2 0c 3f 5f d0 09 be 9b 2d 61 be
       -0.2913434 0.5498392 -0.13458394 -0.21990053
000380 eb 7f 9e 3d 7c 55 84 3e 87 d1 02 bf 97 9f e1 3d
       0.07739242 0.2584647 -0.51100963 0.110167675
000390 52 bb 8f 3c aa 53 42 be 0b d3 4e 3e 39 d7 8e 3e
       0.017545376 -0.18977228 0.20197694 0.27898577
0003a0 de 98 24 bd a8 5b af 3e 96 9e 9e 3e 97 d4 c2 be
       -0.040184848 0.34249616 0.30980366 -0.38052818
0003b0 bd 40 9b 3e f5 6b 1e be a4 b7 90 be f5 ea 3e 3e
       0.3032283 -0.1547087 -0.28265107 0.18644316
0003c0 85 aa 6f 3d b5 19 41 bd b6 5b 2b bd af b1 b6 3e
       0.05851223 -0.047143657 -0.04183551 0.35682437
0003d0 08 dd bc 3e 85 4a f6 bd 58 6d 08 3f 3f 11 c4 3d
       0.36887383 -0.12025932 0.53291845 0.09573602
0003e0 7d e2 81 bd 27 f8 b4 3e 7a 43 41 bc c5 7a 8d 3c
       -0.06342027 0.35345575 -0.011795873 0.017270455
0003f0 d9 97 93 3e db ec c9 bd 39 b2 8c be 7e 3d 5a bd
       0.28826788 -0.0985963 -0.27479723 -0.0532813

conv1.bias f4 [32]
000000 52 b5 c6 bd 48 1c c6 bf 2f 87 7f 3d 10 28 6f be
       -0.09702553 -1.5477381 0.06238478 -0.23355126
000010 b5 46 38 bf d3 ac d9 c0 24 39 30 bd f3 b5 8a bd
       -0.7198289 -6.8023467 -0.043023244 -0.06772985
000020 6e cd 8e be c6 80 53 3e b3 47 93 be a4 d2 04 bd
       -0.27891105 0.20654592 -0.2876564 -0.032427445
000030 f7 25 61 3f 0a 5b d2 bf f0 89 57 be 61 1d 1c be
       0.87948555 -1.6434033 -0.21048713 -0.15245582
000040 ca 78 1a bd 96 9d 99 be 5b 3a 54 be 2e 19 63 c0
       -0.03771285 -0.3000304 -0.20725386 -3.5484118
000050 db e8 81 3f e9 66 17 3d ac 1d 9d 3d c5 53 ec 3d
       1.0149187 0.036963377 0.07671675 0.11539415
000060 69 30 24 c1 3c 5d 68 3e 1b d8 2e be f8 4a 87 bd
       -10.261819 0.22691816 -0.17074625 -0.06606096
000070 f3 30 86 3e 33 eb ea be fd ed 2a c0 f9 6b 9a 3d
       0.2620922 -0.45882568 -2.6707757 0.075401254

batch1.weight f4 [32]
000000 bc 54 a0 3f fa d2 83 3f 5e 3f 2a 3f 8b 51 9a 3f
       1.2525859 1.029876 0.6650294 1.2056135
000010 4e f6 74 3f 2c d6 61 3f 52 98 85 3f 8c 51 89 3f
       0.9568833 0.88217425 1.043711 1.0728011
000020 df 12 4f 3f 8e 63 89 3f ae 2b a6 3f c6 3f 58 3f
       0.8088817 1.0733507 1.298208 0.8447231
000030 0d 22 6a 3f f7 4c 1d 3f 62 23 fc 3e 2f d5 6d 3f
       0.9145821 0.61445564 0.49245745 0.9290342
000040 54 d6 49 3f 69 d9 8a 3f ce 1f 9d 3f c3 0c 25 3f
       0.78842664 1.0847598 1.2275331 0.644726
000050 83 07 44 3f 32 2c 75 3f 2d 0f 6b 3f 6d 1c 95 3f
       0.7657396 0.9577056 0.9182003 1.16493
000060 76 de 58 3f c7 04 90 3f b4 70 b5 3f 14 75 70 3f
       0.8471445 1.1251458 1.4175019 0.9392865
000070 70 b1 b1 3f 10 56 08 3f d8 4b 2e 3f 52 7b 0b 3f
       1.3882275 0.5325632 0.6808448 0.54485047

batch1.bias f4 [32]
000000 57 30 2a 3f c7 cf 28 bf 0b 12 69 3f 15 9b 66 3d
       0.6648001 -0.65942043 0.91043156 0.05630024
000010 39 ae 03 bf 13 31 83 3e ab ee bc 3f c2 0b 29 3f
       -0.5143772 0.25623378 1.4760336 0.66033566
000020 0b 4d 2b 40 e8 f8 b0 3d 7c bf 8b 3f b3 7f f6 be
       2.6765773 0.08641225 1.0917811 -0.48144302
000030 fc 80 f0 bd 4a dd 3c be 60 ef 32 3d 0e 11 16 bf
       -0.11743352 -0.1844379 0.043685317 -0.58619773
000040 f4 8a 40 bd cf 4d bf bd d1 9c 43 bf bb fa 7d be
       -0.047007516 -0.09341013 -0.7641116 -0.24802677
000050 71 0a 08 bc 62 50 31 3e 1d a8 05 3d 95 8b d2 3d
       -0.008303271 0.1731582 0.03263103 0.102805294
000060 5c 02 90 3e ba cf 12 bd 10 17 9e 3e dd 65 46 3c
       0.281268 -0.035842635 0.3087697 0.012109247
000070 f5 ff 7c bd 8c 6f cb 3d 44 1a c7 3f ae 62 1d bd
       -0.061767537 0.09933385 1.5554891 -0.038424186

conv2.weight f4 [32, 32, 3, 3]
000000 63 ad dc bd 7c 1e 17 3e 55 1e 96 3b 5b a3 bc bd
       -0.107752584 0.14757723 0.0045812526 -0.09210845
000010 20 21 a5 3e 2e 47 eb 3e c2 ae 27 bd f0 9c 43 3e
       0.32251835 0.45952743 -0.040938146 0.19102836
000020 b8 61 72 3d 31 c0 82 3d db 66 15 be 49 5c c3 3d
       0.059175223 0.06384314 -0.14590017 0.09539086
000030 5d 89 cc 3c be 43 3e bd d1 79 09 3f 0a 15 51 be
       0.024967844 -0.046451323 0.537015 -0.20418182
000040 77 bf 72 be 00 14 c3 3d ed d0 29 bf 6e dc 0d bf
       -0.2370585 0.09525299 -0.6633442 -0.55414474
000050 e9 5a f7 be 94 e6 fa be 91 7e 71 be 64 6d 69 bf
       -0.48311546 -0.49004042 -0.23583438 -0.9118254
000060 a7 d8 e3 3d 54 a6 06 3e e7 f6 9e 3e 60 de d3 3e
       0.111253075 0.13149387 0.31047747 0.41380596
000070 d9 fc 51 3e c0 64 a6 be 37 ae 00 be 10 17 1e be
       0.2050661 -0.3249874 -0.12566458 -0.15438485
000080 b3 f3 51 bf 8b 88 ea 3d fe fe 15 be 21 45 a5 be
       -0.8201248 0.11451825 -0.14648053 -0.32279304
000090 82 83 b0 3e eb 04 3e 3e 87 24 6e 3d 45 0b 90 3e
       0.34475332 0.18556564 0.058140304 0.28133598
0000a0 4a 3f ee 3d bf 22 fe 3c ec 6e 1a 3e 82 ad b0 bd
       0.11633165 0.031022428 0.15081376 -0.08626844
0000b0 94 00 83 3c 9d 64 24 be 77 8a 63 be a0 55 1a be
       0.015991487 -0.16054006 -0.22220789 -0.15071726
0000c0 26 f7 a4 3b c9 36 78 bd 1a e9 ea 3d 4e 73 2c 3e
       0.005034345 -0.060599122 0.11470242 0.1684086
0000d0 40 d6 2c 3d 9b 9a 1a 3e 65 14 c6 3d 34 3e 8b bd
       0.042196512 0.1509804 0.09671859 -0.06798974
0000e0 b1 e8 c8 bd 95 c4 39 3e 18 44 0e 3c b4 f9 98 3d
       -0.09810007 0.18141396 0.008683227 0.07469502
0000f0 2b 36 37 3e 9e 1f 66 bd 30 41 81 3e 89 f1 23 3e
       0.17891757 -0.056182496 0.25245047 0.16010107
000100 b1 5c e5 3d a5 c9 2b be fd e8 4d 3e 42 4a 92 bc
       0.1119932 -0.1677614 0.20108409 -0.017857675
000110 3c 74 19 be 6e 7e ec bc 87 9d 3d 3e 60 0e 9c bd
       -0.14985746 -0.02886888 0.18517123 -0.07619929
000120 38 3d cd bd 5a 73 80 3e d2 42 91 3e e0 db 4a be
       -0.10021442 0.25088006 0.28371292 -0.19810438
000130 5e ee 7b 3e 82 dd cf 3e 05 2d 06 bf 29 40 1c be
       0.24602649 0.40598685 -0.52412444 -0.1525885
000140 0a bb 2f bd e6 92 6d be f6 6f 27 bf b6 2f a7 be
       -0.042902984 -0.23200569 -0.65405214 -0.32653588
000150 c0 62 bc be 89 b6 99 be d6 ad 65 3e fe bf 8d bb
       -0.3679409 -0.30022076 0.22429594 -0.004325866
000160 9b 27 44 3c b5 3b f9 3e 31 fe 99 be 01 32 22 be
       0.011972333 0.48678365 -0.30076745 -0.15839387
000170 64 33 e4 3b 65 d7 37 be 46 7c 2e 3e 8a 77 1d 3e
       0.006964134 -0.1795326 0.17039594 0.15377632
000180 22 d3 0d be 32 10 ea be 46 16 9f be 3a 8a 05 bf
       -0.13850072 -0.4571548 -0.3107168 -0.5216404
000190 b5 be 28 be 24 94 86 be bf ea ae be 27 14 99 3e
       -0.16478999 -0.26284897 -0.34163472 0.29898188
0001a0 15 f1 e8 3d 36 7d 8e be f8 66 e3 3e aa 2f 7f 3e
       0.11374108 -0.27829903 0.44414496 0.24920526
0001b0 50 26 b8 be d9 fd 6b be b0 80 54 be 93 82 59 3e
       -0.3596673 -0.23046054 -0.20752215 0.21241216
0001c0 b5 96 84 3e 7f e4 bd bc 4d f3 46 be e7 e3 64 3c
       0.2589623 -0.023180244 -0.1942875 0.013970352
0001d0 48 b0 aa 3e 43 ab f1 3d 14 77 80 bc a8 e5 3b 3d
       0.33337617 0.11800244 -0.01568178 0.045873314
0001e0 39 ef d2 3d 18 2c 83 bd 49 8b 4c be 85 7a 52 3e
       0.10299534 -0.064048946 -0.19975008 0.2055455
0001f0 55 9a a8 3d 5d d2 95 be cf a4 0a bf 7d 83 02 bf
       0.082325615 -0.29262057 -0.5415773 -0.50981885
000200 aa d5 63 be 34 c9 af bd c2 87 0b be 41 f3 54 3e
       -0.22249475 -0.08583298 -0.13626006 0.20795919
000210 22 4f 11 3e 5d f1 5e 3e 62 35 fe 3e 82 9c 56 3e
       0.14190343 0.2177176 0.49650103 0.2095814
000220 a6 f0 9e be c2 31 3d bb f8 30 c1 3e 02 96 08 3e
       -0.31042975 -0.002886877 0.37732673 0.13338473
000230 44 a6 95 3d 1e 0e 78 3d 6f cf 5c be 18 06 83 be
       0.07307103 0.06056034 -0.21563505 -0.25590587
000240 17 49 1e bf b2 64 06 be d9 f9 b3 be 57 e4 78 3b
       -0.61830276 -0.1312435 -0.35151556 0.0037977898
000250 0b 91 05 3f 6c 31 64 3e be be 6a bd 27 90 8d 3e
       0.52174443 0.22284478 -0.057310812 0.27649042
000260 ac d3 4e 3e 2f 82 83 3e dd 4f e1 3c 7f 3e 92 3e
       0.20197934 0.2568526 0.027503902 0.28563306
000270 32 01 86 3d d2 04 02 3d 87 f4 c4 bd d2 c9 2c be
       0.06543197 0.03174288 -0.096169524 -0.16873863
000280 6a 50 31 be 5b 2f c9 be db 4f 02 bd 1c f8 6f be
       -0.17315832 -0.39293942 -0.031814437 -0.2343449
000290 25 24 06 be ae b6 97 3e c5 f0 aa 3c 0c 14 c8 3e
       -0.13099726 0.2963156 0.020866761 0.39077795
0002a0 35 16 08 3f e5 2a 47 3d 18 63 c4 3e f5 9d 3c 3e
       0.53158885 0.04862489 0.38356853 0.18419631
0002b0 55 51 a6 be 8c e6 f6 bb b5 59 09 3e e1 43 b7 3d
       -0.32483926 -0.0075348075 0.13413127 0.08948494
0002c0 44 cc 31 3d 24 59 db 3b 82 e7 58 3d 50 c3 5d be
       0.043407694 0.006693976 0.052955158 -0.21656537
0002d0 5e fc 00 3c 40 c0 b0 bd 0f 3e 7c be 2f d0 2f 3d
       0.007872669 -0.08630419 -0.24633048 0.04292315
0002e0 37 03 56 3e f8 fb ad 3d 2f 9c 91 bc 43 16 50 3e
       0.20899664 0.08495325 -0.01777467 0.20320992
0002f0 fb 33 b8 3d 18 3f 1a 3e 5b 97 02 3e 61 ec 4c bc
       0.089942895 0.15063131 0.1275305 -0.012507529
000300 87 31 ad be 65 37 20 be 73 eb 4d be 9a 48 26 be
       -0.3382685 -0.15646131 -0.20109348 -0.16238633
000310 e9 1a 29 3c bb fc f6 3d e7 76 a4 be 35 89 2a bf
       0.010321357 0.12059923 -0.32121965 -0.6661561
000320 58 26 95 be 7b 13 e2 be 2a 0d 28 3d f9 f6 b2 3e
       -0.29130816 -0.44155487 0.04102818 0.3495405
000330 64 f4 43 3d 1f b6 81 3e 60 3c 3d 3f 7a 41 03 be
       0.04784049 0.2533426 0.7392025 -0.12817946
000340 04 7b 8b be 2a 33 40 3e 7f a4 d2 bd 83 88 bf 3c
       -0.2724229 0.18769518 -0.102852814 0.023380524
000350 8e 8d 25 3e 87 d1 cf 3d 56 f8 72 3c e1 72 ce 3d
       0.1616728 0.10147386 0.014829716 0.10080505
000360 32 a3 b8 be a0 46 2b be 4d 53 c0 3d ef ad 3e be
       -0.36062008 -0.1672616 0.09390888 -0.18621038
000370 f7 f1 c6 3c 9e 76 d6 3e cc a7 db be 93 96 e3 bd
       0.0242853 0.41887373 -0.42901456 -0.11112704
000380 88 ef 90 bd f0 a1 34 bb 7a 26 2d be 0d 64 ea be
       -0.07076937 -0.0027562343 -0.16909209 -0.45779458
000390 c2 ab 75 be bc a4 34 be a6 1c 56 bf f2 d8 4b 3d
       -0.23991302 -0.17640966 -0.83637464 0.049767442
0003a0 77 e2 ca 3d 9b 27 d3 3d f2 26 52 3e a3 9c 81 3c
       0.09906476 0.103102885 0.20522669 0.01582176
0003b0 3d 96 a8 be ec e8 98 3e 2c a8 1a 3e 60 6d 89 3d
       -0.32927123 0.29865205 0.15103215 0.06710315
0003c0 59 b0 c8 be 9e ab 72 be 20 d0 05 bf 5b a8 bb 3d
       -0.39197043 -0.2369828 -0.522707 0.09162971
0003d0 9f 84 a3 3e 72 6e b1 3d 6f 10 e3 bb 29 88 19 3e
       0.3193712 0.08663644 -0.0069294493 0.14993347
0003e0 86 9c 6d 3d 47 a6 a2 be 10 60 20 3d b7 99 c6 bc
       0.0580106 -0.31767485 0.039154112 -0.024243219
0003f0 9d 8a 22 be 86 4f cc be 2e 44 f3 3d b9 cd 69 3c
       -0.1587319 -0.39904422 0.118782386 0.0142702395

conv2.bias f4 [32]
000000 9e d2 c3 3d c5 9a 16 3e 3a 98 05 3e 0b db 14 3e
       0.095616564 0.14707477 0.13046351 0.14536683
000010 b9 21 8c 3d db 9a bd 3d e4 af b0 bf 09 38 11 bd
       0.068423696 0.09258052 -1.3803678 -0.03545383
000020 0c c8 bb 3e 66 fa ab be 35 4b 85 3e f6 ec 15 be
       0.3667606 -0.33589476 0.2603394 -0.14641175
000030 70 c4 58 bd d5 75 34 3e 42 45 58 3d e1 da b6 bd
       -0.052921712 0.17623074 0.052800424 -0.089284666
000040 73 9d 84 bd 19 a5 31 be 32 2d 7c bd c1 16 d0 bd
       -0.064753436 -0.17348136 -0.06156654 -0.1016059
000050 7f bd 3a bd a4 fb 31 3d 22 39 06 3e de 6c 10 3d
       -0.045590874 0.043452874 0.13107732 0.035260074
000060 cd bd a2 3e 62 6c 8e 3b 72 9e c6 3b 63 50 08 be
       0.31785432 0.0043464163 0.0060613686 -0.13311915
000070 f6 fd 10 bf 80 b7 b0 3e fa 40 31 bd 22 18 c5 3e
       -0.56637514 0.34515 -0.043274857 0.38494974

batch2.weight f4 [32]
000000 43 0d 58 3f 3a 21 77 3f 6e 41 ba 3f 16 48 90 3f
       0.84395236 0.96535075 1.4551218 1.1271999
000010 36 a4 84 3f 8f 54 9d 3f 10 5a 9d 3f ce a4 2d 3f
       1.0362613 1.229143 1.229311 0.67829597
000020 e8 54 98 3f 80 eb 75 3f d4 83 99 3f 26 b0 69 3f
       1.1900911 0.9606247 1.1993356 0.91284406
000030 2d 7f 11 3f 06 a2 ab 3f ce b7 88 3f 7e f9 aa 3f
       0.5683468 1.3408821 1.0681093 1.3357389
000040 77 12 4d 3f cf c9 60 3f 7c 0f 6e 3f 8d 20 44 3f
       0.801063 0.87807935 0.9299238 0.7661217
000050 84 8e 95 3f 06 2c 83 3f d4 be 94 3f 3b b7 89 3f
       1.1684117 1.024781 1.1620736 1.0759043
000060 dc f8 74 3f d5 4a 35 3f 69 b1 46 3f 35 d8 1a 3f
       0.9569223 0.7081731 0.77614456 0.60486156
000070 41 65 8c 3f 1b 0a 80 3f 89 c3 65 3f a8 85 5a 3f
       1.09684 1.0003084 0.8975149 0.85360193

batch2.bias f4 [32]
000000 6e d4 89 bd 0e 70 03 bf d0 42 56 be de 77 14 bf
       -0.06729971 -0.51342857 -0.20923924 -0.579954
000010 48 be 8c be da 16 1b bf 4b 37 bb be 02 9f 02 be
       -0.27488923 -0.60581744 -0.36565623 -0.12755969
000020 ec 48 f6 be c9 ec 71 be a8 27 ed be 27 1c b2 be
       -0.4810251 -0.23625483 -0.46319318 -0.34787104
000030 d5 ed 81 3c 3e ce d1 be 00 ae db be 8c 30 fb be
       0.015860477 -0.40977663 -0.4290619 -0.49060476
000040 93 54 c0 be ca a9 dc be 7d dd ec be 12 5f 26 3c
       -0.37564525 -0.4309829 -0.46262732 0.0101545025
000050 57 e7 e0 be 8b 08 cf be a7 5e 11 bf 97 6c a9 be
       -0.43926498 -0.40436205 -0.56785053 -0.3309066
000060 89 a0 0c bf 09 1c 7f be bb c4 62 be 43 94 88 be
       -0.5493246 -0.24913038 -0.22145359 -0.26675615
000070 11 b9 e9 bd e8 c8 aa be 46 b4 b0 be fb 2c eb be
       -0.11412252 -0.33356404 -0.34512538 -0.45932755

conv3.weight f4 [32, 32, 3, 3]
000000 1a c0 f0 3e 2e 68 f6 3e 6d e0 10 3e e4 cb c0 be
       0.47021562 0.48126358 0.14148112 -0.37655556
000010 0a 3e 6d bc 6e 9a 8c 3e 59 8d da be 9c b2 81 be
       -0.014480123 0.2746157 -0.42685965 -0.2533158
000020 25 b7 1c bd a5 b6 ee 3d 50 63 2a 3c 17 36 c0 be
       -0.038260598 0.116559304 0.0103996545 -0.37541267
000030 0f ec 68 be 0f 38 c1 bd 64 32 f9 3d 72 5f be 3d
       -0.22746299 -0.094345205 0.121678144 0.092955485
000040 c8 7c 29 3e 7b 96 bc be db b5 34 3d b5 5c 2e bd
       0.16551507 -0.36833557 0.044118743 -0.04256888
000050 85 7b da be 59 05 88 3e 67 f3 d1 3d 23 f6 4b be
       -0.42672363 0.2656658 0.102515034 -0.19918112
000060 d0 88 03 3e 28 63 60 3d 0a 55 5f be 56 fa b9 be
       0.12845159 0.054782063 -0.21809784 -0.36323804
000070 a5 87 21 be 3d a3 c9 3e 58 19 1d 3d 72 a4 9c be
       -0.157744 0.39382353 0.038354248 -0.30594212
000080 57 08 31 3f 1a 32 f4 be cc a7 c2 bd 80 da cd 3e
       0.6915335 -0.47694474 -0.09504661 0.40205765
000090 92 cd 93 3e 6b d4 08 3f 2e cd 04 3e 0d 04 22 bd
       0.28867775 0.53449124 0.12968895 -0.039554644
0000a0 89 f3 21 3e 3a c1 ed bc ea b0 b3 bc 51 b4 d9 bb
       0.15815558 -0.029022802 -0.021934945 -0.00664381
0000b0 18 bb 37 bd e5 02 a5 3e d1 f3 aa 3e 8c 94 7b 3e
       -0.04485616 0.3222877 0.33389142 0.24568385
0000c0 4e 1a b1 bc 60 a7 a5 3e 7b be 73 3e 49 41 d4 be
       -0.021618988 0.3235426 0.23803131 -0.4145606
0000d0 c6 b6 39 3e 56 51 88 be 3c e2 c5 3e f5 2f 8d 3a
       0.18136129 -0.26624554 0.38649166 0.0010771739
0000e0 c9 3f 85 be a6 ff 44 3e 18 e7 cb bd b4 3d 23 bd
       -0.26025227 0.19238147 -0.09956187 -0.039853767
0000f0 1b 52 92 3e 34 a7 b3 3e 8e 38 d5 3d 1f 1d a8 be
       0.28578267 0.35088503 0.104111776 -0.32834718
000100 55 04 c0 be 46 a4 1e bf 0c b9 63 3e 07 bb 58 be
       -0.37503305 -0.6196941 0.22238559 -0.21165095
000110 22 10 a1 be 71 50 16 be 25 7a 96 bd a5 85 7a 3d
       -0.3145762 -0.14679123 -0.07347516 0.06116261
000120 98 92 6c 3d e5 20 3e be 38 bf 9e be 85 32 e3 bc
       0.05775699 -0.18567236 -0.31005263 -0.02773405
000130 a5 78 7b bc 02 31 88 3e ae 1e ce 3d e1 4a f4 3c
       -0.015348588 0.2659989 0.100644454 0.029820861
000140 ae ac 89 3e eb 1b 59 bf a7 cb ae bd bc 70 a2 3e
       0.26889557 -0.84808224 -0.08534937 0.31726635
000150 a7 a9 26 bf 6d a7 99 be 0b 62 7a 3e d9 6c 27 be
       -0.6510262 -0.30010548 0.24451463 -0.16350116
000160 dd 5d 71 bd be 28 f0 3d 25 3c 1b bd e9 de 02 bf
       -0.058927406 0.11726521 -0.037899155 -0.51121384
000170 1e ef cd 3e c2 05 3a be e4 fd 26 3b 91 2d 3f 3e
       0.40221494 -0.18166259 0.002548092 0.18669726
000180 c7 bd e9 bd 9b ff 09 be 0a 1d eb bd f1 c0 e6 3c
       -0.1141315 -0.13476412 -0.11480148 0.028168174
000190 94 91 13 bd eb e8 71 3e 70 1c 7a 3e e7 e5 2d be
       -0.036027506 0.23624007 0.2442491 -0.16982232
0001a0 33 b8 30 be 08 98 1c 3e 9c 2d 8a 3e 1e af 31 be
       -0.17257766 0.1529237 0.26987922 -0.17351958
0001b0 18 a4 65 bd d2 a8 91 bd 5b 26 a2 be 53 13 48 be
       -0.056064695 -0.07112278 -0.31669888 -0.19538622
0001c0 b0 b2 e8 bc e7 c3 a4 be 68 6d 71 be 1e 10 e2 3c
       -0.028405517 -0.32180712 -0.23576891 0.027595576
0001d0 27 fe 84 be d0 a5 b7 bd d5 12 80 bd ef 03 a0 3d
       -0.25975153 -0.08967173 -0.06253592 0.0781325
0001e0 a8 a3 7e 3e 91 12 46 3d 26 bb f0 bd 26 05 14 bd
       0.24867117 0.04835755 -0.11754446 -0.036137722
0001f0 f8 8b e4 3c 37 4c d2 be 05 32 33 be a4 8c 9f be
       0.027898774 -0.41073772 -0.1749955 -0.31161988
000200 8f 74 2e bf 0c 50 b4 bd 2c c5 99 bd 30 25 81 3d
       -0.68146604 -0.0880433 -0.07508311 0.06305921
000210 22 30 bd 3d 94 50 80 3e fd af e4 bb ef de 8a 3e
       0.09237696 0.25061476 -0.0069789873 0.2712321
000220 e8 9e 7c bd d1 01 85 be ee 32 25 3e ea 75 8f be
       -0.061674982 -0.25977948 0.1613271 -0.2801965
000230 cf 4d 28 bf 47 31 3b be cf 0d 96 3e 58 6b b8 be
       -0.65743726 -0.18280517 0.2930741 -0.36019397
000240 e9 e2 3c 3e 2a 08 d5 bc c5 c8 18 bf 64 d6 a1 bc
       0.18445934 -0.02600487 -0.5968135 -0.01975555
000250 96 4a 47 bc cd 5e 71 bb 1a 12 30 be bb 51 1f be
       -0.012163779 -0.0036830187 -0.17194405 -0.15558521
000260 80 ec 54 be 20 77 e0 3b ef d9 68 be ef c6 ed 3e
       -0.20793343 0.0068501383 -0.22739385 0.46440837
000270 50 22 63 3e 0e a4 54 3e 6b c5 64 3e fd ad 43 be
       0.22181058 0.20765707 0.22340934 -0.1910934
000280 bd 56 dc 3d d9 e1 1d 3e 9b 8d 52 bc 4e 39 2c 3e
       0.107587315 0.15418185 -0.012851144 0.16818735
000290 b0 92 b0 3e 40 de d6 bd 3d e9 42 be d3 70 48 be
       0.34486914 -0.104916096 -0.19034286 -0.19574289
0002a0 72 f7 f4 3d 02 aa db be 9e b7 be be ae 1a 8c be
       0.11961259 -0.42903143 -0.37249464 -0.27364105
0002b0 4c bf 38 3b 20 a1 ff 3d d9 bb b7 be 4e 6f 02 3d
       0.0028190194 0.12481904 -0.35885504 0.03184443
0002c0 ae 4f 30 be 52 a5 ad be 4c bf 8e be c6 7d 28 be
       -0.17217895 -0.33915192 -0.27880323 -0.16454229
0002d0 2b 89 f8 bd 44 0a 03 3a 06 1a a4 3e fa b4 73 3e
       -0.12135538 0.0004998783 0.32051104 0.23799506
0002e0 b1 bd 62 bd 8a af 37 3e e8 06 97 3e b2 71 c2 3d
       -0.055356685 0.17938057 0.29497457 0.09494342
0002f0 d6 d5 ef 3d b0 0b ab 3e 89 68 7d 3d c8 2c 7d 3d
       0.11710708 0.33407354 0.06186727 0.061810285
000300 fd d9 9b 3e ee b9 d4 be d8 27 8f be 70 b4 c3 bd
       0.3043975 -0.41548103 -0.27960086 -0.095559
000310 23 b5 55 bb 60 f8 03 3e 1d c3 87 3e c3 0c de 3c
       -0.0032609187 0.12887716 0.26516047 0.027105695
000320 c8 37 92 be ab 5e b2 3e dd 55 d9 3e 0d 79 15 3e
       -0.28558183 0.3483785 0.4244832 0.14596958
000330 d9 5c 29 bb f3 6e 44 3e 38 ac dc 3c 34 4c ea 3d
       -0.0025842695 0.19182949 0.026937589 0.11440316
000340 fc 14 6f be 18 b9 2b be d8 e2 b3 be 31 97 71 be
       -0.23347849 -0.16769826 -0.35134006 -0.23592831
000350 0b d5 1d b9 08 c0 1b bf ca 5f bc 3b 9e 6a 98 3e
       -0.00015052051 -0.6083989 0.0057487236 0.29768842
000360 74 a5 4f 3e 50 55 e8 bd 7d 55 7a bf 37 1e 10 3e
       0.20277959 -0.11344397 -0.97786695 0.14074026
000370 bd d0 ab be eb 84 a9 be 24 55 02 bd c9 6d 87 be
       -0.33557692 -0.3310922 -0.031819478 -0.26450947
000380 f7 5f 35 be c4 98 47 3d 2a 19 3c be 10 50 14 bf
       -0.17712389 0.048729673 -0.18368974 -0.57934666
000390 7c db 8d be 1b 5f b1 bb 3e 6c f9 be ff f2 2e bd
       -0.27706516 -0.005412949 -0.48715395 -0.042712208
0003a0 ac 4b 98 3e e1 80 7c 3e 5f f7 6d 3e 51 7c 4c 3e
       0.29745233 0.24658538 0.23238896 0.19969298
0003b0 df 1e 9a be 35 98 f1 3e 98 ab 84 3e d5 af fe be
       -0.30101678 0.47186437 0.25912166 -0.49743524
0003c0 1d 7b 03 3f 4f 45 97 3d 04 47 80 be 9a 24 4d 3d
       0.5135973 0.073862664 -0.2505418 0.050083734
0003d0 f3 b4 18 be b0 b6 99 bd e1 bd 94 3e 86 28 8f 3e
       -0.14912777 -0.07505548 0.29051116 0.27960604
0003e0 3e f6 30 be e9 6d 1d 3d 3a 78 7a be e5 12 0f bf
       -0.17281434 0.038434897 -0.24459925 -0.55888206
0003f0 d7 58 02 be 78 30 97 be af 40 04 3e 55 6e bd bc
       -0.12729202 -0.29529166 0.129153 -0.0231239

conv3.bias f4 [32]
000000 5c 67 6f 3e a4 2c 78 3e 9b 2f ec 3e 90 b4 a1 3d
       0.23379272 0.24235779 0.4613007 0.07895768
000010 01 18 25 3e 4f 0e cd 3d 56 51 e2 bf 4e d5 8a 3e
       0.16122438 0.10012495 -1.7681072 0.27115864
000020 e4 f1 2a bd b3 a6 d0 be 5a b6 c5 3d 7b b6 b7 ba
       -0.04173459 -0.4075218 0.096539214 -0.0014016175
000030 7c 86 0e 3f a0 61 be 3e 62 d8 5c 3d 96 8b e1 3e
       0.55673957 0.37183857 0.053917296 0.44051808
000040 8c 10 27 3f e7 26 18 3e 58 d8 90 3e 81 66 18 3f
       0.65259624 0.1485859 0.28290057 0.5953141
000050 85 9a 05 3f d0 cd b5 bc 27 11 6e 3e 44 e7 64 3f
       0.52188903 -0.022192866 0.2324873 0.89415383
000060 7d 55 a4 3d 1b 74 a3 3f dc 5b be 3e f4 7f f6 3e
       0.08024118 1.2769808 0.37179458 0.48144495
000070 3f 48 c5 3e a0 8b 5f 3e c3 76 92 be 77 f5 21 bf
       0.38531682 0.21830606 -0.28606233 -0.63265175

batch3.weight f4 [32]
000000 9c 25 48 3f 41 dd 59 3f 1d 9a 84 3f b9 9e 64 3f
       0.7818239 0.8510323 1.0359532 0.8930469
000010 3a 64 44 3f 8b b3 5f 3f ad a9 ad 3f 98 95 4b 3f
       0.76715434 0.87383336 1.3567406 0.79525137
000020 f0 2f 96 3f eb 9e 8c 3f e7 e7 3c 3f 99 83 45 3f
       1.1733379 1.0985998 0.73791355 0.7715393
000030 eb 9d 66 3f 32 6e 8a 3f 36 36 1a 3f e8 b6 45 3f
       0.90084714 1.0814879 0.6023897 0.7723222
000040 9a eb 6b 3f 46 d0 67 3f 1c 21 39 3f f0 d9 57 3f
       0.92156374 0.90552175 0.72316146 0.8431692
000050 0a e6 66 3f a4 98 6d 3f a9 9d 35 3f 1b 60 d8 3f
       0.9019476 0.92811036 0.70943695 1.6904329
000060 2b 75 49 3f ac 57 89 3f 23 bc 73 3f 20 0e 77 3f
       0.7869441 1.072988 0.9520895 0.9650593
000070 c6 ab 46 3f 13 0c 37 3f da 08 86 3f 1f fa 84 3f
       0.77605855 0.715028 1.0471451 1.0388831

batch3.bias f4 [32]
000000 94 aa 87 be 13 83 91 be 5a 78 d3 be 8e 5d ec be
       -0.26497328 -0.28420314 -0.41302758 -0.46165127
000010 de 65 8d be 08 bd 24 bf ef 8b 46 bf 94 40 70 be
       -0.2761678 -0.6435094 -0.7755727 -0.23462135
000020 97 36 55 bf 99 db 82 be 6f e0 ff be 30 26 16 be
       -0.8328642 -0.25558165 -0.49975917 -0.14663005
000030 e9 df a3 be 40 72 e9 be a0 ae 30 3c 98 b9 9a be
       -0.32006767 -0.45594978 0.010783821 -0.30219722
000040 ca 80 e0 be 13 87 b4 be 58 a8 7b be ff 72 ab be
       -0.43848258 -0.35259303 -0.24575937 -0.33486173
000050 92 a8 24 bf 47 ae cb be 9a 99 5d be 99 75 78 bf
       -0.6431972 -0.397814 -0.21640626 -0.9705444
000060 59 18 10 bf 74 c2 20 bf 6d 7d 92 be ae 2b 13 bf
       -0.5628715 -0.6279671 -0.28611317 -0.57488525
000070 24 3a fc bd 2b c1 88 be 05 bc 91 be 9a db 77 bf
       -0.12315777 -0.26709875 -0.2846376 -0.9681946

conv4.weight f4 [32, 32, 3, 3]
000000 49 10 fe bd 4d d6 c9 b8 f3 cb 24 bc 4d 1c e4 bd
       -0.1240545 -9.6243435e-05 -0.010058391 -0.111382104
000010 90 7d 5a bd 55 8e 30 bd 9d 6e b3 bd d5 5e 19 be
       -0.053342402 -0.04310449 -0.08761332 -0.14977582
000020 c3 fe e7 3d 27 31 9c 3d 8a ef a0 3d 52 41 af 3d
       0.11327889 0.076265626 0.078581885 0.08557381
000030 62 49 08 bd 4d ee cf bd 92 4b 03 3c 25 c2 55 3d
       -0.03327311 -0.10152874 0.008013623 0.052187104
000040 92 1d 0d bd 93 7e b8 bc 88 1f d6 3d 02 e4 ca 3c
       -0.03445203 -0.022521293 0.10455233 0.024766926
000050 c3 56 52 3d 5f fb 6b 3d 65 80 69 3c a3 fe 6f 3d
       0.051352274 0.057612773 0.014251803 0.05859245
000060 16 4c 8f 3c 28 dd 5c bd 18 31 c3 bc a0 c4 26 be
       0.017492335 -0.05392185 -0.02382712 -0.16285944
000070 c1 4a 19 bc 0f 91 2a bd e1 15 f4 bd 2b 8a b8 3c
       -0.009356202 -0.041642245 -0.119182356 0.022526821
000080 77 5f a6 bd 00 be 2b be 1a ae 64 bc 0d 1d 82 3d
       -0.08123677 -0.16771698 -0.013957525 0.06353197
000090 09 9b 79 3c 2a 06 f7 3d a1 4c a4 3d 8b 24 e6 3d
       0.015234717 0.120617226 0.08022428 0.11237439
0000a0 07 48 21 3e b8 87 7d 3d 7a d5 0f 3e cb 9b 9c 3d
       0.15750133 0.06189701 0.14046279 0.07646903
0000b0 18 44 a3 3c 09 b5 df 3d 38 d7 10 3b 9c 2b 95 3d
       0.01992993 0.109232016 0.0022100937 0.072837085
0000c0 aa 9a 0c 3e 01 09 0c bd c1 66 59 3c 06 dd f5 3d
       0.13730875 -0.034188274 0.013269127 0.120050475
0000d0 21 09 d3 3d e1 37 10 3d 66 dd 01 3b 82 33 88 3d
       0.103044756 0.03520954 0.0019815802 0.06650449
0000e0 3c 23 7d 3c 69 ae 85 3d 82 07 70 bd f0 fa a8 3c
       0.015450295 0.06527407 -0.05860091 0.020627469
0000f0 1e ab 5c be 6a 0f 25 3d ad e2 62 3d 13 d3 77 3d
       -0.21549651 0.040297903 0.055391956 0.06050403
000100 a7 8d b8 bb a9 34 c1 3c c9 30 1e 3e d1 31 28 bd
       -0.0056321207 0.02358468 0.15448298 -0.041063134
000110 08 58 c8 bc 9d 40 b7 3c d1 3b 0f 3c 82 c6 28 3d
       -0.02445604 0.022369677 0.008742289 0.041204937
000120 f5 df 0b be c4 96 e0 3d d8 c0 5b 3d d3 b6 54 be
       -0.13659652 0.10966256 0.053650707 -0.20772867
000130 c0 82 f3 bd 45 7e d8 3d 5c 93 3e be f4 79 15 bd
       -0.11890173 0.10570959 -0.186109 -0.036493257
000140 38 22 67 bd 4d 5f d6 be 07 e1 ba 39 f7 02 be 39
       -0.056429118 -0.41869584 0.00035644343 0.00036241833
000150 34 ac bd be 63 c4 e6 bb 02 43 7f 3c 05 be ca be
       -0.37045443 -0.007042454 0.015579941 -0.39598098
000160 6d 77 6c 3d f1 79 d3 3d 73 5b 58 3c a9 a0 90 3c
       0.05773108 0.10325993 0.013205397 0.017654734
000170 7e 0f bf 3d 1d d3 9e 3c 3e e9 19 3d ce 36 f0 3d
       0.09329127 0.019387776 0.037575953 0.11729203
000180 63 0d 49 bd e9 cd 60 3c 33 63 13 3e 99 d9 b0 bd
       -0.049085032 0.013720968 0.1439331 -0.086352535
000190 0e 32 32 3d b0 95 2a 3d d4 5f 01 bd 85 b9 92 bd
       0.043504767 0.04164666 -0.03158553 -0.07164291
0001a0 cc a6 f2 bc 74 0f 86 bd f9 71 06 3d 5a c4 ab 3d
       -0.02962055 -0.06545916 0.032823537 0.083870605
0001b0 78 4b 92 3d 48 77 ef 3c a3 8c 83 bb 63 ff c5 3b
       0.07143301 0.029231682 -0.004014568 0.0060424074
0001c0 0b 78 32 3c 17 42 20 bd 5b 7c b6 3d 52 3a 52 3c
       0.010892878 -0.03912553 0.08910438 0.012831287
0001d0 cb d4 b7 3d 77 ac 42 3d 7f 32 05 3e 8f 6f a2 3c
       0.08976134 0.047527757 0.13007544 0.019828586
0001e0 50 96 1e 3e d2 7c 0f 3e a7 1b 32 3b 19 e1 28 3e
       0.15487027 0.14012459 0.0027177127 0.16492118
0001f0 a4 49 bb 3d 1d 08 a7 3b f1 5c df 3d 64 d8 92 3d
       0.09144905 0.0050974027 0.10906399 0.071701795
000200 5f d4 77 3c c2 a0 dd 3d b8 81 48 3d 4b f0 14 bd
       0.015126317 0.10821678 0.048951834 -0.036361974
000210 c4 ea 1b 3e bf 75 61 3d 7e 8d 0f 3e 4e 3c 30 3d
       0.15226275 0.055043932 0.14018819 0.04302626
000220 44 13 58 3d 67 66 83 3d 9a 7e 70 3d 92 e8 89 bd
       0.052752748 0.06416016 0.058714487 -0.067338124
000230 8c 09 7d 3d b5 7e 68 3b 7a 62 c0 3c f1 eb fa 3c
       0.061776683 0.0035475914 0.023484457 0.030630084
000240 59 f6 0b 3d b1 06 e8 3c 14 ff c5 bd e8 95 96 3d
       0.034170482 0.028323503 -0.09667793 0.07352811
000250 20 8b a6 bc 14 c0 9d bc fa b7 68 3d a6 26 79 3d
       -0.020330012 -0.019256629 0.05681608 0.060827874
000260 fb d1 de bb 86 3b 3c be ca 48 43 3d c5 56 d9 3a
       -0.006799934 -0.18382081 0.04767684 0.0016581645
000270 86 b0 71 bd 73 8a 28 3c ab 1f 1a bd 5e a1 21 be
       -0.059006236 0.010286915 -0.037627857 -0.15784213
000280 4b 6c 5c 3d c3 0c 5b 3d 02 27 18 3e 0a 72 5b 3d
       0.053814214 0.053478967 0.1485863 0.053575553
000290 66 55 93 3d 1c b3 bc 3d da b9 8a 3d 9c 81 7a 3d
       0.07194023 0.0921385 0.067737296 0.06115876
0002a0 60 a3 12 3e d6 43 78 3d 10 4c a4 3d 43 76 10 3e
       0.14320135 0.06061157 0.0802232 0.14107613
0002b0 51 19 98 3d 65 4e d4 3d 95 92 e1 3d 1a cc f9 3d
       0.07426704 0.10366515 0.110142864 0.121971324
0002c0 32 28 a4 3b 5f 9a c8 3d 97 6e 01 3d 32 c1 f4 3c
       0.0050096745 0.09795069 0.031599607 0.029877279
0002d0 35 fb d1 3d 54 b3 0e bd bf 95 8c 3d b2 82 22 3e
       0.10252992 -0.03483899 0.06864499 0.15870169
0002e0 d5 b4 87 3d 5a 4b 4b 3d df a7 24 3e 49 52 2d 3e
       0.06626288 0.049632408 0.16079663 0.1692592
0002f0 29 81 76 3b 9d c5 d1 bc 63 8b a2 bd fd af 3a 3d
       0.0037613607 -0.025606925 -0.07936742 0.04557799
000300 72 c7 3b 3d 14 72 ec bd e0 2d 7b 3d 4b 6b ce bd
       0.045844503 -0.11545196 0.061323047 -0.10079058
000310 22 33 72 3d 3e 58 00 3e f0 2b 85 bd 10 e6 42 3b
       0.059130795 0.12533662 -0.06502521 0.0029739179
000320 db 6a 20 3b 2c f2 0f bd da bc b0 3d bc c7 d9 bb
       0.0024477753 -0.035143062 0.086297706 -0.0066461246
000330 c6 8f d9 3c a2 79 52 bd 39 25 46 3d 01 e0 e2 be
       0.026557814 -0.05138553 0.048375342 -0.44311526
000340 cb 53 83 bd 4a cf 43 bc a9 ec e3 be 9e 4b ab bd
       -0.064124666 -0.011951277 -0.44516495 -0.08364032
000350 13 aa 07 3e d4 02 d8 be 65 2a ba bd 19 01 59 3d
       0.13248472 -0.42189658 -0.09090117 0.052979562
000360 fc 85 18 3d 2c 75 09 3d 75 29 58 3d 1a 21 85 3d
       0.037237152 0.03355901 0.05277391 0.06500454
000370 13 1e 79 bd 2d 65 66 bd b0 aa 32 3d f6 c0 b7 bd
       -0.060819697 -0.056248832 0.04361981 -0.08972351
000380 9a a5 15 3d 12 79 b1 3d 7d 81 b4 3d b1 69 e3 3d
       0.036534883 0.086656705 0.088137604 0.111041434
000390 fc 50 06 3e 21 f5 0d bd e4 fd 02 3e 83 00 93 3d
       0.1311683 -0.0346576 0.12792164 0.07177832
0003a0 8c 48 0e 3d cc f0 24 3c e8 fd 84 be c0 a9 c4 3d
       0.034737155 0.010067176 -0.25974965 0.0960269
0003b0 b3 18 b1 3d 06 ef 43 be c6 fa ef 3d 3b 08 87 3c
       0.08647289 -0.19134149 0.11717753 0.016483417
0003c0 36 2e 76 be d8 cc d5 bb 6d 24 bd 3c c4 0c f4 3d
       -0.24041066 -0.0065246634 0.023088658 0.11916497
0003d0 ae a3 05 bd fc 66 ea bc 8c 54 3f 3d 06 fd 50 3c
       -0.0326268 -0.02861356 0.04671149 0.012755638
0003e0 ac 6b 64 bd ac 06 9f 3d d3 59 41 3d 17 fd 31 3d
       -0.055766746 0.077649444 0.047204804 0.043454256
0003f0 3e 97 3d bd 66 12 79 bd c8 25 32 3d 71 26 ad 3d
       -0.046286814 -0.06080856 0.043493062 0.08454598

conv4.bias f4 [32]
000000 95 5a 7d bc 1a d5 58 3f 18 88 fd 3c af e0 39 3c
       -0.015463491 0.8470017 0.030948684 0.011345073
000010 b6 5a bb 3e 28 85 41 bc cf 5b 9c 3e f5 e2 0d bd
       0.36592644 -0.011811532 0.30538794 -0.03464027
000020 85 71 83 bc 6d 63 92 3c 4a 61 df 3e 9c 01 5a 3e
       -0.016045341 0.017869676 0.43628913 0.21289676
000030 df 26 a0 3e 31 7b d3 3e 5b 0b 13 3e 99 04 af 3d
       0.31279656 0.41304925 0.143598 0.08545799
000040 89 92 c8 3e ae 16 83 bb 6e 8e 77 3c a6 6a 44 3d
       0.39174297 -0.0040005064 0.0151096415 0.04795327
000050 36 40 af 3e 73 68 4a 3e 5f 29 95 3d 9b 8c 1b bd
       0.34228677 0.19766407 0.072832815 -0.03797589
000060 7c ed 56 3d a8 e2 48 3f 4b 0a 4d bd 1b db 4e 3d
       0.052472576 0.7847085 -0.050058644 0.050501924
000070 f7 99 4a 3d 54 b1 f6 3c 64 0e d0 3e d6 02 d8 3c
       0.04946324 0.030113854 0.4063598 0.02636854

batch4.weight f4 [32]
000000 90 90 a1 3e 95 88 b1 40 96 ce 5c 3f d0 b5 b9 3e
       0.31555605 5.5479226 0.86252725 0.36271524
000010 f1 ad 80 40 06 9f d0 3e 05 50 79 40 4f 0c c3 3e
       4.021233 0.40746325 3.895509 0.38095328
000020 a8 b0 e7 3e 3a b3 8d 3f c6 08 99 40 95 12 48 40
       0.45251966 1.1070321 4.782321 3.1261342
000030 7d 02 46 40 29 33 85 40 19 a0 44 40 90 4b da 3f
       3.0939019 4.162495 3.0722716 1.705431
000040 b6 f4 9a 40 54 c2 9e 3e 64 e6 bb 3e fc 3f 97 3e
       4.842372 0.31007636 0.36699212 0.29541004
000050 b1 fe 61 40 23 43 67 40 fb 6f 44 40 97 7f c1 3e
       3.5311701 3.6134727 3.0693347 0.37792656
000060 f6 98 4e 3f 3b 95 40 40 e7 f8 d9 3e ac af 3e 3f
       0.8070215 3.0091083 0.4257271 0.74486804
000070 1e e7 c5 3e f7 4d b8 3f 55 5a 7a 40 3c d4 7d 3f
       0.3865289 1.4398793 3.9117634 0.9915197

batch4.bias f4 [32]
000000 69 53 2d bf f5 52 83 c0 f2 71 a4 bf 61 43 20 bf
       -0.677054 -4.1038766 -1.2847273 -0.6260281
000010 27 2f 1f c0 5a f4 4f bf ac dd 4b c0 77 8a 2d bf
       -2.487253 -0.81232226 -3.1854048 -0.67789406
000020 45 37 4c bf dd 10 bc bf ee 75 3e c0 88 0f f2 bf
       -0.79771835 -1.4692646 -2.9759479 -1.891099
000030 c7 50 1c c0 93 5c 3a c0 8d bf 0e c0 8b 8a f8 bf
       -2.4424303 -2.9119003 -2.2304413 -1.941728
000040 61 19 11 c0 d1 a6 2c bf 85 86 2f bf 24 b2 2a bf
       -2.267174 -0.6744204 -0.68564636 -0.6667807
000050 df 50 29 c0 e1 69 04 c0 c1 f0 df bf b8 f7 38 bf
       -2.645561 -2.0689623 -1.7495347 -0.7225299
000060 30 3e ac bf 74 01 94 bf 79 6a 58 bf a4 b8 8a bf
       -1.3456478 -1.1562943 -0.84537464 -1.0837598
000070 d3 f1 38 bf 37 8c 05 c0 3e 61 66 c0 a7 69 c6 bf
       -0.72243994 -2.086683 -3.5996852 -1.5500993

lin1.weight f4 [5, 800]
000000 44 1d 11 bd 42 d1 11 3c 40 70 90 bc b9 f7 1f bc
       -0.0354283 0.008899989 -0.01763165 -0.0097636515
000010 87 56 0a bc 70 fa d1 bc b1 4a 50 bc 2d b6 a2 3c
       -0.008443481 -0.025632113 -0.01271312 0.019862259
000020 43 9f c1 3a 78 2c a4 bc 54 23 0c be df e2 59 bc
       0.0014772195 -0.020040736 -0.13685352 -0.013298719
000030 37 e2 30 3d 2c fe 7a bd c7 11 a3 bc 28 39 ec 3b
       0.043184485 -0.061277553 -0.019905938 0.007208962
000040 7e 82 96 bd 11 7b 6b 3c 0d c3 4f bd 82 c4 bb 3b
       -0.07349108 0.014372603 -0.050723124 0.0057302127
000050 5c 2b 7f bc 2d c3 f2 3c 05 72 a7 bc 30 c2 2f 3c
       -0.0155743025 0.029634083 -0.020440111 0.01072745
000060 56 90 45 3c e1 eb b9 bb 96 05 ce bb 81 74 9e bb
       0.012058338 -0.005673871 -0.006287287 -0.0048356657
000070 e3 68 c4 bb 0f 91 82 3c f9 b2 84 ba 69 51 8f bb
       -0.005993949 0.01593831 -0.0010124139 -0.0043737185
000080 af 14 8f 3b d6 f8 bc bb 45 51 2f 3c 94 95 4e 3c
       0.0043664793 -0.0057669682 0.0107005285 0.012608904
000090 fb 51 aa bb 69 ea 34 bc d3 48 3a 3c 9c fa 29 38
       -0.005197761 -0.011042216 0.011369902 4.0526138e-05
0000a0 df 96 86 bc b3 b5 c9 bb 2d 1b 1e bc 37 7a 87 bc
       -0.016429363 -0.0061556934 -0.009650034 -0.016537769
0000b0 51 3b 16 bc f1 db 89 3b 88 22 46 3b e1 4d 77 ba
       -0.009169416 0.0042071273 0.0030232985 -0.0009433907
0000c0 7a 8b d7 bb 39 a0 3e 3a 73 5b 39 3d 7c 58 e7 3c
       -0.006577906 0.00072718 0.04525323 0.028240435
0000d0 1c 98 2d 3d fb 59 07 3d d0 66 d9 3c 34 dc d2 3c
       0.04238139 0.033044796 0.026538283 0.025739767
0000e0 09 74 50 be b5 95 31 be 9f a1 64 be e9 9e 58 3d
       -0.20356764 -0.17342265 -0.22327279 0.052885924
0000f0 55 08 7f be 99 63 37 be 27 7b a9 bd 93 84 d7 bd
       -0.24905522 -0.17909087 -0.082754426 -0.105233334
000100 de d3 b3 bd 83 0c 6b be 3a 30 42 bb 77 bc 1e be
       -0.08780645 -0.22953992 -0.0029630796 -0.15501581
000110 45 fe fb bd 55 2d 72 ba 99 00 53 bd a9 80 06 be
       -0.123043574 -0.00092383224 -0.05151424 -0.13135017
000120 07 24 0f be 90 51 3b be 1f 2b 14 be eb f9 3e bd
       -0.13978587 -0.18292832 -0.14469574 -0.04662506
000130 03 88 b9 3b b7 a3 f9 bb 3c 8e 20 3c a9 6b 28 3c
       0.005661966 -0.0076183933 0.009799536 0.010279574
000140 3f d2 af bc 30 a8 82 bd b9 96 63 bc e9 b8 88 bd
       -0.021462558 -0.063797355 -0.013890916 -0.06675894
000150 27 cf bb bd 20 a1 13 3d 88 2f d5 3b 85 ac 6d 3d
       -0.091703705 0.036042333 0.0065059103 0.058025856
000160 df de ce bc 5c db e6 bd 60 86 07 bd 40 e9 c2 bc
       -0.025252758 -0.11272308 -0.033087134 -0.023792863
000170 a4 9c 05 3b dc bd b2 3c a3 bc ed bb d1 9d 25 3c
       0.0020387555 0.021819048 -0.0072551533 0.010108427
000180 7a 64 4e bb a1 19 ad bc 8c 40 84 3c 80 be 5d 3d
       -0.0031492994 -0.021130385 0.01614406 0.054136753
000190 c8 a3 87 3b 1c ed 36 bc bb 06 b2 ba fb ba 7a bc
       0.0041393973 -0.01116493 -0.0013582328 -0.015303369
0001a0 1b ce a9 3b eb 00 99 3b 76 f4 da 3a 49 eb 81 bc
       0.0051820404 0.004669299 0.0016704935 -0.015859263
0001b0 05 c6 f8 bb be 85 c4 bc 1c b3 c9 3b a1 1a f2 ba
       -0.007591965 -0.023989554 0.0061553847 -0.0018471071
0001c0 73 4a 5a bc 43 e3 23 bc 13 f2 a9 bb 59 90 2d bb
       -0.013323414 -0.010002914 -0.005186328 -0.0026483743
0001d0 d2 3c 83 bc e7 b2 04 bb 39 f2 cf 3b fc db 84 bc
       -0.016020212 -0.0020248236 0.006346014 -0.016218178
0001e0 d3 13 b2 bb 22 2a 10 bc 44 ea 92 bb 54 d5 d9 bb
       -0.005434492 -0.008799108 -0.004483493 -0.006647745
0001f0 44 b8 e8 bc 03 d8 e3 3c 4e 72 57 bc 22 9e 9d bd
       -0.028408177 0.027812963 -0.013149811 -0.07696177
000200 fb 9f b2 bc 18 9f f2 bb fe 1d 0c bd 1c 52 0b be
       -0.0218048 -0.0074042194 -0.03420829 -0.13605541
000210 ee 1d b3 3c f6 6f b0 bd 99 6f c1 bc c7 c4 3d bb
       0.021864858 -0.08615105 -0.023612784 -0.00289564
000220 f6 38 42 bd d3 ef cd b9 c4 82 6d bd 14 17 ef bd
       -0.047417603 -0.0003927933 -0.057986036 -0.11674324
000230 07 d3 f0 3b 9f 0b 0c 3d 4b f3 fb 3d 14 b1 35 bd
       0.007349375 0.03419077 0.12302264 -0.044358328
000240 8d 13 04 bd 1a b2 4e 3c 3c a8 47 3d e4 e9 60 3d
       -0.032245208 0.012615705 0.048744425 0.054910555
000250 c7 50 1d bd fd 0b 09 bd cf c5 63 3c 4e 20 45 bb
       -0.038407113 -0.0334587 0.013902142 -0.003007907
000260 4e 63 7d 3b db 25 99 ba 09 cf ea 3c 72 a2 c5 3b
       0.0038663927 -0.0011684255 0.028663175 0.006031328
000270 4d 6d eb bb 5d b2 82 ba df 97 01 3c 3c 62 55 bb
       -0.0071846605 -0.0009971369 0.007909744 -0.0032559773
000280 7d 72 e8 3b 99 cc 6e bb ac 1b 80 bb 3d 29 26 bb
       0.007093726 -0.0036437868 -0.0039095487 -0.002535417
000290 3b f3 0d bc 30 bc ac 3b 40 e7 7a bb 05 3b d0 3b
       -0.008663948 0.005271457 -0.0038284808 0.006354692
0002a0 89 79 1f bc 1d a6 00 3c 8e 2c 0a 3d a9 7f 44 bc
       -0.009733566 0.0078521045 0.033733897 -0.011993327
0002b0 89 b2 7f 3c c2 75 7a bb fe 86 11 3c 79 b6 ce bc
       0.015606531 -0.0038217162 0.008882282 -0.025233494
0002c0 04 21 a5 ba ee 88 2a bc 55 b7 1f 3c da 73 45 bc
       -0.001259834 -0.010408623 0.0097483 -0.012051547
0002d0 5d d1 52 3b b8 8c 99 3b 68 30 bf 3b 7b 7e 4f 3b
       0.0032168247 0.0046859644 0.005834628 0.0031661082
0002e0 40 1d 8e bc fd 6c 61 bc 79 8f c7 3c 05 8b d2 bb
       -0.017347932 -0.013758895 0.024360405 -0.006425264
0002f0 41 f5 26 3c 16 26 63 3c 68 2f e0 3c c2 35 82 3b
       0.010190309 0.013864061 0.027366355 0.0039736936
000300 6e c4 bf bc ea 6d 8e bc b5 05 3a 3c a3 c9 0a bc
       -0.023409095 -0.017386395 0.0113539 -0.0084709255
000310 ee a9 a1 bb aa 88 3d 3c 5f 74 2c 3b aa d0 9d bb
       -0.0049335873 0.011568228 0.002631448 -0.0048161345
000320 68 62 00 bd c1 ef 4c bb 03 86 12 bc 48 8e a6 bb
       -0.031343848 -0.0031270834 -0.008943084 -0.005082879
000330 27 f4 2c bd 4d 63 0b 3d c4 32 2e ba 02 71 9f 3b
       -0.04222503 0.034030247 -0.0006645138 0.0048657665
000340 01 f7 cc bb 02 ee d4 bb ae f3 59 3d a4 b9 c9 3c
       -0.006255031 -0.0064980993 0.053210907 0.024624653
000350 c5 67 89 bc ab 7c 80 bc 62 37 c0 3b 8b 83 42 bd
       -0.016773114 -0.015684446 0.005865977 -0.04748873
000360 50 7d 46 3d c4 e4 0b ba ba 58 80 3c 38 10 4a 3d
       0.04845935 -0.0005336518 0.015667308 0.049331874
000370 a9 53 12 bd f1 03 c1 ba e3 11 1d bc ed bf 6e 3c
       -0.035724316 -0.0014725906 -0.009586784 0.014572126
000380 bc 4e 15 bc 02 40 7b 3d aa df e6 3d bb 53 16 be
       -0.00911301 0.06134034 0.11273129 -0.14680378
000390 18 ff 9d be c0 71 3a bd ba 7e 26 3d b6 25 8b bb
       -0.30858684 -0.045518637 0.0406482 -0.004246439
0003a0 02 7a ef 3c 01 18 93 3c 28 db 13 bd d5 46 bf bd
       0.029232983 0.017955782 -0.036097676 -0.09339682
0003b0 ad f0 15 be 5f cc fe 3d 50 64 35 be 0e 84 0f be
       -0.14642592 0.124413244 -0.17714047 -0.14015219
0003c0 a5 f2 6c 3d 0a c6 18 bd fa c4 9a 3d 6b a3 44 be
       0.05784859 -0.03729824 0.075571015 -0.19202964
0003d0 a3 5f 84 bd cc af 9f 3b 22 7a 54 bd 31 f5 f7 bc
       -0.06463554 0.0048732515 -0.051874287 -0.030268284
0003e0 16 11 33 be e2 a8 5c 3d 15 ed 80 bc b5 53 e9 3b
       -0.17486987 0.053871997 -0.01573805 0.0071205744
0003f0 8a 26 60 bc 1c 48 5b bb 6e 73 87 bc f6 09 26 3c
       -0.013681063 -0.0033459729 -0.016534533 0.010134211

lin1.bias f4 [5]
000000 2e 43 ab bc e2 3f c6 bc 1b ed 18 bc 9e 86 e0 bc
       -0.020906057 -0.024200384 -0.009333874 -0.02740794
000010 bb e0 11 bc
       -0.008903678
