results_auto/01_domain_adaptation/maml_supervised/June/officehome_maml_order_2_seed_0_shots_1_ways_5_meta-lr_0.0001_pre-train-wts_datetime_11_06_2021_09_47_43/intermediate_37000_model.pt (torch, 412181 bytes, 54 tensors)

conv1.weight f4 [32, 3, 3, 3]
000000 33 5d c7 3e 27 c4 bd 3d 1a 4a ca bd bc c1 df bd
       0.38938293 0.09265929 -0.09877415 -0.10925624
000010 70 6e 39 be 1d 60 11 be af 93 c3 3d 22 65 5a 3d
       -0.18108535 -0.1419682 0.09549653 0.053319104
000020 f9 a1 18 be 2f a1 08 3c e2 7e 47 be 85 68 97 3d
       -0.14905538 0.00833921 -0.19481996 0.073929824
000030 ff bd b1 be 05 c6 fd bd 07 9a c0 bb 02 73 b7 bb
       -0.34715268 -0.12391285 -0.0058777365 -0.005598427
000040 00 b6 28 3e 6a d3 90 3e b9 12 52 bf 92 0a da be
       0.16475677 0.28286296 -0.8205982 -0.4258619
000050 3a 46 35 3e 86 10 93 be 31 51 e9 3d f5 69 14 3f
       0.1770257 -0.28723544 0.11392439 0.5797418
000060 a5 dc 1a be aa bf b6 3e 3f 0c 4d 3f 9b 55 c7 3d
       -0.15123232 0.35693103 0.8009681 0.09733125
000070 da 76 82 3d 3e 76 a4 3e 72 73 38 be 1d 4c 71 3e
       0.063703254 0.32121462 -0.18012789 0.23564191
000080 a9 3a 8b 3e bd 06 03 bf 5c 0c db be 77 8d a5 bd
       0.27193192 -0.51182157 -0.42782867 -0.08083623
000090 63 c6 cc bd 7f e7 88 3e 90 34 b9 3e 73 26 73 be
       -0.09998777 0.26739118 0.36172915 -0.23745136
0000a0 14 a5 e0 bc a1 a6 ca 3d 32 0c 05 bf d8 cc 07 bf
       -0.027422465 0.09895063 -0.51971734 -0.5304694
0000b0 82 a0 56 be b1 60 01 3e 7d 86 c3 3e 25 52 03 3f
       -0.20959666 0.12634541 0.38188544 0.5129722
0000c0 f5 ea 91 be ab d8 23 ba 72 ee a8 3e ff fc 3f bd
       -0.2849957 -0.00062502426 0.3299442 -0.046872135
0000d0 99 24 1a be 10 b9 87 3c 68 2d c7 3e 68 1a b0 3d
       -0.15053023 0.016567737 0.3890183 0.085987866
0000e0 d1 1e 87 3e 46 05 8e be 6d 1e a3 be 65 59 c2 be
       0.263907 -0.27738398 -0.3185915 -0.37958828
0000f0 32 7b 25 bd 84 7f 88 bd a5 f3 95 bd 39 7c c3 3e
       -0.04040069 -0.06664947 -0.07321862 0.38180712
000100 c6 11 a4 3e 5b a8 12 3e fa bb 2a bc d5 d2 25 bd
       0.3204481 0.14322035 -0.010420794 -0.04048427
000110 1e f8 28 be 49 43 4d 3d b5 cc a2 be a5 ea 02 be
       -0.16500899 0.050112996 -0.31796804 -0.12784822
000120 4d 3f ec 3e 4f a5 e7 3e 93 e1 09 3f 84 8c 1b 3e
       0.46142045 0.45243308 0.53859824 0.15190321
000130 57 c0 6a bd ed b3 be be 00 39 81 be ae 00 f0 be
       -0.057312336 -0.37246647 -0.252388 -0.4687552
000140 27 89 b8 be 6a 64 f8 3e 47 84 c1 3e 2f a8 1b bd
       -0.3604214 0.4851411 0.37796232 -0.03800219
000150 18 ea 18 be 05 78 b9 be f2 1d d8 be ed 0b 9a 3d
       -0.1493305 -0.3622438 -0.42210346 0.07521806
000160 e0 23 3c 3e 31 41 7b bd 2d 26 d1 3e f0 92 e4 3e
       0.1837306 -0.06134147 0.40849438 0.44643354
000170 7a b4 d5 3e 41 66 71 be c2 38 08 bf cd 0f 05 bf
       0.41739255 -0.23574163 -0.53211606 -0.51977235
000180 e0 f7 a8 3d 50 27 df 3d 86 ba 03 be bd 8b b7 3c
       0.082504034 0.1089617 -0.12864122 0.0224055
000190 10 37 db 3e f6 a9 02 3f c9 e8 ee be e6 a2 c2 be
       0.42815447 0.5104059 -0.46661976 -0.38014907
0001a0 c3 c2 b9 be be 4e a7 bd 90 95 2d bd 4a 7e 95 3d
       -0.36281404 -0.08169316 -0.042378962 0.07299478
0001b0 2c 57 84 3c eb 62 b7 3d dd 4e 85 bd 24 89 4c 3e
       0.016154848 0.08954414 -0.065091826 0.1997419
0001c0 62 3f a5 bd 11 96 59 3e d5 26 af 3d e8 56 53 be
       -0.0806873 0.21248652 0.085523285 -0.20638621
0001d0 a4 5d 16 be a6 c7 72 3e 90 0e b5 3e 5d a5 4c 3e
       -0.14684159 0.23708972 0.35362673 0.19984956
0001e0 1c 28 83 3e e0 07 54 3e c9 ba b4 3c b3 68 8d bd
       0.2561654 0.20706129 0.022061722 -0.069047354
0001f0 62 d7 80 be fc 4c 9a be de 81 82 bf b5 8a 0c 3e
       -0.25164324 -0.3013686 -1.0195882 0.13724788
000200 02 40 26 be 20 df 37 bf d8 24 cc 3e 40 b6 a6 3d
       -0.16235355 -0.71824837 0.3987186 0.0814023
000210 18 80 bb bf 78 08 a7 3e 25 5e 70 be ad dc 8c be
       -1.4648466 0.3262365 -0.23473413 -0.27512112
000220 07 ae c1 bd 3b d7 6e be df 77 86 3d de dd 63 3e
       -0.09457021 -0.23324291 0.06565832 0.22252604
000230 3f 2d a0 3e ed b0 a8 3e 09 91 09 3f b3 1b 40 3e
       0.3128452 0.32947484 0.5373693 0.18760566
000240 83 77 c2 be 6c 4c bf bd 75 61 01 3d dd 12 b1 be
       -0.37981805 -0.09340748 0.031587083 -0.34584704
000250 14 26 c1 be 0b 05 99 be 5b 31 16 bf c5 a9 d2 be
       -0.37724364 -0.2988666 -0.5866906 -0.4114515
000260 b1 15 c5 be f2 a3 de 3e 6f 33 07 3f 48 7e 20 3c
       -0.38493112 0.43484455 0.52812856 0.009795733
000270 4e 7e 92 3e 39 01 e9 3c 7f 81 e7 3d 27 68 95 bd
       0.28611988 0.028442966 0.11303996 -0.07295256
000280 b5 00 0b 3d 16 84 18 be b8 c9 19 bf 4a 6f 9a be
       0.03393622 -0.14894137 -0.60073423 -0.30163032
000290 42 d1 39 be 24 2d b9 bd e9 46 af 3d cf eb 8e 3e
       -0.18146232 -0.09041813 0.08558447 0.27914283
0002a0 ea 8b 9d bb 2f 41 d6 3e a7 d3 09 3f b7 56 a8 be
       -0.004807939 0.41846606 0.5383858 -0.32878658
0002b0 e1 3f 6f 3e d5 bc de 3b af 81 b4 be e0 10 86 3e
       0.23364212 0.006797413 -0.3525519 0.2618475
0002c0 d9 9f 13 3d ae 1b 95 be e6 20 8d 3e 0e 79 37 be
       0.036041114 -0.2912268 0.27564162 -0.17917272
0002d0 12 2b 3d 3e 92 63 d0 3e ec bb cb 3e 71 b5 83 bd
       0.18473461 0.40700966 0.3979181 -0.064310916
0002e0 20 d7 75 3e 81 26 a8 3d 0a 9c f1 be e2 e9 1d be
       0.24007845 0.08210469 -0.4718936 -0.1542125
0002f0 b0 f7 dc be 05 a6 31 3d 54 59 ba 3e 8e 81 44 3e
       -0.4315772 0.04337122 0.36396277 0.19190046
000300 dc 4d 22 bf 73 36 68 be db e0 0d bf 32 7c 63 3c
       -0.63400054 -0.2267702 -0.5542123 0.013884591
000310 ec cd 60 3e cb dd 71 3e 7b 8f 37 be fb 0a 86 3e
       0.21953553 0.23619764 -0.17925827 0.26180252
000320 35 9c 1c 3d 15 99 ca be d2 1e af be 93 c7 19 bf
       0.038234908 -0.39569917 -0.34203202 -0.6007015
000330 a8 19 f9 3d 44 d5 27 3f 44 43 45 3e 28 1b 39 3e
       0.12163097 0.6555979 0.19263941 0.18076766
000340 fa 2f 83 3e ac 4c 81 3d 7f 85 a6 be a5 eb 70 be
       0.2562254 0.06313452 -0.32523724 -0.23527391
000350 81 26 aa be 6d de 94 3e db db e6 3e 29 97 96 3e
       -0.332325 0.29075947 0.4508961 0.294122
000360 00 f7 61 be bf f3 ec be a7 97 1c 3f 30 f3 ca be
       -0.2206688 -0.46279714 0.61168903 -0.39638662
000370 ce 17 8d be 91 14 11 3f e9 f0 14 be 1c 14 5e be
       -0.27557224 0.56672007 -0.14545025 -0.21687359
000380 4d 7c 9b 3d fd ef 75 3e e7 60 00 bf ed c3 07 3e
       0.07592068 0.2401733 -0.5014786 0.13258334
000390 4a 41 c2 3c b3 b0 38 be 5a a4 47 3e a1 bf 89 3e
       0.023712773 -0.18036155 0.19496289 0.26904014
0003a0 0a bd 26 bd 1d 47 aa 3e 01 01 86 3e 4d 2e d3 be
       -0.040707625 0.3325738 0.2617264 -0.41246262
0003b0 96 4f 9d 3e dc be 1a be 8d 75 90 be 26 05 46 3e
       0.30724782 -0.1511187 -0.28214684 0.19337901
0003c0 e7 74 3f 3d 32 4d 45 bd ce 37 2c bd 91 5c bf 3e
       0.046742346 -0.048169322 -0.042045407 0.3737531
0003d0 1f 69 c8 3e fa b2 f5 bd 51 ad 06 3f 14 4e b4 3d
       0.391427 -0.11997028 0.5260821 0.08803955
0003e0 b4 79 ab bd 3e 7e b4 3e aa f9 97 bc c7 ad b1 3c
       -0.083728224 0.35252565 -0.018551666 0.021689309
0003f0 7f a8 9a 3e 9a 2b 8f bd 58 a0 85 be 88 a1 52 bd
       0.30206677 -0.06990738 -0.26098895 -0.05142358

conv1.bias f4 [32]
000000 3c b3 bd bd 44 e6 c7 bf bc 7d 50 3d a7 7c 5b be
       -0.09262702 -1.5617146 0.05090116 -0.2143427
000010 ce 43 3a bf 3a 28 d8 c0 7d 7c 02 3d 61 1a a6 bc
       -0.7275971 -6.7549105 0.031857003 -0.02027625
000020 0e c1 86 be 73 36 4d 3e 51 d4 93 be d2 a1 09 bd
       -0.26319164 0.20040302 -0.28872922 -0.03360159
000030 7f 96 60 3f 0a 70 cf bf 2c a3 54 be 81 c1 04 be
       0.8772964 -1.6206067 -0.2076537 -0.12964441
000040 60 b8 a2 ba 6b 2a 8b be e8 20 54 be 7e 6f 61 c0
       -0.0012414567 -0.271808 -0.20715678 -3.52243
000050 36 40 81 3f d8 51 d4 3c ce 7c c7 3d 66 ae f8 3d
       1.0097721 0.025917932 0.097406015 0.12142639
000060 6b 91 25 c1 f4 3f 74 3e 95 d4 20 be 6d 2a b4 bd
       -10.348002 0.23852521 -0.15706094 -0.087971546
000070 6a b5 83 3e 1d c4 eb be 83 c0 2d c0 7c 6d a4 3d
       0.25724345 -0.4604806 -2.714875 0.08028695

batch1.weight f4 [32]
000000 6b 94 97 3f f9 be 89 3f cb ad 34 3f 78 5b 97 3f
       1.1842169 1.0761405 0.7057769 1.1824789
000010 14 e3 5b 3f b9 55 3a 3f 2e e8 8f 3f 61 f4 8d 3f
       0.8589337 0.7278705 1.1242731 1.1090204
000020 5c 28 59 3f 44 70 80 3f 22 33 a9 3f 13 db 38 3f
       0.8482721 1.0034261 1.321873 0.7220928
000030 3e 2b 6c 3f 98 29 0b 3f 03 af ed 3e 57 a8 5d 3f
       0.9225348 0.5436034 0.46422586 0.8658499
000040 9a fc 44 3f 40 6e 8c 3f 07 0f a5 3f df 02 22 3f
       0.7694794 1.0971146 1.2895211 0.6328563
000050 1c be 55 3f 37 6a 77 3f d3 ce 7e 3f bb 82 8f 3f
       0.8349321 0.96646446 0.9953434 1.1211771
000060 b8 5d 54 3f 2b ce 90 3f 29 63 af 3f 09 2a 7f 3f
       0.82955503 1.1312917 1.3702136 0.99673516
000070 e3 7a b0 3f f6 c1 25 3f d3 67 3a 3f 85 c5 01 3f
       1.3787502 0.64749086 0.72814673 0.50692016

batch1.bias f4 [32]
000000 e3 b4 54 3f e8 19 38 bf 18 4c 43 3f 6b f7 a6 3d
       0.8308851 -0.7191453 0.76287985 0.0815266
000010 2b 1d 0c bf 95 c5 4a 3e cd 86 c3 3f 47 8d 21 3f
       -0.54732007 0.19801934 1.5275513 0.631062
000020 60 d6 33 40 21 56 f5 3d fc 47 89 3f 46 c6 14 bf
       2.8099594 0.119793184 1.0725093 -0.5811504
000030 12 95 8d bd dc ad a1 be 3c 63 6c 3d 5d aa 09 bf
       -0.069131985 -0.31577957 0.057711825 -0.5377558
000040 98 d1 8e bd 5f 5a c6 bd d9 bd 26 bf 88 bf 8e be
       -0.069735706 -0.09685206 -0.65133435 -0.27880502
000050 cd 9d 3c bd f5 73 17 3e e5 33 47 3e 22 81 60 3e
       -0.046048928 0.14790328 0.1945339 0.2192426
000060 34 c9 92 3e f1 98 0a bd c2 57 c7 3e 9f 8c 99 bc
       0.2866913 -0.033837263 0.3893414 -0.018743811
000070 36 7e b3 bd fe c0 05 3c a5 ce c7 3f ac f9 03 be
       -0.08764307 0.008163689 1.5609938 -0.12888211

conv2.weight f4 [32, 32, 3, 3]
000000 49 f9 57 bd de 00 99 3e b0 07 96 3d c5 6a d2 bd
       -0.05272797 0.29883474 0.07325685 -0.10274271
000010 1a d9 82 3e ed 95 f8 3e 3c 25 5c 3b 3d 9d 32 3e
       0.2555626 0.48551884 0.003359153 0.17442794
000020 d7 27 16 3e 46 de 5b 3e ec 04 06 be 04 14 99 3a
       0.14663635 0.2147151 -0.13087815 0.0011678939
000030 5c 6f d0 3d 65 c4 48 3d 53 c7 10 3f 39 17 74 be
       0.1017749 0.04901542 0.56554145 -0.23836984
000040 83 7e 36 be 52 e8 5f 3e 48 cc 0b bf e6 aa 0f bf
       -0.17821698 0.21865967 -0.54608583 -0.56120145
000050 f5 77 e5 be ca 84 e7 be 7b 2f 2e be 42 83 3f bf
       -0.44818082 -0.45218498 -0.170103 -0.7480966
000060 97 36 e6 3d 0d e2 3f 3e 78 c7 ec 3e d0 d1 d5 3e
       0.11240881 0.18738575 0.46245933 0.41761637
000070 6f 65 6e 3e fa 05 21 be 48 14 17 be 61 0b 2d be
       0.23280881 -0.15724936 -0.1475383 -0.16898872
000080 7e 3d 34 bf 5a a9 44 3e 2e bf 72 bd 5b e2 19 be
       -0.7040633 0.19205227 -0.059264354 -0.15027754
000090 51 b1 9c 3e 5f 77 14 3e a3 9d 20 3d 8a 17 91 3e
       0.30604032 0.14498661 0.039212834 0.2833827
0000a0 01 1c d1 3d 39 d9 9f 3c 58 d5 f1 3d 93 01 1e be
       0.102104194 0.01951276 0.1180827 -0.15430288
0000b0 51 0c e6 bd 6c 59 17 be 26 fc 86 be 5e 1e 69 be
       -0.11232818 -0.14780205 -0.2636425 -0.2276549
0000c0 30 ae 9d 3d 50 10 d8 3b 16 d1 1c 3e 8c da 7d 3e
       0.07699239 0.0065937415 0.15314135 0.247904
0000d0 33 04 0e 3e c5 04 81 3e d8 3f 85 3d ba 6b 68 be
       0.1386879 0.2519895 0.06506318 -0.22697344
0000e0 0d d6 83 be 8d 25 22 3e 06 2a 83 3d ff fc cf bc
       -0.25749245 0.15834637 0.064045 -0.025389193
0000f0 01 87 09 3e 57 a4 1b be 66 dd 5e 3e 35 c6 99 3d
       0.13430406 -0.1519941 0.21764144 0.07508508
000100 ce 94 bf 3d 68 49 0b be 05 35 32 3e 45 97 54 3d
       0.09354554 -0.13602221 0.17403038 0.051902074
000110 dd 5a e5 bd e6 f5 d5 3d d0 b6 6f 3e 07 96 ce 3d
       -0.111989714 0.10447292 0.23409581 0.10087209
000120 26 1e a7 bd 3c 4c 67 3e 52 57 71 3e 45 67 34 be
       -0.08160047 0.22587675 0.23568466 -0.17617519
000130 d9 78 ab 3d ee f8 c3 3e fb ae e4 be 66 49 88 be
       0.08372659 0.38275856 -0.4466475 -0.266185
000140 51 4b 01 3e ef 73 63 be 9f cf 28 bf ed 66 da be
       0.12626387 -0.22212194 -0.65941805 -0.4265665
000150 42 fa 92 be 3a 38 63 be 84 69 20 3e 89 f8 41 bd
       -0.28706557 -0.22189417 0.15665251 -0.047356162
000160 a8 97 86 3d 60 b5 d2 3e 5c ad 1a be 5f 64 a7 bd
       0.06571895 0.41154003 -0.15105194 -0.08173441
000170 14 59 14 3d 62 4e 93 bd fe 2b 80 3e 7c 27 08 3e
       0.036217764 -0.07192685 0.25033563 0.13296312
000180 4c 65 1b be 60 5b a7 be a5 d1 91 be 88 01 eb be
       -0.1517536 -0.326869 -0.2848026 -0.45899606
000190 6f 48 15 be 8c 2c 88 be e1 24 c2 be 48 40 8d 3e
       -0.14578412 -0.26596487 -0.3791876 0.27588105
0001a0 a5 43 e6 3d 49 99 b8 be 0d fa c0 3e da eb 79 3e
       0.11243371 -0.36054447 0.37690774 0.24406376
0001b0 48 ae 87 be fb ac 64 be cd db a5 be 93 47 ff 3d
       -0.26500154 -0.22331612 -0.32394257 0.124648236
0001c0 dd 16 32 3e 56 72 00 bd 06 dc 93 be 4b 6c 99 3c
       0.17391534 -0.03135904 -0.28878802 0.018728396
0001d0 8d e0 e0 3e ef c5 38 3d 1c f1 e1 bd 54 c7 8a bc
       0.4392132 0.04511064 -0.11032316 -0.01694075
0001e0 63 bb ba 3d 13 ff 48 be 2c 4e ab be b6 cb db 3d
       0.091177724 -0.19628553 -0.33458078 0.10732214
0001f0 4d 5c ad bd 69 10 ef be d8 de 04 bf 04 3f 05 bf
       -0.084648706 -0.46692207 -0.5190253 -0.5204928
000200 64 84 98 be 59 dd 14 bd ae ce 93 bd 16 ea 71 3e
       -0.29788506 -0.036343906 -0.072171554 0.23624453
000210 e5 e4 50 3e 67 d6 90 3e 82 ff f7 3e 46 13 b1 3e
       0.20399816 0.28288576 0.48437124 0.34585017
000220 64 0c a1 be ca 4f dc ba bc 97 d6 3e ec ef 23 bd
       -0.31454766 -0.0016808447 0.4191264 -0.04002373
000230 9b 81 ae 3d 80 0a c5 bd 41 c3 d5 be 28 28 83 be
       0.08520814 -0.09621143 -0.4175053 -0.25616574
000240 4a 66 24 bf 27 99 db bd f8 3e ac be e2 07 f7 bd
       -0.6421858 -0.10722571 -0.3364179 -0.120620504
000250 fa d8 0b 3f 9d b8 8d 3e a7 a9 0b be fe 7c a2 3e
       0.54627955 0.2767991 -0.13638936 0.31735986
000260 4e 2e cd 3e b5 a0 cc 3e f1 94 60 bd 93 80 87 3e
       0.4007439 0.3996636 -0.05482954 0.26465282
000270 3e 3f 70 3e 47 16 36 3c e6 3e d3 bd b0 79 60 be
       0.23461625 0.01111371 -0.10314731 -0.2192142
000280 dd d7 98 be c9 05 9c be c8 cb 72 bd f6 49 9d be
       -0.2985219 -0.30473164 -0.059276372 -0.3072049
000290 e7 2f 47 be 26 c8 f8 3d 38 cf 08 be 6b b7 86 3e
       -0.19451867 0.1214755 -0.13360298 0.26311812
0002a0 8d 84 e9 3e 01 be be bc 10 1b df 3e 7e 38 bf 3d
       0.4560894 -0.02328396 0.43575335 0.09336947
0002b0 fc 10 ad be 93 5c a0 bd e3 dc 22 bc 5b 12 ab bb
       -0.3380202 -0.07830157 -0.009940359 -0.005220694
0002c0 b7 e3 51 3d 3f ee b2 bd 8d 88 45 3d 7b ea 53 be
       0.051242556 -0.08736848 0.048225928 -0.20694916
0002d0 8f c0 6a bd 28 e7 ab bd 67 d7 a4 be 9e eb 83 bd
       -0.057312544 -0.08393699 -0.3219559 -0.06441425
0002e0 52 54 87 3d 7d 1d 8b 3e 81 ce fb bc c1 0f 5b 3e
       0.0660788 0.27170935 -0.030738117 0.21392728
0002f0 89 64 16 3e 90 fb 3a 3e 62 ea 81 3d 3a 70 cf bc
       0.14686789 0.18260026 0.06343533 -0.025322068
000300 a2 a0 c8 be b9 87 38 be db 19 6a be e3 da 36 be
       -0.39185053 -0.18020524 -0.22861426 -0.17856936
000310 6b 76 aa 3d b4 f6 88 3e 72 f0 6b be be 5b 1b bf
       0.08323368 0.2675072 -0.23040941 -0.6068686
000320 99 2b c3 be 35 81 d7 be f6 8a e7 3d c2 78 91 3e
       -0.381192 -0.42090765 0.113058016 0.28412443
000330 cd b9 a2 bd e9 c1 93 3e d8 8e 39 3f 2c c5 a1 bd
       -0.07945595 0.2885888 0.7248359 -0.07898936
000340 c6 52 74 be 87 af 79 3e 3f 5e 2e be b2 5d 0f 3d
       -0.238597 0.24383365 -0.1702814 0.035001464
000350 c6 2e 42 3e e8 68 d1 3b 6d 58 8c bc a3 35 21 3c
       0.18963155 0.0063906796 -0.017132008 0.009839448
000360 d4 68 d7 be af cc 09 be e7 d9 d1 3d e9 85 2c be
       -0.42072165 -0.13456987 0.1024664 -0.16847958
000370 c7 79 2b 3d 29 30 f9 3e 21 31 c4 be 41 98 b0 bd
       0.041864183 0.48669556 -0.38318732 -0.0862279
000380 ca cb b8 3b b8 c4 3d 3d 0c 0b 3e be 8b 80 fa be
       0.005639528 0.046330184 -0.18558902 -0.48926196
000390 49 4f ac be fd 02 3a be b8 67 37 bf a8 09 10 bd
       -0.3365424 -0.18165202 -0.7164264 -0.03516546
0003a0 c7 37 17 3e 0c 5f 15 3e 21 f9 63 3e 3c 71 30 3d
       0.14767371 0.14587039 0.22263004 0.04307674
0003b0 78 db 8e be c6 65 83 3e 8c 8a d6 3d 14 7b 35 3d
       -0.27901816 0.25663584 0.104756445 0.04430683
0003c0 65 a8 d1 be 74 16 4c be 5c 84 fe be a0 e8 71 3d
       -0.40948787 -0.1993044 -0.49710357 0.05905974
0003d0 1d af 6c 3e 27 92 d8 3d b2 0b 2c be 86 b4 39 3e
       0.23113675 0.10574751 -0.16801336 0.1813527
0003e0 f9 8e a5 bc 23 29 de be b3 f8 7f 3b 27 10 fc 3c
       -0.020209776 -0.4339076 0.0039058148 0.03076942
0003f0 ff 48 da bd c4 db d5 be 47 78 a9 3d 88 e5 e0 3c
       -0.10658454 -0.4176923 0.08274894 0.027453199

conv2.bias f4 [32]
000000 cd 4b cd 3d f4 0b 1a 3e f3 cb 11 3e dc db 0f 3e
       0.100242235 0.15043622 0.14237957 0.14048713
000010 31 ca 82 3d 3b bb c4 3d 03 af b2 bf 4f ae fa bc
       0.06386221 0.09606024 -1.3959659 -0.030600695
000020 ac 19 be 3e 8f df ab be 45 0e 87 3e e1 68 17 be
       0.3712896 -0.33569 0.26378074 -0.14786102
000030 35 ca 61 bd d0 da 35 3e 58 64 5a 3d e3 d8 c2 bd
       -0.05512448 0.17759252 0.05331835 -0.09514024
000040 d9 c6 81 bd a4 f8 30 be b5 bf 74 bd 8a 33 cc bd
       -0.06336755 -0.17282349 -0.05975314 -0.09970768
000050 77 44 56 bd 64 87 0f 3d ad 77 04 3e 9f 68 0b 3d
       -0.052311387 0.035041228 0.12936278 0.03403532
000060 62 f9 a5 3e b4 ae 74 bb 09 c0 95 3b 8f 1f 08 be
       0.32416826 -0.0037335576 0.0045700115 -0.13293289
000070 22 80 10 bf a6 91 b1 3e e8 db 24 bd 14 54 c5 3e
       -0.56445515 0.34681433 -0.04024878 0.3854071

batch2.weight f4 [32]
000000 e5 a0 52 3f c0 9f 7b 3f 84 88 b7 3f 34 77 91 3f
       0.82276756 0.98290634 1.4338536 1.1364503
000010 db 0e 7e 3f de 49 9a 3f f1 55 9a 3f 77 5e 34 3f
       0.9924142 1.2053792 1.2057477 0.7045664
000020 69 7d 92 3f c4 73 5b 3f 18 18 96 3f 5a c9 6f 3f
       1.1444522 0.8572352 1.1726103 0.93666613
000030 64 be 18 3f 35 11 a8 3f b3 e9 87 3f e9 0c 9f 3f
       0.59665513 1.3130251 1.0618194 1.2425815
000040 41 3a 58 3f c2 8f 65 3f 37 1e 76 3f 15 6b 49 3f
       0.8446389 0.8967248 0.96139854 0.7867902
000050 7d 32 96 3f 9d 21 88 3f e7 81 97 3f 3d 15 8c 3f
       1.1734158 1.0635258 1.1836518 1.0943981
000060 af 28 82 3f 6a a5 42 3f 47 29 47 3f c2 31 20 3f
       1.0168666 0.7603365 0.7779736 0.62575924
000070 1d dd 8c 3f 8a 51 72 3f b0 4a 65 3f b5 c0 4f 3f
       1.1004978 0.9465567 0.8956709 0.8115342

batch2.bias f4 [32]
000000 3b ff 63 bd 8f 65 07 bf d0 d4 cd be 33 50 0f bf
       -0.05566333 -0.5288934 -0.40201426 -0.5598175
000010 73 e7 90 be d7 86 1b bf 6e 7d b1 be c1 7c 5a be
       -0.28301582 -0.60752624 -0.34666008 -0.21336652
000020 5b 35 ee be a8 d2 9d be 5e 6c fd be a6 31 a0 be
       -0.46525082 -0.3082478 -0.4949674 -0.3128788
000030 41 7d 05 3d ea 16 e9 be ed 58 bd be 59 46 0d bf
       0.032590155 -0.45525295 -0.36981907 -0.55185467
000040 5f 03 ca be 1b 37 e4 be 61 af fa be 7a 8b 8e bd
       -0.39455697 -0.44573292 -0.48961928 -0.06960197
000050 02 24 de be d0 09 b3 be 85 cc 16 bf c2 5b b2 be
       -0.43386847 -0.34968424 -0.5890582 -0.3483563
000060 d5 c0 fb be ab f5 83 be 19 e8 45 be e8 05 99 be
       -0.49170557 -0.25773367 -0.1932682 -0.2988732
000070 8b 8b 37 be fc f0 c1 be 95 34 ae be c8 e9 f5 be
       -0.17924325 -0.3787917 -0.34024492 -0.48029923

conv3.weight f4 [32, 32, 3, 3]
000000 3d 4b 78 3e 2a c5 03 3f 2b e8 6c 3d 86 cd a5 be
       0.24247451 0.51472723 0.0578386 -0.32383364
000010 47 d5 80 bc b0 4f 4c 3e 10 13 e3 be 4b 40 56 be
       -0.015726699 0.19952273 -0.4435048 -0.20922963
000020 b0 a9 be bd 7d 60 d8 3d 60 d1 10 3e d2 04 dc be
       -0.09309709 0.10565279 0.1414237 -0.42972428
000030 27 86 ba bd 8d f9 a5 bd af 8d 99 bd 55 0e 9c 3e
       -0.09107619 -0.08104239 -0.07497727 0.30479684
000040 19 9e 47 3e 76 2d d5 be bd ce 5f 3d c8 d9 d9 3b
       0.19493903 -0.41636246 0.05464052 0.006648276
000050 4b ca 02 bf d6 20 91 3e a2 58 4a 3e d1 ae e4 bd
       -0.51089925 0.28345364 0.19760373 -0.11166156
000060 80 d1 bc 3d 66 05 4f 3d 5b 6f 7f be 81 64 52 be
       0.092196465 0.050542258 -0.24944822 -0.20546152
000070 2e 7b be be af 5f b1 3e 17 71 4b 3c e8 30 4c be
       -0.37203354 0.34643313 0.012417099 -0.19940531
000080 60 b7 a6 3e 39 44 95 be 09 64 98 be 38 33 8a 3e
       0.3256178 -0.29153612 -0.2976382 0.26992202
000090 0c f9 8c 3e 01 79 d8 3e 1a 6f 9a 3c 10 72 39 bd
       0.27533758 0.4227982 0.018851805 -0.045274794
0000a0 3b 0f 3e bc 87 7e 10 be 7d d5 94 bd 44 71 7c 3d
       -0.011600311 -0.14110766 -0.07267282 0.061631456
0000b0 34 3b c5 bd 0e 90 7c 3e db 17 1e 3e f1 d0 82 3e
       -0.09630433 0.24664328 0.15438788 0.25550035
0000c0 cb 11 7b 3d 4a b5 26 3e 1b 7f bc 3e 24 74 e8 be
       0.061296266 0.16280094 0.36815724 -0.45401108
0000d0 f9 bb 24 3d bf 7f 89 be c5 b6 c4 3e 26 8d f5 3d
       0.040218327 -0.26855275 0.38420692 0.119898126
0000e0 c1 f7 82 be 0a fb b5 3d 0e 6c 37 bc 4e da 87 bd
       -0.25579646 0.088857725 -0.011195196 -0.06633435
0000f0 55 89 81 3e c2 06 df 3e 22 1d 7d 3d 2f b9 c4 be
       0.2530009 0.43559843 0.06179536 -0.38422534
000100 c8 e1 67 be 4c 91 02 bf 3a 61 12 3e 08 64 70 be
       -0.22644722 -0.51002955 0.14294901 -0.23475659
000110 13 aa 92 be 49 38 e0 bd af 1d 05 be ec b4 55 bd
       -0.2864538 -0.109482355 -0.12999605 -0.052174494
000120 d9 64 47 3e 1b f9 3a be fe fe b9 be 17 5f 03 be
       0.19472064 -0.18259089 -0.36327356 -0.12829243
000130 cc d1 85 3d 31 7d 4b 3e f2 47 ce 3b 49 b9 e4 3d
       0.06534156 0.19871975 0.0062951976 0.11168153
000140 bd eb f9 3d 12 e7 52 bf a4 97 e8 bd 56 aa 80 3e
       0.12203167 -0.82383835 -0.11357048 0.25129956
000150 3e 86 2d bf 01 04 a5 be 3b bd 55 3e 71 88 10 be
       -0.6778296 -0.32229617 0.20872967 -0.14114548
000160 79 1e 86 3c eb f8 e9 3d 21 11 6f be 2e 6f 18 bf
       0.016371952 0.114244305 -0.23346378 -0.59544647
000170 bb 28 24 3e 0a bd af bd f0 a4 f1 3d 3c 4a 6e 3e
       0.16031162 -0.08580978 0.117990375 0.23270506
000180 f6 59 b5 bd 1a 40 94 bc e9 29 78 3d 00 68 53 3d
       -0.08855049 -0.018096972 0.060586844 0.051612854
000190 6c 65 0d 3e 3f ab 59 3e 0e 19 fa 3d 42 6c 37 be
       0.1380822 0.21256731 0.1221181 -0.17912391
0001a0 4e 8b 33 be 5b cc 28 3e 6d 18 d1 3e f8 32 76 be
       -0.1753361 0.16484205 0.40838948 -0.2404288
0001b0 36 89 92 bd 14 0e 33 be d3 a9 e0 be b8 b6 38 be
       -0.07155077 -0.17485839 -0.43879566 -0.18038452
0001c0 ce 1f d1 bd d3 e0 ca be 03 88 50 be ea df 00 3e
       -0.102111444 -0.39624652 -0.20364384 0.12585416
0001d0 c1 52 41 be 2d 0a 86 be 0c d8 1e be 8d fc f1 3d
       -0.18879224 -0.26179639 -0.15512103 0.11815748
0001e0 ce f5 f0 3b 52 2a ae 3d 9e a7 a2 be 4c 52 12 bd
       0.007353521 0.08504166 -0.31768507 -0.035723016
0001f0 d1 6d b6 3d 46 e2 ef be 45 98 0b be bb d2 5a be
       0.089076646 -0.4685232 -0.13632305 -0.2136945
000200 33 7a 0d bf a0 7a 4e bc 36 e6 27 bd 50 95 97 3d
       -0.55264586 -0.012602478 -0.04099103 0.07401526
000210 64 11 51 bd 1f 65 42 3e 15 67 92 bd 0a d6 8d 3e
       -0.051041976 0.18983887 -0.071485676 0.2770236
000220 a2 2c 9f bd bc dd 60 be 11 4f 41 3e 83 73 3b be
       -0.07772185 -0.21959585 0.18877818 -0.18305783
000230 84 e4 ff be 81 6d 28 be 9d ad 8d 3e 12 81 7e be
       -0.4997903 -0.16448022 0.2767152 -0.24853924
000240 b4 97 06 3e 51 ed e8 bc 1d 92 2c bf fb 1b 64 bd
       0.13143808 -0.028433474 -0.6741045 -0.055690747
000250 0e 07 37 3d 64 ed fa 3b 15 90 7d be 47 72 0c be
       0.044684462 0.0076576937 -0.24761994 -0.13715468
000260 89 59 0c be 56 43 46 bb 56 9f 2c be 33 30 ad 3e
       -0.1370603 -0.0030252538 -0.16857657 0.33825836
000270 32 9b 82 3e e9 e3 98 3e 1e 07 65 3e 3e 70 f8 bd
       0.2550903 0.29861382 0.22365996 -0.121307835
000280 9c b6 2b 3e 12 54 49 3e 35 8c 49 3c f7 0a 33 3e
       0.16768879 0.19660977 0.012301494 0.17484652
000290 78 90 8a 3e fc 6f fd bd 17 d8 62 be 53 68 b4 be
       0.27063346 -0.12374875 -0.22152744 -0.35235843
0002a0 17 bd 44 3e 09 58 0e bf 99 d0 dc be fc ce 9b be
       0.19212757 -0.5560308 -0.43127897 -0.30431354
0002b0 9a 2f 9a 3d 2c 41 06 3e c5 8d c6 be ef fc 36 3c
       0.075286105 0.13110799 -0.38780037 0.0111687025
0002c0 3d 95 7b be 25 8e d2 be 4a ca 9d be fa a1 88 be
       -0.24568649 -0.41124073 -0.30818397 -0.26686078
0002d0 e6 bf 94 bd d9 36 a4 3b a1 77 b4 3e ee 40 78 3e
       -0.07263164 0.005011421 0.3524752 0.24243519
0002e0 c1 7b 28 3d ff 71 13 3e 35 10 a9 3e 50 87 f0 3d
       0.041133646 0.14398955 0.33020177 0.11744559
0002f0 f1 21 9c 3c c6 9a 01 3f d7 7e 85 3c 64 3e 13 3d
       0.019059153 0.5062679 0.016295834 0.035948172
000300 27 a6 63 3e a8 96 bd be d7 ea b6 be cd 71 cd bd
       0.22231351 -0.37029004 -0.35726044 -0.100314714
000310 17 29 da 3c fb 65 c7 3d 87 50 60 3e 10 01 bd 3d
       0.026630921 0.09736248 0.21905719 0.09228718
000320 ba 4a 92 be b0 60 9b 3e a2 32 d6 3e 96 bd 04 3e
       -0.28572637 0.30347204 0.41835505 0.12962946
000330 ab ae 4e 3c ec 15 1f 3e 85 75 d2 3c 5a f3 fa bc
       0.012614886 0.15535706 0.025690803 -0.030633617
000340 71 73 f6 bc b8 3b 1f be 51 5a cd be 03 45 cf bd
       -0.030084344 -0.15550125 -0.40107968 -0.10120585
000350 80 61 d7 3b 19 61 1e bf 53 9d 28 bd 49 68 38 3e
       0.006572902 -0.6186691 -0.04116566 0.18008532
000360 c4 df 3c 3e 27 8a 1b bc d5 70 83 bf 9b 8d 48 3e
       0.18444735 -0.009493387 -1.0268809 0.19585268
000370 4a 36 5a be c7 c5 52 be cc 5d 20 bd 60 b9 8d be
       -0.21309772 -0.20583259 -0.03915195 -0.27680492
000380 e5 aa af bd 07 c9 50 3d c9 1b 7b be 83 a9 08 bf
       -0.085775174 0.050972965 -0.24522318 -0.53383654
000390 7b 19 c6 be c8 7b 1f bd 66 d0 12 bf 53 cf a8 3d
       -0.38691315 -0.038936406 -0.5734924 0.08242669
0003a0 b0 4a cd 3e 46 02 6f 3e 4f 09 a9 3e a4 5d 95 3e
       0.40096045 0.23340711 0.33014914 0.29173005
0003b0 e2 95 d3 be 75 1a e3 3e c4 22 75 3e 32 52 ea be
       -0.4132529 0.44356123 0.23939043 -0.45765835
0003c0 d1 d4 ec 3e 15 69 b7 3d 42 0f 54 be a1 c3 0c 3d
       0.46256116 0.0895559 -0.20708945 0.034366254
0003d0 89 39 14 be 89 27 99 bd 03 b8 5e 3e 69 a1 35 3e
       -0.14475073 -0.07478244 0.21749882 0.17737354
0003e0 68 e1 c1 be 19 5c 97 bd 07 dd 5a be 24 83 21 bf
       -0.37867284 -0.07390613 -0.21373378 -0.6309073
0003f0 90 bb 8d bd 76 b6 54 be 7a 1b af 3e fc 05 a6 3c
       -0.0692054 -0.20772728 0.3420065 0.020266525

conv3.bias f4 [32]
000000 76 3a 74 3e 13 60 7a 3e 2d e3 eb 3e 16 c7 b7 3d
       0.23850426 0.24450712 0.4607176 0.089735195
000010 b9 6b 22 3e 28 94 d6 3d ba ae e3 bf 74 9e 89 3e
       0.15861405 0.10477477 -1.7787697 0.26878703
000020 95 f3 2f bd 83 2d cf be 9d 32 ce 3d fb 82 c6 38
       -0.042956907 -0.4046441 0.100682475 9.465773e-05
000030 c3 b0 0e 3f 05 91 bf 3e f2 3e 5e 3d 57 b5 e6 3e
       0.55738467 0.3741533 0.054259248 0.45060226
000040 7d f2 25 3f 7e 90 1c 3e 10 50 90 3e ed cc 1a 3f
       0.6482313 0.15289494 0.28186083 0.6046894
000050 5f c9 05 3f 72 13 d9 bc a3 4e 6d 3e b3 8c 62 3f
       0.5226039 -0.02649853 0.23174529 0.8849594
000060 76 a2 a6 3d 68 90 a3 3f e4 e7 bf 3e 3a 68 f6 3e
       0.08136456 1.2778444 0.37481606 0.48126394
000070 87 6e c4 3e b7 7a 65 3e 61 07 90 be 94 23 23 bf
       0.38365576 0.22410093 -0.2813063 -0.6372616

batch3.weight f4 [32]
000000 7d a0 3e 3f 30 2b 5b 3f a1 9b 80 3f 79 70 6b 3f
       0.74463636 0.85612774 1.0047494 0.91968495
000010 a5 3f 3f 3f c9 3d 52 3f 10 37 ab 3f 50 87 3e 3f
       0.7470649 0.82125527 1.3376179 0.7442522
000020 7b 92 95 3f 61 ed 88 3f 9e ec 40 3f b2 53 3d 3f
       1.1685327 1.0697442 0.7536105 0.73955834
000030 c1 6a 6b 3f 26 61 8f 3f 39 92 1b 3f f3 54 51 3f
       0.9195977 1.1201522 0.60769993 0.8177025
000040 aa 4c 6d 3f 0f 8c 68 3f 21 29 3a 3f 0a de 5f 3f
       0.92695105 0.9083871 0.7271901 0.8744818
000050 14 71 66 3f e6 dd 6f 3f 7e ee 3b 3f 28 b4 d1 3f
       0.90016294 0.93697965 0.73410785 1.6383104
000060 e5 51 50 3f 53 c1 8a 3f 49 a0 76 3f 5a ed 75 3f
       0.8137496 1.0840248 0.96338326 0.96065295
000070 73 b7 43 3f 34 12 37 3f 1d 6c 88 3f 6b 33 77 3f
       0.76451796 0.7151215 1.0657994 0.9656283

batch3.bias f4 [32]
000000 f0 d1 89 be a9 33 9f be bb 11 d2 be 38 34 ea be
       -0.26917982 -0.310941 -0.41029152 -0.45742965
000010 dd 83 8f be 26 1e 24 bf c4 74 44 bf ee 7c 57 be
       -0.2803029 -0.641085 -0.7674067 -0.2104375
000020 1e 6c 5f bf b5 d7 94 be f1 d1 fc be 72 8c 19 be
       -0.8727435 -0.2907082 -0.49378923 -0.14994982
000030 61 70 9f be 09 be d7 be 7b 09 fe bb 8b 91 b3 be
       -0.31140426 -0.42137173 -0.007752595 -0.35071978
000040 6f 59 f4 be 5f 7b c2 be 0d 4a 93 be 33 e1 c6 be
       -0.47724482 -0.3798475 -0.28767434 -0.38843688
000050 6e 7b 21 bf f6 0d d3 be 44 8c 7a be 6a 91 63 bf
       -0.63078964 -0.4122159 -0.2446757 -0.8889376
000060 94 c8 16 bf 58 3a 1a bf c6 f3 a0 be 3a c0 1f bf
       -0.5889981 -0.60245275 -0.31435984 -0.6240269
000070 eb 0c ad bd 44 ab a7 be 51 cc 90 be 14 51 78 bf
       -0.084497295 -0.32747853 -0.2828088 -0.96998715

conv4.weight f4 [32, 32, 3, 3]
000000 76 c4 fb bd 8a 68 2a bc a1 4c 05 bd 16 f1 ba bd
       -0.12293331 -0.010400901 -0.032543782 -0.09128015
000010 5d fe 1e bd 22 37 54 bd c9 59 9c bd 25 41 01 be
       -0.0388168 -0.05181039 -0.07634313 -0.12622507
000020 05 53 f1 3d 3b fd be 3d c1 df 8e 3d 66 df bc 3d
       0.11783413 0.09325644 0.069762714 0.09222297
000030 c4 19 85 3c c8 8f 8b bd c0 41 1e 3d e8 c0 8a 3d
       0.016247638 -0.068145335 0.038636923 0.06775075
000040 5b 5b 38 bd 34 64 d4 bc a5 dc 8c 3d 80 8d a5 bb
       -0.045009 -0.025926687 0.06878022 -0.0050522685
000050 81 ab 95 3c e4 ef 3f 3d d8 90 a1 3b dd d8 92 3d
       0.018270256 0.046859637 0.004930597 0.0717027
000060 99 28 bd 3c 52 33 35 bd 10 f2 3b bd 13 97 41 be
       0.023090648 -0.044238396 -0.045885146 -0.18905286
000070 d5 a2 95 bb 4a 2d 87 bd 72 3a d5 bd 9b 62 55 3c
       -0.00456653 -0.06600435 -0.10411538 0.013023998
000080 ef 35 9d bd 1f 84 09 be 0a 10 f4 bb f1 52 91 3d
       -0.07676303 -0.13429306 -0.007448201 0.07095898
000090 b5 a0 e3 bb c1 bd d3 3d cc f8 62 3d eb 3b 02 3e
       -0.006946648 0.10338927 0.055413052 0.1271817
0000a0 38 31 3b 3e 28 f4 ae 3d 53 17 2f 3e 97 40 db 3d
       0.18280494 0.08542663 0.17098741 0.10705679
0000b0 3b 2e 34 3d 10 25 bd 3d ef 97 47 3c a4 f9 91 3d
       0.0439894 0.09235585 0.01218222 0.07127693
0000c0 34 b3 1e 3e 56 97 64 bc 06 bc de 3b b0 74 ea 3d
       0.15498048 -0.013952097 0.0067973165 0.114480376
0000d0 a5 ec b2 3d bc 27 0a 3d 58 c0 40 bc d6 35 2c 3d
       0.087365426 0.0337293 -0.011764608 0.04204353
0000e0 20 7f 67 bc 40 95 64 3d b8 05 5c bd b4 56 77 3c
       -0.01412943 0.0558064 -0.05371639 0.015096355
0000f0 86 ec 4e be a0 59 79 3d cb 8a a4 3d 56 93 5b 3d
       -0.20207414 0.06087649 0.08034285 0.053607307
000100 15 76 81 bc c9 6a a6 3b 76 a6 09 3e e7 6d e8 bc
       -0.015803376 0.0050786478 0.13442406 -0.028372718
000110 ef 5f e1 bc e9 d0 9f 3c 37 da a3 3c b4 1f 52 3d
       -0.027511565 0.019508796 0.020001514 0.051299766
000120 4e 2e 13 be ea c2 0e 3e 49 b0 88 3d 3f 73 44 be
       -0.14373133 0.13941541 0.06674249 -0.19184588
000130 ac 1c c0 bd f3 0a dc 3d 31 d2 2d be 19 04 d7 bc
       -0.09380469 0.10744276 -0.16974713 -0.026247071
000140 b6 bd 18 bd 04 a2 d4 be e5 b6 70 3c e7 36 cd 3c
       -0.037290297 -0.41529858 0.014692043 0.025050594
000150 d0 af be be bd 46 5f bc 6b 8c e3 3b d9 75 cd be
       -0.3724351 -0.013627705 0.0069442294 -0.40128973
000160 f0 b1 6d 3d cd 4f ce 3d f7 40 c5 bc 8b 15 96 bc
       0.058031023 0.100738145 -0.02407883 -0.01832082
000170 79 1e 9d 3d e5 c1 7b 3c 9d 90 d3 3c b5 a0 b7 3d
       0.07671828 0.015366052 0.025825793 0.08966199
000180 a4 9b f2 bb f1 8e 54 3d 1a b0 2a 3e 24 5d aa bd
       -0.0074038077 0.051894132 0.1666874 -0.083185464
000190 f0 bb de 3c 45 98 82 3d 29 5b bd 3b 1e 59 96 bd
       0.027189225 0.06376699 0.0057786894 -0.073412165
0001a0 69 c9 b3 bb ac 1b 28 bd ad 21 45 3d c6 81 c9 3d
       -0.0054866564 -0.041042015 0.04812782 0.098392054
0001b0 82 aa 70 3d dd 1f 8f 3c c8 7b b0 3c 78 19 43 3c
       0.05875636 0.017471248 0.021543398 0.011907928
0001c0 45 2c a3 3b 52 5f e0 bc 79 50 c3 3d 8f ce e2 3c
       0.0049796426 -0.027389202 0.09536833 0.027686385
0001d0 ff 3f ca 3d 54 14 ab 3d 0a 14 2e 3e 78 c4 54 3d
       0.098754875 0.08353487 0.16999832 0.05194518
0001e0 e7 64 44 3e 5b 15 34 3e af f6 07 3d 87 7d 3c 3e
       0.19179116 0.17586271 0.03319424 0.1840726
0001f0 9a 8e ca 3d a8 ce c9 3c a2 ce 01 3e b8 fd b4 3d
       0.0989048 0.024634674 0.1267648 0.088374555
000200 fb 46 e1 3c 3b 71 03 3e d9 91 8f 3d 9e 3d a9 bc
       0.027499666 0.12836163 0.0701024 -0.020659264
000210 49 2d 31 3e 3a 2a 8a 3d 66 4a 26 3e f3 59 b9 3c
       0.17302431 0.06746335 0.16239318 0.022625899
000220 20 cf 16 3d 07 4e 4b 3d c9 54 3f 3d f7 bc 47 bd
       0.036818624 0.04963496 0.046711717 -0.048764195
000230 5e e2 63 3d 0b 4e c6 bc 52 83 2e 3c 36 53 05 3d
       0.055635802 -0.024207136 0.010651426 0.03255006
000240 67 b0 57 3d ac ff 74 3d 4a 33 ab bd 52 e3 ec 3d
       0.052658465 0.05981414 -0.08359392 0.115667954
000250 d7 1d 06 3b 2c da 5b 3c 20 d4 bd 3d 14 99 a2 3d
       0.0020464563 0.013418715 0.09268975 0.079393536
000260 90 ec a8 3b bf 1e 4c be bb 93 7d 3d bb a5 1e bc
       0.0051551536 -0.19933604 0.061908465 -0.009683068
000270 0c f4 53 bd ce eb 23 3c 89 e6 f8 bc fc 80 42 be
       -0.051746413 0.010004951 -0.030383365 -0.18994516
000280 4e d6 fa 3c 0c 5f 2f 3d c1 ca 1c 3e 4d bb 4b 3d
       0.030619767 0.042815253 0.1531172 0.04973917
000290 e9 65 b2 3d 19 ba b9 3d 63 18 90 3d c0 d2 99 3d
       0.08710844 0.090686984 0.070359014 0.075109005
0002a0 0b 06 18 3e c0 47 97 3d 0a b3 b2 3d 6d dc 01 3e
       0.14846055 0.07386732 0.08725555 0.12681742
0002b0 60 0a 8d 3d 8b 3d da 3d f9 6d b2 3d 6c c9 ea 3d
       0.068867445 0.1065627 0.08712382 0.114641994
0002c0 59 65 c2 bc 69 7b dd 3d e5 98 28 3d 37 6e 34 3d
       -0.023729967 0.10814554 0.041161437 0.04405042
0002d0 5c 53 09 3e 37 19 a3 bc 4f 12 bd 3d e7 e4 28 3e
       0.13410705 -0.019909484 0.09232008 0.1649357
0002e0 9b 5e 82 3d d1 27 5b 3d 18 35 26 3e 7e 5f 2d 3e
       0.06365701 0.05350477 0.16231191 0.16930959
0002f0 62 d6 d3 3c ef 59 36 bd d3 43 c3 bd c1 da c7 3c
       0.025859062 -0.04451936 -0.09534421 0.024396302
000300 04 1a 3f 3d 7b 19 b8 bd e6 71 8f 3d 99 84 ad bd
       0.04665567 -0.08989235 0.07004146 -0.084725566
000310 c1 d9 89 3d 86 1b f4 3d ce 6c 9f bd 13 3b 00 bb
       0.067309864 0.11919312 -0.07784425 -0.001956646
000320 a0 7c 50 bc 06 46 2c bc 6d a3 ce 3d 42 e9 bb bb
       -0.012725025 -0.010514742 0.10089765 -0.0057345936
000330 84 3e 87 3c 02 c4 16 bd e3 9d 19 3d 33 5a e2 be
       0.016509302 -0.03680802 0.037504088 -0.44209442
000340 d7 c6 9f bd 3a 60 1e bd 61 27 df be 95 cf c2 bd
       -0.078015976 -0.038665988 -0.4358473 -0.095122494
000350 08 01 02 3e 24 74 d3 be 40 da 9b bd f6 dd 21 3d
       0.12695706 -0.41299546 -0.07609987 0.03951832
000360 fa 14 cb 3c 44 ba 7f 3d ad 2c 15 3d be 72 89 3d
       0.024790276 0.062433496 0.03641956 0.067113385
000370 37 65 68 bd 90 f9 89 bd 16 da 1e 3d b1 8e b9 bd
       -0.05673715 -0.067370534 0.0387822 -0.09060419
000380 c9 35 83 3d e1 f0 e6 3d 47 9b a6 3d ef f6 d5 3d
       0.06406743 0.11276413 0.081350856 0.104474895
000390 83 76 f9 3d c0 e6 11 bd 7a 92 f9 3d 57 5b a1 3d
       0.121808074 -0.03562045 0.12186141 0.0787875
0003a0 73 80 05 3d 0b 36 b4 3c b9 5f 83 be 0e f7 bf 3d
       0.0325932 0.021998426 -0.25658968 0.09373294
0003b0 d5 f5 ae 3d ea 5d 3c be 45 c6 05 3e a0 29 15 3d
       0.085429825 -0.183952 0.13063915 0.03641665
0003c0 05 2d 66 be eb da ca bb de 55 9c 3c e0 f4 07 3e
       -0.22478111 -0.006190648 0.019083913 0.13277006
0003d0 0f 1d 52 bd e1 3c e4 bc 02 91 30 3d 95 7b 97 bb
       -0.051297244 -0.02786106 0.04310704 -0.0046228864
0003e0 93 3b 6f bd 26 4c a2 3d 06 bc 33 3d 2a 2c 55 3d
       -0.058406424 0.079246804 0.043880485 0.05204407
0003f0 cf d3 2d bd eb 21 51 bd f6 00 69 3d 34 cc c4 3d
       -0.042438325 -0.051057737 0.056885682 0.09609261

conv4.bias f4 [32]
000000 10 40 7d bc f4 50 5a 3f 45 36 ff 3c 75 fc 39 3c
       -0.015457168 0.85279775 0.031153807 0.011351694
000010 1c 9d be 3e b8 49 40 bc 8d b4 aa 3e 1e e4 0d bd
       0.3722924 -0.011736326 0.33340874 -0.034641378
000020 f2 6b 83 bc f3 50 91 3c b0 c4 df 3e 8a 66 40 3e
       -0.016042683 0.017738795 0.43704748 0.18789116
000030 a4 08 a6 3e 72 cb e1 3e 79 19 25 3e 74 aa ae 3d
       0.32428467 0.4410053 0.16122998 0.08528605
000040 01 0c d4 3e ae 16 83 bb 11 dd 77 3c cd 8c 44 3d
       0.41415408 -0.0040005064 0.01512839 0.04798584
000050 2a bb a5 3e 1f cc 49 3e 5b 1d 98 3d 48 89 1b bd
       0.32369357 0.19706772 0.07427474 -0.03797272
000060 d1 16 57 3d df 1d 45 3f e5 f9 4c bd b6 54 4f 3d
       0.052511994 0.76998705 -0.050043005 0.050617896
000070 9c 98 4a 3d 6f da f6 3c d7 94 d5 3e 16 02 d8 3c
       0.049461946 0.030133454 0.41715118 0.026368182

batch4.weight f4 [32]
000000 6a a4 a3 3e 1b 8b bf 40 b2 1c 4d 3f dd 74 b6 3e
       0.31961375 5.9857306 0.8012191 0.35636035
000010 a2 1b 8e 40 3d 23 cd 3e 43 88 88 40 59 f1 b8 3e
       4.440873 0.40065947 4.2666335 0.36121634
000020 e4 53 e4 3e 47 ef 7e 3f 8d f0 99 40 68 1b 48 40
       0.44595253 0.9958386 4.810614 3.1266727
000030 a0 4f 55 40 ec c8 8a 40 9c 40 4e 40 5c 00 dd 3f
       3.332985 4.3370266 3.2226934 1.7265735
000040 7f 20 ad 40 54 c2 9e 3e f0 89 aa 3e bc a4 8e 3e
       5.410217 0.31007636 0.33308363 0.27860057
000050 d3 26 69 40 e4 dd 75 40 a7 a5 59 40 cc c6 c0 3e
       3.6429946 3.8416681 3.4007356 0.3765167
000060 03 e4 4e 3f 21 90 51 40 42 22 dc 3e c4 14 3d 3f
       0.8081667 3.274422 0.42994887 0.7385981
000070 d7 0d bf 3e 54 8c b4 3f 44 73 80 40 9a e6 7c 3f
       0.37315246 1.4105325 4.0140705 0.9878937

batch4.bias f4 [32]
000000 3a a7 2b bf 13 0e 81 c0 17 77 ab bf c7 b4 21 bf
       -0.6705204 -4.032968 -1.3395718 -0.6316647
000010 e2 34 1c c0 ae fe 50 bf bb ee 3f c0 a9 9d 32 bf
       -2.4407277 -0.8163861 -2.998946 -0.6977182
000020 33 11 4e bf 66 41 c9 bf ff 2f 4a c0 f4 a4 ff bf
       -0.80494994 -1.5723083 -3.1591794 -1.9972215
000030 ad d5 1d c0 53 a0 3e c0 e4 48 14 c0 ef 61 f5 bf
       -2.4661667 -2.9785354 -2.316949 -1.9170512
000040 52 9c 0c c0 d1 a6 2c bf 01 82 37 bf c5 1b 2f bf
       -2.197041 -0.6744204 -0.71682745 -0.6840175
000050 94 ab 2d c0 56 2e 01 c0 a2 71 d6 bf 0f 7c 39 bf
       -2.7135973 -2.0184531 -1.6753428 -0.72454923
000060 37 46 ab bf 67 85 b0 bf aa 6c 57 bf c3 6c 8b bf
       -1.3380803 -1.3790711 -0.84150183 -1.0892566
000070 bc 78 3c bf cf 57 07 c0 57 ba 6c c0 8c e0 c6 bf
       -0.73621726 -2.1147344 -3.6988733 -1.5537276

lin1.weight f4 [5, 800]
000000 44 1d 11 bd 68 57 45 bc b0 9b 67 bd 65 da a5 bc
       -0.0354283 -0.012044765 -0.05654496 -0.02024574
000010 51 25 b2 bb 70 fa d1 bc 3e 96 b9 bc b4 b3 ac 3c
       -0.0054365774 -0.025632113 -0.022654649 0.021081783
000020 8f de 33 3b 8d 96 35 bd 54 23 0c be a1 68 e5 bc
       0.0027445888 -0.04433303 -0.13685352 -0.028003993
000030 5b f7 1c bc d4 0b e4 bd 89 a5 9c bd 28 39 ec 3b
       -0.0095804585 -0.111350685 -0.07648761 0.007208962
000040 6d d9 d4 bd e1 7a 6e 3a 3a 0f 7e bd 04 1e b4 3a
       -0.10393033 0.000909729 -0.06202624 0.0013741856
000050 5c 2b 7f bc 1b 4f dc 3b 8f 92 02 bd 31 95 41 38
       -0.0155743025 0.0067232973 -0.03187805 4.615373e-05
000060 33 bb bd ba 6f ec b2 bb f1 3e 7d bc ae 68 64 bb
       -0.0014475345 -0.005460314 -0.015456901 -0.0034852433
000070 21 11 84 bb 9d 47 8e 3c 18 c6 46 bb 36 f1 0a bc
       -0.0040303622 0.017368132 -0.0030330475 -0.008480361
000080 ae f4 f4 b9 d3 c5 dc bb 3b 48 65 3c 3c f5 1a 3c
       -0.00046721607 -0.0067374497 0.013994272 0.0094578825
000090 d0 ad fa bb 91 97 3f bc e4 9c 31 3c 27 e5 23 3b
       -0.0076501146 -0.011693851 0.010840628 0.0025008412
0000a0 e9 92 ae bc c7 f8 0f bc b9 0d 39 bc 3f 14 9c bc
       -0.021310287 -0.0087873405 -0.011294776 -0.019052623
0000b0 c9 75 48 bb 2e 9b 5b 3b 42 e0 26 3b a7 86 5b bb
       -0.0030587784 0.0033509242 0.0025463258 -0.0033497007
0000c0 4f 31 f2 bb 3e 5f fc bb fa d9 11 3d 97 a7 e0 3c
       -0.007391132 -0.0077017834 0.03560827 0.027423663
0000d0 2d ec a2 3c 65 7e ef 3c 88 bf 09 3d 73 29 12 bd
       0.019888008 0.029235074 0.033629924 -0.03568406
0000e0 82 bf 5d be 68 04 45 be 68 23 67 be d6 b4 70 3d
       -0.21655086 -0.19239962 -0.225721 0.05876621
0000f0 a5 b6 85 be b6 3e 13 be 56 e2 d9 bd ee cc f9 bd
       -0.2611591 -0.14379391 -0.10638873 -0.1219729
000100 db 0f c9 bd e3 26 6b be 2d 59 3f bc 68 e0 17 be
       -0.09817477 -0.22964053 -0.011678976 -0.14831698
000110 cd 6d 06 be 16 f1 24 3c 26 8d 50 bd 23 7a 0a be
       -0.13127823 0.010067245 -0.05091586 -0.13523154
000120 18 a2 13 be b5 96 31 be 26 cc 1e be ef 4d 2b bd
       -0.14417303 -0.17342646 -0.15507564 -0.04182237
000130 81 3d 79 3a a9 b3 d9 bc 97 75 ac 3c 48 7c 20 3b
       0.0009507761 -0.026574926 0.021052165 0.002448814
000140 54 0e 0c bd ec db 94 bd 3c 25 28 bd 24 42 a7 bd
       -0.034193352 -0.07268509 -0.041051134 -0.08166912
000150 37 80 01 be de 2d b9 3c b1 21 07 3c 71 86 5b 3c
       -0.12646566 0.022604879 0.008247779 0.013398753
000160 1c 36 3c bd 24 df f1 bd a6 2c 55 bd 8a 88 c0 bc
       -0.04595004 -0.11810139 -0.052044533 -0.023502607
000170 85 42 aa 3a 96 31 3f bc 53 4d 1b 3c 2d 27 48 3a
       0.0012989795 -0.011669537 0.009478885 0.0007635232
000180 b8 dd 5f bc 02 ad 8d bb 97 63 bf 3b 79 12 74 3d
       -0.013663702 -0.0043236027 0.0058407295 0.05958793
000190 55 cf 47 3c 59 f1 61 bc 68 8a de 3a d1 16 57 bc
       0.012195428 -0.013790452 0.0016978504 -0.013127998
0001a0 ef 9b 9a 3b 7b 8d 5a bb 64 38 32 3b 1a dc 8c bc
       0.0047182958 -0.003334849 0.0027194256 -0.017194796
0001b0 61 cb f2 bb eb a0 99 bc 99 9b a1 3c 5a 27 05 ba
       -0.0074094986 -0.01875349 0.019727515 -0.0005079411
0001c0 3b e4 71 bc 0c 88 00 bc f8 6e da bb 81 00 c9 3b
       -0.014763887 -0.007844936 -0.0066660605 0.0061340933
0001d0 d5 e0 84 bc b0 93 f4 ba 41 5c a1 3b 70 22 6a bc
       -0.01622049 -0.0018659737 0.0049243276 -0.014290437
0001e0 36 64 16 b5 fa 90 25 bc d5 82 a2 bb 52 70 05 bc
       -5.602518e-07 -0.010105366 -0.004959444 -0.008144455
0001f0 cc ca d2 bc 18 da fd 3c d8 b4 9c bc 4e 7f 94 bd
       -0.025731467 0.030987784 -0.019129202 -0.07250844
000200 b9 97 f7 bb 0a 2a 93 bb 55 3a fe bc ca 42 37 be
       -0.0075559285 -0.0044910954 -0.031033674 -0.17896572
000210 e4 50 e8 3c 04 0d e3 bd 14 c5 04 bd da 90 42 bc
       0.028358884 -0.11086467 -0.03241451 -0.011875356
000220 9c 25 8d bd 1b 27 26 bd c9 f7 8c bd 2c a2 f8 bd
       -0.06891939 -0.040564638 -0.06883199 -0.12140307
000230 07 d3 f0 3b d2 45 8a bc 43 c4 bf 3d 48 d0 2a bd
       0.007349375 -0.016878996 0.09363606 -0.04170254
000240 bc 0d 37 bd 45 1e 9b 3c d5 d2 41 3d fa fd 41 3d
       -0.044690832 0.018935332 0.047320206 0.04736135
000250 62 d2 59 bc a7 f5 e0 bc a1 23 69 3c 7f 05 89 bb
       -0.013294788 -0.027460886 0.014229686 -0.0041815634
000260 11 4d d0 3b 94 c0 f9 bb 42 34 82 3c 56 84 0e 3c
       0.0063568433 -0.007621834 0.01589406 0.0086985435
000270 55 30 ec bb 06 77 a7 3a 9d 07 da 3b 81 97 95 ba
       -0.00720791 0.0012776561 0.0066537396 -0.001141295
000280 74 47 8a 3b 0f 05 c3 bb 84 08 c8 bb df ec 78 bb
       0.0042199437 -0.0059515308 -0.0061045308 -0.0037982983
000290 67 16 4d bc 76 c8 ff 3b 59 47 04 bc 84 4a bc 3b
       -0.012517548 0.007805879 -0.008073651 0.0057461876
0002a0 7b 39 11 bc ed df 1c 3c 28 ad 2b 3d 10 7c 18 bc
       -0.008863802 0.009574872 0.04191318 -0.009306923
0002b0 8f df 7e 3c 0f 19 36 bc 1b dd 30 3c 79 b6 ce bc
       0.01555623 -0.011114373 0.010794903 -0.025233494
0002c0 2d 72 80 bb 43 40 50 bd d2 c8 98 39 da 73 45 bc
       -0.003919861 -0.050842535 0.00029141322 -0.012051547
0002d0 5d d1 52 3b b8 8c 99 3b 31 7d b7 bc 03 66 ef ba
       0.0032168247 0.0046859644 -0.022398563 -0.0018264655
0002e0 71 5c 88 bc 04 74 a8 bc ea 8e af 3c af e2 02 bc
       -0.016645642 -0.020563133 0.021430451 -0.007988616
0002f0 7b b4 7b 3c 3c 6a 51 bc 53 0d 04 3d b3 60 ca b9
       0.015362854 -0.012781676 0.03223927 -0.0003860049
000300 a8 f0 5c bd 20 c6 c4 bc 17 4c eb 3b b8 4d 6f bc
       -0.053940445 -0.024020255 0.0071807015 -0.014605932
000310 e4 51 04 bc 67 24 71 3c 0e 7e 91 bb e6 f6 5a bc
       -0.008076165 0.014718152 -0.0044400757 -0.013364529
000320 68 62 00 bd bb 32 3e bc 43 e4 7c bc fb 83 b0 bc
       -0.031343848 -0.011608775 -0.015435281 -0.021547308
000330 45 71 22 bd 4d 63 0b 3d 3b 84 b3 3b 9a 14 94 3b
       -0.039658803 0.034030247 0.0054784096 0.0045190575
000340 01 f7 cc bb be b3 ab bc 53 97 65 3d 8d 88 00 3d
       -0.006255031 -0.020959731 0.056052517 0.031380225
000350 3e 50 75 bc ba 7c a3 bc 2a 81 43 3c c5 a1 48 bd
       -0.0149727445 -0.019956935 0.011932651 -0.0489824
000360 3f a6 31 3c c1 4e 4f ba d2 a0 b2 3b 9a 40 32 3d
       0.010842859 -0.00079081586 0.0054513 0.04351864
000370 b9 0e 20 bd e2 22 1d bc 25 b0 c1 bc 7e 95 9e 3c
       -0.03907654 -0.009590836 -0.023643563 0.019358393
000380 bc ca 12 bc a2 5e 62 3d e8 a3 d6 3d c6 cf 06 be
       -0.008959468 0.05526603 0.104804814 -0.13165197
000390 59 fe 92 be 22 1f cd bc b6 07 46 3d ea a9 15 bc
       -0.28709677 -0.02503926 0.048347197 -0.009134749
0003a0 16 36 20 ba 17 12 bb 3c 65 a8 17 bd a9 f1 ba bd
       -0.0006111575 0.022835774 -0.037025828 -0.09128124
0003b0 8e fc ee bd 36 14 fb 3d 9a 00 3e be 1c f8 07 be
       -0.11669265 0.12259714 -0.18554917 -0.1327824
0003c0 fe 1d 99 3d 7c e5 39 bd ad 84 19 3d 95 8c 3d be
       0.07476424 -0.04538487 0.037480045 -0.18510659
0003d0 00 ea 3f bd 6a 45 ba 3b f7 aa a9 bc aa e3 b8 bc
       -0.04685402 0.0056845443 -0.020711405 -0.022569496
0003e0 ff ce 08 be a1 c3 09 3d 3a 77 28 bb 75 51 3f 3c
       -0.13360213 0.033633832 -0.002570583 0.011677136
0003f0 e8 bb 3f bc b3 76 ef 38 63 a6 7f bc 2f f7 26 3c
       -0.011702515 0.000114185175 -0.0156036345 0.010190769

lin1.bias f4 [5]
000000 83 fc bd bc f2 04 06 bd 2b 9b a4 3b f2 0e a4 bc
       -0.023191696 -0.03271956 0.0050233803 -0.020026658
000010 45 ca 99 bc
       -0.018773207
