results_auto/01_domain_adaptation/maml_supervised/June/officehome_maml_order_2_seed_0_shots_1_ways_5_meta-lr_0.0001_pre-train-wts_datetime_11_06_2021_09_47_43/intermediate_7000_model.pt (torch, 412181 bytes, 54 tensors)

conv1.weight f4 [32, 3, 3, 3]
000000 bf 32 dd 3e c2 7e c4 3d 1f cb bc bd 5e cc 96 bd
       0.4320278 0.0959449 -0.0921843 -0.07363199
000010 0b ee 33 be 5e 64 18 be c5 0a fd 3d bb 0a 21 3d
       -0.17571275 -0.14882037 0.1235557 0.039316874
000020 53 81 1a be e8 fb f2 3c bd b4 3f be 70 7d b2 3d
       -0.15088396 0.029661134 -0.1872129 0.087153316
000030 24 03 af be c5 6a 02 be fb a4 37 bc 60 eb b2 bb
       -0.34182084 -0.12736042 -0.011208768 -0.005460188
000040 ea 12 0a 3e f3 dd 90 3e ab f8 52 bf f0 a1 e4 be
       0.13483778 0.28294334 -0.8241069 -0.44654799
000050 19 54 34 3e 19 51 91 be 5f a9 be 3d a9 5b 10 3f
       0.17610206 -0.28382185 0.09309649 0.5638986
000060 6a 1c 15 be ea 71 a6 3e 64 c1 48 3f a3 3a 82 3d
       -0.1456162 0.32508785 0.7842009 0.0635884
000070 a0 89 0e 3d 15 83 b0 3e 42 40 25 be 34 73 65 3e
       0.03479922 0.34475008 -0.16137794 0.22407228
000080 7b c5 a1 3e a7 19 f8 be e9 4d ea be d5 31 cf bd
       0.31595978 -0.4845707 -0.45762566 -0.101169266
000090 a1 4b 03 be 63 a3 68 3e 73 68 bb 3e 7d 5f 67 be
       -0.12821819 0.22718577 0.36603126 -0.2259502
0000a0 f1 30 20 bd 6d 90 0e 3e 78 40 fc be e4 6a 0a bf
       -0.039109174 0.13922282 -0.49267936 -0.5406935
0000b0 05 f2 68 be 76 d0 ce 3d 84 7c ab 3e 15 d3 04 3f
       -0.22748573 0.100983545 0.33493435 0.51884586
0000c0 9d d2 82 be 63 56 9f 3c b8 72 bf 3e 95 11 be bc
       -0.2555131 0.019450372 0.3739221 -0.023201743
0000d0 e1 74 f5 bd fd 8e 22 3d 31 2f c2 3e ba d4 c2 3d
       -0.119851835 0.039687146 0.3792663 0.095132306
0000e0 c1 df 8a 3e 25 a3 8e be fd ba 98 be 8c b4 c0 be
       0.27123836 -0.27858844 -0.2983016 -0.37637746
0000f0 0e bc 4b bd e1 be 69 bd f4 f0 cf bd c9 b0 c0 3e
       -0.04973989 -0.057066802 -0.1015338 0.37634876
000100 ab 01 a5 3e 21 88 0e 3e bc 2c b1 ba aa 50 cf bc
       0.32227835 0.13919117 -0.001351736 -0.025307018
000110 3a d7 24 be f2 16 35 3d 71 83 a0 be 6d e2 1a be
       -0.16097727 0.044211335 -0.31350282 -0.15125437
000120 d1 f3 f0 3e 9b 9a eb 3e aa 02 0b 3f d5 9d 24 3e
       0.47061017 0.46016392 0.5430094 0.16075833
000130 ca 30 29 bd f8 98 b8 be bc 7a 81 be 9b 52 e8 be
       -0.041306295 -0.36054206 -0.2528895 -0.45375523
000140 ec 14 ba be 27 68 01 3f a8 1c c2 3e c2 98 39 bd
       -0.36344087 0.5054955 0.37912488 -0.045311697
000150 a3 7b 07 be 8d 7b b5 be 27 fc d1 be 5b 58 b4 3d
       -0.13230757 -0.35445824 -0.4101269 0.08805915
000160 5b 7c 3f 3e 35 45 7b bd a6 f9 d9 3e a2 b5 e8 3e
       0.18699782 -0.061345298 0.4257328 0.45451075
000170 92 43 dc 3e a4 ac 63 be 63 e7 05 bf f0 65 fc be
       0.43020302 -0.22233826 -0.52306193 -0.49296522
000180 ac 7e d6 3d 4c e8 ea 3d 31 56 02 be 58 c9 17 b9
       0.104733795 0.11470088 -0.12728192 -0.00014475489
000190 ce 9f cb 3e 25 39 ff 3e 0d 79 f7 be 34 ec c7 be
       0.3977036 0.49848285 -0.48334542 -0.39047396
0001a0 50 a8 b2 be 2b d9 a7 bd be d9 56 bd 4b fd 82 3d
       -0.34894037 -0.081957184 -0.05245375 0.06395968
0001b0 a9 b5 e1 3b a9 5d d4 3d 62 02 2c bd ad af 1e 3e
       0.0068881107 0.10369427 -0.04199446 0.15496702
0001c0 b6 c8 c8 bd 6b a4 43 3e 4a e4 7c 3d 53 75 73 be
       -0.098039076 0.19105689 0.06174115 -0.23775224
0001d0 3c 23 0f be b9 f4 4b 3e d2 1c a9 3e 29 6c 3c 3e
       -0.13978285 0.19917573 0.330298 0.18400635
0001e0 2e 30 48 3e aa 8a 20 3e db 0a 1f bd 37 5c e5 bd
       0.19549629 0.15677896 -0.038828712 -0.11199229
0001f0 98 f2 a0 be ca 96 a2 be 8b e2 86 bf 5d ff ce 3d
       -0.31435084 -0.31755668 -1.0537885 0.101073004
000200 dc 18 3a be de 1d 55 bf df b0 96 3e 35 5d 99 3c
       -0.18173546 -0.832487 0.29431817 0.018721202
000210 cd 92 be bf 33 8a 5a 3e 31 a5 80 be 06 28 75 be
       -1.488855 0.21341781 -0.2512603 -0.23941049
000220 64 4b 8f bd 96 82 5b be 7d d1 a4 3d 8b 81 46 3e
       -0.069968015 -0.21436533 0.08047769 0.19385354
000230 4e d5 8f 3e da b7 bc 3e 65 43 0e 3f 0d e9 35 3e
       0.28092426 0.36859018 0.55571586 0.17764683
000240 bb 6a d2 be d4 a1 f6 bd c6 26 5e 3c 99 5f b9 be
       -0.41097054 -0.12042585 0.013559049 -0.36205748
000250 40 dc d3 be b9 e5 a6 be 93 ba 13 bf 76 98 ca be
       -0.41378975 -0.3259714 -0.57706565 -0.39569443
000260 03 de b3 be 58 7d d5 3e e3 51 04 3f b0 e9 77 3b
       -0.3513032 0.41697192 0.5168745 0.0037828498
000270 c7 79 95 3e ce fc e9 3c 5d 56 03 3e 73 b1 65 bd
       0.2919447 0.02856293 0.12825914 -0.056077432
000280 ab 1e 9d 3d 24 d9 c3 bd 37 1e 1e bf 9c 40 95 be
       0.07671865 -0.09562901 -0.61764854 -0.29150856
000290 24 9b 37 be 30 02 bc bd 8a de c0 3d 14 f2 5d 3e
       -0.17930275 -0.09180105 0.09417446 0.21674377
0002a0 f5 a0 ce bb 3e 48 e8 3e f4 99 06 3f 72 00 c7 be
       -0.0063058087 0.45367616 0.52578664 -0.38867527
0002b0 49 32 57 3e c4 72 db 3b d6 d9 af be 3b 5b 8c 3e
       0.21015276 0.0066970307 -0.34345883 0.27413353
0002c0 c2 39 49 3c de a4 88 be 26 89 a6 3e ae 80 1c be
       0.012281837 -0.26688284 0.3252651 -0.15283462
0002d0 c9 a9 17 3e e8 a3 c8 3e fe 37 cf 3e 79 60 58 bd
       0.14810862 0.3918755 0.40472406 -0.05282638
0002e0 6a 75 82 3e f3 3d 65 3d a3 17 e0 be cf 16 fc bd
       0.25480205 0.055967283 -0.43768033 -0.12309038
0002f0 4f 96 dd be 49 42 70 3d 1a eb bf 3e ea 50 52 3e
       -0.4327874 0.058656964 0.37484056 0.20538679
000300 2d c1 1f bf f9 d1 64 be 3a 59 10 bf e6 d7 19 3d
       -0.6240414 -0.22345723 -0.5638615 0.037559412
000310 51 39 61 3e f1 17 67 3e 0d b1 30 be 29 19 88 3e
       0.2199452 0.22567727 -0.1725504 0.26581696
000320 61 bf 5a 3d 4c ec c8 be 04 51 ae be 4b 29 1c bf
       0.05340517 -0.3924278 -0.34046185 -0.6100051
000330 57 ed 06 3e ec 34 25 3f 97 5f 35 3e 16 4b 32 3e
       0.13176475 0.6453388 0.17712246 0.17411456
000340 b4 57 78 3e e8 de 72 3d a9 a1 a5 be 5a 73 79 be
       0.24252206 0.05929461 -0.323499 -0.2436041
000350 78 db b4 be 4b 7d 96 3e 6b ba d9 3e 4a 1b 84 3e
       -0.3532369 0.29392466 0.42525038 0.2580207
000360 df 1a 45 be fb a0 e7 be b3 09 1a 3f 65 42 c8 be
       -0.19248532 -0.45240006 0.6017105 -0.39113155
000370 e1 95 8f be cd 9e 0e 3f 8d 35 08 be 7a ce 52 be
       -0.28044036 0.5571106 -0.13301678 -0.20586577
000380 00 fc 9c 3d 5e fc 84 3e 75 eb 03 bf 0d aa de 3d
       0.07665253 0.2597379 -0.51531154 0.10872278
000390 15 45 5a 3c c4 3b 43 be 5e cc 44 3e 04 34 8c 3e
       0.0133221345 -0.19065768 0.19218585 0.27383435
0003a0 e4 3b 07 bd ea 0a ad 3e 20 c5 96 3e 7a 24 ca be
       -0.0330161 0.3379739 0.2944727 -0.39480954
0003b0 bf d5 97 3e af 94 30 be 62 4a 97 be 1d 16 32 3e
       0.29655263 -0.17244218 -0.29548937 0.17391248
0003c0 44 3b 28 3d ba e0 4f bd 13 be 55 bd 6b 40 b8 3e
       0.041072145 -0.050751425 -0.052183222 0.35986647
0003d0 61 03 c2 3e 9e 90 e7 bd 00 68 05 3f bc 33 c3 3d
       0.37893203 -0.113068804 0.52111816 0.09531352
0003e0 19 ad 7c bd 43 f1 ac 3e 6c 57 46 bc 6d 93 ac 3c
       -0.061688516 0.33777818 -0.012105804 0.021066392
0003f0 37 45 96 3e d5 29 a9 bd 16 30 87 be 3d 7d 74 bd
       0.29349682 -0.08259932 -0.26403874 -0.05968975

conv1.bias f4 [32]
000000 84 b8 9e bd 51 1f c5 bf 68 69 57 3d 2f ab 73 be
       -0.07750037 -1.5400182 0.052590758 -0.2379577
000010 51 9d 39 bf e2 28 da c0 c0 c7 22 bc ec 5f 2a bd
       -0.7250567 -6.8174906 -0.009935319 -0.041595384
000020 9d 9f 93 be 8e 4e 62 3e f6 4a 9d be 0b 6e f7 bc
       -0.28832713 0.22100279 -0.30721253 -0.03020384
000030 78 93 60 3f c5 21 d3 bf c3 7c 4c be 89 a2 19 be
       0.8772502 -1.6494681 -0.19969468 -0.15003408
000040 1f 17 0e bd 60 ab 8c be fd c6 56 be 59 f2 62 c0
       -0.03469002 -0.274745 -0.20974346 -3.5460417
000050 1a ee 80 3f 27 d6 01 3d f7 b3 b4 3d a3 23 ef 3d
       1.0072663 0.031698372 0.08823388 0.11676719
000060 c1 b6 24 c1 a1 54 79 3e a6 30 29 be 8a a3 94 bd
       -10.294618 0.2434869 -0.16522464 -0.07257755
000070 f6 2d 85 3e 14 87 e8 be 13 a7 2b c0 c3 b3 a3 3d
       0.26011628 -0.45415556 -2.6820724 0.07993271

batch1.weight f4 [32]
000000 d6 d0 99 3f 36 ad 7c 3f 87 58 2b 3f 63 d4 95 3f
       1.2016857 0.987018 0.66931957 1.170544
000010 bf 16 72 3f e9 5a 5b 3f 1d ee 82 3f dd 92 8a 3f
       0.9456596 0.8568559 1.0228916 1.0826069
000020 6a 43 55 3f e9 f4 82 3f 54 19 a7 3f f1 70 51 3f
       0.8330599 1.0230991 1.3054605 0.8181296
000030 34 d2 66 3f 2b f0 22 3f f1 f6 f4 3e 1e 64 66 3f
       0.90164495 0.6364772 0.4784465 0.89996517
000040 70 4d 4a 3f 71 9d 8b 3f 59 f3 9c 3f c2 64 1f 3f
       0.7902441 1.0907422 1.2261764 0.6226312
000050 13 a3 51 3f 48 30 6e 3f 17 9d 7c 3f 5a 1d 96 3f
       0.81889457 0.9304242 0.986772 1.1727707
000060 d8 fa 66 3f a3 24 90 3f a4 2a b9 3f dd 3e 7b 3f
       0.9022651 1.1261181 1.4466138 0.98142797
000070 26 bf ae 3f 6f d7 12 3f 4a ee 2c 3f e3 d1 0c 3f
       1.3652084 0.57359976 0.675511 0.5500776

batch1.bias f4 [32]
000000 ab fb 3f 3f 5f 59 3b bf 90 e3 5f 3f e1 13 8b 3d
       0.7499339 -0.73183244 0.8745661 0.06790901
000010 a5 f9 07 bf 4a c8 47 3e 46 19 c0 3f 68 c7 2d 3f
       -0.531153 0.19509998 1.5007713 0.67882395
000020 bb 8e 2e 40 cf 23 b9 3d a8 de 87 3f 5a 6a 07 bf
       2.7274616 0.09040033 1.0614824 -0.52896655
000030 62 39 09 be fe c2 6f be 70 d1 c3 3c f4 2d 14 bf
       -0.13400796 -0.23414227 0.023903579 -0.5788262
000040 17 39 e5 3b 95 b5 bc bd d6 7d 32 bf 28 4c 6a be
       0.006995331 -0.092143215 -0.6972326 -0.22880614
000050 cb 2e 98 bd a1 88 31 3e 47 1f 03 3e 41 bc 08 3e
       -0.074308 0.17337276 0.128049 0.13353063
000060 b5 d2 8f 3e dd e9 37 bd 6b 90 b5 3e 8c 43 5b 3d
       0.28090444 -0.044900764 0.35461745 0.053531215
000070 f6 67 b3 bd 62 58 7e 3d 3e e6 c8 3f a3 4d 8e bd
       -0.08760063 0.062096007 1.5695264 -0.06948402

conv2.weight f4 [32, 32, 3, 3]
000000 2b 9f a6 bd de 9c 3e 3e bb 68 34 3d a4 82 ae bd
       -0.08135828 0.18614528 0.04404519 -0.085210115
000010 3b 64 98 3e be ef 0d 3f ae e3 31 3c a8 89 57 3e
       0.2976397 0.5544394 0.010857506 0.21048605
000020 68 7e 52 3e 42 d2 ab 3d 2b b3 5e be c1 39 72 3b
       0.20556033 0.08389713 -0.21748035 0.0036960694
000030 cb 6f 1a 3d db 8f 1b bc b4 2f 10 3f df 93 8b be
       0.03770427 -0.009494747 0.5632279 -0.27261254
000040 cc ef 88 be a2 2f 07 3e e9 51 23 bf 9b 31 19 bf
       -0.2674545 0.13201764 -0.6379686 -0.59841317
000050 18 0d ea be 01 e2 e3 be 07 8b 60 be d4 8a 65 bf
       -0.45713115 -0.44508365 -0.21928035 -0.8966496
000060 cb 8c ad 3d a9 34 05 3e ff 00 c8 3e 9b 26 ce 3e
       0.0847412 0.1300837 0.3906326 0.4026383
000070 10 69 0f 3e ee 72 9c be b4 0b 21 be 11 7e 2a be
       0.14004922 -0.30556434 -0.1572712 -0.16649653
000080 a3 e2 49 bf ac 68 02 3e dd 25 94 bd 6a fb 54 be
       -0.78861445 0.12735242 -0.07233784 -0.20799032
000090 79 2e 86 3e 45 d4 0a 3e 12 a4 c9 3c e5 83 55 3e
       0.2620733 0.13557537 0.024614368 0.20851095
0000a0 93 8c 80 3d 96 65 ee bc ac d2 2f 3d 65 61 44 be
       0.062768124 -0.029101174 0.04292552 -0.19177778
0000b0 15 b8 dc bd e4 9c 34 be 3c eb 7a be 7c ad 2d be
       -0.10777298 -0.17637974 -0.24503797 -0.1696071
0000c0 82 c2 70 bc 8a 92 26 bd 5a cc d3 3d 93 b0 32 3e
       -0.014694812 -0.040667094 0.10341711 0.1745017
0000d0 66 95 3c 3d a8 39 18 3e 8e 2d 5e 3d 02 82 dc bd
       0.046040915 0.14865744 0.054242663 -0.107669845
0000e0 1b da 4c be 76 ea 17 3e 77 ad 7e 3c 3e 64 5e 3c
       -0.20005076 0.14835533 0.015544287 0.013573704
0000f0 ec f6 3a 3e ce c7 f3 bd 98 80 7b 3e d0 10 0f 3e
       0.18258256 -0.11903344 0.24560773 0.13971257
000100 9e b8 99 3d ed c6 4a be 65 58 1e 3e e3 62 99 3c
       0.07505916 -0.19802447 0.15463407 0.01872391
000110 e0 57 c8 bd 0b 28 9f 3d 92 60 8f 3e c3 1a 87 3c
       -0.09782386 0.077713095 0.28003365 0.016492253
000120 b0 de 08 be b8 ea 44 3e 5d 09 84 3e 8a 8f 74 be
       -0.13366199 0.19230163 0.25788394 -0.23882881
000130 d0 00 ed 3d a9 cd cc 3e 97 36 f9 be 24 e1 6b be
       0.115724206 0.40000656 -0.4867446 -0.23035103
000140 fa 14 83 3d da 35 5c be 9c 53 32 bf 09 ae b3 be
       0.06400485 -0.21504918 -0.6965883 -0.35093716
000150 21 37 a6 be 97 d6 8c be d1 c3 48 3e 37 16 76 bb
       -0.32463935 -0.2750747 0.19605948 -0.0037549862
000160 63 7c bd 3c 29 0c ec 3e 1f 2c 3a be c6 e2 07 be
       0.023130601 0.46103027 -0.18180893 -0.13270101
000170 84 7d 75 3d 69 f4 10 be d9 10 55 3e d7 67 15 3e
       0.059934154 -0.14155735 0.20807208 0.14590393
000180 34 de e7 bd 1f c7 cc be 26 44 a8 be 97 42 05 bf
       -0.11321679 -0.39995667 -0.32864493 -0.52054733
000190 bd b4 0a be 28 fb 5d be c0 01 c8 be df 0e 95 3e
       -0.13545509 -0.2167784 -0.39063835 0.29112908
0001a0 6a ee a1 3d 2e a6 b3 be 50 92 c8 3e e2 be 55 3e
       0.07906802 -0.35087723 0.39174128 0.20873597
0001b0 ac 89 a9 be cc df 7d be 13 87 66 be 28 34 5b 3e
       -0.33112848 -0.24792403 -0.22512464 0.21406615
0001c0 36 1c ad 3e 32 56 38 3d 84 e9 86 be 62 32 49 bb
       0.33810586 0.045004077 -0.26350033 -0.0030700197
0001d0 51 fd c4 3e 32 1f 81 3d 0b eb b0 bd 58 18 95 bc
       0.38474515 0.06304778 -0.08638581 -0.018200085
0001e0 1b ce 0a 3d 23 0e 2b be 82 b8 9e be 96 e3 d8 3d
       0.033887964 -0.16704611 -0.31000143 0.105902836
0001f0 73 96 26 bd 5f ad e3 be 98 c4 f1 be 72 05 e3 be
       -0.040670823 -0.4446821 -0.47220302 -0.44340092
000200 03 64 39 be ab e7 ae bc f8 66 69 bd 33 98 7c 3e
       -0.18104558 -0.021350702 -0.056982964 0.24667434
000210 11 09 41 3e ed 82 81 3e 52 f5 ff 3e 59 5d 59 3e
       0.18851115 0.252952 0.49991852 0.21227016
000220 15 fe 9a be 02 4f 38 3d 32 a2 b0 3e 0b 0a 8a 3d
       -0.30271974 0.044997223 0.34498745 0.06740197
000230 72 69 0f 3d db 75 8d bb 9e c6 b4 be 5f 1a 89 be
       0.03501267 -0.004317028 -0.35307783 -0.26777932
000240 33 c9 19 bf ab 1e d8 bd f7 1a a0 be 52 c7 58 bc
       -0.6007263 -0.105527245 -0.31270573 -0.013231115
000250 84 64 0c 3f ff db 77 3e 3e 86 b9 bd 0e 74 9a 3e
       0.54840875 0.24205016 -0.09058808 0.30166668
000260 14 a7 a0 3e 2b 03 94 3e 38 80 77 bd ba ca 95 3e
       0.3137747 0.28908667 -0.060425013 0.2925623
000270 53 57 fa 3d ae c9 e9 bc 20 4e a2 bd 04 8f 0e be
       0.12223687 -0.028538551 -0.079250574 -0.13921744
000280 57 4c 81 be e8 48 b9 be 64 49 ff bb 61 c1 89 be
       -0.25253555 -0.36188436 -0.0077907313 -0.2690535
000290 5c 07 33 be c1 bd 71 3e 57 43 e2 bc b3 f4 b1 3e
       -0.17483276 0.23607542 -0.02762 0.34757003
0002a0 ef 77 00 3f ba d2 90 ba fd 5c bb 3e 85 80 38 3e
       0.50183004 -0.001104913 0.36594382 0.18017776
0002b0 38 09 a5 be a5 84 55 bd fb 18 9b 3d e2 61 82 3d
       -0.32233596 -0.052128453 0.07573124 0.06366326
0002c0 f2 ba a0 3d 81 82 bc bb 13 75 e6 3c fb 87 44 be
       0.07848157 -0.005752862 0.028131997 -0.19192497
0002d0 d1 81 61 3b ed 8d bc bd e8 fa 80 be c3 1a 0d 3d
       0.0034409652 -0.09206758 -0.25191426 0.03444935
0002e0 6a 0e 55 3e d5 69 67 3e dd db 17 3d 3f d5 58 3e
       0.2080628 0.22598965 0.037074912 0.21175097
0002f0 ad 14 0b 3e e4 c5 20 3e 21 46 b8 3d d4 28 72 3a
       0.13582106 0.1570049 0.08997751 0.0009237651
000300 c7 9a ca be 0d aa 1d be 0c 2a 16 be db a0 13 be
       -0.3957121 -0.153969 -0.14664477 -0.1441683
000310 f3 54 97 3d ca 1d 3b 3e d4 a1 68 be ef be 29 bf
       0.0738925 0.18273082 -0.22717983 -0.66306967
000320 d1 63 9a be 49 dd ce be 39 6f b2 3d c1 67 a7 3e
       -0.3015428 -0.40403202 0.0871262 0.32696345
000330 23 ff 28 3d d5 73 80 3e 3f fd 39 3f 02 33 d8 bd
       0.041258942 0.25088373 0.7265205 -0.10556604
000340 21 bb 8b be f6 8d 55 3e 75 00 89 bd b6 c7 1b bc
       -0.27291206 0.20854935 -0.0668954 -0.009508064
000350 f8 09 10 3e a3 1a 87 3d 85 75 d1 bc c2 34 70 3d
       0.14066303 0.065968774 -0.025568733 0.058644064
000360 3e 97 b6 be e8 7a 02 be 59 6a c2 3d 3a bf 4b be
       -0.35662264 -0.12742198 0.094929405 -0.19897166
000370 ed 97 21 3d 40 87 ea 3e 50 d2 db be 03 84 22 be
       0.03945153 0.45806313 -0.42933893 -0.15870671
000380 07 0a 1f bd af 6f bc 3c 71 af 43 be 1e 60 f2 be
       -0.038827922 0.023002474 -0.19109894 -0.47338957
000390 b8 83 8a be 73 f4 35 be 16 ef 3a bf 48 c0 1f bd
       -0.27053618 -0.17769031 -0.73021066 -0.039001733
0003a0 1b fc 85 3d d4 ec f6 3d 33 74 73 3e 1c 46 b8 3c
       0.06542226 0.1205689 0.23774795 0.022494368
0003b0 b8 62 9c be 76 92 8c 3e a1 21 1f 3e e2 62 d5 3d
       -0.30544066 0.2745549 0.15540172 0.10419251
0003c0 0d 15 ad be c6 07 52 be 0e f0 ff be d8 6f ee 3d
       -0.33805123 -0.20510778 -0.49987835 0.11642426
0003d0 5f 16 a6 3e c0 d3 e4 3d 12 e4 c6 bd 31 68 18 3e
       0.32438943 0.111732006 -0.0971147 0.14883496
0003e0 23 d3 18 3d b0 83 a4 be ae 98 61 3d a7 cf 3b bc
       0.03731073 -0.3213172 0.055077247 -0.011463082
0003f0 65 be 17 be f6 97 d5 be 5f ab 3d 3d bb 7e 86 3c
       -0.14818723 -0.417175 0.04630601 0.016417852

conv2.bias f4 [32]
000000 f9 b9 c4 3d e6 78 17 3e 9b b9 04 3e 4b f2 11 3e
       0.09605784 0.14792213 0.12961428 0.14252584
000010 56 64 88 3d a3 7f b9 3d 16 c5 b0 bf b3 4e 10 bd
       0.066597626 0.09057548 -1.3810146 -0.035231303
000020 83 08 bd 3e 7a fe ab be c7 d8 84 3e 71 6b 14 be
       0.36920556 -0.33592588 0.25946638 -0.1449411
000030 d8 40 5a bd f9 92 33 3e 83 6e 52 3d 98 ec b8 bd
       -0.053284496 0.17536534 0.051374923 -0.09029502
000040 3f 6f 85 bd be 67 31 be ac 99 7a bd f2 21 d0 bd
       -0.06515359 -0.17324731 -0.06118171 -0.101627246
000050 d2 de 45 bd fa 11 37 3d 68 c8 06 3e 07 d1 0d 3d
       -0.0483082 0.04469488 0.13162386 0.034623172
000060 89 b9 a2 3e d9 92 3d 3b e7 b3 f8 3b 52 94 0a be
       0.31782177 0.002892664 0.0075898054 -0.13533142
000070 c4 3d 11 bf 17 81 af 3e 15 ac 34 bd bf 18 c5 3e
       -0.5673487 0.34278175 -0.044109423 0.38495442

batch2.weight f4 [32]
000000 33 30 4a 3f f8 05 6f 3f 67 29 bc 3f db bb 8c 3f
       0.78979796 0.9336848 1.4700135 1.0994829
000010 1b dc 7b 3f a8 84 9b 3f b3 8f 9c 3f 32 c8 32 3f
       0.9838273 1.2149858 1.2231354 0.69836724
000020 25 7d 92 3f 44 00 60 3f 28 4d 98 3f 3e f6 65 3f
       1.1444441 0.87500405 1.1898546 0.8982886
000030 05 44 1c 3f 53 8d ae 3f 9b 06 87 3f 0c 28 9f 3f
       0.6104129 1.3636879 1.0548891 1.2434096
000040 6d d9 53 3f fb 1b 5f 3f 19 17 6d 3f a4 cc 48 3f
       0.8275364 0.8715207 0.9261337 0.78437257
000050 17 da 94 3f 1a f7 84 3f f8 62 97 3f 72 8a 8a 3f
       1.1629056 1.038791 1.1827078 1.08235
000060 42 9a 7d 3f 00 c2 35 3f f6 41 43 3f a5 be 21 3f
       0.99063504 0.70999146 0.76272523 0.63181525
000070 8d 05 95 3f 5c b3 79 3f cf 28 6a 3f b0 b5 56 3f
       1.1642319 0.97539306 0.9146852 0.83870983

batch2.bias f4 [32]
000000 00 ed cc bd 4d 7a 03 bf c1 7b 64 be 5d fc 1a bf
       -0.10006142 -0.5135849 -0.22312833 -0.60541326
000010 19 d1 97 be b1 3e 1e bf e4 78 bb be aa 64 48 be
       -0.29651716 -0.6181441 -0.3661567 -0.1956965
000020 43 f2 03 bf 86 e6 9e be 7a 03 ff be bc af b4 be
       -0.5154154 -0.3103525 -0.4980734 -0.35290325
000030 b2 3c 45 3c 8a 38 d2 be 21 3f e3 be d8 35 14 bf
       0.012038397 -0.4105876 -0.443841 -0.5789466
000040 af 24 bc be 30 bb e5 be 02 12 ef be 33 75 a3 3c
       -0.36746737 -0.44869375 -0.46693426 0.019953346
000050 34 87 e1 be 0e d1 cd be 24 bc 0f bf 89 e8 b2 be
       -0.44048464 -0.4019856 -0.56146455 -0.34943035
000060 a6 87 04 bf 6d aa 95 be 80 f8 60 be 86 a8 8c be
       -0.51769483 -0.29231587 -0.21969795 -0.27472323
000070 48 8e 07 be 97 39 ac be 3e 79 ac be 66 76 ee be
       -0.1323787 -0.33637688 -0.3368625 -0.46574706

conv3.weight f4 [32, 32, 3, 3]
000000 10 eb d8 3e 83 f6 07 3f 0b 5c df 3d 0e 87 9c be
       0.42366838 0.5311052 0.10906228 -0.3057179
000010 1f 41 e4 3b b5 71 87 3e ff 0a c6 be c3 10 7e be
       0.006965771 0.2645394 -0.38680264 -0.24811082
000020 52 a1 c2 bc a2 20 02 3e 0a ca 93 3d 22 dc 65 be
       -0.023758564 0.12707761 0.0721627 -0.22447255
000030 5a 2e 41 be b4 f2 0f be ba 20 e6 3d 23 a2 86 3e
       -0.18865338 -0.14057428 0.11236711 0.26295575
000040 80 e7 80 3e 74 3d a7 be 22 73 90 3d 41 ad 7f 3c
       0.2517662 -0.32664073 0.0705321 0.015605272
000050 63 67 de be 30 38 88 3e 1f 72 02 3e 5e 53 54 be
       -0.43438253 0.26605368 0.12738846 -0.20734927
000060 34 b8 06 3e cc 24 9e 3d 7f 4e 2d be 44 f3 43 be
       0.13156205 0.07721862 -0.16924475 -0.19135767
000070 ff 48 89 be 40 39 d1 3e 67 d5 fc 3d 6d 30 11 be
       -0.26813504 0.4086399 0.12345391 -0.14178629
000080 4b b2 04 3f 34 3d d4 be b1 06 3c bd a8 41 a6 3e
       0.51834553 -0.41452944 -0.04590482 0.32471967
000090 1d ea 94 3e 90 d6 04 3f 70 1d eb 3d 85 79 84 3c
       0.29084864 0.51889896 0.11480224 0.016171226
0000a0 5b 07 42 3e 3a 4b cc bc 30 9a 9d bd d9 38 c3 bc
       0.18948118 -0.024938215 -0.076954246 -0.023830818
0000b0 87 6d 3e bd 30 68 a9 3e c9 1c 83 3e e1 8d 19 3e
       -0.046491172 0.330873 0.256079 0.14995529
0000c0 c3 e4 72 3d 99 41 6b 3e 4b f9 4b 3e f6 9b dc be
       0.059300195 0.22974242 0.19919316 -0.4308774
0000d0 a6 68 ea 3d 0d f3 8b be a7 9a d3 3e a1 82 4b 3d
       0.11445741 -0.2733387 0.41328928 0.049685124
0000e0 7a 76 8c be 98 3d 62 3e d8 87 93 bd 36 b5 09 bd
       -0.2743414 0.22093809 -0.072036445 -0.03362008
0000f0 d6 34 97 3e 37 16 c1 3e 2c 91 cd 3d 88 16 ae be
       0.29532498 0.3771226 0.10037455 -0.34001565
000100 61 c7 d1 be ba 14 27 bf a5 df 56 3e bc 32 7e be
       -0.40972427 -0.65266 0.20983751 -0.24824041
000110 75 bb b5 be 9c e3 f7 bd 50 eb d9 bd 78 48 14 3c
       -0.3549458 -0.1210396 -0.106405854 0.009050481
000120 e9 c9 3e 3e 42 38 16 be 07 2d a5 be 70 ca de 3c
       0.1863171 -0.14669898 -0.32260916 0.02719614
000130 9d e0 b4 bb 08 8d 5f 3e 8a 34 b3 3d 7d c3 15 3b
       -0.00551994 0.21831143 0.087502554 0.0022852116
000140 80 0b 65 3e 65 e8 43 bf 63 21 a1 bd 70 5f a0 3e
       0.22367668 -0.7652648 -0.07867696 0.31322813
000150 05 3f 16 bf 7a e2 79 be 0c ec 58 3e 4b 21 da bd
       -0.5868991 -0.244028 0.21183795 -0.106508814
000160 f0 8f e8 3b a3 e1 e5 3d ba b7 04 be 4a ac 17 bf
       0.007097237 0.112246774 -0.12960711 -0.5924727
000170 6d ab b2 3e 9c 17 17 be 3a 88 11 3d 97 5a 5b 3e
       0.34896412 -0.147551 0.035530306 0.21421276
000180 af 50 bf bd de c3 8b bd 0f ad 56 bd cf bd d0 3c
       -0.09341561 -0.06824468 -0.052411135 0.025481133
000190 01 a5 ce 3c 42 76 5c 3e 5f d7 7b 3e 54 fd 1e be
       0.025225164 0.21529487 0.24593876 -0.15526325
0001a0 6e f0 1a be 07 46 02 3e 5e e6 92 3e 8b e4 22 be
       -0.15130779 0.12722026 0.2869138 -0.15907495
0001b0 2f 0c b3 bd bb 40 eb bd 7e 9b e0 be 3a 74 7a be
       -0.08742558 -0.11486956 -0.4386863 -0.244584
0001c0 fb 80 c2 bd 20 6f c6 be 49 4e 88 be 70 50 d3 3c
       -0.09497257 -0.38756657 -0.26622227 0.025795192
0001d0 5d 20 8f be 2a a1 04 be 8a 77 e4 bd 2e d1 18 3c
       -0.2795438 -0.12952104 -0.11155613 0.009327216
0001e0 63 f6 61 3e ea 12 a5 3d 6e 2f 57 be dc 4a ac bc
       0.22066645 0.08060248 -0.21014187 -0.02103179
0001f0 9c 9d 25 3d 61 ee f3 be 8e 1b 31 be 4f 14 97 be
       0.04043351 -0.47642806 -0.17295668 -0.29507682
000200 4c 5d 2d bf ca cd 71 bd 80 2b b6 bd de 88 5e 3d
       -0.67720485 -0.059034146 -0.08895016 0.054329745
000210 d8 f6 d3 3c 1f 52 90 3e ff d0 c3 3c bb 22 aa 3e
       0.02587454 0.28187653 0.023903368 0.33229622
000220 12 d7 90 bc 87 50 1e be 4d b8 53 3e e6 bd 74 be
       -0.017680679 -0.15460406 0.20675774 -0.23900566
000230 b1 14 13 bf ab b2 de bd b9 5e c3 3e 66 06 96 be
       -0.5745345 -0.10873922 0.38158205 -0.29301757
000240 25 08 2b 3e a6 a5 d9 bc 3d 46 1b bf 1f 2d 2b bd
       0.16702326 -0.026568245 -0.6065405 -0.041791078
000250 1f 2e e9 bc 35 fa 8a bc 69 16 3c be 00 43 33 be
       -0.028464375 -0.016965011 -0.18367924 -0.17506027
000260 35 be 48 be 57 af 5c bc 90 7f 2b be f3 f5 d6 3e
       -0.19603808 -0.013469539 -0.1674788 0.4198452
000270 b2 e9 4b 3e d2 0e 53 3e 7d cc 4a 3e f7 30 0d be
       0.19913366 0.20611122 0.19804569 -0.1378821
000280 fa 89 12 3e fc d7 41 3e 53 84 ee 3c b1 34 4f 3e
       0.14310446 0.18930048 0.029115831 0.20234944
000290 d1 71 a4 3e 8f 43 1b be 6b b3 2c be 23 dc 79 be
       0.32118085 -0.1516249 -0.16865318 -0.24400382
0002a0 76 eb e6 3d 3f ba f0 be a6 1c c3 be 3b 02 8e be
       0.11275379 -0.47017094 -0.38107795 -0.27736077
0002b0 a8 5e a5 bb d7 76 5e 3d 5f 92 af be 72 80 21 3d
       -0.0050466843 0.054312553 -0.3429136 0.039429136
0002c0 a4 e1 7c be 30 db a8 be 69 4c 8e be 10 33 30 be
       -0.2469545 -0.32979727 -0.2779267 -0.17206979
0002d0 92 f8 d6 bd 1e 19 8d 3d 37 c3 b3 3e 9b 66 85 3e
       -0.1049663 0.06889556 0.35109875 0.26054844
0002e0 1a 5d f1 3c 55 6c 15 3e 0c 8f 88 3e a7 31 c4 3d
       0.02946334 0.14592107 0.26671636 0.09579783
0002f0 3d 96 3b 3d 03 df 9d 3e dc 58 9f bc ca e7 36 3d
       0.045797575 0.30834207 -0.019451551 0.044654645
000300 29 39 91 3e cc ab db be f5 4e 9f be bd 95 fa bd
       0.28363922 -0.42904508 -0.31114927 -0.122355916
000310 d8 5e 25 bd 3c 59 9b 3d 62 2b 89 3e eb ad 23 3d
       -0.040373653 0.075853795 0.2679091 0.039960783
000320 3d 67 a5 be f8 b9 ad 3e 4a b8 cd 3e 3b 6a 09 3e
       -0.32305327 0.33930945 0.40179664 0.1341943
000330 fd 48 8e 3d 8e 50 4d 3e d6 80 3c 3d 88 55 27 3e
       0.06947515 0.2005026 0.046021305 0.16341221
000340 bf fb c1 bc 52 64 24 be 2d 75 c5 be 7d 85 62 be
       -0.023679612 -0.16053894 -0.3856596 -0.22121234
000350 89 f2 bd 3c 71 ba 16 bf 0b fb 4d bd fb d2 97 3e
       0.023186939 -0.58878237 -0.05028824 0.29653153
000360 97 d4 4f 3e 14 dc 1a be c3 ed 8a bf 1f 8e 16 3e
       0.2029594 -0.15123016 -1.0853809 0.14702652
000370 fb 78 b8 be 8b ec 9a be 10 10 3a bd 55 a0 ce be
       -0.360298 -0.30258593 -0.045425475 -0.403567
000380 f0 a1 8f be 89 bb 1d 3d 42 95 53 be ed b3 05 bf
       -0.28053236 0.038508926 -0.20662406 -0.5222767
000390 ac 8c 9c be 54 d8 63 bd 68 d8 09 bf 6a c0 ac 3c
       -0.30576074 -0.05562623 -0.53845835 0.021087844
0003a0 f9 0f aa 3e 94 47 8b 3e 53 31 93 3e 2f 56 93 3e
       0.3321531 0.27203047 0.2874857 0.2877669
0003b0 c3 3e 89 be 8a ec 02 3f aa 40 8e 3e 75 2c f1 be
       -0.26805696 0.5114218 0.2778371 -0.4710423
0003c0 ab 48 fb 3e 8d b5 bb 3d a3 3b 55 be a7 dd 6a 3c
       0.4907888 0.091654874 -0.20823531 0.014335073
0003d0 63 60 3a be c7 d1 da bd 13 3a 8a 3e 7b 8c 78 3e
       -0.18200831 -0.10684543 0.26997432 0.24272339
0003e0 3b d9 6f be 6c 23 78 3c 78 2a 86 be 92 e5 1c bf
       -0.2342271 0.015145164 -0.26204276 -0.61287796
0003f0 5a 85 c6 bd fa 73 91 be aa 08 2d 3e d6 3a 01 3d
       -0.096934035 -0.28408796 0.16897836 0.03155025

conv3.bias f4 [32]
000000 05 e2 6e 3e 24 7f 79 3e 40 52 ec 3e d5 23 a3 3d
       0.23328407 0.24364907 0.46156502 0.07965819
000010 29 50 24 3e 22 ea cb 3d 83 03 e2 bf 44 03 8a 3e
       0.16046204 0.09956767 -1.7657322 0.26955616
000020 06 75 28 bd a8 4f d0 be 1b 97 c7 3d ea 21 e5 ba
       -0.041127227 -0.40685773 0.09745618 -0.0017481421
000030 09 9c 0e 3f 76 75 bf 3e 75 cc 59 3d 99 e3 e1 3e
       0.5570684 0.37394303 0.0531735 0.44118956
000040 bf c5 26 3f 4b bc 18 3e 03 a1 90 3e 8a 30 18 3f
       0.65145487 0.14915578 0.28247842 0.59449065
000050 f9 79 05 3f 92 44 bb bc 68 89 6d 3e 45 22 65 3f
       0.5213924 -0.022859845 0.23196948 0.89505416
000060 1d ab a5 3d 4a 75 a3 3f a1 b1 be 3e d9 71 f6 3e
       0.08089278 1.2770169 0.37244895 0.48133734
000070 fb 7d c5 3e 7b 34 5f 3e 61 3d 92 be d8 a6 21 bf
       0.38572678 0.21797363 -0.28562453 -0.6314521

batch3.weight f4 [32]
000000 e7 80 42 3f 28 49 5a 3f 3c 0e 80 3f 2a df 67 3f
       0.7597794 0.8526788 1.0004344 0.90574896
000010 bc 8f 40 3f 61 c8 58 3f 96 48 ad 3f f1 d6 48 3f
       0.7521932 0.84680754 1.3537776 0.78452975
000020 be 67 94 3f e3 35 90 3f dc fb 38 3f 2e 38 49 3f
       1.159416 1.1266445 0.72259307 0.7860135
000030 80 e0 6c 3f 60 78 8d 3f aa 00 17 3f 92 53 4a 3f
       0.9253006 1.105236 0.5898539 0.7903377
000040 46 36 6d 3f e6 41 65 3f f8 31 3c 3f 78 d3 5f 3f
       0.9266094 0.8955368 0.73513746 0.8743205
000050 7e 4f 68 3f f0 0b 73 3f 4f 3b 38 3f 8a c7 d9 3f
       0.90746295 0.9494009 0.719655 1.701402
000060 4c 8b 4d 3f 95 83 88 3f 3a 94 78 3f 29 45 73 3f
       0.80290675 1.0665156 0.97101176 0.95027405
000070 6c 18 42 3f 7c 84 3c 3f 13 6d 89 3f 29 05 86 3f
       0.75818515 0.73639655 1.0736412 1.0470325

batch3.bias f4 [32]
000000 43 64 86 be 52 d8 87 be 8d 16 d9 be 87 79 dc be
       -0.2624837 -0.26532227 -0.42400017 -0.43061468
000010 f4 94 87 be 3d 90 24 bf 93 98 46 bf 6b ed 4c be
       -0.2648083 -0.6428259 -0.7757656 -0.20012443
000020 44 2d 56 bf 57 c1 7f be d5 ba 01 bf fa a5 19 be
       -0.8366282 -0.24976097 -0.5067571 -0.15004721
000030 88 12 8c be ac 72 df be 84 52 24 3d f5 8b a5 be
       -0.27357888 -0.43642175 0.040117756 -0.3233334
000040 c6 0b de be 0c 69 9c be 70 be 80 be 8e c3 a1 be
       -0.43368357 -0.30548894 -0.25145292 -0.3159451
000050 c1 57 23 bf 02 72 c9 be 8c 3e 56 be 87 ac 76 bf
       -0.63805777 -0.39344794 -0.20922297 -0.96357006
000060 b0 26 09 bf 4c 62 1c bf 00 c9 90 be 01 ec 14 bf
       -0.5357466 -0.6108749 -0.2827835 -0.58172613
000070 33 22 da bd 3f 83 86 be ec e4 6b be 7f d0 7a bf
       -0.10651054 -0.26272008 -0.23036546 -0.9797439

conv4.weight f4 [32, 32, 3, 3]
000000 28 3d fd bd 0b 51 20 3b 38 84 53 bc 4d 41 ea bd
       -0.1236518 0.0024462368 -0.012909941 -0.114382364
000010 85 e4 4f bd a5 9f 3c bd 74 83 b9 bd e7 d8 16 be
       -0.050755043 -0.046050686 -0.09058276 -0.14731179
000020 92 fa e1 3d 45 86 9f 3d ff 5d 9f 3d a0 fa b2 3d
       0.110341206 0.07789282 0.077816 0.08739209
000030 bb 79 01 bd dd 7c cb bd c4 d5 22 3c 28 92 49 3d
       -0.03161023 -0.09935925 0.009938661 0.04921165
000040 b6 5f 04 bd 96 98 cc bc b3 3b da 3d 35 95 db 3c
       -0.03231784 -0.024975102 0.10655918 0.026804546
000050 5d 2e 5a 3d 9d 75 74 3d b9 42 86 3c dd 5a 78 3d
       0.05326687 0.059682477 0.016389238 0.06063353
000060 90 8b 95 3c da bd 57 bd cd 54 ba bc a9 80 28 be
       0.018255025 -0.05267129 -0.022745514 -0.1645533
000070 62 d2 f8 bb 83 0e 25 bd fe 09 f7 bd 66 93 c8 3c
       -0.007593439 -0.040297043 -0.12062453 0.024484348
000080 21 fa a2 bd 76 95 2d be ff 08 89 bc e8 de 83 3d
       -0.079578646 -0.16951546 -0.016727922 0.06439
000090 cf d8 49 3c da 31 f1 3d b0 4d 9e 3d f8 ca eb 3d
       0.012319758 0.117770866 0.077296615 0.115133226
0000a0 52 1d 24 3e 3d 63 84 3d c8 6c 11 3e 22 6b 96 3d
       0.1602681 0.06464241 0.14201653 0.07344653
0000b0 71 42 8b 3c cf 15 e3 3d a8 4c 84 3b c2 d2 98 3d
       0.016999455 0.11088144 0.0040374584 0.07462074
0000c0 7a 7c 09 3e a4 d0 17 bd bb 7c 28 3c 3e 69 f8 3d
       0.1342639 -0.03706421 0.010283644 0.12129448
0000d0 4d 90 cd 3d 18 98 04 3d 71 ba 95 3b 58 72 8d 3d
       0.10037289 0.03237161 0.0045693447 0.06906575
0000e0 9c 17 93 3c f9 01 8b 3d 95 75 65 bd a1 ad bd 3c
       0.017955594 0.06787486 -0.056020338 0.023154082
0000f0 26 04 5c be 8b 7a 27 3d 2f 31 64 3d 5d 74 7b 3d
       -0.21485958 0.04088835 0.055710968 0.06139027
000100 9c 70 54 bb cc e9 d4 3c 55 29 1b 3e af 7d 1d bd
       -0.0032415753 0.02599039 0.15152486 -0.03844994
000110 ec 46 b4 bc 98 f9 c7 3c 3e 5b 31 3c 2e 16 2f 3d
       -0.022006474 0.024411008 0.0108249765 0.04274576
000120 5f 3b 0e be bd bb e2 3d 30 42 5d 3d 91 0b 57 be
       -0.13889836 0.110709645 0.0540182 -0.21000506
000130 13 6e f1 bd 53 3f d9 3d 07 d4 40 be 94 e9 11 bd
       -0.11788573 0.10607781 -0.18830882 -0.035623148
000140 ab f8 65 bd ce bc d7 be 88 c6 0d 3b bb e8 9f 3a
       -0.05614535 -0.42136234 0.0021633226 0.0012200096
000150 6b 2d bf be 65 76 22 bc a6 ff 51 3c 4a 1e cc be
       -0.3733934 -0.009915923 0.012817299 -0.3986686
000160 d0 72 60 3d e2 47 d5 3d f6 46 46 3c 39 3a 9d 3c
       0.054796994 0.10414101 0.012101879 0.019192802
000170 46 9e c1 3d 3a 85 97 3c 30 6f 21 3d 8c 5a f3 3d
       0.094540164 0.018496145 0.039412677 0.11882505
000180 18 ef 4c bd b1 32 7f 3c c0 e3 14 3e 4c 00 b6 bd
       -0.050032705 0.015576051 0.14540005 -0.088867754
000190 b7 5a 3b 3d 82 86 1f 3d 3a c3 0b bd 4e 06 8e bd
       0.04574081 0.038946636 -0.03412173 -0.06934796
0001a0 30 8b 04 bd 93 82 8b bd 7e 05 10 3d 5a aa a5 3d
       -0.032359302 -0.068120144 0.035161488 0.080891326
0001b0 f5 8f 93 3d 76 64 01 3d 3d ab e6 bb 73 8c a9 3b
       0.07205192 0.031589948 -0.007039456 0.0051742136
0001c0 37 d0 5a 3c 22 dd 27 bd fa a1 b8 3d 77 ed 79 3c
       0.013355306 -0.040982373 0.090152696 0.01525437
0001d0 e1 a9 b1 3d cf 3f 47 3d 4c 68 06 3e 84 90 aa 3c
       0.0867498 0.048644837 0.13125724 0.020820864
0001e0 4b ea 1f 3e 62 ae 0c 3e 20 d9 7b 3b 4e 60 2a 3e
       0.1561672 0.13738397 0.0038428977 0.166383
0001f0 ed 60 be 3d 81 26 d2 3b ab 26 da 3d 6f 2f 92 3d
       0.09295831 0.0064132814 0.106519066 0.071379535
000200 f1 f6 48 3c 78 af d7 3d f9 be 3d 3d 59 8a 1f bd
       0.012265907 0.10531515 0.046324704 -0.038950298
000210 8d f8 19 3e b0 07 57 3d a6 71 0c 3e 75 df 35 3d
       0.15036221 0.052497566 0.13715228 0.04440256
000220 f3 7f 5e 3d cc 17 86 3d c1 7c 65 3d fe e4 86 bd
       0.05432124 0.06547508 0.056027178 -0.065866455
000230 e9 16 81 3d c1 e0 8f 3b b5 90 c8 3c a2 c3 00 3d
       0.06303198 0.0043908064 0.024483064 0.03143657
000240 61 b0 12 3d 68 5f f9 3c c5 a9 c1 bd b2 fb 90 3d
       0.03581274 0.030441001 -0.09456209 0.07079257
000250 5f 82 be bc 21 b6 8f bc 30 10 67 3d 7c 2c 6d 3d
       -0.023255525 -0.0175429 0.056411922 0.05790375
000260 06 7a 18 bc 31 7e 3e be c7 1a 38 3d 2b 5e 88 ba
       -0.009306436 -0.18602826 0.044947412 -0.0010404041
000270 f0 99 7d bd 2e c0 04 3c 49 3c 26 bd ac eb 23 be
       -0.061914384 0.00810246 -0.040584836 -0.1600787
000280 f9 c2 64 3d 5b be 4e 3d e3 b7 19 3e ca 60 63 3d
       0.055850003 0.050474506 0.15011553 0.055512227
000290 8d de 8d 3d aa 01 b7 3d 1f a2 84 3d cf bd 6f 3d
       0.06927214 0.08935864 0.06476235 0.058530625
0002a0 fe 58 10 3e 34 67 80 3d 1b b8 9e 3d f6 2c 0e 3e
       0.14096448 0.062696844 0.07749959 0.13884339
0002b0 10 95 97 3d c8 06 cf 3d 98 f1 db 3d 4c 36 f4 3d
       0.07401478 0.10108715 0.1073944 0.11924419
0002c0 d1 b6 2f 3b e1 fe c6 3d 7c ed 07 3d 6f bb de 3c
       0.0026811848 0.09716583 0.033185467 0.027188985
0002d0 52 d2 d1 3d d2 29 17 bd 9b 75 8e 3d e9 93 23 3e
       0.102451935 -0.036905117 0.06956025 0.15974392
0002e0 2e fc 89 3d cf 38 4f 3d cc 9e 25 3e 0f 5a 2e 3e
       0.067375526 0.050591286 0.16173857 0.17026542
0002f0 c8 4d 96 3b c5 91 bd bc fb 50 a2 bd 08 9f 44 3d
       0.004586909 -0.023140797 -0.07925602 0.048003227
000300 f1 d8 45 3d 20 42 e7 bd a9 99 82 3d f0 60 d0 bd
       0.048302595 -0.11291909 0.063769646 -0.10174739
000310 ef 8a 74 3d 41 5a 00 3e 02 81 85 bd 98 60 a9 3b
       0.05970281 0.12534429 -0.06518747 0.0051689856
000320 f8 fb 90 3b 75 12 1b bd c4 23 ab 3d e3 48 1a bc
       0.0044245683 -0.0378594 0.08356431 -0.009416792
000330 ca ed c7 3c 84 51 4a bd 0d 6c 3d 3d 85 21 e4 be
       0.024405379 -0.049394146 0.046245623 -0.44556823
000340 b7 e4 7d bd 2a 44 27 bc cb 39 e5 be 57 d3 a6 bd
       -0.061985698 -0.010209123 -0.44770655 -0.081457786
000350 9a 75 09 3e f3 5e d9 be 2d 21 b7 bd f2 9d 58 3d
       0.13423768 -0.42455253 -0.08941875 0.052885003
000360 6e d3 0f 3d f6 ba fd 3c 7a b2 5d 3d d6 70 7f 3d
       0.035113744 0.030972939 0.054125287 0.062363468
000370 dc ae 72 bd 1c 68 60 bd 07 df 39 3d c3 08 bd bd
       -0.05924879 -0.054786786 0.04537871 -0.09230187
000380 30 40 1b 3d 33 23 b0 3d d8 46 b0 3d bb 80 e5 3d
       0.03790301 0.08600464 0.086072624 0.11206194
000390 cc 4a 03 3e 10 ae 08 bd 71 46 04 3e 5d 7e 93 3d
       0.12821501 -0.033369124 0.12917496 0.07201836
0003a0 6e 50 13 3d 47 d9 37 3c c0 04 86 be 20 9f c8 3d
       0.035965376 0.011221237 -0.261755 0.09795976
0003b0 a5 40 ad 3d 5d d1 45 be e4 66 f4 3d 96 17 96 3c
       0.084595956 -0.19318147 0.11933687 0.018321794
0003c0 02 1d 78 be 41 1b 92 bb 15 f9 ca 3c 94 a9 f6 3d
       -0.24229816 -0.0044588153 0.024776975 0.12044063
0003d0 f7 e1 fe bc 5c 61 de bc 62 86 44 3d 4d b8 6a 3c
       -0.031113608 -0.027146034 0.04797972 0.014326167
0003e0 54 0b 5e bd dc d2 9f 3d 78 9a 45 3d 23 46 36 3d
       -0.054210022 0.0780389 0.048243016 0.04450048
0003f0 49 e5 33 bd 32 10 74 bd 9e 0b 3a 3d 20 56 b2 3d
       -0.043919835 -0.059585758 0.045421235 0.08707833

conv4.bias f4 [32]
000000 95 5a 7d bc a0 bd 59 3f c9 90 fd 3c af e0 39 3c
       -0.015463491 0.8505497 0.030952828 0.011345073
000010 be 89 b9 3e 06 86 41 bc 89 f1 9c 3e f5 e2 0d bd
       0.362379 -0.011811739 0.30653027 -0.03464027
000020 85 71 83 bc c3 27 92 3c d8 a3 e2 3e d4 46 5f 3e
       -0.016045341 0.017841225 0.44265628 0.21804363
000030 a2 d4 a0 3e 35 a9 d2 3e 46 98 14 3e 86 fb ae 3d
       0.31412226 0.4114472 0.14511213 0.08544068
000040 35 5e c6 3e ae 16 83 bb 14 65 77 3c a6 6a 44 3d
       0.3874375 -0.0040005064 0.0150997825 0.04795327
000050 07 e0 b0 3e 16 01 4e 3e 0f 1f 97 3d 9b 8c 1b bd
       0.3454592 0.20117602 0.07378971 -0.03797589
000060 68 ed 56 3d 6b 7a 49 3f 4b 0a 4d bd e1 d9 4e 3d
       0.052472502 0.7870242 -0.050058644 0.050500754
000070 f7 99 4a 3d f9 b1 f6 3c 55 3d d0 3e d6 02 d8 3c
       0.04946324 0.03011416 0.40671793 0.02636854

batch4.weight f4 [32]
000000 19 f4 9f 3e a8 46 b1 40 bc 65 61 3f d0 b5 b9 3e
       0.3124092 5.539875 0.8804586 0.36271524
000010 7b 65 7f 40 45 33 cf 3e 80 42 75 40 4f 0c c3 3e
       3.9905689 0.40468803 3.8321838 0.38095328
000020 a8 b0 e7 3e 31 9e 8a 3f 49 0d 98 40 51 da 46 40
       0.45251966 1.0829526 4.7516217 3.107075
000030 b2 c0 45 40 a1 5b 86 40 65 3c 48 40 9e 6e df 3f
       3.0898862 4.198685 3.1286862 1.7455633
000040 42 7c 9a 40 54 c2 9e 3e c5 c5 bd 3e fc 3f 97 3e
       4.827668 0.31007636 0.3706495 0.29541004
000050 7e 18 62 40 12 00 69 40 9d 36 47 40 3b 1e c3 3e
       3.532745 3.6406293 3.1127083 0.38109002
000060 55 88 50 3f 07 1b 42 40 e7 f8 d9 3e fd dc 3f 3f
       0.81458026 3.0328996 0.4257271 0.74946576
000070 1e e7 c5 3e 23 92 b8 3f 65 9f 7b 40 3c d4 7d 3f
       0.3865289 1.4419597 3.9316037 0.9915197

batch4.bias f4 [32]
000000 64 1f 2e bf 44 94 82 c0 a5 3f a2 bf 61 43 20 bf
       -0.6801665 -4.080599 -1.2675673 -0.6260281
000010 4a 71 1f c0 5d a9 50 bf 63 4a 4c c0 77 8a 2d bf
       -2.4912896 -0.8150843 -3.1920402 -0.67789406
000020 45 37 4c bf 05 5a bf bf 6b d2 3d c0 57 f5 f3 bf
       -0.79771835 -1.4949347 -2.965968 -1.9059247
000030 cf 16 1c c0 ab af 35 c0 82 ef 0a c0 54 81 f3 bf
       -2.4388921 -2.838847 -2.1708684 -1.9023843
000040 5d 3f 10 c0 d1 a6 2c bf f1 4c 2e bf 24 b2 2a bf
       -2.2538674 -0.6744204 -0.68086153 -0.6667807
000050 35 ed 26 c0 0d 68 03 c0 cc b3 d7 bf 26 29 38 bf
       -2.608228 -2.0532258 -1.6851745 -0.7193779
000060 19 43 ab bf 07 ef 94 bf 79 6a 58 bf 9e 28 8a bf
       -1.3379852 -1.1635445 -0.84537464 -1.0793645
000070 d3 f1 38 bf fc 6a 05 c0 5b ea 63 c0 a7 69 c6 bf
       -0.72243994 -2.0846548 -3.561179 -1.5500993

lin1.weight f4 [5, 800]
000000 44 1d 11 bd 42 d1 11 3c 40 70 90 bc b9 f7 1f bc
       -0.0354283 0.008899989 -0.01763165 -0.0097636515
000010 87 56 0a bc 70 fa d1 bc b1 4a 50 bc 2d b6 a2 3c
       -0.008443481 -0.025632113 -0.01271312 0.019862259
000020 43 9f c1 3a 78 2c a4 bc 54 23 0c be df e2 59 bc
       0.0014772195 -0.020040736 -0.13685352 -0.013298719
000030 37 e2 30 3d 2c fe 7a bd c7 11 a3 bc 28 39 ec 3b
       0.043184485 -0.061277553 -0.019905938 0.007208962
000040 7e 82 96 bd 11 7b 6b 3c 0d c3 4f bd 31 62 28 3b
       -0.07349108 0.014372603 -0.050723124 0.0025693292
000050 5c 2b 7f bc 2d c3 f2 3c 05 72 a7 bc 30 c2 2f 3c
       -0.0155743025 0.029634083 -0.020440111 0.01072745
000060 56 90 45 3c ec e6 cf 3a 84 27 a7 bc ac e5 27 3b
       0.012058338 0.0015861667 -0.020404585 0.0025619073
000070 03 51 46 3a 56 d1 8d 3c 4b c7 ff 3a 57 89 47 ba
       0.0007565172 0.017311733 0.001951435 -0.0007611713
000080 71 53 ff 3a f1 84 b4 bb 4b 36 94 3c 78 b2 4a 3c
       0.0019479824 -0.005509012 0.018092295 0.012371652
000090 37 38 91 bb c2 05 08 bc cc e4 3e 3c 9a ea ad ba
       -0.00443175 -0.008302154 0.011651229 -0.0013268769
0000a0 eb ad 89 bc 12 37 0e bc 21 79 53 bc 2a 94 6b bc
       -0.016806563 -0.008680122 -0.012907297 -0.014378587
0000b0 bd 24 ca bb 6d b9 a8 3b 90 65 e1 ba d1 98 e4 ba
       -0.0061689303 0.0051490576 -0.0017196406 -0.0017440562
0000c0 3c 28 1d bc b3 0c c0 bb 72 67 2c 3d 7c 58 e7 3c
       -0.009592112 -0.005860889 0.04209084 0.028240435
0000d0 55 1e 44 3d da 9e 13 3d d0 66 d9 3c 34 dc d2 3c
       0.04788049 0.036040165 0.026538283 0.025739767
0000e0 2e dd 52 be a8 15 3a be 70 30 52 be 6d 9a a0 3d
       -0.20592186 -0.18172324 -0.2052629 0.078419544
0000f0 55 08 7f be d1 e2 2d be c9 47 be bd 7d 3f d9 bd
       -0.24905522 -0.16981055 -0.09291036 -0.106078126
000100 2f 61 b1 bd 83 0c 6b be 3f 6e 50 3b 38 36 28 be
       -0.086611144 -0.22953992 0.0031803993 -0.16426933
000110 39 71 f8 bd a0 4c 2e 3b 99 00 53 bd 71 75 10 be
       -0.121309705 0.0026595965 -0.05151424 -0.141073
000120 1a 95 16 be 8f 08 30 be c9 2c 04 be eb f9 3e bd
       -0.14705315 -0.17190765 -0.12907709 -0.04662506
000130 03 88 b9 3b b7 a3 f9 bb 3c 8e 20 3c a9 6b 28 3c
       0.005661966 -0.0076183933 0.009799536 0.010279574
000140 3f d2 af bc 30 a8 82 bd b9 96 63 bc e9 b8 88 bd
       -0.021462558 -0.063797355 -0.013890916 -0.06675894
000150 27 cf bb bd 20 a1 13 3d 88 2f d5 3b 85 ac 6d 3d
       -0.091703705 0.036042333 0.0065059103 0.058025856
000160 df de ce bc 5c db e6 bd 60 86 07 bd 40 e9 c2 bc
       -0.025252758 -0.11272308 -0.033087134 -0.023792863
000170 a4 9c 05 3b dc bd b2 3c a3 bc ed bb d1 9d 25 3c
       0.0020387555 0.021819048 -0.0072551533 0.010108427
000180 7a 64 4e bb a1 19 ad bc 8c 40 84 3c 80 be 5d 3d
       -0.0031492994 -0.021130385 0.01614406 0.054136753
000190 5d b3 8d 39 44 24 56 bc e3 d3 ed bb e5 64 96 bc
       0.00027027252 -0.01307017 -0.007257925 -0.018358657
0001a0 a9 e0 6d 3c 63 e0 d0 3b f5 06 04 3b 77 f0 86 bc
       0.014518895 0.006374405 0.0020145748 -0.016472084
0001b0 d4 78 85 bb 85 c6 da bc 66 56 d3 3b 8b ef bb bb
       -0.0040732417 -0.02670599 0.0064495085 -0.005735343
0001c0 96 09 7d bc ad 4b ea bb aa a7 b6 bb a1 12 11 3c
       -0.01544418 -0.0071501345 -0.0055741863 0.008854539
0001d0 96 97 92 bc 7e cf d6 b9 7c a5 a6 3b 8f 18 9a bc
       -0.017894547 -0.00040971854 0.0050856452 -0.018810539
0001e0 1b 61 d3 bb ce d3 11 bc 0a 6b 26 bb f3 1d 19 bc
       -0.006450785 -0.008900596 -0.002539339 -0.009345519
0001f0 9a 62 cf bc 03 d8 e3 3c 4e 72 57 bc 22 9e 9d bd
       -0.025315572 0.027812963 -0.013149811 -0.07696177
000200 fb 9f b2 bc 18 9f f2 bb fe 1d 0c bd 1c 52 0b be
       -0.0218048 -0.0074042194 -0.03420829 -0.13605541
000210 ee 1d b3 3c f6 6f b0 bd 99 6f c1 bc c7 c4 3d bb
       0.021864858 -0.08615105 -0.023612784 -0.00289564
000220 f3 60 44 bd d3 ef cd b9 c4 82 6d bd 14 17 ef bd
       -0.04794402 -0.0003927933 -0.057986036 -0.11674324
000230 07 d3 f0 3b c9 86 ff 3c 4b f3 fb 3d 14 b1 35 bd
       0.007349375 0.0311922 0.12302264 -0.044358328
000240 8d 13 04 bd 77 87 99 3c 3c a8 47 3d e4 e9 60 3d
       -0.032245208 0.018741352 0.048744425 0.054910555
000250 c7 50 1d bd fd 0b 09 bd 9c 9b 46 3c c4 e2 5c bc
       -0.038407113 -0.0334587 0.012122061 -0.0134817995
000260 23 13 8b 3c 44 a9 a8 ba 10 bc 24 3d f2 02 c3 3b
       0.016976899 -0.0012867828 0.040218413 0.005951279
000270 23 1e bc bb 30 17 52 3b 19 c8 2e 3c 0d 8b 28 bc
       -0.0057408973 0.0032057278 0.010667824 -0.010287059
000280 3f a3 5d 3c c8 69 fa bb 1b d5 d7 bb 71 23 74 bb
       0.01352769 -0.0076420046 -0.0065866834 -0.003725257
000290 71 5e 1b bc 20 a1 09 bc 18 ff 12 bc 39 2c ad 39
       -0.009482966 -0.008400232 -0.008971952 0.0003303008
0002a0 67 6d 2f bc 18 06 1b 3c cd d7 5b 3d 23 ba b1 bb
       -0.010707236 0.009461902 0.0536726 -0.0054238006
0002b0 82 9e f5 3a 5d 76 26 ba a6 cc 82 bc 79 b6 ce bc
       0.0018739256 -0.0006350035 -0.015966725 -0.025233494
0002c0 04 21 a5 ba ee 88 2a bc 55 b7 1f 3c da 73 45 bc
       -0.001259834 -0.010408623 0.0097483 -0.012051547
0002d0 5d d1 52 3b b8 8c 99 3b 68 30 bf 3b 7b 7e 4f 3b
       0.0032168247 0.0046859644 0.005834628 0.0031661082
0002e0 40 1d 8e bc fd 6c 61 bc 79 8f c7 3c 05 8b d2 bb
       -0.017347932 -0.013758895 0.024360405 -0.006425264
0002f0 41 f5 26 3c 16 26 63 3c 68 2f e0 3c c2 35 82 3b
       0.010190309 0.013864061 0.027366355 0.0039736936
000300 6e c4 bf bc ea 6d 8e bc b5 05 3a 3c a3 c9 0a bc
       -0.023409095 -0.017386395 0.0113539 -0.0084709255
000310 ee a9 a1 bb aa 88 3d 3c 5f 74 2c 3b aa d0 9d bb
       -0.0049335873 0.011568228 0.002631448 -0.0048161345
000320 68 62 00 bd c1 ef 4c bb 03 86 12 bc 48 8e a6 bb
       -0.031343848 -0.0031270834 -0.008943084 -0.005082879
000330 27 f4 2c bd 4d 63 0b 3d c4 32 2e ba 02 71 9f 3b
       -0.04222503 0.034030247 -0.0006645138 0.0048657665
000340 01 f7 cc bb 02 ee d4 bb ae f3 59 3d a4 b9 c9 3c
       -0.006255031 -0.0064980993 0.053210907 0.024624653
000350 c5 67 89 bc ab 7c 80 bc 62 37 c0 3b 8b 83 42 bd
       -0.016773114 -0.015684446 0.005865977 -0.04748873
000360 50 7d 46 3d c4 e4 0b ba ba 58 80 3c 38 10 4a 3d
       0.04845935 -0.0005336518 0.015667308 0.049331874
000370 a9 53 12 bd f1 03 c1 ba e3 11 1d bc ed bf 6e 3c
       -0.035724316 -0.0014725906 -0.009586784 0.014572126
000380 bc 4e 15 bc 9c 51 6a 3d 8a 3e fc 3d fe c0 0d be
       -0.00911301 0.057206735 0.12316616 -0.13843152
000390 3b cb 96 be b1 99 ee bc ba 7e 26 3d 58 5c 8d 3a
       -0.29451928 -0.02912602 0.0406482 0.0010784967
0003a0 a3 e0 04 3c 56 64 a8 3c 18 ae 76 bd b3 f7 b9 bd
       0.008110198 0.020555656 -0.060224622 -0.09080448
0003b0 d8 76 09 be 83 97 09 3e d7 69 3c be 4e a0 0f be
       -0.13424242 0.13436703 -0.1839975 -0.14025995
0003c0 a5 f2 6c 3d 3c cf 24 bd fc 31 a2 3d 51 28 46 be
       0.05784859 -0.040236697 0.0791969 -0.19351317
0003d0 e9 4a 4d bd 52 9a 38 3a 51 4b 42 bd f6 cb 9d bc
       -0.050120268 0.00070420385 -0.04743511 -0.019262295
0003e0 23 54 18 be 52 5c 80 3d 8f c2 b9 bb ec f5 aa 3c
       -0.14875846 0.06267609 -0.005668945 0.020869218
0003f0 72 28 64 bc 54 b7 a1 bb 13 18 29 bc 51 e9 50 3b
       -0.013925659 -0.0049351845 -0.010320681 0.0031877349

lin1.bias f4 [5]
000000 3e 52 a1 bc e9 40 28 bd ee 08 b3 3c dc 86 01 bd
       -0.019692536 -0.04107753 0.021854844 -0.031622753
000010 4b 6d 96 bc
       -0.018362662
