results_auto/01_domain_adaptation/maml_supervised/June/officehome_maml_order_2_seed_0_shots_1_ways_5_meta-lr_0.0001_pre-train-wts_datetime_11_06_2021_09_47_43/intermediate_11000_model.pt (torch, 412181 bytes, 54 tensors)

conv1.weight f4 [32, 3, 3, 3]
0.42322728 0.09056052 -0.099260665 -0.08003569 -0.17569257 -0.14918298 0.116260864 0.041117497
-0.15295982 0.022990674 -0.1935183 0.07912009 -0.34521496 -0.12606329 -0.011855011 -0.008531468
0.14002144 0.2821773 -0.8235975 -0.44495475 0.17330828 -0.28656727 0.096878834 0.5651766
-0.15095554 0.32925957 0.785403 0.05350198 0.032154374 0.34376824 -0.1814765 0.21950166
0.30871898 -0.49866313 -0.45390078 -0.099707745 -0.12623435 0.23607048 0.37514415 -0.22910362
-0.03136103 0.14222685 -0.49090096 -0.52858907 -0.22029364 0.09954771 0.33868715 0.51501864
-0.27053204 0.0132648125 0.36197567 -0.033512257 -0.12418064 0.030057546 0.3841832 0.09548223
0.2706412 -0.27616844 -0.2985745 -0.37545946 -0.046412118 -0.056393392 -0.097058974 0.37708962
0.31948048 0.13691728 -0.0055500553 -0.030401252 -0.16468865 0.04268191 -0.3168001 -0.15137465
0.46833673 0.4560595 0.53900856 0.15519825 -0.04697121 -0.3659909 -0.2556004 -0.45815226
-0.36609188 0.50299454 0.37731072 -0.04393077 -0.13431652 -0.3560556 -0.41049215 0.08673869
0.185018 -0.06010147 0.4245424 0.452504 0.42957512 -0.22499374 -0.5260624 -0.49545467
0.10313445 0.11313583 -0.12542887 0.00316577 0.40003753 0.5013444 -0.4821795 -0.39077294
-0.34938934 -0.08018235 -0.050887674 0.06775723 0.0067329477 0.10231015 -0.04080316 0.16221654
-0.09301659 0.2011601 0.07385881 -0.22680175 -0.13087244 0.2040362 0.33104753 0.18486369
0.20706256 0.16121127 -0.032430448 -0.095415644 -0.30309603 -0.31169745 -1.0580802 0.100903295
-0.18362442 -0.8271489 0.29867557 0.021118246 -1.487124 0.22351491 -0.2493128 -0.2411727
-0.072844096 -0.21451199 0.07201569 0.19006155 0.28374657 0.35826212 0.5487045 0.17776634
-0.40220696 -0.11474097 0.016867826 -0.36295444 -0.41264352 -0.32329547 -0.58253896 -0.40075007
-0.35769355 0.42499757 0.52255434 0.0034753738 0.2906397 0.027919788 0.12484368 -0.05903893
0.07313116 -0.103193186 -0.6102364 -0.2918991 -0.17786114 -0.09070992 0.09172641 0.22462045
-0.0075825825 0.45136458 0.5283933 -0.37696552 0.2141796 0.0097039845 -0.34374696 0.27127376
0.017149758 -0.27191412 0.320249 -0.15449904 0.15797412 0.39847016 0.4098951 -0.050246697
0.25655696 0.06397396 -0.4425894 -0.12429447 -0.4289936 0.053634927 0.3698789 0.19974421
-0.6271807 -0.22577009 -0.56480986 0.03441335 0.21828423 0.22351761 -0.17328939 0.26516306
0.05033411 -0.39308712 -0.33970842 -0.60873115 0.13241857 0.6476007 0.17813918 0.17580189
0.24450043 0.0593114 -0.32270893 -0.24122643 -0.34950727 0.29629198 0.42983732 0.2627813
-0.19462873 -0.45158166 0.60518724 -0.39037526 -0.27611133 0.5608584 -0.13517468 -0.20674475
0.077359766 0.25907835 -0.514093 0.110707834 0.015667155 -0.18778618 0.19251738 0.27204517
-0.035723597 0.33605587 0.29346368 -0.3948971 0.29992205 -0.1701873 -0.29228702 0.17724195
0.03856513 -0.052995525 -0.051837396 0.36225498 0.3818221 -0.115186416 0.5223361 0.09633224
-0.062783055 0.3433397 -0.009115498 0.022620216 0.2938748 -0.081726395 -0.26656407 -0.059286896
00000000: 3fb1 d83e cb77 b93d 2d49 cbbd c0e9 a3bd
00000010: c1e8 33be 6cc3 18be 2d1a ee3d d26a 283d
00000020: 80a1 1cbe f056 bc3c a929 46be b709 a23d
00000030: 04c0 b0be bc16 01be 853b 42bc 92c7 0bbc
00000040: c861 0f3e 8b79 903e 49d7 52bf 1cd1 e3be
00000050: ba77 313e f2b8 92be 6968 c63d 6aaf 103f
00000060: 1794 1abe b694 a83e 2c10 493f e424 5b3d
00000070: 4eb4 033d 6402 b03e fad4 39be 0bc5 603e
00000080: 6a10 9e3e c650 ffbe af65 e8be 9333 ccbd
00000090: 9443 01be 76bc 713e e512 c03e 249a 6abe
000000a0: 6c74 00bd eaa3 113e 5f57 fbbe 9d51 07bf
000000b0: a894 61be abdf cb3d 6768 ad3e 43d8 033f
000000c0: 2d83 8abe a854 593c e054 b93e 2644 09bd
000000d0: 6b52 febd 3e3b f63c a9b3 c43e 308c c33d
000000e0: 7c91 8a3e f365 8dbe c2de 98be 393c c0be
000000f0: a21a 3ebd c2fc 66bd dbc6 c6bd e411 c13e
00000100: f292 a33e 0b34 0c3e 3ddd b5bb 0c0c f9bc
00000110: 24a4 28be 3ad3 2e3d 9f33 a2be f501 1bbe
00000120: d5c9 ef3e a180 e93e 77fc 093f 4aec 1e3e
00000130: e264 40bd 2963 bbbe 0ede 82be ef92 eabe
00000140: 6570 bbbe 40c4 003f df2e c13e c0f0 33bd
00000150: 458a 09be eb4c b6be 072c d2be 0ea4 b13d
00000160: 5c75 3d3e f62c 76bd 9f5d d93e 9bae e73e
00000170: 45f1 db3e c264 66be 07ac 06bf 3cac fdbe
00000180: 2838 d33d c2b3 e73d 6d70 00be cf78 4f3b
00000190: b8d1 cc3e 1b58 003f 3be0 f6be 6413 c8be
000001a0: 29e3 b2be a536 a4bd 986f 50bd 4dc4 8a3d
000001b0: 0fa0 dc3b fc87 d13d 3721 27bd 181c 263e
000001c0: 7b7f bebd eafc 4d3e 4a43 973d b83e 68be
000001d0: 6d03 06be deee 503e 107f a93e e84c 3d3e
000001e0: 3508 543e 9114 253e cad5 04bd 4769 c3bd
000001f0: 672f 9bbe cf96 9fbe 2c6f 87bf 63a6 ce3d
00000200: 0a08 3cbe 08c0 53bf 01ec 983e 2c00 ad3c
00000210: 145a bebf 18e1 643e db4b 7fbe faf5 76be
00000220: 492f 95bd 08a9 5bbe f67c 933d 7f9f 423e
00000230: 3b47 913e 226e b73e e677 0c3f 6108 363e
00000240: 12ee cdbe 50fd eabd 652e 8a3c 2ad5 b9be
00000250: 0346 d3be fc86 a5be 4621 15bf 1d2f cdbe
00000260: 9c23 b7be 4899 d93e 1fc6 053f 19c3 633b
00000270: bace 943e 0ab8 e43c 0bae ff3d ced2 71bd
00000280: cac5 953d f356 d3bd 7438 1cbf cd73 95be
00000290: 3b21 36be 1fc6 b9bd 0edb bb3d e702 663e
000002a0: 5077 f8bb 4219 e73e c944 073f a001 c1be
000002b0: e651 5b3e 76fd 1e3c 9aff afbe 65e4 8a3e
000002c0: a67d 8c3c 5438 8bbe adf7 a33e ff34 1ebe
000002d0: f8c3 213e 4804 cc3e c5dd d13e 7bcf 4dbd
000002e0: 6f5b 833e c804 833d 149b e2be 198e febd
000002f0: 0da5 dbbe 4cb0 5b3d c460 bd3e bf89 4c3e
00000300: ea8e 20bf 4630 67be 6197 10bf 03f5 0c3d
00000310: e785 5f3e cde1 643e c672 31be 74c3 873e
00000320: 242b 4e3d b742 c9be 43ee adbe ced5 1bbf
00000330: bc98 073e 29c9 253f 1e6a 363e 6905 343e
00000340: 525e 7a3e 83f0 723d 1b3a a5be 1004 77be
00000350: 9ef2 b2be 95b3 973e a313 dc3e 458b 863e
00000360: c14c 47be b635 e7be 8ded 1a3f 44df c7be
00000370: 775e 8dbe 6b94 0f3f 3b6b 0abe e5b4 53be
00000380: cc6e 9e3d eba5 843e 999b 03bf caba e23d
00000390: 6858 803c 054b 40be 4723 453e 8149 8b3e
000003a0: e852 12bd 840f ac3e df40 963e f42f cabe
000003b0: 628f 993e 9445 2ebe a5a6 95be ea7e 353e
000003c0: 78f6 1d3d d611 59bd 7353 54bd 7c79 b93e
000003d0: 307e c33e dbe6 ebbd d2b7 053f d649 c53d
000003e0: 6794 80bd 39ca af3e 2b59 15bc 084e b93c
000003f0: c276 963e 2b60 a7bd 167b 88be d1d6 72bd

conv1.bias f4 [32]
-0.071798645 -1.5378655 0.06094128 -0.23964962 -0.7204332 -6.8062816 -0.0013949975 -0.03663424
-0.29400033 0.23095798 -0.3003467 -0.025790092 0.8694285 -1.640466 -0.20297442 -0.14550234
-0.03770929 -0.2775593 -0.20992704 -3.546016 1.0156745 0.030543013 0.09185173 0.11574812
-10.293607 0.24600177 -0.15988924 -0.079682976 0.268353 -0.45249897 -2.683596 0.08191206
00000000: 2b0b 93bd c7d8 c4bf 909d 793d b666 75be
00000010: 4f6e 38bf 0fcd d9c0 59d8 b6ba c90d 16bd
00000020: 3687 96be 4080 6c3e 0bc7 99be be45 d3bc
00000030: de92 5e3f cafa d1bf 87d8 4fbe 91fe 14be
00000040: 0e75 1abd 411c 8ebe 1df7 56be edf1 62c0
00000050: 9f01 823f 5735 fa3c c31c bc3d 5a0d ed3d
00000060: 9db2 24c1 e3e7 7b3e 01ba 23be d430 a3bd
00000070: 9065 893e f2ad e7be 09c0 2bc0 83c1 a73d

batch1.weight f4 [32]
1.2049356 1.005519 0.67126644 1.1834992 0.93471855 0.8348468 1.045097 1.0912347
0.8352273 1.0256459 1.3055431 0.7915804 0.9015487 0.6208136 0.47899705 0.87936497
0.7849747 1.0943936 1.2441764 0.62198395 0.8235753 0.92616904 0.9913472 1.1618378
0.883233 1.12165 1.438691 0.98404455 1.3734179 0.585478 0.67883265 0.5432952
00000000: 543b 9a3f d9b4 803f 1ed8 2b3f e77c 973f
00000010: b749 6f3f 85b8 553f bdc5 853f 94ad 8b3f
00000020: 75d1 553f 5d48 833f 091c a73f 03a5 4a3f
00000030: e5cb 663f a4ed 1e3f 1a3f f53e 101e 613f
00000040: 1af4 483f 1715 8c3f 2c41 9f3f 573a 1f3f
00000050: d5d5 523f 6a19 6d3f eec8 7d3f 1ab7 943f
00000060: 8f1b 623f 3a92 8f3f 0727 b83f 58ea 7b3f
00000070: 28cc af3f e3e1 153f fac7 2d3f 6515 0b3f

batch1.bias f4 [32]
0.7453601 -0.724389 0.8537433 0.07774137 -0.5316541 0.20361078 1.497679 0.6512457
2.7377846 0.091824494 1.0751816 -0.55554026 -0.10131696 -0.24804151 0.031899013 -0.58069104
-0.0081632715 -0.092969574 -0.68024594 -0.2350103 -0.07835364 0.16535605 0.14781094 0.13549389
0.28808725 -0.038616836 0.37084 0.03684623 -0.08274095 0.05268066 1.5648934 -0.07614656
00000000: ebcf 3e3f 8f71 39bf ec8e 5a3f de36 9f3d
00000010: 7c1a 08bf 587f 503e f2b3 bf3f 0ab8 263f
00000020: dd37 2f40 7b0e bc3d 8d9f 893f e337 0ebf
00000030: 447f cfbd 98fe 7dbe 8aa8 023d 2ba8 14bf
00000040: 3ebf 05bc d566 bebd 9924 2ebf 8aa6 70be
00000050: e077 a0bd 1953 293e c05b 173e e9be 0a3e
00000060: 2c80 933e b02c 1ebd bede bd3e 13ec 163d
00000070: 1674 a9bd adc7 573d 6d4e c83f baf2 9bbd

conv2.weight f4 [32, 32, 3, 3]
-0.07209542 0.18263109 0.044303354 -0.086033925 0.27735814 0.55902255 -0.00054139603 0.20328392
0.21009818 0.11966289 -0.22611319 -0.011193818 0.049255237 -0.014580791 0.5686642 -0.26207513
-0.25616366 0.14991331 -0.60571134 -0.5779828 -0.45432222 -0.441866 -0.19863822 -0.8795311
0.0961435 0.14624237 0.40809834 0.4108584 0.14325695 -0.2904196 -0.16117218 -0.16544323
-0.7558391 0.14248051 -0.06080214 -0.18975197 0.27629206 0.1370044 0.02762726 0.23446858
0.08122577 -0.012085992 0.06559386 -0.1751902 -0.103865944 -0.1819275 -0.25311834 -0.17498809
-0.0030383081 -0.030961718 0.11863339 0.18792109 0.06343381 0.17237766 0.073415175 -0.1274374
-0.21239676 0.16847816 0.022683512 0.016159717 0.18547797 -0.13258824 0.25406736 0.13074572
0.06897265 -0.20233613 0.16602926 0.025905786 -0.08589941 0.075697556 0.27184469 0.03151128
-0.11022812 0.18314783 0.2647702 -0.22004335 0.10327055 0.41108733 -0.47237045 -0.23598677
0.087983936 -0.21743025 -0.6953555 -0.3578437 -0.32041416 -0.26640207 0.19391349 -0.008610625
0.03611891 0.46058708 -0.1700953 -0.11751381 0.05989017 -0.12161366 0.22269271 0.14083512
-0.11066253 -0.38357943 -0.3212831 -0.50574446 -0.13199964 -0.22508833 -0.37679246 0.3007006
0.08593185 -0.3406916 0.39718133 0.2150066 -0.31241858 -0.23673429 -0.23594047 0.20089594
0.31552595 0.029497294 -0.26767313 0.00017206233 0.39432174 0.05908857 -0.091032416 -0.014258133
0.039207198 -0.17351833 -0.3158893 0.112988874 -0.048830867 -0.4571506 -0.47917542 -0.4475952
-0.18881941 -0.025046725 -0.05719412 0.24873531 0.19226629 0.25914526 0.50198084 0.23030102
-0.29227406 0.05831844 0.346321 0.06029508 0.03240818 -0.01966791 -0.3724104 -0.28239587
-0.58997494 -0.090606816 -0.30377653 -0.021472547 0.5598581 0.25405505 -0.09681223 0.3066767
0.33221987 0.3053546 -0.0809888 0.29794854 0.14097118 -0.032892074 -0.075723894 -0.14140233
-0.27337906 -0.36077082 -0.032292582 -0.2847753 -0.18610059 0.2162029 -0.048033975 0.33787203
0.48196906 -0.017033463 0.36911407 0.15391639 -0.32611963 -0.055888522 0.037513893 0.041521728
0.08202469 -0.013699569 0.027520703 -0.19618283 -0.013070211 -0.08543013 -0.25080106 0.0060394956
0.18243617 0.24730268 0.032195643 0.21826093 0.1394396 0.15894412 0.0869869 0.009392557
-0.40395162 -0.16506185 -0.15510625 -0.15227602 0.068491034 0.19566558 -0.22976926 -0.6559405
-0.30889827 -0.41249433 0.088658445 0.31949553 0.02376381 0.25531894 0.7298586 -0.09964871
-0.27688143 0.21112785 -0.073012 -0.015215367 0.14549811 0.06162975 -0.03287864 0.046409644
-0.34398255 -0.12191314 0.09850369 -0.17922676 0.047080755 0.47124422 -0.41266793 -0.14197233
-0.028032316 0.025751317 -0.18346542 -0.47444654 -0.2849039 -0.17992736 -0.72188306 -0.03512791
0.078647405 0.123835154 0.22787535 0.019431435 -0.30668828 0.2632536 0.13594657 0.09118208
-0.35608676 -0.2135031 -0.51173097 0.108906195 0.30700013 0.10660636 -0.100023784 0.14256942
0.027618026 -0.33947524 0.050062917 -0.004065299 -0.12937026 -0.44131494 0.04344369 0.02904663
00000000: c3a6 93bd a503 3b3e 6f77 353d 8e32 b0bd
00000010: e301 8e3e 1a1c 0f3f 79ec 0dba a929 503e
00000020: fa23 573e d111 f53d 378a 67be 4766 37bc
00000030: dcbf 493d 45e4 6ebc fa93 113f b62e 86be
00000040: e227 83be e082 193e e60f 1bbf aef6 13bf
00000050: ec9c e8be 433c e2be d167 4bbe f328 61bf
00000060: e2e6 c43d 8fc0 153e 44f2 d03e 085c d23e
00000070: f3b1 123e e1b1 94be 520a 25be f369 29be
00000080: ac7e 41bf 69e6 113e aa0b 79bd 574e 42be
00000090: 2776 8d3e e24a 0c3e 9052 e23c 8818 703e
000000a0: b259 a63d 5304 46bc 1356 863d 0f65 33be
000000b0: abb7 d4bd 344b 3abe ba98 81be 1430 33be
000000c0: 5a1e 47bb 6ea3 fdbc 10f6 f23d 636e 403e
000000d0: 96e9 813d c583 303e b25a 963d f37e 02be
000000e0: 897e 59be 8a85 2c3e c6d2 b93c 6261 843c
000000f0: f0ed 3d3e 36c5 07be 1e15 823e 35e2 053e
00000100: 8841 8d3d 3431 4fbe 9303 2a3e 5f38 d43c
00000110: 08ec afbd 5207 9b3d 3a2f 8b3e f911 013d
00000120: 48bf e1bd 1b8b 3b3e f68f 873e 0b53 61be
00000130: 837f d33d 0a7a d23e 8ada f1be 84a6 71be
00000140: ec30 b43d 09a6 5ebe d102 32bf 4a37 b7be
00000150: 530d a4be da65 88be 4291 463e 9413 0dbc
00000160: 6cf1 133d 12d2 eb3e 762d 2ebe 15ab f0bd
00000170: 654f 753d 9510 f9bd 8f09 643e 1537 103e
00000180: 09a3 e2bd 8664 c4be 387f a4be 7878 01bf
00000190: ea2a 07be 8e7d 66be f1ea c0be 6ef5 993e
000001a0: 0afd af3d 216f aebe 5a5b cb3e b12a 5c3e
000001b0: 54f5 9fbe 796a 72be 619a 71be aab7 4d3e
000001c0: 9e8c a13e 4fa4 f13c 740c 89be a16b 3439
000001d0: 8ae4 c93e db06 723d 346f babd f29a 69bc
000001e0: ba97 203d caae 31be 3ebc a1be b666 e73d
000001f0: e002 48bd a50f eabe 7b56 f5be 332b e5be
00000200: e059 41be ca2e cdbc 6244 6abd 78b4 7e3e
00000210: 74e1 443e b0ae 843e d181 003f 08d4 6b3e
00000220: f2a4 95be 51df 6e3d fc50 b13e f9f7 763d
00000230: 71be 043d 991e a1bc 93ac bebe 3196 90be
00000240: 9908 17bf 1190 b9bd 9988 9bbe 32e7 afbc
00000250: dc52 0f3f 8113 823e 7e45 c6bd ba04 9d3e
00000260: b918 aa3e 7057 9c3e 75dd a5bd b68c 983e
00000270: c05a 103e d7b9 06bd 2115 9bbd c6cb 10be
00000280: 57f8 8bbe f4b6 b8be 3a45 04bd 11ce 91be
00000290: 2791 3ebe 4b64 5d3e 46bf 44bd 90fd ac3e
000002a0: a6c4 f63e c389 8bbc 85fc bc3e 429c 1d3e
000002b0: 27f9 a6be 5deb 64bd 2ba8 193d b012 2a3d
000002c0: 90fc a73d 2874 60bc 1973 e13c 27e4 48be
000002d0: 7024 56bc fef5 aebd ff68 80be f6e6 c53b
000002e0: 8cd0 3a3e ea3c 7d3e 94df 033d cb7f 5f3e
000002f0: 41c9 0e3e 3fc2 223e 3026 b23d 3de3 193c
00000300: bfd2 cebe f905 29be 2cd4 1ebe 3fee 1bbe
00000310: 0745 8c3d 8f5c 483e a248 6bbe b7eb 27bf
00000320: ea27 9ebe 7532 d3be 8f92 b53d eb94 a33e
00000330: 52ac c23c 2ab9 823e 03d8 3a3f 9f14 ccbd
00000340: 67c3 8dbe e631 583e 5187 95bd e049 79bc
00000350: 75fd 143e 7a6f 7c3d c1ab 06bd 0a18 3e3d
00000360: 7b1e b0be 99ad f9bd 4dbc c93d 3887 37be
00000370: c0d7 403d ec46 f13e 3649 d3be 3261 11be
00000380: 07a4 e5bc 6df4 d23c 5cde 3bbe a8ea f2be
00000390: edde 91be e13e 38be 54cd 38bf 49e2 0fbd
000003a0: e411 a13d 499d fd3d 2858 693e ac2e 9f3c
000003b0: 3f06 9dbe 2dc9 863e 9435 0b3e acbd ba3d
000003c0: 0151 b6be 8fa0 5abe cd00 03bf 360a df3d
000003d0: 1f2f 9d3e 6f54 da3d 45d9 ccbd b8fd 113e
000003e0: 333f e23c b3cf adbe c60e 4d3d 3336 85bb
000003f0: a379 04be 08f4 e1be 03f2 313d 33f3 ed3c

conv2.bias f4 [32]
0.09678759 0.14773187 0.12851322 0.14153785 0.06655971 0.091551915 -1.3812749 -0.035608895
0.37042904 -0.33488613 0.25980517 -0.14545643 -0.052309945 0.17589073 0.052190747 -0.09146808
-0.064573064 -0.17306302 -0.061566282 -0.101478115 -0.047485918 0.043607276 0.13170686 0.03464682
0.3197556 0.0036000288 0.0073315087 -0.1357027 -0.5690459 0.34246245 -0.044312812 0.38558778
00000000: 9238 c63d 0647 173e f898 033e 4cef 103e
00000010: 7550 883d 927f bb3d 9ecd b0bf a2da 11bd
00000020: e0a8 bd3e 3276 abbe 2f05 853e 88f2 14be
00000030: f442 56bd b31c 343e f7c5 553d 9e53 bbbd
00000040: e23e 84bd 6f37 31be ed2c 7cbd c2d3 cfbd
00000050: 9880 42bd 8b9d 323d 2ade 063e d3e9 0d3d
00000060: 02b7 a33e 76ee 6b3b 273d f03b a6f5 0abe
00000070: feac 11bf 3d57 af3e 5a81 35bd c36b c53e

batch2.weight f4 [32]
0.7992504 0.94879866 1.4722391 1.1067418 0.98424965 1.207446 1.212677 0.7017786
1.1393815 0.8733743 1.1884947 0.9010282 0.61854154 1.365013 1.059756 1.2428604
0.8248128 0.8768045 0.93265116 0.7834045 1.1639923 1.0461107 1.1751277 1.0822566
0.99169075 0.7265889 0.76487476 0.636052 1.1507196 0.9576413 0.922614 0.82114345
00000000: ad9b 4c3f 78e4 723f 5572 bc3f b7a9 8d3f
00000010: c9f7 7b3f 978d 9a3f 0039 9b3f c3a7 333f
00000020: 41d7 913f 7595 5f3f 9820 983f c9a9 663f
00000030: bd58 1e3f bfb8 ae3f 16a6 873f 0d16 9f3f
00000040: ef26 533f 4276 603f 3ac2 6e3f 338d 483f
00000050: b3fd 943f f5e6 853f 966a 963f 6287 8a3f
00000060: 72df 7d3f bb01 3a3f d5ce 433f 4ed4 223f
00000070: c84a 933f fb27 753f 6e30 6c3f 7536 523f

batch2.bias f4 [32]
-0.08899495 -0.51556563 -0.25701693 -0.5983558 -0.29433453 -0.62276036 -0.3735533 -0.19871993
-0.5066344 -0.31676644 -0.49552768 -0.34420255 0.014351786 -0.41801485 -0.41988882 -0.57478875
-0.37533945 -0.43971157 -0.47077262 0.0029244414 -0.4373471 -0.39155424 -0.5670731 -0.3525834
-0.52259934 -0.28614977 -0.20734052 -0.27428928 -0.15023106 -0.35024896 -0.32967252 -0.47848985
00000000: fc42 b6bd 1cfc 03bf b997 83be d92d 19bf
00000010: 04b3 96be 396d 1fbf 6142 bfbe 3d7d 4bbe
00000020: cbb2 01bf 362f a2be ceb5 fdbe 513b b0be
00000030: c123 6b3c 0b06 d6be abfb d6be 5b25 13bf
00000040: 7e2c c0be e021 e1be 1c09 f1be fca7 3f3b
00000050: f6eb dfbe cc79 c8be b42b 11bf d085 b4be
00000060: 12c9 05bf 3982 92be 1351 54be a56f 8cbe
00000070: 2cd6 19be d553 b3be d6ca a8be 9ffc f4be

conv3.weight f4 [32, 32, 3, 3]
0.39372998 0.5213959 0.10191947 -0.31664738 -0.0008697365 0.26210138 -0.4199537 -0.2510923
-0.04632102 0.13039267 0.061283864 -0.25798768 -0.18038046 -0.17602348 0.06657513 0.27671376
0.23202199 -0.34864897 0.07146547 0.009553793 -0.44753215 0.2767688 0.1357591 -0.20324862
0.1277937 0.06057608 -0.19344576 -0.22242479 -0.29213938 0.36667398 0.07507487 -0.15769729
0.47613323 -0.42468947 -0.106037065 0.31146446 0.2830478 0.4885685 0.08876647 0.00368678
0.14591664 -0.05547069 -0.06933063 -0.0046397015 -0.060432203 0.30139646 0.24013633 0.14692935
0.04725962 0.19963813 0.21744129 -0.45567608 0.0849663 -0.26384714 0.4087072 0.064272806
-0.26265287 0.20536537 -0.064098306 -0.029549345 0.29024526 0.39052945 0.11053882 -0.3458629
-0.380582 -0.62329 0.20109902 -0.251227 -0.3408332 -0.13342701 -0.122232854 0.011712695
0.18351182 -0.1514482 -0.31196213 0.019135328 0.009846828 0.22529386 0.07114894 0.014352792
0.22307588 -0.77385366 -0.08343105 0.3111861 -0.61864156 -0.26220593 0.2244207 -0.13580994
0.0031138351 0.12634593 -0.14273944 -0.60548586 0.32007018 -0.14324339 0.036144163 0.21591428
-0.09245991 -0.031991966 -0.020456353 0.033956975 0.041638978 0.2225952 0.22531712 -0.15879022
-0.14794843 0.12235261 0.2931279 -0.16805984 -0.07986895 -0.12053631 -0.4456958 -0.23869772
-0.10704352 -0.40865195 -0.25679603 0.031318564 -0.27646184 -0.15354812 -0.113432825 0.01582091
0.1882622 0.08138831 -0.2353417 -0.03265487 0.048999257 -0.48942193 -0.16696876 -0.28270608
-0.6574437 -0.05766565 -0.08239188 0.059084482 0.012574989 0.26099363 0.0015077231 0.30651742
-0.037453327 -0.17846124 0.18557632 -0.24265593 -0.57761276 -0.1193329 0.37082595 -0.28899112
0.17098603 -0.016499363 -0.614449 -0.039237246 -0.0141832 -0.020917892 -0.17935926 -0.16551739
-0.18240298 0.0015233797 -0.14949717 0.42027137 0.22599432 0.23430765 0.21927366 -0.13347638
0.15976332 0.20280482 0.025958369 0.1987921 0.31216043 -0.15062156 -0.17795692 -0.27396303
0.11524287 -0.49300158 -0.39844394 -0.27589336 0.012765355 0.066415176 -0.34876758 0.032102197
-0.25410178 -0.34054258 -0.28602794 -0.18095611 -0.090491615 0.07320929 0.34936407 0.25710663
0.03129724 0.141381 0.27769372 0.09064631 0.039594453 0.3417146 -0.023231765 0.046167962
0.27769268 -0.4177914 -0.31773722 -0.116288215 -0.021137228 0.10019384 0.2510287 0.034961052
-0.33643466 0.32425573 0.39870954 0.13126561 0.052971978 0.18143056 0.039872173 0.13186496
-0.0279845 -0.16452932 -0.37554294 -0.20050964 0.0142439995 -0.5955818 -0.059192464 0.2790954
0.18856004 -0.13310598 -1.0809114 0.14353399 -0.34332487 -0.27479964 -0.062484972 -0.38298684
-0.23992608 0.052064806 -0.21127322 -0.51356596 -0.32374275 -0.05703577 -0.5518192 0.016099242
0.33558995 0.26963097 0.30203 0.29259843 -0.29852074 0.5029426 0.270757 -0.47454196
0.47713226 0.09009975 -0.20891519 0.0140179405 -0.18527469 -0.10036198 0.25684848 0.22809532
-0.2557362 -0.0028902518 -0.27455163 -0.6342545 -0.08742763 -0.26414528 0.20361428 0.024880378
00000000: fa96 c93e 347a 053f 28bb d03d 9b1f a2be
00000010: 07ff 63ba 2732 863e 2c04 d7be 2c8f 80be
00000020: 1cbb 3dbd a885 053e ca04 7b3d f616 84be
00000030: a8b5 38be 803f 34be 8b58 883d 6dad 8d3e
00000040: 2c97 6d3e 1e82 b2be 7d5c 923d 8387 1c3c
00000050: ef22 e5be a4b4 8d3e 6f04 0b3e 6820 50be
00000060: 5adc 023e a01e 783d a516 46be 53c3 63be
00000070: 4b93 95be b1bc bb3e dac0 993d 667b 21be
00000080: bcc7 f33e e670 d9be f629 d9bd 4578 9f3e
00000090: a4eb 903e a725 fa3e 32cb b53d e89d 713b
000000a0: 2c6b 153e 3c35 63bd 38fd 8dbd a308 98bb
000000b0: c287 77bd a350 9a3e 4ce6 753e a674 163e
000000c0: 4e93 413d f06d 4c3e eea8 5e3e 604e e9be
000000d0: d002 ae3d f916 87be 1242 d13e 76a1 833d
000000e0: 707a 86be 4d4b 523e f945 83bd 7811 f2bc
000000f0: 079b 943e 7af3 c73e 2d62 e23d f114 b1be
00000100: a5db c2be ef8f 1fbf e7ec 4d3e d3a0 80be
00000110: b081 aebe 17a1 08be 3855 fabd 9ae6 3f3c
00000120: 86ea 3b3e 3d15 1bbe 80b9 9fbe b1c1 9c3c
00000130: 9754 213c 6fb3 663e 89b6 913d f927 6b3c
00000140: 016e 643e 461b 46bf e6dd aabd c953 9f3e
00000150: 4b5f 1ebf db3f 86be 8ace 653e c311 0bbe
00000160: 7c11 4c3b d460 013e 4a2a 12be 1f01 1bbf
00000170: 3de0 a33e 65ae 12be e70b 143d a218 5d3e
00000180: 9f5b bdbd 020a 03bd 1594 a7bc 7816 0b3d
00000190: a28d 2a3d ffef 633e 88b9 663e e799 22be
000001a0: cb7f 17be 0194 fa3d dc14 963e e117 2cbe
000001b0: 5592 a3bd bedb f6bd 3d32 e4be 2d6d 74be
000001c0: a239 dbbd d43a d1be c57a 83be e547 003d
000001d0: 688c 8dbe b83b 1dbe 784f e8bd da9a 813c
000001e0: cec7 403e eaae a63d 6afd 70be 1dc1 05bd
000001f0: 72b3 483d 8395 fabe dcf9 2abe dabe 90be
00000200: 3b4e 28bf d132 6cbd 13bd a8bd 9202 723d
00000210: 5407 4e3c f5a0 853e cb9e c53a daef 9c3e
00000220: a968 19bd 8bbe 36be b807 3e3e cc7a 78be
00000230: 6ede 13bf cf64 f4bd e6dc bd3e a5f6 93be
00000240: f616 2f3e ac29 87bc 884c 1dbf 3cb7 20bd
00000250: a760 68bc 005c abbc f4a9 37be 647d 29be
00000260: d9c7 3abe 24ac c73a c915 19be cf2d d73e
00000270: 0e6b 673e 58ee 6f3e 4689 603e 08ae 08be
00000280: ff98 233e 11ac 4f3e a5a6 d43c 2890 4b3e
00000290: 7ed3 9f3e 8a3c 1abe 573a 36be e244 8cbe
000002a0: 7404 ec3d b46a fcbe d800 ccbe e541 8dbe
000002b0: c825 513c ae04 883d aa91 b2be 987d 033d
000002c0: a119 82be 995b aebe 4172 92be 8f4c 39be
000002d0: ab53 b9bd c1ee 953d d9df b23e 7ba3 833e
000002e0: 8931 003d 2ec6 103e df2d 8e3e c6a4 b93d
000002f0: cb2d 223d 37f5 ae3e 8b50 bebc 9e1a 3d3d
00000300: bc2d 8e3e c1e8 d5be 74ae a2be 8428 eebd
00000310: fb27 adbc 6e32 cd3d d586 803e 5233 0f3d
00000320: 2a41 acbe d904 a63e a823 cc3e 7e6a 063e
00000330: 25f9 583d efc8 393e 0151 233d 9c07 073e
00000340: c03f e5bc 607a 28be 2a47 c0be 6652 4dbe
00000350: aa5f 693c 0d78 18bf cc73 72bd 98e5 8e3e
00000360: e215 413e ef4c 08be 4e5b 8abf 93fa 123e
00000370: 47c8 afbe 8ab2 8cbe 3ef0 7fbd da16 c4be
00000380: 2faf 75be e841 553d 0258 58be 0f79 03bf
00000390: 9cc1 a5be 579e 69bd 0644 0dbf 8fe2 833c
000003a0: 72d2 ab3e 120d 8a3e ada3 9a3e 76cf 953e
000003b0: b6d7 98be d9c0 003f a9a0 8a3e 2af7 f2be
000003c0: ae4a f43e 3886 b83d dded 55be 81ab 653c
000003d0: a6b8 3dbe 958a cdbd a581 833e d291 693e
000003e0: dbef 82be 616a 3dbb 0892 8cbe 815e 22bf
000003f0: 420d b3bd 0d3e 87be 4380 503e efd1 cb3c

conv3.bias f4 [32]
0.23324752 0.24325195 0.46210176 0.07965141 0.16061734 0.10052916 -1.7672981 0.26844293
-0.041463006 -0.40615812 0.09776891 -0.0016128691 0.5568532 0.37299332 0.053239387 0.44146234
0.65205145 0.14979579 0.28256962 0.59483147 0.5209614 -0.022056302 0.23144458 0.89380664
0.08148076 1.2771326 0.37167668 0.48142493 0.38583976 0.21785212 -0.28570014 -0.63125056
00000000: 70d8 6e3e 0a17 793e 9a98 ec3e 4720 a33d
00000010: df78 243e 3be2 cd3d d336 e2bf 5a71 893e
00000020: 1dd5 29bd f5f3 cfbe 113b c83d e866 d3ba
00000030: ee8d 0e3f fbf8 be3e 8b11 5a3d 5a07 e23e
00000040: d8ec 263f 1164 193e f7ac 903e e046 183f
00000050: ba5d 053f 6baf b4bc cfff 6c3e 83d0 643f
00000060: 62df a63d 1579 a33f 684c be3e 547d f63e
00000070: ca8c c53e a014 5f3e 4a47 92be a399 21bf

batch3.weight f4 [32]
0.75673586 0.85159296 0.9995849 0.9192226 0.7587254 0.8423894 1.3501668 0.7810892
1.1606199 1.1229994 0.7307928 0.7990632 0.9222554 1.1080678 0.58837897 0.79140127
0.9323577 0.900289 0.7297476 0.8666425 0.9040896 0.94527704 0.7229509 1.6848259
0.8086697 1.068137 0.9755866 0.9546219 0.7624797 0.73627645 1.0747899 1.0273714
00000000: 71b9 413f ff01 5a3f cce4 7f3f 2c52 6b3f
00000010: d43b 423f d5a6 573f 44d2 ac3f 76f5 473f
00000020: 318f 943f 72be 8f3f 3d15 3b3f 688f 4c3f
00000030: ee18 6c3f 2ad5 8d3f 01a0 163f 4699 4a3f
00000040: ffae 6e3f 5779 663f bdd0 3a3f 48dc 5d3f
00000050: 6b72 673f adfd 713f 4f13 393f 60a8 d73f
00000060: fa04 4f3f b7b8 883f 0bc0 793f 1a62 743f
00000070: df31 433f 9d7c 3c3f b792 893f e880 833f

batch3.bias f4 [32]
-0.2693287 -0.27046773 -0.41498566 -0.4299045 -0.25897768 -0.64040166 -0.7761217 -0.19569881
-0.8410516 -0.25150013 -0.50143087 -0.14136791 -0.2811983 -0.43305174 0.053198323 -0.32961366
-0.43914494 -0.31769717 -0.26005718 -0.33262727 -0.63699955 -0.3936662 -0.20997716 -0.97336787
-0.5400154 -0.6086293 -0.28128776 -0.57790375 -0.09711696 -0.27385548 -0.23521924 -0.98490477
00000000: 74e5 89be bf7a 8abe 0079 d4be 711c dcbe
00000010: b998 84be 5df1 23bf e9af 46bf 4565 48be
00000020: 284f 57bf a0c4 80be c65d 00bf c0c2 10be
00000030: 39f9 8fbe f5b8 ddbe 7ce6 593d 1fc3 a8be
00000040: 9bd7 e0be 34a9 a2be 3726 85be 1f4e aabe
00000050: 6712 23bf 9e8e c9be 4104 57be a32e 79bf
00000060: 733e 0abf 21cf 1bbf f304 90be 80f1 13bf
00000070: 42e5 c6bd c936 8cbe 50dd 70be b822 7cbf

conv4.weight f4 [32, 32, 3, 3]
-0.122763336 0.008107727 -0.00078494 -0.112185545 -0.05314777 -0.039863747 -0.09034121 -0.15625799
0.108415134 0.08533771 0.07414157 0.09041775 -0.02850997 -0.101237886 0.009723605 0.047868308
-0.028295673 -0.025738025 0.09530285 0.018647006 0.054886885 0.043347463 0.014153019 0.056582015
0.008775677 -0.060048386 -0.028930247 -0.16480854 -0.012192582 -0.04759219 -0.11903292 0.01776695
-0.08134786 -0.16477266 -0.016426343 0.054925792 0.0036750387 0.11971489 0.08225441 0.10200274
0.15208887 0.06039477 0.14956635 0.072966866 0.01413612 0.10518743 0.008804305 0.076556034
0.13683623 -0.03930843 0.014892741 0.11605656 0.09092927 0.028418647 -0.00208067 0.061602175
0.015979877 0.059567973 -0.06232216 0.018179914 -0.21374878 0.035828214 0.05427482 0.06412182
-0.00707294 0.026330639 0.14988875 -0.033516128 -0.018351201 0.0251784 0.014030173 0.053664148
-0.1364923 0.10578712 0.055712882 -0.2126152 -0.114917904 0.09840438 -0.19049868 -0.03795521
-0.057935525 -0.41838843 0.0057492163 -0.0060120425 -0.37024245 0.0011025028 0.008943848 -0.3963028
0.04295582 0.10931114 0.0041874265 0.023562746 0.092736885 0.017266912 0.033623405 0.11816467
-0.043486618 0.008193083 0.14218552 -0.09704822 0.04401917 0.049373657 -0.04444731 -0.07830876
-0.027252942 -0.06170933 0.039374683 0.086165756 0.07154024 0.035669826 0.005797913 0.002238257
0.010574207 -0.034805443 0.08525836 0.01240827 0.09178729 0.046070028 0.1302769 0.016921312
0.15508503 0.13900329 0.0016756008 0.16673179 0.09480218 0.009645851 0.112792194 0.07721184
0.025275107 0.10884533 0.047200933 -0.026284426 0.16264437 0.06472989 0.14989178 0.03850787
0.045973953 0.056469347 0.059414644 -0.058044326 0.06525015 0.008518984 0.031200778 0.035120584
0.024698373 0.02877792 -0.09610262 0.077689946 -0.030198969 -0.016922697 0.06860462 0.0606158
-0.0054495255 -0.18843146 0.04729842 0.0039743343 -0.054219272 0.010182061 -0.040753834 -0.16401905
0.053301927 0.058989987 0.15908687 0.058397386 0.0719148 0.100461096 0.07105933 0.059840642
0.15605843 0.07270871 0.08260074 0.13422449 0.07789824 0.1024679 0.102086894 0.11605418
0.0009530466 0.10171475 0.030365493 0.02411217 0.11047201 -0.030111466 0.07388129 0.1540622
0.07540432 0.056317203 0.15960963 0.16151954 0.006005407 -0.021757314 -0.08113857 0.047966454
0.05111079 -0.113832206 0.05681383 -0.10582991 0.054765284 0.12804885 -0.061972752 0.005573459
0.0052807108 -0.029905237 0.075054124 -0.018047318 0.0296301 -0.049567338 0.04213395 -0.44199052
-0.064326935 -0.014179139 -0.44389912 -0.08427408 0.13044195 -0.4209484 -0.092866346 0.047762256
0.036119673 0.026201015 0.047779314 0.05046448 -0.0682798 -0.053838354 0.048057526 -0.098446615
0.03074318 0.0877787 0.08125571 0.1123285 0.13498357 -0.03360486 0.12880288 0.06565768
0.03927144 0.0077987243 -0.25755262 0.105001144 0.08724461 -0.19022048 0.12191074 0.023114933
-0.24019545 -0.013867838 0.025473285 0.120389484 -0.035964318 -0.0300278 0.056616865 0.011780274
-0.055856153 0.08459425 0.04825367 0.05064345 -0.051130112 -0.063770525 0.04336776 0.07327718
00000000: 586b fbbd 46d6 043c 6fc4 4dba 89c1 e5bd
00000010: 7ab1 59bd 2b48 23bd d004 b9bd 1802 20be
00000020: c108 de3d 8ac5 ae3d 89d7 973d f12c b93d
00000030: be8d e9bc cf55 cfbd c14f 1f3c 8f11 443d
00000040: 54cc e7bc 8dd8 d2bc 242e c33d 9bc1 983c
00000050: 12d1 603d 1c8d 313d 10e2 673c 8bc2 673d
00000060: dbc7 0f3c 4cf5 75bd 20ff ecbc 92c3 28be
00000070: 65c3 47bc 07f0 42bd 88c7 f3bd ff8b 913c
00000080: b599 a6bd 2aba 28be 8a90 86bc def9 603d
00000090: ebd8 703b 152d f53d 0075 a83d d0e6 d03d
000000a0: 2fbd 1b3e 8260 773d ec27 193e a76f 953d
000000b0: 2f9b 673c 826c d73d ef3f 103c 69c9 9c3d
000000c0: cc1e 0c3e e001 21bd af00 743c 10af ed3d
000000d0: 2039 ba3d 39ce e83c da5b 08bb 9052 7c3d
000000e0: 3be8 823c 8cfd 733d 8545 7fbd 0bee 943c
000000f0: f6e0 5abe 9bc0 123d 464f 5e3d 4d52 833d
00000100: 1fc4 e7bb 5ab3 d73c 707c 193e 3548 09bd
00000110: 4255 96bc ef42 ce3c d0de 653c f0ce 5b3d
00000120: a3c4 0bbe eba6 d83d 3133 643d cdb7 59be
00000130: 145a ebbd 3c88 c93d 1612 43be ec76 1bbd
00000140: cd4d 6dbd 0237 d6be ec63 bc3b ab00 c5bb
00000150: 6b90 bdbe db81 903a 3889 123c 33e8 cabe
00000160: 71f2 2f3d 85de df3d ae36 893b a906 c13c
00000170: d6ec bd3d 5773 8d3c b2b8 093d 5200 f23d
00000180: 061f 32bd 483c 063c 1599 113e 38c1 c6bd
00000190: 724d 343d 083c 4a3d 620e 36bd 5860 a0bd
000001a0: 9041 dfbc ecc2 7cbd 5947 213d ac77 b03d
000001b0: b083 923d 861a 123d 6bfc bd3b b9af 123b
000001c0: 703f 2d3c 2790 0ebd ef9b ae3d 0e4c 4b3c
000001d0: fafa bb3d edb3 3c3d 4f67 053e 909e 8a3c
000001e0: 9cce 1e3e e156 0e3e d59f db3a bdbb 2a3e
000001f0: a527 c23d a209 1e3c 98ff e63d 3e21 9e3d
00000200: be0d cf3c 4dea de3d c455 413d 7052 d7bc
00000210: 3f8c 263e 1b91 843d 3b7d 193e 6eba 1d3d
00000220: 2f4f 3c3d 674c 673d c55c 733d e3bf 6dbd
00000230: dfa1 853d 3593 0b3c c698 ff3c 9ada 0f3d
00000240: 3e54 ca3c acbf eb3c 73d1 c4bd e81b 9f3d
00000250: d463 f7bc 78a1 8abc 9480 8c3d 4648 783d
00000260: ef91 b2bb 2df4 40be fdbb 413d 223b 823b
00000270: 0715 5ebd a9d2 263c 7eed 26bd 9cf4 27be
00000280: 1f53 5a3d 7c9f 713d abe7 223e 1932 6f3d
00000290: 1148 933d 8cbe cd3d 8e87 913d 761b 753d
000002a0: c8cd 1f3e 4ee8 943d 942a a93d 2572 093e
000002b0: 1d89 9f3d b1da d13d ef12 d13d d0ad ed3d
000002c0: e0d5 793a d34f d03d 0ec1 f83c e386 c53c
000002d0: 263f e23d 52ac f6bc 134f 973d 7bc2 1d3e
000002e0: 956d 9a3d deac 663d b570 233e 6165 253e
000002f0: 01c9 c43b 653c b2bc fb2b a6bd 7978 443d
00000300: 8c59 513d dc20 e9bd 9eb5 683d 5abd d8bd
00000310: 9051 603d 3d1f 033e 24d7 7dbd 90a1 b63b
00000320: d009 ad3b d4fb f4bc fab5 993d f8d7 93bc
00000330: d3ba f23c 1f07 4bbd a694 2c3d 954c e2be
00000340: d7bd 83bd 9f4f 68bc bf46 e3be e497 acbd
00000350: 9392 053e 8c86 d7be b630 bebd 5ba2 433d
00000360: 39f2 133d 83a3 d63c 3eb4 433d d8b3 4e3d
00000370: 48d6 8bbd 9b85 5cbd f8d7 443d 619e c9bd
00000380: 1fd9 fb3c 52c5 b33d 6569 a63d 7c0c e63d
00000390: 2239 0a3e 40a5 09bd e7e4 033e 8977 863d
000003a0: 17db 203d 718c ff3b f0dd 83be d70a d73d
000003b0: 4dad b23d 28c9 42be 57ac f93d 875b bd3c
000003c0: ccf5 75be ee35 63bc 5aad d03c c38e f63d
000003d0: 524f 13bd dcfc f5bc 16e7 673d 0d02 413c
000003e0: 6cc9 64bd c03f ad3d a4a5 453d 826f 4f3d
000003f0: cf6d 51bd 1f9a 82bd 64a2 313d 5912 963d

conv4.bias f4 [32]
-0.015463518 0.8532772 0.030949239 0.011345073 0.36379585 -0.01181196 0.3066426 -0.03464027
-0.016045341 0.017821126 0.44394726 0.21669807 0.31493178 0.41566682 0.14767303 0.0853502
0.38982627 -0.0040005064 0.01509273 0.04795358 0.34423912 0.20071796 0.073388174 -0.03797589
0.052472886 0.7898557 -0.050058644 0.050494444 0.04946324 0.030116929 0.4080587 0.02636854
00000000: b25a 7dbc 6070 5a3f 4289 fd3c afe0 393c
00000010: 7343 ba3e f386 41bc 4200 9d3e f5e2 0dbd
00000020: 8571 83bc 9cfd 913c 0e4d e33e 19e6 5d3e
00000030: bd3e a13e 48d2 d43e 9937 173e 16cc ae3d
00000040: 4f97 c73e ae16 83bb 7f47 773c f96a 443d
00000050: 1c40 b03e 0289 4d3e 8a4c 963d 9b8c 1bbd
00000060: cfed 563d fc33 4a3f 4b0a 4dbd 43d3 4e3d
00000070: f799 4a3d c7b7 f63c 12ed d03e d602 d83c

batch4.weight f4 [32]
0.3158135 5.567426 0.87475497 0.36271524 4.017156 0.42104927 3.8663998 0.38095328
0.45251966 1.0837895 4.742043 3.0927532 3.0997102 4.2040415 3.12819 1.7481489
4.84659 0.31007636 0.36480266 0.2912313 3.5364742 3.6543524 3.1318684 0.38109002
0.815419 3.0380902 0.4257271 0.7463114 0.3865289 1.4347155 3.936602 0.9915197
00000000: 4fb2 a13e 5b28 b240 f1ef 5f3f d0b5 b93e
00000010: 8b8c 8040 c593 d73e 1873 7740 4f0c c33e
00000020: a8b0 e73e 9db9 8a3f d1be 9740 abef 4540
00000030: a761 4640 8287 8640 4434 4840 58c3 df3f
00000040: 4417 9b40 54c2 9e3e 6ac7 ba3e 451c 953e
00000050: 9855 6240 e9e0 6940 8870 4840 3b1e c33e
00000060: 4dbf 503f 1270 4240 e7f8 d93e 440e 3f3f
00000070: 1ee7 c53e c2a4 b73f 4af1 7b40 3cd4 7d3f

batch4.bias f4 [32]
-0.6765487 -4.0786576 -1.2723172 -0.6260281 -2.4786484 -0.7975407 -3.1774032 -0.67789406
-0.79771835 -1.4934323 -2.9838946 -1.9297459 -2.4522614 -2.848216 -2.1912286 -1.8991612
-2.2543206 -0.6744204 -0.6861446 -0.67059267 -2.6167455 -2.051302 -1.6779854 -0.7193779
-1.3370672 -1.2013714 -0.84537464 -1.082874 -0.72243994 -2.0918694 -3.5718913 -1.5500993
00000000: 4c32 2dbf 5d84 82c0 4adb a2bf 6143 20bf
00000010: 2da2 1ec0 a12b 4cbf 935a 4bc0 778a 2dbf
00000020: 4537 4cbf ca28 bfbf 21f8 3ec0 ea01 f7bf
00000030: daf1 1cc0 2c49 36c0 173d 0cc0 b717 f3bf
00000040: ca46 10c0 d1a6 2cbf 2ca7 2fbf f6ab 2bbf
00000050: c278 27c0 8848 03c0 3ac8 d6bf 2629 38bf
00000060: 0525 abbf 8ac6 99bf 796a 58bf 9d9b 8abf
00000070: d3f1 38bf 30e1 05c0 de99 64c0 a769 c6bf

lin1.weight f4 [5, 800]
-0.0354283 0.008899989 -0.01763165 -0.0097636515 -0.008443481 -0.025632113 -0.01271312 0.019862259
0.006063467 -0.024967445 -0.13685352 -0.01647267 0.043184485 -0.061277553 -0.026542474 0.007208962
-0.07349108 0.011489115 -0.050723124 -0.004605241 -0.0155743025 0.029634083 -0.020440111 0.01072745
0.0045595723 -0.010532321 -0.019967897 -0.0022279215 -0.0024146326 0.004501041 -0.01098735 -0.004322113
-0.0021121546 -0.007970658 0.015678095 0.009950117 -0.0038812938 -0.009991463 0.011013607 -0.0024007992
-0.015406942 -0.006212048 -0.013727822 -0.01772138 -0.010703139 0.006191509 0.0016302513 -0.002517651
-0.010586802 -0.004135331 0.044030774 0.02318608 0.04954278 0.039312385 0.025743438 0.025739767
-0.2068027 -0.19987984 -0.2048498 0.07550487 -0.24905522 -0.15540557 -0.08018427 -0.11571051
-0.08665121 -0.22953992 0.0011914708 -0.15935582 -0.12019847 0.0075370935 -0.05151424 -0.15480946
-0.14849164 -0.16640234 -0.13141666 -0.04662506 0.005661966 -0.0076183933 0.009799536 0.010279574
-0.021462558 -0.063797355 -0.013890916 -0.06675894 -0.091703705 0.036042333 0.0065059103 0.058025856
-0.025252758 -0.11272308 -0.033087134 -0.023792863 0.0020387555 0.021819048 -0.0072551533 0.010108427
-0.0031492994 -0.021130385 0.01614406 0.054136753 -0.0012604833 -0.010811599 0.00012210244 -0.011703975
0.01974639 0.0072638346 0.0038133755 -0.016623303 -0.0030851644 -0.022308461 0.01765557 -0.00613426
-0.015291198 -0.0058137234 -0.007307113 0.00895325 -0.018354077 -0.0017791603 0.0027754828 -0.016864063
-0.0049985982 -0.009675463 -0.0049542156 -0.011120038 -0.025280455 0.027812963 -0.013149811 -0.07696177
-0.0218048 -0.0074042194 -0.03420829 -0.14218614 0.021864858 -0.08615105 -0.02508427 -0.00289564
-0.041707452 -0.0029206935 -0.057986036 -0.119097486 0.007349375 0.025413044 0.12009108 -0.041237902
-0.055374395 0.018741352 0.04561464 0.054244667 -0.030424936 -0.03805661 0.007916498 -0.009933024
0.018515555 0.0036224136 0.03930373 0.008191884 -0.0059982487 0.0009641336 0.008423335 -0.00040197035
0.009433818 -0.006698587 -0.0055846996 -0.0068854624 -0.013780874 -0.003988641 -0.004335099 0.006024523
-0.011193935 0.009849077 0.03750864 -0.008435181 0.0145003535 -0.004939112 -0.0020854292 -0.025233494
-0.001259834 -0.010408623 0.0097483 -0.012051547 0.0032168247 0.0046859644 0.005834628 0.0031661082
-0.017347932 -0.013758895 0.024360405 -0.006425264 0.010190309 0.013864061 0.027366355 0.0039736936
-0.023409095 -0.017386395 0.0113539 -0.0084709255 -0.0049335873 0.011568228 0.002631448 -0.0048161345
-0.031343848 -0.0031270834 -0.008943084 -0.005082879 -0.04222503 0.034030247 -0.0006645138 0.0048657665
-0.006255031 -0.0064980993 0.053210907 0.024624653 -0.016773114 -0.015684446 0.005865977 -0.04748873
0.04845935 -0.0005336518 0.015667308 0.049331874 -0.035724316 -0.0014725906 -0.009586784 0.014572126
-0.00911301 0.063080326 0.11583123 -0.14334287 -0.2930054 -0.025432725 0.0406482 -0.008006928
0.009992507 0.017039819 -0.06060315 -0.0906901 -0.1353411 0.13388464 -0.17901094 -0.14343822
0.05769607 -0.04680373 0.06571608 -0.19959086 -0.04815594 -0.001452142 -0.044288516 -0.012391788
-0.14448619 0.062181946 -0.004635945 0.016221534 -0.008029636 -0.0042796936 -0.016803337 0.009086795
00000000: 441d 11bd 42d1 113c 4070 90bc b9f7 1fbc
00000010: 8756 0abc 70fa d1bc b14a 50bc 2db6 a23c
00000020: 0cb0 c63b 8788 ccbc 5423 0cbe b1f1 86bc
00000030: 37e2 303d 2cfe 7abd 9a6f d9bc 2839 ec3b
00000040: 7e82 96bd d73c 3c3c 0dc3 4fbd 90e7 96bb
00000050: 5c2b 7fbc 2dc3 f23c 0572 a7bc 30c2 2f3c
00000060: 7768 953b c28f 2cbc b793 a3bc 5202 12bb
00000070: d03e 1ebb 787d 933b 4904 34bc 83a0 8dbb
00000080: 136c 0abb 5d97 02bc 596f 803c d105 233c
00000090: 4e5d 7ebb 3cb3 23bc 6a72 343c ba56 1dbb
000000a0: 666d 7cbc 708e cbbb a9ea 60bc 6d2c 91bc
000000b0: 385c 2fbc 24e2 ca3b 28ae d53a 2dff 24bb
000000c0: 4474 2dbc ac81 87bb 9d59 343d bcf0 bd3c
000000d0: 5fed 4a3d 0606 213d e7e3 d23c 34dc d23c
000000e0: 16c4 53be 4dad 4cbe 25c4 51be 4ca2 9a3d
000000f0: 5508 7fbe a322 1fbe a737 a4bd a2f9 ecbd
00000100: 3176 b1bd 830c 6bbe 202b 9c3a 2c2e 23be
00000110: 9e2a f6bd b9f9 f63b 9900 53bd 5f86 1ebe
00000120: 310e 18be 6065 2abe 1792 06be ebf9 3ebd
00000130: 0388 b93b b7a3 f9bb 3c8e 203c a96b 283c
00000140: 3fd2 afbc 30a8 82bd b996 63bc e9b8 88bd
00000150: 27cf bbbd 20a1 133d 882f d53b 85ac 6d3d
00000160: dfde cebc 5cdb e6bd 6086 07bd 40e9 c2bc
00000170: a49c 053b dcbd b23c a3bc edbb d19d 253c
00000180: 7a64 4ebb a119 adbc 8c40 843c 80be 5d3d
00000190: cd36 a5ba 2223 31bc a008 0039 07c2 3fbc
000001a0: 2ec3 a13c 7605 ee3b d3e9 793b 982d 88bc
000001b0: 7830 4abb 3cc0 b6bc 6aa2 903c e701 c9bb
000001c0: ef87 7abc 0c81 bebb 8270 efbb a7b0 123c
000001d0: 4a5b 96bc b732 e9ba e0e4 353b 8126 8abc
000001e0: 48cb a3bb d585 1ebc f956 a2bb d230 36bc
000001f0: f518 cfbc 03d8 e33c 4e72 57bc 229e 9dbd
00000200: fb9f b2bc 189f f2bb fe1d 0cbd 3e99 11be
00000210: ee1d b33c f66f b0bd 877d cdbc c7c4 3dbb
00000220: 6fd5 2abd 1b69 3fbb c482 6dbd 62e9 f3bd
00000230: 07d3 f03b 042f d03c 50f2 f53d 13e9 28bd
00000240: 43d0 62bd 7787 993c 6bd6 3a3d a82f 5e3d
00000250: b73d f9bc 3fe1 1bbd 33b4 013c 1fbe 22bc
00000260: efad 973c 0466 6d3b f3fc 203d 4037 063c
00000270: f58c c4bb e9bd 7c3a 0702 0a3c 8cbf d2b9
00000280: 4d90 1a3c d27f dbbb dbff b6bb 729f e1bb
00000290: 2dc9 61bc 25b3 82bb 720d 8ebb 5d69 c53b
000002a0: c466 37bc 065e 213c a9a2 193d b733 0abc
000002b0: e492 6d3c 46d8 a1bb b2ab 08bb 79b6 cebc
000002c0: 0421 a5ba ee88 2abc 55b7 1f3c da73 45bc
000002d0: 5dd1 523b b88c 993b 6830 bf3b 7b7e 4f3b
000002e0: 401d 8ebc fd6c 61bc 798f c73c 058b d2bb
000002f0: 41f5 263c 1626 633c 682f e03c c235 823b
00000300: 6ec4 bfbc ea6d 8ebc b505 3a3c a3c9 0abc
00000310: eea9 a1bb aa88 3d3c 5f74 2c3b aad0 9dbb
00000320: 6862 00bd c1ef 4cbb 0386 12bc 488e a6bb
00000330: 27f4 2cbd 4d63 0b3d c432 2eba 0271 9f3b
00000340: 01f7 ccbb 02ee d4bb aef3 593d a4b9 c93c
00000350: c567 89bc ab7c 80bc 6237 c03b 8b83 42bd
00000360: 507d 463d c4e4 0bba ba58 803c 3810 4a3d
00000370: a953 12bd f103 c1ba e311 1dbc edbf 6e3c
00000380: bc4e 15bc 4230 813d ed38 ed3d 79c8 12be
00000390: ce04 96be 4a58 d0bc ba7e 263d 7d2f 03bc
000003a0: 9db7 233c 1797 8b3c 023b 78bd bbbb b9bd
000003b0: db96 0abe 0e19 093e a54e 37be 78e1 12be
000003c0: b752 6c3d 45b5 3fbd 2796 863d 8c61 4cbe
000003d0: 2a3f 45bd cd55 beba e067 35bd ed06 4bbc
000003e0: 30f4 13be 7fb2 7e3d 20e9 97bb 06e3 843c
000003f0: bc8e 03bc ac3c 8cbb 27a7 89bc c8e0 143c

lin1.bias f4 [5]
-0.020066265 -0.040203705 0.020220269 -0.030950999 -0.01824045
00000000: 0262 a4bc a4ac 24bd faa4 a53c f38c fdbc
00000010: ff6c 95bc

exp_avg f4 [32, 3, 3, 3]
0.007969367 0.008154275 0.0073602987 0.0072452202 0.0073542804 0.0068853633 0.006867639 0.0071018194
0.0064423108 0.005842665 0.007924908 0.0071039074 0.004945128 0.0067780963 0.006440154 0.0048572095
0.0065767053 0.0063698636 0.0016026921 0.004623396 0.0037328117 0.0007162875 0.002908763 0.002034447
1.7489847e-05 0.0020101492 0.0013739466 0.0044155275 0.0011935568 0.0012218724 0.0036210031 0.0009636821
0.0007972113 0.0016293861 -0.0007572668 -0.0012455267 0.0046271808 0.001663395 0.0016488157 0.0033712857
0.00095100095 0.000993815 0.0010173933 -0.00077772303 -0.0007500777 0.0035570937 0.00046944158 0.00043581377
0.003134245 0.00043667285 0.00021843417 0.0010383794 -0.0008396902 -0.0012477384 -0.008685494 -0.008941189
-0.008450409 -0.008591905 -0.008591198 -0.00822922 -0.007213323 -0.006676095 -0.007810912 -0.0018318216
-0.0016003188 -0.001032572 -0.0011244353 -0.0008218363 -0.0004279489 -0.00023451693 -7.380335e-05 -0.0010284199
0.0016150324 0.0019081305 0.0022944778 0.0023914212 0.0028040316 0.0030085372 0.003858147 0.0040809116
0.0031952895 -0.03000217 -0.031151678 -0.031148173 -0.032000832 -0.03090674 -0.031160897 -0.03166514
-0.031438146 -0.031535387 -0.023080517 -0.023753157 -0.022619339 -0.02450855 -0.023668177 -0.022772908
-0.024322223 -0.024729207 -0.023999145 -0.016926799 -0.018427245 -0.017979791 -0.018193224 -0.017691197
-0.017477745 -0.01879514 -0.019764757 -0.01943831 -0.0010592329 -0.00092429016 -0.001552603 -0.00060397555
-0.0007532689 -0.0011636334 -0.0010845193 -0.0012292343 -0.001465908 -0.0006020438 -0.0003574289 -0.0006350454
-0.00040801964 -0.00050164305 -0.00065896835 -0.0010380226 -0.0010946547 -0.0010235539 0.00012255531 7.777148e-05
-0.0001643796 0.00053186755 1.805586e-05 -5.0192382e-05 -0.0001986517 -0.00062284525 -0.00026581492 0.0046258625
0.0046547726 0.005529473 0.005948428 0.0053458284 0.004604415 0.004490101 0.005095221 0.0043541584
0.0021375234 0.0020779658 0.0031504398 0.0036958256 0.003140316 0.0023129822 0.0023494107 0.0033248495
0.0029489023 0.0016417708 0.0021812876 0.0028618032 0.0027397443 0.0029970955 0.0017963399 -0.00017130825
0.0021057955 0.0014597784 -0.0050853062 -0.0043955967 -0.0017692655 -0.007080993 -0.0054983147 -0.0031419636
-0.0068341447 -0.005186845 -0.0019810044 -0.007905313 -0.006293275 -0.0036851577 -0.0074070296 -0.0052546826
-0.0030872598 -0.00652174 -0.004073793 -0.0010548152 -0.011072966 -0.009421905 -0.008344401 -0.009597616
-0.008668233 -0.0077580884 -0.008382877 -0.0074279374 -0.005496075 -0.0139281135 -0.015679313 -0.019552138
-0.014310327 -0.015506992 -0.019339647 -0.014447612 -0.015696999 -0.017916294 -0.0102149835 -0.012271906
-0.013684057 -0.008974437 -0.010912373 -0.012896785 -0.008094975 -0.010930674 -0.012539642 -0.010359204
-0.012132699 -0.014060537 -0.009016847 -0.0110798245 -0.013165916 -0.009035771 -0.012837418 -0.014222285
0.012675087 0.012997905 0.013715996 0.009601605 0.011000344 0.011332248 0.0074875527 0.009277983
0.009072029 0.010990969 0.012835015 0.013907881 0.008383291 0.010816704 0.011670325 0.0073062545
0.009541935 0.009977523 0.010974026 0.012156837 0.013494098 0.008710993 0.010703762 0.011725027
0.007833972 0.009735298 0.010743687 0.0139754405 0.014608987 0.014866424 0.014256624 0.015290956
0.016200803 0.013816032 0.014741795 0.015586809 0.01376126 0.015088788 0.014981564 0.014078506
00000000: f391 023c 8299 053c a92e f13b 5069 ed3b
00000010: 2dfc f03b 9d9e e13b ee09 e13b 61b6 e83b
00000020: 051a d33b d473 bf3b 79d7 013c e5c7 e83b
00000030: be0a a23b cb1a de3b ed07 d33b 3a29 9f3b
00000040: 6781 d73b 4aba d03b 6c11 d23a db7f 973b
00000050: 30a2 743b 3ec5 3b3a f2a0 3e3b 5b54 053b
00000060: 29b7 9237 b5bc 033b ff15 b43a 21b0 903b
00000070: 1f71 9c3a 3c27 a03a 5a4e 6d3b 9c9f 7c3a
00000080: f2fb 503a 2091 d53a 5183 46ba f140 a3ba
00000090: 9b9f 973b 4606 da3a 131d d83a caf0 5c3b
000000a0: 984c 793a e642 823a 0e5a 853a 1ce0 4bba
000000b0: dda0 44ba 211e 693b 621f f639 ef7d e439
000000c0: e867 4d3b 3df1 e439 7a0b 6539 3b1a 883a
000000d0: a81e 5cba 278b a3ba 9a4d 0ebc 117e 12bc
000000e0: 9673 0abc 10c5 0cbc 19c2 0cbc dad3 06bc
000000f0: bd5d ecbb 25c3 dabb aef2 ffbb bc19 f0ba
00000100: cac1 d1ba 5e57 87ba ca61 93ba 8070 57ba
00000110: 545e e0b9 a9e8 75b9 dfc6 9ab8 0ccc 86ba
00000120: 7faf d33a 3c1a fa3a f35e 163b 64b9 1c3b
00000130: d8c3 373b e12a 453b f7d8 7c3b 2bb9 853b
00000140: 1068 513b 1cc7 f5bc ce31 ffbc 742a ffbc
00000150: 4e13 03bd 2230 fdbc 2345 ffbc 4eb3 01bd
00000160: 49c5 00bd 402b 01bd 5a13 bdbc fb95 c2bc
00000170: 314c b9bc 28c6 c8bc c4e3 c1bc 408e babc
00000180: 663f c7bc e894 cabc db99 c4bc 12aa 8abc
00000190: bcf4 96bc 5b4a 93bc f509 95bc 21ed 90bc
000001a0: 7d2d 8fbc 44f8 99bc b3e9 a1bc 173d 9fbc
000001b0: f5d5 8aba 104c 72ba b680 cbba 1d54 1eba
000001c0: 0577 45ba 0f85 98ba 6e26 8eba 421e a1ba
000001d0: b623 c0ba 7ad2 1dba 4b65 bbb9 2d79 26ba
000001e0: 78eb d5b9 b280 03ba 9ebe 2cba 420e 88ba
000001f0: 847a 8fba c528 86ba 3182 0039 3f19 a338
00000200: 505d 2cb9 076d 0b3a aa76 9737 a985 52b8
00000210: 294d 50b9 7046 23ba 135d 8bb9 8c94 973b
00000220: 1087 983b 9530 b53b 08eb c23b 0f2c af3b
00000230: a2e0 963b b221 933b d0f5 a63b 54ad 8e3b
00000240: b115 0c3b 7b2e 083b 9c77 4e3b aa35 723b
00000250: c3cd 4d3b 6795 173b 92f8 193b b8e5 593b
00000260: 5f42 413b b030 d73a eff3 0e3b 178d 3b3b
00000270: 488d 333b eb6a 443b 2a73 eb3a 35a1 33b9
00000280: 6301 0a3b 0956 bf3a a4a2 a6bb f008 90bb
00000290: b3e6 e7ba ad07 e8bb 352b b4bb 67e9 4dbb
000002a0: f6f0 dfbb 69f6 a9bb bdd3 01bb 4985 01bc
000002b0: d137 cebb b082 71bb abb6 f2bb 792f acbb
000002c0: a053 4abb 52b4 d5bb 747d 85bb ba41 8aba
000002d0: 636b 35bc 555e 1abc f4b6 08bc 523f 1dbc
000002e0: 3405 0ebc 9037 febb 5658 09bc 0e66 f3bb
000002f0: 6b18 b4bb be32 64bc e771 80bc ce2b a0bc
00000300: dd75 6abc 0a11 7ebc 2e6e 9ebc adb5 6cbc
00000310: fe96 80bc 31c5 92bc bf5c 27bc 1b10 49bc
00000320: 1833 60bc 8409 13bc cfc9 32bc 094d 53bc
00000330: c9a0 04bc 9216 33bc 1273 4dbc a7b9 29bc
00000340: 3ac8 46bc 2b5e 66bc 66bb 13bc 2788 35bc
00000350: dbb5 57bc c50a 14bc 0954 52bc 9604 69bc
00000360: 2bab 4f3c 2af5 543c 0fb9 603c 0d50 1d3c
00000370: c93a 343c e5aa 393c 255a f53b ae02 183c
00000380: d9a2 143c 7713 343c f449 523c e2dd 633c
00000390: 125a 093c 8b38 313c e434 3f3c 4e69 ef3b
000003a0: c755 1c3c c478 233c 67cc 333c 782d 473c
000003b0: 5916 5d3c 8eb8 0e3c d55e 2f3c 541a 403c
000003c0: 0f5a 003c cd80 1f3c 4a06 303c 3ff9 643c
000003d0: 885a 6f3c 4d92 733c 9d94 693c eb86 7a3c
000003e0: 8cb7 843c a35c 623c 9287 713c d15f 7f3c
000003f0: e876 613c f736 773c 3c75 753c 89a9 663c
