results_auto/01_domain_adaptation/maml_supervised/June/officehome_maml_order_2_seed_0_shots_1_ways_5_meta-lr_0.0001_pre-train-wts_datetime_11_06_2021_09_47_43/intermediate_17000_model.pt (torch, 412181 bytes, 54 tensors)

conv1.weight f4 [32, 3, 3, 3]
00000000: 9bf5 d33e df1a b73d 7779 cfbd 19e9 acbd
00000010: f44c 30be 5594 12be ab12 e73d 34a8 443d
00000020: b258 19be a7e3 943c ccda 49be 1824 963d
00000030: a56e b0be 8ac7 fabd 1ee9 19bc ab61 d9bb
00000040: 81c5 193e 03bc 913e ed28 52bf fbdb e0be
00000050: e37b 303e 8b97 91be f8fa d83d 1040 123f
00000060: 5436 1bbe 4233 ad3e 14c4 4a3f 890b 823d
00000070: f607 2d3d 611a b03e 5b8d 3cbe e414 693e
00000080: 6c9f 9a3e cbb1 00bf 6b14 e2be 3a81 c2bd
00000090: 84df f4bd 7f57 7a3e 2cdd be3e 76e3 6ebe
000000a0: e152 e6bc b849 073e 46b2 00bf 9738 07bf
000000b0: 1a1b 65be dcb3 df3d 2d1f b23e 32f2 013f
000000c0: 12ac 8ebe a38e dd3b f61f b03e 3bac 38bd
000000d0: f6fa 0bbe 2a88 573c bbb9 c63e 675d c03d
000000e0: 417e 893e bd04 8dbe 4eb1 9abe ece4 bfbe
000000f0: 4827 2ebd 38c6 68bd 832e b8bd a44b c33e
00000100: 0bf6 a33e 5b95 0e3e b0de efbb a5b4 09bd
00000110: d252 28be 72d6 3b3d d90f a2be 149e 14be
00000120: 025f f03e 2508 e93e 75d0 093f 5d04 1e3e
00000130: 9d6a 4dbd 8c9f bcbe e9fe 80be ba00 ebbe
00000140: bb6b babe 394a fe3e 72bc bf3e 4ed9 32bd
00000150: 5bf4 0fbe 1174 b8be 2247 d3be 3b1b a93d
00000160: 1200 3a3e 5040 76bd 765f d63e 4885 e53e
00000170: d7b3 d93e 16b7 6dbe f457 08bf ada7 00bf
00000180: ead6 c53d 5e03 dd3d ab1b 02be 8023 0b3c
00000190: a6fc cf3e cc52 013f dba3 f5be 50b3 c7be
000001a0: cf7f b3be a0fe a1bd af6c 47bd f665 933d
000001b0: 3119 8c3b a771 c23d 2e69 35bd c90a 303e
000001c0: f247 b0bd cfd0 593e b362 a93d ab0d 5cbe
000001d0: 6b22 f9bd 08db 543e 97ab a93e 22aa 423e
000001e0: d42b 623e 3649 313e c101 6bbc 980f aabd
000001f0: 6779 92be 2802 99be c1d6 87bf d6e4 d63d
00000200: 2885 38be 7756 4fbf 51b2 a43e 9d35 1b3d
00000210: 2c31 bebf 5b1f 813e 6887 72be 2db8 77be
00000220: c981 9bbd c1e0 58be 5be7 873d 6d0d 463e
00000230: 74a6 963e 359b b03e 1167 0a3f 84db 3a3e
00000240: 2fd5 c6be 7868 d6bd eb54 d03c 933c b9be
00000250: 5e1f d0be 4f66 a1be 2c48 17bf 939c d0be
00000260: ed26 babe 4fa5 de3e d8b0 073f 264d d93b
00000270: e1f4 923e 360e cf3c 91a4 f73d 68f5 8ebd
00000280: e8bc 733d a630 eebd 6e67 1abf 01ab 95be
00000290: 8113 37be b4a6 b8bd fae1 b43d cb5d 723e
000002a0: 68b6 1ebc 97c7 e23e 3ba7 073f f607 b9be
000002b0: 7bcc 613e b7d0 083c 174b b2be 59d1 873e
000002c0: 536c ab3c 9695 91be 4411 9c3e 888a 26be
000002d0: c71f 2b3e 6230 ce3e cd1f d03e 19e8 5bbd
000002e0: fa7b 803e 9e1a 873d 2988 e9be ef74 0cbe
000002f0: b3f2 ddbe 6d96 483d c1e0 ba3e 9126 473e
00000300: f371 21bf 16db 69be c27a 10bf a2bd f23c
00000310: e040 5e3e 1b84 663e 3943 34be 4dcf 863e
00000320: 9490 403d d8cf cabe acda aebe 9f95 1bbf
00000330: fc48 043e 1cca 253f 97a5 383e d437 343e
00000340: 4e81 7c3e f88c 773d 4613 a6be 3802 76be
00000350: 105b b0be 0052 973e e24e de3e 06be 8a3e
00000360: 4bee 4dbe e8a3 e8be 641a 1b3f dba2 c8be
00000370: 17c7 8cbe 7b99 0f3f 9638 0cbe 7f82 56be
00000380: 44ae 9a3d 50c9 833e 1412 03bf 430a ec3d
00000390: 5f5b 953c 90da 3dbe 3403 453e 1dc5 8a3e
000003a0: 8d50 1cbd 7c34 ab3e 83c1 923e aef4 ccbe
000003b0: a37d 9a3e 19ec 2cbe 833e 95be f7d3 373e
000003c0: 5c1e 153d 68ad 61bd 62a4 50bd 7772 bb3e
000003d0: 1e00 c63e 0561 e9bd 4390 063f c91c c93d
000003e0: a35e 7fbd ee10 b33e d9c0 e9bb ba90 cd3c
000003f0: ba95 963e 44ba a3bd 92da 88be fd61 6bbd
0.4139832 0.08940672 -0.101305895 -0.08442897 -0.17216855 -0.14314397 0.112828575 0.048011974
-0.14975241 0.01817496 -0.1971237 0.07331103 -0.34459415 -0.1224509 -0.009393958 -0.0066339574
0.15016748 0.28463754 -0.820937 -0.43917832 0.17234759 -0.2843593 0.105947435 0.57129
-0.15157443 0.3382817 0.7920544 0.063498564 0.04224392 0.34395126 -0.18413298 0.22761875
0.30199754 -0.5027129 -0.44156203 -0.09497304 -0.11956695 0.2444744 0.37278116 -0.23328957
-0.028115692 0.13211715 -0.50272024 -0.52820724 -0.2237362 0.10922977 0.3478941 0.50760186
-0.27865654 0.0067613884 0.34399384 -0.045086127 -0.13669953 0.013155023 0.38813576 0.09392815
0.26854137 -0.27542678 -0.30213398 -0.3747934 -0.04251793 -0.05682966 -0.089932464 0.38143647
0.32023653 0.13924162 -0.0073202476 -0.03361954 -0.16437843 0.045858808 -0.31652716 -0.14513427
0.46947485 0.45514026 0.53833705 0.15431352 -0.050150502 -0.36840475 -0.2519448 -0.45898992
-0.36410317 0.49666002 0.3744846 -0.04366427 -0.14058058 -0.36026052 -0.41265208 0.08257147
0.1816409 -0.060119927 0.41869706 0.44828248 0.4252002 -0.23214373 -0.53259206 -0.5025585
0.09660132 0.10791658 -0.12705867 0.008492351 0.40622443 0.50516963 -0.47976574 -0.39003992
-0.35058448 -0.07909894 -0.048687633 0.07197182 0.004275464 0.09494334 -0.04428976 0.17191614
-0.086074725 0.2127106 0.082707785 -0.21489589 -0.12164768 0.20786679 0.33138725 0.19010213
0.22087032 0.17313084 -0.01434368 -0.083037555 -0.28608248 -0.29884458 -1.0612413 0.10492866
-0.18019545 -0.8099131 0.32167295 0.037892926 -1.4858756 0.25219235 -0.23684466 -0.24191351
-0.07593114 -0.21179487 0.066359244 0.19341059 0.2942387 0.34493414 0.54063517 0.18247801
-0.3883452 -0.104691446 0.025431117 -0.36179027 -0.4064893 -0.31523368 -0.590945 -0.40744457
-0.36357823 0.43485495 0.5300422 0.0066315113 0.28702453 0.025275331 0.120919354 -0.06980401
0.059506327 -0.11630373 -0.6031407 -0.29232028 -0.17878534 -0.09016171 0.08832164 0.23668592
-0.009687044 0.442929 0.5298955 -0.36138886 0.2205066 0.008350543 -0.34822914 0.26526907
0.020925676 -0.28434438 0.30481923 -0.16263783 0.16711341 0.40271288 0.40649262 -0.053688142
0.25094587 0.06596874 -0.45611694 -0.13716482 -0.43349227 0.048971582 0.364996 0.19448306
-0.630645 -0.22837481 -0.56437314 0.02963144 0.21704435 0.22511332 -0.17603768 0.26330033
0.04701288 -0.39611697 -0.34151208 -0.6077518 0.12918466 0.6476152 0.18031918 0.17599422
0.24658701 0.060437173 -0.3243658 -0.24024284 -0.34444475 0.2955475 0.43419558 0.270981
-0.20110433 -0.4543755 0.60587144 -0.3918675 -0.27495643 0.5609357 -0.13693461 -0.20948218
0.0755277 0.25739527 -0.5119946 0.11525395 0.018232046 -0.18540406 0.19239503 0.2710351
-0.038162757 0.3343848 0.28663263 -0.40030426 0.30173978 -0.16886939 -0.29149255 0.17951952
0.036405906 -0.055097014 -0.050938018 0.36610767 0.38671964 -0.11395458 0.52563876 0.098199435
-0.062346112 0.34973854 -0.007133585 0.025093425 0.29411107 -0.07994512 -0.26729256 -0.057466496

conv1.bias f4 [32]
00000000: 32b5 aabd 43dd c5bf c68d 703d 030b 6bbe
00000010: c12a 38bf 5383 d9c0 586e 4a3c 63c0 02bd
00000020: f91e 98be 2f0a 5f3e 0e4a 97be d4ab e3bc
00000030: a545 5e3f 1dbe d1bf 9e9b 51be cb9c 19be
00000040: 9ce0 e2bc 15a2 8fbe f2a2 52be 4eb3 62c0
00000050: 46e6 803f dec2 043d cb21 bb3d bee7 e23d
00000060: dbce 24c1 8280 773e 3b15 27be db46 a3bd
00000070: f614 893e 385d efbe 35b1 2cc0 5d00 a13d
-0.083353415 -1.5458149 0.058728956 -0.2295342 -0.7194024 -6.797281 0.01235541 -0.031921756
-0.2971113 0.21781228 -0.29548687 -0.027791895 0.8682502 -1.6386143 -0.2046952 -0.15001218
-0.027694993 -0.28053346 -0.20569971 -3.542194 1.0070274 0.032412402 0.09137305 0.110793576
-10.300502 0.24170116 -0.16316693 -0.07972499 0.26773804 -0.46750808 -2.6983159 0.078613974

batch1.weight f4 [32]
00000000: dd7c 993f 9dc5 833f 25ee 2f3f bf1c 983f
00000010: 6eb9 693f 2c1e 4e3f fce4 893f 6135 8d3f
00000020: acab 583f 8219 833f c587 a73f 0fa4 423f
00000030: d194 683f 805f 193f dc6f f43e 73d2 5b3f
00000040: 81df 453f f366 8b3f d90a a23f e903 1f3f
00000050: bab4 543f 6135 6f3f a4bd 7c3f 60f5 923f
00000060: 4929 5d3f b6a5 8f3f 1f45 b53f dc7b 7f3f
00000070: e1a0 b03f 0907 1a3f 6b71 2f3f a2e0 083f
1.199123 1.0294682 0.68722755 1.1883773 0.9129857 0.8051479 1.0773005 1.1031915
0.8463695 1.0242159 1.3088309 0.76031584 0.90852076 0.59911346 0.47741592 0.85867995
0.77294165 1.0890793 1.265956 0.6211534 0.83088267 0.93440825 0.9872687 1.1481133
0.8639112 1.1222446 1.4161719 0.9979837 1.3799096 0.60166985 0.6853244 0.5346776

batch1.bias f4 [32]
00000000: 8b5d 403f 96e1 36bf 9287 533f b9f0 923d
00000010: ee0f 08bf b596 4e3e acaa c03f 9ffd 233f
00000020: 4f59 3040 dfb3 c53d c4a6 8a3f 54a7 13bf
00000030: 7031 9dbd 2cd1 8bbe 3874 0d3d d3a8 13bf
00000040: 298c f1bc e6d8 c7bd 54ef 29bf f593 7abe
00000050: 780b a8bd 09b9 233e a78a 313e a303 273e
00000060: 7bb9 943e f29c 0cbd 3f01 cb3e 4192 ad3c
00000070: 6026 afbd bd31 1f3d 00c9 c73f bf53 bdbd
0.75142735 -0.71437967 0.8262874 0.071748205 -0.53149307 0.20174678 1.5052085 0.6405887
2.755451 0.09653448 1.0832143 -0.576772 -0.07675445 -0.27308023 0.034534663 -0.5767948
-0.029485779 -0.09758167 -0.6638081 -0.24470504 -0.082053125 0.15988554 0.17338048 0.16309981
0.2904776 -0.034329362 0.39649388 0.021187903 -0.08552241 0.038865793 1.5608215 -0.09244489

conv2.weight f4 [32, 32, 3, 3]
00000000: dc28 8abd 4417 4a3e f17a 343d 8029 c3bd
00000010: e321 853e ea63 0b3f 290d 6abc 87c7 3d3e
00000020: 9424 483e c9a0 1e3e 5a2b 6ebe 8c7f 0abd
00000030: 3e92 7c3d d93d 99bc 4f9e 133f fadb 84be
00000040: 2c2f 75be 1047 373e fea0 13bf c866 11bf
00000050: 1882 ecbe 2843 e5be 25ad 36be 8e59 5abf
00000060: 1eb6 d13d c287 293e d777 db3e 0a96 d63e
00000070: f0f6 223e 3979 87be 6944 28be 723b 27be
00000080: 0a8e 3abf 7477 1f3e 65d5 42bd b65f 2bbe
00000090: 6cf9 913e aace 0d3e 85a7 f03c e9a3 833e
000000a0: 226e ce3d f91d e73b a6b4 b13d e5d6 22be
000000b0: 64e8 bebd a521 3abe 3692 85be c6ea 40be
000000c0: ec01 703c 959d a0bc 6783 073e a10a 503e
000000d0: 0212 af3d e4bf 4b3e e667 963d 0514 25be
000000e0: bff2 70be 55ae 2a3e cdff b53c 6258 093c
000000f0: 9876 323e 4e7c 24be 1b05 833e eaf2 e33d
00000100: b343 8a3d 2e60 46be 884c 333e 3b40 083d
00000110: 7dcd abbd 598b 9f3d b38d 863e 5ba3 603d
00000120: 4082 b6bd 105d 383e 92dd 863e 5633 52be
00000130: 6455 b73d 66f1 d43e c88b ecbe a5f2 77be
00000140: 88c8 d93d c686 57be 8041 31bf 34dc c2be
00000150: cca5 9dbe 60f9 82be 24e2 373e 8c55 94bc
00000160: 3e96 593d 1e46 e53e bd4a 1fbe 2e21 c1bd
00000170: 57ef 5e3d bde7 d4bd fd7e 733e 5edb 073e
00000180: 7899 f3bd 917d b7be c324 9fbe 5870 febe
00000190: 82fb 05be d170 78be baaf bdbe 683f 9e3e
000001a0: 73cf b23d 0f30 adbe bda0 ce3e 092e 673e
000001b0: 0086 9abe b723 70be e751 8abe c377 2e3e
000001c0: 811f 8a3e c792 433c dce3 8ebe 16cd 9d3b
000001d0: 0d30 d03e 2bd3 5a3d e6c0 c5bd 178d 6dbc
000001e0: 4135 4a3d 4fee 3bbe 2c50 aabe b37a d53d
000001f0: e112 8ebd aae7 fabe ed42 fbbe f865 efbe
00000200: b8b3 5fbe 3cad e1bc 0d8c 80bd 8fd2 783e
00000210: 1865 493e 41f2 863e b483 fe3e a13b 7b3e
00000220: 3a73 a1be 2928 1d3d 49c8 b23e 06ea 9d3c
00000230: 9ad6 c13c 1f2f 56bd 59e3 cfbe 89b7 99be
00000240: 9c80 1abf 1da2 b8bd bd44 9cbe cc72 6bbd
00000250: 4fd1 0e3f 3dd1 853e 0e62 fabd 9567 9a3e
00000260: 8254 b13e 368e ac3e b566 a4bd 3800 973e
00000270: 5617 2a3e 1ec1 78bc e158 a4bd 34d4 2bbe
00000280: f8b9 8fbe f305 babe e95f 3bbd 0eeb 95be
00000290: f47a 49be 3cff 423e c214 9ebd 2549 a23e
000002a0: 2593 ee3e b5d2 65bc 9867 c23e 1363 013e
000002b0: 14ec a8be d2bd 6cbd 14de 573c 702e 323c
000002c0: 3a13 ae3d 62c6 0ebd 058d ae3c 82fb 54be
000002d0: 8ebe f3bc d1c7 acbd fea3 83be 37ee 92bc
000002e0: d894 0c3e 9b47 863e 9297 3d3c a63a 5e3e
000002f0: 83e6 033e 08b6 1f3e ec99 a83d 103b db3b
00000300: 4c27 d1be dfcf 37be b41c 34be 47a1 2fbe
00000310: 3750 833d a16d 533e 82f4 66be 5630 25bf
00000320: 58d9 a8be 374a d5be 4397 b63d 36f8 9b3e
00000330: 8785 90bb b375 883e 3ab0 393f 16d7 bfbd
00000340: 5deb 8dbe 0a67 543e c8a0 c3bd fb0c ebbb
00000350: 1e58 113e a72f 303d c055 dfbc 1181 b53c
00000360: 8756 b8be 8d67 05be 34fb c93d e7f8 34be
00000370: c767 0d3d 9036 f33e ed1a d4be 9aa2 0bbe
00000380: 95dc e2bc 17a4 f13c fc72 35be aff6 f6be
00000390: ebab 9abe af97 3fbe b754 36bf f322 28bd
000003a0: 194c cb3d 7882 043e 0a9f 683e c6f3 d33c
000003b0: ac5a 97be 368a 823e 8d85 ee3d cb0a 9b3d
000003c0: 218d c0be 5741 5fbe 14c7 05bf ffc8 c33d
000003d0: bf16 933e aa3f d73d 4a93 eabd bf8e 0f3e
000003e0: e5de 2a3c f49a bebe bb6c 1d3d cd6b dfb7
000003f0: f4d2 fabd 4907 eabe 7450 223d 19ce eb3c
-0.067460746 0.19735438 0.04406256 -0.095294 0.26002416 0.5444933 -0.014285364 0.18533145
0.19545203 0.15491022 -0.23258725 -0.033813044 0.061662905 -0.01870625 0.57663435 -0.2594908
-0.23943776 0.17898202 -0.5766753 -0.56797457 -0.46193004 -0.447778 -0.17839487 -0.852929
0.10239814 0.16555694 0.42864868 0.41911346 0.15914512 -0.26459673 -0.16432346 -0.1633127
-0.72872984 0.15572912 -0.04756679 -0.1673573 0.28510606 0.13848367 0.029376755 0.2571099
0.100796 0.0070531336 0.08677034 -0.15902288 -0.09321669 -0.18176897 -0.26088113 -0.18839559
0.014648896 -0.019606391 0.1323372 0.20316555 0.085483566 0.19897419 0.07344036 -0.16120918
-0.235301 0.16668065 0.022216702 0.0083828885 0.17428052 -0.16063043 0.25589833 0.111303166
0.06751194 -0.19372627 0.17509663 0.03326438 -0.08388803 0.0779025 0.26279983 0.054843288
-0.08911562 0.1800425 0.2634092 -0.20527396 0.08951834 0.41590422 -0.46200395 -0.24213655
0.106339514 -0.21047506 -0.6924057 -0.38058627 -0.30790555 -0.25580883 0.1795736 -0.018107198
0.053121798 0.44780058 -0.15555854 -0.09430157 0.05442747 -0.10395763 0.23778911 0.13267276
-0.11894506 -0.35837987 -0.31082734 -0.49695086 -0.13084224 -0.24261786 -0.3704813 0.3090775
0.08730974 -0.33825728 0.4035701 0.22576155 -0.3018036 -0.23451124 -0.27015612 0.17037873
0.2697716 0.01193685 -0.27908218 0.004815708 0.4066166 0.05342404 -0.09655933 -0.0144989705
0.049367193 -0.18352626 -0.3326429 0.10423794 -0.069371946 -0.4900487 -0.49074498 -0.46757483
-0.21845901 -0.027548425 -0.062767126 0.24299072 0.1966747 0.263567 0.49709857 0.24534465
-0.31533223 0.038368378 0.3491843 0.01927663 0.0236619 -0.052291032 -0.4060314 -0.3002284
-0.6035249 -0.09015296 -0.30521193 -0.057482526 0.5578813 0.261362 -0.12225734 0.30157152
0.34634787 0.33702248 -0.08027402 0.29492354 0.16610464 -0.0151827615 -0.08024765 -0.16780168
-0.2807157 -0.36332664 -0.045745764 -0.29280895 -0.19675809 0.19042677 -0.07718803 0.3169643
0.46596637 -0.014027287 0.3796966 0.1263545 -0.32992613 -0.057798214 0.013175506 0.010875329
0.08499761 -0.03485716 0.021307478 -0.20799068 -0.02975395 -0.084365495 -0.25711054 -0.017935855
0.13728654 0.26226506 0.011571782 0.2170206 0.12880902 0.15596783 0.08232483 0.0066903904
-0.40850294 -0.1795039 -0.17589074 -0.17151366 0.06411784 0.20647289 -0.2255421 -0.6452688
-0.3297832 -0.41658184 0.0891557 0.30462807 -0.004410449 0.26652297 0.72534525 -0.09367196
-0.2771863 0.20742431 -0.09552151 -0.0071731783 0.1419377 0.043014195 -0.027262568 0.02215627
-0.36003515 -0.13027783 0.09862366 -0.17673074 0.034522798 0.47502565 -0.41426793 -0.13636246
-0.027693072 0.02949719 -0.17719644 -0.4823508 -0.30209288 -0.18710206 -0.71223015 -0.041048955
0.09926624 0.12940395 0.22716919 0.025873076 -0.29561365 0.25496072 0.116465665 0.07570418
-0.37607673 -0.21802269 -0.52256894 0.09559821 0.2872829 0.1051019 -0.114538744 0.14019297
0.010429119 -0.37227595 0.03843377 -2.663387e-05 -0.12247267 -0.45708683 0.039627507 0.028784798

conv2.bias f4 [32]
00000000: cdbd c33d 25c2 173e 8d53 063e 3db8 113e
00000010: 07f5 853d f5d8 be3d 4a2f b1bf bd7a 0bbd
00000020: 4706 bd3e e73f abbe a988 853e da5f 15be
00000030: 9ec5 55bd 5304 353e b6ca 523d 8d8f bebd
00000040: f626 81bd d0d8 30be e7d1 74bd e7b7 cfbd
00000050: bfe5 42bd 27c9 2b3d 0c39 073e 3d77 0e3d
00000060: 9fb6 a33e 6921 a43a 49e4 c03b 09f3 09be
00000070: ba77 11bf f3e8 ae3e bf21 35bd b6da c53e
0.09557686 0.14820154 0.1311781 0.14230438 0.06540876 0.09318725 -1.3842556 -0.0340526
0.36918852 -0.3344719 0.26080826 -0.14587346 -0.052190416 0.17677431 0.05146285 -0.09304724
-0.06306259 -0.17270207 -0.05977049 -0.101424985 -0.047582384 0.04193988 0.13205355 0.034781683
0.31975266 0.0012522164 0.0058865887 -0.13471617 -0.56823313 0.341621 -0.044221636 0.38643426

batch2.weight f4 [32]
00000000: 70e5 4e3f 3e0c 753f cd53 bc3f cd0d 903f
00000010: eb25 7c3f ca64 9a3f 0195 9b3f ac41 333f
00000020: 1014 923f 92f9 5e3f 0734 983f cf63 683f
00000030: d4e2 1c3f 97cf ad3f e579 883f 3757 9e3f
00000040: c0e6 533f fc49 613f 14dd 713f 51f3 473f
00000050: 0d5e 953f 920a 873f f477 963f 5666 8b3f
00000060: 0fae 7e3f d5d9 3e3f c7ae 443f 0fac 223f
00000070: 9336 903f f283 713f 8b9a 6c3f d207 4e3f
0.80818844 0.95721805 1.4713074 1.1254212 0.9849536 1.2062008 1.2154847 0.7002208
1.1412373 0.87099564 1.1890877 0.90777296 0.6128361 1.3578976 1.0662199 1.2370366
0.8277397 0.88003516 0.94477963 0.78105646 1.1669327 1.0550101 1.1755357 1.0890605
0.9948434 0.74551135 0.7682919 0.6354379 1.1266655 0.9434196 0.92423314 0.8048068

batch2.bias f4 [32]
00000000: 22d0 84bd b028 06bf 6fb4 99be 0fc7 13bf
00000010: 5daf 96be b962 1ebf 2c55 b8be b9c2 4ebe
00000020: ee0c fbbe 0e5e a7be 493c f9be 02fb adbe
00000030: 7ef0 433c 8c57 ddbe 2b82 c8be fa03 13bf
00000040: dd51 c2be 0d24 e0be 7df4 f3be 6652 b5bc
00000050: 683a e1be 95d1 c1be f3d2 0fbf abf3 b2be
00000060: e36b 04bf 2760 8abe 50c4 4cbe bf2f 8fbe
00000070: 4d18 2ebe 3437 b8be 89f8 a6be d4dc f7be
-0.06485011 -0.52405834 -0.30020472 -0.57725614 -0.29430667 -0.6186939 -0.3600248 -0.20191468
-0.49033302 -0.32688946 -0.48678806 -0.33980566 0.011959193 -0.43230855 -0.3916181 -0.5742794
-0.37953082 -0.43777505 -0.47647467 -0.022134017 -0.43989873 -0.3785521 -0.5618126 -0.3495153
-0.5172712 -0.27026483 -0.19996762 -0.27966115 -0.17001458 -0.35979617 -0.32611492 -0.48410666

conv3.weight f4 [32, 32, 3, 3]
00000000: 0ac6 b13e 822c 053f 160a d43d ad59 abbe
00000010: dda5 0cbc 7404 863e 19d2 e3be 78bc 72be
00000020: 4e63 61bd f89e 033e 4ae6 873d cf83 a2be
00000030: 6a74 1abe fc6d 37be 7fa8 9b3c c62f 933e
00000040: 7fb4 633e e138 bcbe 98a9 783d cf69 583a
00000050: 46b9 edbe c2bb 943e 7328 213e 848b 3ebe
00000060: 5598 f63d 944e 343d 880a 64be 8af8 67be
00000070: 9625 9dbe 27d1 b13e 2e8f 2a3d 7498 37be
00000080: 6121 df3e 5f7d d5be 078c 30be d4a7 973e
00000090: 8b78 8d3e 960a eb3e 0852 7a3d be33 81bc
000000a0: 6222 bf3d a0d1 bdbd 5171 69bd d15b 283c
000000b0: 2e2d acbd cf17 8f3e e797 6a3e d6f0 3b3e
000000c0: 4002 5a3d 104e 3f3e f41b 8a3e 8003 edbe
000000d0: 8547 853d 568c 78be 6be4 cd3e e471 ac3d
000000e0: f040 77be 0f59 363e baa4 4abd 332f a6bc
000000f0: 32e7 8b3e defc cb3e 242c ec3d 5fcf b3be
00000100: 3f76 a5be 22b0 14bf 4b94 453e d84e 7ebe
00000110: 8a5c a3be a822 0fbe 6cf7 12be a40c ce3b
00000120: 6252 223e 806c 2ebe 457d 9fbe 198b 89bc
00000130: 1130 793c c305 673e c468 153d 3c03 e53c
00000140: d9dc 523e 82f5 4bbf 99ba cabd 8335 9a3e
00000150: cbf8 28bf 0b6a 96be 4fd7 6a3e d747 26be
00000160: 3767 4bbb 9348 053e aa4a 2fbe 574d 1cbf
00000170: 55b6 8e3e 3ff5 07be ff3a 4a3d e1a2 603e
00000180: 5270 dbbd ac00 58bc 0731 8dbb 5564 563d
00000190: a0ac 8e3d 9916 763e 2d69 483e ba9c 29be
000001a0: 4035 12be 57e5 003e 7608 a03e 1469 30be
000001b0: 0361 86bd 419c f7bd e41c dfbe 9516 59be
000001c0: 968d cbbd 42fe d1be 093e 69be c194 7f3d
000001d0: 4216 84be 8dc5 40be 546c fcbd 075c 0e3d
000001e0: 8d39 0d3e 2cd2 b63d 49c6 86be d7c6 01bd
000001f0: 2b54 9b3d 7fc7 f8be b8d4 1fbe 4ae1 84be
00000200: 7e2f 1fbf 048a 4ebd f76e 91bd 7c10 8d3d
00000210: 04be abbb 5822 713e 187d dbbc bac6 963e
00000220: 0471 49bd 2f54 45be 9111 353e 4113 74be
00000230: 36af 13bf 7a69 01be 0c7a b73e d21d 90be
00000240: 9b6c 233e 13d1 8fbc 5603 22bf f8a1 1ebd
00000250: f9f0 5c3b 5ffd c4bc cce3 44be c83b 28be
00000260: 9f87 33be 4c8f c53b 4181 0bbe 65ba cf3e
00000270: 1f73 7e3e ceaf 873e d475 753e a2f9 01be
00000280: a62d 333e 2582 5f3e a998 a43c daf5 503e
00000290: 6382 a03e 610b 1dbe c414 48be 0218 99be
000002a0: 15ca 063e 6fc8 03bf feb0 d0be 3fdf 8fbe
000002b0: 3a52 eb3c fa2c aa3d 5c5d b7be c523 9d3c
000002c0: f171 83be c3ef b6be c299 99be 4ccb 4dbe
000002d0: 3117 afbd dbe6 643d 0e6a b13e 05b0 833e
000002e0: 0d0f 203d 17da 1b3e 66ed 8f3e 2829 aa3d
000002f0: 1bdf cd3c 4e45 c83e 6b45 b5bc 696a 473d
00000300: 6b01 803e f8df d1be 34a9 acbe bcde e7bd
00000310: 7747 a0bb a3f7 e93d 978d 733e ffc1 5f3d
00000320: 9f0a a8be 3ae8 a13e 3a7d d33e 0ebd 0f3e
00000330: afa2 fb3c d636 393e a1b4 303d 9d9c 9c3d
00000340: b9dd 22bd 6b76 27be c264 babe ae15 30be
00000350: 1126 823c 4e39 1abf 657e 85bd 96cd 853e
00000360: 8153 3b3e d016 a8bd 31ee 86bf 4d5f 223e
00000370: 433f 9abe 85a8 6bbe f7fe 9bbd 0a29 b0be
00000380: 3b3f 41be 91ca 693d dad9 61be c956 01bf
00000390: fd03 b1be 0e24 68bd d474 0fbf 4e0c 013d
000003a0: 7acc b73e db8a 8c3e 36b5 9c3e 0769 933e
000003b0: b821 acbe cd51 f63e 0a05 863e 2d59 f4be
000003c0: bb91 ef3e 39e3 b13d 57f0 5dbe 25d2 473c
000003d0: 1a01 43be 48bf c9bd f327 7b3e 05d8 573e
000003e0: 086a 94be 375b 81bc 22f3 8bbe 883b 26bf
000003f0: e222 87bd 2c12 71be a24e 813e a099 863c
0.34721404 0.5202104 0.10353486 -0.33466855 -0.008584467 0.26175272 -0.4449623 -0.23704708
-0.055026345 0.1285361 0.06635721 -0.31741187 -0.15083471 -0.1791305 0.019001244 0.28747386
0.22236823 -0.36762145 0.060708612 0.0008255513 -0.46430415 0.29049498 0.15738086 -0.18607908
0.12040774 0.04402025 -0.22269642 -0.22653404 -0.30692738 0.34729883 0.041640453 -0.1792925
0.43580154 -0.41697213 -0.17240916 0.2962023 0.2763103 0.45906514 0.061113387 -0.015771743
0.0933273 -0.092684984 -0.056992833 0.010275797 -0.08407055 0.27947852 0.22909509 0.1835359
0.053224802 0.18682122 0.26974452 -0.46291733 0.06507782 -0.24272284 0.40213332 0.084201604
-0.24145865 0.1780741 -0.0494735 -0.020286178 0.27324826 0.3984136 0.11531857 -0.3511915
-0.32316777 -0.5808126 0.1929485 -0.24834764 -0.3190654 -0.13978064 -0.14352196 0.006288128
0.15851739 -0.17033577 -0.3115026 -0.01678996 0.015209214 0.22560792 0.036476865 0.027955644
0.20592059 -0.7967149 -0.09898872 0.3011895 -0.6600463 -0.2937778 0.22933696 -0.16238342
-0.0031036863 0.13015966 -0.17118326 -0.6105551 0.27873483 -0.13277148 0.04937267 0.21937133
-0.10714783 -0.013183754 -0.004308823 0.052341778 0.06966519 0.24032058 0.19571371 -0.16563693
-0.14278126 0.12587486 0.31256455 -0.17227584 -0.06561472 -0.1209035 -0.4357673 -0.2120002
-0.09939115 -0.41014296 -0.22777571 0.062397722 -0.2579823 -0.1882536 -0.123253495 0.034755733
0.13791485 0.08926806 -0.26323155 -0.03168377 0.07584413 -0.48589703 -0.1560849 -0.25953132
-0.6218184 -0.05042459 -0.07101243 0.0688791 -0.0052411575 0.23548257 -0.026793048 0.2944849
-0.049180046 -0.19270395 0.17682482 -0.2383547 -0.57689226 -0.12637892 0.35835302 -0.2814775
0.15959398 -0.017555749 -0.6328634 -0.038728684 0.0033712967 -0.024046598 -0.19227523 -0.16429055
-0.17532204 0.006029045 -0.13623525 0.40571895 0.24848603 0.26501316 0.23970729 -0.12692884
0.17497882 0.2182699 0.020092325 0.20406285 0.31349477 -0.15336372 -0.19539171 -0.2990113
0.13163026 -0.5147771 -0.40760034 -0.2810001 0.028725732 0.0830936 -0.35813415 0.019182095
-0.25672868 -0.357298 -0.3000012 -0.20097083 -0.08549345 0.055884223 0.34651226 0.2572023
0.039076854 0.15219913 0.28110808 0.08308631 0.025130799 0.39115375 -0.022127828 0.048685465
0.25001082 -0.40991187 -0.33722842 -0.1132178 -0.004891332 0.11424186 0.23784481 0.05462837
-0.32820603 0.31622487 0.41306478 0.14036962 0.030717222 0.18087325 0.04314101 0.07647059
-0.039762232 -0.16353767 -0.36404997 -0.1719577 0.015887292 -0.6024369 -0.065182485 0.26133412
0.18293573 -0.08207476 -1.054144 0.15856667 -0.3012639 -0.23013504 -0.0761699 -0.3440631
-0.18871777 0.057077948 -0.2205576 -0.5052305 -0.34573355 -0.05667501 -0.5603764 0.031505875
0.3589819 0.27449688 0.30607003 0.28791067 -0.33619475 0.48109284 0.2617572 -0.47724286
0.4679087 0.086859174 -0.21673714 0.012196098 -0.19043389 -0.09850937 0.24526958 0.21078499
-0.28987145 -0.015790565 -0.27333933 -0.6493459 -0.0659845 -0.23542088 0.25255305 0.016430676

conv3.bias f4 [32]
00000000: 0fc1 6f3e 1179 793e 4190 ec3e 7e7a a53d
00000010: 21a5 233e b92a d13d fd79 e2bf 8322 893e
00000020: fe36 2fbd eeb5 d0be 367a c73d c444 1cbb
00000030: 209c 0e3f 80c1 bf3e 117c 583d 0a27 e33e
00000040: 0cda 263f 0b5f 193e b4f7 903e 0923 193f
00000050: a12e 053f ac81 babc 0eb2 6c3e ed4f 643f
00000060: a99e a73d ea81 a33f 5cbc be3e 6ea6 f63e
00000070: f395 c53e fdd0 5f3e 005a 91be f4ce 21bf
0.2341349 0.2436259 0.46203807 0.08080004 0.1598096 0.10213227 -1.7693478 0.26784143
-0.042777054 -0.407638 0.09740107 -0.0023844698 0.5570698 0.37452316 0.052852694 0.44365722
0.65176463 0.14977662 0.28313982 0.59819084 0.52024275 -0.02276691 0.23114797 0.8918446
0.08184559 1.2774022 0.37253082 0.4817385 0.38590965 0.21857066 -0.28388977 -0.6320641

batch3.weight f4 [32]
00000000: e1c5 3f3f d1ae 583f d88d 803f 480c 6e3f
00000010: bd1e 413f d7ca 553f 5901 ac3f 6219 463f
00000020: c34c 943f 6869 8e3f 15d7 3d3f 63bd 4a3f
00000030: f865 6a3f 2a52 8e3f 6e6b 163f 911a 4b3f
00000040: 1d18 6e3f aaa3 683f 072e 3b3f ec55 5d3f
00000050: a1d7 673f 511d 713f 2018 393f 6161 d53f
00000060: 4a95 4f3f 9433 893f 80ce 793f 62fe 733f
00000070: 4047 443f db40 3a3f 07a6 893f d50c 803f
0.74911314 0.8464175 1.0043287 0.9298749 0.7543753 0.83512634 1.3437911 0.7738248
1.1585926 1.1125917 0.74156314 0.7919523 0.9156184 1.1118824 0.58757675 0.7933741
0.93005544 0.9087473 0.7311711 0.8645923 0.905634 0.9418536 0.72302437 1.6670343
0.8108717 1.0718865 0.9758072 0.9531003 0.7667122 0.7275521 1.0753793 1.0003916

batch3.bias f4 [32]
00000000: 86a7 8ebe 7f94 91be b117 d0be c96d dfbe
00000010: 557f 87be 7173 24bf 9709 47bf f435 4cbe
00000020: 5553 5abf dedc 83be bb89 febe 8fc0 0dbe
00000030: a7ee 96be 4e8e dbbe feb7 583d 5836 aebe
00000040: 11f1 e7be 9071 a7be bc99 88be f160 b5be
00000050: cb08 22bf 14cb cabe 956a 5dbe 24ec 77bf
00000060: cce8 0ebf 3a97 1abf 4030 94be 4401 16bf
00000070: cf2b c0bd b721 96be b122 7fbe 031f 7fbf
-0.27862185 -0.28433606 -0.40643075 -0.43638447 -0.26464334 -0.6423865 -0.7774901 -0.19942456
-0.85283405 -0.25754446 -0.49714455 -0.13842987 -0.29478952 -0.42882007 0.052909844 -0.34025836
-0.45301107 -0.3270383 -0.2667979 -0.35425523 -0.63294667 -0.3960806 -0.21622689 -0.96844697
-0.5582397 -0.60387003 -0.28943062 -0.5859568 -0.09383356 -0.29322597 -0.24915577 -0.99656695

conv4.weight f4 [32, 32, 3, 3]
00000000: 6fd0 fdbd 4b5a 383c 4208 16bc a900 ecbd
00000010: 1dc2 2ebd c239 05bd 8521 acbd 5e62 11be
00000020: f851 e53d ea62 b43d 3a7d 903d c42a bc3d
00000030: 0133 c6bc f5ab c9bd ad9f 823c 9b5c 493d
00000040: d637 01bd 72df e0bc a666 c23d 10a1 703c
00000050: 28c0 3d3d 9c87 613d 5eab 263c 7cc9 7d3d
00000060: dd7e b13c 90e8 50bd ff49 d1bc dcb8 2abe
00000070: 2a01 aebc 63ea 57bd 1224 f2bd 05f3 a63c
00000080: 1b3d 8ebd 0dfd 28be 4066 99bc 6b7f 6b3d
00000090: cc9a d83a 304f d83d bb05 8e3d 318c dd3d
000000a0: 41bd 233e 0439 7b3d 7f75 1a3e 746d 9d3d
000000b0: 3f2c 933c dc2e d53d 18b7 593c 0668 9c3d
000000c0: a17b 0c3e d946 42bd 0572 4b3b 00d3 f63d
000000d0: baad b93d f8c0 e53c cdb6 84bb e458 723d
000000e0: d266 6f3c fad3 873d 47ed 43bd ce6d e43c
000000f0: 14f2 4bbe af4d 353d 6e45 813d 34fc 813d
00000100: ed75 25bc 2250 9f3c 3d93 173e 0551 07bd
00000110: 38a5 cdbb fefd 083d e09e a03b 3aa5 343d
00000120: 0387 11be 56fb e73d cfdf 363d ec73 5fbe
00000130: 3671 fbbd f13b d33d 78d9 43be 7542 26bd
00000140: a451 50bd c203 dabe 39f3 323c 972b cbbb
00000150: 3cad c2be 9903 43bb b130 193b a86b cdbe
00000160: 512a 653d 1a6d ef3d 1740 a0ba 9bd2 7f3c
00000170: 6540 b13d 5bb4 b53c 8bd8 1d3d 29ed d13d
00000180: 584d e1bc 3ade 7e3c ff60 1c3e a3e5 a8bd
00000190: a827 363d a7de 6a3d fff7 20bd 3d01 82bd
000001a0: 1f16 cdbc 8199 87bd 7fd7 453d 634a ab3d
000001b0: 6625 973d 9bf4 0f3d 579c 673b 416d 6a3c
000001c0: 345d 613c b879 24bd 9ef2 d43d c2bf fd3c
000001d0: 6420 b53d c18f 3b3d 63d0 093e 79fb 6b3c
000001e0: 0320 1f3e 476b 0a3e 5fbb 013b 14b4 1f3e
000001f0: 299d a63d a8e1 c83b e353 d83d 2dc9 a73d
00000200: 16bd b13c dbac e03d 2a95 6b3d 2f20 e9bc
00000210: 2294 243e ee72 6b3d a6bd 113e 25b4 093d
00000220: 7e2a 2c3d 8e2d 603d 4843 403d e510 84bd
00000230: 4007 7d3d f869 263c 4708 b93c cb88 043d
00000240: f000 053d 01ab f63c 04f7 c0bd e337 a73d
00000250: 8455 cbbc e036 1abc 84ed 723d 2313 423d
00000260: 9676 65bc bda6 47be defc 463d 3834 a4b8
00000270: ff3a 6bbd c0d5 bdba 6280 3abd 7012 28be
00000280: 72f3 6b3d 0d5c 743d 4af6 203e 4fd4 5d3d
00000290: f4af 9e3d 466e b93d 4adb 833d f70f 583d
000002a0: cf06 133e a1fc 813d ec28 943d 2151 043e
000002b0: 483c 7d3d d741 c13d ef40 d63d 50af f43d
000002c0: ab66 bebb b111 d83d 0813 0a3d ac5d 0d3d
000002d0: 6752 d53d e0be e0bc 1b7b 8a3d f274 1d3e
000002e0: c90f 943d 19ad 4e3d 1373 273e 3b70 2a3e
000002f0: dd78 6f3c 931b fbbc d6ed 9ebd c8f8 453d
00000300: 3c84 613d 6ef5 d3bd bf3a 733d 9213 cdbd
00000310: 9045 783d cd26 033e c282 8fbd 612c 2c3a
00000320: ea78 95bb 4c95 16bd 0d0f aa3d c9a1 64bc
00000330: 70d0 b63c 8b22 74bd 2d50 4d3d 9461 e8be
00000340: daff 66bd f5ec 2dbc 21d3 e7be 27f0 9abd
00000350: 858a 0c3e ac20 dcbe b53a aabd 7fd0 163d
00000360: 634f eb3c a28b 013d 22f7 303d 1903 563d
00000370: 1e74 96bd ce08 75bd c41f 323d 89ad cdbd
00000380: ea31 0c3d be2e c93d 3136 aa3d adaa ed3d
00000390: d96a fa3d a72c b0bc acca fe3d 7f0c 863d
000003a0: 62b8 e93c bc89 ec3b d742 85be 8b0c d73d
000003b0: 93d9 a63d e81c 43be aa9c 033e c65c c93c
000003c0: 2dba 6fbe b2be 853b 4d02 143d 5a43 f03d
000003d0: 2498 1abd 999f dabc ae1d 3f3d a2a4 323c
000003e0: 1b27 63bd 4520 8b3d 3144 5f3d 58ce 513d
000003f0: fd41 45bd a207 8abd 3702 143d f65f a33d
-0.12393271 0.011251996 -0.009157242 -0.115235634 -0.04266559 -0.032525785 -0.08404831 -0.1419768
0.11197275 0.08807929 0.07055135 0.091878444 -0.024194242 -0.09847251 0.01594528 0.04916058
-0.03154739 -0.027450297 0.09492235 0.014686838 0.046325833 0.055060968 0.010172693 0.06195973
0.021666938 -0.05100304 -0.02554798 -0.16672081 -0.02124079 -0.052713763 -0.11823286 0.020379553
-0.06945249 -0.16502781 -0.018725514 0.057494562 0.0016525625 0.10561979 0.06934687 0.10817755
0.15990163 0.06133367 0.15083884 0.07686892 0.017965434 0.10409328 0.013288282 0.076370284
0.13719036 -0.047430847 0.0031043303 0.12051964 0.09066339 0.028046116 -0.004050112 0.059166804
0.014611917 0.06632228 -0.047833707 0.02788439 -0.19916564 0.044263538 0.06312071 0.06346932
-0.0100989165 0.01944739 0.1480226 -0.03303625 -0.006275799 0.03344535 0.004901752 0.044102885
-0.14211659 0.113272354 0.044647034 -0.21821564 -0.12277453 0.10314167 -0.19125926 -0.040590722
-0.05085911 -0.42580992 0.010922247 -0.0062002647 -0.38022792 -0.0029756783 0.002337497 -0.40121198
0.05594856 0.11690731 -0.0012226132 0.015614177 0.086548604 0.022180727 0.03853659 0.10250313
-0.0275027 0.015555913 0.15271376 -0.08246925 0.044471413 0.057341244 -0.039299008 -0.063478924
-0.025034962 -0.066210754 0.048301216 0.083637975 0.0738018 0.035145383 0.0035340989 0.014308275
0.0137551315 -0.040155143 0.10397838 0.030975226 0.08844069 0.04579139 0.134584 0.0144032175
0.15539555 0.13517486 0.001979552 0.15596038 0.08135445 0.006130416 0.10562875 0.08192668
0.021696609 0.109704696 0.0575153 -0.02845773 0.16072133 0.057482652 0.14232501 0.033619065
0.04203271 0.054730944 0.046939164 -0.06448535 0.061774492 0.010157101 0.022586955 0.03235702
0.032471597 0.030110838 -0.094221145 0.081649564 -0.02482105 -0.009412497 0.059308544 0.04738153
-0.014005324 -0.194972 0.048580997 -7.829856e-05 -0.05742931 -0.0014483258 -0.04553259 -0.16413283
0.057605214 0.0596581 0.15718952 0.05415755 0.07748404 0.09054236 0.064383104 0.0527496
0.14358066 0.06347013 0.07234368 0.12921573 0.061825067 0.09436386 0.10461604 0.11947501
-0.005810579 0.10550249 0.033709556 0.03451316 0.104161076 -0.027434766 0.06761762 0.15376642
0.07229573 0.050458048 0.16352491 0.16644375 0.014616218 -0.030652797 -0.07760207 0.04833296
0.05505775 -0.103495464 0.059382197 -0.10013498 0.060613215 0.1280777 -0.07007362 0.0006567892
-0.004561533 -0.036763474 0.08303652 -0.013954588 0.022316188 -0.059603255 0.05012529 -0.45386946
-0.056396343 -0.010615577 -0.45278266 -0.07565337 0.13724716 -0.42993677 -0.08311979 0.03681993
0.028724378 0.031627305 0.043204434 0.052249048 -0.07346366 -0.05982285 0.043487325 -0.10042865
0.03422729 0.098233685 0.083111174 0.116048194 0.12227411 -0.021505667 0.12441 0.06545352
0.028530303 0.0072185677 -0.26027557 0.10500439 0.08146968 -0.19053996 0.12852731 0.02458037
-0.23410864 0.0040815705 0.036135007 0.11731596 -0.03774275 -0.02668743 0.046659164 0.010903509
-0.055457216 0.06793264 0.05450839 0.051222175 -0.048158634 -0.06739737 0.036134925 0.079772875

conv4.bias f4 [32]
00000000: 255b 7dbc 2091 5a3f 9257 fd3c 81e1 393c
00000010: 8aed ba3e 9b80 41bc 6222 9d3e f5e2 0dbd
00000020: 5071 83bc 9d98 913c 1d2a e33e a801 5a3e
00000030: 4b3c a23e ca2f d83e ab23 1c3e 3b69 ae3d
00000040: ac66 cb3e ae16 83bb 0792 773c 316b 443d
00000050: 0e0d af3e ac7b 4e3e ed49 973d 9e8c 1bbd
00000060: 9feb 563d 6cc2 493f 4b0a 4dbd fbf4 4e3d
00000070: fa99 4a3d 75bd f63c 13af d13e 0603 d83c
-0.015463625 0.85377693 0.030925546 0.011345268 0.36509353 -0.011810447 0.30690295 -0.03464027
-0.016045243 0.017772967 0.44368067 0.21289694 0.31686625 0.4222396 0.15247981 0.08516165
0.3972677 -0.0040005064 0.015110499 0.04795379 0.34189647 0.20164365 0.07387147 -0.0379759
0.0524708 0.7881229 -0.050058644 0.0505266 0.04946325 0.030119637 0.40953884 0.02636863

batch4.weight f4 [32]
00000000: f0d5 9d3e 958b b340 2ff7 5d3f e3c3 b63e
00000010: badb 8240 21a7 dd3e a69f 7b40 1175 c13e
00000020: 7bc0 e53e 84d6 883f da75 9740 3aca 4540
00000030: 40d5 4740 c2b4 8640 230f 4840 9a1a df3f
00000040: 086c 9d40 54c2 9e3e bc7d b63e 9aa6 923e
00000050: de59 6240 c127 6b40 02c9 4a40 0660 c13e
00000060: 917c 513f 39ef 4440 e7f8 d93e 2a32 3e3f
00000070: 600c c73e 9f63 b73f b76b 7c40 3d04 7d3f
0.30827284 5.610789 0.867053 0.35696325 4.089322 0.43291572 3.9316192 0.37784627
0.44873413 1.0690465 4.733136 3.090468 3.1223907 4.209565 3.1259239 1.7429993
4.9194374 0.31007636 0.35642803 0.28642732 3.536735 3.6743014 3.1685185 0.37768573
0.818307 3.077101 0.4257271 0.74295294 0.3887663 1.4327277 3.9440744 0.9883459

batch4.bias f4 [32]
00000000: 8fe0 2ebf 4bf9 82c0 10d4 a3bf 98b9 21bf
00000010: 9368 1dc0 a932 49bf 2ac6 48c0 8452 2ebf
00000020: 6657 4dbf cbb5 c0bf 8c81 41c0 b30f f9bf
00000030: b40d 1ec0 0780 38c0 f320 0fc0 f38f f3bf
00000040: dc14 10c0 d1a6 2cbf a5cf 31bf 7dd0 2cbf
00000050: b273 29c0 66b6 03c0 71b5 d6bf 5813 39bf
00000060: c1a7 aabf ef5e 9ebf 796a 58bf 8a13 8bbf
00000070: ff5f 38bf 4d03 06c0 e328 66c0 98d1 c6bf
-0.683114 -4.0929313 -1.2799091 -0.6317382 -2.4595077 -0.78592926 -3.137095 -0.6809466
-0.80211484 -1.5055479 -3.023532 -1.9457916 -2.4695864 -2.8828142 -2.236386 -1.9028305
-2.2512732 -0.6744204 -0.69457465 -0.6750563 -2.6476865 -2.0580077 -1.6774122 -0.7229514
-1.3332444 -1.2372721 -0.84537464 -1.0865338 -0.7202148 -2.0939515 -3.5962455 -1.5532713

lin1.weight f4 [5, 800]
00000000: 441d 11bd 42d1 113c 7e4e 6ebc f6f9 3fbc
00000010: f8d8 3ebc 70fa d1bc b14a 50bc 2db6 a23c
00000020: 2937 463b ef38 9fbc 5423 0cbe f2cd efbc
00000030: 8607 243d 2cfe 7abd b703 fdbc 2839 ec3b
00000040: 14b1 9fbd bab7 ab3b b7b2 45bd 20a0 233b
00000050: 5c2b 7fbc 79c0 dc3c 9006 c4bc ee76 2f3c
00000060: 7dfe e73b 0596 9fbb 04a8 70bc f630 89bb
00000070: 52e8 28bb fc0a 7c3c a63f 57bb ea52 aabb
00000080: 255d 963a d2fa 41bb c5fd 763c c2c5 063c
00000090: 13c2 dabb d987 10bc 013b 543c 9a8b a43b
000000a0: b49e 8dbc c5c6 25bc cd74 4cbc 7f4b a3bc
000000b0: cade 01bc f5e3 a13a 4c41 133b 56db 93ba
000000c0: 26c2 e2bb 4469 65ba 62e9 233d 44aa 0c3d
000000d0: 6ad0 393d 839a 423d 7226 0d3d 34dc d23c
000000e0: e7c8 58be 7a92 41be 862b 56be 3571 923d
000000f0: 5508 7fbe 24b2 13be c66d acbd 24a6 f4bd
00000100: 0ad1 ccbd 830c 6bbe 0d44 61bc 7fc6 26be
00000110: fdf2 0abe 6ef4 513c 023d 5fbd 3f08 24be
00000120: 2883 13be ab7a 3bbe cdb4 06be ebf9 3ebd
00000130: 0388 b93b b7a3 f9bb 3c8e 203c a96b 283c
00000140: 3fd2 afbc 30a8 82bd 6bdc 9cbc e9b8 88bd
00000150: 27cf bbbd 20a1 133d 882f d53b 85ac 6d3d
00000160: bacd d7bc 5cdb e6bd 6086 07bd 40e9 c2bc
00000170: a49c 053b dcbd b23c a3bc edbb d19d 253c
00000180: b4db cebb a119 adbc 8c40 843c 80be 5d3d
00000190: 66d9 073b 164b 7cbc 20be b13b be25 69bc
000001a0: 6bd2 3a3c 8b08 253c 8166 873b 2b50 5fbc
000001b0: 0088 7fbb 4f20 b1bc f716 963c e513 dbbb
000001c0: 32e0 5bbc 0089 b0bb 00a6 09bc 103d 003c
000001d0: d34d 98bc d0aa 063a ecb7 023c 2282 6cbc
000001e0: ba39 22ba 4994 15bc 1ba2 70bb b799 25bc
000001f0: 25c7 d3bc 03d8 e33c 4e72 57bc 421f 97bd
00000200: fb9f b2bc a2c3 8abb fe1d 0cbd afb6 1dbe
00000210: 4ec1 6d3c b075 babd 4c43 0cbd c7c4 3dbb
00000220: 514c 93bd caa7 a9bc 9c81 7cbd 1b5a fdbd
00000230: 07d3 f03b 740f 0f3c 0a98 f03d 8771 5cbd
00000240: 7f06 6fbd 57a9 cc3c 3531 1b3d f551 423d
00000250: b555 ccbc 708b 17bd 79ac e33b 2fe0 36bc
00000260: dc40 253c f8a7 603a 3b1e e53c 8cde ec3b
00000270: d14e 28bc 9963 593b 0d11 113c 2b4f 19bb
00000280: 33d9 ba3b a3fd f3bb 4288 25bb dca0 95bb
00000290: 0145 58bc bd6d 94ba 86f5 0dbc 2ed7 153b
000002a0: 8585 56bc ba48 043c cdc3 113d dea4 22bc
000002b0: e7f6 0d3c ac99 19bc a813 8d3b 79b6 cebc
000002c0: 0421 a5ba ee88 2abc 55b7 1f3c da73 45bc
000002d0: 5dd1 523b b88c 993b 6830 bf3b 7b7e 4f3b
000002e0: 401d 8ebc fd6c 61bc 798f c73c 058b d2bb
000002f0: 41f5 263c 1626 633c 682f e03c c235 823b
00000300: 6ec4 bfbc ea6d 8ebc b505 3a3c a3c9 0abc
00000310: e451 04bc aa88 3d3c 5f74 2c3b aad0 9dbb
00000320: 6862 00bd c1ef 4cbb 4a14 75bc 9ab0 2abb
00000330: 05e9 39bd 4d63 0b3d cd4c 7abb 0271 9f3b
00000340: 01f7 ccbb 364f 15bc aef3 593d a4b9 c93c
00000350: c567 89bc ab7c 80bc 6237 c03b 8b83 42bd
00000360: 5082 393d c4e4 0bba ba58 803c 3810 4a3d
00000370: a953 12bd f103 c1ba 4e53 03bc edbf 6e3c
00000380: bc4e 15bc 61f8 783d fba2 d63d 40b0 14be
00000390: fc37 9abe f1a7 fabc 4494 193d 9071 62bb
000003a0: fc91 733c 40cb 003d cd78 82bd aba1 c3bd
000003b0: 88ab 05be c7ca 153e 02f0 2ebe 1aa1 0bbe
000003c0: b856 883d cd72 50bd f603 7f3d 02b2 4ebe
000003d0: 29b1 66bd f3f0 17bc e050 38bd 9183 84bc
000003e0: a3dd 14be 9bf6 5c3d db24 26bb cd4e f63b
000003f0: e95d 4ebc 9b28 e1ba 69e9 c2bc eb45 983b
-0.0354283 0.008899989 -0.014545081 -0.01171731 -0.011648409 -0.025632113 -0.01271312 0.019862259
0.003024528 -0.019436328 -0.13685352 -0.029273007 0.040046237 -0.061277553 -0.03088556 0.007208962
-0.07797447 0.005240408 -0.04826614 0.0024967268 -0.0155743025 0.026947247 -0.02392891 0.010709507
0.007079898 -0.0048701786 -0.014688496 -0.004186745 -0.002577324 0.015383478 -0.0032844334 -0.0051978724
0.0011471851 -0.0029598963 0.015075152 0.00822586 -0.0066759675 -0.008821451 0.012953521 0.0050215246
-0.01728759 -0.010118191 -0.012479019 -0.01993346 -0.007926652 0.0012351262 0.002246934 -0.0011280577
-0.006920117 -0.00087513425 0.040017493 0.034342065 0.045364775 0.047510635 0.034460492 0.025739767
-0.21170388 -0.18903533 -0.2091504 0.07150499 -0.24905522 -0.14423424 -0.08419375 -0.11945751
-0.100008085 -0.22953992 -0.013749135 -0.16286658 -0.13569255 0.012814624 -0.05450154 -0.1601877
-0.14405501 -0.18308513 -0.13154908 -0.04662506 0.005661966 -0.0076183933 0.009799536 0.010279574
-0.021462558 -0.063797355 -0.019148072 -0.06675894 -0.091703705 0.036042333 0.0065059103 0.058025856
-0.026343215 -0.11272308 -0.033087134 -0.023792863 0.0020387555 0.021819048 -0.0072551533 0.010108427
-0.0063128117 -0.021130385 0.01614406 0.054136753 0.0020728945 -0.015398761 0.005424276 -0.01423019
0.011402707 0.010072838 0.0041320925 -0.013629953 -0.0038990974 -0.021621851 0.018321497 -0.006685721
-0.013420152 -0.0053874254 -0.008401394 0.007827058 -0.018591797 0.00051371474 0.007978421 -0.014435323
-0.00061884115 -0.009129592 -0.0036717716 -0.010107449 -0.025851795 0.027812963 -0.013149811 -0.07379009
-0.0218048 -0.004234747 -0.03420829 -0.1540172 0.014511419 -0.09104478 -0.034243867 -0.00289564
-0.071922906 -0.02070989 -0.061647043 -0.12370702 0.007349375 0.008731712 0.11747749 -0.053819206
-0.058355805 0.024983091 0.037888724 0.04744144 -0.024943212 -0.036998212 0.0069480506 -0.011161848
0.010086264 0.0008569951 0.027968517 0.007228678 -0.010272698 0.0033170937 0.008854163 -0.0023393135
0.0057021617 -0.0074460073 -0.0025258218 -0.004566295 -0.013200046 -0.0011324208 -0.008664494 0.0022863853
-0.013093357 0.00807398 0.03558712 -0.009927003 0.008664823 -0.009375017 0.0043053217 -0.025233494
-0.001259834 -0.010408623 0.0097483 -0.012051547 0.0032168247 0.0046859644 0.005834628 0.0031661082
-0.017347932 -0.013758895 0.024360405 -0.006425264 0.010190309 0.013864061 0.027366355 0.0039736936
-0.023409095 -0.017386395 0.0113539 -0.0084709255 -0.008076165 0.011568228 0.002631448 -0.0048161345
-0.031343848 -0.0031270834 -0.014958451 -0.0026045204 -0.04538824 0.034030247 -0.003819275 0.0048657665
-0.006255031 -0.009113124 0.053210907 0.024624653 -0.016773114 -0.015684446 0.005865977 -0.04748873
0.04529029 -0.0005336518 0.015667308 0.049331874 -0.035724316 -0.0014725906 -0.008015467 0.014572126
-0.00911301 0.060783748 0.10480305 -0.14520359 -0.30120838 -0.030597659 0.037494913 -0.0034552552
0.014866348 0.031443834 -0.06370697 -0.0955232 -0.13053715 0.14628135 -0.17083743 -0.13635674
0.06657165 -0.050890733 0.062259637 -0.20185092 -0.056321297 -0.009273755 -0.044999003 -0.016176017
-0.14537673 0.05394612 -0.0025351557 0.007516718 -0.012595632 -0.0017178239 -0.02379294 0.0046470067

lin1.bias f4 [5]
00000000: 64c6 93bc c76e 0abd 4593 bf3b d414 f6bc
00000010: 4c5f 63bc
-0.018038936 -0.03379705 0.0058464133 -0.030039228 -0.013877701

exp_avg f4 [32, 3, 3, 3]
00000000: cf5a c53c 6c86 9c3c 5432 753c 9e58 c53c
00000010: 056e a43c a36e 903c 8569 bc3c 9db6 aa3c
00000020: 2ef6 a83c eae2 c23c 3bf0 a43c 2ca9 873c
00000030: c418 bd3c 87c1 a93c baeb 933c 8152 bd3c
00000040: 69f8 b33c e5ba b23c a9ca 8c3c abbb 603c
00000050: 9d34 293c 6252 8b3c 198f 693c 0570 463c
00000060: e6fc 923c 165a 853c 1f44 813c 859c b5bb
00000070: d89d 7fbb b1b4 2dbb aa6a fbba f383 e2ba
00000080: 11c2 6cba 18e8 99ba 7300 f4ba 9d8a 9aba
00000090: 7d57 bdbb c750 9abb 5454 89bb 3704 59bb
000000a0: 109e 6cbb 4ea3 50bb 7978 4abb e876 6dbb
000000b0: 5534 5dbb b009 abbb a9be 6ebb 5736 2bbb
000000c0: b1b5 3ebb 57a9 1cbb 9ae2 e8ba 634c 60bb
000000d0: e783 44bb ff33 1abb a38a d43b e140 d53b
000000e0: d3b6 cf3b 165d ed3b efba cd3b 72ae cd3b
000000f0: 7fb1 df3b 318d d93b 5405 b53b b167 8f3b
00000100: a115 973b 74cb 833b e37f ad3b 228e 893b
00000110: 1d22 843b 34f6 953b d1cb 7a3b dc88 463b
00000120: 9c3b 3d3b 13c8 343b 3521 043b a79d 643b
00000130: 6d34 1d3b 078a 193b ffbe 3e3b dde9 063b
00000140: c6ed af3a 4f76 e53c 3fd3 df3c 6a9e e23c
00000150: baf3 e53c 021f dc3c 8afc d93c 7462 e43c
00000160: 0636 d43c 909b d93c a709 b33c a7ed a73c
00000170: fa95 b13c edc4 b73c 18a7 a23c 5dbe ac3c
00000180: 75a4 b23c 9ac5 953c ce5a a43c 44e4 763c
00000190: 014a 573c 5c7b 6e3c d6fb 873c 794f 653c
000001a0: e4da 7c3c a74f 8a3c bc45 683c 0ed1 803c
000001b0: c90c d3b9 a1c1 eaba 4f3f c3ba 128b 8639
000001c0: 428d 5eba a2b2 8aba 21fd 263b e857 ab3a
000001d0: eb7d 2f3a 4d42 15bb 49dd 78bb 3d90 60bb
000001e0: 8e70 c8ba d895 42bb bac2 55bb 8c69 e539
000001f0: 91f6 5fba 8f47 aeba 8a05 2abb a0c4 80bb
00000200: 2e28 60bb a069 00bb 05ac 47bb 8feb 46bb
00000210: c1a3 d839 7643 1eba e0b9 7bba 3115 55ba
00000220: f0e5 2fb9 faaa 1cbb 767b 683b fb06 213b
00000230: 3e5a 30ba 350a c93b b01f 4a3b dd04 b1b9
00000240: 80f7 b8ba ae53 1639 3554 ceba 1512 643b
00000250: 0bdf 603b 8419 1d3a 87d1 d23b f13f 873b
00000260: fe85 a83a 4c2b da39 dbf9 353b 271a 223b
00000270: 69a4 bf3b fdde e83b 42ab b03b 24c7 0b3c
00000280: b678 ff3b 81e3 be3b 6601 c7ba add6 54ba
00000290: 8b5c d8ba 6558 683b 51df 893b 4a5a 7f3a
000002a0: b8de 4e3b 955d 993b 580b 673a 7182 c43a
000002b0: 5f52 433b f295 603b 8ff0 0c3c 301b 223c
000002c0: d138 e73b 5211 1d3c c083 313c b1e2 ff3b
000002d0: 0900 d93a 0aad 8c3a e7c0 503b a560 ed3b
000002e0: 0912 db3b e8b8 be3b 9c05 023c 4653 da3b
000002f0: 228f c63b 86aa 573d 7101 5a3d 76b9 5a3d
00000300: d350 5c3d 4e69 583d fd7f 583d e2da 623d
00000310: c65b 603d 7c14 5c3d cdee 5d3d f9e3 5f3d
00000320: c172 633d c4f2 643d 5a10 643d 753d 623d
00000330: 2f87 673d 4c4d 653d 4242 623d d970 563d
00000340: 25a4 583d 9a44 5e3d 7c58 5e3d fe29 5d3d
00000350: c50b 613d 3ef3 613d 492f 5f3d 23d7 613d
00000360: 9670 283c 773e 193c 271f 293c 824f 343c
00000370: c45c 3f3c 0000 443c 1222 523c c2f7 683c
00000380: e57b 783c 6657 f43b 0821 fb3b 08b1 093c
00000390: cdf7 2a3c 8a89 443c 225a 413c 89e3 593c
000003a0: d962 783c 2bb0 7c3c b0d1 ef3b 7b0d 063c
000003b0: 231c 033c 5c51 1e3c cb3c 423c 2be0 2b3c
000003c0: 99e5 3c3c f189 583c c017 533c 457a 39bc
000003d0: 5ff2 28bc 85a8 1abc 5591 37bc 5f2e 30bc
000003e0: ef4c 1dbc 8857 2dbc 5b39 18bc e600 0bbc
000003f0: ebda 85bc 0042 7cbc 90af 74bc 00ec 83bc
0.024091152 0.019107066 0.014965612 0.024090108 0.020071993 0.01763088 0.022999534 0.02083903
0.0206252 0.023789842 0.020134082 0.01656016 0.023083098 0.020722164 0.01805674 0.02311063
0.021969037 0.021817634 0.01718648 0.0137166185 0.010327485 0.017007057 0.014255309 0.0121116685
0.017942857 0.016278308 0.015779553 -0.00554234 -0.0039003994 -0.0026505406 -0.0019181569 -0.0017281756
-0.00090316037 -0.0011742143 -0.0018615857 -0.0011790578 -0.0057782517 -0.0047093364 -0.004190961 -0.0033114085
-0.0036104955 -0.0031835618 -0.0030894561 -0.0036234204 -0.0033753116 -0.0052196607 -0.003642956 -0.0026124918
-0.0029099996 -0.0023904645 -0.0017767728 -0.0034225218 -0.0029985846 -0.0023529527 0.0064862533 0.0065079783
0.006338933 0.0072437627 0.0062783877 0.006276899 0.006826579 0.006639146 0.005524317 0.0043763747
0.0046107327 0.0040220562 0.0052947863 0.0041978518 0.004032387 0.004576469 0.0038268457 0.0030293977
0.0028874641 0.0027585074 0.0020161394 0.0034884007 0.0023987547 0.0023428218 0.0029105542 0.002058617
0.0013422302 0.028010515 0.02732241 0.027663428 0.02807032 0.026870254 0.026609678 0.027878977
0.025904667 0.026563436 0.021855189 0.020499064 0.02167796 0.022432769 0.019855067 0.021086866
0.021806935 0.0182827 0.02006283 0.015069071 0.0131402025 0.014555778 0.016599577 0.013995999
0.015433047 0.016883684 0.014176782 0.015724685 -0.00040254582 -0.0017910489 -0.0014896187 0.00025662087
-0.0008489677 -0.0010581801 0.0025480466 0.0013072463 0.00066944835 -0.0022775114 -0.0037973693 -0.003426566
-0.0015292333 -0.0029691365 -0.0032617287 0.00043756922 -0.0008543516 -0.0013296473 -0.0025943243 -0.0039296895
-0.0034203636 -0.0019594207 -0.0030467522 -0.0030352806 0.00041320737 -0.0006037274 -0.00096025877 -0.0008128463
-0.00016774959 -0.002390562 0.003547398 0.002457081 -0.00067273143 0.00613525 0.003084164 -0.00033763694
-0.0014111847 0.00014336288 -0.0015741648 0.0034800817 0.0034312631 0.0005992877 0.006433669 0.0041274955
0.0012857316 0.0004161246 0.0027767334 0.0024734826 0.0058484566 0.0071066604 0.0053915093 0.008531366
0.0077963723 0.0058254604 -0.0015182912 -0.00081191474 -0.0016507072 0.0035453078 0.0042075296 0.0009740932
0.0031565856 0.0046803453 0.0008813641 0.0014992488 0.0029803736 0.0034269062 0.0086022755 0.009894177
0.0070563336 0.009586649 0.010834634 0.007809006 0.0016555797 0.0010732722 0.003185326 0.007244187
0.0066854996 0.0058203824 0.007935908 0.006662759 0.006059543 0.05265286 0.05322403 0.053399526
0.053788017 0.0528348 0.052856434 0.055384524 0.054775022 0.053730473 0.054182816 0.05466077
0.05552936 0.05589558 0.055679657 0.05523439 0.056525405 0.05598192 0.05523897 0.052353714
0.052890915 0.054264642 0.054283604 0.053995125 0.054942865 0.055163614 0.054488454 0.05513681
0.010280749 0.009353272 0.010322369 0.011005284 0.011679832 0.011962891 0.012825506 0.014219226
0.0151662575 0.007456708 0.0076638497 0.008404024 0.010435057 0.0119956825 0.0118012745 0.0132988775
0.015160286 0.015422861 0.007318698 0.008181925 0.008002314 0.009662952 0.0118553145 0.0104904575
0.01152935 0.013216482 0.01288408 -0.011320655 -0.010311692 -0.009439592 -0.011204083 -0.010753243
-0.009600862 -0.010579951 -0.009291018 -0.008484101 -0.01633974 -0.015396595 -0.0149344355 -0.016103745
