results_auto/01_domain_adaptation/maml_supervised/June/officehome_maml_order_2_seed_0_shots_1_ways_5_meta-lr_0.0001_pre-train-wts_datetime_11_06_2021_09_47_43/intermediate_23000_model.pt (torch, 412181 bytes, 54 tensors)

conv1.weight f4 [32, 3, 3, 3]
0	0x3ece74bf	0.40323445
1	0x3db5c7fe	0.08876036
2	0xbdd1b885	-0.102402724
3	0xbdbfdbea	-0.09368117
4	0xbe332a9d	-0.17496724
5	0xbe135b46	-0.14390287
6	0x3ddc003a	0.10742231
7	0x3d5168f1	0.05112547
8	0xbe1a50ad	-0.15069838
9	0x3c5c89a8	0.013460554
10	0xbe4bd51b	-0.19905512
11	0x3d907317	0.07053202
12	0xbeb16ad0	-0.34651804
13	0xbdfe3143	-0.1241174
14	0xbc34c862	-0.011034103
15	0xbbc660be	-0.006054013
16	0x3e20037b	0.15626328
17	0x3e90ee92	0.28307015
18	0xbf521c6a	-0.82074606
19	0xbede7016	-0.4344489
20	0x3e30e622	0.17275289
21	0xbe91d180	-0.28480148
22	0x3de0d322	0.109777704
23	0x3f12d500	0.5735626
24	0xbe1ab290	-0.15107179
25	0x3eb0c6b7	0.34526607
26	0x3f4b928f	0.79520506
27	0x3d93bb22	0.07213427
28	0x3d48ebdc	0.049053058
29	0x3eabe177	0.33570454
30	0xbe3d116b	-0.18463676
31	0x3e6ca297	0.23108898
32	0x3e94f424	0.29092515
33	0xbf011830	-0.5042753
34	0xbedd8330	-0.4326415
35	0xbdbe0a06	-0.092792556
36	0xbde7710c	-0.11300859
37	0x3e81e0d2	0.25366837
38	0x3ebdf103	0.3709794
39	0xbe6f551f	-0.23372315
40	0xbcc43f7d	-0.023956055
41	0x3dfddc1f	0.123955004
42	0xbf0196e9	-0.50620896
43	0xbf06080d	-0.52356035
44	0xbe61772c	-0.22018117
45	0x3df4fe49	0.119625635
46	0x3ebacd70	0.3648486
47	0x3f03cb87	0.51482433
48	0xbe8f29c6	-0.27961558
49	0x3c0cf9fb	0.008604522
50	0x3eaf516f	0.34241816
51	0xbd3e5dee	-0.046476297
52	0xbe0e3816	-0.13888583
53	0x3c43f037	0.011959127
54	0x3ec69139	0.3878267
55	0x3db47b09	0.088125296
56	0x3e86910e	0.26282543
57	0xbe8dcaf7	-0.27693912
58	0xbe9e3d11	-0.30905965
59	0xbec194a4	-0.37808716
60	0xbd2f23af	-0.04275864
61	0xbd7b8191	-0.06140286
62	0xbdb3df15	-0.08782784
63	0x3ec32e55	0.38121286
64	0x3ea2df47	0.31810972
65	0x3e0e833b	0.13917248
66	0xbc1e2a6f	-0.009653672
67	0xbd18b1aa	-0.03727881
68	0xbe292d09	-0.16521086
69	0x3d40aaf9	0.047038052
70	0xbea2a22a	-0.31764346
71	0xbe109a83	-0.14121442
72	0x3eef0960	0.4668684
73	0x3ee77040	0.45202827
74	0x3f090acb	0.53532094
75	0x3e1c1057	0.15240608
76	0xbd5ef5e4	-0.05443372
77	0xbebef29f	-0.3729448
78	0xbe811d97	-0.25217888
79	0xbeed0d64	-0.4629928
80	0xbebbfbed	-0.36715642
81	0x3efd7dd3	0.4951006
82	0x3ebfe387	0.37478277
83	0xbd2e3fd8	-0.042541355
84	0xbe115991	-0.14194323
85	0xbeb87d1b	-0.36032948
86	0xbed38832	-0.41314846
87	0x3da9f49a	0.08298607
88	0x3e3b47c1	0.1828909
89	0xbd6dd826	-0.058067463
90	0x3ed6b5ef	0.4193568
91	0x3ee5fceb	0.44919524
92	0x3ed8c1a9	0.4233525
93	0xbe6cfd59	-0.2314352
94	0xbf082b9f	-0.5319156
95	0xbf0188e2	-0.5059949
96	0x3dc5068e	0.09620391
97	0x3ddff215	0.10934845
98	0xbe00365a	-0.12520733
99	0x3c7c469b	0.015397693
100	0x3ed38336	0.41311044
101	0x3f01d3df	0.50713915
102	0xbef31eb9	-0.47484377
103	0xbec67a6a	-0.3876527
104	0xbeb531e6	-0.35389632
105	0xbd9def0f	-0.077116124
106	0xbd3c5eba	-0.045988776
107	0x3d969e11	0.073543675
108	0x3b557a5d	0.0032574155
109	0x3db207b9	0.08692879
110	0xbd53d54b	-0.051717084
111	0x3e39ae74	0.18132955
112	0xbdacf63e	-0.084454045
113	0x3e5ef2d6	0.21772322
114	0x3db30add	0.087423064
115	0xbe570f23	-0.21001868
116	0xbdf8daff	-0.12151145
117	0x3e601e89	0.21886648
118	0x3eae654e	0.34061664
119	0x3e4b5664	0.19857174
120	0x3e748f57	0.23882805
121	0x3e43100e	0.19049093
122	0x3bebce35	0.0071962127
123	0xbd92d978	-0.07170385
124	0xbe894a87	-0.26814672
125	0xbe93d4a7	-0.28873178
126	0xbf867fe9	-1.0507785
127	0x3df28599	0.11841888
128	0xbe2c3ea7	-0.16820775
129	0xbf477007	-0.77905315
130	0x3eb44c66	0.35214537
131	0x3d80aebe	0.062833294
132	0xbfbd6c0a	-1.4798596
133	0x3e90850f	0.28226516
134	0xbe65cb9b	-0.2244095
135	0xbe8244aa	-0.25443012
136	0xbda87ab1	-0.082265265
137	0xbe5e3d3b	-0.21703045
138	0x3d82051c	0.06348631
139	0x3e4fd2fa	0.20295325
140	0x3e9af978	0.30268455
141	0x3eaaf10f	0.33387038
142	0x3f093e6f	0.5361089
143	0x3e3c443d	0.18385406
144	0xbec69a72	-0.38789707
145	0xbdcfaf8c	-0.10140905
146	0x3ceccab0	0.028905243
147	0xbeb74ecb	-0.35802302
148	0xbecb4111	-0.3969808
149	0xbe9d67bb	-0.30743203
150	0xbf1871d5	-0.59548694
151	0xbed29807	-0.41131613
152	0xbebe030d	-0.37111703
153	0x3eddbf5f	0.43310067
154	0x3f079ffc	0.5297849
155	0x3be7cfea	0.007074346
156	0x3e919aa0	0.28438282
157	0x3cbb69a9	0.022877531
158	0x3def96b5	0.11698667
159	0xbd9dd5ee	-0.077068195
160	0x3d4476db	0.047964912
161	0xbe03d020	-0.12872362
162	0xbf19ce92	-0.60080826
163	0xbe975893	-0.29559764
164	0xbe3bcbf0	-0.18339515
165	0xbdba273d	-0.09089515
166	0x3daf9cc3	0.08574822
167	0x3e7e2550	0.24818921
168	0xbbc58e27	-0.006028909
169	0x3edf0ff9	0.43566874
170	0x3f088f2c	0.5334346
171	0xbeb3205f	-0.34985635
172	0x3e6641f5	0.22486098
173	0x3bc18978	0.00590628
174	0xbeb3e354	-0.35134375
175	0x3e868b69	0.26278237
176	0x3cd45df0	0.0259237
177	0xbe92ea18	-0.28694224
178	0x3e96e293	0.29469737
179	0xbe2a453f	-0.16627978
180	0x3e33071d	0.17483182
181	0x3ed09aad	0.40743008
182	0x3ecf6a0f	0.40510604
183	0xbd652d3e	-0.05595135
184	0x3e7e4e65	0.24834593
185	0x3d92243a	0.07135816
186	0xbeeb6d2b	-0.45981726
187	0xbe11ff88	-0.14257634
188	0xbedccf63	-0.43126974
189	0x3d38459d	0.044988263
190	0x3eb93f17	0.36180946
191	0x3e44c3c4	0.19215304
192	0xbf224d46	-0.6339916
193	0xbe6b1509	-0.22957243
194	0xbf0fa7c3	-0.5611536
195	0x3cbb4861	0.022861661
196	0x3e5d6929	0.21622147
197	0x3e69d999	0.22836913
198	0xbe37ae3f	-0.17937563
199	0x3e85cbe0	0.26132107
200	0x3d345029	0.04402176
201	0xbecc557c	-0.3990897
202	0xbeafaac7	-0.3430998
203	0xbf1b019a	-0.6054932
204	0x3dff97ef	0.12480151
205	0x3f26035c	0.64848876
206	0x3e3c9a0e	0.18418142
207	0x3e34688d	0.17618008
208	0x3e7eff50	0.24902081
209	0x3d7b1522	0.06129945
210	0xbea7297c	-0.32648838
211	0xbe7538a4	-0.23947388
212	0xbeae14d4	-0.34000266
213	0x3e962d28	0.29331326
214	0x3ee0b436	0.4388749
215	0x3e8eb98b	0.27875933
216	0xbe577a89	-0.21042837
217	0xbeea23fe	-0.45730585
218	0x3f1b905d	0.60767156
219	0xbec965e6	-0.39335555
220	0xbe8b998c	-0.27265584
221	0x3f106fc1	0.5642052
222	0xbe0d16f0	-0.13778281
223	0xbe5833e4	-0.21113545
224	0x3d9ab2e3	0.07553651
225	0x3e80bf87	0.25146124
226	0xbf023b04	-0.508713
227	0x3df883d5	0.1213452
228	0x3cabdec9	0.020980256
229	0xbe39cf1c	-0.18145412
230	0x3e473ba6	0.19456348
231	0x3e8ab32a	0.27089816
232	0xbd21ac79	-0.039471123
233	0x3eab08a5	0.33405033
234	0x3e8f056e	0.2793383
235	0xbece6eb4	-0.40318835
236	0x3e9c3f29	0.30516937
237	0xbe265351	-0.1624272
238	0xbe92a87a	-0.28644162
239	0x3e3d067f	0.1845951
240	0x3d228891	0.03968102
241	0xbd5d4c6a	-0.054027952
242	0xbd468de1	-0.04847515
243	0x3ebd6f84	0.36999142
244	0x3ec745d7	0.3892047
245	0xbdeb783e	-0.11497544
246	0x3f06f05b	0.52710503
247	0x3dc5f2d1	0.09665454
248	0xbd883b13	-0.066518925
249	0x3eb43b2d	0.35201398
250	0xbc25e22c	-0.010124724
251	0x3cc7118e	0.024300363
252	0x3e9806c2	0.29692656
253	0xbd9ee506	-0.077585265
254	0xbe884657	-0.26616165
255	0xbd5d3a3d	-0.05401062

conv1.bias f4 [32]
0	0xbdba921f	-0.09109902
1	0xbfc673c6	-1.5504081
2	0x3d5b2307	0.0535002
3	0xbe634a08	-0.2219621
4	0xbf382098	-0.71924734
5	0xc0d905ee	-6.781974
6	0x3c8f0d81	0.017462494
7	0xbccfe36f	-0.025377003
8	0xbe959205	-0.29212967
9	0x3e50fb5e	0.20408389
10	0xbe96b3c9	-0.2943404
11	0xbcedf045	-0.029045234
12	0x3f5ebec9	0.87009865
13	0xbfcff281	-1.6245881
14	0xbe525e18	-0.20543706
15	0xbe0b9432	-0.13630751
16	0xbc6dc31f	-0.0145118525
17	0xbe8b8f6d	-0.27257863
18	0xbe59ade5	-0.21257742
19	0xc0624bd1	-3.5358775
20	0x3f814bd4	1.0101266
21	0x3cf1159e	0.029429253
22	0x3dd240b4	0.102662474
23	0x3dc9dce3	0.09856584
24	0xc125109c	-10.316555
25	0x3e752991	0.23941638
26	0xbe1e280f	-0.15444969
27	0xbdb0711b	-0.08615323
28	0x3e86e013	0.2634283
29	0xbeefbb98	-0.4682281
30	0xc02d640e	-2.7092319
31	0x3d97b7cd	0.07408104

batch1.weight f4 [32]
0	0x3f992141	1.1963273
1	0x3f864436	1.0489566
2	0x3f31817a	0.6933819
3	0x3f977327	1.1832017
4	0x3f666555	0.8999837
5	0x3f4787c3	0.7794153
6	0x3f8cfb23	1.1014141
7	0x3f8d3e0e	1.1034563
8	0x3f58f254	0.84744763
9	0x3f82c30b	1.0215772
10	0x3fa889e8	1.3167086
11	0x3f3e2673	0.7427742
12	0x3f6aaba4	0.9166815
13	0x3f15c8f5	0.5850976
14	0x3ef6ff4c	0.4824165
15	0x3f59a13b	0.85011643
16	0x3f48b3c0	0.78399277
17	0x3f8b92de	1.0904195
18	0x3fa37e0d	1.2772843
19	0x3f1ee61f	0.62069887
20	0x3f56286a	0.83655417
21	0x3f730820	0.9493427
22	0x3f7cee4c	0.9880111
23	0x3f912631	1.133978
24	0x3f584e5e	0.8449458
25	0x3f8f6745	1.120339
26	0x3fb2ced1	1.3969365
27	0x3f807efe	1.0038755
28	0x3fb042e9	1.3770419
29	0x3f1c8103	0.61134356
30	0x3f32b2f3	0.69804305
31	0x3f056e6c	0.52121615

batch1.bias f4 [32]
0	0x3f46c1f6	0.7763971
1	0xbf363a14	-0.7118237
2	0x3f4d7ff8	0.8027339
3	0x3d93c50a	0.072153166
4	0xbf07483c	-0.52844596
5	0x3e50e7b4	0.20400888
6	0x3fc19e4f	1.5126437
7	0x3f22c968	0.6358857
8	0x403169d3	2.772084
9	0x3de01380	0.10941219
10	0x3f8adc1b	1.0848421
11	0xbf157ac1	-0.5839043
12	0xbd87ee27	-0.06637221
13	0xbe945c50	-0.2897668
14	0x3d30bb7e	0.043147556
15	0xbf1090fb	-0.5647122
16	0xbd394950	-0.045235932
17	0xbdcd219d	-0.10016177
18	0xbf278dfd	-0.6545103
19	0xbe824e4f	-0.2545037
20	0xbd96bd68	-0.07360345
21	0x3e19d7d8	0.15023744
22	0x3e4a6994	0.19766837
23	0x3e45ce3d	0.19316955
24	0x3e93ff80	0.2890587
25	0xbce10c61	-0.027471723
26	0x3ecc3780	0.39886093
27	0x3c0e3e07	0.008681781
28	0xbdb74b24	-0.08949879
29	0x3cc89b27	0.024488045
30	0x3fc79c4a	1.5594571
31	0xbde2b6f8	-0.11070055

conv2.weight f4 [32, 32, 3, 3]
0	0xbd797b1e	-0.06090843
1	0x3e67cc69	0.2263657
2	0x3d4bcfe0	0.049758792
3	0xbdcc6030	-0.09979284
4	0x3e835a4d	0.25654832
5	0x3f06940d	0.5256966
6	0xbc89de7f	-0.016829727
7	0x3e388a94	0.18021613
8	0x3e424989	0.18973364
9	0x3e3fb844	0.18722636
10	0xbe4f1fd3	-0.20226984
11	0xbd0ed49b	-0.034870725
12	0x3d9787ff	0.07398986
13	0xbb37fa53	-0.002807279
14	0x3f13fd08	0.5780797
15	0xbe7be2aa	-0.24598184
16	0xbe581cd8	-0.21104753
17	0x3e521cf2	0.20518854
18	0xbf0d9ef8	-0.5532069
19	0xbf0df7ea	-0.5545641
20	0xbee97793	-0.4559904
21	0xbee5267b	-0.4475592
22	0xbe2cc2cd	-0.16871186
23	0xbf4f57b3	-0.80993193
24	0x3de3855b	0.1110942
25	0x3e39c76e	0.18142483
26	0x3ee3da8c	0.44502676
27	0x3edbda8a	0.4294017
28	0x3e42ce80	0.19024086
29	0xbe63970d	-0.2222559
30	0xbe268a7b	-0.16263764
31	0xbe28e392	-0.16493061
32	0xbf338111	-0.70118815
33	0x3e2c414a	0.16821781
34	0xbd49172a	-0.049094357
35	0xbe284da9	-0.16435875
36	0x3e951ce9	0.2912362
37	0x3e0fa602	0.1402817
38	0x3ce337b4	0.027736522
39	0x3e8a8f84	0.2706262
40	0x3dde2319	0.10846538
41	0x3c94ee68	0.018180087
42	0x3dcecfb2	0.100982085
43	0xbe1b0221	-0.15137531
44	0xbdbe4231	-0.09289969
45	0xbe3991f6	-0.18122086
46	0xbe8ad3fe	-0.27114862
47	0xbe53f2e5	-0.20698126
48	0x3d03d0c2	0.03218151
49	0xbc41c486	-0.01182664
50	0x3e134a13	0.14383726
51	0x3e5a1a2f	0.21299051
52	0x3dcf3de8	0.101192296
53	0x3e5f91b7	0.2183293
54	0x3d855afb	0.06511494
55	0xbe3d4164	-0.18481976
56	0xbe82c4f0	-0.25540876
57	0x3e26638d	0.16248913
58	0x3d0b7714	0.03404911
59	0xba928172	-0.0011177494
60	0x3e1c08ea	0.15237775
61	0xbe2b94d5	-0.16755994
62	0x3e7fb2a0	0.24970484
63	0x3dd0ed8e	0.1020156
64	0x3da0fa17	0.07860201
65	0xbe2f634b	-0.17127721
66	0x3e3c6eb4	0.18401605
67	0x3d3dc9a5	0.04633488
68	0xbdb009ce	-0.0859562
69	0x3da5d2b8	0.08096832
70	0x3e853f16	0.26024693
71	0x3da78275	0.081791796
72	0xbda59b54	-0.08086267
73	0x3e40f2fb	0.1884269
74	0x3e8183a3	0.25295743
75	0xbe448bca	-0.1919395
76	0x3db67620	0.08909249
77	0x3ed0708a	0.4071086
78	0xbee968aa	-0.45587665
79	0xbe7c2353	-0.2462285
80	0x3deffab2	0.11717738
81	0xbe5ea058	-0.21740854
82	0xbf2f2617	-0.68417495
83	0xbecac643	-0.39604387
84	0xbe99e130	-0.30054617
85	0xbe7aaae5	-0.24479254
86	0x3e33de17	0.1756519
87	0xbd05b43e	-0.032642595
88	0x3d808aef	0.062764995
89	0x3ee0a03e	0.43872255
90	0xbe23f68b	-0.16012017
91	0xbda31f42	-0.07964946
92	0x3d550351	0.052005116
93	0xbdbb38df	-0.09141707
94	0x3e7e8467	0.24855195
95	0x3e08b3d7	0.13349853
96	0xbe0e6525	-0.13905771
97	0xbeaf8578	-0.34281516
98	0xbe98a27b	-0.29811463
99	0xbef8a222	-0.48561198
100	0xbe09d526	-0.13460216
101	0xbe83bb26	-0.2572872
102	0xbebbcee8	-0.36681294
103	0x3e9c0db5	0.30479208
104	0x3dbfd2a7	0.093663506
105	0xbeac34c0	-0.33633995
106	0x3eccf5be	0.40031236
107	0x3e6e2817	0.2325748
108	0xbe90aa07	-0.2825472
109	0xbe5df94a	-0.21677127
110	0xbe903cf2	-0.28171498
111	0x3e190ded	0.14946719
112	0x3e73b095	0.2379783
113	0x3b00f38b	0.0019676413
114	0xbe8d257d	-0.27567664
115	0x3c91c26f	0.017792908
116	0x3ed971e4	0.42469704
117	0x3d2dc3d9	0.042423103
118	0xbdda49c3	-0.106586
119	0xbc96782b	-0.018367847
120	0x3d75bec8	0.059996396
121	0xbe492841	-0.19644262
122	0xbeaeb234	-0.34120333
123	0x3dcf773a	0.101301625
124	0xbda780ca	-0.081788614
125	0xbefff152	-0.499888
126	0xbf010f76	-0.50414217
127	0xbef9f653	-0.48820743
128	0xbe7ef221	-0.24897052
129	0xbd0009db	-0.0312594
130	0xbd890d58	-0.06691998
131	0x3e774dbb	0.24150746
132	0x3e4aef30	0.19817805
133	0x3e89b79a	0.2689789
134	0x3efce49d	0.49393168
135	0x3e8b5897	0.27216026
136	0xbea300da	-0.31836587
137	0x3ca77ac7	0.020444287
138	0x3eb85505	0.36002365
139	0xbc351f89	-0.011054882
140	0x3d03ba61	0.032160167
141	0xbd86eaf0	-0.065877795
142	0xbed34ed1	-0.4127107
143	0xbe9bf33d	-0.30459014
144	0xbf1d2d81	-0.6139756
145	0xbdb61090	-0.08889878
146	0xbe9d03ea	-0.3066705
147	0xbda58ab4	-0.08083096
148	0x3f0ef538	0.55842924
149	0x3e8bd095	0.27307573
150	0xbe04352a	-0.12910905
151	0x3e9d79e5	0.3075706
152	0x3ebbf581	0.36710742
153	0x3eb8a0b0	0.36060095
154	0xbd8ae2a4	-0.067815095
155	0x3e959a29	0.29219177
156	0x3e43f33f	0.1913576
157	0x3ace4a66	0.0015738725
158	0xbda8f5ab	-0.082499824
159	0xbe3d2f3f	-0.18475054
160	0xbe919fde	-0.2844228
161	0xbeb2921a	-0.34877092
162	0xbd69e1e5	-0.057100195
163	0xbe98c41a	-0.29837114
164	0xbe4badbe	-0.19890496
165	0x3e2b7c49	0.1674663
166	0xbdcc2f73	-0.09969988
167	0x3e985c38	0.29757857
168	0x3ee7fdbf	0.4531078
169	0xbbdc6945	-0.0067264163
170	0x3ecdd611	0.40202382
171	0x3dda0502	0.106454864
172	0xbea8bbb7	-0.32955715
173	0xbd8d19d9	-0.06889696
174	0xb7c8aba2	-2.392178e-05
175	0xbbaaa1e5	-0.0052072876
176	0x3d9eaa2a	0.077473
177	0xbd50d3b3	-0.050983142
178	0x3cebacdd	0.028768951
179	0xbe544544	-0.20729548
180	0xbd35359a	-0.04424057
181	0xbdafd534	-0.08585587
182	0xbe90c263	-0.28273305
183	0xbd09e660	-0.03366697
184	0x3dccb179	0.09994788
185	0x3e85f153	0.26160678
186	0x39dd9962	0.00042266684
187	0x3e627d3e	0.22118089
188	0x3e084b6e	0.13310024
189	0x3e277fa6	0.16357288
190	0x3da47245	0.08029608
191	0x3bc8a717	0.0061234343
192	0xbece3885	-0.40277496
193	0xbe3c9e8a	-0.18419853
194	0xbe454ab1	-0.19266774
195	0xbe3050a5	-0.17218263
196	0x3d8fb265	0.07016448
197	0x3e68bc4a	0.22728077
198	0xbe6aee1a	-0.22942391
199	0xbf216183	-0.63039416
200	0xbeafb8d8	-0.34320712
201	0xbed673a4	-0.41885102
202	0x3dc71ad9	0.09721918
203	0x3e993ec6	0.29930705
204	0xbd04a860	-0.032387137
205	0x3e900c01	0.28134158
206	0x3f3a670a	0.72813475
207	0xbdb7ebf4	-0.08980551
208	0xbe884ffe	-0.2662353
209	0x3e5f72f2	0.21821192
210	0xbdf3c250	-0.119022965
211	0x3a9175bb	0.0011097708
212	0x3e205ee1	0.15661193
213	0x3d0b2683	0.033972275
214	0xbca3945f	-0.01996821
215	0x3c79b228	0.01524023
216	0xbec284e2	-0.37992007
217	0xbe0771e6	-0.13227043
218	0x3dcbf53f	0.09958886
219	0xbe3177fa	-0.17330924
220	0x3d041d06	0.03225424
221	0x3ef4a97f	0.47785565
222	0xbecf1bf9	-0.4045103
223	0xbdf447c2	-0.11927749
224	0xbc9c883d	-0.019107932
225	0x3d1d5b7a	0.038417317
226	0xbe2c3ca0	-0.16820002
227	0xbef98109	-0.4873126
228	0xbea35ca0	-0.31906605
229	0xbe42cb73	-0.19022922
230	0xbf35f713	-0.7108013
231	0xbd00dfb0	-0.031463325
232	0x3df8e72d	0.12153468
233	0x3e0d8fc0	0.13824368
234	0x3e669d3f	0.22520922
235	0x3cfe4b5d	0.031041795
236	0xbe942fd7	-0.2894275
237	0x3e82a83a	0.25518972
238	0x3dd866f2	0.1056651
239	0x3d84b3ef	0.06479632
240	0xbec96a9c	-0.3933915
241	0xbe5543b7	-0.20826612
242	0xbf02e56a	-0.5113131
243	0x3db3f1b7	0.08786338
244	0x3e87b46d	0.2650484
245	0x3dcf16d9	0.1011178
246	0xbe053f42	-0.13012412
247	0x3e1a1d07	0.15050136
248	0xbb9d57e9	-0.0048017395
249	0xbece7836	-0.4032609
250	0x3cfcb2b9	0.03084694
251	0x3c31c469	0.0108500505
252	0xbdf06475	-0.11737911
253	0xbee45c82	-0.44601828
254	0x3d327ccf	0.043576058
255	0x3cd9c288	0.026582018

conv2.bias f4 [32]
0	0x3dc62ae5	0.0967615
1	0x3e153c93	0.14573888
2	0x3e097797	0.13424526
3	0x3e0f85b8	0.14015853
4	0x3d82f678	0.063946664
5	0x3dbece68	0.093167126
6	0xbfb1cc95	-1.3890558
7	0xbd08e4b9	-0.033421252
8	0x3ebd4f31	0.3697448
9	0xbeaa119e	-0.33216566
10	0x3e85ffdf	0.26171777
11	0xbe178f23	-0.14800696
12	0xbd4fb0c6	-0.050705694
13	0x3e357f73	0.177244
14	0x3d564d27	0.052319672
15	0xbdc13c81	-0.09435368
16	0xbd8082bf	-0.06274938
17	0xbe31cf0e	-0.17364141
18	0xbd710216	-0.05883988
19	0xbdce7598	-0.10081023
20	0xbd4d7a7a	-0.05016563
21	0x3d262c25	0.040569443
22	0x3e056e6b	0.13030402
23	0x3d0d7adb	0.034540992
24	0x3ea457b1	0.32098153
25	0xb95f0eea	-0.00021272493
26	0x3bc8d4a7	0.0061288658
27	0xbe095144	-0.13409907
28	0xbf10d781	-0.5657883
29	0x3eaf5a7b	0.3424872
30	0xbd2cb35a	-0.04216323
31	0x3ec6c588	0.3882258

batch2.weight f4 [32]
0	0x3f51c6c0	0.81943893
1	0x3f7813f6	0.9690546
2	0x3fba4631	1.4552671
3	0x3f90fab9	1.1326514
4	0x3f7c88e9	0.9864641
5	0x3f99d786	1.2018898
6	0x3f9b99e4	1.2156339
7	0x3f32eefe	0.69895923
8	0x3f917779	1.1364585
9	0x3f5f1fa1	0.87157637
10	0x3f974cc3	1.1820301
11	0x3f6b07fd	0.91809064
12	0x3f1ab464	0.60431504
13	0x3fac1214	1.3443017
14	0x3f888110	1.0664387
15	0x3f9f32d0	1.2437382
16	0x3f56cf07	0.8390965
17	0x3f6350a6	0.88794935
18	0x3f73868e	0.9512719
19	0x3f4939f6	0.78604066
20	0x3f959036	1.1684635
21	0x3f876380	1.057724
22	0x3f96f3d0	1.1793156
23	0x3f8b3e23	1.0878338
24	0x3f807c57	1.0037946
25	0x3f3fe6d2	0.7496158
26	0x3f45e36e	0.77300155
27	0x3f227e46	0.6347393
28	0x3f8e94d6	1.1139171
29	0x3f71005e	0.94141185
30	0x3f6b2c4d	0.9186447
31	0x3f4c68c7	0.7984738

batch2.bias f4 [32]
0	0xbd7ee685	-0.06223156
1	0xbf067225	-0.5251792
2	0xbeb0bd69	-0.34519508
3	0xbf10db57	-0.56584686
4	0xbe93d5aa	-0.2887395
5	0xbf1df96d	-0.6170872
6	0xbeb40f8b	-0.35168108
7	0xbe559cf1	-0.2086065
8	0xbef6fda9	-0.48240402
9	0xbea5b5a2	-0.32365137
10	0xbef87c22	-0.48532206
11	0xbea8a2d0	-0.32936716
12	0x3ce7a83c	0.028278463
13	0xbee220e1	-0.4416571
14	0xbec0ef58	-0.37682605
15	0xbf0feb8d	-0.56218797
16	0xbec36099	-0.38159636
17	0xbedeb3dc	-0.43496597
18	0xbef79116	-0.4835288
19	0xbd18acb7	-0.03727409
20	0xbee05822	-0.4381724
21	0xbebd0cb6	-0.3692376
22	0xbf118b10	-0.5685282
23	0xbeb4c9ee	-0.3531031
24	0xbf0233ec	-0.50860476
25	0xbe883572	-0.26603276
26	0xbe480f99	-0.195372
27	0xbe94d20e	-0.2906651
28	0xbe3ece3a	-0.18633357
29	0xbebc5db7	-0.3679025
30	0xbea70504	-0.32621014
31	0xbef7a18e	-0.48365444

conv3.weight f4 [32, 32, 3, 3]
0	0x3e9b54c0	0.30338097
1	0x3f0502a8	0.5195718
2	0x3dbd9cbd	0.09258411
3	0xbeae31e0	-0.34022427
4	0xbbc43bc5	-0.0059885704
5	0x3e828dd2	0.25498825
6	0xbeebd05d	-0.46057406
7	0xbe683df3	-0.22679882
8	0xbd8fa483	-0.070138
9	0x3e065dde	0.13121745
10	0x3dacee7f	0.08443927
11	0xbeb7871f	-0.35845277
12	0xbdf2bcc6	-0.11852412
13	0xbe207534	-0.1566971
14	0xbc929eea	-0.017898042
15	0x3e98bc76	0.29831284
16	0x3e5c7196	0.21527705
17	0xbec6b2e7	-0.38808367
18	0x3d4f4445	0.050602216
19	0x39a5394a	0.00031513936
20	0xbef49d0a	-0.4777606
21	0x3e962848	0.29327607
22	0x3e31e344	0.17371851
23	0xbe247c86	-0.16063127
24	0x3ddd179e	0.1079552
25	0x3d258639	0.040411208
26	0xbe70f9b7	-0.23532759
27	0xbe670fa4	-0.2256456
28	0xbea429da	-0.3206318
29	0x3eadc6b9	0.33940676
30	0x3d01a7d8	0.03165421
31	0xbe410cd7	-0.18852554
32	0x3ecc4dd5	0.3990313
33	0xbec07ee1	-0.375968
34	0xbe645050	-0.22296262
35	0x3e92ad3a	0.28647786
36	0x3e8c3695	0.27385393
37	0x3ee13286	0.4398386
38	0x3d3af651	0.045645062
39	0xbd0cab5a	-0.0343431
40	0x3d3ffb62	0.046870597
41	0xbdf1ba70	-0.11803138
42	0xbd80a01b	-0.06280538
43	0x3ce104fc	0.027468197
44	0xbdb897bc	-0.09013316
45	0x3e88ca5f	0.26716897
46	0x3e55edab	0.20891444
47	0x3e5602cb	0.20899503
48	0x3d87d233	0.06631889
49	0x3e3c04b2	0.18361166
50	0x3ea1c4ed	0.31595555
51	0xbeeb6a05	-0.45979324
52	0x3d535021	0.05159009
53	0xbe72b308	-0.23701108
54	0x3ec9c10f	0.39405105
55	0x3dcac72f	0.099012725
56	0xbe7554c3	-0.23958115
57	0x3e18148c	0.14851588
58	0xbd16c390	-0.036807597
59	0xbd0c38ec	-0.034233972
60	0x3e888619	0.26664808
61	0x3ed4c8b0	0.41559362
62	0x3ddcea56	0.107868835
63	0xbeb7b682	-0.3588143
64	0xbe911566	-0.28336638
65	0xbf0dac32	-0.55340874
66	0x3e37096e	0.17874691
67	0xbe78382e	-0.24240181
68	0xbe9bd122	-0.30432993
69	0xbe042959	-0.12906398
70	0xbe17382b	-0.1476752
71	0xbb8dde24	-0.0043294597
72	0x3e1f0330	0.1552856
73	0xbe3bb154	-0.18329364
74	0xbea741d0	-0.32667398
75	0xbd698d7b	-0.057019692
76	0x3ca4a200	0.020096779
77	0x3e57ad87	0.21062289
78	0x3c9c767f	0.019099472
79	0x3d517f65	0.051146884
80	0x3e2e4e1e	0.17021987
81	0xbf50acc0	-0.81513596
82	0xbde259c4	-0.11052278
83	0x3e90d392	0.28286415
84	0xbf31b969	-0.6942354
85	0xbea39f7f	-0.31957623
86	0x3e62269e	0.22085044
87	0xbe31a7b1	-0.17349125
88	0xbbc07ea8	-0.0058744736
89	0x3df7ace0	0.1209352
90	0xbe47217f	-0.19446371
91	0xbf1be019	-0.6088882
92	0x3e727d85	0.23680694
93	0xbded5c73	-0.11589899
94	0x3d934b98	0.07192153
95	0x3e6b014b	0.22949712
96	0xbddd106a	-0.10794146
97	0x3b0388f2	0.002007064
98	0x3c7c181b	0.015386607
99	0x3d6c1367	0.05763569
100	0x3db5284a	0.08845575
101	0x3e732ad9	0.23746814
102	0x3e28453f	0.16432665
103	0xbe31bd84	-0.1735745
104	0xbe1fa5eb	-0.15590636
105	0x3e0c029e	0.13672873
106	0x3eafac6e	0.3431124
107	0xbe45ae04	-0.19304663
108	0xbd81ade2	-0.06331994
109	0xbe0dae85	-0.13836105
110	0xbede5778	-0.43426108
111	0xbe480a80	-0.19535255
112	0xbdcbc76d	-0.09950147
113	0xbed1cec8	-0.40978074
114	0xbe5584a4	-0.2085138
115	0x3db8dca5	0.090264596
116	0xbe73d8a6	-0.23813114
117	0xbe5eac8c	-0.21745509
118	0xbe0d4305	-0.13795097
119	0x3d58187a	0.052757718
120	0x3db2b50d	0.08725939
121	0x3dbc0597	0.09180754
122	0xbe93deae	-0.2888083
123	0xbd061427	-0.032734063
124	0x3db360e2	0.08758713
125	0xbef8a807	-0.48565695
126	0xbe1798ba	-0.14804354
127	0xbe791667	-0.24324952
128	0xbf17a9a5	-0.5924323
129	0xbd2b9921	-0.041894082
130	0xbd818445	-0.063240565
131	0x3d95fab3	0.07323208
132	0xbc8066d9	-0.015674042
133	0x3e60176d	0.21883936
134	0xbd227999	-0.039666746
135	0x3e973e2c	0.2953962
136	0xbd5d0299	-0.053957555
137	0xbe52b027	-0.2057501
138	0x3e3ccaab	0.18436687
139	0xbe6b6fda	-0.22991887
140	0xbf11275d	-0.5670069
141	0xbe0bf9ad	-0.13669463
142	0x3ea982c0	0.33107567
143	0xbe8adf12	-0.27123314
144	0x3e161741	0.14657308
145	0xbcb5a40d	-0.022172952
146	0xbf266d24	-0.65010285
147	0xbd44063e	-0.047857516
148	0x3c63fbf7	0.013915054
149	0xbca0e02f	-0.019638149
150	0xbe57affd	-0.21063228
151	0xbe2415e6	-0.16023979
152	0xbe2c1b79	-0.16807355
153	0xba7cdf1b	-0.00096462824
154	0xbe0b3c84	-0.13597304
155	0x3ec075a3	0.3758975
156	0x3e8264e9	0.25467613
157	0x3e8fd245	0.2809011
158	0x3e6ffc7e	0.23436162
159	0xbe01c147	-0.12671386
160	0x3e30d617	0.17269169
161	0x3e5679ca	0.20944896
162	0x3c1a212e	0.009407325
163	0x3e47087d	0.19436832
164	0x3e9a4be4	0.30136025
165	0xbe15bdd7	-0.146232
166	0xbe54dbb3	-0.20786934
167	0xbea28ab4	-0.31746447
168	0x3e1f0f5e	0.15533206
169	0xbf07e761	-0.5308743
170	0xbed27c52	-0.41110474
171	0xbe93a220	-0.2883463
172	0x3d330d63	0.04371394
173	0x3dc5edfa	0.09664531
174	0xbebd259c	-0.36942756
175	0x3c0a279a	0.008432293
176	0xbe8547d6	-0.2603137
177	0xbec05878	-0.37567496
178	0xbe9fb5f7	-0.31193516
179	0xbe66b0ff	-0.22528456
180	0xbda92d7f	-0.08260631
181	0x3d1281b1	0.035768215
182	0x3eb1f631	0.34758142
183	0x3e7e2721	0.24819614
184	0x3d334596	0.043767534
185	0x3e1a7da6	0.15086994
186	0x3e9ae53f	0.30253026
187	0x3dc7256d	0.09723935
188	0x3c94287e	0.018085714
189	0x3edf41e2	0.43604952
190	0xbc195341	-0.009358228
191	0x3d48663a	0.048925616
192	0x3e738ad6	0.2378343
193	0xbecb2fc7	-0.3968489
194	0xbeb44fef	-0.35217234
195	0xbddbc215	-0.107303776
196	0x3c52d6da	0.012868607
197	0x3ddded2b	0.10836252
198	0x3e7285d2	0.23683861
199	0x3d9782e1	0.0739801
200	0xbea46a14	-0.3211218
201	0x3e9ec4d2	0.31009537
202	0x3ed60411	0.41799977
203	0x3e0c8809	0.13723768
204	0x3ca5a6b4	0.020221092
205	0x3e3191dd	0.17340799
206	0x3d0d743c	0.034534678
207	0x3ce77b6f	0.0282571
208	0xbd35c259	-0.044374797
209	0xbe297fe9	-0.165527
210	0xbebba146	-0.3664648
211	0xbe112bd3	-0.14176874
212	0x3c83900b	0.016059896
213	0xbf19723b	-0.59939927
214	0xbd6bde43	-0.057585012
215	0x3e732a66	0.23746642
216	0x3e3d108d	0.18463345
217	0xbd54c3e6	-0.051944636
218	0xbf8596c5	-1.0436636
219	0x3e3bfd9a	0.1835846
220	0xbe8872da	-0.26650125
221	0xbe4f3f0c	-0.20238894
222	0xbd93353a	-0.071878865
223	0xbe9ef9a7	-0.31049845
224	0xbe1555b4	-0.14583474
225	0x3d690753	0.05689175
226	0xbe682d78	-0.22673595
227	0xbf027816	-0.50964487
228	0xbeb63976	-0.35590714
229	0xbd44ea49	-0.048074994
230	0xbf10c256	-0.56546533
231	0x3d46c992	0.048532076
232	0x3ebe6751	0.371882
233	0x3e8997ea	0.26873714
234	0x3e9ea823	0.30987653
235	0x3e947442	0.28994948
236	0xbeb8fa65	-0.36128536
237	0x3eee3777	0.4652669
238	0x3e848247	0.25880644
239	0xbef0d1f8	-0.47035193
240	0x3eead246	0.4586355
241	0x3da7d911	0.08195699
242	0xbe5560c0	-0.20837688
243	0x3ca9c836	0.02072535
244	0xbe3df2d7	-0.18549667
245	0xbdbd3cc5	-0.092401065
246	0x3e72085d	0.23636003
247	0x3e4d95fc	0.20076746
248	0xbea47707	-0.3212206
249	0xbd1a3c1f	-0.037654992
250	0xbe873e61	-0.2641478
251	0xbf2796e4	-0.65464616
252	0xbd60b950	-0.054864228
253	0xbe60ec7c	-0.21965212
254	0x3e909656	0.28239697
255	0x3c438866	0.011934375

conv3.bias f4 [32]
0	0x3e72b960	0.23703527
1	0x3e7821a2	0.2423158
2	0x3eeca370	0.46218443
3	0x3dab5551	0.08365882
4	0x3e227005	0.15863045
5	0x3dd18c7b	0.10231873
6	0xbfe2c665	-1.7716795
7	0x3e89fd20	0.26950932
8	0xbd2b41e7	-0.041810896
9	0xbed11494	-0.40836012
10	0x3dcb394d	0.09923039
11	0xbb037f26	-0.00200648
12	0x3f0ec144	0.5576365
13	0x3ebf6c06	0.37387103
14	0x3d5f5932	0.054528423
15	0x3ee45439	0.44595507
16	0x3f2665f4	0.6499932
17	0x3e193943	0.1496325
18	0x3e91104b	0.28332743
19	0x3f1988e5	0.5997451
20	0x3f060bee	0.52361953
21	0xbcc274fc	-0.023737423
22	0x3e6cacb4	0.23112756
23	0x3f63e5b0	0.8902235
24	0x3da5ee86	0.08102135
25	0x3fa3888b	1.2776045
26	0x3ebf9766	0.37420195
27	0x3ef7444a	0.48294288
28	0x3ec4ceb2	0.38438946
29	0x3e626881	0.22110178
30	0xbe91551d	-0.2838525
31	0xbf222915	-0.63343936

batch3.weight f4 [32]
0	0x3f3dd115	0.7414716
1	0x3f596679	0.84921986
2	0x3f80127e	1.0005643
3	0x3f6d50d0	0.92701435
4	0x3f40ccf2	0.7531272
5	0x3f545e66	0.8295654
6	0x3fabf3e3	1.3433803
7	0x3f42b4c3	0.7605707
8	0x3f945d84	1.1591039
9	0x3f8c5dda	1.0966141
10	0x3f3e500b	0.74340886
11	0x3f463d3d	0.7743719
12	0x3f6b48ba	0.91907847
13	0x3f8e77f4	1.1130357
14	0x3f180296	0.59378946
15	0x3f4ce659	0.8003898
16	0x3f6df61a	0.92953646
17	0x3f692f40	0.9108772
18	0x3f3b75b3	0.7322647
19	0x3f5e6b01	0.86882025
20	0x3f671136	0.90260637
21	0x3f710731	0.941516
22	0x3f39b299	0.72538143
23	0x3fd3c3f7	1.6544179
24	0x3f4f9af1	0.81095797
25	0x3f8989dd	1.0745198
26	0x3f7a0d6b	0.97676724
27	0x3f738d4b	0.9513747
28	0x3f45b95d	0.77235967
29	0x3f396a8a	0.7242819
30	0x3f898952	1.0745032
31	0x3f7cebbd	0.9879721

batch3.bias f4 [32]
0	0xbe8e4cda	-0.27793008
1	0xbe95c1e5	-0.29249492
2	0xbecf9ebf	-0.405508
3	0xbee43f80	-0.44579697
4	0xbe89062f	-0.2676253
5	0xbf245063	-0.6418516
6	0xbf461818	-0.77380514
7	0xbe530851	-0.20608641
8	0xbf5cf385	-0.8630908
9	0xbe8a0f85	-0.26964965
10	0xbf000877	-0.50012916
11	0xbe119aa7	-0.14219151
12	0xbe9af8b9	-0.30267885
13	0xbeda9d38	-0.42698073
14	0x3d151a06	0.03640177
15	0xbeae3f1e	-0.3403253
16	0xbeebffa4	-0.46093476
17	0xbeb0fbd5	-0.34567133
18	0xbe8b2483	-0.27176294
19	0xbebb158e	-0.36539882
20	0xbf226e52	-0.63449585
21	0xbecd937b	-0.4015158
22	0xbe60f1b7	-0.21967207
23	0xbf72a95a	-0.9478966
24	0xbf126e74	-0.5719979
25	0xbf1a9b98	-0.6039367
26	0xbe984c94	-0.29745924
27	0xbf1896da	-0.5960518
28	0xbdb70ec2	-0.08938362
29	0xbe9c8e59	-0.30577353
30	0xbe861435	-0.26187292
31	0xbf7e0e29	-0.99240357

conv4.weight f4 [32, 32, 3, 3]
0	0xbdefe46f	-0.11713492
1	0xbbfe9330	-0.007769011
2	0xbbf61702	-0.007510067
3	0xbdeb73c1	-0.11496688
4	0xbd51b754	-0.051200226
5	0xbd1054d8	-0.035237163
6	0xbd980d66	-0.074244305
7	0xbe1115b4	-0.14168435
8	0x3de49c1c	0.11162588
9	0x3dbb91d3	0.09158673
10	0x3d85dfc0	0.065368176
11	0x3dbcd796	0.09220807
12	0xbbaeb982	-0.005332173
13	0xbdb881b7	-0.09009116
14	0x3c727df9	0.014800542
15	0x3d4fff3f	0.05078053
16	0xbd2aea9d	-0.04172765
17	0xbd0247f4	-0.0318069
18	0x3d97f8b6	0.07420485
19	0x3c009e3d	0.007850227
20	0x3cc1a77d	0.023639435
21	0x3d15a318	0.03653249
22	0x3bdec94b	0.0067988983
23	0x3d84f05e	0.06491159
24	0x3ccb56aa	0.024821598
25	0xbd85dc93	-0.06536212
26	0xbd3f1fce	-0.04666119
27	0xbe2f0b52	-0.17094162
28	0xbc28b65a	-0.010297382
29	0xbd58abc5	-0.052898187
30	0xbde410a3	-0.11135986
31	0x3c3d924d	0.011570525
32	0xbd764c1f	-0.06013119
33	0xbe183a95	-0.14866097
34	0xbc217091	-0.009853498
35	0x3d813d40	0.06310511
36	0xb89a3a43	-7.354144e-05
37	0x3dd13eb9	0.102170415
38	0x3d965aa5	0.07341508
39	0x3dd7036e	0.10498701
40	0x3e271fee	0.16320774
41	0x3d9230eb	0.071382366
42	0x3e2b9190	0.16754746
43	0x3db2d89e	0.08732723
44	0x3ce361e0	0.027756631
45	0x3dd8f177	0.10592931
46	0x3c9aa36b	0.018876752
47	0x3da60a1e	0.081073985
48	0x3e1fb389	0.15595831
49	0xbca95667	-0.020671083
50	0x3b97b362	0.0046295384
51	0x3e048eaf	0.12945054
52	0x3db6d955	0.089281715
53	0x3cd4f901	0.02599764
54	0xbc89bc97	-0.01681356
55	0x3d4fb3d3	0.050708603
56	0x3ab8c4c2	0.0014096724
57	0x3d3706ae	0.044684105
58	0xbd78ebff	-0.06077194
59	0x3c9e1488	0.0192969
60	0xbe4bbd29	-0.19896378
61	0x3d331682	0.043722637
62	0x3d95013d	0.07275627
63	0x3d821568	0.06351739
64	0xbc1471da	-0.009060347
65	0x3c535bb0	0.012900278
66	0x3e108a1a	0.14115182
67	0xbd086f5c	-0.033309326
68	0xbc2c1e2b	-0.0105052395
69	0x3cbcda68	0.023053363
70	0x3c7fb2e9	0.01560662
71	0x3d2db957	0.042413082
72	0xbe144626	-0.14479885
73	0x3de019b0	0.109423995
74	0x3d2f9bfd	0.04287337
75	0xbe5bb54f	-0.21455882
76	0xbde93c1e	-0.113884196
77	0x3dd6d358	0.10489529
78	0xbe3d3a2c	-0.18479222
79	0xbd10235d	-0.035189975
80	0xbd1fa585	-0.03897621
81	0xbed781c4	-0.4209119
82	0x3c3d1ac7	0.011542029
83	0x3c22d602	0.009938719
84	0xbebeac9e	-0.3724107
85	0x3b36fa14	0.0027920054
86	0x3b873a68	0.0041268356
87	0xbec9180f	-0.39276168
88	0x3d8c8bad	0.068625785
89	0x3e006856	0.12539801
90	0xbc1808fd	-0.009279487
91	0x3bb69bd8	0.0055727772
92	0x3dbd040a	0.09229286
93	0x3c30218e	0.010750188
94	0x3cd8f9d1	0.02648631
95	0x3dd61864	0.10453871
96	0xbcec06fb	-0.028811922
97	0x3c0269b8	0.007959776
98	0x3e0f33fb	0.13984673
99	0xbdbb2e51	-0.091396935
100	0x3d21117d	0.03932332
101	0x3d849a7b	0.06474777
102	0xbce841f4	-0.028351761
103	0xbd97a738	-0.07404941
104	0xbc91c319	-0.017793225
105	0xbd365f59	-0.044524524
106	0x3d55fd2b	0.052243393
107	0x3db1f426	0.08689146
108	0x3d8aff46	0.06786971
109	0x3cd19881	0.025585415
110	0x3c9011bf	0.017586587
111	0x3cb302e4	0.021851964
112	0x3b84f0e9	0.004057039
113	0xbd1cb87c	-0.038261876
114	0x3de3f2d8	0.11130303
115	0x3d250301	0.040286068
116	0x3dc2131c	0.09476301
117	0x3d817853	0.06321778
118	0x3e1cece0	0.15324736
119	0x3d14994b	0.036279004
120	0x3e368526	0.1782423
121	0x3e1f761b	0.15572397
122	0x3c669f98	0.014076136
123	0x3e3a97a8	0.18221915
124	0x3dd290ef	0.1028155
125	0x3c9b2a4d	0.018941069
126	0x3df9cec4	0.121976405
127	0x3dc217f0	0.09477222
128	0x3d1b8c9e	0.0379759
129	0x3deab59d	0.11460421
130	0x3d60d1fb	0.054887753
131	0xbcdfe756	-0.02733199
132	0x3e309a03	0.17246251
133	0x3d8a09f2	0.06740178
134	0x3e18c911	0.14920451
135	0x3d0cba4b	0.03435735
136	0x3d29b2e0	0.041430354
137	0x3d4d29ff	0.05008888
138	0x3d55636e	0.052096777
139	0xbd6f79c0	-0.05846572
140	0x3d7aa0a6	0.061188363
141	0x3b60469c	0.0034221774
142	0x3cd6a6de	0.026202615
143	0x3d4358f8	0.04769227
144	0x3d2361eb	0.039888304
145	0x3d562981	0.052285675
146	0xbd91b89e	-0.07115291
147	0x3db259ce	0.08708535
148	0xbcd1a990	-0.025593549
149	0x3b3169ae	0.0027071047
150	0x3db45163	0.08804586
151	0x3d948591	0.07252038
152	0xbc33b3a6	-0.0109681245
153	0xbe4b1195	-0.19830926
154	0x3d6526e5	0.055945296
155	0xbbd3bd66	-0.006461787
156	0xbd1cc3d2	-0.038272686
157	0x3c8221e6	0.015885305
158	0xbcdefb87	-0.027219547
159	0xbe32a8c7	-0.17447196
160	0x3d616f70	0.055037916
161	0x3d7271ec	0.059190676
162	0x3e1f5d61	0.15562965
163	0x3d527cfc	0.051388726
164	0x3daf4e76	0.08559887
165	0x3ddeb579	0.10874457
166	0x3d94073b	0.072279416
167	0x3d820548	0.063486636
168	0x3e174b30	0.14774776
169	0x3da35565	0.07975272
170	0x3d9cd4b1	0.07657755
171	0x3de916af	0.1138128
172	0x3d8c0849	0.06837518
173	0x3dcfd820	0.101486444
174	0x3db9269d	0.09040568
175	0x3df7a3d9	0.12091798
176	0xbb0a941b	-0.0021145407
177	0x3dbc21bd	0.091861226
178	0x3c31e80e	0.010858549
179	0x3c5d2a11	0.013498799
180	0x3de8cee1	0.11367584
181	0xbc5ff405	-0.013669019
182	0x3da5c13a	0.08093496
183	0x3e32a4dc	0.17445701
184	0x3dacc98f	0.08436882
185	0x3d84e995	0.06489865
186	0x3e283745	0.16427334
187	0x3e31da9a	0.17368546
188	0x3c833e8a	0.016021032
189	0xbd47ac6c	-0.04874842
190	0xbdb1fdd6	-0.086909935
191	0x3d33bfe9	0.04388419
192	0x3d6179e7	0.055047896
193	0xbdcd14da	-0.10013743
194	0x3d935409	0.07193763
195	0xbde55c7f	-0.11199283
196	0x3d2d5cdf	0.042324897
197	0x3def7a7b	0.11693283
198	0xbd923d94	-0.07140651
199	0xbb851a85	-0.0040619993
200	0xbb850179	-0.0040590134
201	0xbcef43d1	-0.029207142
202	0x3db7c102	0.0897236
203	0xbc893b37	-0.016751869
204	0x3c83a685	0.016070614
205	0xbd520457	-0.05127367
206	0x3cfc7008	0.03081514
207	0xbee31009	-0.4434817
208	0xbd89f1e5	-0.06735591
209	0xbba0cdcc	-0.0049073454
210	0xbee28bed	-0.4424738
211	0xbda7bc7a	-0.08190246
212	0x3e06e855	0.13174565
213	0xbed7ac11	-0.42123464
214	0xbdb92a39	-0.090412565
215	0x3d26f232	0.04075832
216	0x3cc76150	0.024338394
217	0x3d04613c	0.032319292
218	0x3d06f9d5	0.032953102
219	0x3d740219	0.059572313
220	0xbd95b7ef	-0.07310473
221	0xbd898658	-0.06715077
222	0x3d472ffa	0.04862974
223	0xbdcc9b1c	-0.09990522
224	0x3d4524a7	0.048130658
225	0x3dd607b7	0.1045069
226	0x3d907381	0.070532806
227	0x3df028c6	0.11726527
228	0x3dfa4659	0.12220449
229	0xbce74702	-0.028232101
230	0x3df904e4	0.12159136
231	0x3d7c1b44	0.06154944
232	0x3cf94400	0.030427933
233	0xba592668	-0.0008283616
234	0xbe8257cc	-0.2545761
235	0x3dc996c1	0.09843207
236	0x3dae87c0	0.08521986
237	0xbe3c432c	-0.18384999
238	0x3e064837	0.13113485
239	0x3ce4770e	0.027888801
240	0xbe5ea613	-0.2174304
241	0x3c7242d6	0.014786443
242	0x3d0321b7	0.032014575
243	0x3e01c2f9	0.12672032
244	0xbd522ec8	-0.051314145
245	0xbcb4eda1	-0.022085967
246	0x3d621bab	0.055202167
247	0x3b8e9932	0.0043517584
248	0xbd4c51f3	-0.04988284
249	0x3dab4b27	0.083639435
250	0x3d2e8b32	0.042613216
251	0x3d283f3b	0.041075926
252	0xbd4d02c3	-0.050051462
253	0xbd755c78	-0.05990264
254	0x3cf6081a	0.03003316
255	0x3d941a83	0.07231619

conv4.bias f4 [32]
0	0xbc7d7e2b	-0.015471975
1	0x3f59f8de	0.85145366
2	0x3cfde1cb	0.030991456
3	0x3c39e393	0.011345762
4	0x3ebcab53	0.3684946
5	0xbc4127df	-0.011789291
6	0x3ea012f2	0.31264454
7	0xbd0de2c9	-0.034640107
8	0xbc8370da	-0.016045023
9	0x3c903e48	0.017607823
10	0x3ee2a91f	0.44269654
11	0x3e55e18f	0.20886825
12	0x3ea3720a	0.31922942
13	0x3edc86e4	0.43071663
14	0x3e1ef8ee	0.15524647
15	0x3daea3b8	0.085273206
16	0x3ecfaa89	0.40559795
17	0xbb8316ae	-0.0040005064
18	0x3c77957d	0.015111324
19	0x3d446b9e	0.047954194
20	0x3ead577f	0.33855817
21	0x3e4cb469	0.19990696
22	0x3d933588	0.07187945
23	0xbd1b8cc6	-0.03797605
24	0x3d56e127	0.052460816
25	0x3f490cb2	0.78534997
26	0xbd4d0a5f	-0.05005872
27	0x3d4f0fdf	0.050552245
28	0x3d4a9b69	0.049464617
29	0x3cf6ed45	0.030142436
30	0x3ed25199	0.4107788
31	0x3cd80306	0.02636863

batch4.weight f4 [32]
0	0x3ea1a6bb	0.31572518
1	0x40b643b3	5.695764
2	0x3f590b94	0.8478329
3	0x3ebaeeeb	0.36510405
4	0x4085d7ca	4.1825914
5	0x3ed38abc	0.41316783
6	0x408085fb	4.016355
7	0x3ebd1f7f	0.36938092
8	0x3ee0034a	0.4375251
9	0x3f861339	1.0474616
10	0x40979c42	4.7378244
11	0x40459ba6	3.087625
12	0x404b2b3a	3.1745133
13	0x40879a30	4.2375717
14	0x4048e08c	3.1387053
15	0x3fdd83a9	1.7305804
16	0x40a18eec	5.0486965
17	0x3e9ec254	0.31007636
18	0x3eb3786a	0.35052806
19	0x3e92185c	0.2853421
20	0x40632781	3.5492861
21	0x406d7cc0	3.7107391
22	0x404e9334	3.2277346
23	0x3ec1a3a1	0.3782015
24	0x3f5328a8	0.8248391
25	0x40485e63	3.130761
26	0x3eda422b	0.42628607
27	0x3f3d61d6	0.7397741
28	0x3ec74881	0.38922504
29	0x3fb73996	1.4314449
30	0x407d6788	3.959444
31	0x3f7d043d	0.9883459

batch4.bias f4 [32]
0	0xbf2cd292	-0.67508805
1	0xc08291db	-4.0803046
2	0xbfa60c55	-1.2972513
3	0xbf1f92f0	-0.62333584
4	0xc01c720f	-2.4444616
5	0xbf4e2291	-0.80521494
6	0xc04604da	-3.094046
7	0xbf307e17	-0.689424
8	0xbf502679	-0.81308705
9	0xbfc349d6	-1.5256908
10	0xc0444e62	-3.067284
11	0xbffbf666	-1.968457
12	0xc01dbb07	-2.4645402
13	0xc03a22ed	-2.9083817
14	0xc0113112	-2.26862
15	0xbff50a2f	-1.9143733
16	0xc00eabed	-2.2292435
17	0xbf2ca6d1	-0.6744204
18	0xbf333a4a	-0.7001082
19	0xbf2d567d	-0.67710096
20	0xc02b0f08	-2.6727924
21	0xc002f8d3	-2.046437
22	0xbfd5c6dd	-1.6701313
23	0xbf38e0e6	-0.7221817
24	0xbfa9a18c	-1.3252425
25	0xbfa33d01	-1.2752992
26	0xbf5847c5	-0.8448451
27	0xbf8b5c77	-1.0887593
28	0xbf384bfa	-0.7199093
29	0xc0061ba1	-2.0954363
30	0xc068225d	-3.6270974
31	0xbfc6d198	-1.5532713

lin1.weight f4 [5, 800]
0	0xbd111d44	-0.0354283
1	0x3c444326	0.0119789
2	0xbcf027c4	-0.029315837
3	0xbc6c0c69	-0.014407256
4	0xbc6d4561	-0.014481873
5	0xbcd1fa70	-0.025632113
6	0xbcbca2dd	-0.023026878
7	0x3c7e6e2e	0.015529199
8	0x3b92dfd3	0.0044822483
9	0xbcccec05	-0.025014887
10	0xbe0c2354	-0.13685352
11	0xbd2ca33f	-0.04214787
12	0x3c049a78	0.008093469
13	0xbda595c0	-0.08085203
14	0xbd2a2c05	-0.041545887
15	0x3bec3928	0.007208962
16	0xbdc5a4f9	-0.09650607
17	0x3b98f98f	0.0046684216
18	0xbd518f4d	-0.051162053
19	0x3c2ca057	0.010536275
20	0xbc7f2b5c	-0.0155743025
21	0x3caeed50	0.021353394
22	0xbc35b7ca	-0.011091182
23	0x3c187e70	0.009307489
24	0xbb330a6e	-0.002731945
25	0x3ba2cf5c	0.004968567
26	0xbc677b12	-0.014128463
27	0xbb2afb13	-0.0026089593
28	0xbbfd137b	-0.0077232695
29	0x3cb57102	0.022148613
30	0xbb84c383	-0.004051627
31	0xbb5f751d	-0.0034096905
32	0x3b22e09b	0.0024853114
33	0xbb77a009	-0.0037784597
34	0x3c283ed0	0.010268882
35	0x3c1b13a3	0.009465131
36	0xbbaad2d9	-0.0052131233
37	0xbc2721a9	-0.010200896
38	0x3c2c82f5	0.010529269
39	0x3ae86261	0.0017729515
40	0xbcacf26b	-0.021111688
41	0xbc079d28	-0.008277215
42	0xbc3a0817	-0.011354468
43	0xbc8a6519	-0.01689391
44	0xbbaece6e	-0.005334667
45	0xbb264ddb	-0.0025375995
46	0x3b81e881	0.003964484
47	0xbb3ac2d2	-0.002849747
48	0xbbffa861	-0.0078020548
49	0xbbda82aa	-0.0066684084
50	0x3d35c18c	0.044374034
51	0x3cca8ece	0.024726298
52	0x3d155d66	0.036466025
53	0x3d17c391	0.03705174
54	0x3d169e1e	0.036771886
55	0x3a3790aa	0.00070024526
56	0xbe5f6075	-0.21814139
57	0xbe48a3bd	-0.19593711
58	0xbe54ad92	-0.20769337
59	0x3d876bee	0.06612383
60	0xbe7f0855	-0.24905522
61	0xbe18468f	-0.14870666
62	0xbdc33894	-0.09532276
63	0xbe06705e	-0.13128802
64	0xbdd262b2	-0.10272731
65	0xbe67cc3b	-0.22636501
66	0xbbbe6f1b	-0.0058115846
67	0xbe252dee	-0.16130802
68	0xbe01db7d	-0.12681384
69	0x3c7ac626	0.015306031
70	0xbd634cf2	-0.055493303
71	0xbe1061cc	-0.14099807
72	0xbe0af5cc	-0.13570327
73	0xbe35e6a4	-0.17763764
74	0xbe13820a	-0.14405075
75	0xbd3da1ad	-0.046296764
76	0x3be45220	0.006967798
77	0xbc30bd06	-0.010787254
78	0x3bb5e7ba	0.0055513056
79	0x3c286ba9	0.010279574
80	0xbcdf32a1	-0.027245821
81	0xbd8efbe5	-0.06981639
82	0xbce240aa	-0.027618725
83	0xbd88b8e9	-0.06675894
84	0xbdc7a711	-0.09748662
85	0x3d0a0b88	0.033702403
86	0x3c1b5734	0.00948124
87	0x3d2bce57	0.041944828
88	0xbcc16b98	-0.023610875
89	0xbdf83065	-0.121186055
90	0xbd18497a	-0.037179448
91	0xbccee65d	-0.02525633
92	0x3a7539b6	0.0009354608
93	0x3cc5a960	0.024128616
94	0xbb576468	-0.0032866243
95	0x3c6b7245	0.014370506
96	0xbc45fb6a	-0.012083868
97	0xbc8d4bc2	-0.017248038
98	0x3c98103f	0.018562434
99	0x3d4fcc45	0.050731916
100	0x3b7b327c	0.0038329652
101	0xbc6c7ac3	-0.014433566
102	0x3a012bc3	0.00049274805
103	0xbc8b9254	-0.017037548
104	0x3c46df40	0.012138188
105	0xbae40286	-0.0017395772
106	0x3a64e44a	0.00087315275
107	0xbc950b1a	-0.01819377
108	0xbbc53505	-0.0060182833
109	0xbcc09cf2	-0.023512337
110	0x3c80c521	0.015718998
111	0xbbad7782	-0.0052937875
112	0xbc7ff557	-0.015622458
113	0xbc02930e	-0.007969631
114	0xbc2f900f	-0.010715499
115	0x3b853300	0.0040649176
116	0xbc78e9cc	-0.01519246
117	0xbb1e8f26	-0.002419421
118	0x3bfa8b28	0.0076459832
119	0xbc83f06d	-0.016105855
120	0xbbe6d4dd	-0.0070444182
121	0xbc28cf80	-0.010303378
122	0xbbb91625	-0.005648392
123	0xbc414604	-0.011796478
124	0xbcc07bba	-0.023496497
125	0x3ce3d803	0.027812963
126	0xbca93ed7	-0.020659847
127	0xbd897ba1	-0.067130335
128	0xbc2f000d	-0.010681164
129	0xbacb3bab	-0.0015505453
130	0xbd0c1dfe	-0.03420829
131	0xbe2c3cce	-0.1682007
132	0x3c57b62b	0.013165991
133	0xbdcfefae	-0.10153137
134	0xbd1737b8	-0.036918372
135	0xbbc1e432	-0.0059170956
136	0xbd8f0cab	-0.06984838
137	0xbc9eb494	-0.019373216
138	0xbd9096ae	-0.0705999
139	0xbdff2383	-0.12457945
140	0x3bf0d307	0.007349375
141	0xbb0136b1	-0.0019716437
142	0x3dde1498	0.10843772
143	0xbd4f5cbf	-0.05062556
144	0xbd6d5693	-0.05794389
145	0x3ce7510e	0.028236892
146	0x3d2c1404	0.042011276
147	0x3d3cf2d9	0.046130035
148	0xbd0d3189	-0.03447107
149	0xbd1b36ae	-0.037893943
150	0x3cb3ef0c	0.021964572
151	0xb98ae234	-0.00026489946
152	0x3b21b8a9	0.0024676716
153	0xbb9b2453	-0.004734555
154	0x3cab0320	0.020875514
155	0x3bc76fb9	0.0060863164
156	0xbb9eeaf5	-0.0048497864
157	0xbb1e77cc	-0.0024180291
158	0x3bc08083	0.005874695
159	0xbaa52f6d	-0.0012602635
160	0x3bc46217	0.0059931385
161	0xbb633929	-0.0034671521
162	0xbb766e80	-0.0037602484
163	0xbb2741d7	-0.0025521421
164	0xbc1c6b04	-0.009546999
165	0x3b7e8312	0.0038835448
166	0xbbab9da8	-0.0052373
167	0x3bda8c5e	0.006669565
168	0xbbaf9800	-0.005358696
169	0x3c27b15e	0.010235159
170	0x3d4a2f95	0.049361784
171	0xbc1df109	-0.009639987
172	0x3c88625b	0.016648462
173	0xbc2f0c30	-0.010684058
174	0x3c29ddb0	0.010367796
175	0xbcceb679	-0.025233494
176	0xbaa52104	-0.001259834
177	0xbc2a88ee	-0.010408623
178	0x3c1fb755	0.0097483
179	0xbc4573da	-0.012051547
180	0x3b52d15d	0.0032168247
181	0x3b998cb8	0.0046859644
182	0xba78a369	-0.0009484799
183	0x39cec8ff	0.00039441136
184	0xbc8e1d40	-0.017347932
185	0xbc616cfd	-0.013758895
186	0x3cc78f79	0.024360405
187	0xbbd28b05	-0.006425264
188	0x3c5af60e	0.013364328
189	0x3bf05d6d	0.007335356
190	0x3ce02f68	0.027366355
191	0x3b8235c2	0.0039736936
192	0xbcbfc46e	-0.023409095
193	0xbc772237	-0.015083841
194	0x3c3a05b5	0.0113539
195	0xbc0ac9a3	-0.0084709255
196	0xbc0451e4	-0.008076165
197	0x3c3d88aa	0.011568228
198	0x3b2c745f	0.002631448
199	0xbbe114f4	-0.006868953
200	0xbd006268	-0.031343848
201	0xbb4cefc1	-0.0031270834
202	0xbc75144a	-0.014958451
203	0xbc431a3c	-0.01190811
204	0xbd2ceae4	-0.042216197
205	0x3d0b634d	0.034030247
206	0xbb7a4ccd	-0.003819275
207	0x3b9f7102	0.0048657665
208	0xbbccf701	-0.006255031
209	0xbc5b201e	-0.013374357
210	0x3d59f3ae	0.053210907
211	0x3cafb77a	0.021449793
212	0xbc8967c5	-0.016773114
213	0xbc807cab	-0.015684446
214	0x3c07a117	0.008278153
215	0xbd42838b	-0.04748873
216	0x3d398250	0.04529029
217	0xbb6c01da	-0.0036011846
218	0x3c22a236	0.009926369
219	0x3d4a1038	0.049331874
220	0xbd1253a9	-0.035724316
221	0xbac103f1	-0.0014725906
222	0xbc03534e	-0.008015467
223	0x3c6ebfed	0.014572126
224	0xbc154ebc	-0.00911301
225	0x3d7235cb	0.059133332
226	0x3dc4f066	0.09616165
227	0xbe13aea0	-0.14422083
228	0xbe9380e3	-0.2880927
229	0xbd0a8cb0	-0.033825576
230	0x3d2acc62	0.04169882
231	0xbac86f24	-0.0015291912
232	0x3b02fdb4	0.0019987645
233	0x3cfe41e1	0.031037273
234	0xbd58e926	-0.052956723
235	0xbdcbb361	-0.09946323
236	0xbe0da113	-0.13830976
237	0x3e05fea5	0.1308542
238	0xbe2711c7	-0.16315375
239	0xbe01fd9d	-0.12694402
240	0x3da3f9e7	0.080066495
241	0xbd82494a	-0.06361635
242	0x3d523614	0.051321104
243	0xbe47456d	-0.19460078
244	0xbd4b610b	-0.049653094
245	0x3bfcf9c3	0.0077202036
246	0xbd0ee600	-0.034887314
247	0xbc550188	-0.013000853
248	0xbe0d4ffb	-0.13800041
249	0x3d7ed543	0.0622151
250	0xbc1b603c	-0.009483393
251	0x3be4e915	0.0069857934
252	0xbc88cb14	-0.016698398
253	0xbb17ed0e	-0.0023182067
254	0xbc817278	-0.015801653
255	0x3c002de3	0.00782344

lin1.bias f4 [5]
0	0xbcce4efe	-0.02518415
1	0xbcfbb9d6	-0.030728262
2	0x3b8b608f	0.004253454
3	0xbcd91eca	-0.02650394
4	0xbc47e6b1	-0.012200997
