results_auto/01_domain_adaptation/maml_supervised/June/officehome_maml_order_2_seed_0_shots_1_ways_5_meta-lr_0.0001_pre-train-wts_datetime_11_06_2021_09_47_43/intermediate_48000_model.pt (torch, 412181 bytes, 54 tensors)

conv1.weight f4 [32, 3, 3, 3]
000000 05 c6 c6 3e 6f 28 bf 3d 74 12 d5 bd 34 e5 f4 bd
       0.38822952 0.09333884 -0.1040391 -0.119577795
000010 a8 c9 43 be 94 e5 16 be ff ec ba 3d 8d 33 57 3d
       -0.19119895 -0.14736015 0.09127235 0.052539397
000020 53 97 19 be aa 3b 08 3c 9a af 46 be 89 3f 8f 3d
       -0.14999132 0.008315006 -0.19402924 0.0699454
000030 80 53 b1 be 27 c5 00 be d3 a0 50 bb 7b 6f 97 bb
       -0.34634018 -0.12575208 -0.003183414 -0.004621444
000040 fb e8 2c 3e 04 24 91 3e 15 95 51 bf 7c ef d6 be
       0.1688575 0.2834779 -0.81868106 -0.41979587
000050 c4 c7 34 3e f1 a6 94 be be 9c e9 3d 65 df 14 3f
       0.1765433 -0.29033616 0.11406849 0.58153373
000060 3b fb 18 be 49 5d ba 3e 26 28 4d 3f ce e0 db 3d
       -0.14939587 0.36399296 0.80139387 0.107362375
000070 ac f8 95 3d b6 82 a1 3e 62 91 31 be a2 10 76 3e
       0.07322821 0.31545037 -0.17340615 0.24029782
000080 40 f2 83 3e 5e 4d 04 bf d6 4d db be 58 da 9f bd
       0.2577076 -0.5168055 -0.42832822 -0.07805318
000090 fa 06 c8 bd 77 aa 8d 3e 18 68 b9 3e cd f8 74 be
       -0.09766956 0.27669117 0.3621223 -0.23923035
0000a0 e6 9f dc bc 9a d9 ab 3d 6d a3 05 bf ce 43 08 bf
       -0.026931714 0.083911136 -0.5220249 -0.5322846
0000b0 ba ef 4d be b5 4c f9 3d 1f f8 c7 3e 8f 4c 04 3f
       -0.2011098 0.12172834 0.3905649 0.5167932
0000c0 50 6a 93 be c8 5a a2 bb 02 be a2 3e 3c 38 2e bd
       -0.28792048 -0.0049546696 0.3178559 -0.042534098
0000d0 f2 23 1d be b4 56 90 3c cc 1e c7 3e b6 77 b1 3d
       -0.15345743 0.017619468 0.38890684 0.08665411
0000e0 53 5e 89 3e 3a 62 8d be 78 33 a5 be b1 78 c1 be
       0.26829776 -0.27614003 -0.3226583 -0.37787393
0000f0 e9 66 24 bd 3a ca 95 bd 85 96 87 bd 02 0c c3 3e
       -0.040137205 -0.07313962 -0.06620506 0.380951
000100 f8 6a a6 3e 10 e6 15 3e a3 71 e6 bb 0e 7a 19 bd
       0.32503486 0.14638543 -0.0070325895 -0.037469916
000110 e0 0b 26 be 5b ed 48 3d 97 9b a3 be 35 f5 fc bd
       -0.16215467 0.049054485 -0.31954643 -0.12351457
000120 85 d1 e7 3e 54 65 e6 3e 67 24 09 3f 30 d3 1a 3e
       0.45277038 0.44999182 0.5357117 0.15119624
000130 7f 94 77 bd 27 cc bf be fb 11 84 be 48 9b f4 be
       -0.06044435 -0.37460443 -0.25794968 -0.4777472
000140 7b f7 b8 be 78 9f f6 3e 1a 08 c4 3e 6e a2 00 bd
       -0.36126313 0.4816854 0.3828743 -0.031404905
000150 45 39 18 be dd a0 ba be 9e ab dc be 56 93 95 3d
       -0.14865597 -0.36450854 -0.43099684 0.07303493
000160 ca 2d 3c 3e 45 36 85 bd 49 3c cd 3e 60 b2 e3 3e
       0.18376842 -0.06504492 0.40085056 0.44472027
000170 e1 6c d4 3e 81 a8 6d be 26 9c 07 bf c1 fc 06 bf
       0.41489318 -0.2320881 -0.5297264 -0.5272942
000180 fa 4b 98 3d d8 ab de 3d ea 40 06 be fb 3e ca 3c
       0.074363664 0.1087262 -0.131107 0.024688235
000190 75 4c e0 3e fa 27 04 3f 5f 2a ea be d0 9e bf be
       0.43808332 0.516235 -0.45735452 -0.37425852
0001a0 04 59 bb be 5d b7 b4 bd 50 4e 3c bd ca 27 8f 3d
       -0.3659135 -0.08824036 -0.045973122 0.06990011
0001b0 dc 22 fe 3c a7 ee be 3d 16 df a1 bd fe 5c 5b 3e
       0.031022482 0.09322863 -0.079038784 0.21422192
0001c0 f8 3a a8 bd b8 0c 56 3e df de 9f 3d 45 93 56 be
       -0.082143724 0.2090329 0.07806181 -0.20954616
0001d0 e1 d2 2b be f7 c5 7a 3e 3e ce b5 3e e9 73 45 3e
       -0.16779663 0.2448958 0.35508913 0.19282497
0001e0 bb a8 84 3e 05 4e 51 3e 50 5e df 3c 23 fe 9c bd
       0.2590998 0.20439918 0.027266651 -0.0766566
0001f0 76 05 7f be 39 f7 9d be 9a 38 80 bf 4e e1 16 3e
       -0.24904427 -0.30852678 -1.0017273 0.14734384
000200 f1 2c 26 be 55 ae 30 bf 38 ed d2 3e db f5 b7 3d
       -0.16228081 -0.6901601 0.4119661 0.0898244
000210 6e ca bb bf c9 00 b0 3e 34 43 76 be 06 51 93 be
       -1.4671152 0.343756 -0.24049073 -0.28772753
000220 d5 9f c7 bd f1 94 7e be 20 43 91 3d 39 6a 76 3e
       -0.097472824 -0.24861504 0.07092881 0.24063958
000230 2b b7 a2 3e 47 dc a8 3e 04 ce 08 3f 72 1e 3d 3e
       0.3178037 0.32980558 0.53439355 0.18468645
000240 f9 b1 c0 be 95 f1 af bd 12 b9 01 3d 33 62 ae be
       -0.37635782 -0.08591 0.031670637 -0.34059295
000250 6b 04 ba be 15 58 94 be 7a 87 15 bf 08 63 d6 be
       -0.36331496 -0.2897345 -0.58409846 -0.4187243
000260 4f d1 c9 be 5d c8 dc 3e 7e 89 06 3f 7e d4 c2 3b
       -0.39417502 0.43121615 0.52553546 0.005945741
000270 36 49 92 3e fe f9 22 3d 3d a4 ef 3d 89 c2 99 bd
       0.2857148 0.039789192 0.11701248 -0.07507808
000280 42 5d b9 3c 88 9c 27 be c4 1a 1b bf f2 d5 9e be
       0.022627477 -0.16368306 -0.60587716 -0.31022602
000290 df b1 3f be 90 8d c6 bd b8 2d af 3d eb 7d 97 3e
       -0.18720196 -0.0969497 0.08553642 0.29588255
0002a0 b4 78 df bb 8b cc d1 3e 68 d6 09 3f f1 c0 9e be
       -0.006819809 0.40976366 0.5384278 -0.31006578
0002b0 88 58 74 3e 22 ca c5 3b 59 24 b4 be 4b 6a 88 3e
       0.23861897 0.006036059 -0.3518398 0.26643595
0002c0 1d 4c 39 3d 30 cf 94 be e6 23 8a 3e 29 39 3c be
       0.045238603 -0.29064322 0.26980513 -0.1838118
0002d0 6d a9 45 3e 3d 98 ce 3e b6 8d c6 3e 63 d7 95 bd
       0.19302912 0.40350524 0.38779992 -0.073164724
0002e0 d4 0e 73 3e 79 a0 bd 3d eb 9e f4 be e0 f4 20 be
       0.23736125 0.09259123 -0.47777495 -0.15718412
0002f0 ee e1 da be 72 87 34 3d a3 86 bc 3e 40 87 41 3e
       -0.42750496 0.044074483 0.3682147 0.1889925
000300 a9 20 22 bf b0 18 66 be b9 94 0d bf ba 5d e2 3b
       -0.63331085 -0.22470355 -0.5530506 0.0069081457
000310 3c 17 60 3e 66 aa 72 3e 7d ce 37 be 99 65 86 3e
       0.21883863 0.23697814 -0.17949863 0.26249388
000320 ee a8 fc 3c 59 73 c9 be d6 0d af be 0d 9d 19 bf
       0.03084227 -0.39345816 -0.34190243 -0.60005265
000330 47 b4 f4 3d 3b d2 28 3f e5 b3 48 3e fe d7 3a 3e
       0.11948448 0.65945786 0.19599874 0.18246457
000340 2c 4c 85 3e c7 6f 74 3d db 6f a7 be 5d 12 70 be
       0.26034677 0.05967691 -0.32702526 -0.23444505
000350 0d 35 aa be 32 61 92 3e 3e a4 e9 3e e9 33 9a 3e
       -0.332436 0.2858978 0.4563312 0.3011773
000360 9c 0e 65 be 6f f6 ee be d9 fb 1d 3f 7d f3 cb be
       -0.22368854 -0.4667239 0.61712414 -0.39834204
000370 74 36 8d be 57 2e 11 3f 57 61 20 be 39 ff 5f be
       -0.27580607 0.56711334 -0.15662132 -0.21874703
000380 d6 ea 9b 3d 60 ce 71 3e f0 4e fd be 74 56 16 3e
       0.07613151 0.23613882 -0.49474287 0.14681417
000390 4b 31 ed 3c 1f 5f 34 be 0d 53 4a 3e b9 68 87 3e
       0.028954169 -0.17614411 0.19758244 0.26447085
0003a0 94 3c 1b bd f7 c0 aa 3e 6f 44 7f 3e cb 62 d6 be
       -0.03789957 0.33350345 0.24928449 -0.41872248
0003b0 2f 5d 9e 3e 47 81 14 be a9 37 8e be a7 23 49 3e
       0.30930468 -0.1450244 -0.2777684 0.19642507
0003c0 3c 87 33 3d 4e 13 34 bd e6 a4 24 bd 03 04 c3 3e
       0.04383014 -0.043963723 -0.040196322 0.38088998
0003d0 b8 53 c9 3e ab 23 fb bd de 10 07 3f e9 e9 ad 3d
       0.39321685 -0.122626625 0.5276011 0.084918804
0003e0 d0 f9 be bd ba 94 b5 3e fc 9f a8 bc ff 6c bd 3c
       -0.09324992 0.35465032 -0.020584099 0.023123262
0003f0 23 2a 9f 3e cf b4 82 bd 9d 8b 82 be e0 36 40 bd
       0.31086835 -0.06382143 -0.2549714 -0.046927333

conv1.bias f4 [32]
000000 52 df a7 bd 87 b2 c7 bf 59 0f 39 3d 23 6c 48 be
       -0.08196892 -1.5601357 0.045180652 -0.19572501
000010 31 d7 39 bf 20 75 d7 c0 9d b7 b8 3c d1 9b ba bc
       -0.7259398 -6.7330475 0.022548491 -0.022779377
000020 c9 1a 86 be 31 24 3f 3e 5e 09 96 be 61 2c 15 bd
       -0.2619231 0.1866615 -0.29304022 -0.036419276
000030 2d 3c 5f 3f 8a 96 cf bf 0e 72 4f be 3a 0c f0 bd
       0.87201196 -1.6217816 -0.20258352 -0.11721082
000040 0e 00 d0 3c b4 5c 8a be f0 c1 51 be 5c 38 5f c0
       0.025390651 -0.27023852 -0.20484138 -3.487815
000050 f2 10 80 3f bd b0 c6 3c a5 61 db 3d 32 bd 04 3e
       1.0005171 0.024254197 0.107119836 0.12962797
000060 90 d8 25 c1 cd 3b 6b 3e ad 37 17 be 95 eb c8 bd
       -10.365372 0.22972031 -0.14767332 -0.09810559
000070 14 03 85 3e ec 9f ef be 5d 2c 2e c0 b8 15 9a 3d
       0.2597891 -0.46801698 -2.7214577 0.07523674

batch1.weight f4 [32]
000000 56 03 96 3f 6a 71 8b 3f cd 1e 36 3f a2 73 96 3f
       1.1719768 1.0893986 0.7114075 1.1754038
000010 c7 4a 55 3f 72 96 30 3f bc d3 91 3f 0a 32 8e 3f
       0.83317226 0.6897956 1.1392741 1.1109021
000020 60 a4 57 3f 2e 31 7c 3f 95 91 a8 3f a2 3c 36 3f
       0.8423519 0.9851254 1.3169428 0.7118627
000030 08 ac 6c 3f 00 55 06 3f 0a ce ea 3e 97 38 61 3f
       0.9245 0.5247345 0.4586032 0.87976974
000040 32 e6 41 3f 95 80 8c 3f 19 07 a6 3f 9d 78 26 3f
       0.75741875 1.097674 1.2970916 0.6502779
000050 8d e1 53 3f da 03 7a 3f d0 94 7d 3f 54 b2 90 3f
       0.8276604 0.97662127 0.99055195 1.1304421
000060 e5 0e 52 3f 47 f1 91 3f 31 86 ae 3f c6 fb 7e 3f
       0.8205398 1.1401757 1.3634702 0.99602926
000070 af f3 b1 3f cc b9 2b 3f b2 a0 3d 3f 18 dc fd 3e
       1.3902491 0.6708038 0.74073327 0.4958198

batch1.bias f4 [32]
000000 4a 6e 5c 3f b2 ed 3b bf 63 68 3f 3f 01 f1 be 3d
       0.8610579 -0.7340957 0.74768656 0.093233116
000010 68 41 0b bf 17 bb 4d 3e 62 a2 c1 3f 05 7e 22 3f
       -0.54396677 0.200909 1.512768 0.6347354
000020 84 43 35 40 d6 cf f5 3d 8e 65 86 3f 44 81 12 bf
       2.8322458 0.12002532 1.0499742 -0.57228494
000030 bd 62 96 bd b9 47 a0 be b5 b9 80 3d 39 d9 06 bf
       -0.073430516 -0.3130472 0.06285421 -0.52675205
000040 8f 42 8d bd 17 9b c0 bd fe 19 29 bf ee 95 90 be
       -0.06897461 -0.09404581 -0.66055286 -0.28239387
000050 ba 51 37 bd ee 46 0b 3e d1 62 4c 3e 18 67 60 3e
       -0.044755675 0.13601276 0.1995957 0.21914327
000060 8c 41 94 3e 3b e6 dc bc 66 23 c5 3e b0 87 8c bc
       0.28956258 -0.026965251 0.3850357 -0.017154545
000070 2d 12 ab bd f8 84 49 3b f5 5d ca 3f eb 07 0f be
       -0.08353076 0.0030749422 1.5809923 -0.13967864

conv2.weight f4 [32, 32, 3, 3]
000000 eb c7 4b bd dd eb aa 3e 53 83 9d 3d bd 72 dd bd
       -0.049751204 0.33383074 0.07691064 -0.108129
000010 14 47 7b 3e 79 45 eb 3e 0f ac dd ba f9 75 2b 3e
       0.24538833 0.4595144 -0.0016912239 0.16744222
000020 a1 ed e2 3d 8b 80 64 3e ce fa b8 bd a2 54 2a 3d
       0.1108048 0.2231466 -0.09032212 0.04158462
000030 87 02 f7 3d 8e 6e a1 3d fa 98 05 3f e7 4c 74 be
       0.12061029 0.07882415 0.5218655 -0.23857461
000040 6d ed 2c be 91 5b 62 3e d6 6f 0e bf 32 84 0e bf
       -0.16887446 0.22105242 -0.556394 -0.55670464
000050 19 71 d5 be 5b c6 e7 be 99 ff 30 be 24 fa 3c bf
       -0.4168785 -0.4526852 -0.17285003 -0.73819184
000060 df ec eb 3d 07 6e 3a 3e 5d 8c f1 3e 92 fa c6 3e
       0.11519789 0.18206035 0.471774 0.38863045
000070 9a b7 77 3e 42 4e e8 bd 3c 8d 0d be e2 b6 35 be
       0.24191132 -0.113430515 -0.13823408 -0.17745546
000080 a8 ff 3b bf d7 36 4c 3e a3 09 8b bd 41 2d 15 be
       -0.73436975 0.19942795 -0.067889474 -0.14568044
000090 fc 2e 93 3e d6 13 0e 3e cf ff 5c 3d 12 b6 87 3e
       0.28746784 0.13874754 0.053954896 0.26506096
0000a0 9e 0c 9b 3d 64 e6 15 3c 73 89 e6 3d 49 5f 2e be
       0.07570766 0.009149168 0.11256685 -0.17028536
0000b0 67 05 ff bd 2c 0b 00 be a2 73 7d be 27 2a 66 be
       -0.12452202 -0.12504262 -0.24751142 -0.22477017
0000c0 85 95 c1 3d dd b7 9e 3c 8b 17 27 3e 65 b6 82 3e
       0.09452347 0.019374782 0.16317575 0.2552978
0000d0 cc 85 1c 3e 28 e1 88 3e 8d 70 76 3d d2 e7 7f be
       0.15285414 0.2673428 0.06016593 -0.24990776
0000e0 df e8 78 be ee b6 18 3e ef 13 9c 3d 8b 7b 01 bd
       -0.24307583 0.14913532 0.076209895 -0.03161196
0000f0 d3 60 05 3e f1 89 1b be e6 a5 56 3e f5 99 5a 3d
       0.13025217 -0.15189339 0.20961723 0.05336948
000100 f5 46 d3 3d 9f 50 f4 bd 9e 56 21 3e 78 ee 53 3d
       0.10316268 -0.1192944 0.15755698 0.051741093
000110 bb 10 d5 bd 3a 89 08 3e eb 1a 69 3e c0 0b d8 3d
       -0.10403582 0.13333598 0.22764175 0.10549116
000120 30 a9 ab bd 75 da 7a 3e d1 93 6c 3e ef ca 2a be
       -0.08381879 0.24497397 0.23103262 -0.16678976
000130 0d 64 97 3d cc ac ba 3e 4b 55 e0 be c0 1c 8a be
       0.0739213 0.3645996 -0.43815073 -0.2697506
000140 7f 36 fd 3d dc 65 68 be 37 53 25 bf a0 09 e4 be
       0.1236391 -0.22695106 -0.645801 -0.44538593
000150 62 1d 8c be 42 e5 59 be 10 6f 0c 3e 50 04 61 bd
       -0.27366167 -0.21278861 0.13714242 -0.054935753
000160 96 b5 7e 3d 4f cc ca 3e 9b eb 11 be bc 94 b7 bd
       0.062184893 0.39609 -0.14250033 -0.08963916
000170 ff 3b d2 3c db 54 1b bd b1 d7 7b 3e 13 f4 0f 3e
       0.025663374 -0.03792272 0.24593998 0.1405795
000180 84 4e 0b be 90 26 a1 be e7 8f 8c be ed 6d d9 be
       -0.1360417 -0.31474733 -0.2745354 -0.4246668
000190 9b f5 0d be 2e ef 73 be 1c a9 c5 be c6 be 84 3e
       -0.13863222 -0.23821709 -0.38605583 0.259268
0001a0 e7 4f 10 3e b3 93 bf be de 6c ba 3e 83 e9 85 3e
       0.1409298 -0.37417373 0.36411184 0.26154718
0001b0 29 3a 83 be 3d be 66 be f9 b6 b0 be ff 4e e8 3d
       -0.2563031 -0.22533508 -0.34514597 0.11343192
0001c0 c4 97 09 3e 16 c8 a9 bd e0 71 9a be b0 86 7d 3b
       0.134368 -0.082901165 -0.30165005 0.0038685016
0001d0 c0 29 e4 3e 4b a1 4a 3d ab 39 fb bd 3b f2 c7 bc
       0.44563103 0.049470227 -0.12266859 -0.024407497
0001e0 6c 8c c3 3d a8 4a 46 be ae cd aa be 2c 64 d2 3d
       0.09548268 -0.19364417 -0.33360046 0.102730125
0001f0 55 97 cb bd 13 c5 e6 be 7a b0 08 bf 5e 5d 09 bf
       -0.09940974 -0.4507223 -0.5339428 -0.5365809
000200 76 eb a7 be b2 27 40 bd 98 e6 a3 bd f9 32 66 3e
       -0.3279683 -0.046912856 -0.08002967 0.22480382
000210 7d 37 4b 3e 9a c8 91 3e f4 bb f2 3e 7d 80 b3 3e
       0.19845386 0.2847336 0.47409022 0.35058966
000220 eb 04 9b be 2a a4 a9 bb 00 07 ea 3e 9d 80 18 bd
       -0.3027719 -0.0051770406 0.45708466 -0.03723203
000230 91 bd f6 3d a8 a4 f0 bd ae 81 d0 be 82 b9 47 be
       0.12047876 -0.11750156 -0.40723938 -0.1950436
000240 1a 1c 27 bf af 57 e0 bd b9 9b b0 be 53 3a 12 be
       -0.65277255 -0.10954224 -0.34493807 -0.14280061
000250 41 6d 09 3f fe b8 8b 3e 3d f3 0d be d3 ba a1 3e
       0.53682333 0.27289575 -0.1386232 0.31587848
000260 64 df d7 3e b7 42 d9 3e 76 03 8d bd fc 2b 7c 3e
       0.4216262 0.42433712 -0.06885426 0.24626154
000270 06 7b 83 3e af 41 de 3c 86 fe ee bd 5e 1e 76 be
       0.25679797 0.02713093 -0.1166964 -0.24035022
000280 50 10 9b be b5 10 8c be 21 8f 2d bd ef 4e 9f be
       -0.30285883 -0.27356496 -0.042372826 -0.3111491
000290 c8 e5 3d be 6a f9 e9 3d c8 da 1d be 51 d6 82 3e
       -0.18544686 0.11424525 -0.1541549 0.25554135
0002a0 f0 10 ef 3e 9c 4e 4d bd 96 e4 e9 3e b4 30 ae 3d
       0.4669261 -0.050123796 0.4568221 0.08505383
0002b0 a3 b5 a4 be d9 de c2 bd eb ad 5d 3a 2e a8 ef bb
       -0.32169828 -0.09515161 0.0008456397 -0.0073137498
0002c0 a7 3c 3d 3d a7 a0 d6 bd a3 ae 67 3d 2f c6 5f be
       0.04620042 -0.10479861 0.05656303 -0.21852945
0002d0 86 e5 77 bd b3 38 a7 bd 5d d6 b2 be 96 6f ab bd
       -0.060521625 -0.081651114 -0.3492917 -0.08370893
0002e0 c8 63 61 3d f8 f3 96 3e d1 91 5f bd c7 8a 51 3e
       0.0550268 0.29483008 -0.05458242 0.20463096
0002f0 3d c3 10 3e d6 69 47 3e 4f 04 1c 3d dc b9 27 bd
       0.14136977 0.19473967 0.038090046 -0.040948734
000300 32 b3 c2 be ab 9f 2e be 91 26 75 be 29 ff 3d be
       -0.3802734 -0.17053096 -0.23940493 -0.18554367
000310 0e 94 a9 3d cd ef 91 3e ba cf 66 be 47 e7 16 bf
       0.08280192 0.28503266 -0.22540179 -0.5894665
000320 cc bd cb be c3 8d c7 be e7 68 00 3e be 7f 91 3e
       -0.3979324 -0.38975343 0.12540017 0.28417772
000330 c8 4e c2 bd bb 11 96 3e 3a 3c 3a 3f bd e7 93 bd
       -0.094876826 0.29310402 0.7274815 -0.07221935
000340 48 d4 6f be 0e b5 89 3e 2e c0 5e be b3 42 91 3d
       -0.23420823 0.26895946 -0.21752998 0.070928
000350 5a 6f 46 3e 2d 0a 00 3b e5 68 58 bc ae dc 42 3c
       0.19378415 0.0019537315 -0.013208603 0.011893434
000360 66 66 e6 be 93 44 13 be b1 b0 b6 3d 4a ce 29 be
       -0.45 -0.14381628 0.0892042 -0.165826
000370 90 dc 2c 3d 36 84 f9 3e b0 23 b8 be f6 a2 9a bd
       0.042202532 0.4873368 -0.35964727 -0.075506136
000380 14 90 9f 3c 5c 64 33 3d f2 16 54 be 79 e8 f3 be
       0.019477881 0.043796882 -0.20711878 -0.476383
000390 0d 94 ac be 48 ec 22 be 5d f2 3b bf c6 0e 1a bd
       -0.33706704 -0.15910447 -0.7341669 -0.037611745
0003a0 5d bf 1c 3e ca b0 1d 3e 6f d2 61 3e d9 d4 51 3d
       0.15307374 0.15399471 0.2205293 0.051228378
0003b0 f0 36 8e be ed e8 88 3e 8e d8 d2 3d 92 58 bc 3c
       -0.2777629 0.26740208 0.10295211 0.022991452
0003c0 21 de e3 be 18 09 53 be 46 36 00 bf f8 8d 4f 3d
       -0.44505408 -0.20608938 -0.50082815 0.0506725
0003d0 50 0e 50 3e 6f f8 e4 3d 1c 40 3c be ae 15 4d 3e
       0.2031796 0.111801974 -0.18383831 0.20027801
0003e0 9b aa f5 bc 25 50 f3 be 6c e1 0b bd be 46 27 3d
       -0.029988578 -0.47522083 -0.034150526 0.04083895
0003f0 ff db e7 bd a3 00 d2 be a1 16 e2 3d de 9a c0 3c
       -0.11321258 -0.4101611 0.11039472 0.023511346

conv2.bias f4 [32]
000000 e9 4b c8 3d ae a4 17 3e 9c 9e 0f 3e 08 89 11 3e
       0.09780104 0.14808914 0.14025348 0.1421243
000010 e9 60 83 3d f0 f5 cb 3d 9a 13 b3 bf 20 2d fd bc
       0.064149685 0.09959018 -1.3990357 -0.030905306
000020 72 c7 bd 3e be 38 ad be ca 8b 87 3e f6 fb 1a be
       0.37066227 -0.33832353 0.26473838 -0.15135178
000030 6e 0a 61 bd ed 17 37 3e 54 cd 53 3d 75 58 cb bd
       -0.054941587 0.1788022 0.051709488 -0.09928981
000040 7b 74 81 bd 10 71 2e be 3c 37 79 bd f6 8f d5 bd
       -0.06321045 -0.17035317 -0.06084369 -0.10427849
000050 f1 cd 57 bd 87 56 0f 3d 33 58 04 3e cc 5d f1 3c
       -0.052686635 0.03499463 0.1292427 0.029463671
000060 54 e0 a7 3e e9 cb d2 ba d2 ec 25 3b 48 14 08 be
       0.32788336 -0.0016082498 0.0025318158 -0.13288987
000070 c0 93 10 bf 3f 02 b0 3e a2 68 25 bd 41 ea c6 3e
       -0.5647545 0.34376714 -0.04038299 0.38850597

batch2.weight f4 [32]
000000 ec c1 52 3f 1b da 7d 3f 46 58 b5 3f fe 28 92 3f
       0.8232715 0.9916093 1.4167564 1.141876
000010 21 c5 7d 3f a1 b4 9a 3f ab 5a 9a 3f 57 15 36 3f
       0.9912892 1.2086374 1.205892 0.7112631
000020 31 dc 92 3f 9e 4c 58 3f ee 45 95 3f 6b 4f 71 3f
       1.1473447 0.8449191 1.1661966 0.9426181
000030 ce 87 18 3f cf 0d a6 3f 0a 68 88 3f 77 47 9e 3f
       0.5958222 1.2972964 1.065675 1.2365559
000040 e2 99 58 3f 37 5f 66 3f 83 f1 76 3f 6f 91 4b 3f
       0.84609807 0.89989036 0.9646227 0.7951879
000050 b1 44 96 3f f0 98 88 3f f8 6d 98 3f 28 57 8b 3f
       1.1739713 1.0671673 1.190856 1.0885973
000060 6a fb 81 3f d5 fd 45 3f 25 24 46 3f 5a 8f 1f 3f
       1.015485 0.7734044 0.773989 0.6232811
000070 c6 d6 8d 3f 7f 02 73 3f 9e b4 66 3f d9 17 53 3f
       1.1081169 0.94925684 0.9011935 0.82458264

batch2.bias f4 [32]
000000 a3 4c 52 bd 58 98 07 bf b1 94 d4 be 60 e5 0e bf
       -0.051342618 -0.52966833 -0.41519693 -0.5581875
000010 79 2d 8f be b7 f1 1a bf 7b 52 b0 be 07 07 71 be
       -0.2796438 -0.6052508 -0.34437928 -0.23537837
000020 64 00 ed be 21 0e 95 be 1f 53 ff be 56 d1 97 be
       -0.4628936 -0.29112342 -0.49868104 -0.29651898
000030 e3 aa 3c 3d 08 9a e7 be eb 72 bb be fb a5 0c bf
       0.046061408 -0.45234704 -0.36611113 -0.54940766
000040 fb 62 ca be a2 cc e5 be 17 f4 f8 be c3 73 a9 bd
       -0.3952864 -0.44882685 -0.48623726 -0.08274033
000050 74 00 db be fa fd b0 be e7 1f 1a bf 33 fc ae be
       -0.42773783 -0.3456877 -0.6020493 -0.34176788
000060 4a 56 fa be 02 af 84 be e2 53 4a be 7d 4d 9a be
       -0.48893958 -0.2591477 -0.19758561 -0.30137244
000070 23 93 28 be 41 cd bd be 05 91 ad be ed 80 f7 be
       -0.16462378 -0.3707066 -0.33899704 -0.4834055

conv3.weight f4 [32, 32, 3, 3]
000000 65 2a 67 3e 36 3d 01 3f cd d1 e6 3c 6a eb 9e be
       0.22574766 0.50484025 0.028176213 -0.31038982
000010 22 7c 35 bc e0 48 2d 3e cb d0 da be 75 b8 44 be
       -0.011076959 0.16922331 -0.4273742 -0.1921099
000020 3d de bc bd 4d 38 e8 3d 43 39 38 3e 91 c0 f4 be
       -0.09222076 0.113388635 0.17990594 -0.47803167
000030 74 1e c4 bd 25 6b 38 bc 15 3c af bd 5a e6 99 3e
       -0.09576121 -0.011256014 -0.085563816 0.30058557
000040 af 89 39 3e 1e 63 de be e7 67 6b 3d 10 ed e9 3b
       0.18118928 -0.43434995 0.057472136 0.0071388558
000050 da a4 03 bf 89 f0 8f 3e e6 a4 57 3e c6 af b2 bd
       -0.5142342 0.281132 0.21058998 -0.087249324
000060 4c 9e af 3d d3 33 8b 3d 29 e4 74 be f5 d5 30 be
       0.085751146 0.06796994 -0.23915161 -0.17269118
000070 28 ca db be 34 c1 ac 3e 3a a3 be bb b5 d0 3d be
       -0.4292767 0.33741152 -0.005817798 -0.18536647
000080 46 61 8e 3e 10 46 6b be 70 9e a7 be 27 67 84 3e
       0.2780859 -0.22975945 -0.32738066 0.2585995
000090 d3 d6 8a 3e 84 f4 cf 3e 27 55 00 3d a5 02 3e bd
       0.27117023 0.40616238 0.031331208 -0.04638924
0000a0 cd ce 39 bd f3 44 1e be 44 8e ac bd eb dc 9b 3d
       -0.045363236 -0.1545599 -0.084255725 0.07610496
0000b0 ac 5c af bd 47 4f 81 3e a7 d5 e7 3d 7c ac 8c 3e
       -0.08562598 0.25255796 0.11320048 0.27475345
0000c0 61 78 7a 3d 88 58 18 3e af c8 ca 3e db e5 db be
       0.06114996 0.14877522 0.39606234 -0.42948803
0000d0 9e 8e 60 3d 65 23 99 be 4e bd c0 3e 39 aa 07 3e
       0.05482351 -0.29909816 0.37644428 0.13248529
0000e0 34 60 8b be bd 07 4f 3d 40 64 28 3c 92 16 aa bd
       -0.27221835 0.05054449 0.010277808 -0.08305086
0000f0 9b ca 7c 3e ab fc e4 3e 7a 46 d4 3c 32 c1 c8 be
       0.24686663 0.4472402 0.025912512 -0.39209896
000100 a0 20 48 be 46 33 f7 be 30 ae 00 3e ad b6 6a be
       -0.19543695 -0.48281306 0.12566447 -0.22921248
000110 e3 78 8b be b5 8a d4 bd c0 51 e5 bd c9 b0 a9 bd
       -0.27240667 -0.10378019 -0.11197233 -0.08285672
000120 2f 80 52 3e b7 32 3e be 97 d9 d3 be 9b d4 37 be
       0.2055671 -0.18574034 -0.41376945 -0.17952196
000130 41 6e b9 3d c8 93 3c 3e 47 5d b1 3b 74 d6 0e 3e
       0.090542324 0.18415749 0.005412731 0.13948995
000140 a4 2b bf 3d ac 1b 50 bf 49 87 ed bd e1 0a 72 3e
       0.09334496 -0.81292224 -0.11598069 0.23636962
000150 c0 aa 28 bf 8a 3f a2 be 8f 84 43 3e 50 51 cf bd
       -0.65885544 -0.316891 0.19093536 -0.10122931
000160 fc 07 28 3d 7e 9d ea 3d 47 0b 84 be 8b 49 15 bf
       0.04102324 0.114558205 -0.25789854 -0.5831534
000170 8a 76 ef 3d 24 63 9c bd 68 7d 17 3e 73 23 6c 3e
       0.116925314 -0.07636097 0.14793932 0.23060398
000180 f1 4c a0 bd a1 2f 6b bd 92 b1 c3 3d 22 00 0d 3d
       -0.078271754 -0.05741847 0.09555353 0.034423955
000190 5f bc 33 3e f3 3c 50 3e a6 c7 b6 3d 47 0c 33 be
       0.17552327 0.2033575 0.08924799 -0.17485152
0001a0 a2 76 18 be 98 96 47 3e 89 a5 e8 3e 7e 34 7f be
       -0.14889005 0.1949104 0.45438793 -0.24922368
0001b0 35 95 bf bd b4 11 3c be 88 d1 db be 35 1c 3b be
       -0.09354631 -0.18366128 -0.42933297 -0.18272479
0001c0 aa 3f dc bd be bc c7 be 10 57 59 be ed 68 0f 3e
       -0.107543305 -0.39011186 -0.21224618 0.1400487
0001d0 1f 10 17 be 19 44 8b be a2 28 17 be 57 23 2e 3e
       -0.14752243 -0.27200392 -0.14761594 0.17005669
0001e0 b1 78 b3 bc b7 27 b9 3d 94 f0 a7 be 5f f1 f7 bc
       -0.021908136 0.09040778 -0.32800734 -0.030266462
0001f0 00 93 b6 3d f7 f9 eb be 44 ab 0a be ff 0d 4a be
       0.08914757 -0.46089146 -0.13541895 -0.19731902
000200 31 3c 05 bf d6 ca e4 3b de 52 f1 bc 4e f4 93 3d
       -0.5204497 0.0069821877 -0.02945846 0.07224332
000210 80 a1 7f bd 6e 6c 39 3e 78 f0 d0 bd a4 81 7f 3e
       -0.062409878 0.18107769 -0.10202116 0.24951798
000220 62 40 a7 bd 81 99 61 be 71 9f 44 3e d4 9e 13 be
       -0.08166577 -0.22031213 0.19201447 -0.14416057
000230 d8 c3 e0 be 2d 38 44 be 83 53 81 3e 62 15 6e be
       -0.43899417 -0.19162054 0.25259027 -0.23250344
000240 89 8a f3 3d 84 cf 08 bd 3c ff 2f bf 29 ef 62 bd
       0.11891658 -0.033401027 -0.6874883 -0.055403862
000250 da 3d 89 3d f2 76 f2 3c 86 45 89 be e6 53 de bd
       0.067012504 0.029597733 -0.26810855 -0.10855846
000260 b1 10 de bd aa 4b 49 3b 2a 10 31 be 25 c4 a0 3e
       -0.108430274 0.0030715265 -0.17291322 0.31399646
000270 b2 23 74 3e a6 e3 9e 3e 4f 92 5b 3e 38 86 f8 bd
       0.23841742 0.31033057 0.21442531 -0.12134975
000280 e5 6b 2a 3e be c6 3a 3e f0 c9 9d 3c 1f 60 32 3e
       0.16642721 0.18239877 0.01926133 0.1741948
000290 c8 1a 83 3e 52 45 f9 bd c5 9c 69 be fa b5 bd be
       0.2560637 -0.12171425 -0.22813709 -0.370529
0002a0 d7 7e 4b 3e 1c 32 11 bf 96 53 e1 be db bc a6 be
       0.19872604 -0.56717086 -0.44009084 -0.3256596
0002b0 ca 3e ce 3d 27 1b 1f 3e 00 a5 d0 be 5a 6d aa 3c
       0.1007057 0.15537702 -0.40750885 0.020804096
0002c0 1e 79 66 be 39 47 df be e6 37 94 be 77 70 92 be
       -0.2250714 -0.43609026 -0.28948897 -0.2860143
0002d0 07 76 a6 bd ff c3 34 bc d3 42 bf 3e 65 b4 81 3e
       -0.08127981 -0.011033057 0.3735567 0.25332943
0002e0 de eb 13 3d 9e 2b 17 3e 85 fe b0 3e 0f cd fd 3d
       0.036113612 0.14762732 0.34569183 0.123926274
0002f0 31 31 1a 3d 25 59 08 3f 4c eb 16 3d 9a 28 d2 3c
       0.03764457 0.53261024 0.03684549 0.025654126
000300 1d 26 56 3e 07 de b5 be 7a 49 ba be 81 64 ed bd
       0.20912977 -0.35520956 -0.36384183 -0.11591435
000310 ea 86 2c 3d 79 3b c3 3d f6 30 54 3e 06 1e ae 3d
       0.04212085 0.09532828 0.20721802 0.0850182
000320 bd e7 88 be 4f 49 96 3e 26 e9 d0 3e 47 99 f1 3d
       -0.26739302 0.29352805 0.40802878 0.117968135
000330 51 5b 1c 3c 0d cf 13 3e 49 13 00 3d 4f 4a 63 bd
       0.009543256 0.14434452 0.03126839 -0.055490788
000340 b2 16 b7 bc 5f 15 07 be a8 6b da be 17 1a b3 bd
       -0.02234969 -0.13191746 -0.4266026 -0.087452106
000350 42 fb 71 3c 8f 8a 1e bf dc 0f 1a bd c3 52 0a 3e
       0.014769377 -0.61930174 -0.03761278 0.13508134
000360 e7 04 50 3e d6 4b 86 3c 15 3a 82 bf 39 ee 40 3e
       0.2031437 0.016393583 -1.0173975 0.18840875
000370 73 ae 30 be 2d 72 5c be e2 95 d7 bc dc 65 82 be
       -0.17254047 -0.2152793 -0.026316587 -0.25468338
000380 df a9 60 bd e7 35 0b 3d 92 8a 84 be c5 8e 0d bf
       -0.0548495 0.033986952 -0.2588697 -0.55295974
000390 88 be d1 be e6 f5 32 bd 88 e5 15 bf 66 fb c9 3d
       -0.40965676 -0.04369154 -0.5855336 0.098624036
0003a0 0e 6a d8 3e 48 eb 56 3e 3f 27 ac 3e e4 3d 93 3e
       0.42268413 0.2098819 0.33623692 0.28758156
0003b0 4e 4a df be 25 5a da 3e cd b6 66 3e 12 dc e9 be
       -0.43611377 0.426469 0.2253067 -0.45675713
0003c0 74 32 ea 3e 08 e7 b8 3d 1c 30 51 be 85 5b d2 3c
       0.45741618 0.09028441 -0.20428509 0.025678406
0003d0 9b 8d f1 bd a8 a3 55 bd 1a cf 42 3e 77 63 24 3e
       -0.11794587 -0.052158028 0.19024315 0.16053568
0003e0 ab cb d5 be 97 22 ea bd 31 90 43 be c8 97 1b bf
       -0.4175695 -0.11432379 -0.19097973 -0.60778475
0003f0 d3 3f ab bd ea b0 58 be ae 6c bd 3e 5e b3 f7 3c
       -0.08361783 -0.21161237 0.3699698 0.030236896

conv3.bias f4 [32]
000000 74 d8 75 3e de cb 7d 3e be 18 ed 3e b6 78 cf 3d
       0.24008352 0.247848 0.4630794 0.10130446
000010 fa 4d 25 3e f7 57 d4 3d ee 95 e4 bf 90 6e 89 3e
       0.16143027 0.103683405 -1.7858255 0.26842165
000020 92 7e 1c bd a1 13 cd be 36 53 d2 3d 42 aa e4 ba
       -0.038206644 -0.40054038 0.102697775 -0.001744576
000030 eb ce 0e 3f 83 49 c0 3e c6 22 53 3d 2d 69 e7 3e
       0.5578448 0.37556085 0.051546834 0.4519743
000040 52 28 26 3f 44 ba 1b 3e 9c 55 90 3e 6b 6f 1b 3f
       0.64905274 0.15207773 0.28190315 0.60716885
000050 d9 37 07 3f 02 87 dc bc 0b b6 6b 3e 39 5c 61 3f
       0.5281959 -0.026919845 0.23018663 0.88031346
000060 ca 52 a8 3d d3 6d a3 3f 3c 06 c0 3e b6 25 f6 3e
       0.08218916 1.2767891 0.37504756 0.48075646
000070 2f 2a c5 3e c7 08 64 3e 79 6e 90 be cb 62 24 bf
       0.38508746 0.22268973 -0.28209284 -0.64213246

batch3.weight f4 [32]
000000 fb bd 41 3f b9 ac 5c 3f 08 0b 81 3f e3 11 6a 3f
       0.7568051 0.86201054 1.0081491 0.9143354
000010 69 a2 3f 3f 15 50 52 3f 35 af aa 3f fb 74 3c 3f
       0.74857193 0.82153445 1.3334719 0.73616
000020 63 72 96 3f e0 85 87 3f dc 34 42 3f 9d 3d 39 3f
       1.1753658 1.058773 0.75861907 0.7235964
000030 6f 5c 6a 3f 47 20 8f 3f f3 a9 1e 3f 6d df 51 3f
       0.9154729 1.1181725 0.6197807 0.81981546
000040 8c 4d 6d 3f 6b 53 68 3f 02 c0 39 3f ab 6c 61 3f
       0.9269645 0.90752286 0.72558606 0.8805644
000050 05 88 65 3f 81 37 6e 3f b3 45 3d 3f 5e 40 d0 3f
       0.89660674 0.9305344 0.7393448 1.6269643
000060 90 9f 50 3f b7 4f 8b 3f f4 d1 72 3f 18 bb 77 3f
       0.81493473 1.0883702 0.94851613 0.9676986
000070 e7 12 42 3f d8 5b 36 3f 64 f6 87 3f f8 e9 72 3f
       0.7581009 0.7123389 1.0622067 0.9488826

batch3.bias f4 [32]
000000 0b 61 86 be f6 62 a2 be db 75 d7 be ab d6 e9 be
       -0.26245913 -0.31716126 -0.42082104 -0.4567159
000010 7c ab 91 be 07 b6 22 bf e9 9d 42 bf 6c be 60 be
       -0.28451145 -0.63559 -0.760222 -0.2194764
000020 c7 66 60 bf 57 24 9b be 18 43 f9 be 40 4a 1d be
       -0.87656826 -0.30301163 -0.48684 -0.15360355
000030 f5 82 a5 be 29 d2 d6 be 65 05 0c bd fa da bc be
       -0.32326475 -0.41957214 -0.034184832 -0.36885816
000040 e7 2a f7 be 1f cb cd be 72 c8 98 be fe de cc be
       -0.4827492 -0.40194032 -0.29840428 -0.4001388
000050 89 fd 20 bf b9 c0 d5 be 57 1c 85 be 83 7f 59 bf
       -0.62886864 -0.41748598 -0.25998184 -0.8496019
000060 e1 ea 16 bf 76 e3 1b bf d4 d4 a4 be 3d f7 25 bf
       -0.58952147 -0.6089395 -0.32193625 -0.6483038
000070 08 05 aa bd ec 92 ad be 49 4f 94 be ca 4e 74 bf
       -0.08301741 -0.33901155 -0.2896674 -0.9543272

conv4.weight f4 [32, 32, 3, 3]
000000 dc 15 fa bd 69 d1 17 bc 03 11 93 bc c2 c2 d0 bd
       -0.122112006 -0.009266236 -0.017952448 -0.10193397
000010 c5 70 24 bd 97 55 4a bd ab 3a 98 bd ca 4c 02 be
       -0.040146608 -0.04939803 -0.07433065 -0.12724605
000020 24 4f e4 3d ac 63 ae 3d d5 d6 44 3d 52 79 96 3d
       0.111479074 0.08515105 0.048056442 0.07347359
000030 30 2d 99 3c 37 a5 7c bd 2b db 17 3d 01 1f 95 3d
       0.018698305 -0.061681 0.03707425 0.07281304
000040 aa f3 60 bd b3 65 06 bd 27 0d a9 3d be 94 fb 3a
       -0.054919876 -0.03281183 0.08254462 0.0019194109
000050 4d 00 bc 3c d2 ec 7e 3d 64 3b 33 3c 99 13 98 3d
       0.022949362 0.06223757 0.010939453 0.07425613
000060 cd 16 cd 3c 54 14 2a bd 65 c9 45 bd 13 29 30 be
       0.025035286 -0.041523293 -0.048287768 -0.17203169
000070 08 47 e9 3a 81 fc 16 bd a3 48 ce bd 0e 36 4b 3c
       0.0017797658 -0.0368619 -0.10072448 0.012403024
000080 99 fd 8e bd fc ae 09 be f6 14 30 ba 1c b8 75 3d
       -0.06981964 -0.13445657 -0.00067169906 0.059990034
000090 4d 31 ac 3a b1 ce d1 3d 68 59 4b 3d e0 04 0c 3e
       0.0013137251 0.102445014 0.04964581 0.13673735
0000a0 60 fd 2b 3e 3f 2a 99 3d 4d 2f 35 3e 2d 6f d5 3d
       0.16795874 0.07478761 0.17693825 0.10421596
0000b0 32 23 0d 3d 58 ba cf 3d 8f fc 6b 3c 25 92 9e 3d
       0.034457393 0.10142964 0.014403476 0.077427186
0000c0 79 59 29 3e b9 5f 0b bc a8 fe 25 3c 9d fc ce 3d
       0.16538037 -0.008506709 0.010131516 0.10106776
0000d0 b8 d8 93 3d 32 44 1b 3c ae 43 66 3c 6e d7 8d 3d
       0.0721907 0.009476708 0.014054222 0.069258556
0000e0 a8 82 11 3c ab fa a2 3d 47 32 ed bc d6 ab f1 3c
       0.0088812485 0.07957967 -0.028954638 0.029500883
0000f0 fd 6a 55 be af ce 88 3d 36 2f 8c 3d 9a a5 8f 3d
       -0.20841594 0.06680047 0.06844942 0.07014008
000100 e5 b3 49 bb c8 f9 29 3c 77 01 16 3e 74 76 b0 bc
       -0.0030777392 0.010374494 0.14648996 -0.021540858
000110 c8 86 e6 bc b6 ae 1a 3d 1f d0 79 3c ad e8 04 3d
       -0.02814044 0.037764274 0.015247374 0.03244846
000120 6f fb 12 be 7c c7 0f 3e ff 90 81 3d 5a 43 49 be
       -0.14353727 0.14040941 0.06326484 -0.19654599
000130 d2 60 b4 bd 24 c0 d3 3d fb e8 3b be ad 0d 11 bd
       -0.088075295 0.10339382 -0.18350594 -0.035413433
000140 8f e7 47 bd ec 3e e3 be f0 c0 b8 3b 29 42 c1 3c
       -0.048804816 -0.44383943 0.0056382343 0.023591118
000150 4c 4c c9 be cb 40 9b bc 28 30 1b 3b 90 0c d5 be
       -0.39316022 -0.018951794 0.0023679826 -0.41611147
000160 a0 c1 76 3d a0 98 cc 3d 57 e3 13 bd 62 89 01 bd
       0.06024325 0.099900484 -0.03610548 -0.03162516
000170 d7 ba 88 3d e5 82 be 3c 7c 99 67 3c 6e 1c ba 3d
       0.06676262 0.023255775 0.014135715 0.09087454
000180 38 bb 68 bc bb 0f 4c 3d ab 2a 31 3e ed 86 a1 bd
       -0.014204793 0.04981969 0.17301433 -0.07887063
000190 72 b4 31 3d 2f 86 4b 3d 94 b7 fe 3b 82 d7 9c bd
       0.043384977 0.049688514 0.007773349 -0.07658292
0001a0 83 bb 9d bc 5a c8 f6 bc 01 0e 5b 3d bb 4f a3 3d
       -0.019254452 -0.030124832 0.053480152 0.07974192
0001b0 b8 1d 69 3d ca 94 eb 3c 00 51 48 3c 46 30 f0 3c
       0.056913108 0.028757472 0.012226343 0.029319894
0001c0 ee 53 95 3c 9c cb 2f bd c7 55 bf 3d cc 1b 17 3d
       0.018228497 -0.042918786 0.093425326 0.036891744
0001d0 15 d6 b2 3d c9 6f 89 3d 95 75 25 3e 1f d5 6d 3d
       0.08732239 0.067107745 0.16158135 0.058064576
0001e0 56 ff 3b 3e 77 15 2f 3e 2a 31 fd 3c 83 5b 3f 3e
       0.18359122 0.17098032 0.030907232 0.18687253
0001f0 3c 16 d6 3d f9 16 0c 3d df 83 f9 3d 09 4e d8 3d
       0.104534596 0.034201596 0.121833555 0.10561759
000200 ec 11 e7 3c 02 76 02 3e 7b cc 9d 3d 43 8c d3 bc
       0.028206788 0.12740329 0.07705017 -0.025823718
000210 44 af 2e 3e d6 d8 8d 3d 21 0c 19 3e e7 d7 80 3c
       0.17059046 0.06926124 0.14946033 0.01572795
000220 6b 39 cb 3c f5 6f 3c 3d ef 1b f7 3c 74 d1 70 bd
       0.024807652 0.046005208 0.030164687 -0.0587935
000230 b7 6d 80 3d cc 9f 72 bc c8 49 a4 3c 1f 06 0a 3d
       0.062709264 -0.014808606 0.020054713 0.033697244
000240 14 89 6e 3d 41 a3 a1 3d 6e 86 ad bd ab f5 e0 3d
       0.058236197 0.07892466 -0.08472906 0.109843574
000250 b1 7c 7f bb 28 cd a2 3a 78 fd c8 3d 65 df 9b 3d
       -0.0038984234 0.001242076 0.0981397 0.076109685
000260 ac 60 8e bc 6f c2 4d be 47 23 2b 3d e3 19 66 bc
       -0.017380081 -0.20093702 0.04178169 -0.014044258
000270 8f 01 22 bd 15 f7 58 3c 11 65 2c bd 0b 47 38 be
       -0.039552268 0.013242503 -0.042088572 -0.1799585
000280 5b 68 e9 3c 87 8d 0b 3d 92 38 14 3e 94 74 04 3d
       0.028492143 0.034070518 0.14474705 0.03233774
000290 be 96 89 3d 00 17 a6 3d 57 e7 62 3d 8a b5 65 3d
       0.06718205 0.08109856 0.055396404 0.056081332
0002a0 16 57 13 3e db 80 5d 3d 0b 73 a1 3d 0d 08 f3 3d
       0.1438869 0.054077964 0.07883271 0.1186677
0002b0 81 96 6e 3d 1b 70 ab 3d 27 cb a3 3d ab bd d7 3d
       0.058249 0.08370992 0.079977326 0.10534223
0002c0 7d 48 d4 bc 0f 6c cb 3d b7 f3 32 3d 3e aa 2d 3d
       -0.025913471 0.0993272 0.043689456 0.042398684
0002d0 df 91 fa 3d f9 c3 a6 bc 23 23 b5 3d 49 1b 33 3e
       0.12234854 -0.020357119 0.088445924 0.17490877
0002e0 f4 94 91 3d bb dc 6d 3d 67 06 1a 3e c3 c4 28 3e
       0.07108489 0.058071833 0.15041505 0.16481309
0002f0 d0 3a 90 3c ab 5f ea bc b9 d5 b2 bd bf 0c 30 3d
       0.017606169 -0.028610071 -0.087321706 0.042980906
000300 d9 97 8a 3d 9b 67 99 bd 5a 5e a8 3d 36 eb b5 bd
       0.06767244 -0.07490464 0.08221121 -0.088827536
000310 6b 4c 8d 3d 4b 4c fe 3d 04 1e c2 bd f8 5d 05 3c
       0.06899341 0.124168955 -0.09478381 0.00814008
000320 49 f3 b9 bc b2 8e 94 bc 68 b4 e4 3d 6c 67 80 bc
       -0.022699015 -0.018134449 0.11167222 -0.015674315
000330 1b 9a 48 3c f3 0a 15 bd 2e 30 f7 3c fc cb ea be
       0.012243773 -0.036387395 0.030174341 -0.45858753
000340 a4 fb 8f bd 0e 1f d7 bc 24 3a e9 be 43 5b a5 bd
       -0.070304185 -0.026259925 -0.4555217 -0.080740474
000350 81 59 17 3e 4e 7c de be cc 32 82 bd 7a f5 46 3d
       0.14780237 -0.43454212 -0.06357345 0.04857395
000360 fc 9e 04 3c 8b 76 4a 3d 8c 28 09 3d 3d db 63 3d
       0.008094545 0.049429458 0.033485934 0.055629004
000370 72 2a 78 bd 15 0e 9d bd 20 8c ef 3c e3 e6 ba bd
       -0.060587354 -0.076687016 0.029241621 -0.091260694
000380 9f f8 63 3d 1b b5 ac 3d bc 1c 82 3d 42 fa c6 3d
       0.055657025 0.084329806 0.06353137 0.09715702
000390 62 95 e6 3d c9 29 e8 bc 8f 2a c9 3d b0 fc a1 3d
       0.11258961 -0.028340237 0.098225705 0.079095244
0003a0 0f 4e f1 3c 2e b9 e7 3b cf a9 86 be 06 cc 8e 3d
       0.029456167 0.0070716357 -0.2630143 0.06972508
0003b0 1c ea 8e 3d 66 32 3f be 41 f3 02 3e 8f 91 c7 3c
       0.069782466 -0.18671569 0.12788107 0.0243614
0003c0 c0 06 63 be cb ea cf bb 3a 35 55 3c db d1 14 3e
       -0.22170544 -0.006345128 0.0130131785 0.14533179
0003d0 89 f3 44 bd e0 50 8c bc 5d 1c 0d 3d 0e ae d4 ba
       -0.048083816 -0.017128408 0.034450877 -0.0016226189
0003e0 4a 0c 8a bd e4 46 9d 3d 40 a5 4b 3d 2a ad 11 3d
       -0.06740625 0.07679537 0.04971814 0.035565533
0003f0 a6 a0 db bc 94 9f 71 bd 3a 4d 52 3d 3e bc f8 3d
       -0.026810002 -0.058990076 0.05134318 0.12145279

conv4.bias f4 [32]
000000 16 b0 7d bc 63 56 5c 3f 26 b4 ff 3c 6f 8a 39 3c
       -0.015483877 0.86069316 0.031213831 0.011324509
000010 37 0e c3 3e ad 61 41 bc ca 54 b1 3e 40 c8 0d bd
       0.38096783 -0.011803073 0.34635 -0.0346148
000020 91 57 83 bc 6b 63 91 3c ea dc d9 3e 4b de 26 3e
       -0.016032966 0.017747601 0.42551357 0.16295736
000030 e3 84 a5 3e e6 3f e4 3e 34 cb 29 3e 1b 82 ae 3d
       0.32327947 0.4458 0.16581422 0.085209094
000040 12 fe df 3e ae 16 83 bb 0f 23 78 3c 47 26 44 3d
       0.43748528 -0.0040005064 0.015145077 0.047888067
000050 f0 3a 9f 3e b0 8c 46 3e f3 dc 98 3d af 81 1b bd
       0.31099653 0.19389606 0.07464018 -0.037965473
000060 a6 70 57 3d 7d 3a 40 3f 63 c6 4c bd d6 32 50 3d
       0.052597664 0.75089246 -0.049993884 0.05082973
000070 a6 bc 4a 3d fe 2e f9 3c b3 09 d6 3e 16 02 d8 3c
       0.049496315 0.030417915 0.41804275 0.026368182

batch4.weight f4 [32]
000000 b2 98 97 3e a6 b9 c8 40 34 28 46 3f 0e de b2 3e
       0.29608685 6.272662 0.77405095 0.3493504
000010 e9 e0 94 40 13 ee cb 3e 51 d6 8f 40 a1 a7 b5 3e
       4.652455 0.39830074 4.4949117 0.35479453
000020 76 72 e1 3e 2d 59 71 3f 83 b1 9d 40 ca b0 4b 40
       0.4403264 0.94276696 4.927919 3.1826653
000030 31 2b 5e 40 a4 d8 8e 40 2d 2b 54 40 c9 31 dd 3f
       3.4713862 4.4639454 3.3151352 1.7280818
000040 52 3e b6 40 54 c2 9e 3e 5e 92 a4 3e d2 d3 95 3e
       5.6951075 0.31007636 0.3214292 0.2926317
000050 cb 32 70 40 a6 f7 7d 40 8f 8b 62 40 88 96 c5 3e
       3.7531002 3.9682403 3.539768 0.3859141
000060 67 d9 4a 3f 90 1a 59 40 dd 62 d8 3e 2c f8 38 3f
       0.7923798 3.3922462 0.42262927 0.7225368
000070 d0 e9 c1 3e df d9 b1 3f 31 7d 82 40 6a 2d 7c 3f
       0.37873697 1.3894614 4.077782 0.98506796

batch4.bias f4 [32]
000000 38 9c 31 bf d4 d2 7f c0 ed a1 ae bf cf bc 23 bf
       -0.69378996 -3.997243 -1.3643166 -0.63959974
000010 b6 f7 1d c0 77 cd 51 bf 5b 9d 3c c0 a3 d6 35 bf
       -2.468244 -0.8195414 -2.9471042 -0.71030635
000020 14 96 4f bf df 8e cf bf e8 c2 4d c0 58 5c 01 c0
       -0.81088376 -1.6215476 -3.2150211 -2.0212612
000030 01 e3 1e c0 2d 7a 41 c0 c9 20 17 c0 62 33 f5 bf
       -2.4826052 -3.023082 -2.361376 -1.9156306
000040 62 20 0e c0 d1 a6 2c bf 38 5c 3a bf ab 17 2b bf
       -2.2207265 -0.6744204 -0.72796965 -0.6683299
000050 52 67 2f c0 2b 6f 00 c0 7d 26 db bf d4 12 37 bf
       -2.7406812 -2.0067852 -1.7121121 -0.71513104
000060 9a fa ac bf 04 17 bb bf dd 36 59 bf 13 6c 8d bf
       -1.3513978 -1.4616399 -0.8484934 -1.1048607
000070 dc 10 3b bf 8d a9 08 c0 21 3d 70 c0 a5 37 c7 bf
       -0.730726 -2.1353486 -3.753731 -1.5563856

lin1.weight f4 [5, 800]
000000 44 1d 11 bd 3c dd 17 bc 5b 8c 88 bd 42 61 93 bc
       -0.0354283 -0.009269055 -0.06667396 -0.017990712
000010 1e 87 49 bb e4 96 eb bc 6b e0 e6 bc a2 28 c3 3c
       -0.0030750702 -0.028758474 -0.028183183 0.023823086
000020 35 ea c2 bb 4c 6c 3d bd 54 23 0c be 6a 91 cc bc
       -0.00594833 -0.046245858 -0.13685352 -0.024971683
000030 5b 2b d9 bb 57 10 f1 bd 23 ac a4 bd 28 39 ec 3b
       -0.006627483 -0.11770695 -0.08040645 0.007208962
000040 74 81 c9 bd c7 db 68 bb 58 c4 51 bd 49 1a 24 3c
       -0.09839144 -0.0035531388 -0.05121264 0.0100160325
000050 5c 2b 7f bc 9a 41 18 3c 5b 3d 0c bd fd bf 87 3c
       -0.0155743025 0.009292984 -0.0342382 0.01657104
000060 07 48 31 3c b7 8d 9b 38 de f0 6d bc 39 12 5f bb
       0.010820395 7.4173724e-05 -0.014522759 -0.003403796
000070 84 7a d7 ba 2e 6d c9 3c 88 3a 57 bb 34 cf 86 bb
       -0.0016439711 0.024588194 -0.0032841284 -0.004114056
000080 5e 36 1b bb dd c3 d0 bb e6 67 80 3c 32 72 2b 3c
       -0.0023683528 -0.006371005 0.015674543 0.010464238
000090 69 80 c2 bb d9 dc 25 bc ee 8b 2d 3c 6c a6 fb 39
       -0.005935718 -0.010123455 0.010592444 0.00047998445
0000a0 ff 93 ba bc 61 a3 00 bc 46 03 14 bc 29 0e 9b bc
       -0.022775648 -0.007851453 -0.009033984 -0.01892765
0000b0 d2 2b 04 bb af 36 5f 3b 83 a3 de 3a 19 3f ee ba
       -0.002016772 0.0034059694 0.0016985986 -0.0018176764
0000c0 09 aa dc bb 9c 33 02 bc 3f 62 90 3c 12 5f 90 3c
       -0.006734137 -0.007946875 0.017624972 0.017623458
0000d0 42 23 a8 3c b7 12 b6 3c 1a dd 0f 3d c9 0a 2a bd
       0.020524625 0.02222572 0.03512297 -0.04151419
0000e0 7b a6 6d be 4f c1 4e be d9 72 69 be 54 ab 66 3d
       -0.23208039 -0.20190929 -0.22797717 0.056315735
0000f0 97 47 86 be 54 dd 07 be 60 15 e7 bd ef a2 05 be
       -0.26226494 -0.13268024 -0.11283374 -0.13050435
000100 77 3e b6 bd ec 9d 6b be 29 51 4a bc 11 42 0c be
       -0.08898633 -0.23009461 -0.012348452 -0.13697077
000110 50 f2 dd bd c1 90 28 bc fc 1a 4e bd 2c a1 fa bd
       -0.10837233 -0.010288418 -0.050318703 -0.12237772
000120 12 b2 07 be 46 2d 2d be 37 3c 13 be 8b 36 46 bd
       -0.13251522 -0.16911802 -0.14378439 -0.04839186
000130 31 00 2c bb 9b 00 e6 bc 2b 7b 63 3c 72 28 d0 3b
       -0.0026245231 -0.02807646 0.013884346 0.0063524777
000140 20 a8 3c bd cd e7 88 bd 52 c3 f1 bc 9c b9 ae bd
       -0.046058774 -0.066848375 -0.029512081 -0.08531496
000150 c8 af 0e be 71 91 3f 3c be 8d ca 3b 30 24 84 3c
       -0.13934243 0.011692391 0.0061814478 0.016130537
000160 8a 2f 50 bd 2c 8d 06 be b6 60 4c bd 55 9e db bc
       -0.050826587 -0.1313979 -0.04989692 -0.026808897
000170 c0 01 84 bb 5f d7 9e bc 0e c0 95 3c 35 c0 84 3b
       -0.004028529 -0.019389806 0.018280055 0.004051233
000180 b3 02 8c bc 37 c6 93 bb 4f 66 31 3b 61 7b 45 3d
       -0.01709113 -0.004509713 0.0027069037 0.048213366
000190 b4 aa 17 3c 7f c1 52 bc ed f8 85 ba 33 37 52 bc
       0.009257007 -0.012863516 -0.001022128 -0.012830543
0001a0 7f 58 0f 3c c1 b9 31 b9 85 34 81 3b 48 dc 92 bc
       0.008749126 -0.00016949234 0.0039430284 -0.017927304
0001b0 9b f8 1d bc 90 39 c3 bc d0 23 bb 3c 60 42 c6 ba
       -0.009641792 -0.023831159 0.022844225 -0.0015125982
0001c0 8a 75 58 bc 79 c0 13 bc 7c 2e ee bb 1a 4a ae 3b
       -0.013211617 -0.009018057 -0.007268725 0.005318892
0001d0 a1 48 63 bc 8f e3 f8 ba 8b 60 19 3c 15 55 2b bc
       -0.013872297 -0.0018988716 0.009361397 -0.010457297
0001e0 a9 94 35 3b ec 52 07 bc 75 15 2e bb 4c 67 0b bc
       0.0027707017 -0.008259516 -0.0026563082 -0.008508515
0001f0 af aa e3 bc 9c d3 c0 3c 97 d6 b6 bc 87 52 85 bd
       -0.02779135 0.023538403 -0.022319121 -0.065098815
000200 76 11 e1 b9 a5 3f 13 bc 55 3a fe bc 4d af 36 be
       -0.00042928354 -0.008987342 -0.031033674 -0.1784031
000210 5c 0d 14 3d d6 15 da bd 6b 75 05 bd d1 fa 96 bc
       0.036145553 -0.10648696 -0.03258268 -0.018430145
000220 57 4f 82 bd 5a 85 ed bc 36 0d 91 bd dd 10 fc bd
       -0.06362789 -0.028994251 -0.07082598 -0.12307904
000230 07 d3 f0 3b 01 a7 dd bc f6 3a c6 3d f9 2d 76 bd
       0.007349375 -0.027057173 0.09679215 -0.060102437
000240 69 d4 74 bd 0c 55 79 3c b3 6c 2e 3d 8e 21 4b 3d
       -0.059772883 0.015218031 0.042584132 0.049592547
000250 14 04 a7 bc 35 57 13 bd 2d bb 79 3c 6a 2a 88 bb
       -0.020387687 -0.03597184 0.01524238 -0.004155447
000260 aa d0 18 3b e7 f6 09 bc b1 b6 af 3c 2d 5a e9 3b
       0.0023317733 -0.0084206825 0.021449419 0.0071213455
000270 25 01 bb bb 53 3a cc 3a 12 7c de 3b a4 46 b6 ba
       -0.0057069235 0.0015581347 0.0067896927 -0.0013906551
000280 90 0c 9a 3b cb 48 c5 bb cc 80 aa bb 67 61 8d bb
       0.0047012046 -0.0060206405 -0.005203342 -0.00431459
000290 15 ed 49 bc fe df af 3a 5e ab f3 bb 2d f5 8a 3b
       -0.012324591 0.0013418195 -0.0074362 0.004240653
0002a0 28 64 09 bc ef ae 9d 3b c1 eb 14 3d df 17 36 bc
       -0.0083856955 0.0048121135 0.036357645 -0.01111409
0002b0 7c 0c 90 3c 98 d7 50 bc 0a eb 66 3c 16 1e de bc
       0.017584078 -0.012746714 0.014094124 -0.027113955
0002c0 49 7a 4a 3b a2 30 93 bd 73 c3 03 bb 58 69 7b bc
       0.0030895642 -0.0718701 -0.002010551 -0.01534494
0002d0 5d d1 52 3b 2f f8 ba 3a 19 06 31 bd 73 83 19 bc
       0.0032168247 0.0014264638 -0.043218706 -0.009369719
0002e0 34 63 68 bc 11 81 98 bc d2 39 e1 3c b6 f5 a8 3a
       -0.014183808 -0.018616231 0.027493391 0.001289061
0002f0 75 3e b4 3c c9 8d 9c bc 91 08 c7 3c f8 3a 1b 3c
       0.022002438 -0.019110577 0.024296077 0.009474508
000300 44 53 75 bd 9d c6 16 bd 79 74 af 3b b9 1e b9 bc
       -0.05989386 -0.036810506 0.005354461 -0.022597658
000310 f9 f9 cf b9 9e 71 92 3c 69 90 a5 bc ee e0 a0 bc
       -0.0003966836 0.017876443 -0.020210462 -0.019638505
000320 68 62 00 bd e1 a0 a3 bc f8 af a3 bc f8 61 d3 bc
       -0.031343848 -0.019974174 -0.01998137 -0.025803551
000330 95 22 16 bd e8 59 8a 3c dd 10 31 3b 29 97 cc 3b
       -0.036654074 0.016888574 0.0027018108 0.0062436056
000340 ee 12 1d bc 75 fb b7 bc 90 cc 44 3d b7 b4 15 3d
       -0.009587033 -0.022458771 0.04804665 0.036549296
000350 2c c9 83 bc 8a b6 c1 bc 02 ad 51 3c 47 6d 93 bd
       -0.016087137 -0.023646612 0.012797596 -0.071985774
000360 ca f7 7c ba 82 c0 81 3a b5 3b df 3b c0 ea 02 3d
       -0.00096499606 0.0009899291 0.0068125376 0.031962156
000370 e4 72 3e bd 07 a0 1b bc 4d 66 eb bc 59 3b 1c 3c
       -0.046496287 -0.009498603 -0.028735304 0.009535634
000380 34 cc 9b bb 6c 99 3e 3d 46 bb ad 3d 7c 25 01 be
       -0.0047545675 0.046533033 0.08482985 -0.12611955
000390 3e 35 87 be 4e df b9 bc 58 2e 3e 3d 7e c9 95 bc
       -0.26407808 -0.022689488 0.046430916 -0.018284556
0003a0 05 b4 24 bb c3 b2 83 3c 90 65 ae bc 12 b2 c5 bd
       -0.0025131714 0.016076451 -0.021288663 -0.09653105
0003b0 1f da 03 be f2 1d d5 3d 51 00 33 be cf 39 f5 bd
       -0.12876175 0.10406102 -0.1748059 -0.11973917
0003c0 17 aa 9f 3d 87 81 23 bd 6e fa 49 3d 37 6d 3c be
       0.07796114 -0.03991845 0.049311094 -0.18401037
0003d0 ce b1 31 bd 71 4b fe 3a 98 b9 13 bc 28 61 ec bc
       -0.04338246 0.0019401145 -0.009016417 -0.028854921
0003e0 14 47 15 be 8e ed 73 3c 53 bd 1a bc 28 c1 e2 3b
       -0.14577895 0.01488818 -0.0094445525 0.0069199987
0003f0 ba 23 8e bc e3 7d 6b 3b 36 25 9c bc f5 d6 57 3b
       -0.01735102 0.0035933189 -0.019060712 0.003293452

lin1.bias f4 [5]
000000 02 10 93 bc dd 2e ce bc 65 15 17 bb c9 f2 a8 bc
       -0.017951969 -0.02516883 -0.0023053524 -0.020623581
000010 45 c0 70 bc
       -0.014694278
