results_auto/01_domain_adaptation/maml_supervised/June/officehome_maml_order_2_seed_0_shots_1_ways_5_meta-lr_0.0001_pre-train-wts_datetime_11_06_2021_09_47_43/intermediate_25000_model.pt (torch, 412181 bytes, 54 tensors)

conv1.weight f4 [32, 3, 3, 3]
000000 8d 36 cc 3e 49 ed b3 3d 7a f6 d0 bd 94 1e c7 bd
       0.3988537 0.08785493 -0.10203262 -0.09722629
000010 3f e7 34 be e9 49 12 be c3 37 d5 3d 2b fd 4e 3d
       -0.17666338 -0.14286007 0.10411026 0.05053441
000020 6f 48 1a be 75 b3 34 3c 62 88 4c be 20 1e 91 3d
       -0.15066694 0.011029114 -0.19973901 0.07085824
000030 f4 eb b1 be 73 96 ff bd 10 69 1d bc dd d8 e8 bb
       -0.3475033 -0.12479868 -0.009607568 -0.0071059302
000040 ed 3e 20 3e 00 dc 90 3e d3 6c 52 bf 11 6e de be
       0.15649004 0.28292847 -0.821973 -0.4344335
000050 2d a0 30 3e 89 08 92 be 83 1d e1 3d 5b 16 13 3f
       0.17248602 -0.28522137 0.10991957 0.57455987
000060 35 47 1b be 2f 11 b1 3e fd a0 4b 3f 28 a1 9d 3d
       -0.15163882 0.34583423 0.79542524 0.07696754
000070 36 eb 57 3d 28 2e ab 3e d0 69 3c be cc b1 6d 3e
       0.05271455 0.33433652 -0.1839974 0.23212355
000080 a2 7f 93 3e fc 58 01 bf c8 8e dc be b2 a3 b9 bd
       0.28808314 -0.50526404 -0.43077683 -0.090644255
000090 45 f5 e3 bd ae 10 83 3e d1 26 bd 3e 9d 49 71 be
       -0.11130766 0.25598663 0.36943677 -0.23563237
0000a0 fb d2 c8 bc 59 d4 f6 3d 97 95 02 bf a3 4a 06 bf
       -0.024514666 0.12052221 -0.51009506 -0.52457637
0000b0 f3 ac 5f be 3b 9c f6 3d b9 ed bb 3e 0d 2d 03 3f
       -0.21843319 0.12041517 0.36704805 0.5124062
0000c0 5e 5f 90 be c3 e2 c5 3b 71 81 ad 3e 25 5d 4a bd
       -0.2819776 0.006038995 0.33887818 -0.049405236
0000d0 4f f0 11 be 2b 44 32 3c 0d 46 c7 3e d6 95 b4 3d
       -0.14251827 0.01088051 0.38920632 0.088176414
0000e0 e2 bc 86 3e 25 3d 8d be 29 8c 9e be 8c 5a c1 be
       0.2631598 -0.27585712 -0.3096631 -0.37764394
0000f0 a8 d3 26 bd 2e 3e 79 bd d7 de ac bd ab 55 c3 3e
       -0.040729195 -0.060850315 -0.08440941 0.38151297
000100 32 e2 a2 3e 63 d8 0e 3e 80 49 28 bc 60 43 1d bd
       0.31813198 0.13949732 -0.01027143 -0.038394332
000110 93 e1 29 be 10 7c 43 3d 8d a5 a2 be 08 8d 0e be
       -0.16589956 0.047725737 -0.3176693 -0.13920987
000120 b5 85 ee 3e 6d fe e6 3e 3d e1 08 3f 16 00 1b 3e
       0.46586385 0.45115986 0.53468686 0.15136752
000130 d2 84 66 bd 30 c1 bf be f6 5c 81 be 78 ee ed be
       -0.05627901 -0.37452078 -0.25266236 -0.46471
000140 a4 2c bc be ac 6d fc 3e b0 a9 bf 3e 00 71 2e bd
       -0.36752808 0.49302423 0.3743415 -0.042588234
000150 93 da 13 be d0 02 b9 be 97 3f d4 be ef de a5 3d
       -0.14438848 -0.36134958 -0.41454765 0.08099162
000160 37 62 3a 3e 87 cc 70 bd 39 ae d5 3e bf 62 e5 3e
       0.18201528 -0.058788802 0.41734484 0.448019
000170 7b db d7 3e 50 33 6f be f8 82 08 bf 5f 4d 02 bf
       0.42159638 -0.23359418 -0.5332484 -0.5089931
000180 b8 df be 3d f3 cd dc 3d 7b e9 01 be 5e fd 8e 3c
       0.09320015 0.10781469 -0.12686722 0.0174548
000190 8f ed d4 3e 5a 0f 02 3f 64 6a f2 be 49 c0 c5 be
       0.41587493 0.50804675 -0.47346795 -0.38623264
0001a0 f4 9a b5 be ff 96 9d bd b9 b0 38 bd 7d f2 97 3d
       -0.35469782 -0.07694816 -0.04509041 0.07419298
0001b0 d0 c7 94 3a c6 06 ab 3d 91 46 65 bd 0f 74 38 3e
       0.0011351053 0.08350901 -0.0559755 0.18013023
0001c0 7f a7 b3 bd 08 3f 5b 3e ad 02 ad 3d ce 02 5a be
       -0.08772182 0.21410763 0.08447776 -0.21290132
0001d0 28 c3 02 be 2b eb 5f 3e 83 51 ae 3e d0 98 4a 3e
       -0.12769759 0.21867053 0.34046564 0.19784856
0001e0 07 02 74 3e 68 c6 42 3e 26 a6 fa 3b b9 b2 99 bd
       0.23828898 0.19020998 0.007649201 -0.07504792
0001f0 2e f6 89 be e3 4b 96 be 1c e2 85 bf 2e af fc 3d
       -0.26945633 -0.29354772 -1.0459628 0.123381004
000200 94 af 27 be b6 46 45 bf c1 ec b8 3e fb f6 8c 3d
       -0.16375571 -0.7706102 0.3611813 0.06883045
000210 cd 80 bd bf e2 59 94 3e fa b0 65 be f7 a0 84 be
       -1.4804932 0.28974825 -0.22430792 -0.25904056
000220 48 01 ad bd 6b 7a 60 be 59 9e 7d 3d 25 cf 51 3e
       -0.0844751 -0.21921699 0.06191859 0.20489176
000230 cd 6b 9b 3e c3 db aa 3e 72 43 09 3f 03 e3 3d 3e
       0.30355683 0.3337079 0.5361854 0.1854363
000240 9f 3d c6 be 30 2e cb bd 85 2b f3 3c 7f cc b6 be
       -0.38718888 -0.09920919 0.029683838 -0.35702893
000250 3b ce c9 be 12 0f 9d be 64 d7 17 bf 14 90 d2 be
       -0.39415154 -0.3067556 -0.59313035 -0.41125548
000260 27 d8 be be a4 d3 dd 3e 31 c1 07 3f 04 54 c8 3b
       -0.37274286 0.4332553 0.5302916 0.006113531
000270 a4 0f 91 3e 7b 64 b6 3c 6d 63 e9 3d 6e 9a 9c bd
       0.28332245 0.02226471 0.11395917 -0.076466426
000280 c9 b1 39 3d f4 0e 08 be 9e c4 19 bf ae 14 97 be
       0.045335565 -0.13286954 -0.6006564 -0.29507965
000290 60 4e 39 be 12 15 bb bd 0d 22 ae 3d bf aa 81 3e
       -0.18096304 -0.09134878 0.085025884 0.2532558
0002a0 03 50 9a bb 4a af dd 3e 46 e9 08 3f ce fd b1 be
       -0.004709245 0.43297797 0.53480947 -0.3476395
0002b0 71 f8 66 3e bb 16 ec 3b 95 eb b4 be 92 36 85 3e
       0.2255571 0.007204858 -0.35335985 0.26018196
0002c0 5b 06 e1 3c 24 4b 93 be cc 8b 94 3e bd 9d 2c be
       0.02746885 -0.28768265 0.29012907 -0.16857047
0002d0 a4 84 32 3e b5 15 d0 3e 61 11 cf 3e a0 24 76 bd
       0.17433411 0.4064156 0.40442947 -0.060093522
0002e0 42 97 79 3e 69 c3 92 3d 63 78 ed be 5a b9 16 be
       0.24374107 0.07166178 -0.4638091 -0.14719144
0002f0 aa c1 dd be 9f 87 34 3d 27 e9 b8 3e 3f 3e 44 3e
       -0.43311816 0.04407465 0.3611538 0.1916437
000300 a7 69 22 bf 37 e2 6a be 44 4f 0f bf 40 2b b0 3c
       -0.6344246 -0.22937857 -0.55980325 0.021504998
000310 ce 02 5e 3e b3 d6 6b 3e 7f 23 38 be d3 5a 85 3e
       0.21680757 0.2303112 -0.1798229 0.26045856
000320 7d ee 2d 3d 47 68 cc be e5 d4 af be 5c e6 1a bf
       0.04246377 -0.39923307 -0.34342113 -0.6050775
000330 c9 88 fe 3d 9b 3c 26 3f 31 39 3e 3e 4f c5 34 3e
       0.124284334 0.64936227 0.18576504 0.17653392
000340 46 f6 7e 3e d5 5d 78 3d 45 63 a7 be aa 38 75 be
       0.24898633 0.06063636 -0.32692924 -0.23947397
000350 61 b4 ad be d8 dd 95 3e 24 61 e1 3e dd d2 8f 3e
       -0.3392668 0.29270816 0.44019425 0.28090563
000360 46 7d 58 be a2 50 e9 be 84 60 1c 3f 89 d2 c8 be
       -0.21141538 -0.4556933 0.6108477 -0.39223126
000370 f7 55 8a be bc 1f 11 3f 93 c9 0c be 86 0c 58 be
       -0.2701871 0.5668905 -0.1374877 -0.21098527
000380 e4 ce 9c 3d 42 f8 7f 3e 9d 8c 01 bf 43 5b 00 3e
       0.07656649 0.24997047 -0.50605184 0.12534814
000390 49 95 b5 3c 26 a1 37 be 3a 1c 49 3e d1 e8 8a 3e
       0.022165911 -0.17932567 0.19639674 0.2713075
0003a0 e7 fd 20 bd 02 5a ab 3e 7f 9c 8d 3e 9d af ce be
       -0.03930464 0.33467108 0.2765846 -0.40368357
0003b0 f4 25 9d 3e 9c 73 24 be 8a c9 91 be 65 24 3f 3e
       0.30693018 -0.16059726 -0.28474075 0.18666227
0003c0 a7 f9 27 3d b0 ba 5a bd 2c ed 41 bd 29 3a bd 3e
       0.04100957 -0.053400695 -0.047345325 0.36958435
0003d0 2c 1f c7 3e 80 9b ee bd c3 a2 06 3f 8b a4 c1 3d
       0.3889097 -0.11650753 0.52592105 0.09455212
0003e0 03 b0 8d bd 7b 1e b4 3e 90 00 45 bc 82 a4 bf 3c
       -0.06918337 0.35179505 -0.01202406 0.023393873
0003f0 ce d6 97 3e f7 bd 9e bd 14 72 88 be f5 ad 60 bd
       0.2965607 -0.07751077 -0.26649535 -0.0548534

conv1.bias f4 [32]
000000 9a c2 b6 bd be e6 c6 bf d1 e4 53 3d 93 3a 5f be
       -0.08923836 -1.5539167 0.05173189 -0.21799688
000010 61 e0 37 bf 0e 02 d9 c0 92 68 b7 3c 10 66 d5 bc
       -0.7182675 -6.781501 0.02238873 -0.026049644
000020 a4 20 96 be 95 1b 4b 3e 56 05 9a be fb ed 0b bd
       -0.29321778 0.1983474 -0.30082196 -0.034162503
000030 9e d2 5e 3f 10 9e d0 bf 83 94 53 be d9 77 09 be
       0.87040126 -1.6298237 -0.20662121 -0.13424625
000040 5c 82 53 bc 72 57 8d be 27 f5 5b be e6 5f 62 c0
       -0.012909498 -0.27605778 -0.21480237 -3.5371032
000050 e9 32 81 3f e9 f8 d6 3c f8 d6 d8 3d f0 f9 d5 3d
       1.0093662 0.026241736 0.10587877 0.104480624
000060 3d 35 25 c1 d1 65 71 3e f1 ac 17 be ba fd a7 bd
       -10.325498 0.23573996 -0.14812066 -0.082026914
000070 e9 00 85 3e 89 5d ef be e8 64 2d c0 f8 e3 86 3d
       0.25977257 -0.4675105 -2.7092838 0.0658645

batch1.weight f4 [32]
000000 f9 a3 98 3f ad f9 86 3f ef 54 32 3f 65 20 97 3f
       1.192504 1.0544945 0.6966085 1.1806761
000010 c3 59 65 3f 89 49 45 3f 09 a7 8d 3f 67 1c 8d 3f
       0.8959009 0.7706533 1.10666 1.1024293
000020 75 85 59 3f d9 d4 82 3f 3f 85 a8 3f b5 46 3d 3f
       0.84969264 1.0221206 1.3165663 0.73936015
000030 e5 18 6b 3f a6 61 14 3f a2 e4 f4 3e 8a 94 5a 3f
       0.9183486 0.579615 0.47830683 0.853829
000040 45 b2 47 3f fb a4 8b 3f 04 19 a4 3f 7f f1 1e 3f
       0.7800639 1.0909723 1.2820134 0.62087244
000050 e1 9c 56 3f 88 df 74 3f 55 40 7c 3f 39 bd 90 3f
       0.8383313 0.9565358 0.9853566 1.1307746
000060 ed 03 57 3f 16 b1 8f 3f d7 2f b2 3f a7 6d 80 3f
       0.83990365 1.1225917 1.392085 1.0033463
000070 74 21 b0 3f 5f 07 1e 3f 0d 7e 33 3f b1 b4 04 3f
       1.3760209 0.6173 0.70114213 0.51838213

batch1.bias f4 [32]
000000 06 42 48 3f 28 38 36 bf 93 3d 4c 3f 0e 6e 99 3d
       0.78225744 -0.7117944 0.79781455 0.074916944
000010 27 9c 07 bf 06 4b 4b 3e b2 33 c2 3f 86 1c 22 3f
       -0.52972645 0.19852838 1.5172026 0.63324773
000020 b6 d3 31 40 cd c3 e5 3d 7e 6d 8a 3f 43 b0 15 bf
       2.7785468 0.11218987 1.0814664 -0.5847208
000030 f7 11 8c bd 0f 04 97 be a5 6c 38 3d a7 6f 0e bf
       -0.06839364 -0.29495284 0.045025486 -0.5563912
000040 3f da 57 bd 59 96 d1 bd 30 7a 26 bf cf 1b 86 be
       -0.05269837 -0.10233755 -0.65030193 -0.2619309
000050 6a 17 97 bd 12 c2 1b 3e 0c 6b 4a 3e 93 9c 4e 3e
       -0.07377513 0.1521075 0.19767398 0.20176916
000060 b9 70 94 3e 49 09 ef bc ca 60 cc 3e 37 be b6 3b
       0.2899225 -0.029179232 0.39917594 0.0055768746
000070 15 6e b4 bd de e2 b3 3c b6 8f c7 3f 0d be ee bd
       -0.08810059 0.021958765 1.5590732 -0.11657343

conv2.weight f4 [32, 32, 3, 3]
000000 dc 96 76 bd 57 0e 70 3e 9a 3e 51 3d 7a 9a c7 bd
       -0.060202464 0.2344297 0.051085092 -0.09746261
000010 32 a6 84 3e 43 50 05 3f bc 70 54 bc a3 cc 37 3e
       0.25908047 0.52075595 -0.012966331 0.17949156
000020 f9 9a 36 3e 60 1c 45 3e a6 55 45 be 5f 6a 0b bd
       0.17832555 0.19249105 -0.19270954 -0.03403699
000030 46 98 9b 3d ae 03 7b 3b 6b f6 13 3f 41 47 7a be
       0.07597403 0.0038301754 0.5779788 -0.24441244
000040 e2 71 53 be 72 0a 54 3e c6 de 0d bf ef 83 0e bf
       -0.20648912 0.2070711 -0.5541805 -0.55670065
000050 c2 56 e9 be a6 a3 e5 be a9 ab 2c be c6 24 4c bf
       -0.45574003 -0.44851416 -0.16862358 -0.7974361
000060 a3 26 e2 3d 75 c8 39 3e 25 8e e5 3e de 18 d8 3e
       0.110425256 0.18142875 0.4483501 0.42206472
000070 72 8b 44 3e b9 b7 5d be 54 e4 23 be cd 25 29 be
       0.19193819 -0.21652116 -0.16005069 -0.16518326
000080 c1 7f 32 bf 20 5b 2e 3e e8 02 5e bd b1 3b 28 be
       -0.69726187 0.17026949 -0.05420199 -0.1642902
000090 63 37 96 3e 8e a6 0d 3e 8c 26 c6 3c fd 26 8c 3e
       0.29339132 0.13833067 0.024188302 0.27373496
0000a0 09 cb dc 3d 04 60 8f 3c e8 66 d8 3d 43 9a 1c be
       0.107809134 0.017501839 0.10566503 -0.15293221
0000b0 31 99 c6 bd f6 0a 36 be 51 2a 8b be 4c 23 57 be
       -0.09697188 -0.17777619 -0.27180722 -0.21009558
0000c0 b7 07 22 3d c8 5e 12 bc 38 ef 16 3e 11 86 5f 3e
       0.03955814 -0.00893373 0.14739692 0.21828486
0000d0 55 e9 d9 3d e2 a0 65 3e fc 1e 82 3d d1 11 46 be
       0.10640208 0.22424653 0.06353566 -0.19342734
0000e0 04 1b 85 be c5 4f 25 3e 02 40 1c 3d 5c c3 cd bb
       -0.25997174 0.16143711 0.03814698 -0.006279392
0000f0 59 82 1a 3e a7 6a 29 be fc 28 78 3e c2 35 bf 3d
       0.15088786 -0.16544591 0.24234384 0.09336425
000100 10 07 9d 3d 80 40 2e be 9a bf 3f 3e bd 85 58 3d
       0.07667363 -0.17016792 0.18725434 0.052861918
000110 10 74 b3 bd a1 a5 a6 3d f0 a9 82 3e ad ab a6 3d
       -0.087623715 0.0813706 0.25520277 0.08138213
000120 d6 8b a8 bd 34 c7 45 3e 1f 55 7d 3e a9 ab 3f be
       -0.082297966 0.19314271 0.24739502 -0.18717827
000130 44 be bd 3d 6c de ce 3e 3a 2d e8 be b2 27 80 be
       0.09264806 0.4040407 -0.45347005 -0.25030285
000140 ff af e9 3d 3c 55 65 be 4a a0 2f bf 93 b7 cd be
       0.11410522 -0.22395796 -0.68603957 -0.4017912
000150 15 24 9b be b1 ed 7a be 2b 9c 31 3e 7d 60 23 bd
       -0.30300966 -0.24504735 0.1734473 -0.03988694
000160 36 c9 76 3d cb 62 de 3e 6c 41 24 be c5 fe 9e bd
       0.060250483 0.43434748 -0.16040581 -0.07763437
000170 58 a1 57 3d c0 35 b5 bd a3 88 80 3e cd 3a 0a 3e
       0.052644104 -0.088481426 0.25104246 0.13498993
000180 1e b4 12 be 2e 79 ae be e7 73 96 be a2 cf f6 be
       -0.14326522 -0.34076828 -0.293853 -0.48205286
000190 36 95 0b be 38 a9 84 be 94 f6 bc be 20 99 99 3e
       -0.13631138 -0.25910354 -0.36906874 0.29999638
0001a0 d9 e8 c1 3d f4 91 ae be fd 3e ca 3e cf f0 6f 3e
       0.0946824 -0.34095728 0.3950118 0.23431705
0001b0 ae 87 8f be db ed 5d be 72 0b 93 be 8c b5 11 3e
       -0.28033203 -0.21672766 -0.2871967 0.14229411
0001c0 2f ce 69 3e 15 cd 57 ba 94 6a 8e be c1 92 94 3c
       0.22832559 -0.0008232159 -0.27815688 0.018136384
0001d0 88 c3 da 3e 56 dc 28 3d 2b 78 e0 bd 0d ab 97 bc
       0.42727304 0.041225754 -0.1096042 -0.01851418
0001e0 a1 46 87 3d 5c e3 49 be eb bf ad be 04 0d d1 3d
       0.06605268 -0.19715637 -0.33935484 0.10207561
0001f0 da 8e a7 bd 48 9b fd be d0 3f 02 bf 65 96 fd be
       -0.08181544 -0.49532533 -0.5087862 -0.49528804
000200 13 65 84 be ee 41 0a bd 70 1f 8d bd 51 cf 74 3e
       -0.25858364 -0.03375428 -0.06890762 0.2390721
000210 30 3a 4a 3e 25 6f 8a 3e 20 de fb 3e 14 80 91 3e
       0.1974876 0.27037922 0.49192905 0.28418028
000220 42 e3 a2 be a9 d8 9d 3c b2 e2 bc 3e ef ae 8a bc
       -0.3181401 0.01926835 0.36891705 -0.016929118
000230 72 a4 2f 3d 92 8f 8e bd ea a5 d5 be 06 f2 9a be
       0.042881437 -0.069609776 -0.41728145 -0.30262774
000240 54 92 1d bf af ec b1 bd 2e 79 9c be eb d4 a9 bd
       -0.61551404 -0.08687722 -0.30561203 -0.08292564
000250 1e aa 0f 3f 29 84 8e 3e 4b b7 02 be 76 55 9f 3e
       0.56118953 0.27835205 -0.12765233 0.3111989
000260 06 9e bf 3e d1 f4 bb 3e 42 01 82 bd 81 83 92 3e
       0.3742525 0.36710218 -0.06347896 0.28615955
000270 36 62 4c 3e 7b 8a d2 3b a5 22 af bd 7b 27 43 be
       0.1995934 0.0064251996 -0.0855153 -0.1905803
000280 32 c6 92 be 6f 8e b1 be c0 0f 77 bd e7 35 9a be
       -0.28666836 -0.3467898 -0.060317755 -0.3011925
000290 c4 1e 4b be 2e 84 25 3e da 48 d1 bd 36 b9 97 3e
       -0.19835955 0.16163704 -0.102189735 0.29633492
0002a0 31 52 e6 3e 71 04 d0 bb c4 49 d1 3e 4e 88 cb 3d
       0.44984582 -0.0063481857 0.4087659 0.099381074
0002b0 46 9f ab be 00 6e 91 bd f7 bd 87 bb 5a 35 0c bb
       -0.33519953 -0.07101059 -0.0041425186 -0.0021394105
0002c0 c4 24 9e 3d 1c 1b 54 bd 0f 77 f0 3c 2b 7f 5a be
       0.07721856 -0.051783666 0.029353647 -0.21337573
0002d0 08 89 4f bd cb 5e b3 bd b3 f8 92 be de 2a 21 bd
       -0.050667793 -0.08758315 -0.28705367 -0.039347522
0002e0 8c 94 c0 3d 9d 1a 87 3e 3d c8 10 3a 69 ee 5f 3e
       0.09403333 0.26387492 0.0005523002 0.2186829
0002f0 fb 94 04 3e da 5b 2a 3e e0 6f 9c 3d f0 05 0e 38
       0.12947457 0.16636601 0.07638526 3.3860968e-05
000300 65 61 cf be 87 2f 3e be 16 d9 49 be 20 1e 30 be
       -0.40503994 -0.18572818 -0.19711718 -0.17198992
000310 35 25 91 3d c6 91 6d 3e 84 d7 6c be 9d d5 20 bf
       0.07087175 0.2320014 -0.23129088 -0.6282595
000320 59 54 b1 be 72 64 d8 be 59 0e ca 3d f8 2b 99 3e
       -0.34634665 -0.42264134 0.09866018 0.29916358
000330 24 91 2f bd 42 cf 8f 3e a0 a7 3a 3f b5 20 c2 bd
       -0.042863026 0.28087813 0.72912025 -0.094788946
000340 72 19 88 be ea 63 5f 3e 77 2d 03 be 62 6f c1 3a
       -0.26581913 0.21815458 -0.12810312 0.0014757926
000350 a3 bd 23 3e 69 1b d6 3c e8 a0 cb bc 53 17 1c 3c
       0.1599031 0.026136117 -0.024857 0.009527045
000360 1a b9 c3 be 44 47 04 be ba 93 d0 3d 90 b6 2b be
       -0.3822716 -0.1291781 0.101844266 -0.16768861
000370 f9 53 1a 3d fe a8 f6 3e 8d 80 c9 be 03 0c e1 bd
       0.03767774 0.48175806 -0.3935589 -0.10988619
000380 ce a3 88 bc fb 4b 1d 3d 6c 79 30 be b3 9c f9 be
       -0.01667967 0.03840254 -0.17233819 -0.48752365
000390 47 16 a7 be fb 46 42 be bf 6e 35 bf 1b 63 00 bd
       -0.32634184 -0.1897239 -0.7087211 -0.031344514
0003a0 f7 8e fd 3d f7 cc 0b 3e 24 f8 62 3e be 36 f0 3c
       0.12380784 0.13652407 0.2216497 0.029322978
0003b0 f0 e5 93 be e5 82 82 3e bd de da 3d 03 53 85 3d
       -0.28886366 0.2549049 0.10687015 0.06509974
0003c0 46 2e cb be fa f9 51 be 16 64 02 bf 79 23 aa 3d
       -0.3968374 -0.20505515 -0.5093397 0.08307547
0003d0 bd 6b 84 3e 5d 84 ce 3d eb 8f 08 be 77 47 21 3e
       0.25863448 0.1008384 -0.1333615 0.15749918
0003e0 18 54 84 bb 00 19 d1 be d4 ab f7 3c a6 a3 69 3c
       -0.004038345 -0.40839386 0.030233301 0.014260208
0003f0 ab ac eb bd 88 89 e2 be a3 b1 3e 3d 76 3e e0 3c
       -0.11507543 -0.44245553 0.046556126 0.027373534

conv2.bias f4 [32]
000000 d6 2b c6 3d a9 67 15 3e 0b 6f 0a 3e 52 01 0f 3e
       0.0967633 0.14590324 0.13518922 0.13965347
000010 78 d5 81 3d f6 f9 c0 3d db ee b1 bf 96 68 06 bd
       0.06339544 0.09422676 -1.3901018 -0.032814585
000020 aa 2f be 3e 29 26 aa be 4e a8 86 3e da 52 17 be
       0.3714574 -0.3323224 0.2630028 -0.14777699
000030 df 0e 52 bd 07 7e 36 3e 15 49 5a 3d 99 ff c3 bd
       -0.051283713 0.17821513 0.053292353 -0.09570236
000040 23 a2 7f bd da 84 31 be b5 97 71 bd 71 fd ce bd
       -0.062410485 -0.17335835 -0.05898257 -0.10106934
000050 28 7f 4d bd ca 07 25 3d e9 44 05 3e dc 62 0c 3d
       -0.050170094 0.04029063 0.13014568 0.034273967
000060 35 56 a4 3e 97 d9 4c 3a 11 de c3 3b c4 d0 09 be
       0.3209702 0.0007814406 0.0059774 -0.13458544
000070 9e ba 10 bf af ff af 3e 87 a8 29 bd 36 67 c6 3e
       -0.56534755 0.3437476 -0.041420486 0.3875062

batch2.weight f4 [32]
000000 ab 20 52 3f a0 56 78 3f 64 aa b9 3f 8a 02 91 3f
       0.820811 0.9700718 1.4505124 1.13289
000010 69 14 7d 3f f9 80 99 3f e5 62 9b 3f b2 53 33 3f
       0.9885927 1.1992484 1.2139555 0.70049584
000020 3b 90 91 3f c2 e9 5e 3f 76 7a 97 3f 20 5d 6c 3f
       1.1372141 0.87075436 1.1834247 0.923296
000030 b0 38 1a 3f 20 30 ab 3f 00 8c 88 3f 61 00 9f 3f
       0.6024275 1.3374062 1.0667725 1.2421991
000040 3e 1e 58 3f 4e 8d 63 3f 40 79 74 3f 08 70 49 3f
       0.84421146 0.8888749 0.9549751 0.7868657
000050 69 b8 95 3f 9c 85 87 3f ef 32 97 3f cb 4c 8b 3f
       1.1696903 1.0587649 1.1812419 1.088281
000060 d6 ce 80 3f bb 16 40 3f 9c aa 46 3f ef a3 22 3f
       1.0063121 0.75034684 0.7760408 0.6353139
000070 b9 3e 8e 3f c1 f5 70 3f 5d 10 6a 3f af 33 4c 3f
       1.1112891 0.9412499 0.9143122 0.7976636

batch2.bias f4 [32]
000000 2c 78 7f bd c6 e8 06 bf d1 d3 b7 be 71 55 10 bf
       -0.062370464 -0.52698934 -0.3590379 -0.56380373
000010 45 9b 91 be 05 c6 1e bf 66 41 b1 be 24 cb 55 be
       -0.28438774 -0.62020904 -0.34620208 -0.20878273
000020 48 b8 f5 be 6d 6a a6 be e9 a4 f7 be 9f 05 a6 be
       -0.47992158 -0.3250307 -0.48368004 -0.32426164
000030 ae ad d8 3c d5 1e e4 be 4b 00 bf be 88 a8 0f bf
       0.026450004 -0.44554773 -0.3730491 -0.56116533
000040 70 2c c2 be 24 5d df be 31 75 f6 be 12 e3 37 bd
       -0.37924528 -0.43625748 -0.48136285 -0.044894286
000050 21 07 df be e2 b5 bb be 52 24 12 bf ad 4e b4 be
       -0.43560126 -0.36662203 -0.5708667 -0.35216275
000060 3b 46 01 bf bc ce 87 be 00 07 45 be 9f 09 95 be
       -0.5049779 -0.26524913 -0.19240952 -0.29108903
000070 1a af 42 be 12 67 bd be 1d 1a a8 be 6d 6b f7 be
       -0.19012108 -0.369927 -0.32832423 -0.48324147

conv3.weight f4 [32, 32, 3, 3]
000000 15 bb 96 3e ce fd 04 3f c7 db b7 3d 0c 7f ad be
       0.29439607 0.51949775 0.08977466 -0.33885992
000010 d1 72 1c bc db f5 7c 3e dd fc ea be 39 06 66 be
       -0.009548859 0.24703161 -0.45896044 -0.22463311
000020 d2 75 93 bd bb 7b 04 3e d5 80 b7 3d a8 39 be be
       -0.07200207 0.12937824 0.0896012 -0.37153363
000030 8b cc e3 bd 53 1b 19 be 71 fd e6 bc 7b 28 99 3e
       -0.11122998 -0.1495183 -0.028197022 0.29913697
000040 ef cd 58 3e db 99 ca be 4f 18 4f 3d 71 cc 9f ba
       0.21172307 -0.39570507 0.05056029 -0.0012191666
000050 fc b6 f7 be da 33 96 3e 2c 80 36 3e 4c b6 1a be
       -0.48381793 0.29336435 0.17822331 -0.15108603
000060 e3 8c cf 3d d1 8c 23 3d 82 c0 73 be d6 e3 69 be
       0.10134294 0.039929215 -0.23803905 -0.22840819
000070 da 5d a7 be 9a 1e ac 3e 36 b8 eb 3c c4 e2 47 be
       -0.3268879 0.33617097 0.028774362 -0.19520098
000080 7d 86 c5 3e 4d 18 bc be 2a 26 76 be 64 7f 8f 3e
       0.3857917 -0.3673729 -0.24037996 0.2802688
000090 fc a6 8b 3e d0 78 de 3e 9e 4a 2a 3d b3 5c 22 bd
       0.27275836 0.43451548 0.041575067 -0.039639186
0000a0 fa ae 08 3d ce cd f9 bd 33 53 86 bd c5 8f 08 3d
       0.033369996 -0.12197457 -0.06558838 0.033340234
0000b0 a1 55 b8 bd ba 02 86 3e af 50 4d 3e fa b9 5f 3e
       -0.090007074 0.26173955 0.2005031 0.21848288
0000c0 d7 f2 85 3d 86 3c 38 3e e4 64 a6 3e f3 fd eb be
       0.06540459 0.17991838 0.32498848 -0.46092185
0000d0 1b 07 41 3d 6a bf 74 be 0a cb c7 3e c3 5a d2 3d
       0.047125917 -0.23901144 0.39022094 0.10271218
0000e0 36 67 72 be 74 a1 0d 3e a5 34 02 bd 5c 0c 0b bd
       -0.23672184 0.1383112 -0.031788487 -0.033947334
0000f0 b2 c0 86 3e 58 7f d7 3e ec 7f dc 3d f6 1d bb be
       0.2631889 0.42089343 0.10766587 -0.36546296
000100 29 26 8b be 22 7f 0b bf 0c ec 30 3e 68 53 75 be
       -0.2717755 -0.54490864 0.17277545 -0.23957598
000110 a2 ba 99 be 1a b2 01 be 7a aa 16 be 64 42 29 bc
       -0.30025202 -0.12665597 -0.14713469 -0.01033077
000120 85 5e 26 3e 1d 46 38 be 26 14 a4 be 1f 5e 81 bd
       0.16246994 -0.17995496 -0.32046622 -0.0631678
000130 0d f4 02 3d 4f 6d 60 3e 9d 69 bd 3c 8c 32 89 3d
       0.031971026 0.21916698 0.02312165 0.06699094
000140 bd 8a 2d 3e 48 9e 51 bf 32 a1 e4 bd c3 00 8e 3e
       0.16947456 -0.81882143 -0.11163558 0.27734956
000150 58 27 32 bf f7 6e a4 be 72 20 62 3e 62 38 29 be
       -0.69591284 -0.3211591 0.2208269 -0.16525415
000160 53 db 4f b9 16 80 f5 3d ce 7f 4d be 4d b6 1a bf
       -0.00019822763 0.11987321 -0.20068285 -0.6043442
000170 84 ca 68 3e b9 6a e6 bd 44 ca a2 3d b7 c4 6b 3e
       0.22733504 -0.112508245 0.07948735 0.2302426
000180 9a 7d da bd dc cb 13 3b cc e9 b4 3c 18 91 6a 3d
       -0.10668488 0.002255193 0.02208414 0.05726728
000190 fa 45 c3 3d 5e ff 72 3e ed 5c 1e 3e 18 65 32 be
       0.09534831 0.23730227 0.15465136 -0.17421377
0001a0 cf 1e 20 be df 08 13 3e f5 68 b6 3e 34 38 49 be
       -0.15636753 0.14358853 0.3562695 -0.19650346
0001b0 b5 8f 86 bd 77 31 16 be 36 f4 df be 46 67 47 be
       -0.06570379 -0.14667307 -0.43741006 -0.1947299
0001c0 bf 28 cd bd ae 86 d2 be 00 c0 53 be 07 4a c9 3d
       -0.10017537 -0.41118377 -0.20678711 0.09828573
0001d0 6e 4f 6f be 7a ae 65 be 45 b9 12 be 77 13 79 3d
       -0.23370144 -0.22429839 -0.14328487 0.06080958
0001e0 7c c9 8f 3d a3 6a b8 3d cc 39 99 be 19 91 0a bd
       0.07020852 0.09004714 -0.29926908 -0.033829782
0001f0 6f dc b3 3d 5b 8e f8 be e6 c0 18 be e2 10 75 be
       0.08782279 -0.4854611 -0.14917335 -0.23932222
000200 74 4e 16 bf 3a b4 28 bd 75 03 7e bd a6 e4 95 3d
       -0.5871346 -0.041187502 -0.062015016 0.07319002
000210 35 e4 c0 bc a6 f6 5a 3e 96 45 2d bd 4e 52 94 3e
       -0.023546318 0.21383151 -0.04230269 0.28969043
000220 1b aa 64 bd bb 96 55 be 31 74 3b 3e 97 2b 66 be
       -0.055826288 -0.2085828 0.18306042 -0.22477566
000230 a0 db 0f bf 27 f0 11 be 7a 1c a4 3e 49 2f 89 be
       -0.56194496 -0.14251767 0.32052976 -0.26793888
000240 04 61 14 3e fe af c2 bc 23 38 27 bf 0c 15 52 bd
       0.14490134 -0.02376556 -0.6532003 -0.051289603
000250 c2 bd 99 3c 65 de 84 bc 84 2b 61 be c2 80 21 be
       0.018767241 -0.016219327 -0.21989256 -0.15771773
000260 06 cd 25 be 4a 08 20 b9 46 96 0d be bc f0 be 3e
       -0.16191491 -0.00015261877 -0.13826856 0.3729304
000270 5b 9f 84 3e 02 bf 93 3e 20 e4 73 3e 41 43 ff bd
       0.2590283 0.28856665 0.23817492 -0.124639995
000280 07 30 33 3e 5e 76 5a 3e 80 aa 44 3c fe f1 45 3e
       0.1749879 0.21334216 0.012003541 0.19330594
000290 4a 7e 99 3e 05 e2 11 be 20 ab 54 be cd 05 a3 be
       0.29979163 -0.14246376 -0.20768404 -0.31840363
0002a0 42 68 2c 3e bf b1 07 bf 26 65 d1 be d3 be 95 be
       0.16836646 -0.53005594 -0.40897483 -0.2924715
0002b0 67 fe 45 3d e4 d8 d1 3d 2e 1c bf be e7 d7 17 3c
       0.04833832 0.10246447 -0.37326187 0.009267784
0002c0 87 ca 83 be a8 d2 c3 be c4 6d 9e be c0 81 6a be
       -0.25740454 -0.38246655 -0.3094312 -0.22901058
0002d0 37 08 a1 bd 25 f7 06 3d 9d c6 b1 3e 7b 75 79 3e
       -0.07862895 0.03295054 0.34721842 0.24361221
0002e0 ff 52 3f 3d e5 ee 1f 3e 0c c6 9e 3e 3a 23 d6 3d
       0.04671001 0.15618475 0.31010473 0.10455938
0002f0 44 03 91 3c c1 76 e4 3e 45 b1 c2 bb cc ac 44 3d
       0.017701752 0.44621852 -0.0059415423 0.048016354
000300 54 24 74 3e e1 2d c7 be 10 00 b3 be b3 95 cc bd
       0.23841983 -0.3890219 -0.34960985 -0.0998949
000310 a9 07 a2 3c f9 a0 e6 3d 86 d6 6f 3e 45 06 a6 3d
       0.019779043 0.11261172 0.23421678 0.081066646
000320 ff ce 9f be f8 a0 9e 3e 57 8c d7 3e b3 dd 0d 3e
       -0.31212613 0.30982184 0.42099258 0.13854103
000330 94 e8 a4 3c 3d fb 30 3e 10 e3 0c 3d e4 b5 73 3c
       0.020130433 0.1728334 0.03439623 0.014874909
000340 5d 62 33 bd c6 8f 23 be 0d 21 bf be 86 22 0a be
       -0.04379498 -0.15972814 -0.37329903 -0.13489732
000350 05 45 80 3c 97 6c 1a bf 27 8c 6a bd 41 7d 6b 3e
       0.015657911 -0.60321945 -0.057262566 0.22997
000360 21 de 3a 3e 4b 00 2a bd 98 20 85 bf 0f 33 3d 3e
       0.18248798 -0.041504186 -1.0400572 0.18476509
000370 fd 4c 83 be df 99 4f be 43 01 91 bd 19 5b 99 be
       -0.25644675 -0.20273541 -0.07080319 -0.29952314
000380 a3 87 0b be eb af 67 3d a1 30 69 be 7b d1 02 bf
       -0.1362596 0.056564253 -0.22772457 -0.5110089
000390 5a 79 b8 be 11 62 3c bd 4a 1b 11 bf ac 1c 5f 3d
       -0.36030084 -0.04599196 -0.56682265 0.054470703
0003a0 b5 b5 bf 3e 56 60 88 3e 08 9b a0 3e 6c ba 95 3e
       0.3744332 0.26635998 0.3136828 0.2924379
0003b0 d9 5b be be f2 d1 eb 3e ed 96 84 3e c0 20 ed be
       -0.3717945 0.46058613 0.25896397 -0.4631405
0003c0 32 da ea 3e 01 95 b0 3d bd 8e 52 be 60 3e d8 3c
       0.45869595 0.0862217 -0.20562263 0.02639693
0003d0 49 d5 36 be 50 1a b7 bd 9e 60 6f 3e 9d 7f 4c 3e
       -0.178548 -0.089405656 0.233767 0.19970556
0003e0 e7 fc a7 be c9 e3 20 bd 3d 35 83 be 24 4d 26 bf
       -0.32810137 -0.039279733 -0.25626555 -0.6496146
0003f0 57 db 5d bd 08 ac 5c be 0f db 95 3e ed bd 56 3c
       -0.054164257 -0.2155 0.2926869 0.013106805

conv3.bias f4 [32]
000000 6f ec 72 3e f1 d5 78 3e 17 84 ec 3e ed 06 ab 3d
       0.23723005 0.24300362 0.46194527 0.0835093
000010 a8 6d 22 3e f1 f3 d2 3d 56 e7 e2 bf fe 84 8a 3e
       0.15862143 0.103004344 -1.7726848 0.2705459
000020 eb 00 2b bd 83 45 d1 be 6d fd ca 3d 16 71 90 ba
       -0.041748922 -0.40873346 0.099116184 -0.001102003
000030 a7 da 0e 3f 0b 9d bf 3e fe 28 61 3d f7 ba e4 3e
       0.55802387 0.37424502 0.054970734 0.44673893
000040 a7 78 26 3f 9f 7c 19 3e ad 61 91 3e 6e b6 19 3f
       0.6502785 0.14988945 0.28394833 0.6004399
000050 fa 01 06 3f 70 13 bf bc 70 cc 6c 3e 7a 98 63 3f
       0.52346766 -0.023324698 0.23124862 0.88904536
000060 c6 96 a7 3d 1f a1 a3 3f 73 9b bf 3e 94 58 f7 3e
       0.081830546 1.2783545 0.37423286 0.48309767
000070 c8 77 c4 3e 5d ac 62 3e 50 84 91 be d3 56 22 bf
       0.38372636 0.22136064 -0.2842126 -0.63413733

batch3.weight f4 [32]
000000 69 ec 3d 3f e3 00 59 3f 0c 06 80 3f 4c f0 6c 3f
       0.7418886 0.8476698 1.0001845 0.92554164
000010 a0 f7 3f 3f 55 e5 53 3f eb ae ab 3f a6 b9 41 3f
       0.7498722 0.8277181 1.3412756 0.756739
000020 9c 68 94 3f 04 c6 8b 3f 03 d7 3e 3f 01 3f 44 3f
       1.1594424 1.0919805 0.7454683 0.76658636
000030 e3 1e 6c 3f f0 d0 8e 3f 08 7b 18 3f 0f f5 4d 3f
       0.9223463 1.1157513 0.5956273 0.80452055
000040 1a f0 6d 3f 08 0f 69 3f 71 74 3b 3f f5 9f 5e 3f
       0.9294449 0.9103856 0.7322455 0.86962825
000050 a6 3f 67 3f ee 6d 70 3f 30 8f 39 3f 7b cd d3 3f
       0.90331495 0.9391774 0.7248411 1.6547083
000060 c9 fc 4f 3f 43 cb 89 3f 16 ba 79 3f 18 07 74 3f
       0.81245095 1.0765156 0.9754957 0.95323324
000070 08 72 45 3f 4b d3 38 3f 45 b1 89 3f fc fb 7b 3f
       0.7712712 0.7219741 1.0757223 0.9843137

batch3.bias f4 [32]
000000 3c 45 8e be 4b 44 99 be 7d d3 ce be e1 c9 e5 be
       -0.27787197 -0.29934916 -0.40395728 -0.44880584
000010 d5 c2 8a be 94 a0 24 bf 03 67 46 bf f2 19 53 be
       -0.2710177 -0.6430752 -0.77500933 -0.20615366
000020 cf c2 5d bf 72 6c 8b be 62 22 ff be 9d 93 10 be
       -0.8662538 -0.27231175 -0.4983092 -0.1411881
000030 0e 76 9a be 6a 60 d9 be 27 74 fe 3c 60 fd ad be
       -0.30168194 -0.4245637 0.031061245 -0.33982372
000040 74 dd ec be 47 73 b2 be 0d 97 8c be 9f 27 bd be
       -0.46262705 -0.34853575 -0.27458993 -0.3694429
000050 a0 08 22 bf 7b 41 cf be 09 fa 65 be e5 1c 70 bf
       -0.6329441 -0.40479645 -0.22458662 -0.9379409
000060 6e 17 13 bf 77 95 1a bf b8 98 99 be 7a 39 19 bf
       -0.57457626 -0.60384315 -0.29999328 -0.5985333
000070 c5 a1 b8 bd 40 ee 9e be 30 3e 87 be f7 66 7d bf
       -0.0901523 -0.31041145 -0.26414633 -0.98985237

conv4.weight f4 [32, 32, 3, 3]
000000 f0 7e f3 bd 2a c9 a2 bb 2a 67 00 bc d1 15 f2 bd
       -0.11889446 -0.0049678283 -0.007837096 -0.118205674
000010 a2 79 58 bd 56 39 19 bd 16 2a 97 bd 65 77 0e be
       -0.052850373 -0.037408195 -0.07381074 -0.13912733
000020 b7 88 dd 3d 56 c8 ba 3d 9c 31 81 3d 2c dc b1 3d
       0.10817092 0.09120242 0.0630829 0.086845726
000030 b1 1c 83 bb a0 e9 b3 bd 24 1e 59 3c 53 0c 5d 3d
       -0.004001223 -0.08784795 0.013251815 0.05396683
000040 5f 66 2e bd ab 77 19 bd 9e 3b 9b 3d fb 72 69 3b
       -0.042578097 -0.03746764 0.075797305 0.0035621512
000050 78 5d ab 3c 66 fa 20 3d e7 6a 0f 3c 13 40 8b 3d
       0.020918593 0.0393013 0.008753515 0.067993306
000060 4b 95 d1 3c e1 66 7a bd 24 53 3f bd cd 73 2c be
       0.025583884 -0.06113327 -0.04671015 -0.1684105
000070 49 92 6d bc 19 9d 62 bd 24 70 ee bd e7 26 91 3b
       -0.014500209 -0.0553256 -0.11642483 0.0044296863
000080 0a 59 8b bd 1d 78 18 be c9 42 05 bc 73 8a 65 3d
       -0.06804092 -0.1488957 -0.008133599 0.05604024
000090 bc 76 de 3a 98 83 d4 3d 61 52 8f 3d fd fa dc 3d
       0.0016972641 0.10376662 0.069981344 0.1079006
0000a0 4d 47 24 3e e3 51 87 3d 9a ad 29 3e 36 28 b5 3d
       0.16042824 0.066074155 0.1657013 0.0884556
0000b0 6c 83 cf 3c 0e 77 d7 3d 46 84 84 3c 85 20 a7 3d
       0.025331222 0.10520755 0.016176354 0.081604995
0000c0 ff 9b 20 3e 94 46 7c bc e3 44 f0 3b 7b da 02 3e
       0.15684508 -0.0153976865 0.0073324307 0.12778656
0000d0 81 3d b9 3d ba 4f f0 3c f9 42 64 bc 00 df 51 3d
       0.09044934 0.029334892 -0.013931983 0.05123806
0000e0 cf a2 00 bb f4 9c 41 3d 1e 04 72 bd b0 d2 a5 3c
       -0.0019628291 0.047268823 -0.059085958 0.020242065
0000f0 26 b6 50 be 7e ae 50 3d a8 c4 8e 3d 20 74 7c 3d
       -0.20381984 0.05094766 0.06971103 0.061634183
000100 f8 43 0d bc fc 30 ec 3b 90 7f 15 3e ce fd f9 bc
       -0.008622162 0.007207988 0.14599442 -0.030516531
000110 4f bb 4b bc c4 d7 ea 3c a4 63 b6 3c 32 0e 2e 3d
       -0.012434795 0.028667338 0.02226431 0.042494006
000120 be 66 17 be 46 0e ec 3d 2c 15 28 3d 1d 40 59 be
       -0.14785287 0.1152616 0.041035816 -0.21215864
000130 2c 83 e6 bd 9e 08 d7 3d 6c 42 37 be e4 15 06 bd
       -0.11255488 0.104996905 -0.17896432 -0.03273572
000140 6b ec 1f bd 7d 54 d7 be 5f 2c fb 3b 23 71 3b 3c
       -0.039043825 -0.42056647 0.0076652016 0.011440548
000150 15 e7 bd be 76 bd 60 3a 82 af 35 3b af bc c8 be
       -0.37090364 0.0008573154 0.002772302 -0.39206454
000160 1e 0e 94 3d 09 23 f8 3d dd c3 a8 bb 73 4a 3e 3c
       0.07229255 0.121160574 -0.005150302 0.01161443
000170 ef 5e be 3d a7 7d 0f 3c 0b 96 d3 3c 27 59 cc 3d
       0.09295451 0.008757985 0.025828382 0.09977942
000180 12 81 08 bd 30 3f 04 3c fb 6a 0f 3e f3 a6 bd bd
       -0.033326216 0.008071706 0.14005654 -0.09260359
000190 e4 f1 1d 3d 33 af 84 3d 89 39 f9 bc a9 03 a2 bd
       0.038560763 0.06478729 -0.030422943 -0.07910854
0001a0 ea e9 94 bc b9 f1 3b bd e0 a8 53 3d 3d 3b ae 3d
       -0.018177945 -0.04588482 0.051674724 0.085073926
0001b0 a9 e3 89 3d 1d 34 e3 3c 2f f4 7c 3c e7 77 b5 3c
       0.06732876 0.02773481 0.015439077 0.0221519
0001c0 86 fd c6 3b ce bd 23 bd 95 08 e7 3d 86 b8 2a 3d
       0.006072703 -0.039975934 0.11280934 0.04167988
0001d0 ed 0d bd 3d 53 3a 88 3d c7 12 1d 3e 18 af 15 3d
       0.09231172 0.066517495 0.15339194 0.036543936
0001e0 be ba 34 3e e5 8e 1c 3e 3d 62 0f 3c 76 0c 38 3e
       0.17649361 0.15288885 0.008751449 0.17973503
0001f0 1e f7 d5 3d dd 37 a4 3c d0 63 f8 3d b0 d2 c7 3d
       0.104475245 0.020046169 0.12128413 0.09756982
000200 65 63 12 3d 03 20 e6 3d c3 75 6a 3d 8e da f0 bc
       0.03573932 0.112365745 0.057241213 -0.02940109
000210 05 34 2a 3e 56 2d 84 3d 71 b4 16 3e b0 bc 19 3d
       0.16621406 0.0645396 0.1471727 0.037533462
000220 29 b0 3b 3d d4 55 4c 3d 08 a0 53 3d d4 be 69 bd
       0.045822296 0.04988654 0.05166629 -0.057066754
000230 a4 86 68 3d 02 69 87 ba 0c 2c e3 3c 89 e3 33 3d
       0.05676903 -0.0010330977 0.027730964 0.043918166
000240 37 7a 2a 3d 25 97 62 3d 76 79 a4 bd 66 4f b3 3d
       0.04162046 0.055319924 -0.08030979 0.087553784
000250 03 5a da bc 8c 62 ae bb c8 9e b5 3d 3d 42 9c 3d
       -0.026654249 -0.0053218063 0.08868176 0.076298214
000260 ae 51 79 bc 0d 80 4f be e6 30 69 3d c6 83 31 bc
       -0.015217228 -0.20263691 0.0569314 -0.01083464
000270 4b c2 17 bd bf 60 a2 3c bc f5 b5 bc cb 83 33 be
       -0.037050527 0.019821523 -0.022211902 -0.17530744
000280 ee 7f 54 3d 0b 0b 82 3d 01 16 20 3e e6 b4 59 3d
       0.051879816 0.063497625 0.15633394 0.053151034
000290 a2 7c aa 3d 7c 00 de 3d 22 e0 9b 3d f8 2d 80 3d
       0.08324553 0.10839936 0.07611109 0.06258768
0002a0 69 99 14 3e b2 f2 a3 3d fd 59 9f 3d 65 0e ff 3d
       0.14511646 0.08005275 0.07780836 0.124539174
0002b0 2a 62 9c 3d 60 32 d2 3d fe cd bf 3d ce 17 04 3e
       0.07635911 0.102635145 0.09365462 0.12899706
0002c0 07 26 36 bb 30 7e c4 3d 32 6d a0 3c ab 51 aa 3c
       -0.0027793662 0.09594381 0.019583318 0.020790895
0002d0 fc 47 e8 3d f8 02 80 bc da 88 a1 3d a5 a0 34 3e
       0.11341855 -0.015626416 0.078874305 0.17639406
0002e0 36 7c b2 3d 3a 09 88 3d 2f 9e 29 3e 73 76 33 3e
       0.087150976 0.06642385 0.16564249 0.17525654
0002f0 2a 2f 6d 3c 43 50 49 bd d9 b2 b7 bd 1c 7b 3c 3d
       0.014476577 -0.04914881 -0.08969659 0.046015844
000300 0d 6a 78 3d db 63 c5 bd c4 ae 8e 3d 7b d2 dc bd
       0.060648013 -0.096381865 0.06966928 -0.107823335
000310 3e bb 3a 3d 43 d7 f3 3d 18 f0 97 bd e3 31 30 bc
       0.045588724 0.11906292 -0.07418841 -0.010754081
000320 3c bd 3e bc aa 89 ce bc 1b f4 c1 3d 08 8b 93 bc
       -0.011641797 -0.025212128 0.094703875 -0.018010631
000330 e6 ba 8b 3c 61 05 47 bd 53 c7 16 3d 04 cd e3 be
       0.017056894 -0.048589114 0.036811184 -0.44492352
000340 0d 43 8d bd 5f a6 0e bc 8a 3c e2 be f5 e7 a1 bd
       -0.068975545 -0.008706658 -0.44186813 -0.079055704
000350 03 ae 0a 3e c6 9e d7 be 5c e1 aa bd e6 be 40 3d
       0.13542943 -0.42113322 -0.08343765 0.047057055
000360 84 53 c9 3c 0d a0 df 3c b0 55 f9 3c df 79 7f 3d
       0.024575956 0.027297998 0.030436367 0.062372085
000370 cf 99 97 bd 29 8b 81 bd 86 24 44 3d 7f 0f c0 bd
       -0.074023835 -0.06325371 0.047886394 -0.09377956
000380 1d 9b 6b 3d 0b 2e e4 3d 0b 31 99 3d 3d 8b ec 3d
       0.057520974 0.111415945 0.07480057 0.11549995
000390 34 c2 00 3e b3 52 dd bc 4e db ef 3d ef c7 8b 3d
       0.12574083 -0.027016973 0.11711751 0.06825244
0003a0 17 f3 14 3d 2b 73 d7 3b 0d 89 82 be 53 54 c3 3d
       0.03636464 0.0065750084 -0.25495186 0.09537568
0003b0 8c 2b b1 3d 06 0f 3f be 38 08 04 3e 24 1d f2 3c
       0.08650884 -0.18658075 0.1289376 0.029554911
0003c0 6d 9d 61 be 48 34 17 3c 1a af e0 3c a4 6c 02 3e
       -0.2203271 0.009228773 0.027427245 0.12736756
0003d0 28 1a 58 bd 83 3b d4 bc 80 ea 68 3d e8 b3 17 3a
       -0.05275932 -0.025907284 0.05686426 0.0005787001
0003e0 a3 c0 4c bd 5b 34 b4 3d 4c d4 28 3d 6b e7 2c 3d
       -0.0499884 0.087990485 0.041218087 0.042212885
0003f0 44 38 38 bd 06 fa 84 bd 29 80 13 3d 5c 35 94 3d
       -0.044975534 -0.06493001 0.036010895 0.0723674

conv4.bias f4 [32]
000000 96 82 7d bc fc f9 59 3f dc 9b fd 3c 5c f4 39 3c
       -0.015473029 0.8514707 0.030958109 0.011349764
000010 06 bf bc 3e f2 fc 40 bc fa 86 a1 3e a1 e2 0d bd
       0.3686449 -0.011779057 0.3154829 -0.03463996
000020 e7 70 83 bc e8 f1 90 3c 9c f6 e2 3e b5 49 53 3e
       -0.016045047 0.017693475 0.44328773 0.20633586
000030 41 08 a4 3e 1e 68 dd 3e 19 63 20 3e 87 a2 ae 3d
       0.32037547 0.43243498 0.15662803 0.085270934
000040 02 84 d0 3e ae 16 83 bb 07 88 77 3c 65 6b 44 3d
       0.40725714 -0.0040005064 0.015108115 0.047953982
000050 56 ac ac 3e e6 41 4d 3e 6a bb 94 3d 2e 8a 1b bd
       0.33725232 0.2004467 0.07262309 -0.037973575
000060 78 bb 56 3d e2 da 48 3f 4f 0a 4d bd 2b 00 4f 3d
       0.052424878 0.7845899 -0.05005866 0.05053727
000070 33 9d 4a 3d 04 d9 f6 3c 9d a4 d2 3e 06 03 d8 3c
       0.049466323 0.030132778 0.41141215 0.02636863

batch4.weight f4 [32]
000000 1c 72 a1 3e 5f 58 b7 40 11 9b 58 3f b2 7a ba 3e
       0.3153237 5.7295375 0.8461161 0.36421734
000010 ea f1 86 40 3f f2 d0 3e 6c 98 81 40 9f 50 bc 3e
       4.2170305 0.4080982 4.049856 0.3678026
000020 97 d9 de 3e 1b df 84 3f fd bd 97 40 7a ef 45 40
       0.43525383 1.0380586 4.741942 3.0927415
000030 94 97 4c 40 6a f3 87 40 d4 90 49 40 e8 39 dd 3f
       3.1967516 4.2484636 3.1494646 1.7283297
000040 b2 15 a3 40 54 c2 9e 3e 5f ae b4 3e 7e 5b 92 3e
       5.0963984 0.31007636 0.35289285 0.28585428
000050 3e b1 63 40 0e 2e 6e 40 d8 e1 4f 40 7c 3e c3 3e
       3.557693 3.721561 3.2481594 0.3813361
000060 cd 97 53 3f 2e 97 49 40 62 77 d8 3e 2c b6 3c 3f
       0.82653505 3.1498523 0.42278582 0.7371547
000070 ea 3c c6 3e a9 97 b6 3f f1 b2 7d 40 3d 04 7d 3f
       0.3871835 1.4265033 3.9640467 0.9883459

batch4.bias f4 [32]
000000 49 cd 2c bf b4 6d 82 c0 99 2a a6 bf b1 cc 1f bf
       -0.6750074 -4.0758915 -1.298175 -0.6242171
000010 b3 31 1c c0 0b 5e 4f bf ab dd 44 c0 9e dc 30 bf
       -2.4405334 -0.81002873 -3.0760295 -0.69086635
000020 63 c5 50 bf 01 6e c4 bf 76 54 45 c0 4e 7c fc bf
       -0.8155119 -1.534607 -3.08328 -1.9725435
000030 44 93 1d c0 53 c4 3a c0 cd 71 11 c0 5d 46 f5 bf
       -2.4621134 -2.9182327 -2.2725708 -1.9162098
000040 66 22 0e c0 d1 a6 2c bf b6 79 32 bf bd 22 2d bf
       -2.2208495 -0.6744204 -0.69716966 -0.6763113
000050 76 98 2b c0 57 07 03 c0 c6 d0 d5 bf dc 16 38 bf
       -2.6811805 -2.047323 -1.6704338 -0.7190988
000060 3a 60 a9 bf 84 64 a5 bf fc 27 59 bf f6 9e 8b bf
       -1.3232491 -1.29213 -0.84826636 -1.0907886
000070 2b 30 39 bf 13 69 06 c0 72 c8 68 c0 98 d1 c6 bf
       -0.72339123 -2.1001632 -3.6372342 -1.5532713

lin1.weight f4 [5, 800]
000000 44 1d 11 bd 26 43 44 3c a6 22 16 bd 33 44 70 bc
       -0.0354283 0.0119789 -0.036654137 -0.014664697
000010 0c 78 81 bc 70 fa d1 bc 84 03 c2 bc 72 36 53 3c
       -0.015804313 -0.025632113 -0.023683317 0.012891399
000020 45 f8 c0 3b 4e 3a e7 bc 54 23 0c be ed ff 29 bd
       0.005888971 -0.028226044 -0.13685352 -0.041503835
000030 42 0f 71 3b 9f f6 a9 bd b0 73 40 bd 28 39 ec 3b
       0.0036782776 -0.08298992 -0.04698533 0.007208962
000040 a2 1e c7 bd e1 92 e4 3a 3b 37 58 bd 2a 24 91 3b
       -0.097226396 0.0017438793 -0.052787047 0.00442936
000050 5c 2b 7f bc c7 1a 9d 3c 62 f3 51 bc 06 d0 8c 3b
       -0.0155743025 0.019177807 -0.012814375 0.0042972593
000060 1a e0 ee bb 76 54 ab 3a 0a 20 51 bc 2f 34 36 bb
       -0.0072898986 0.0013071436 -0.012763986 -0.00278021
000070 d6 4a cb bb 41 ce ce 3c 4b 57 55 bb 23 fd e9 bb
       -0.0062039895 0.025244834 -0.0032553251 -0.007140772
000080 15 25 03 ba dd 28 a3 bb 98 c1 64 3c 25 69 2c 3c
       -0.0005002779 -0.0049792365 0.013962172 0.010523115
000090 0a 53 d1 bb 07 21 3a bc 1e 9b 1f 3c 86 3b 9c 3a
       -0.006388073 -0.011360413 0.009741573 0.0011919595
0000a0 1b a6 ae bc a5 e0 f3 bb 2c 33 20 bc 6e 52 7d bc
       -0.02131944 -0.007442551 -0.009777825 -0.015461547
0000b0 63 82 f3 bb ba 78 1e b9 30 2d 45 3b 84 7d 84 bb
       -0.007431315 -0.00015113028 0.0030086748 -0.004043283
0000c0 bb 3d 02 bc 13 16 ec bb e6 ac 25 3d ec ea df 3c
       -0.007949288 -0.00720478 0.040448092 0.0273337
0000d0 19 85 19 3d 32 6e 06 3d 45 49 11 3d eb 73 21 3b
       0.037480447 0.032819934 0.035470266 0.0024635743
0000e0 db cd 5e be 92 fc 4d be 0f c3 53 be 1a ec 8b 3d
       -0.21758215 -0.20115879 -0.20679878 0.06832142
0000f0 55 08 7f be e0 54 19 be 3d 42 bd bd 95 83 06 be
       -0.24905522 -0.14973783 -0.092411496 -0.13136132
000100 fb 24 d3 bd 3b cc 67 be bc 27 04 bc 29 48 1e be
       -0.10309788 -0.22636501 -0.008066114 -0.15457214
000110 52 b4 f9 bd 02 bc a7 3c 9e 49 67 bd 54 93 0c be
       -0.121925965 0.020475391 -0.05646669 -0.13728076
000120 d3 c1 0d be 92 fa 37 be 07 81 16 be 09 86 2e bd
       -0.1384347 -0.17966679 -0.14697658 -0.042608295
000130 77 9b 82 3b 9a cb 30 bc 61 52 e7 3b a9 6b 28 3c
       0.003985818 -0.01079073 0.007059381 0.010279574
000140 13 a4 cb bc 27 dc 82 bd ba c4 16 bd 1b cb 94 bd
       -0.02485851 -0.06389647 -0.036808707 -0.07265302
000150 1c 0f cf bd 53 ba 04 3d fa a2 45 bb 1d e2 20 3d
       -0.10110304 0.032404255 -0.0030156956 0.03927814
000160 dc 65 ec bc 4a 36 ef bd 4f 9a 2b bd 8e 22 b4 bc
       -0.028857164 -0.11680277 -0.041895207 -0.021989133
000170 cf 0a 99 bb e1 89 9c 3c 80 62 96 bb c2 95 82 3c
       -0.004670478 0.019108715 -0.004589379 0.01594055
000180 00 24 13 bc 0b 91 58 bc 01 83 7f 3c a5 73 4b 3d
       -0.008980751 -0.013218175 0.015595199 0.049670834
000190 e3 bb 75 3b db 55 16 bc 26 cf 90 3b 62 63 87 bc
       0.0037496022 -0.009175743 0.0044192253 -0.016526882
0001a0 7b a1 c4 3b 73 25 ab ba a1 e1 84 3b 89 d4 76 bc
       0.0060006953 -0.0013057425 0.0040552174 -0.015065321
0001b0 bf f1 69 bb 5d 80 a2 bc 0c 12 a4 3c 00 a8 13 bb
       -0.003569707 -0.019836599 0.020028137 -0.0022530556
0001c0 b8 43 5d bc 5b af c4 bb dd 6f 08 bc ca 37 d2 3b
       -0.013504915 -0.0060023493 -0.008327452 0.006415342
0001d0 cd 18 61 bc 16 27 1a ba b4 a4 14 3c dd 4f 7a bc
       -0.013738823 -0.0005880458 0.009072471 -0.01527783
0001e0 35 41 4c bb c6 c0 10 bc ee a7 ad bb c0 ca 28 bc
       -0.0031166796 -0.008835023 -0.00529956 -0.010302246
0001f0 80 86 ba bc 03 d8 e3 3c 93 a8 b1 bc 76 79 8b bd
       -0.022769213 0.027812963 -0.021686828 -0.06810276
000200 d6 44 57 bc 89 4e 98 3b fe 1d 0c bd 00 40 34 be
       -0.01313897 0.004648034 -0.03420829 -0.17602539
000210 28 af 96 3c da 3d de bd 98 bb 13 bd 32 e4 c1 bb
       0.018394068 -0.10851641 -0.036067575 -0.0059170956
000220 35 72 91 bd ef a6 b3 bc 98 61 91 bd f1 cb fe bd
       -0.071018614 -0.021930186 -0.07098693 -0.124412425
000230 07 d3 f0 3b b8 ff 16 bb f4 7f d4 3d 36 f4 34 bd
       0.007349375 -0.0023040604 0.103759676 -0.04417821
000240 70 63 71 bd a5 ac df 3c 42 bd 31 3d 55 78 32 3d
       -0.05893272 0.027304003 0.04339338 0.04357179
000250 54 31 0f bd 3f f1 1e bd 36 7a 9c 3c 0a a7 d2 3a
       -0.034959152 -0.03880429 0.019101243 0.001607151
000260 1a 82 02 3c 51 0f d6 ba d9 c5 ac 3c 93 c5 f5 3b
       0.007965589 -0.0016331469 0.021090435 0.0075003593
000270 84 df ab bb 18 de b1 ba 49 79 ac 3b e1 dd e2 ba
       -0.005245151 -0.0013570217 0.0052634818 -0.0017308557
000280 65 0d 81 3b 87 85 82 bb 89 ba b8 ba 1e c4 26 bb
       0.0039383643 -0.003983203 -0.0014093678 -0.0025446485
000290 7e b5 1f bc 81 8a 4a 3b 80 9d da bb a7 8e 06 3c
       -0.009747861 0.0030905309 -0.0066716075 0.008212722
0002a0 9c d4 a2 bb 6c 20 eb 3b 62 1b 39 3d f6 e9 60 bc
       -0.0049691927 0.007175496 0.04519213 -0.013727656
0002b0 80 c5 55 3c e1 e5 59 bc f2 6a 32 3c 79 b6 ce bc
       0.013047576 -0.013299436 0.010889756 -0.025233494
0002c0 04 21 a5 ba ee 88 2a bc 55 b7 1f 3c da 73 45 bc
       -0.001259834 -0.010408623 0.0097483 -0.012051547
0002d0 5d d1 52 3b b8 8c 99 3b 7a 36 66 3a db fa 58 3b
       0.0032168247 0.0046859644 0.00087819214 0.0033108506
0002e0 40 1d 8e bc fd 6c 61 bc 28 e0 b6 3c 05 8b d2 bb
       -0.017347932 -0.013758895 0.022323683 -0.006425264
0002f0 0e f6 5a 3c 77 05 8c 3a 68 2f e0 3c c2 35 82 3b
       0.013364328 0.0010682781 0.027366355 0.0039736936
000300 bc 20 d9 bc 37 22 77 bc ed bb 1e 3c a3 c9 0a bc
       -0.026504867 -0.015083841 0.00968836 -0.0084709255
000310 e4 51 04 bc aa 88 3d 3c 5f 74 2c 3b f4 14 e1 bb
       -0.008076165 0.011568228 0.002631448 -0.006868953
000320 68 62 00 bd c1 ef 4c bb 4a 14 75 bc 3c 1a 43 bc
       -0.031343848 -0.0031270834 -0.014958451 -0.01190811
000330 45 71 22 bd 4d 63 0b 3d cd 4c 7a bb 02 71 9f 3b
       -0.039658803 0.034030247 -0.003819275 0.0048657665
000340 01 f7 cc bb 1e 20 5b bc ae f3 59 3d 7a b7 af 3c
       -0.006255031 -0.013374357 0.053210907 0.021449793
000350 c5 67 89 bc ab 7c 80 bc 17 a1 07 3c 8b 83 42 bd
       -0.016773114 -0.015684446 0.008278153 -0.04748873
000360 50 82 39 3d da 01 6c bb 36 a2 22 3c 38 10 4a 3d
       0.04529029 -0.0036011846 0.009926369 0.049331874
000370 a9 53 12 bd f1 03 c1 ba 4e 53 03 bc ed bf 6e 3c
       -0.035724316 -0.0014725906 -0.008015467 0.014572126
000380 bc 4e 15 bc 14 1f 63 3d b9 51 c9 3d 0e 5d 15 be
       -0.00911301 0.05544956 0.098300405 -0.14586279
000390 2d 64 92 be 80 3f e6 bc c4 da 24 3d e5 cf b1 ba
       -0.28592053 -0.028106451 0.040247694 -0.0013565986
0003a0 13 3c aa 3b f4 86 02 3d 15 89 3f bd 5b ff c1 bd
       0.0051951497 0.031866983 -0.04676159 -0.09472533
0003b0 b8 8a 0c be e9 bf 05 3e 52 2f 26 be 2b 75 fd bd
       -0.13724792 0.13061489 -0.16228989 -0.12375864
0003c0 c3 2d 9f 3d c7 d2 65 bd e9 5b 42 3d ae 10 43 be
       0.077724 -0.056109216 0.047450934 -0.19049332
0003d0 0d 93 38 bd ab 48 2b 3c 07 d8 07 bd 63 92 6e bc
       -0.045062114 0.010454337 -0.033165004 -0.0145612685
0003e0 66 1e 0d be 73 a2 69 3d cc f3 e3 ba 42 6d 0d 3c
       -0.13781127 0.05703969 -0.0017391383 0.008632006
0003f0 c3 b0 85 bc 0b 27 1e ba 19 c4 50 bc bb 73 40 3b
       -0.016319638 -0.00060330395 -0.012742066 0.0029365856

lin1.bias f4 [5]
000000 da 4b e2 bc 51 59 f8 bc f4 26 b9 ba 36 74 ae bc
       -0.02762406 -0.030316027 -0.0014125989 -0.021295648
000010 90 0f 26 bc
       -0.010135546
