results_auto/01_domain_adaptation/maml_supervised/June/officehome_maml_order_2_seed_0_shots_1_ways_5_meta-lr_0.0001_pre-train-wts_datetime_11_06_2021_09_47_43/intermediate_4000_model.pt (torch, 412181 bytes, 54 tensors)

conv1.weight f4 [32, 3, 3, 3]
000000 ea 8f e0 3e c4 b3 c8 3d da 3d b8 bd f0 90 88 bd
       0.43859798 0.097999126 -0.08996172 -0.0666827
000010 67 2a 33 be ff 40 19 be 8c bd 06 3e 32 bb 1f 3d
       -0.17496644 -0.149662 0.13158244 0.038996883
000020 4d a0 19 be aa 06 10 3d 16 8c 3c be 81 22 b9 3d
       -0.15002556 0.035162605 -0.18412814 0.09039784
000030 b3 5e ac be 9a 95 02 be 4d 40 48 bc 04 4d 4d b9
       -0.33666 -0.12752381 -0.012222362 -0.00019579014
000040 79 7b 07 3e cc ca 90 3e f0 f3 53 bf 9d a7 e7 be
       0.13230695 0.28279722 -0.82794094 -0.45245066
000050 93 78 30 3e 8e 68 91 be 3a fd b2 3d ca 0a 0f 3f
       0.17233495 -0.2840008 0.087397054 0.5587584
000060 67 ef 12 be df ab a3 3e 8c e0 47 3f 43 6f 65 3d
       -0.14349137 0.31967065 0.78077006 0.05601431
000070 8c ca d9 3c 35 de ab 3e 98 dc 20 be 9b 68 64 3e
       0.02658584 0.33567968 -0.1570915 0.22305529
000080 cc 42 a3 3e 0d 99 f6 be 9e 98 ec be 93 8e cb bd
       0.318869 -0.48163643 -0.46210188 -0.09939303
000090 a5 b4 18 be 76 ae 53 3e af d6 af 3e 84 4b 76 be
       -0.1491266 0.2067202 0.34343478 -0.24052244
0000a0 a3 86 53 bd 59 4e 06 3e 33 a4 02 bf b7 74 0d bf
       -0.05164207 0.13115825 -0.510318 -0.5525622
0000b0 23 68 6d be af 1b b7 3d 64 e3 a5 3e c0 21 03 3f
       -0.23184256 0.08940827 0.32400048 0.51223373
0000c0 5a ec 82 be 0b b0 a9 3c cf a7 c3 3e 8a 61 e3 bc
       -0.25570947 0.020713827 0.38213965 -0.027756471
0000d0 73 7f f2 bd 74 28 53 3d 9b fb bf 3e cf 34 c1 3d
       -0.11840715 0.05155225 0.37496647 0.094339006
0000e0 06 ed 8a 3e 3a 2a 90 be f6 fc 98 be dc 3b c1 be
       0.2713396 -0.28157216 -0.29880494 -0.37740982
0000f0 32 75 56 bd d6 5a 6c bd 48 2a d7 bd 79 cd bf 3e
       -0.05235786 -0.057703815 -0.105061114 0.3746145
000100 5d fc a5 3e b8 d0 10 3e 70 b3 16 ba 06 37 bb bc
       0.324191 0.1414212 -0.0005748784 -0.022853386
000110 ec 60 22 be b0 0f 35 3d cd b8 9f be 5c 85 1b be
       -0.15857285 0.044204414 -0.3119568 -0.15187591
000120 8c e0 f1 3e 0f 7e ed 3e 40 07 0c 3f 8d 0d 29 3e
       0.47241628 0.46385238 0.5469856 0.16509075
000130 0a a5 15 bd d8 f8 b5 be b6 28 7f be c2 37 e6 be
       -0.036534347 -0.35541415 -0.24917874 -0.44964415
000140 6b aa b8 be 23 23 02 3f 3a 94 c2 3e be 97 42 bd
       -0.3606752 0.50834864 0.38003713 -0.047507994
000150 94 57 04 be 06 e8 b4 be 82 5a d2 be 8a f9 ba 3d
       -0.12924033 -0.3533327 -0.41084677 0.09129627
000160 bf 2a 41 3e 0a fe 7f bd 8b bd da 3e 79 87 e9 3e
       0.18863963 -0.06249813 0.42722735 0.4561117
000170 12 94 dc 3e 7d 75 60 be d8 40 05 bf 47 67 fb be
       0.4308172 -0.21919818 -0.5205207 -0.49102232
000180 4e 94 db 3d dd 2b ec 3d 93 d3 03 be 87 0c 4c b7
       0.10721646 0.11531804 -0.12873678 -1.2162264e-05
000190 99 d2 cb 3e 80 0f ff 3e ad 61 f6 be 69 e2 c6 be
       0.3980911 0.49816513 -0.48121396 -0.38844612
0001a0 30 83 b1 be fb 5e a5 bd 00 d7 59 bd 4b 5c 7f 3d
       -0.346704 -0.08074757 -0.053183556 0.062343877
0001b0 d7 c5 f7 3b a8 84 dd 3d a6 17 1f bd 37 35 1e 3e
       0.007561426 0.10816318 -0.038840912 0.15449987
0001c0 f8 92 c0 bd 4e d5 45 3e 4c f7 77 3d a3 68 6f be
       -0.09403032 0.1931965 0.060538575 -0.2337976
0001d0 f6 9f 07 be 60 34 49 3e d4 9b ab 3e f0 b3 42 3e
       -0.13244614 0.19648886 0.33517325 0.19013953
0001e0 31 ef 44 3e 68 80 27 3e 48 f7 fc bc 32 b3 ec bd
       0.1923187 0.16357577 -0.030879632 -0.11557616
0001f0 14 e5 9c be 16 67 9b be 0a 3e 88 bf fe f2 d3 3d
       -0.30643523 -0.30352086 -1.0643933 0.103490815
000200 69 1c 34 be 7c 3f 57 bf 53 ef 98 3e 5c df d6 3c
       -0.17588963 -0.84081244 0.2987009 0.026229553
000210 06 72 bf bf 06 74 61 3e 6d 66 73 be 43 d0 76 be
       -1.4956672 0.22016916 -0.23769541 -0.24102883
000220 ed 02 83 bd 2c bb 56 be be 05 a9 3d 00 b8 4e 3e
       -0.063970424 -0.20969838 0.08253048 0.20187378
000230 04 72 92 3e fc 84 c0 3e 45 63 11 3f 31 d8 3e 3e
       0.28602612 0.3760146 0.567921 0.18637158
000240 02 6b d8 be 14 e9 fb bd fe 56 66 3c 47 f0 bc be
       -0.4226914 -0.123003155 0.0140588265 -0.36902067
000250 fc 28 d3 be 2c 01 a5 be 46 d3 13 bf b9 0e c7 be
       -0.41242206 -0.32227457 -0.5774425 -0.3887842
000260 fa f3 ad be 69 9d cd 3e c0 6c 02 3f c5 26 fb 3a
       -0.33975202 0.40159157 0.5094719 0.0019161334
000270 53 4c 90 3e 78 d9 cf 3c 33 09 05 3e 0e 0f 7f bd
       0.2818323 0.025372252 0.1299179 -0.062270217
000280 0d 02 9f 3d 63 01 b6 bd 41 8b 20 bf 8c 25 97 be
       0.07764063 -0.08886983 -0.62712485 -0.29520833
000290 62 84 3c be 68 60 c0 bd 10 a4 bc 3d d5 81 57 3e
       -0.18409875 -0.09393388 0.0921098 0.2104562
0002a0 4d 09 11 bc a5 23 e6 3e c1 20 05 3f 2c 59 ca be
       -0.008852315 0.4494907 0.52003103 -0.39521158
0002b0 bd 00 55 3e 92 6f ce 3b 2d 43 ae be 9f 65 8d 3e
       0.20801063 0.0062999213 -0.34035626 0.27616593
0002c0 3b cd 4c 3c 5c fe 86 be ad e1 a6 3e 56 67 1b be
       0.012500103 -0.26365936 0.32594052 -0.15176138
0002d0 ef 02 11 3e ce cb c6 3e 3a ec ce 3e 22 97 5a bd
       0.14161275 0.38827366 0.40414602 -0.053366788
0002e0 fb ba 81 3e 68 7f 5d 3d 0f ce de be ca 9f fe bd
       0.25337967 0.054076582 -0.43516585 -0.12432821
0002f0 01 b3 de be fd fc 77 3d ee e4 c0 3e c5 d2 53 3e
       -0.43495944 0.060544003 0.3767466 0.20685871
000300 10 c7 1f bf 78 a4 64 be c8 f5 10 bf b3 43 1a 3d
       -0.6241312 -0.22328365 -0.5662503 0.03766222
000310 5e af 60 3e 43 34 66 3e 37 f6 32 be 64 2b 87 3e
       0.21941897 0.22480874 -0.17476736 0.26400292
000320 67 10 58 3d 5a 23 ca be c4 da af be 67 3c 1d bf
       0.052750017 -0.39480096 -0.34346592 -0.6142029
000330 15 b4 03 3e 7e 15 24 3f 05 f8 30 3e 3c 0b 2d 3e
       0.12861665 0.64095294 0.17282112 0.16898817
000340 09 9f 73 3e 7d cf 63 3d f8 f6 a7 be 27 bb 7e be
       0.23791136 0.055617798 -0.3280561 -0.2487608
000350 3f 69 b8 be f6 7a 93 3e 71 e6 d5 3e 7d 66 7f 3e
       -0.36017796 0.2880475 0.41777375 0.2494144
000360 10 e7 44 be 8a 72 e8 be 97 2b 19 3f 0f 84 c8 be
       -0.19228768 -0.45399886 0.5983214 -0.39163253
000370 42 f3 90 be e8 16 0e 3f a7 3f 05 be 51 1c 51 be
       -0.2831059 0.555037 -0.13012563 -0.20420958
000380 89 71 a0 3d 78 bd 84 3e 8e 66 04 bf 7f af d9 3d
       0.07834155 0.25925803 -0.51718986 0.10629176
000390 2a 4e 34 3c 16 ed 45 be 7b 77 44 3e 72 5e 8c 3e
       0.011004964 -0.19328722 0.19186203 0.27415806
0003a0 39 eb 02 bd 1b da ad 3e 50 85 96 3e 26 96 ca be
       -0.031962607 0.33955464 0.29398584 -0.3956768
0003b0 4e 3c 96 3e 63 98 32 be 20 44 98 be d7 71 30 3e
       0.29342884 -0.17440943 -0.29739475 0.17230926
0003c0 76 1d 2e 3d 9a da 47 bd ab b2 51 bd c2 9a b7 3e
       0.042508565 -0.04879246 -0.05119578 0.35860258
0003d0 7d 10 c1 3e 5a 36 e2 bd dc dc 05 3f b5 5f c7 3d
       0.37707892 -0.11045523 0.5229013 0.097350515
0003e0 df 3c 6e bd 27 fa ab 3e 57 83 45 bc f3 55 b4 3c
       -0.05816352 0.3358929 -0.01205524 0.02201364
0003f0 f8 a3 95 3e 9f cb ab bd 57 fc 85 be 7a 0d 74 bd
       0.2922666 -0.08388447 -0.26169083 -0.059583165

conv1.bias f4 [32]
000000 b1 0d 9b bd b0 4c c5 bf ba a0 5d 3d 30 b2 80 be
       -0.07570971 -1.5414028 0.05410836 -0.25135946
000010 11 ac 38 bf 07 d5 da c0 c5 d6 71 bc ff 69 42 bd
       -0.7213755 -6.8385043 -0.014760678 -0.047464367
000020 f3 6c 97 be e6 5e 5e 3e 15 9e 9e be f8 9a fc bc
       -0.2957531 0.21715888 -0.30979982 -0.030835614
000030 bc 8c 60 3f 89 33 d3 bf 07 0a 4a be 75 0e 17 be
       0.87714744 -1.6500102 -0.19730388 -0.14751609
000040 d8 dc 0f bd e0 60 8e be b8 4e 58 be dc d0 63 c0
       -0.035122722 -0.27808285 -0.21123779 -3.5596228
000050 69 f3 81 3f 4f b4 19 3d 0d a9 af 3d bc e7 e3 3d
       1.0152408 0.03752547 0.08577166 0.11128184
000060 c2 c7 24 c1 00 47 79 3e 77 e3 26 be e7 ad 96 bd
       -10.298769 0.2434349 -0.16297708 -0.07357388
000070 3e b2 85 3e e3 cc eb be cf b7 2b c0 4a 3d a1 3d
       0.2611255 -0.46054754 -2.6830938 0.07873018

batch1.weight f4 [32]
000000 0d 46 99 3f 95 d4 7c 3f 3b 6b 2b 3f 06 12 95 3f
       1.1974503 0.98761874 0.66960496 1.1646125
000010 0a 56 76 3f da db 5f 3f 5d 75 81 3f 9c 0a 89 3f
       0.96225035 0.8744484 1.0113941 1.0706363
000020 c1 a3 50 3f c0 0c 83 3f 0d bf a6 3f 32 46 55 3f
       0.8149987 1.0238266 1.3027054 0.83310235
000030 ae cf 66 3f 41 9d 28 3f 3f b3 f3 3e 96 d9 6b 3f
       0.90160644 0.6586495 0.4759769 0.92128885
000040 70 75 4a 3f 98 a5 8b 3f 79 36 9c 3f cd bb 20 3f
       0.79085445 1.090991 1.2204124 0.6278656
000050 d0 1f 4d 3f 7b fb 6f 3f c8 9d 7a 3f 49 59 96 3f
       0.8012667 0.93743104 0.97897005 1.1745998
000060 83 d4 6a 3f 94 27 90 3f 4b dc b8 3f d6 68 7c 3f
       0.9173052 1.1262078 1.4442228 0.98597467
000070 bb 94 ad 3f f4 c2 0f 3f e3 2f 2d 3f 35 0c 10 3f
       1.3561014 0.5615685 0.67651194 0.56268626

batch1.bias f4 [32]
000000 6e db 43 3f 05 49 38 bf b6 5d 64 3f 08 97 90 3d
       0.765067 -0.7198642 0.8920549 0.07060057
000010 f3 bc 06 bf b1 3d 3d 3e a1 a8 bf 3f 3e 83 35 3f
       -0.52632064 0.18480565 1.4973336 0.70903385
000020 4f e6 2d 40 a2 5c b5 3d f6 46 86 3f eb e7 03 bf
       2.717182 0.08855559 1.0490406 -0.51525754
000030 36 44 25 be 1a ef 57 be 16 79 bf 3c 24 c8 12 bf
       -0.16139302 -0.21087304 0.023373168 -0.5733664
000040 3e 48 46 3c ee 2a a2 bd 43 ac 34 bf 9b be 5e be
       0.012102185 -0.079183444 -0.7057535 -0.21752398
000050 6c ca 97 bd 47 ec 21 3e 00 fa d0 3d c6 1e 0a 3e
       -0.07411656 0.15812789 0.10203934 0.13488302
000060 23 cc 92 3e 0d 95 4d bd 51 bc b0 3e 40 fc a4 3d
       0.2867137 -0.050190974 0.34518674 0.08055925
000070 2e b7 b4 bd 39 28 92 3d 37 39 c9 3f 24 8f 6a bd
       -0.08824001 0.07136578 1.5720586 -0.057265416

conv2.weight f4 [32, 32, 3, 3]
000000 e2 a2 b6 bd 5e b2 45 3e c6 f2 52 3d 3e 9c aa bd
       -0.08917786 0.19306323 0.051501058 -0.08330582
000010 c1 75 a2 3e a1 7e 0d 3f b7 29 a5 3c f2 42 5f 3e
       0.31730464 0.55271345 0.020161493 0.21802881
000020 2b 8d 54 3e 0a c4 97 3d 05 ad 55 be db a2 87 3b
       0.20756976 0.07410438 -0.20866783 0.004139287
000030 f9 c9 24 3d 36 5e 7d 3b 4d f9 0e 3f f6 a5 8d be
       0.04023168 0.003866089 0.5584915 -0.2766568
000040 9d ba 89 be 5e e2 01 3e db 5d 29 bf 8c 4f 1f bf
       -0.26900187 0.12684008 -0.6615884 -0.62230754
000050 3f f4 ec be 75 56 e8 be 08 25 72 be 90 34 69 bf
       -0.46280095 -0.4537846 -0.23646939 -0.9109583
000060 37 10 95 3d 3d e7 e9 3d 90 b7 c0 3e f9 69 cc 3e
       0.07278483 0.11421058 0.37640047 0.399246
000070 bb a1 11 3e 5e 27 a2 be 23 6a 1a be 9f 39 26 be
       0.14221852 -0.3167066 -0.1507955 -0.16232918
000080 0b 7b 50 bf 92 9c eb 3d 50 4a 9d bd 66 4a 5c be
       -0.8143775 0.11504473 -0.076801896 -0.21512756
000090 8e d8 82 3e 9d ee 08 3e 94 2a a5 3c f0 3e 4a 3e
       0.25555843 0.13372274 0.020161904 0.19750571
0000a0 9b 41 72 3d e2 77 05 bd 6a 70 e6 3c b0 66 4b be
       0.059144598 -0.032585032 0.028129775 -0.19863391
0000b0 35 ab da bd 9e 22 28 be b1 cc 6f be 62 e9 21 be
       -0.106771864 -0.16419455 -0.23417927 -0.15811685
0000c0 a6 15 4a bc 92 a2 20 bd 1d 20 d7 3d 7b e1 2e 3e
       -0.012334263 -0.03921754 0.10504172 0.17078201
0000d0 70 22 2b 3d bf eb 12 3e 76 aa 2f 3d 5f 63 ba bd
       0.04178089 0.14347742 0.042887174 -0.09100985
0000e0 d2 87 40 be 4a d7 0d 3e 59 ad 86 3c be e6 77 3c
       -0.18801811 0.13851658 0.01644008 0.015130697
0000f0 67 b6 32 3e 46 a6 e7 bd 24 db 75 3e 7b 51 08 3e
       0.17452393 -0.11311011 0.24009377 0.13312332
000100 8f 43 8c 3d 94 2d 50 be 12 1e 1a 3e 09 4b 62 3c
       0.06848823 -0.20329887 0.15050533 0.013811835
000110 d8 a1 d8 bd 8b 68 96 3d ef dc 8e 3e 6a 1b 1b 3c
       -0.10577744 0.07344159 0.27902934 0.009466985
000120 73 de 1d be c5 68 4c 3e 99 b0 79 3e 06 e5 7f be
       -0.15416889 0.19961841 0.24383773 -0.2498971
000130 6f 43 08 3e 7d 73 c5 3e be 79 00 bf 19 35 6b be
       0.13306974 0.38564673 -0.50185764 -0.22969474
000140 00 62 3c 3d 2f 56 4e be 9d 52 31 bf bb 7b aa be
       0.045991898 -0.20150064 -0.6926668 -0.33297524
000150 f3 88 a5 be f4 d4 8e be e5 c9 53 3e c0 82 e4 3b
       -0.32331046 -0.27896845 0.20682485 0.0069735944
000160 ec 36 7a 3c 9b 0c ee 3e 2b 91 47 be e3 7b 14 be
       0.015271883 0.46493992 -0.19488971 -0.14500384
000170 e7 6b 9c 3d d9 95 1e be f8 69 49 3e 05 ce 1f 3e
       0.07637768 -0.1548685 0.1966933 0.15605934
000180 e9 ad ec bd 00 c5 d3 be e9 e2 aa be 84 7a 08 bf
       -0.11556608 -0.41361237 -0.33376244 -0.53311944
000190 e0 e9 10 be e7 b8 50 be 4a 8a ca be f3 07 94 3e
       -0.14151716 -0.20383035 -0.3955863 0.28912315
0001a0 3f 2e ac 3d 98 24 b8 be 1e f4 c4 3e 37 61 4e 3e
       0.08407258 -0.3596542 0.38467497 0.20154272
0001b0 92 ba ad be d9 68 82 be c9 35 67 be 1d 34 63 3e
       -0.33931404 -0.25470617 -0.22579111 0.22187848
0001c0 0c 46 b5 3e d8 bc 5c 3d bf 1c 84 be 60 4c 8f bb
       0.35405004 0.053891033 -0.25803182 -0.0043731183
0001d0 a2 73 c2 3e 2b 43 94 3d 40 a2 9b bd 58 96 a2 bc
       0.37978846 0.07239374 -0.07599306 -0.01984708
0001e0 6e a2 17 3d 9f 2a 1f be cd ab 9e be 99 4b e3 3d
       0.03702014 -0.15543602 -0.3099045 0.110984035
0001f0 ab f7 c8 bc 2a 91 df be 9e 11 f0 be c9 e7 e4 be
       -0.02453216 -0.4366544 -0.4688844 -0.44708088
000200 61 3c 3b be d3 e0 d0 bc bd 7a 82 bd eb 54 76 3e
       -0.18284751 -0.02549783 -0.06371067 0.24055831
000210 19 ac 3a 3e 8e c4 79 3e 5c e8 fc 3e f7 39 5b 3e
       0.18229713 0.24391386 0.49396026 0.2140883
000220 3d da a0 be 9e 0e e9 3c c5 4a b5 3e 15 ef 9a 3d
       -0.31416503 0.028449353 0.35408607 0.075651325
000230 cc 2d 35 3d 5e ca 49 3c 6e 48 b0 be 3b 07 83 be
       0.04423313 0.0123163145 -0.3443026 -0.25591454
000240 ca ca 1d bf cb 73 fe bd f1 7e a3 be 49 dc 2d bc
       -0.61637557 -0.124244295 -0.31932786 -0.010611602
000250 89 3d 09 3f ee 09 6f 3e 80 1d bb bd fc 55 95 3e
       0.5360952 0.23343632 -0.09136486 0.29167163
000260 bf f1 99 3e ea f0 8c 3e 01 61 0a bd d4 68 93 3e
       0.3006725 0.27527553 -0.033783916 0.28790915
000270 d6 e6 d5 3d 17 cc a7 bc 42 df b2 bd ca 34 05 be
       0.10444419 -0.02048306 -0.08733989 -0.13008419
000280 a0 7a 68 be 36 69 b2 be 6d 0d cb 3b 78 e4 84 be
       -0.22703028 -0.34845895 0.006196669 -0.25955558
000290 c7 18 20 be 82 54 7e 3e bd 91 92 bc b5 39 b5 3e
       -0.15634452 0.24836925 -0.017891759 0.3539559
0002a0 5c 55 04 3f db 50 a9 3c fa 69 bf 3e ce 43 4d 3e
       0.5169275 0.020668438 0.3738554 0.20045397
0002b0 c5 80 a1 be 78 8f 56 bd ce b5 c6 3d ad 8f 80 3d
       -0.31543556 -0.052382916 0.09702645 0.06277404
0002c0 f6 68 82 3d 58 55 0f bc 52 a8 bd 3c e9 32 4f be
       0.06367676 -0.008748375 0.02315155 -0.20234264
0002d0 3a 74 51 3c 97 d5 b9 bd 6d 7b 81 be 47 4c 30 3d
       0.012784058 -0.09073942 -0.2528948 0.043041494
0002e0 e7 4b 5a 3e 61 71 4a 3e ef b8 d1 3c ca 9b 4e 3e
       0.21318017 0.19769813 0.025600879 0.20176616
0002f0 7f 34 f7 3d 47 cf 20 3e ab 8a bc 3d 17 3d b3 bb
       0.1207056 0.1570407 0.09206136 -0.005469929
000300 1a 52 c9 be 55 9d 1d be 0f bc 18 be e9 27 0e be
       -0.3932045 -0.15392049 -0.14915489 -0.13882412
000310 ba 81 a7 3d 92 9f 34 3e 73 b8 62 be 4c 0c 2b bf
       0.0817904 0.17638996 -0.22140674 -0.6681564
000320 b8 0f 90 be 49 b3 ca be 3d c7 a9 3d 7b 3e af 3e
       -0.28136992 -0.3958991 0.08289955 0.34227356
000330 20 29 65 3d ba a4 7d 3e 1a 9d 3a 3f df a6 de bd
       0.055947423 0.2476987 0.7289597 -0.10871672
000340 e1 74 89 be 7a 4b 54 3e f2 a8 8e bd be 9d 66 3a
       -0.26846984 0.20731917 -0.069658175 0.0008797309
000350 f9 df 0a 3e ee a5 97 3d ff 8b bb bc 31 16 7d 3d
       0.13562001 0.074046955 -0.022893904 0.06178874
000360 11 9a bb be a5 94 06 be 19 af b7 3d b3 5a 55 be
       -0.3664098 -0.13142641 0.08968944 -0.2083538
000370 3b 50 10 3d 35 f0 e7 3e 10 9a e4 be bc f9 2e be
       0.035232764 0.4530045 -0.4464879 -0.17087454
000380 0d 1d 41 bd 03 8c df 3c 7a 1c 43 be 99 d1 f5 be
       -0.047146846 0.027288442 -0.19053832 -0.48011473
000390 37 6a 87 be e6 27 36 be 44 a4 3d bf e3 da 2f bd
       -0.26448223 -0.17788658 -0.74078774 -0.042933356
0003a0 5f ad 66 3d 12 8f ea 3d 63 bf 79 3e e1 97 d2 3c
       0.056317683 0.1145307 0.24389414 0.025707187
0003b0 f8 ec 97 be 2a 20 90 3e 69 78 25 3e d6 0e dd 3d
       -0.2967298 0.2814954 0.16159214 0.10793845
0003c0 f9 cb a4 be e5 fc 47 be e1 da fa be 69 d3 ec 3d
       -0.3218687 -0.19530065 -0.48995116 0.11563761
0003d0 ae 5e aa 3e 66 90 e6 3d 7b 73 c2 bd db c2 1b 3e
       0.3327536 0.112580106 -0.094946824 0.1521105
0003e0 aa 44 fa 3c f4 5d 9c be a2 70 69 3d 2d a4 a0 bc
       0.03055032 -0.3054043 0.05699218 -0.019609535
0003f0 7d 36 1c be 9b 69 c8 be 8b f4 5e 3d 02 71 51 3c
       -0.1525516 -0.3914307 0.054432433 0.012783291

conv2.bias f4 [32]
000000 75 e2 c3 3d 21 6e 17 3e 1d c8 04 3e 3a 12 13 3e
       0.095646776 0.14788105 0.12966962 0.14362422
000010 28 34 89 3d 58 3e ba 3d e1 99 b0 bf d5 ff 0f bd
       0.06699401 0.090939224 -1.379696 -0.03515609
000020 cf 25 bd 3e 6d 45 ac be 8d fb 84 3e b2 a7 14 be
       0.36942908 -0.33646718 0.25973168 -0.14517096
000030 fa 75 5a bd 5d d4 33 3e ab d3 55 3d be 82 b9 bd
       -0.053335167 0.17561479 0.052203815 -0.0905814
000040 2d ae 86 bd 73 d6 31 be 5b 27 7e bd 58 e1 cf bd
       -0.0657619 -0.17366962 -0.06204925 -0.10150403
000050 d1 98 40 bd 7f 3b 37 3d 4a d1 06 3e 7f 98 10 3d
       -0.047020737 0.044734474 0.13165775 0.03530168
000060 68 db a2 3e 7f 8a 77 3b d1 08 f7 3b fe f6 09 be
       0.3180802 0.003777176 0.007538893 -0.13473126
000070 d7 35 11 bf ee 80 af 3e 7b 65 34 bd 2e 45 c5 3e
       -0.5672278 0.34278053 -0.04404209 0.38529342

batch2.weight f4 [32]
000000 31 a5 47 3f ef 6b 6c 3f 69 9a ba 3f f8 f0 8c 3f
       0.7798644 0.92352194 1.4578372 1.1011038
000010 67 8d 7d 3f c1 28 9b 3f 2f 3f 9d 3f e7 ae 32 3f
       0.9904389 1.2121812 1.2284907 0.6979813
000020 53 73 93 3f fb 76 63 3f c8 be 98 3f 4c 6f 65 3f
       1.1519569 0.88853425 1.1933222 0.8962295
000030 1d 1d 1b 3f 6d aa ac 3f 8d 81 86 3f 31 ca 9f 3f
       0.605913 1.348951 1.0508286 1.2483579
000040 c2 bc 55 3f 06 23 5f 3f 7c 74 6d 3f d3 fc 46 3f
       0.83491147 0.87162817 0.92755866 0.7772953
000050 7a 42 93 3f 0d 8b 84 3f 52 30 99 3f 05 7d 8a 3f
       1.1504662 1.0354935 1.1967871 1.0819403
000060 dd f5 7d 3f 38 91 32 3f 53 7f 42 3f 88 68 21 3f
       0.9920328 0.69752836 0.7597553 0.6305013
000070 d1 88 95 3f 02 a3 7b 3f dc db 65 3f b4 1d 59 3f
       1.1682378 0.98295605 0.89788604 0.8481095

batch2.bias f4 [32]
000000 25 ad dd bd dd 35 04 bf bc 32 51 be 1b 1d 1b bf
       -0.1082404 -0.5164469 -0.2042951 -0.60591286
000010 66 1c 99 be 27 a1 1f bf 5b 0f b8 be 8e d3 3b be
       -0.2990448 -0.62355274 -0.35949215 -0.1834242
000020 cd d7 02 bf 12 1c 97 be 4e 59 fc be ed 8d b8 be
       -0.51110536 -0.29513603 -0.49286884 -0.3604578
000030 35 b4 87 3c 8c 61 d8 be 4f dd ed be f2 d3 13 bf
       0.016565422 -0.42261922 -0.46457908 -0.5774528
000040 b5 a1 b6 be 94 21 e9 be 76 b7 ea be 74 fd a2 3c
       -0.35670248 -0.4553343 -0.45843095 0.019896246
000050 82 88 ec be 50 69 d1 be c7 21 0c bf fb d2 b2 be
       -0.46197897 -0.4090066 -0.5473904 -0.3492659
000060 cb a5 02 bf 7b e1 99 be c4 23 70 be 41 f5 8a be
       -0.5103423 -0.3005484 -0.23451144 -0.2714024
000070 29 f4 03 be 56 bc aa be 3f ee b6 be a2 95 eb be
       -0.12886108 -0.33346814 -0.35728642 -0.46012598

conv3.weight f4 [32, 32, 3, 3]
000000 77 46 e3 3e a9 9b 09 3f 27 a8 f5 3d 3a 91 96 be
       0.44389698 0.53753144 0.11994963 -0.29407674
000010 84 ee 86 3c ca 38 8f 3e f4 f9 b4 be 39 fb 74 be
       0.016471155 0.27973014 -0.3534695 -0.23923959
000020 f5 6e 20 3a e5 e0 02 3e d3 ca ae 3d c0 85 58 be
       0.00061200495 0.12781103 0.085347794 -0.21144772
000030 7a 56 3d be 3c 0e ed bd a8 89 12 3e 40 59 85 3e
       -0.1849002 -0.115749806 0.14310324 0.26044655
000040 9e d1 85 3e ac 4b 9f be 86 11 7f 3d 03 6d 63 3c
       0.26136488 -0.3111242 0.06227257 0.013880971
000050 dc 4b d7 be 1e 53 84 3e 3f 2b ef 3d 87 01 4f be
       -0.42050064 0.25844663 0.116781704 -0.20215426
000060 4d 1c 07 3e a9 bd a5 3d 14 f7 19 be 7c 08 35 be
       0.1319439 0.080928154 -0.15035659 -0.17679018
000070 87 6c 86 be 25 17 db 3e 55 51 21 3e 7d a4 0f be
       -0.26254675 0.42791095 0.15753682 -0.14027591
000080 ed 75 0c 3f 7e ed d2 be e2 4c 6a bc e8 99 a9 3e
       0.5486744 -0.41196817 -0.014300557 0.33125234
000090 e5 c3 96 3e 09 24 0c 3f a4 4a 0a 3e b0 81 b7 3c
       0.2944633 0.54742485 0.13505036 0.022400707
0000a0 fa 21 61 3e dc 4a ce bb e8 b1 96 bd 63 3c da bc
       0.21985617 -0.006295545 -0.07358152 -0.026640123
0000b0 2e c8 d6 bc d4 8f af 3e a9 b2 85 3e c4 74 1c 3e
       -0.0262185 0.3428942 0.2611287 0.15278918
0000c0 3c ae 90 3d 4a a6 87 3e 9f b5 48 3e 19 2f ce be
       0.070644826 0.26494056 0.19600533 -0.40270308
0000d0 af b7 14 3e 7d 75 90 be eb c3 d7 3e 0c 16 3a 3d
       0.14523195 -0.28214636 0.4214166 0.04543118
0000e0 bd 52 8c be 81 45 6d 3e 7d 6e 94 bd a1 22 de bc
       -0.27406874 0.23171045 -0.072476365 -0.027116122
0000f0 74 22 9a 3e af 11 bd 3e f1 de cb 3d 50 c9 aa be
       0.3010441 0.36927554 0.09954632 -0.33356714
000100 f2 03 db be 92 01 2c bf e3 ae 62 3e 05 2a 7c be
       -0.42776448 -0.67189896 0.22137026 -0.24625404
000110 72 2d bd be fa e3 c9 bd 34 c6 a6 bd a1 2b 5a 3c
       -0.36948735 -0.09857936 -0.08143273 0.013316066
000120 76 ef 3e 3e 7c af 0c be 17 c0 a3 be 6b f0 bc 3c
       0.18646035 -0.13738817 -0.3198249 0.023063859
000130 a0 31 6a bc 2e 2b 64 3e 56 16 af 3d 90 7b 0a bb
       -0.014294058 0.22282097 0.08549182 -0.0021130778
000140 aa 7f 6f 3e 6a c6 43 bf 13 df ab bd c9 af 99 3e
       0.23388544 -0.7647463 -0.083921574 0.30016926
000150 8f a7 0e bf 36 c9 70 be e6 e6 42 3e 26 f8 a6 bd
       -0.55724424 -0.23514256 0.19033393 -0.08152799
000160 da 47 62 3c 21 1b cd 3d 8a 80 ec bd 82 2b 13 bf
       0.013811076 0.1001494 -0.115479544 -0.5748826
000170 58 13 ba 3e 57 5e 10 be f2 95 32 3d 41 24 59 3e
       0.36342883 -0.14098488 0.04360003 0.21205236
000180 e3 17 9e bd 76 79 aa bd 70 06 95 bd b6 8a 94 3c
       -0.077194 -0.08323948 -0.072766185 0.018132549
000190 61 a3 1d 3c b8 6f 52 3e 7c 2a 81 3e 4d 14 1f be
       0.009621472 0.2055043 0.25227726 -0.15535088
0001a0 18 72 17 be c4 33 f2 3d 69 79 8d 3e ff e1 1e be
       -0.14789617 0.1182628 0.2763169 -0.15515898
0001b0 67 2a c8 bd 73 26 e2 bd 0d 54 d9 be 39 fd 84 be
       -0.097737126 -0.1104249 -0.42446938 -0.25974444
0001c0 a0 09 ba bd f4 fe bc be e0 e9 8f be 47 34 95 3c
       -0.09083867 -0.36913264 -0.2810812 0.018213404
0001d0 36 4c 90 be 0e 4e f3 bd 32 c6 da bd c9 c4 12 3c
       -0.28183144 -0.11880122 -0.10682334 0.00895805
0001e0 e5 23 70 3e a9 06 ac 3d 01 69 3b be 11 67 81 bc
       0.23451193 0.08399708 -0.18301775 -0.015796216
0001f0 3f f0 16 3d 53 0b ee be 10 91 41 be 1e 53 9e be
       0.03685021 -0.46493015 -0.18902993 -0.30922788
000200 a9 4b 32 bf 74 d8 8b bd ee 34 c5 bd dd ab 4c 3d
       -0.696467 -0.068283945 -0.09629236 0.04996859
000210 8b 5b 07 3d ec 58 94 3e c6 dc 1b 3d 87 ba b3 3e
       0.033046287 0.28974092 0.038052343 0.35103247
000220 31 bb 1e bc 39 22 0b be 15 47 66 3e 30 5b 79 be
       -0.009688185 -0.13587274 0.22488053 -0.24351192
000230 20 d9 10 bf f0 7e c5 bd 1a 68 c6 3e 65 d0 96 be
       -0.56581306 -0.09643352 0.38751298 -0.29455867
000240 98 97 27 3e b0 6b 0e bd cc 3f 1a bf 8f 0d 31 bd
       0.16366422 -0.034770668 -0.60253596 -0.04322582
000250 67 27 16 bd 02 6f 49 bc 1b bf 41 be e9 a0 3b be
       -0.03665867 -0.012294533 -0.18920557 -0.18323101
000260 d0 a9 53 be 5b 8a ed bc 65 f1 3d be 75 40 d0 3e
       -0.20670247 -0.028996637 -0.18549116 0.40674177
000270 40 67 3f 3e 69 a3 3f 3e f7 9e 3f 3e f0 a1 10 be
       0.1869173 0.1871468 0.18712984 -0.14124274
000280 f0 d5 f6 3d 37 c3 35 3e 8d 5f 95 3c b1 05 50 3e
       0.12052524 0.1775025 0.018234039 0.20314671
000290 a7 2f a9 3e 0f 63 1d be 6d 87 27 be 6d cc 5c be
       0.33044168 -0.15369819 -0.16360255 -0.21562357
0002a0 93 98 da 3d ca 01 e9 be 7d 7e bc be 20 c3 8e be
       0.106736325 -0.45509177 -0.36815253 -0.27883244
0002b0 57 44 99 bc 0c 9c 3c 3d 97 5f ad be 20 1d 42 3d
       -0.018709345 0.046047255 -0.33861992 0.047391057
0002c0 84 bb 75 be a4 69 a5 be 9c b0 8c be 55 1e 30 be
       -0.23997313 -0.3230716 -0.27478492 -0.17199071
0002d0 8a 90 de bd 48 63 93 3d cc 23 b9 3e 90 95 85 3e
       -0.108674124 0.07196671 0.36160123 0.2609067
0002e0 88 3f c0 3c 2e 38 1d 3e 80 10 8b 3e 6a 6d f5 3d
       0.023467794 0.15353462 0.27161026 0.1198376
0002f0 36 fd 99 3d 67 90 8e 3e c1 2d b8 bc 46 8e cc 3c
       0.07518999 0.27844545 -0.022482755 0.024970185
000300 d7 21 8d 3e 2d d3 e2 be 93 75 a5 be d2 ad 02 be
       0.2756488 -0.4430174 -0.32316265 -0.1276162
000310 76 ef 74 bd 07 b0 89 3d 62 31 8d 3e bd c8 33 3d
       -0.05979868 0.06723028 0.2757674 0.04389261
000320 7a 85 9e be 00 ba b5 3e e2 1a d0 3e 48 6a 08 3e
       -0.3096121 0.3549347 0.4064551 0.13321793
000330 e6 1c ae 3d 88 cb 62 3e c9 da 70 3d bd b5 36 3e
       0.08501606 0.22147954 0.0588024 0.17842765
000340 7e 40 c8 bc ab d0 1c be c9 e7 c8 be 86 b5 70 be
       -0.024444815 -0.15313976 -0.39239338 -0.23506746
000350 92 d6 09 3d c5 5d 12 bf ac bd bd bc 26 15 a9 3e
       0.033651896 -0.5717433 -0.023161732 0.33023947
000360 1d c5 58 3e b3 b9 1f be f3 5e 8a bf bf 25 19 3e
       0.21168943 -0.15598182 -1.0810226 0.14955805
000370 15 dd bd be 8b 3b a4 be 36 1e 01 bd 96 f4 ce be
       -0.37082735 -0.32076678 -0.031522952 -0.4042098
000380 86 5c 9b be 21 4d 78 3c 87 7d 57 be dd 18 0a bf
       -0.30344027 0.015155108 -0.21043979 -0.5394419
000390 fd 81 99 be 3f 49 5a bd ad ea 06 bf ea 84 23 3c
       -0.29981986 -0.05329251 -0.52701837 0.00998042
0003a0 28 78 a6 3e a5 69 88 3e 8f c1 87 3e c7 b2 8e 3e
       0.32513547 0.266431 0.2651486 0.2787077
0003b0 a6 51 78 be e0 72 03 3f 41 d3 8f 3e 61 16 ec be
       -0.24249896 0.5134716 0.2809086 -0.46110824
0003c0 90 65 ff 3e 67 98 ba 3d c2 b5 4d be 8d 51 d6 3b
       0.49882174 0.091111 -0.20088866 0.0065404833
0003d0 62 b5 38 be 76 29 e3 bd b2 33 8e 3e 48 df 7f 3e
       -0.18037942 -0.110918924 0.27773815 0.24987519
0003e0 4d db 64 be 21 94 e2 3c 7a 9e 7c be 39 ce 19 bf
       -0.22349282 0.027658524 -0.24669829 -0.60080296
0003f0 5f d3 c5 bd 80 be 98 be 65 f1 05 3e 06 19 15 3d
       -0.096594565 -0.2983284 0.13080366 0.036400817

conv3.bias f4 [32]
000000 8d 70 6e 3e b0 37 79 3e 59 52 ec 3e f7 eb a2 3d
       0.23285122 0.2433765 0.46156576 0.07955163
000010 17 ca 24 3e 70 af cb 3d 45 08 e2 bf 26 f2 89 3e
       0.16092716 0.099455714 -1.7658774 0.26942557
000020 92 4c 29 bd 99 8a d0 be 8e 0f c7 3d f7 52 cb ba
       -0.04133279 -0.40730742 0.09719764 -0.0015512396
000030 12 97 0e 3f 92 fc be 3e 38 07 57 3d 64 b1 e1 3e
       0.55699265 0.3730207 0.05249712 0.4408065
000040 ea cb 26 3f b6 34 19 3e 2b a6 90 3e f5 14 18 3f
       0.651549 0.14961514 0.28251776 0.5940698
000050 21 7f 05 3f ba 56 c0 bc 66 cd 6d 3e 79 16 65 3f
       0.5214711 -0.023478854 0.23222885 0.89487416
000060 f0 0e a4 3d 40 75 a3 3f 7f 48 be 3e f1 7b f6 3e
       0.080106616 1.2770157 0.37164685 0.48141435
000070 2c 85 c5 3e 88 4f 5f 3e 88 a6 92 be 81 98 21 bf
       0.38578165 0.21807683 -0.28642678 -0.6312333

batch3.weight f4 [32]
000000 28 73 42 3f 11 cb 5b 3f 37 03 80 3f b1 fa 63 3f
       0.75956964 0.8585673 1.0000981 0.890544
000010 bb 47 3e 3f 43 b5 59 3f 11 90 ad 3f 09 29 4a 3f
       0.743282 0.8504221 1.355959 0.78968865
000020 d6 8b 94 3f 03 34 90 3f 71 c0 36 3f ad 7c 46 3f
       1.1605175 1.1265873 0.7138739 0.7753399
000030 e6 e7 6c 3f 94 71 8e 3f 53 54 17 3f 9c e1 49 3f
       0.9254135 1.1128411 0.59113044 0.7885988
000040 8d b9 6a 3f 84 f1 64 3f 81 44 3c 3f 92 6a 61 3f
       0.9168938 0.89431024 0.7354203 0.8805324
000050 87 36 68 3f e0 cb 74 3f 96 3d 36 3f 16 f5 da 3f
       0.907082 0.9562359 0.7118772 1.7106044
000060 67 3d 4c 3f 06 c0 88 3f a4 fb 77 3f 96 0b 74 3f
       0.7978119 1.0683601 0.9686835 0.9533018
000070 35 c9 3e 3f e0 55 3b 3f b6 7f 89 3f 31 45 87 3f
       0.7452577 0.7317791 1.0742099 1.056799

batch3.bias f4 [32]
000000 0e 67 86 be 63 35 84 be e7 14 de be 90 5b e1 be
       -0.262505 -0.2582198 -0.43375322 -0.4401517
000010 58 83 89 be f3 35 26 bf 37 49 46 bf 8f 12 58 be
       -0.2685802 -0.6492607 -0.77455467 -0.2110083
000020 fb 92 55 bf fb 0f 82 be 56 de 03 bf 10 36 1e be
       -0.834274 -0.25402817 -0.5151113 -0.1545031
000030 02 86 8d be 72 ff db be 77 62 b2 3c 13 27 a3 be
       -0.27641302 -0.42968327 0.021775467 -0.3186575
000040 8e 26 e1 be d1 2e 96 be 93 b0 80 be 49 7e 9d be
       -0.43974727 -0.29332593 -0.25134715 -0.3076041
000050 27 5c 24 bf 82 8f c6 be fa cf 59 be 85 f7 74 bf
       -0.64203113 -0.38781363 -0.21270743 -0.95690185
000060 92 15 08 bf ea d2 1b bf 8d fc 90 be 48 a2 14 bf
       -0.53157914 -0.60868704 -0.2831768 -0.5806012
000070 6e 3b fa bd 1f 13 7e be 0f e3 6e be 5d 22 7a bf
       -0.122183666 -0.24811982 -0.23328803 -0.97708684

conv4.weight f4 [32, 32, 3, 3]
000000 28 3d fd bd 0b 51 20 3b 38 84 53 bc 4d 41 ea bd
       -0.1236518 0.0024462368 -0.012909941 -0.114382364
000010 85 e4 4f bd a5 9f 3c bd 74 83 b9 bd e7 d8 16 be
       -0.050755043 -0.046050686 -0.09058276 -0.14731179
000020 92 fa e1 3d 45 86 9f 3d ff 5d 9f 3d a0 fa b2 3d
       0.110341206 0.07789282 0.077816 0.08739209
000030 bb 79 01 bd dd 7c cb bd c4 d5 22 3c 28 92 49 3d
       -0.03161023 -0.09935925 0.009938661 0.04921165
000040 b6 5f 04 bd 96 98 cc bc b3 3b da 3d 35 95 db 3c
       -0.03231784 -0.024975102 0.10655918 0.026804546
000050 5d 2e 5a 3d 9d 75 74 3d b9 42 86 3c dd 5a 78 3d
       0.05326687 0.059682477 0.016389238 0.06063353
000060 90 8b 95 3c da bd 57 bd cd 54 ba bc a9 80 28 be
       0.018255025 -0.05267129 -0.022745514 -0.1645533
000070 62 d2 f8 bb 83 0e 25 bd fe 09 f7 bd 66 93 c8 3c
       -0.007593439 -0.040297043 -0.12062453 0.024484348
000080 21 fa a2 bd 76 95 2d be ff 08 89 bc e8 de 83 3d
       -0.079578646 -0.16951546 -0.016727922 0.06439
000090 cf d8 49 3c da 31 f1 3d b0 4d 9e 3d f8 ca eb 3d
       0.012319758 0.117770866 0.077296615 0.115133226
0000a0 52 1d 24 3e 3d 63 84 3d c8 6c 11 3e 22 6b 96 3d
       0.1602681 0.06464241 0.14201653 0.07344653
0000b0 71 42 8b 3c cf 15 e3 3d a8 4c 84 3b c2 d2 98 3d
       0.016999455 0.11088144 0.0040374584 0.07462074
0000c0 7a 7c 09 3e a4 d0 17 bd bb 7c 28 3c 3e 69 f8 3d
       0.1342639 -0.03706421 0.010283644 0.12129448
0000d0 4d 90 cd 3d 18 98 04 3d 71 ba 95 3b 58 72 8d 3d
       0.10037289 0.03237161 0.0045693447 0.06906575
0000e0 9c 17 93 3c f9 01 8b 3d 95 75 65 bd a1 ad bd 3c
       0.017955594 0.06787486 -0.056020338 0.023154082
0000f0 26 04 5c be 8b 7a 27 3d 2f 31 64 3d 5d 74 7b 3d
       -0.21485958 0.04088835 0.055710968 0.06139027
000100 9c 70 54 bb cc e9 d4 3c 55 29 1b 3e af 7d 1d bd
       -0.0032415753 0.02599039 0.15152486 -0.03844994
000110 ec 46 b4 bc 98 f9 c7 3c 3e 5b 31 3c 2e 16 2f 3d
       -0.022006474 0.024411008 0.0108249765 0.04274576
000120 5f 3b 0e be bd bb e2 3d 30 42 5d 3d 91 0b 57 be
       -0.13889836 0.110709645 0.0540182 -0.21000506
000130 13 6e f1 bd 53 3f d9 3d 07 d4 40 be 94 e9 11 bd
       -0.11788573 0.10607781 -0.18830882 -0.035623148
000140 ab f8 65 bd ce bc d7 be 88 c6 0d 3b bb e8 9f 3a
       -0.05614535 -0.42136234 0.0021633226 0.0012200096
000150 6b 2d bf be 65 76 22 bc a6 ff 51 3c 4a 1e cc be
       -0.3733934 -0.009915923 0.012817299 -0.3986686
000160 d0 72 60 3d e2 47 d5 3d f6 46 46 3c 39 3a 9d 3c
       0.054796994 0.10414101 0.012101879 0.019192802
000170 46 9e c1 3d 3a 85 97 3c 30 6f 21 3d 8c 5a f3 3d
       0.094540164 0.018496145 0.039412677 0.11882505
000180 18 ef 4c bd b1 32 7f 3c c0 e3 14 3e 4c 00 b6 bd
       -0.050032705 0.015576051 0.14540005 -0.088867754
000190 b7 5a 3b 3d 82 86 1f 3d 3a c3 0b bd 4e 06 8e bd
       0.04574081 0.038946636 -0.03412173 -0.06934796
0001a0 30 8b 04 bd 93 82 8b bd 7e 05 10 3d 5a aa a5 3d
       -0.032359302 -0.068120144 0.035161488 0.080891326
0001b0 f5 8f 93 3d 76 64 01 3d 3d ab e6 bb 73 8c a9 3b
       0.07205192 0.031589948 -0.007039456 0.0051742136
0001c0 37 d0 5a 3c 22 dd 27 bd fa a1 b8 3d 77 ed 79 3c
       0.013355306 -0.040982373 0.090152696 0.01525437
0001d0 e1 a9 b1 3d cf 3f 47 3d 4c 68 06 3e 84 90 aa 3c
       0.0867498 0.048644837 0.13125724 0.020820864
0001e0 4b ea 1f 3e 62 ae 0c 3e 20 d9 7b 3b 4e 60 2a 3e
       0.1561672 0.13738397 0.0038428977 0.166383
0001f0 ed 60 be 3d 81 26 d2 3b ab 26 da 3d 6f 2f 92 3d
       0.09295831 0.0064132814 0.106519066 0.071379535
000200 f1 f6 48 3c 78 af d7 3d f9 be 3d 3d 59 8a 1f bd
       0.012265907 0.10531515 0.046324704 -0.038950298
000210 8d f8 19 3e b0 07 57 3d a6 71 0c 3e 75 df 35 3d
       0.15036221 0.052497566 0.13715228 0.04440256
000220 f3 7f 5e 3d cc 17 86 3d c1 7c 65 3d fe e4 86 bd
       0.05432124 0.06547508 0.056027178 -0.065866455
000230 e9 16 81 3d c1 e0 8f 3b b5 90 c8 3c a2 c3 00 3d
       0.06303198 0.0043908064 0.024483064 0.03143657
000240 61 b0 12 3d 68 5f f9 3c c5 a9 c1 bd b2 fb 90 3d
       0.03581274 0.030441001 -0.09456209 0.07079257
000250 5f 82 be bc 21 b6 8f bc 30 10 67 3d 7c 2c 6d 3d
       -0.023255525 -0.0175429 0.056411922 0.05790375
000260 06 7a 18 bc 31 7e 3e be c7 1a 38 3d 2b 5e 88 ba
       -0.009306436 -0.18602826 0.044947412 -0.0010404041
000270 f0 99 7d bd 2e c0 04 3c 49 3c 26 bd ac eb 23 be
       -0.061914384 0.00810246 -0.040584836 -0.1600787
000280 f9 c2 64 3d 5b be 4e 3d e3 b7 19 3e ca 60 63 3d
       0.055850003 0.050474506 0.15011553 0.055512227
000290 8d de 8d 3d aa 01 b7 3d 1f a2 84 3d cf bd 6f 3d
       0.06927214 0.08935864 0.06476235 0.058530625
0002a0 fe 58 10 3e 34 67 80 3d 1b b8 9e 3d f6 2c 0e 3e
       0.14096448 0.062696844 0.07749959 0.13884339
0002b0 10 95 97 3d c8 06 cf 3d 98 f1 db 3d 4c 36 f4 3d
       0.07401478 0.10108715 0.1073944 0.11924419
0002c0 d1 b6 2f 3b e1 fe c6 3d 7c ed 07 3d 6f bb de 3c
       0.0026811848 0.09716583 0.033185467 0.027188985
0002d0 52 d2 d1 3d d2 29 17 bd 9b 75 8e 3d e9 93 23 3e
       0.102451935 -0.036905117 0.06956025 0.15974392
0002e0 2e fc 89 3d cf 38 4f 3d cc 9e 25 3e 0f 5a 2e 3e
       0.067375526 0.050591286 0.16173857 0.17026542
0002f0 c8 4d 96 3b c5 91 bd bc fb 50 a2 bd 08 9f 44 3d
       0.004586909 -0.023140797 -0.07925602 0.048003227
000300 f1 d8 45 3d 20 42 e7 bd a9 99 82 3d f0 60 d0 bd
       0.048302595 -0.11291909 0.063769646 -0.10174739
000310 ef 8a 74 3d 41 5a 00 3e 02 81 85 bd 98 60 a9 3b
       0.05970281 0.12534429 -0.06518747 0.0051689856
000320 f8 fb 90 3b 75 12 1b bd c4 23 ab 3d e3 48 1a bc
       0.0044245683 -0.0378594 0.08356431 -0.009416792
000330 ca ed c7 3c 84 51 4a bd 0d 6c 3d 3d 85 21 e4 be
       0.024405379 -0.049394146 0.046245623 -0.44556823
000340 b7 e4 7d bd 2a 44 27 bc cb 39 e5 be 57 d3 a6 bd
       -0.061985698 -0.010209123 -0.44770655 -0.081457786
000350 9a 75 09 3e f3 5e d9 be 2d 21 b7 bd f2 9d 58 3d
       0.13423768 -0.42455253 -0.08941875 0.052885003
000360 6e d3 0f 3d f6 ba fd 3c 7a b2 5d 3d d6 70 7f 3d
       0.035113744 0.030972939 0.054125287 0.062363468
000370 dc ae 72 bd 1c 68 60 bd 07 df 39 3d c3 08 bd bd
       -0.05924879 -0.054786786 0.04537871 -0.09230187
000380 30 40 1b 3d 33 23 b0 3d d8 46 b0 3d bb 80 e5 3d
       0.03790301 0.08600464 0.086072624 0.11206194
000390 cc 4a 03 3e 10 ae 08 bd 71 46 04 3e 5d 7e 93 3d
       0.12821501 -0.033369124 0.12917496 0.07201836
0003a0 6e 50 13 3d 47 d9 37 3c c0 04 86 be 20 9f c8 3d
       0.035965376 0.011221237 -0.261755 0.09795976
0003b0 a5 40 ad 3d 5d d1 45 be e4 66 f4 3d 96 17 96 3c
       0.084595956 -0.19318147 0.11933687 0.018321794
0003c0 02 1d 78 be 41 1b 92 bb 15 f9 ca 3c 94 a9 f6 3d
       -0.24229816 -0.0044588153 0.024776975 0.12044063
0003d0 f7 e1 fe bc 5c 61 de bc 62 86 44 3d 4d b8 6a 3c
       -0.031113608 -0.027146034 0.04797972 0.014326167
0003e0 54 0b 5e bd dc d2 9f 3d 78 9a 45 3d 23 46 36 3d
       -0.054210022 0.0780389 0.048243016 0.04450048
0003f0 49 e5 33 bd 32 10 74 bd 9e 0b 3a 3d 20 56 b2 3d
       -0.043919835 -0.059585758 0.045421235 0.08707833

conv4.bias f4 [32]
000000 95 5a 7d bc 1f 04 5a 3f af 8c fd 3c af e0 39 3c
       -0.015463491 0.8516254 0.030950872 0.011345073
000010 a9 54 b9 3e 06 86 41 bc 7d d5 9d 3e f5 e2 0d bd
       0.36197403 -0.011811739 0.3082694 -0.03464027
000020 85 71 83 bc 1b 24 92 3c 4d 6b e2 3e 91 57 60 3e
       -0.016045341 0.017839482 0.4422249 0.21908404
000030 df 6d a0 3e d3 a2 d1 3e 49 79 13 3e c3 03 af 3d
       0.31333825 0.40944538 0.14401735 0.08545639
000040 45 0f c7 3e ae 16 83 bb 78 52 77 3c a6 6a 44 3d
       0.38878837 -0.0040005064 0.015095346 0.04795327
000050 c5 32 b1 3e 0f 56 4f 3e bf be 97 3d 9b 8c 1b bd
       0.34609047 0.20247672 0.07409429 -0.03797589
000060 68 ed 56 3d b1 fd 48 3f 4b 0a 4d bd 43 da 4e 3d
       0.052472502 0.785121 -0.050058644 0.05050112
000070 f7 99 4a 3d 00 b2 f6 3c 3a fe cf 3e d6 02 d8 3c
       0.04946324 0.030114174 0.40623647 0.02636854

batch4.weight f4 [32]
000000 19 f4 9f 3e 0c c1 b0 40 1f 0f 64 3f d0 b5 b9 3e
       0.3124092 5.5235653 0.8908557 0.36271524
000010 a1 d8 7e 40 45 33 cf 3e d1 fe 73 40 4f 0c c3 3e
       3.981972 0.40468803 3.8124278 0.38095328
000020 a8 b0 e7 3e 86 47 8c 3f c0 3f 98 40 8e eb 47 40
       0.45251966 1.0959327 4.757782 3.123752
000030 62 3b 46 40 70 6c 86 40 cc 4b 48 40 c6 35 df 3f
       3.0973744 4.200737 3.1296263 1.7438285
000040 31 51 9a 40 54 c2 9e 3e aa d6 bf 3e fc 3f 97 3e
       4.822411 0.31007636 0.37468463 0.29541004
000050 40 27 62 40 bb 6b 68 40 58 ec 46 40 3b 1e c3 3e
       3.5336456 3.6315753 3.1081753 0.38109002
000060 55 88 50 3f 3a b4 42 40 e7 f8 d9 3e 58 40 3d 3f
       0.81458026 3.0422502 0.4257271 0.73926306
000070 1e e7 c5 3e 52 c6 b8 3f a6 f9 7a 40 3c d4 7d 3f
       0.3865289 1.4435523 3.9214873 0.9915197

batch4.bias f4 [32]
000000 64 1f 2e bf 18 d9 82 c0 7f de a0 bf 61 43 20 bf
       -0.6801665 -4.0890007 -1.25679 -0.6260281
000010 27 f2 1f c0 5d a9 50 bf f9 26 4d c0 77 8a 2d bf
       -2.4991548 -0.8150843 -3.2055037 -0.67789406
000020 45 37 4c bf ab ac bd bf 46 84 3d c0 42 f7 f0 bf
       -0.79771835 -1.4818319 -2.9611983 -1.8825457
000030 ba 6e 1a c0 5e 3e 35 c0 dd cc 0a c0 03 c7 f3 bf
       -2.4130082 -2.8319316 -2.1687539 -1.9045109
000040 5d ef 0f c0 d1 a6 2c bf 6d 4e 2d bf 24 b2 2a bf
       -2.2489846 -0.6744204 -0.67697793 -0.6667807
000050 63 5f 26 c0 19 92 03 c0 6b f5 d7 bf 26 29 38 bf
       -2.599572 -2.055792 -1.6871771 -0.7193779
000060 19 43 ab bf b9 a8 8f bf 79 6a 58 bf 5a 72 8b bf
       -1.3379852 -1.1223365 -0.84537464 -1.0894272
000070 d3 f1 38 bf 31 50 05 c0 cb e3 63 c0 a7 69 c6 bf
       -0.72243994 -2.0830195 -3.5607784 -1.5500993

lin1.weight f4 [5, 800]
000000 44 1d 11 bd 42 d1 11 3c 40 70 90 bc b9 f7 1f bc
       -0.0354283 0.008899989 -0.01763165 -0.0097636515
000010 87 56 0a bc 70 fa d1 bc b1 4a 50 bc 2d b6 a2 3c
       -0.008443481 -0.025632113 -0.01271312 0.019862259
000020 43 9f c1 3a 78 2c a4 bc 54 23 0c be df e2 59 bc
       0.0014772195 -0.020040736 -0.13685352 -0.013298719
000030 37 e2 30 3d 2c fe 7a bd c7 11 a3 bc 28 39 ec 3b
       0.043184485 -0.061277553 -0.019905938 0.007208962
000040 7e 82 96 bd 11 7b 6b 3c 0d c3 4f bd 31 62 28 3b
       -0.07349108 0.014372603 -0.050723124 0.0025693292
000050 5c 2b 7f bc 2d c3 f2 3c 05 72 a7 bc 30 c2 2f 3c
       -0.0155743025 0.029634083 -0.020440111 0.01072745
000060 56 90 45 3c 46 55 d0 3b de 23 5f bc 88 9f c9 3a
       0.012058338 0.0063578216 -0.013619391 0.0015382627
000070 4b 41 8b 38 31 6f 88 3c ed 6b 2f 3b 07 c3 e7 ba
       6.640198e-05 0.016654583 0.002676721 -0.0017682024
000080 bb a9 e2 b8 7f f5 99 bb 33 6e 8b 3c 47 23 d0 3b
       -0.000108081345 -0.004698455 0.01702032 0.0063518616
000090 54 e6 af bb 12 ac 1c bc 1a a0 49 3c 6e 2f 63 ba
       -0.0053680334 -0.009562509 0.012306238 -0.00086664304
0000a0 f9 56 8a bc 13 8b cd bb 44 72 11 bc bf e4 4c bc
       -0.016887175 -0.0062726825 -0.008877341 -0.012505709
0000b0 84 2f c6 ba bd de a6 3b 96 b0 5f 3b 37 3c 15 3b
       -0.0015120362 0.0050924704 0.0034132353 0.0022771487
0000c0 d5 d1 b5 bb 31 5d 95 bc 73 5b 39 3d 7c 58 e7 3c
       -0.0055486956 -0.018232914 0.04525323 0.028240435
0000d0 9b 25 2d 3d da 9e 13 3d d0 66 d9 3c 34 dc d2 3c
       0.04227219 0.036040165 0.026538283 0.025739767
0000e0 b5 1c 50 be 71 38 37 be 94 d9 53 be df 54 99 3d
       -0.20323451 -0.17892624 -0.20688468 0.07486891
0000f0 55 08 7f be 2f 97 33 be 4a d0 b6 bd aa e4 d4 bd
       -0.24905522 -0.1753814 -0.08926447 -0.10395177
000100 c9 7b af bd 83 0c 6b be 3f 6e 50 3b 6c cd 26 be
       -0.08568532 -0.22953992 0.0031803993 -0.162893
000110 5a 8f f5 bd e1 44 f1 3b 99 00 53 bd 47 a6 04 be
       -0.11990233 0.0073629473 -0.05151424 -0.12954055
000120 4f 51 10 be 05 dd 39 be 22 0d 11 be eb f9 3e bd
       -0.14093517 -0.18150719 -0.14165166 -0.04662506
000130 03 88 b9 3b b7 a3 f9 bb 3c 8e 20 3c a9 6b 28 3c
       0.005661966 -0.0076183933 0.009799536 0.010279574
000140 3f d2 af bc 30 a8 82 bd b9 96 63 bc e9 b8 88 bd
       -0.021462558 -0.063797355 -0.013890916 -0.06675894
000150 27 cf bb bd 20 a1 13 3d 88 2f d5 3b 85 ac 6d 3d
       -0.091703705 0.036042333 0.0065059103 0.058025856
000160 df de ce bc 5c db e6 bd 60 86 07 bd 40 e9 c2 bc
       -0.025252758 -0.11272308 -0.033087134 -0.023792863
000170 a4 9c 05 3b dc bd b2 3c a3 bc ed bb d1 9d 25 3c
       0.0020387555 0.021819048 -0.0072551533 0.010108427
000180 7a 64 4e bb a1 19 ad bc 8c 40 84 3c 80 be 5d 3d
       -0.0031492994 -0.021130385 0.01614406 0.054136753
000190 0a 5d e2 b9 9e a7 16 bb 24 d8 5e ba 8b 9b 59 bc
       -0.000431754 -0.0022988091 -0.00085008354 -0.013281713
0001a0 a9 26 aa 3c b6 90 1c 3c 36 b9 17 3b f0 35 70 bc
       0.020770388 0.009555986 0.0023151166 -0.014661297
0001b0 70 29 66 bb 73 49 d4 bc 94 9e ca bb 21 2e 0d bc
       -0.0035119914 -0.02591393 -0.0061834548 -0.008616955
0001c0 0d ed 88 bc 52 01 04 bc ab 0b ce bb 21 bd 25 3c
       -0.016714597 -0.008056955 -0.006288012 0.010115893
0001d0 90 f0 91 bc ee a4 76 39 15 66 46 3b 6e 9a b6 bc
       -0.017814904 0.0002352183 0.0030273248 -0.022290435
0001e0 29 d6 89 bc 3a 45 26 bc d6 ab 8f bb c1 a5 08 bc
       -0.016825752 -0.010148341 -0.004384498 -0.0083403
0001f0 a1 9a e1 bc 03 d8 e3 3c 4e 72 57 bc 22 9e 9d bd
       -0.027539553 0.027812963 -0.013149811 -0.07696177
000200 fb 9f b2 bc 18 9f f2 bb fe 1d 0c bd 1c 52 0b be
       -0.0218048 -0.0074042194 -0.03420829 -0.13605541
000210 ee 1d b3 3c f6 6f b0 bd 99 6f c1 bc c7 c4 3d bb
       0.021864858 -0.08615105 -0.023612784 -0.00289564
000220 f3 60 44 bd d3 ef cd b9 c4 82 6d bd 14 17 ef bd
       -0.04794402 -0.0003927933 -0.057986036 -0.11674324
000230 07 d3 f0 3b c9 86 ff 3c 4b f3 fb 3d 14 b1 35 bd
       0.007349375 0.0311922 0.12302264 -0.044358328
000240 8d 13 04 bd 77 87 99 3c 3c a8 47 3d e4 e9 60 3d
       -0.032245208 0.018741352 0.048744425 0.054910555
000250 c7 50 1d bd fd 0b 09 bd f9 cd 12 3c 89 f6 29 bc
       -0.038407113 -0.0334587 0.0089602405 -0.01037372
000260 9e b8 ba 3c 4b 88 b0 3b 7b b5 27 3d 5d 4b 1a 3b
       0.02279311 0.005387341 0.040944558 0.0023543455
000270 65 d0 76 bb a3 97 7a 3b e6 7f 75 3c b4 2d f4 bb
       -0.0037660834 0.0038237355 0.014984107 -0.0074517373
000280 ff 68 06 3c 96 48 f9 bb c1 ce 62 bb a4 3a af 39
       0.008203744 -0.00760753 -0.0034608098 0.00033422292
000290 fb 09 8b bb 52 36 6b bc 61 cc cf bb 4a 08 4f 3b
       -0.004243133 -0.014356213 -0.0063415025 0.0031590634
0002a0 4b f8 28 bc 19 83 8f 3b 4f 90 42 3d cd a6 22 3b
       -0.010313104 0.0043796417 0.047500905 0.002481866
0002b0 93 66 94 3a 31 e9 a6 bb e4 24 e3 bc 79 b6 ce bc
       0.0011322073 -0.0050937166 -0.027727552 -0.025233494
0002c0 04 21 a5 ba ee 88 2a bc 55 b7 1f 3c da 73 45 bc
       -0.001259834 -0.010408623 0.0097483 -0.012051547
0002d0 5d d1 52 3b b8 8c 99 3b 68 30 bf 3b 7b 7e 4f 3b
       0.0032168247 0.0046859644 0.005834628 0.0031661082
0002e0 40 1d 8e bc fd 6c 61 bc 79 8f c7 3c 05 8b d2 bb
       -0.017347932 -0.013758895 0.024360405 -0.006425264
0002f0 41 f5 26 3c 16 26 63 3c 68 2f e0 3c c2 35 82 3b
       0.010190309 0.013864061 0.027366355 0.0039736936
000300 6e c4 bf bc ea 6d 8e bc b5 05 3a 3c a3 c9 0a bc
       -0.023409095 -0.017386395 0.0113539 -0.0084709255
000310 ee a9 a1 bb aa 88 3d 3c 5f 74 2c 3b aa d0 9d bb
       -0.0049335873 0.011568228 0.002631448 -0.0048161345
000320 68 62 00 bd c1 ef 4c bb 03 86 12 bc 48 8e a6 bb
       -0.031343848 -0.0031270834 -0.008943084 -0.005082879
000330 27 f4 2c bd 4d 63 0b 3d c4 32 2e ba 02 71 9f 3b
       -0.04222503 0.034030247 -0.0006645138 0.0048657665
000340 01 f7 cc bb 02 ee d4 bb ae f3 59 3d a4 b9 c9 3c
       -0.006255031 -0.0064980993 0.053210907 0.024624653
000350 c5 67 89 bc ab 7c 80 bc 62 37 c0 3b 8b 83 42 bd
       -0.016773114 -0.015684446 0.005865977 -0.04748873
000360 50 7d 46 3d c4 e4 0b ba ba 58 80 3c 38 10 4a 3d
       0.04845935 -0.0005336518 0.015667308 0.049331874
000370 a9 53 12 bd f1 03 c1 ba e3 11 1d bc ed bf 6e 3c
       -0.035724316 -0.0014725906 -0.009586784 0.014572126
000380 bc 4e 15 bc 9c 51 6a 3d 59 16 f1 3d 88 74 10 be
       -0.00911301 0.057206735 0.117718406 -0.14106953
000390 3b cb 96 be bd 5c 1f bd ba 7e 26 3d 58 5c 8d 3a
       -0.29451928 -0.0389068 0.0406482 0.0010784967
0003a0 11 75 89 3c 15 42 aa 3c fb 65 70 bd b3 f7 b9 bd
       0.016779454 0.020783463 -0.058691006 -0.09080448
0003b0 d8 76 09 be 83 97 09 3e 05 84 38 be 03 d1 12 be
       -0.13424242 0.13436703 -0.18019111 -0.14337544
0003c0 a5 f2 6c 3d 06 e9 17 bd 0b a9 a8 3d 51 28 46 be
       0.05784859 -0.037087463 0.082353674 -0.19351317
0003d0 4b 15 48 bd 52 9a 38 3a 49 27 5c bd f6 cb 9d bc
       -0.04884843 0.00070420385 -0.053748403 -0.019262295
0003e0 84 53 1b be d0 76 75 3d 12 46 aa bb 64 4d c8 3c
       -0.15168577 0.05992776 -0.0051963413 0.024450965
0003f0 bd 20 96 bc 2e 95 17 bc 55 35 0d bc e9 70 85 3b
       -0.018326158 -0.009251876 -0.008618672 0.004072298

lin1.bias f4 [5]
000000 13 25 c8 bc 6c e0 2b bd fd b4 e6 3c 83 30 f8 bc
       -0.02443174 -0.041962072 0.028162474 -0.03029657
000010 db ee a2 bc
       -0.019889286
