results_auto/01_domain_adaptation/maml_supervised/June_14/officehome_maml_order_2_seed_0_shots_1_ways_5_meta-lr_0.0001_test-domain_Clipart_dropout_0.1_RandAugment-prob_0.5_pre-train-wts_datetime_13_06_2021_17_41_38/intermediate_9000_model.pt (torch, 412181 bytes, 54 tensors)

conv1.weight f4 [32, 3, 3, 3]
0	0x3edde995	0.4334227
1	0x3dab9f3c	0.08379981
2	0xbde27e22	-0.11059214
3	0xbd8bebd0	-0.06832087
4	0xbe3dbdd3	-0.18529443
5	0xbe29c42f	-0.16578744
6	0x3e0b25de	0.13588664
7	0x3d347d32	0.044064708
8	0xbe1d68d7	-0.15372024
9	0x3ca149e7	0.01968856
10	0xbe5189fa	-0.2046279
11	0x3d8b8af2	0.06813611
12	0xbeb31f3f	-0.34984776
13	0xbe162cb9	-0.14665498
14	0xbcefe9ca	-0.029286284
15	0xbc277718	-0.010221265
16	0x3df3b551	0.11899818
17	0x3e89a954	0.26887
18	0xbf550e10	-0.8322458
19	0xbeed5012	-0.4635015
20	0x3e2180f9	0.15771855
21	0xbe93e7e6	-0.28887862
22	0x3d9dc597	0.07703703
23	0x3f0b9aa4	0.5453284
24	0xbe10537f	-0.14094351
25	0x3ea4e9cb	0.3220962
26	0x3f46106c	0.7736881
27	0x3d78944b	0.0606883
28	0x3d03122c	0.031999752
29	0x3ebbd095	0.36682573
30	0xbe193973	-0.14963321
31	0x3e68b620	0.22725725
32	0x3eb95ad1	0.362021
33	0xbef38e5a	-0.47569543
34	0xbeef3753	-0.46721897
35	0xbd940995	-0.0722839
36	0xbe2239cf	-0.15842365
37	0x3e46151f	0.19343995
38	0x3eab3c3a	0.33444387
39	0xbe7d3b8e	-0.2472975
40	0xbd83f9c2	-0.06444122
41	0x3e0d55a5	0.13802202
42	0xbf00f2b8	-0.5037036
43	0xbf0fd41b	-0.5618302
44	0xbe681c25	-0.22666986
45	0x3d7bb1cd	0.06144886
46	0x3e95f712	0.29290062
47	0x3ef83b8b	0.48482928
48	0xbe8b61c3	-0.27223024
49	0xbbfbe79b	-0.0076875216
50	0x3eba8b8d	0.36434594
51	0xbd07304b	-0.03300504
52	0xbe0b1c50	-0.13585019
53	0x3d34fb4b	0.044184964
54	0x3ec2a603	0.38017282
55	0x3dd6d676	0.10490124
56	0x3e9142ae	0.28371185
57	0xbe8d7bef	-0.27633616
58	0xbe95f903	-0.29291543
59	0xbebdcbd9	-0.37069586
60	0xbd49d186	-0.049272083
61	0xbd4bd79f	-0.04976618
62	0xbdd57f3a	-0.10424657
63	0x3ebcb4da	0.3685673
64	0x3ea655da	0.32487375
65	0x3e12c1df	0.14331768
66	0xbbf5bcf5	-0.007499332
67	0xbcd45a56	-0.025921982
68	0xbe236e42	-0.15960029
69	0x3d1ab4b0	0.037769973
70	0xbe9f5699	-0.31120756
71	0xbe21038e	-0.15724012
72	0x3eec9691	0.46208623
73	0x3eec186a	0.46112376
74	0x3f0aa9d3	0.5416538
75	0x3e1ef87d	0.15524478
76	0xbd3747e7	-0.044746306
77	0xbeb89bd5	-0.3605639
78	0xbe8666d4	-0.26250327
79	0xbeea331b	-0.45742115
80	0xbebe8f67	-0.37218782
81	0x3f03fa2a	0.51553595
82	0x3ec5bc71	0.38620332
83	0xbd33e897	-0.043922987
84	0xbdffc51d	-0.12488768
85	0xbeb3269c	-0.34990394
86	0xbed102f1	-0.40822557
87	0x3db9bf2c	0.09069666
88	0x3e44985a	0.19198743
89	0xbd73fc85	-0.059566993
90	0x3edca292	0.4309278
91	0x3eec0ed8	0.46105075
92	0x3eddfda5	0.43357578
93	0xbe5f9bc2	-0.2183676
94	0xbf04c76e	-0.51866806
95	0xbefa39f4	-0.4887234
96	0x3dd20397	0.10254591
97	0x3dea1cf9	0.11431307
98	0xbe06c026	-0.13159236
99	0x3c2196c4	0.0098626055
100	0x3ed05422	0.40689188
101	0x3f010a56	0.50406396
102	0xbef1f71c	-0.47258842
103	0xbec37b3b	-0.38179955
104	0xbeae3554	-0.3402506
105	0xbda84acc	-0.08217391
106	0xbd51c0e2	-0.051209338
107	0x3d826203	0.063663505
108	0xbb6c4445	-0.0036051434
109	0x3dd623df	0.104560606
110	0xbd32abed	-0.043620992
111	0x3e0c3e32	0.136956
112	0xbdd66b31	-0.10469664
113	0x3e3ec5df	0.1863017
114	0x3d14ee96	0.036360346
115	0xbe8088ab	-0.2510427
116	0xbe0e0e63	-0.13872676
117	0x3e444154	0.19165546
118	0x3eaf4194	0.3422972
119	0x3e49805a	0.19677868
120	0x3e407564	0.18794781
121	0x3e2d943c	0.16951078
122	0xbcce210e	-0.025162246
123	0xbdef8f80	-0.11697292
124	0xbe9bcb7c	-0.30428684
125	0xbe968707	-0.29399893
126	0xbf858dbb	-1.0433878
127	0x3df48ee3	0.11941316
128	0xbe2696a1	-0.16268398
129	0xbf580abd	-0.84391385
130	0x3e9b106f	0.30285975
131	0x3cdb03e3	0.026735252
132	0xbfbf8685	-1.4962927
133	0x3e609017	0.21929966
134	0xbe72db0d	-0.23716374
135	0xbe838410	-0.25686693
136	0xbd918d25	-0.07106999
137	0xbe665618	-0.2249378
138	0x3d9fadc1	0.07796813
139	0x3e56280f	0.20913719
140	0x3e8e0d1d	0.2774438
141	0x3ecb85d1	0.3975053
142	0x3f199236	0.59988725
143	0x3e499883	0.19687085
144	0xbee2ac9e	-0.4427232
145	0xbe02dd94	-0.12779838
146	0x3b215e44	0.0024622837
147	0xbec41d1b	-0.38303456
148	0xbecf38cf	-0.4047303
149	0xbea678eb	-0.32514128
150	0xbf0e1339	-0.5549808
151	0xbeb538d5	-0.35394922
152	0xbea3d272	-0.31996495
153	0x3ec52d5c	0.3851117
154	0x3efdf9e6	0.4960472
155	0xbc9bda27	-0.019024922
156	0x3e869394	0.26284468
157	0x3c992f03	0.018699175
158	0x3ddc6488	0.10761362
159	0xbd6aae69	-0.057295237
160	0x3db78bda	0.089622214
161	0xbdb083f8	-0.08618921
162	0xbf26b235	-0.6511567
163	0xbea03171	-0.3128772
164	0xbe41ab43	-0.18912987
165	0xbdad011d	-0.08447478
166	0x3dc66033	0.09686317
167	0x3e49d1fa	0.19709006
168	0x3c8e31df	0.017357765
169	0x3ee40616	0.44535893
170	0x3f030417	0.51178116
171	0xbed64b6b	-0.41854414
172	0x3e43b8d1	0.1911347
173	0x3b68ff8d	0.003555271
174	0xbead3ae6	-0.33833998
175	0x3e8c5a9c	0.2741288
176	0x3bb610eb	0.005556216
177	0xbe6d8eae	-0.23198959
178	0x3eab2073	0.33423194
179	0xbe1458ae	-0.14486954
180	0x3e195fd2	0.14977959
181	0x3ec54154	0.38526404
182	0x3ed4f9ef	0.41596934
183	0xbd1bbd2e	-0.038022213
184	0x3e7beffd	0.24603267
185	0x3d6579a9	0.056024227
186	0xbed2794f	-0.41108176
187	0xbe079e91	-0.13244082
188	0xbedc60ab	-0.43042502
189	0x3d901c34	0.07036629
190	0x3ec411a0	0.38294697
191	0x3e569297	0.20954357
192	0xbf1d1df7	-0.6137385
193	0xbe5d8cb0	-0.216357
194	0xbf0ffffa	-0.56249964
195	0x3d4848e8	0.048897654
196	0x3e6f178e	0.23348829
197	0x3e70b986	0.23508272
198	0xbe28b978	-0.16477
199	0x3e8762d9	0.26442602
200	0x3d4db2f7	0.050219502
201	0xbec5a7d7	-0.38604614
202	0xbeaf97d5	-0.34295526
203	0xbf1d27db	-0.6138894
204	0x3e0d36f8	0.137905
205	0x3f25d014	0.6477063
206	0x3e363fd7	0.1779779
207	0x3e3241b3	0.17407875
208	0x3e6eb4e4	0.23311192
209	0x3d52bc59	0.051449154
210	0xbea5e35d	-0.32400027
211	0xbe825041	-0.25451854
212	0xbeba2956	-0.36359662
213	0x3e9612a9	0.29311112
214	0x3ed6aa0e	0.41926616
215	0x3e80a44d	0.25125352
216	0xbe38a405	-0.18031318
217	0xbee571d9	-0.4481342
218	0x3f1ae3c4	0.6050379
219	0xbec97616	-0.39347905
220	0xbe90e842	-0.283022
221	0x3f0db395	0.55352145
222	0xbdfad3db	-0.122474395
223	0xbe4a61d7	-0.19763885
224	0x3d920d7e	0.0713148
225	0x3e83a9e0	0.25715542
226	0xbf052390	-0.5200739
227	0x3de2a853	0.110672615
228	0x3b708c01	0.0036704543
229	0xbe4a9257	-0.19782387
230	0x3e443fc0	0.19164944
231	0x3e8de959	0.27717093
232	0xbcc7fb80	-0.024411917
233	0x3eac0498	0.33597255
234	0x3e9682b8	0.29396605
235	0xbecd1e21	-0.4006205
236	0x3e95212e	0.29126877
237	0xbe3f36ae	-0.18673202
238	0xbe9c5410	-0.30532885
239	0x3e297b56	0.16550955
240	0x3d380fe7	0.04493704
241	0xbd225786	-0.03963425
242	0xbd5b9bbd	-0.05361532
243	0x3eb3e49d	0.35135356
244	0x3ebc201e	0.36743253
245	0xbdefb870	-0.117051005
246	0x3f050652	0.5196277
247	0x3dbc69a3	0.09199836
248	0xbd7f461c	-0.06232272
249	0x3ea86f6c	0.32897508
250	0xbc505008	-0.012714393
251	0x3c879f3c	0.016555421
252	0x3e909e6b	0.28245863
253	0xbdbe0f60	-0.09280276
254	0xbe8afa77	-0.27144215
255	0xbd837124	-0.06418064

conv1.bias f4 [32]
0	0xbd96a313	-0.07355323
1	0xbfc63a0a	-1.5486462
2	0x3d47afae	0.048751526
3	0xbe8032a6	-0.25038642
4	0xbf396b30	-0.7242918
5	0xc0dad840	-6.8388977
6	0xbce2e4a7	-0.02769692
7	0xbd3eb7d7	-0.046562042
8	0xbe981eec	-0.29711092
9	0x3e6d3caf	0.2316768
10	0xbe9f6d20	-0.31137943
11	0xbcff51c5	-0.03116692
12	0x3f5faaf5	0.87370235
13	0xbfd2d916	-1.6472499
14	0xbe4d1797	-0.2002853
15	0xbe094258	-0.13404214
16	0xbd0c82d8	-0.03430447
17	0xbe935038	-0.2877214
18	0xbe5c25a5	-0.21498735
19	0xc0626f2b	-3.5380352
20	0x3f809aa9	1.0047199
21	0x3d4a624b	0.049410146
22	0x3dacb012	0.0843202
23	0x3df6908d	0.120392896
24	0xc1249b78	-10.287956
25	0x3e700202	0.23438266
26	0xbe15cdaf	-0.14629243
27	0xbd9a354c	-0.07529697
28	0x3e83996c	0.2570299
29	0xbeea4a7c	-0.45759952
30	0xc029f1e2	-2.6553884
31	0x3d9dbe13	0.077022694

batch1.weight f4 [32]
0	0x3f9d1d8c	1.2274642
1	0x3f8055f6	1.0026233
2	0x3f342de1	0.70382506
3	0x3f96dd85	1.1786352
4	0x3f78b42d	0.97149926
5	0x3f5936f6	0.8484949
6	0x3f8591cd	1.043512
7	0x3f89cb03	1.0765079
8	0x3f4f4678	0.809669
9	0x3f849240	1.0357132
10	0x3fa4eb21	1.2884256
11	0x3f51aeae	0.81907165
12	0x3f6bd205	0.9211734
13	0x3f1f8c81	0.62323767
14	0x3eec32e9	0.4613259
15	0x3f719940	0.94374466
16	0x3f41bbb3	0.7567703
17	0x3f89ad3c	1.0755992
18	0x3f9e8394	1.2383904
19	0x3f25e978	0.6480937
20	0x3f4f300d	0.80932695
21	0x3f72058b	0.9453971
22	0x3f74ae9a	0.9557892
23	0x3f9adcb1	1.20986
24	0x3f5aa208	0.8540349
25	0x3f8d29ed	1.102842
26	0x3fb91917	1.4460782
27	0x3f75c95f	0.9601039
28	0x3fb03935	1.3767458
29	0x3f08c77d	0.53429395
30	0x3f2e2b63	0.6803495
31	0x3f0f8686	0.5606464

batch1.bias f4 [32]
0	0x3f498855	0.7872365
1	0xbf2e6d4c	-0.68135524
2	0x3f69589f	0.9115085
3	0x3dd92005	0.1060181
4	0xbf04d4b9	-0.5188709
5	0x3e72d831	0.23715283
6	0x3fc01aa3	1.5008129
7	0x3f3fabee	0.7487172
8	0x402ff31d	2.7492135
9	0x3d623580	0.055226803
10	0x3f835552	1.0260413
11	0xbf0140a6	-0.5048927
12	0xbe13caa4	-0.1443277
13	0xbe4373cc	-0.19087142
14	0x3caec552	0.021334324
15	0xbf0bb8a0	-0.5457859
16	0x3c671a16	0.0141053405
17	0xbd9f3783	-0.0777426
18	0xbf2b9b80	-0.6703415
19	0xbe64d33a	-0.22346202
20	0xbd0b0f08	-0.03394988
21	0x3e248302	0.160656
22	0x3d958d9e	0.07302402
23	0x3dfb90e0	0.12283492
24	0x3e9058cf	0.28192756
25	0xbd70850b	-0.05872063
26	0x3e6efede	0.23339412
27	0x3dbfe0e6	0.09369068
28	0xbd99c160	-0.075075865
29	0x3dd3dc8d	0.10344801
30	0x3fc900aa	1.5703328
31	0xbd6a67c0	-0.05722785

conv2.weight f4 [32, 32, 3, 3]
0	0xbe40ad5e	-0.18816134
1	0x3dbb0f67	0.09133797
2	0x3c66b04e	0.01408012
3	0xbe43b63e	-0.19112489
4	0x3e848ff2	0.25891072
5	0x3ef56d5d	0.47935
6	0x3be1cc80	0.0068908334
7	0x3e3cc620	0.18434954
8	0x3e177827	0.14791928
9	0x3cefec5e	0.029287513
10	0xbe9f0852	-0.31061035
11	0xbd5626aa	-0.052282967
12	0x3d2e446e	0.04254573
13	0xbd5d95c7	-0.054097917
14	0x3f03f122	0.51539814
15	0xbe8f047e	-0.27933115
16	0xbe915001	-0.2838135
17	0x3dd79bf8	0.105277956
18	0xbf2ee023	-0.68310755
19	0xbf268466	-0.65045774
20	0xbf044e60	-0.5168209
21	0xbed82b21	-0.42220405
22	0xbe587eaa	-0.21142069
23	0xbf64086d	-0.89075357
24	0x3d9fb093	0.07797351
25	0x3da7c5b9	0.081920095
26	0x3eafb523	0.34317884
27	0x3e8a1bf1	0.26974443
28	0x3d31d3be	0.043414824
29	0xbec9df19	-0.39428023
30	0xbe1d89e7	-0.15384637
31	0xbe262b42	-0.16227439
32	0xbf4fc20e	-0.8115548
33	0x3d7d1dbe	0.061795942
34	0xbe24d616	-0.16097292
35	0xbe976532	-0.29569393
36	0x3e688336	0.22706303
37	0x3de62dab	0.11239179
38	0x3b8afcb4	0.0042415503
39	0x3e558882	0.20852855
40	0x3d991aeb	0.07475837
41	0xbc3421b9	-0.010994368
42	0x3ce98432	0.028505418
43	0xbe43de3e	-0.19127747
44	0xbdb48562	-0.08814503
45	0xbe5b86dc	-0.21438164
46	0xbe8ed1c1	-0.27894405
47	0xbe40065d	-0.18752427
48	0xbd9ac8e5	-0.07557849
49	0xbdb286ea	-0.08717139
50	0x3da18426	0.078865334
51	0x3e083d5f	0.13304661
52	0x3c18bd76	0.009322515
53	0x3de5f4d2	0.112283364
54	0xbc2c7331	-0.010525511
55	0xbe3d6018	-0.18493688
56	0xbe3a8fe9	-0.1821896
57	0x3d8b1720	0.0679152
58	0xbd579b71	-0.052638475
59	0x3c0893ca	0.008336017
60	0x3e5af9c2	0.21384338
61	0xbdd26473	-0.102730654
62	0x3e64f3ab	0.22358577
63	0x3d999d9b	0.07500764
64	0x3b95a22f	0.004566453
65	0xbe5de663	-0.21669917
66	0x3dc29225	0.09500531
67	0xbc08e97c	-0.008356448
68	0xbe21740a	-0.15766922
69	0x3cc76171	0.024338456
70	0x3e4b87e8	0.19876063
71	0xbd869d3a	-0.06572957
72	0xbe3b8f8d	-0.18316479
73	0x3e1df3ed	0.15425082
74	0x3e90c4ed	0.28275242
75	0xbe8c3f93	-0.27392253
76	0x3e0f5775	0.13998206
77	0x3ed5520c	0.4166416
78	0xbee86916	-0.45392674
79	0xbe48bf2c	-0.19604176
80	0x3d2bacdc	0.0419129
81	0xbe880cd0	-0.26572275
82	0xbf3bc86b	-0.7335269
83	0xbeb3a67c	-0.35087955
84	0xbed5842f	-0.4170241
85	0xbea632c9	-0.3246062
86	0x3e5f3782	0.21798518
87	0xbd96a026	-0.07354765
88	0xbd1fa81e	-0.03897869
89	0x3eea97f3	0.45819053
90	0xbe54852b	-0.20753925
91	0xbe020d0f	-0.12700294
92	0x3dcff3f4	0.10153952
93	0xbe4152d1	-0.18879248
94	0x3e444171	0.19165589
95	0x3e271423	0.16316275
96	0xbe003c3e	-0.1252298
97	0xbee2ebb5	-0.44320455
98	0xbea6f794	-0.32610762
99	0xbf0df013	-0.5544445
100	0xbe0d5e8d	-0.138056
101	0xbe51874e	-0.20461771
102	0xbec24cdc	-0.37949264
103	0x3ea1d054	0.31604254
104	0x3dd535d3	0.10410657
105	0xbeae4177	-0.3403432
106	0x3ed07ef0	0.40721846
107	0x3e644db0	0.2229526
108	0xbe997ee6	-0.29979628
109	0xbe74f240	-0.23920536
110	0xbe87d442	-0.26529127
111	0x3e966d61	0.29380324
112	0x3ec2fdeb	0.3808435
113	0x3cd31ea9	0.025771456
114	0xbe8b6937	-0.2722871
115	0xbcef6f69	-0.02922793
116	0x3eaaaa9d	0.33333293
117	0x3d05630e	0.03256517
118	0xbdbb3bf3	-0.09142294
119	0xbcd60b78	-0.026128516
120	0x3cf547fb	0.02994155
121	0xbe1baf57	-0.15203606
122	0xbea138ed	-0.31488743
123	0x3de994ec	0.11405358
124	0xbc2a28bd	-0.010385689
125	0xbed13d80	-0.40867233
126	0xbf00101a	-0.5002457
127	0xbef8e588	-0.48612618
128	0xbe68e515	-0.22743638
129	0xbd80b9f3	-0.06285467
130	0xbdd788f6	-0.1052417
131	0x3e5b8625	0.21437891
132	0x3e0d9dc4	0.13829714
133	0x3e5ba9c6	0.21451482
134	0x3eefad2f	0.46811816
135	0x3e296623	0.16542868
136	0xbed0e0b8	-0.40796447
137	0xbd4acb63	-0.04951037
138	0x3eb81fc5	0.35961738
139	0x3d85cb9a	0.065329745
140	0x3d082e12	0.03324706
141	0x3b648522	0.0034869392
142	0xbeb80c09	-0.35946682
143	0xbe8e50cb	-0.27796015
144	0xbf1bcdf2	-0.6086112
145	0xbe0e69c9	-0.13907541
146	0xbea8f730	-0.3300109
147	0x3cca295d	0.024677927
148	0x3f05e931	0.52308947
149	0x3e51d25a	0.20490399
150	0xbd8e7d19	-0.06957454
151	0x3e8a40ae	0.27002472
152	0x3e860836	0.2617814
153	0x3e47bf5e	0.19506595
154	0xbd28c57f	-0.041203972
155	0x3eb66c70	0.35629606
156	0xbc60a084	-0.013710145
157	0xbd6dac2d	-0.058025528
158	0xbda96850	-0.08271849
159	0xbe4d5a05	-0.20053871
160	0xbe75f911	-0.24020793
161	0xbea4fa4f	-0.3222222
162	0xbc8819e0	-0.0166139
163	0xbe8ec9f9	-0.27888468
164	0xbe1869cf	-0.14884113
165	0x3e3bdc2f	0.18345712
166	0xbd60f714	-0.054923132
167	0x3e9eb9ab	0.31001028
168	0x3efda274	0.49538004
169	0x3c0d3df9	0.008620732
170	0x3eb311f3	0.34974632
171	0x3e41e1eb	0.18933837
172	0xbec97b64	-0.39351952
173	0x3c44b0d5	0.012005051
174	0x3df868d2	0.12129368
175	0x3da6f45f	0.08152079
176	0x3cee9f44	0.029128678
177	0x3c716adf	0.014734953
178	0x3d429810	0.0475083
179	0xbe640159	-0.22266139
180	0xbcaaccad	-0.02084955
181	0xbe283464	-0.16426235
182	0xbe4af340	-0.19819355
183	0x3cef28a8	0.029194191
184	0x3e712df0	0.2355268
185	0x3e21216a	0.15735403
186	0x3ceb55d0	0.028727442
187	0x3e4fc544	0.20290095
188	0x3dc921cb	0.098208986
189	0x3dd8382b	0.10557588
190	0x3d05c4b6	0.0326583
191	0xbd1577b3	-0.036491107
192	0xbef1a878	-0.47198844
193	0xbe6b33b1	-0.22968937
194	0xbe55f9d3	-0.20896082
195	0xbe5d52ac	-0.21613568
196	0x3cc3143f	0.023813365
197	0x3e0ff140	0.14056873
198	0xbe919ab1	-0.28438333
199	0xbf3341c8	-0.7002225
200	0xbe8c9582	-0.27457815
201	0xbef580f7	-0.47949955
202	0x3d06c460	0.03290212
203	0x3ea732a6	0.3265583
204	0x3a834fc7	0.0010018282
205	0x3e4ad77d	0.19808765
206	0x3f375dde	0.71627605
207	0xbe51f0b0	-0.20501971
208	0xbea8ba52	-0.3295465
209	0x3e6f485f	0.23367451
210	0xbe0d6217	-0.1380695
211	0xbca82d48	-0.020529404
212	0x3e195319	0.14973105
213	0xbb47f0a1	-0.0030508416
214	0xbd9177d5	-0.07102934
215	0x3d9733d1	0.0738293
216	0xbeb98f8d	-0.36242333
217	0xbe1ccc54	-0.1531232
218	0x3dc7c7c4	0.09754899
219	0xbe0e882b	-0.13919131
220	0x3d9a9892	0.07548632
221	0x3ee74b83	0.45174798
222	0xbec366ba	-0.38164312
223	0xbe11cac7	-0.1423751
224	0xbd48002d	-0.048828293
225	0x3c9df3ad	0.019281233
226	0xbe79a3c8	-0.24378884
227	0xbeffed33	-0.49985656
228	0xbe51c17b	-0.20483963
229	0xbe1b0edc	-0.15142387
230	0xbf433d05	-0.76264983
231	0xbd3ec94e	-0.046578698
232	0x3d6ebe0b	0.058286708
233	0x3db19a05	0.08671955
234	0x3e356096	0.17712626
235	0xbce75c48	-0.028242245
236	0xbe93ae2b	-0.28843817
237	0x3e3d5642	0.18489936
238	0x3dcff1ed	0.101535656
239	0x3d4c50d7	0.049881782
240	0xbead5f87	-0.33861944
241	0xbe50e288	-0.20398915
242	0xbf0555c7	-0.5208401
243	0x3db2331c	0.087011546
244	0x3e95d3b4	0.2926308
245	0x3de40ed9	0.111356445
246	0xbe1ecc51	-0.15507628
247	0x3dd32d4d	0.10311375
248	0x3c9d1713	0.019176042
249	0xbe7ab796	-0.24484095
250	0x3dcb403f	0.09924363
251	0x3b089db4	0.0020845952
252	0xbe6474cd	-0.22310181
253	0xbf015d9b	-0.50533456
254	0x3d410345	0.04712226
255	0xbcd09faa	-0.025466759

conv2.bias f4 [32]
0	0x3dc3bbb2	0.095572844
1	0x3e1615a0	0.14656687
2	0x3e04067f	0.12893103
3	0x3e133413	0.14375333
4	0x3d891900	0.066942215
5	0x3dbb0b44	0.09133008
6	0xbfb0a180	-1.3799286
7	0xbd0c3b23	-0.034236085
8	0x3ebd2573	0.36942634
9	0xbeab570c	-0.3346485
10	0x3e84dd31	0.25950006
11	0xbe1450d1	-0.14483954
12	0xbd557f95	-0.052123625
13	0x3e31768e	0.17330381
14	0x3d586952	0.052834816
15	0xbdbad9b9	-0.091235586
16	0xbd857828	-0.065170586
17	0xbe3119b9	-0.17294969
18	0xbd798d41	-0.060925726
19	0xbdd03d76	-0.10167973
20	0xbd3b833e	-0.04577946
21	0x3d3642b2	0.0444972
22	0x3e078985	0.13236053
23	0x3d0da549	0.034581456
24	0x3ea2349e	0.3168077
25	0x3b402f41	0.002932504
26	0x3bef5924	0.0073043276
27	0xbe09e35f	-0.13465641
28	0xbf1094c6	-0.5647701
29	0x3eaeeb7a	0.3416403
30	0xbd35b08a	-0.044357814
31	0x3ec56959	0.38556936

batch2.weight f4 [32]
0	0x3f4fd2d8	0.811811
1	0x3f7bf17f	0.9841537
2	0x3fb8488f	1.4397143
3	0x3f9596a8	1.1686602
4	0x3f7da05a	0.990728
5	0x3f9ab534	1.2086549
6	0x3f9cd018	1.2251005
7	0x3f325fe6	0.6967758
8	0x3f94fc0e	1.1639421
9	0x3f614c9b	0.88007516
10	0x3f9716a3	1.1803783
11	0x3f62c4f3	0.8858177
12	0x3f1666b3	0.58750457
13	0x3faef3de	1.3668172
14	0x3f840cb5	1.0316378
15	0x3fa5ed74	1.296309
16	0x3f53a254	0.8266957
17	0x3f593473	0.84845656
18	0x3f629891	0.8851405
19	0x3f42166d	0.7581547
20	0x3f9624f9	1.1730033
21	0x3f89a292	1.0752738
22	0x3f9826d4	1.1886849
23	0x3f8f6f76	1.120589
24	0x3f7b0685	0.98056823
25	0x3f3770a9	0.7165628
26	0x3f44f480	0.7693558
27	0x3f1ca4d1	0.6118899
28	0x3f92e62f	1.1476496
29	0x3f7c59f4	0.9857476
30	0x3f696c57	0.9118094
31	0x3f500f58	0.8127341

batch2.bias f4 [32]
0	0xbc7df69b	-0.01550069
1	0xbefe7a95	-0.49702898
2	0xbe746697	-0.2386726
3	0xbf0b91c8	-0.5451932
4	0xbe9fd474	-0.31216776
5	0xbf20df7a	-0.62841
6	0xbec2ed73	-0.38071784
7	0xbdfa4ffe	-0.122222885
8	0xbf04e232	-0.51907647
9	0xbe99e983	-0.30060968
10	0xbefe4e1d	-0.4966897
11	0xbebf0a3c	-0.37312496
12	0xbbf9dfae	-0.0076255416
13	0xbec17421	-0.37783912
14	0xbef57077	-0.47937366
15	0xbf0bb154	-0.54567456
16	0xbeb566fb	-0.3543013
17	0xbeea6581	-0.45780566
18	0xbef90a11	-0.48640493
19	0x3b77e294	0.003782426
20	0xbedf02ca	-0.43556815
21	0xbeaaac45	-0.33334556
22	0xbf08a405	-0.53375274
23	0xbe9c0df1	-0.30479386
24	0xbf0616e5	-0.52378684
25	0xbe8c29ef	-0.27375743
26	0xbe57b518	-0.21065176
27	0xbe94620a	-0.28981048
28	0xbe06971c	-0.13143581
29	0xbeb4da07	-0.35322592
30	0xbea5341f	-0.32266328
31	0xbefb908b	-0.49133715

conv3.weight f4 [32, 32, 3, 3]
0	0x3edd8985	0.43268982
1	0x3f05ccb1	0.5226546
2	0x3da2ee0a	0.079555586
3	0xbe8a43f6	-0.27004975
4	0xbbfb7273	-0.0076735555
5	0x3e86404a	0.26220924
6	0xbeae44d2	-0.3403688
7	0xbe9318f7	-0.28729984
8	0x3c68a879	0.014200323
9	0x3e2ac7cb	0.16677777
10	0x3d8dd68d	0.06925688
11	0xbe9dcf57	-0.3082225
12	0xbdfd5286	-0.12369256
13	0xbe053a58	-0.13010538
14	0x3e136bd8	0.14396608
15	0x3e8e1b8f	0.277554
16	0x3e59ede5	0.21282156
17	0xbeb13f21	-0.34618476
18	0x3d14792c	0.03624837
19	0x3777fa8f	1.4780685e-05
20	0xbed78e73	-0.42100868
21	0x3e79d6a7	0.2439829
22	0x3dddc303	0.10828211
23	0xbe61aa01	-0.22037508
24	0x3e0ae539	0.13564004
25	0x3d8d9bcc	0.069144815
26	0xbe161d05	-0.14659508
27	0xbe614af1	-0.22001244
28	0xbe93436a	-0.2876237
29	0x3ed4cd3c	0.4156283
30	0x3e0542db	0.13013785
31	0xbdef120d	-0.11673365
32	0x3f0a4d2a	0.54023993
33	0xbeb20dff	-0.34776303
34	0x3c5aa242	0.013344349
35	0x3eabd295	0.335591
36	0x3e9c9c7a	0.30588132
37	0x3f13091d	0.5743578
38	0x3e1e9fcf	0.1549065
39	0x3d21d0b2	0.039505668
40	0x3e551bf0	0.20811439
41	0x3b4623b0	0.0030233674
42	0xbcf9c52e	-0.03048953
43	0x3c0dbb25	0.008650576
44	0x3bd0e719	0.0063752052
45	0x3ec6eb00	0.38851166
46	0x3ea6badf	0.32564446
47	0x3e49b4c9	0.1969787
48	0x3e0b4e2a	0.13604036
49	0x3ebaaf20	0.36461735
50	0x3e826a22	0.25471598
51	0xbec922a8	-0.39284253
52	0x3d8e8203	0.069583915
53	0xbe852031	-0.26001123
54	0x3ec2d8f5	0.3805615
55	0x3ca041bf	0.0195626
56	0xbe8a7705	-0.2704393
57	0x3e40eb8c	0.18839854
58	0xbdcea2b1	-0.10089625
59	0xbcf66261	-0.030076208
60	0x3e8267c9	0.25469807
61	0x3ea6e589	0.32596996
62	0x3dd20d29	0.10256416
63	0xbe851baa	-0.25997669
64	0xbecc6e6d	-0.39927998
65	0xbf24a437	-0.6431307
66	0x3e849f4a	0.25902778
67	0xbe887f4d	-0.26659623
68	0xbec41c36	-0.38302773
69	0xbdbc7680	-0.092022896
70	0xbdcf4ab3	-0.101216696
71	0xbd254711	-0.040350977
72	0x3e7d5b47	0.24741851
73	0xbdb4afee	-0.088226184
74	0xbe97cbfa	-0.2964781
75	0x3ccdc3ee	0.02511784
76	0x3c0470b5	0.008083512
77	0x3e7b9705	0.24569328
78	0x3c8273fe	0.01592445
79	0xbd4fcc69	-0.05073205
80	0x3e66399c	0.22482914
81	0xbf4cd11d	-0.8000658
82	0xbd4690f5	-0.048478086
83	0x3ea77ad4	0.32710898
84	0xbf1c096c	-0.60951877
85	0xbe9d6054	-0.30737555
86	0x3e4c3b5a	0.19944516
87	0xbe0badc0	-0.13640499
88	0xbca07da5	-0.019591162
89	0x3da2bf8f	0.07946693
90	0xbdd6f4f6	-0.10495941
91	0xbf03adbe	-0.51436985
92	0x3ec2244a	0.3791831
93	0xbe04efb8	-0.1298207
94	0x3d0c875d	0.03430878
95	0x3e597bbb	0.21238606
96	0xbda4e060	-0.08050609
97	0xbdcade72	-0.09905709
98	0xbd8a8bbc	-0.067649335
99	0xbc2058d2	-0.009786801
100	0x3b2eb529	0.0026658273
101	0x3e63a3e4	0.22230488
102	0x3e868381	0.26272205
103	0xbe067e97	-0.13134228
104	0xbe00398e	-0.12521955
105	0x3dc593c6	0.09647326
106	0x3e82a708	0.2551806
107	0xbe478d3d	-0.19487472
108	0xbdda7113	-0.106660984
109	0xbdb1336e	-0.086523876
110	0xbed175da	-0.40910226
111	0xbe6a48f6	-0.22879395
112	0xbd5bea86	-0.053690456
113	0xbeb5b988	-0.35493112
114	0xbe91835b	-0.2842053
115	0x3d0a5bf1	0.03377909
116	0xbe86c944	-0.26325428
117	0xbd072195	-0.03299101
118	0xbd3bcc54	-0.04584916
119	0xbc3e5f81	-0.01161945
120	0x3e91dc1e	0.2848825
121	0x3de1dd84	0.11028579
122	0xbe2b1f65	-0.16711195
123	0x3cca9e6e	0.024733748
124	0x3d93d3f7	0.072181635
125	0xbed7d045	-0.42151085
126	0xbe4353f4	-0.19074994
127	0xbe9c1b5d	-0.30489627
128	0xbf36c1a1	-0.71389204
129	0xbd777594	-0.060414866
130	0xbdd42166	-0.10357933
131	0x3d856ce9	0.065149136
132	0xbcb9422a	-0.022614557
133	0x3e42dcfa	0.19029608
134	0xbd48bc50	-0.049007714
135	0x3eb3e411	0.35134938
136	0xbc566228	-0.013084926
137	0xbe4ef234	-0.2020958
138	0x3e6f5942	0.23373893
139	0xbe602026	-0.21887264
140	0xbf160bb8	-0.5861163
141	0xbdd13fb8	-0.102172315
142	0x3eac3744	0.33635914
143	0xbebed178	-0.37269187
144	0x3e2e0a2b	0.16996066
145	0xba2aa77c	-0.00065099425
146	0xbf17d8d2	-0.59315217
147	0xbd0144d5	-0.031559784
148	0xbd047780	-0.032340527
149	0xbc14f318	-0.009091161
150	0xbe42745b	-0.18989699
151	0xbe4daffb	-0.20086662
152	0xbe5961af	-0.2122867
153	0xbca5afae	-0.020225372
154	0xbe8161a5	-0.2526981
155	0x3eb6aedb	0.3568028
156	0x3e5d24ec	0.21596116
157	0x3e367738	0.17818916
158	0x3e337415	0.1752475
159	0xbe18535c	-0.14875549
160	0x3dc143d8	0.09436768
161	0x3e0c5d53	0.13707475
162	0x3c511078	0.012760274
163	0x3e418f6e	0.1890237
164	0x3ea6054c	0.32425916
165	0xbe053bf4	-0.13011152
166	0xbdfd510d	-0.12368975
167	0xbe449e82	-0.19201091
168	0x3e005d20	0.12535524
169	0xbecf3310	-0.40468645
170	0xbeb5eb83	-0.35531244
171	0xbe91a36a	-0.28444988
172	0x3c8c5a7e	0.017132994
173	0x3b6181c0	0.0034409612
174	0xbea7dbe6	-0.32784957
175	0x3dacbe0d	0.08434687
176	0xbe4a47d0	-0.19753957
177	0xbea452ef	-0.32094523
178	0xbe9302be	-0.2871303
179	0xbdc64bde	-0.09682439
180	0xbe01140e	-0.12605307
181	0x3dd7613e	0.10516594
182	0x3ee26c16	0.44223088
183	0x3e74e488	0.23915303
184	0x3d69cbd2	0.057079144
185	0x3e3492ce	0.17634127
186	0x3e853e90	0.26024294
187	0x3e15741d	0.14595075
188	0x3d97a52c	0.07404551
189	0x3e6aa86c	0.2291581
190	0x3beb0343	0.0071720197
191	0x3c19d794	0.009389777
192	0x3e804614	0.25053465
193	0xbed77268	-0.42079473
194	0xbe99d249	-0.30043247
195	0xbdd2d392	-0.1029426
196	0xbd4f07a1	-0.050544385
197	0x3cd8df71	0.026473733
198	0x3eaf70da	0.34265786
199	0x3de73232	0.11288871
200	0xbe93250e	-0.28739208
201	0x3eb9ab09	0.36263302
202	0x3ed7a1de	0.42115682
203	0x3df23b02	0.11827661
204	0x3d3fd211	0.046831194
205	0x3e5a7c39	0.2133645
206	0xbc82bb9c	-0.0159586
207	0x3e665ef7	0.22497164
208	0xbd6b86b9	-0.05750153
209	0xbe4fea74	-0.2030428
210	0xbebe9b14	-0.3722769
211	0xbe405e5c	-0.18785995
212	0x3d37022c	0.044679806
213	0xbf05c247	-0.5224957
214	0x3cc2aadb	0.02376311
215	0x3ea25fa4	0.31713593
216	0x3e64e77c	0.2235393
217	0xbd9d81c9	-0.0769077
218	0xbf8390e3	-1.0278591
219	0x3e2287cf	0.1587212
220	0xbeb1a7ad	-0.3469824
221	0xbe8cbdac	-0.27488458
222	0xbc1004c4	-0.008790199
223	0xbecaf66d	-0.39641133
224	0xbe91e457	-0.28494522
225	0x3d5f7eee	0.05456441
226	0xbe04cb99	-0.12968291
227	0xbf0ca2ce	-0.5493592
228	0xbe85e55d	-0.26151553
229	0x3d005bc5	0.03133752
230	0xbf023bf7	-0.5087275
231	0x3b897d8f	0.004195876
232	0x3ebbf8c1	0.36713222
233	0x3e67332e	0.22578117
234	0x3e68297b	0.22672074
235	0x3e7a8010	0.24462914
236	0xbe71a385	-0.23597534
237	0x3f0c99aa	0.5492197
238	0x3e8de453	0.2771326
239	0xbefbd6a7	-0.49187204
240	0x3f03da67	0.5150513
241	0x3dc1fcb0	0.094720244
242	0xbe665b08	-0.22495663
243	0x3d6c5b68	0.05770436
244	0xbe32bef1	-0.17455651
245	0xbdcc4354	-0.09973779
246	0x3eb05657	0.34440872
247	0x3e855672	0.26042515
248	0xbe621657	-0.22078834
249	0x3dcfa0a0	0.10138059
250	0xbe2f3ea7	-0.17113744
251	0xbf1a55b2	-0.6028701
252	0xbe154578	-0.14577281
253	0xbe8a2012	-0.26977593
254	0x3e20360d	0.15645619
255	0xbc16b282	-0.009197833

conv3.bias f4 [32]
0	0x3e6d9599	0.23201598
1	0x3e77fca8	0.24217474
2	0x3eec584c	0.46161115
3	0x3da4965f	0.080364935
4	0x3e2472e2	0.1605945
5	0x3dcb16a1	0.099164255
6	0xbfe236d0	-1.7672977
7	0x3e8a000a	0.26953155
8	0xbd2b5b12	-0.0418349
9	0xbecfe7fc	-0.40606678
10	0x3dc6d05f	0.097077124
11	0xbb1c99da	-0.0023895414
12	0x3f0e378a	0.55553496
13	0x3ebf2d34	0.37339175
14	0x3d537826	0.051628254
15	0x3ee192d1	0.44057325
16	0x3f26cee4	0.6515944
17	0x3e17f657	0.14840065
18	0x3e907fcd	0.28222504
19	0x3f186309	0.59526116
20	0x3f0584ff	0.5215606
21	0xbcbf651a	-0.023363639
22	0x3e6d6da7	0.2318636
23	0x3f64c527	0.8936333
24	0x3da2e29e	0.0795338
25	0x3fa38eda	1.277797
26	0x3ebe3510	0.37149858
27	0x3ef66528	0.4812405
28	0x3ec583f5	0.38577238
29	0x3e5d4e75	0.2161196
30	0xbe926664	-0.28593743
31	0xbf21bb93	-0.6317684

batch3.weight f4 [32]
0	0x3f4f84be	0.81061924
1	0x3f59dbfe	0.85101306
2	0x3f85c8cf	1.0451907
3	0x3f65e5da	0.8980385
4	0x3f3fe060	0.74951744
5	0x3f599594	0.84993863
6	0x3faf5669	1.3698245
7	0x3f4fcfe4	0.8117659
8	0x3f9630f5	1.173369
9	0x3f8de8f2	1.1086714
10	0x3f3fd6fa	0.74937403
11	0x3f38261d	0.71933156
12	0x3f683c22	0.90716755
13	0x3f8cc934	1.0998902
14	0x3f190be2	0.59783757
15	0x3f44820d	0.7676094
16	0x3f63831d	0.8887194
17	0x3f5ef436	0.87091386
18	0x3f3a2bbf	0.72723
19	0x3f596d7e	0.84932697
20	0x3f69dd63	0.91353434
21	0x3f76efff	0.96459955
22	0x3f33aa65	0.70181876
23	0x3fd7a6fd	1.6847836
24	0x3f4e5746	0.8060192
25	0x3f880966	1.0627868
26	0x3f74b7c2	0.9559289
27	0x3f7145e9	0.942473
28	0x3f3d6483	0.73981494
29	0x3f3ccaba	0.73746836
30	0x3f89cf73	1.0766433
31	0x3f891717	1.0710171

batch3.bias f4 [32]
0	0xbe8acb0f	-0.27108046
1	0xbe8a8a54	-0.2705866
2	0xbed129d7	-0.40852234
3	0xbee00f64	-0.43761742
4	0xbe81ee45	-0.25377098
5	0xbf28484c	-0.65735316
6	0xbf45174a	-0.7698866
7	0xbe471ec5	-0.19445331
8	0xbf52cb05	-0.82341033
9	0xbe88d2bc	-0.26723278
10	0xbef9012d	-0.4863371
11	0xbe2d95ba	-0.16951647
12	0xbe96e394	-0.29470503
13	0xbee10f7c	-0.43957126
14	0x3bac2d10	0.0052543953
15	0xbeafcdf1	-0.34336808
16	0xbeea7cc5	-0.45798317
17	0xbe9a7c0d	-0.30172768
18	0xbe921d75	-0.285381
19	0xbeb1907a	-0.3468054
20	0xbf22ccce	-0.6359376
21	0xbec6cc7a	-0.38827878
22	0xbe571580	-0.21004295
23	0xbf7a2d6e	-0.9772557
24	0xbf049c55	-0.51801044
25	0xbf1db0e4	-0.6159804
26	0xbe8fb481	-0.280674
27	0xbf16f8ca	-0.5897337
28	0xbe32cdf3	-0.17461376
29	0xbe83c5ca	-0.2573684
30	0xbe81cd9f	-0.2535219
31	0xbf719631	-0.943698

conv4.weight f4 [32, 32, 3, 3]
0	0xbdf71aa6	-0.1206563
1	0x38cdbba3	9.810112e-05
2	0xbc2245fb	-0.00990438
3	0xbde47cce	-0.11156617
4	0xbd5a1c9e	-0.053249948
5	0xbd44fe04	-0.04809381
6	0xbdb3bf1e	-0.08776687
7	0xbe193c33	-0.1496437
8	0x3de704f9	0.11280245
9	0x3d9b7565	0.075907506
10	0x3da575f8	0.080791414
11	0x3db7be72	0.089718714
12	0xbd0a0e56	-0.033705078
13	0xbdc62bc6	-0.09676318
14	0x3c2e7ab5	0.010649373
15	0x3d513eb4	0.05108519
16	0xbcf152d0	-0.029458433
17	0xbcb9e082	-0.022690061
18	0x3dd5edfe	0.10445784
19	0x3cc9aa49	0.024617331
20	0x3d66a694	0.056311205
21	0x3d6bbfb8	0.057555884
22	0x3c9b440c	0.018953346
23	0x3d700928	0.058602482
24	0x3cacb7a1	0.021083655
25	0xbd4b8df6	-0.04969593
26	0xbca3f5fc	-0.020014755
27	0xbe261cf1	-0.16221978
28	0xbc24646c	-0.010033708
29	0xbd18ab39	-0.037272666
30	0xbdf218e4	-0.11821154
31	0x3cb877b1	0.02251801
32	0xbd9f7a3a	-0.07786985
33	0xbe2aa2bf	-0.16663645
34	0xbc605c4b	-0.013693879
35	0x3d80a20f	0.0628091
36	0x3c1c0804	0.009523395
37	0x3df78679	0.120861955
38	0x3da47e6b	0.08031925
39	0x3df1d5c4	0.11808351
40	0x3e213bca	0.15745464
41	0x3d7d6405	0.061862964
42	0x3e149517	0.14509998
43	0x3d9cc84a	0.076553896
44	0x3ca3324b	0.019921442
45	0x3de963fc	0.11396024
46	0x3bce3a1d	0.0062935487
47	0x3d9f1003	0.07766726
48	0x3e06d604	0.13167578
49	0xbd0b2fe7	-0.03398123
50	0x3c5523f4	0.01300906
51	0x3dfe3525	0.1241248
52	0x3dd3c04b	0.10339411
53	0x3d0ededf	0.034880515
54	0x3b4049b2	0.00293408
55	0x3d887c25	0.06664304
56	0x3c803ff3	0.015655493
57	0x3d87b934	0.066271216
58	0xbd6f8f89	-0.058486495
59	0x3caa4fb3	0.020789957
60	0xbe59e90d	-0.21280308
61	0x3d245e50	0.040129006
62	0x3d639443	0.055561315
63	0x3d840f8c	0.06448278
64	0xbbc34707	-0.005959395
65	0x3ce85a16	0.028363269
66	0x3e1e448b	0.15455835
67	0xbd1161f8	-0.03549382
68	0xbcc897ff	-0.02448654
69	0x3ce12db7	0.027487619
70	0x3c60f11b	0.013729359
71	0x3d3a3db4	0.045469
72	0xbe0b661a	-0.13613167
73	0x3ddf45ad	0.109019615
74	0x3d64d75c	0.055869445
75	0xbe54320e	-0.2072222
76	0xbdf510df	-0.119661085
77	0x3dd7e115	0.10540978
78	0xbe3dbc10	-0.18528771
79	0xbd197958	-0.037469238
80	0xbd5e165d	-0.054220546
81	0xbed635e5	-0.41837993
82	0xba02d2da	-0.0004990526
83	0xba1c11b3	-0.0005953565
84	0xbebd9a33	-0.37031707
85	0xbbe07bb3	-0.0068506836
86	0x3c2fb900	0.01072526
87	0xbeca9de5	-0.3957359
88	0x3d551afb	0.052027684
89	0x3dd0e59f	0.10200047
90	0x3c4937fe	0.012281416
91	0x3c95c54c	0.018282555
92	0x3dc7210b	0.09723099
93	0x3c96a18f	0.018387584
94	0x3d1af9c5	0.037835855
95	0x3df0ec63	0.11763837
96	0xbd414eae	-0.047194175
97	0x3c981ecb	0.01856937
98	0x3e176998	0.14786375
99	0xbdb1c493	-0.08680072
100	0x3d325308	0.043536216
101	0x3d2b6a8c	0.041849658
102	0xbd032be4	-0.03202428
103	0xbd92b8e0	-0.07164168
104	0xbd0cb7ee	-0.034355097
105	0xbd87447a	-0.06604858
106	0x3d139a66	0.036035918
107	0x3da776e7	0.08176976
108	0x3d902c2a	0.070396736
109	0x3cec60a0	0.028854668
110	0xbc204452	-0.009781914
111	0x3be74693	0.0070579736
112	0x3c2e93eb	0.010655384
113	0xbd333c3d	-0.04375862
114	0x3db4f6b3	0.08836117
115	0x3c4caceb	0.012492399
116	0x3dabea5e	0.08394311
117	0x3d44856e	0.04797881
118	0x3e05d08e	0.13067839
119	0x3c9f4fe8	0.019447282
120	0x3e1f3caa	0.15550485
121	0x3e0c0d0a	0.13676849
122	0x3b86ad6a	0.004110028
123	0x3e29b901	0.1657448
124	0x3dbcd9c6	0.092212245
125	0x3ba67d89	0.005080883
126	0x3dd49126	0.10379247
127	0x3d90256d	0.070383884
128	0x3c3bbada	0.011458123
129	0x3dd3ea4a	0.103474215
130	0x3d4741ca	0.048646726
131	0xbd281e3f	-0.04104447
132	0x3e1753fc	0.14778131
133	0x3d63027c	0.05542229
134	0x3e0f1813	0.13974027
135	0x3d42662c	0.04746072
136	0x3d549674	0.051901296
137	0x3d8c56e6	0.06852512
138	0x3d723c20	0.05913937
139	0xbd809105	-0.0627766
140	0x3d86345a	0.06552954
141	0x3b002e44	0.0019558826
142	0x3ce137a7	0.027492357
143	0x3d0cdbb8	0.034389228
144	0x3d1f18c8	0.038841993
145	0x3d093760	0.033500075
146	0xbdbb981f	-0.09159874
147	0x3d96f6ec	0.07371315
148	0xbca6d8b1	-0.020366998
149	0xbca29d17	-0.019850297
150	0x3d5c1488	0.053730518
151	0x3d7997f3	0.060935926
152	0xbc38e831	-0.0112858275
153	0xbe40dcb6	-0.18834195
154	0x3d44a73a	0.048011042
155	0xbae1f7c0	-0.0017239973
156	0xbd83a993	-0.06428828
157	0x3c37287b	0.011179085
158	0xbd19b729	-0.03752819
159	0xbe263b0a	-0.16233459
160	0x3d5b255e	0.053502433
161	0x3d44ae34	0.048017696
162	0x3e1cb3a5	0.15302904
163	0x3d6e962e	0.05824869
164	0x3d931db4	0.071834
165	0x3dbd553f	0.09244775
166	0x3d8a71f3	0.06760015
167	0x3d7aa757	0.061194744
168	0x3e135af1	0.1439016
169	0x3d81e640	0.06342745
170	0x3da47f6a	0.08032115
171	0x3e115f7e	0.14196584
172	0x3d957ea4	0.072995454
173	0x3dd55b74	0.10417834
174	0x3de23b39	0.11046452
175	0x3dfa6d11	0.12227834
176	0x39769097	0.00023514252
177	0x3dcc278a	0.09968479
178	0x3d149ea6	0.03628411
179	0x3cf591c8	0.02997674
180	0x3dcd6d1f	0.10030579
181	0xbd1f6d5a	-0.038922645
182	0x3d8b9cbb	0.06817003
183	0x3e215925	0.15756662
184	0x3d8edaab	0.06975301
185	0x3d5aa083	0.053375732
186	0x3e237a80	0.15964699
187	0x3e2c471e	0.16824004
188	0x3b3bd60a	0.0028661513
189	0xbcd2c993	-0.025730884
190	0xbda7b7f1	-0.08189381
191	0x3d5091c1	0.05092025
192	0x3d3b2191	0.04568631
193	0xbdecbc11	-0.11559308
194	0x3d857702	0.065168396
195	0xbdd2b85b	-0.10289069
196	0x3d6dfbc6	0.058101438
197	0x3e033e6e	0.12816784
198	0xbd7ef608	-0.062246352
199	0x3ba39265	0.004991817
200	0x3bd7bfbf	0.006584137
201	0xbd23d0b4	-0.039993957
202	0x3da74090	0.08166611
203	0xbc382cd6	-0.0112411585
204	0x3cdf2623	0.027239865
205	0xbd514c0d	-0.05109792
206	0x3d36df54	0.044646576
207	0xbee2ada8	-0.44273114
208	0xbd84515b	-0.0646083
209	0xbc4d260c	-0.012521278
210	0xbee3c047	-0.44482633
211	0xbdac4cd0	-0.08413088
212	0x3e07009b	0.13183825
213	0xbed7d792	-0.42156655
214	0xbdb1ff25	-0.08691243
215	0x3d56ab7d	0.052409638
216	0x3d068741	0.032843832
217	0x3d098d2d	0.0335819
218	0x3d56cb2e	0.05243986
219	0x3d854b18	0.065084636
220	0xbd7b4dbc	-0.06135343
221	0xbd67fa92	-0.056635447
222	0x3d45c6bf	0.048285242
223	0xbdb722b5	-0.08942167
224	0x3d1386e4	0.036017314
225	0x3dad76a0	0.084698915
226	0x3db633f6	0.088966295
227	0x3deb6c76	0.11495297
228	0x3e021814	0.12704498
229	0xbd0c2043	-0.034210455
230	0x3e025557	0.12727867
231	0x3d9009f2	0.07033147
232	0x3d1dc48e	0.038517527
233	0x3c244bd7	0.010027847
234	0xbe84dd68	-0.2595017
235	0x3dc423d2	0.09577145
236	0x3db36e2f	0.0876125
237	0xbe437f4f	-0.19091533
238	0x3defb919	0.117052265
239	0x3c86d29d	0.01645785
240	0xbe753ffa	-0.23950186
241	0xbae4c497	-0.0017453608
242	0x3ce15428	0.02750595
243	0x3df79df4	0.12090674
244	0xbcec5046	-0.028846871
245	0xbce8e97a	-0.028431643
246	0x3d47bae5	0.04876222
247	0x3c4eef57	0.012630305
248	0xbd548c47	-0.05189159
249	0x3da1a69b	0.078931056
250	0x3d4acd9e	0.049512498
251	0x3d31ac50	0.04337722
252	0xbd3e1526	-0.046406887
253	0xbd7d595c	-0.061852798
254	0x3d32486b	0.043526094
255	0x3dad1200	0.08450699

conv4.bias f4 [32]
0	0xbc7d5a98	-0.015463494
1	0x3f596655	0.8492177
2	0x3cfd887e	0.030948874
3	0x3c39e0af	0.011345073
4	0x3eb95ed1	0.36205152
5	0xbc418606	-0.011811739
6	0x3e9d3f39	0.30712298
7	0xbd0de2f5	-0.03464027
8	0xbc837185	-0.016045341
9	0x3c922861	0.01784152
10	0x3edffb93	0.43746623
11	0x3e61384b	0.2199413
12	0x3e9f5352	0.31118256
13	0x3ecfd49f	0.40591905
14	0x3e131627	0.14363919
15	0x3daef9c4	0.08543733
16	0x3ec51b55	0.38497415
17	0xbb8316ae	-0.0040005064
18	0x3c77747e	0.0151034575
19	0x3d446aa6	0.04795327
20	0x3eb0cbab	0.34530386
21	0x3e5079f1	0.20359017
22	0x3d94eae3	0.072713636
23	0xbd1b8c9b	-0.03797589
24	0x3d56ed68	0.052472502
25	0x3f494378	0.78618574
26	0xbd4d0a4b	-0.050058644
27	0x3d4eda47	0.050501134
28	0x3d4a99f7	0.04946324
29	0x3cf6b192	0.030113969
30	0x3ed01317	0.40639564
31	0x3cd802d6	0.02636854

batch4.weight f4 [32]
0	0x3ea192ac	0.31557214
1	0x40b0b757	5.5223804
2	0x3f607e01	0.87692267
3	0x3eb9b5d0	0.36271524
4	0x407eb7fe	3.97998
5	0x3ecf3345	0.40468803
6	0x4074794a	3.819903
7	0x3ec30c4f	0.38095328
8	0x3ee7b0a8	0.45251966
9	0x3f8bf503	1.0934147
10	0x40980183	4.7501845
11	0x40462038	3.0957165
12	0x40461b35	3.0954106
13	0x408719a4	4.22188
14	0x40457e51	3.0858347
15	0x3fdba32c	1.7159171
16	0x409a4065	4.8203607
17	0x3e9ec254	0.31007636
18	0x3eb8f5d5	0.36125055
19	0x3e973ffc	0.29541004
20	0x40611e3f	3.517471
21	0x40685d7c	3.6307058
22	0x4047091a	3.1099305
23	0x3ec31e3b	0.38109002
24	0x3f503cd4	0.81342816
25	0x4042935e	3.0402446
26	0x3ed9f8e7	0.4257271
27	0x3f3d96a2	0.7405797
28	0x3ec5e71e	0.3865289
29	0x3fb905c1	1.4454881
30	0x4076af24	3.8544397
31	0x3f7dd43c	0.9915197

batch4.bias f4 [32]
0	0xbf2d5159	-0.6770225
1	0xc082d911	-4.0889974
2	0xbfa2a9e5	-1.2708098
3	0xbf204361	-0.6260281
4	0xc02072ef	-2.507015
5	0xbf50a95d	-0.8150843
6	0xc04dcfe2	-3.2158132
7	0xbf2d8a77	-0.67789406
8	0xbf4c3745	-0.79771835
9	0xbfbda720	-1.4816628
10	0xc03e1dd6	-2.970571
11	0xbff34edd	-1.9008442
12	0xc01ac8e7	-2.418512
13	0xc0358c24	-2.8366785
14	0xc00e82dc	-2.226737
15	0xbff753df	-1.932247
16	0xc010abb6	-2.2604804
17	0xbf2ca6d1	-0.6744204
18	0xbf30c806	-0.6905521
19	0xbf2ab224	-0.6667807
20	0xc0284800	-2.6293945
21	0xc004a2fe	-2.0724483
22	0xbfd92708	-1.6965036
23	0xbf382926	-0.7193779
24	0xbfab6932	-1.3391478
25	0xbf93a264	-1.1533933
26	0xbf586a79	-0.84537464
27	0xbf8b4a13	-1.0881981
28	0xbf38f1d3	-0.72243994
29	0xc0053099	-2.0810912
30	0xc0671e90	-3.6112404
31	0xbfc669a7	-1.5500993

lin1.weight f4 [5, 800]
0	0xbd111d44	-0.0354283
1	0x3c11d142	0.008899989
2	0xbc907040	-0.01763165
3	0xbc1ff7b9	-0.0097636515
4	0xbc0a5687	-0.008443481
5	0xbcd1fa70	-0.025632113
6	0xbc504ab1	-0.01271312
7	0x3cbbf666	0.02294464
8	0x3ac19f43	0.0014772195
9	0xbca42c78	-0.020040736
10	0xbe0c2354	-0.13685352
11	0xbc59e2df	-0.013298719
12	0x3d30e237	0.043184485
13	0xbd7afe2c	-0.061277553
14	0xbca311c7	-0.019905938
15	0x3bec3928	0.007208962
16	0xbd96827e	-0.07349108
17	0x3c6b7b11	0.014372603
18	0xbd4fc30d	-0.050723124
19	0x3b286231	0.0025693292
20	0xbc7f2b5c	-0.0155743025
21	0x3cf2c32d	0.029634083
22	0xbca77205	-0.020440111
23	0x3c2fc230	0.01072745
24	0x3c459056	0.012058338
25	0x3b91bd1f	0.004447594
26	0xbc79d21c	-0.015247848
27	0xb9f540ec	-0.00046778412
28	0xbb8b2958	-0.004246872
29	0x3c88149a	0.016611386
30	0x3c30b37b	0.010784979
31	0xbbd2faf5	-0.006438608
32	0x3ae84360	0.0017720275
33	0xbbe39ce6	-0.006946194
34	0x3c3b54dc	0.011433806
35	0x3b0c8afe	0.002144515
36	0xbbd857aa	-0.0066022472
37	0xbc6cb05b	-0.014446343
38	0x3c00ec74	0.007868875
39	0xbb942ddc	-0.0045220684
40	0xbcc447de	-0.02396005
41	0xbc059c08	-0.0081548765
42	0xbc2de0bf	-0.010612666
43	0xbc977c34	-0.018491842
44	0x3bdc5382	0.006723822
45	0x3ae39665	0.0017363547
46	0x3b202406	0.0024435534
47	0xbb832105	-0.004001739
48	0xbb8f3412	-0.004370221
49	0xbc2a8015	-0.010406514
50	0x3d46194d	0.048363972
51	0x3ce7587c	0.028240435
52	0x3d2d259b	0.04227219
53	0x3d139eda	0.036040165
54	0x3cd966d0	0.026538283
55	0x3cd2dc34	0.025739767
56	0xbe4978bb	-0.19674961
57	0xbe3a75fa	-0.18209067
58	0xbe523511	-0.20528056
59	0x3d8e943f	0.069618694
60	0xbe7f0855	-0.24905522
61	0xbe354c0e	-0.17704794
62	0xbda90dda	-0.08254595
63	0xbdd001d4	-0.10156599
64	0xbdb1c47c	-0.086800545
65	0xbe6b0c83	-0.22953992
66	0xbb9ed2e9	-0.00484692
67	0xbe2af1e0	-0.1669383
68	0xbdf021c2	-0.11725189
69	0x3bc21f96	0.0059241755
70	0xbd50b9c9	-0.05095843
71	0xbdead952	-0.11467232
72	0xbe10aa2d	-0.14127417
73	0xbe3685fa	-0.17824546
74	0xbe0e01b9	-0.13867845
75	0xbd3ef9eb	-0.04662506
76	0x3bb98803	0.005661966
77	0xbbf9a3b7	-0.0076183933
78	0x3c208e3c	0.009799536
79	0x3c286ba9	0.010279574
80	0xbcafd23f	-0.021462558
81	0xbd82a830	-0.063797355
82	0xbc6396b9	-0.013890916
83	0xbd88b8e9	-0.06675894
84	0xbdbbcf27	-0.091703705
85	0x3d13a120	0.036042333
86	0x3bd52f88	0.0065059103
87	0x3d6dac85	0.058025856
88	0xbccededf	-0.025252758
89	0xbde6db5c	-0.11272308
90	0xbd078660	-0.033087134
91	0xbcc2e940	-0.023792863
92	0x3b059ca4	0.0020387555
93	0x3cb2bddc	0.021819048
94	0xbbedbca3	-0.0072551533
95	0x3c259dd1	0.010108427
96	0xbb4e647a	-0.0031492994
97	0xbcad19a1	-0.021130385
98	0x3c84408c	0.01614406
99	0x3d5dbe80	0.054136753
100	0x3c87a393	0.01655749
101	0xbbca362f	-0.00617101
102	0xbb0d9fc4	-0.002161012
103	0xbc3bfe40	-0.011474192
104	0x3c2f6549	0.010705301
105	0x3c9bd262	0.019021217
106	0x3a7a8269	0.0009556176
107	0xbc86a4b4	-0.016435958
108	0xbc147622	-0.009061368
109	0xbcd29de6	-0.025710057
110	0x3c6f6db5	0.014613559
111	0xbb23e37f	-0.0025007424
112	0xbc91a09d	-0.017776782
113	0xbc284819	-0.010271096
114	0xbbb7517e	-0.0055944314
115	0x3c9aa4ef	0.018877475
116	0xbc8cdbee	-0.017194714
117	0xb894bf20	-7.09279e-05
118	0x3bc3f169	0.005979706
119	0xbbea9aca	-0.0071595656
120	0x3b168b07	0.002297105
121	0xbc1cbdf2	-0.009566771
122	0xbbd0a807	-0.0063676867
123	0xbc02729a	-0.007961893
124	0xbcce6829	-0.025196152
125	0x3ce3d803	0.027812963
126	0xbc57724e	-0.013149811
127	0xbd9d9e22	-0.07696177
128	0xbcb29ffb	-0.0218048
129	0xbbf29f18	-0.0074042194
130	0xbd0c1dfe	-0.03420829
131	0xbe0b521c	-0.13605541
132	0x3cb31dee	0.021864858
133	0xbdb06ff6	-0.08615105
134	0xbcc16f99	-0.023612784
135	0xbb3dc4c7	-0.00289564
136	0xbd4460f3	-0.04794402
137	0xb9cdefd3	-0.0003927933
138	0xbd6d82c4	-0.057986036
139	0xbdef1714	-0.11674324
140	0x3bf0d307	0.007349375
141	0x3cff86c9	0.0311922
142	0x3dfbf34b	0.12302264
143	0xbd35b114	-0.044358328
144	0xbd04138d	-0.032245208
145	0x3c998777	0.018741352
146	0x3d47a83c	0.048744425
147	0x3d60e9e4	0.054910555
148	0xbd1d50c7	-0.038407113
149	0xbd090bfd	-0.0334587
150	0x3d06fce1	0.032956008
151	0xbb5aa34a	-0.0033361488
152	0x3c65a6b7	0.014016799
153	0xbc16965e	-0.009191124
154	0x3d271828	0.04079452
155	0xbb0ab620	-0.0021165684
156	0xbbccc9b4	-0.006249631
157	0x378dead6	1.6917864e-05
158	0x3c15ed05	0.009150748
159	0xba204a68	-0.0006114603
160	0x3c772cd6	0.015086373
161	0xbbec63bd	-0.007214038
162	0xbbb211aa	-0.0054342346
163	0xbba4da64	-0.005030917
164	0xbaebcbd3	-0.0017989821
165	0xbc3cd3a0	-0.011525065
166	0xbbea7ca0	-0.0071559697
167	0x3bd63e15	0.0065381625
168	0xbc31ec81	-0.01085961
169	0x3c18e6f1	0.0093324045
170	0x3d38ec98	0.04514751
171	0xbc13e18a	-0.009025941
172	0x3bd8662b	0.0066039762
173	0xbbc496be	-0.005999415
174	0xbc5f1634	-0.0136161335
175	0xbcceb679	-0.025233494
176	0xbaa52104	-0.001259834
177	0xbc2a88ee	-0.010408623
178	0x3c1fb755	0.0097483
179	0xbc4573da	-0.012051547
180	0x3b52d15d	0.0032168247
181	0x3b998cb8	0.0046859644
182	0x3bbf3068	0.005834628
183	0x3b4f7e7b	0.0031661082
184	0xbc8e1d40	-0.017347932
185	0xbc616cfd	-0.013758895
186	0x3cc78f79	0.024360405
187	0xbbd28b05	-0.006425264
188	0x3c26f541	0.010190309
189	0x3c632616	0.013864061
190	0x3ce02f68	0.027366355
191	0x3b8235c2	0.0039736936
192	0xbcbfc46e	-0.023409095
193	0xbc8e6dea	-0.017386395
194	0x3c3a05b5	0.0113539
195	0xbc0ac9a3	-0.0084709255
196	0xbba1a9ee	-0.0049335873
197	0x3c3d88aa	0.011568228
198	0x3b2c745f	0.002631448
199	0xbb9dd0aa	-0.0048161345
200	0xbd006268	-0.031343848
201	0xbb4cefc1	-0.0031270834
202	0xbc128603	-0.008943084
203	0xbba68e48	-0.005082879
204	0xbd2cf427	-0.04222503
205	0x3d0b634d	0.034030247
206	0xba2e32c4	-0.0006645138
207	0x3b9f7102	0.0048657665
208	0xbbccf701	-0.006255031
209	0xbbd4ee02	-0.0064980993
210	0x3d59f3ae	0.053210907
211	0x3cc9b9a4	0.024624653
212	0xbc8967c5	-0.016773114
213	0xbc807cab	-0.015684446
214	0x3bc03762	0.005865977
215	0xbd42838b	-0.04748873
216	0x3d467d50	0.04845935
217	0xba0be4c4	-0.0005336518
218	0x3c8058ba	0.015667308
219	0x3d4a1038	0.049331874
220	0xbd1253a9	-0.035724316
221	0xbac103f1	-0.0014725906
222	0xbc1d11e3	-0.009586784
223	0x3c6ebfed	0.014572126
224	0xbc154ebc	-0.00911301
225	0x3d6a1d8b	0.05715708
226	0x3dd17416	0.1022722
227	0xbe1e0640	-0.15432072
228	0xbe96cb3b	-0.29451928
229	0xbd3125a6	-0.043248795
230	0x3d267eba	0.0406482
231	0x3a79acd5	0.000952435
232	0x3cb78936	0.022404294
233	0x3caa4215	0.020783463
234	0xbd546895	-0.05185755
235	0xbdb9f7b3	-0.09080448
236	0xbe095a64	-0.13413388
237	0x3e099991	0.13437487
238	0xbe38a183	-0.18030362
239	0xbe200882	-0.15628245
240	0x3d6a7d6a	0.05724851
241	0xbd29662e	-0.04135721
242	0x3dac46b6	0.084119245
243	0xbe48d655	-0.19613011
244	0xbd9653b0	-0.07340181
245	0x3b7107da	0.0036778362
246	0xbd4565b3	-0.04819269
247	0xbc87c519	-0.016573476
248	0xbe1eb5cd	-0.15499039
249	0x3d199a31	0.037500564
250	0x3af7dde2	0.0018910731
251	0x3c134b31	0.008990095
252	0xbc7bb486	-0.015362864
253	0xba6f7f79	-0.00091361214
254	0xbc8bbefd	-0.017058844
255	0x3b7acac3	0.0038267828

lin1.bias f4 [5]
0	0xbcc6c8dc	-0.0242657
1	0xbcd9786c	-0.02654668
2	0x3ba19507	0.0049310955
3	0xbcc14949	-0.023594515
4	0xbcaafce1	-0.020872535
