results_auto/01_domain_adaptation/maml_supervised/June_14/officehome_maml_order_2_seed_0_shots_1_ways_5_meta-lr_0.0001_test-domain_Clipart_dropout_0.1_RandAugment-prob_0.5_pre-train-wts_datetime_13_06_2021_17_41_38/intermediate_21000_model.pt (torch, 412181 bytes, 54 tensors)

conv1.weight f4 [32, 3, 3, 3]
0	0x3ee4d7b1	0.4469581
1	0x3da3106d	0.07962117
2	0xbe030916	-0.12796435
3	0xbd657809	-0.056022678
4	0xbe3dc445	-0.18531902
5	0xbe301c6a	-0.17198339
6	0x3e151cc2	0.14561751
7	0x3d686cda	0.056744434
8	0xbe1a9568	-0.15096056
9	0x3cc0390c	0.023464702
10	0xbe53a1ac	-0.20667142
11	0x3d74e55f	0.059789058
12	0xbeb10d25	-0.3458034
13	0xbe1964dc	-0.14979881
14	0xbcf79104	-0.030220516
15	0xbc451eff	-0.012031316
16	0x3df35f13	0.11883368
17	0x3e89255f	0.26786324
18	0xbf52cd4a	-0.82344496
19	0xbee87346	-0.45400447
20	0x3e230927	0.1592146
21	0xbe930892	-0.28717476
22	0x3d9cc698	0.07655066
23	0x3f0bfac5	0.5467952
24	0xbe12e5ba	-0.14345446
25	0x3eaa2466	0.33230895
26	0x3f4829d8	0.7818885
27	0x3d484729	0.04889599
28	0x3d248e73	0.040174913
29	0x3ec9d7b9	0.39422396
30	0xbe1e4ebd	-0.15459724
31	0x3e68d69a	0.22738114
32	0x3ec65da5	0.3874332
33	0xbefdccd3	-0.4957033
34	0xbef04e26	-0.46934623
35	0xbd9b071b	-0.07569715
36	0xbe214d52	-0.15752152
37	0x3e56a0c7	0.20959769
38	0x3eb0dd4d	0.3454384
39	0xbe6e5c97	-0.23277508
40	0xbd56913d	-0.052384604
41	0x3e206cb9	0.15666474
42	0xbef5061d	-0.47856227
43	0xbf0a8fb8	-0.5412555
44	0xbe664fa2	-0.22491315
45	0x3d4a138a	0.04933504
46	0x3e941d6a	0.2892869
47	0x3eeea5e5	0.46610942
48	0xbe8963e8	-0.26834035
49	0xbc19b91b	-0.0093825115
50	0x3eb7ac7d	0.35873786
51	0xbcd08f53	-0.025458967
52	0xbe076f57	-0.13226067
53	0x3ce05020	0.027381957
54	0x3ec54f38	0.38537002
55	0x3de71ad5	0.11284415
56	0x3e913dd3	0.2836748
57	0xbe8b9119	-0.27259138
58	0xbe92027c	-0.2851752
59	0xbebca789	-0.3684657
60	0xbd4238d3	-0.047417473
61	0xbd2d92b2	-0.042376228
62	0xbdd6c6af	-0.10487115
63	0x3ebdaf95	0.3704802
64	0x3ea77f6f	0.32714412
65	0x3e10334d	0.1408207
66	0xbc00bb16	-0.007857105
67	0xbcb89cb9	-0.022535669
68	0xbe226b88	-0.15861332
69	0x3d149b80	0.03628111
70	0xbe9d7333	-0.30751953
71	0xbe2451d0	-0.16046834
72	0x3eedcce3	0.4644538
73	0x3ef1153b	0.4708651
74	0x3f0b0d51	0.54317194
75	0x3e1ef579	0.15523328
76	0xbd17d46a	-0.03706781
77	0xbeb49bf9	-0.35275248
78	0xbe89b882	-0.2689858
79	0xbee930a3	-0.4554492
80	0xbebf61b5	-0.37379232
81	0x3f05c1dd	0.52248937
82	0x3ec6deae	0.38841766
83	0xbd329b0b	-0.04360489
84	0xbdf0e961	-0.117632635
85	0xbeb2d0c6	-0.34924906
86	0xbed29f24	-0.4113704
87	0x3db37dfd	0.08764265
88	0x3e41ff25	0.18944986
89	0xbd88290f	-0.06648456
90	0x3ee0cf6f	0.4390826
91	0x3ef0e8be	0.47052568
92	0x3ee02a5a	0.43782312
93	0xbe5a4fde	-0.2131953
94	0xbf03a07c	-0.51416755
95	0xbef7610d	-0.4831623
96	0x3dcb069e	0.099133715
97	0x3def8fb0	0.11697328
98	0xbe06723c	-0.13129514
99	0x3c9270c4	0.017876036
100	0x3ed30d4b	0.4122108
101	0x3f0139a1	0.5047856
102	0xbeeebfc1	-0.46630672
103	0xbec1e101	-0.37866977
104	0xbeae9097	-0.34094688
105	0xbdafc596	-0.085826084
106	0xbd4af095	-0.049545843
107	0x3d813f15	0.0631086
108	0xbbeb87c8	-0.0071878172
109	0x3db58293	0.08862796
110	0xbd8e4d28	-0.0694831
111	0x3e137b8a	0.14402595
112	0xbdd94dbb	-0.10610529
113	0x3e2c3872	0.16818407
114	0x3cc7a4ab	0.024370512
115	0xbe8bf74a	-0.27337104
116	0xbe26da4f	-0.16294216
117	0x3e292eed	0.16521807
118	0x3ea39b2d	0.31954327
119	0x3e202f92	0.15643147
120	0x3e387236	0.18012318
121	0x3e307842	0.17233375
122	0xbd3cbf79	-0.04608104
123	0xbe07c7e7	-0.1325985
124	0xbe9fca6b	-0.3120912
125	0xbe9e107c	-0.30871952
126	0xbf830f64	-1.0239072
127	0x3e0c39c7	0.13693915
128	0xbe18e8c3	-0.14932542
129	0xbf575c59	-0.84125286
130	0x3ea37bf2	0.319305
131	0x3cbfd320	0.023416102
132	0xbfc57152	-1.5425208
133	0x3e558ba8	0.20854056
134	0xbe7e2f62	-0.24822763
135	0xbe922ee0	-0.28551388
136	0xbd9a890b	-0.0754567
137	0xbe66dee6	-0.22545967
138	0x3d8aa212	0.06769194
139	0x3e59f7ad	0.21285887
140	0x3e8fbce4	0.280738
141	0x3ec7efad	0.39050046
142	0x3f1ebabe	0.62003696
143	0x3e5c2768	0.21499407
144	0xbeed51af	-0.46351382
145	0xbe00d16f	-0.12579893
146	0x3bf41b54	0.007449547
147	0xbec955c4	-0.39323246
148	0xbecaa71b	-0.39580616
149	0xbe9d24aa	-0.30692035
150	0xbf0c0bb8	-0.5470538
151	0xbea9f8c5	-0.3319761
152	0xbe904fc0	-0.28185844
153	0x3ec15298	0.37758327
154	0x3f000611	0.50009257
155	0xbc6df5a6	-0.014523899
156	0x3e8261d5	0.25465265
157	0x3c9f9a3b	0.019482723
158	0x3ddb5fa4	0.107116014
159	0xbd66e7ef	-0.056373533
160	0x3dcc04ec	0.09961876
161	0xbd96772d	-0.0734695
162	0xbf232033	-0.6372101
163	0xbe9ab47f	-0.30215833
164	0xbe31c5a2	-0.17360547
165	0xbd95fc8a	-0.07323559
166	0x3ddea829	0.10871918
167	0x3e41c65f	0.18923329
168	0x3d07f1e4	0.03318967
169	0x3eeb3e2c	0.4594587
170	0x3f04e61a	0.5191361
171	0xbed60aeb	-0.41805205
172	0x3e416dce	0.18889543
173	0xb9342f81	-0.00017183834
174	0xbeb4fce6	-0.35349196
175	0x3e840578	0.25785422
176	0xbccf98b4	-0.02534137
177	0xbe6b297e	-0.22965047
178	0x3ead87bc	0.3389262
179	0xbe188069	-0.14892735
180	0x3e2f965c	0.17147201
181	0x3ec99587	0.39371893
182	0x3edadeb7	0.42748043
183	0xbd2f5f77	-0.04281565
184	0x3e75bd97	0.23998104
185	0x3d5ec95d	0.054391254
186	0xbed341d2	-0.41261154
187	0xbe049308	-0.12946713
188	0xbed7e9fe	-0.4217071
189	0x3d85962b	0.06522783
190	0x3ec0393b	0.37543663
191	0x3e4c163d	0.19930358
192	0xbf1b9a79	-0.6078258
193	0xbe5d6b66	-0.21623
194	0xbf1006ad	-0.56260186
195	0x3d7281c8	0.0592058
196	0x3e77dc3c	0.24205106
197	0x3e72c5af	0.23708223
198	0xbe2660f7	-0.16247927
199	0x3e845130	0.2584319
200	0x3d2e362f	0.042532142
201	0xbec4b5e6	-0.38420027
202	0xbeb1f4e9	-0.34757164
203	0xbf1d47fc	-0.61437964
204	0x3e178709	0.14797606
205	0x3f287c59	0.6581474
206	0x3e3d2a04	0.18473059
207	0x3e2e00c0	0.16992474
208	0x3e646c68	0.22306979
209	0x3d385a92	0.04500825
210	0xbea75b79	-0.32686976
211	0xbe869ea2	-0.26292902
212	0xbeb9478c	-0.36187398
213	0x3e97a804	0.29620373
214	0x3ed8ad21	0.42319587
215	0x3e84c3f9	0.25930765
216	0xbe2f4ff2	-0.1712034
217	0xbedf7e7f	-0.43651196
218	0x3f1c9cca	0.6117674
219	0xbeca4270	-0.39503813
220	0xbe8c192d	-0.27362958
221	0x3f1117df	0.5667705
222	0xbe0390e4	-0.1284824
223	0xbe4b1fc4	-0.19836336
224	0x3d82787f	0.06370639
225	0x3e83a185	0.25709167
226	0xbf0463c1	-0.5171471
227	0x3def34a5	0.11679963
228	0xbb094c91	-0.0020950178
229	0xbe4d0204	-0.200203
230	0x3e4a42b8	0.19752014
231	0x3e8ab616	0.27092046
232	0xbcd53563	-0.026026433
233	0x3ea8185a	0.3283108
234	0x3e9c1109	0.30481747
235	0xbeccbddb	-0.39988598
236	0x3e94e360	0.29079723
237	0xbe422103	-0.18957905
238	0xbe9c9c4b	-0.30587992
239	0x3e2ee98b	0.17081277
240	0x3d3aada4	0.045575753
241	0xbd0debd4	-0.03464873
242	0xbd608b9f	-0.054820653
243	0x3eb33dfc	0.35008228
244	0x3eb9389f	0.3617601
245	0xbe054c23	-0.13017325
246	0x3f04b3d4	0.51836896
247	0x3db0e152	0.086367264
248	0xbd877812	-0.066146985
249	0x3ea454e0	0.32096004
250	0xbcabea8c	-0.020985864
251	0x3c333e52	0.010940151
252	0x3e960112	0.29297692
253	0xbdb8ca3e	-0.0902295
254	0xbe8e6376	-0.27810258
255	0xbd51eb38	-0.051249713

conv1.bias f4 [32]
0	0xbd9948c7	-0.07484584
1	0xbfc87204	-1.5659795
2	0x3d0c9e1f	0.034330484
3	0xbe77a387	-0.24183474
4	0xbf391096	-0.72290933
5	0xc0daab9a	-6.8334475
6	0xbc929a9f	-0.017895995
7	0xbd3c3fdd	-0.045959342
8	0xbe92c637	-0.2866685
9	0x3e73ada4	0.23796707
10	0xbe9d1976	-0.30683488
11	0xbd0ec57c	-0.034856305
12	0x3f5df921	0.86708266
13	0xbfd302e3	-1.6485256
14	0xbe4996e5	-0.19686468
15	0xbdeee592	-0.11664881
16	0xbcb85fe2	-0.022506658
17	0xbe96c9f3	-0.2945095
18	0xbe6c7a1c	-0.23093456
19	0xc062b8a7	-3.5425203
20	0x3f7f9456	0.9983572
21	0x3d5cd1f4	0.053911164
22	0x3db40dda	0.087917045
23	0x3e160f60	0.14654303
24	0xc124bd13	-10.296161
25	0x3e7507a2	0.23928693
26	0xbe18fc12	-0.14939907
27	0xbda699b6	-0.08134787
28	0x3e83c37d	0.25735083
29	0xbef22349	-0.47292545
30	0xc02b7a59	-2.6793425
31	0x3da9514c	0.08267459

batch1.weight f4 [32]
0	0x3fa2acb7	1.2708958
1	0x3f814856	1.01002
2	0x3f377304	0.71659875
3	0x3f99fd75	1.2030474
4	0x3f6fc13b	0.9365422
5	0x3f42abe4	0.76043534
6	0x3f8a9ced	1.082914
7	0x3f882d4b	1.0638822
8	0x3f51abdd	0.8190287
9	0x3f837aad	1.0271813
10	0x3fa55a52	1.2918189
11	0x3f4e4e25	0.8058799
12	0x3f726802	0.94689953
13	0x3f17a018	0.5922866
14	0x3ee61442	0.4493733
15	0x3f6f7f31	0.93553454
16	0x3f3a3c14	0.7274792
17	0x3f8c905f	1.0981559
18	0x3fa007bf	1.2502364
19	0x3f267173	0.6501686
20	0x3f511b1a	0.8168198
21	0x3f75ca4c	0.96011806
22	0x3f7296fc	0.94761634
23	0x3f9df570	1.2340527
24	0x3f4dd558	0.8040366
25	0x3f8bafe1	1.0913049
26	0x3fb99cfc	1.4501033
27	0x3f71358c	0.9422233
28	0x3fb1c6ab	1.3888754
29	0x3f099d91	0.5375605
30	0x3f2d0c26	0.6759666
31	0x3f09ae26	0.53781354

batch1.bias f4 [32]
0	0x3f40c158	0.7529502
1	0xbf33f0a4	-0.70289063
2	0x3f728b68	0.9474397
3	0x3ded8de6	0.115993306
4	0xbf063cdb	-0.5243661
5	0x3e97d607	0.29655477
6	0x3fc0f29d	1.507404
7	0x3f452127	0.7700371
8	0x4031a97b	2.7759693
9	0x3da7236a	0.081610516
10	0x3f81969d	1.0124089
11	0xbef3e93d	-0.47638884
12	0xbddfa5ce	-0.109202966
13	0xbe30eb29	-0.17277206
14	0x3d079003	0.033096325
15	0xbf00aeb9	-0.50266606
16	0x3c90b950	0.017666489
17	0xbd95db34	-0.073172
18	0xbf25b98b	-0.6473624
19	0xbe7d116d	-0.24713679
20	0xbccb77e0	-0.024837434
21	0x3e207e1d	0.15673108
22	0x3dd85b64	0.105643064
23	0x3e021ad9	0.12705554
24	0x3e94324e	0.2894463
25	0xbd085839	-0.03328726
26	0x3e30e25c	0.17273849
27	0x3d9b47fd	0.0758209
28	0xbd580d26	-0.052746914
29	0x3de89645	0.11356787
30	0x3fc973f5	1.5738512
31	0xbd817945	-0.063219585

conv2.weight f4 [32, 32, 3, 3]
0	0xbe436760	-0.19082403
1	0x3db6cb55	0.08925501
2	0xbcf55a54	-0.029950298
3	0xbe44070e	-0.19143316
4	0x3e72e0e5	0.23718603
5	0x3ed17792	0.40911537
6	0x3c9612f6	0.018319588
7	0x3e23bddb	0.15990393
8	0x3dd8e14d	0.10589848
9	0x3d925219	0.07144565
10	0xbe9309cc	-0.28718412
11	0xbd08e42f	-0.033420738
12	0x3d4670ad	0.0484473
13	0xbd066766	-0.032813452
14	0x3f044f04	0.5168307
15	0xbe9f3d0f	-0.31101272
16	0xbe8bba53	-0.27290592
17	0x3de5c517	0.112192325
18	0xbf25a49a	-0.6470429
19	0xbf327d78	-0.697227
20	0xbf0e4a27	-0.555819
21	0xbee4903f	-0.446413
22	0xbe3f7d9c	-0.1870026
23	0xbf5f199a	-0.8714844
24	0x3da43536	0.08017962
25	0x3d8f9c99	0.070122905
26	0x3e95a827	0.29229853
27	0x3e82b784	0.25530636
28	0xbb9c0a30	-0.0047619566
29	0xbeda78da	-0.42670327
30	0xbe0fb124	-0.14032418
31	0xbe013f3c	-0.12621778
32	0xbf4d38bd	-0.801647
33	0x3d825c48	0.063652575
34	0xbe3d3a90	-0.18479371
35	0xbeb414df	-0.35172173
36	0x3e804345	0.25051323
37	0x3df4c403	0.11951449
38	0x3bbb0e66	0.0057085035
39	0x3e82f95d	0.25580874
40	0x3dd50932	0.104021445
41	0x3ca7d93c	0.020489328
42	0x3d6d0751	0.057868306
43	0xbe2beac2	-0.16788772
44	0xbd867e57	-0.06567066
45	0xbe6685d3	-0.22511987
46	0xbe95771b	-0.29192433
47	0xbe4fbe97	-0.20287548
48	0xbd9cbf46	-0.0765367
49	0xbda94dd5	-0.082667984
50	0x3dba7c78	0.09105772
51	0x3e12b595	0.1432708
52	0x3ca26d63	0.01982755
53	0x3e0565ec	0.13027161
54	0xbd4cf590	-0.050038874
55	0xbe8f52c0	-0.2799282
56	0xbe4424e8	-0.19154704
57	0x3d43f628	0.047842175
58	0xbd558285	-0.052126426
59	0x3c5659d7	0.013082943
60	0x3e58c29d	0.21167989
61	0xbdbc7e2a	-0.092037514
62	0x3e82739c	0.25478828
63	0x3d98227d	0.07428453
64	0xbbeb9140	-0.007188946
65	0xbe6a3fe8	-0.22875941
66	0x3e0de50b	0.13856904
67	0x3d48d1ea	0.049028315
68	0xbe178eac	-0.14800519
69	0x3c56244f	0.01307018
70	0x3e3d5f10	0.18493295
71	0xbdb643fa	-0.08899684
72	0xbe3d56c3	-0.18490128
73	0x3e17a05a	0.14807263
74	0x3e8dbc30	0.27682638
75	0xbe7b7d12	-0.2455943
76	0x3e3651bc	0.17804617
77	0x3ed4108d	0.41418877
78	0xbeef415a	-0.46729547
79	0xbe254820	-0.16140795
80	0x3c94efe3	0.018180793
81	0xbe8b44d0	-0.27200937
82	0xbf45fb69	-0.77336746
83	0xbeb69b00	-0.3566513
84	0xbef5b4ba	-0.47989446
85	0xbeb0e872	-0.34552342
86	0x3e4ba7cb	0.19888227
87	0xbdffb5af	-0.12485825
88	0xbd4e4e4f	-0.05036765
89	0x3ee48d7b	0.4463919
90	0xbe441031	-0.19146802
91	0xbe0287ef	-0.12747167
92	0x3dd4089f	0.10353207
93	0xbe3f5e46	-0.18688306
94	0x3e51d94e	0.20493051
95	0x3e1fdc89	0.15611471
96	0xbddd2718	-0.10798472
97	0xbeea4f5f	-0.4576368
98	0xbeae7822	-0.3407603
99	0xbf09ec29	-0.53875977
100	0xbdde5d7f	-0.10857677
101	0xbe5b9029	-0.21441711
102	0xbeb529ec	-0.35383546
103	0x3eb6dde9	0.3571618
104	0x3dd09ffe	0.10186766
105	0xbea08e23	-0.31358442
106	0x3ee12f39	0.4398134
107	0x3e70ba0e	0.23508474
108	0xbe19ab4e	-0.15006754
109	0xbe0ae9f1	-0.13565804
110	0xbe6b28fe	-0.22964856
111	0x3ec38191	0.3818479
112	0x3ee7d315	0.4527823
113	0x3b6e1729	0.0036329722
114	0xbe8c92db	-0.27455792
115	0xbd032aef	-0.032023367
116	0x3e946d2c	0.28989542
117	0x3cfb0db2	0.030646179
118	0xbdc43881	-0.0958109
119	0xbca75f24	-0.020431109
120	0x3d8fdbe2	0.07024361
121	0xbdf6f0f1	-0.12057675
122	0xbe9b56fa	-0.30339795
123	0x3e13529d	0.14386983
124	0x3c8b1eba	0.016982425
125	0xbebf0352	-0.3730722
126	0xbefe500b	-0.49670443
127	0xbef8dde3	-0.48606786
128	0xbe5ff0a1	-0.21869136
129	0xbd57ad7f	-0.052655693
130	0xbdc671ee	-0.09689699
131	0x3e724354	0.23658496
132	0x3e2affd4	0.16699153
133	0x3e81650f	0.25272414
134	0x3f02a3d2	0.5103122
135	0x3e021ab9	0.12705506
136	0xbef079a8	-0.46967816
137	0xbdd12bb1	-0.102134116
138	0x3e9f263b	0.31083855
139	0x3d093306	0.033495925
140	0xbd385cb4	-0.045010284
141	0xbd746a15	-0.05967148
142	0xbec7c9ff	-0.39021298
143	0xbe994dfd	-0.29942313
144	0xbf12252d	-0.57087976
145	0xbe025096	-0.12726054
146	0xbeae99a0	-0.34101582
147	0x3d1e7245	0.038683195
148	0x3f06ee27	0.5270714
149	0x3e3b8ed8	0.1831621
150	0xbd86376d	-0.065535404
151	0x3e849d5a	0.259013
152	0x3e5e523e	0.2171106
153	0x3e58eac2	0.21183303
154	0xbcd46786	-0.02592827
155	0x3ec0cfa5	0.3765842
156	0xbc9a66df	-0.01884788
157	0xbd101b87	-0.035182502
158	0xbdb54550	-0.08851111
159	0xbe861b11	-0.26192525
160	0xbe5fbadf	-0.2184863
161	0xbe97b676	-0.29631394
162	0xbcc7523d	-0.024331206
163	0xbe988098	-0.2978561
164	0xbe28ca1a	-0.16483346
165	0x3e3364a7	0.17518865
166	0xbd5df55f	-0.054189082
167	0x3e8a14cb	0.2696899
168	0x3f038d7b	0.5138776
169	0xbc25613f	-0.010093986
170	0x3ea2eb67	0.31820223
171	0x3e421ea9	0.18957008
172	0xbed07755	-0.40716043
173	0x3d482c5f	0.04887044
174	0x3e119354	0.14216357
175	0x3d95a70d	0.07307253
176	0xbb1abc11	-0.0023610631
177	0xbccc01d3	-0.024903214
178	0x3d9c27a2	0.07624747
179	0xbe76f698	-0.24117506
180	0xbc1d0ef3	-0.009586084
181	0xbe3950d2	-0.18097237
182	0xbe369265	-0.17829283
183	0x3c561383	0.013066175
184	0x3e6e2503	0.23256306
185	0x3e1f2dac	0.15544766
186	0x3ca47d62	0.020079318
187	0x3e46aac7	0.19401084
188	0x3dd4e608	0.103954375
189	0x3e1a1ac5	0.15049274
190	0x3da305c4	0.07960084
191	0x3c9def31	0.019279094
192	0xbeeafd7d	-0.4589652
193	0xbe6400af	-0.22265886
194	0xbe649971	-0.22324158
195	0xbe703ebb	-0.2346143
196	0x3c652bb8	0.013987474
197	0x3e2f959c	0.17146915
198	0xbe9a83c2	-0.30178648
199	0xbf376e49	-0.71652657
200	0xbe879fb6	-0.26489037
201	0xbf06894a	-0.52553236
202	0xbb705fe1	-0.0036678242
203	0x3e9c7ea9	0.30565384
204	0xbb3475c3	-0.0027536012
205	0x3e41fe4a	0.1894466
206	0x3f327a1f	0.6971759
207	0xbe7404fa	-0.23830023
208	0xbecbc3ef	-0.39797923
209	0x3e8125c4	0.25224125
210	0xbe3efc17	-0.18650852
211	0xbd5aa253	-0.05337746
212	0x3e0c4935	0.13699801
213	0xbda47c10	-0.080314755
214	0xbda8dace	-0.08244859
215	0x3d8db384	0.069190055
216	0xbea81e6b	-0.32835707
217	0xbe015bdc	-0.12632698
218	0x3df950af	0.12173592
219	0xbdba5e26	-0.09099989
220	0x3dfef10d	0.124483205
221	0x3ef135ab	0.47111258
222	0xbeb2ba82	-0.3490792
223	0xbdc0ad2b	-0.09408029
224	0xbc22af72	-0.009929525
225	0x3dc038ee	0.093858585
226	0xbe7dcbbe	-0.24784753
227	0xbefbf0c7	-0.49207136
228	0xbe351215	-0.17682679
229	0xbdfa8e17	-0.12234133
230	0xbf508ea2	-0.8146764
231	0xbd59b9a0	-0.05315554
232	0x3d992bfb	0.07479092
233	0x3d77c9b1	0.060495082
234	0x3e1a9a51	0.1509793
235	0xbd8064b7	-0.0626921
236	0xbe9ae476	-0.30252427
237	0x3e2cef1e	0.16888091
238	0x3d839baa	0.06426175
239	0x3c2815af	0.010259076
240	0xbea59161	-0.32337478
241	0xbe49d774	-0.19711095
242	0xbf042ced	-0.5163105
243	0x3e041e3e	0.12902161
244	0x3e995258	0.29945636
245	0x3e00acb1	0.12565877
246	0xbde13773	-0.10996904
247	0x3df611ef	0.12015139
248	0x3b862baa	0.0040945606
249	0xbe1e133b	-0.15437023
250	0x3e17b568	0.14815295
251	0x3c88c968	0.0166976
252	0xbe65a507	-0.22426234
253	0xbf005900	-0.50135803
254	0x3d8192c6	0.06326823
255	0xbc83811b	-0.016052773

conv2.bias f4 [32]
0	0x3dc8fb41	0.09813548
1	0x3e141aa8	0.14463294
2	0x3e044e37	0.12920462
3	0x3e140205	0.14453895
4	0x3d86dc3f	0.06584977
5	0x3dbd72eb	0.092504345
6	0xbfb162bc	-1.3858256
7	0xbd0a47fa	-0.03376005
8	0x3ebd43e5	0.36965862
9	0xbeab1524	-0.33414567
10	0x3e84918c	0.25892293
11	0xbe15fe5c	-0.14647812
12	0xbd570793	-0.052497458
13	0x3e327ae3	0.1742969
14	0x3d5bc1f8	0.05365178
15	0xbdbad39a	-0.09122391
16	0xbd844236	-0.06457941
17	0xbe30a8c1	-0.17251875
18	0xbd79fbba	-0.06103108
19	0xbdcdbd00	-0.100458145
20	0xbd3d6be0	-0.046245456
21	0x3d2ac330	0.04169005
22	0x3e07d0c9	0.13263239
23	0x3d1569c8	0.036477834
24	0x3ea35f72	0.31908756
25	0x3b133d4c	0.0022466956
26	0x3bcf066d	0.0063179047
27	0xbe093656	-0.13399634
28	0xbf10f581	-0.5662461
29	0x3eae0c06	0.33993548
30	0xbd37e85b	-0.044899326
31	0x3ec51a8f	0.38496825

batch2.weight f4 [32]
0	0x3f51c3b9	0.81939274
1	0x3f84b796	1.0368526
2	0x3fb85192	1.4399893
3	0x3f983424	1.1890912
4	0x3f7d86d7	0.99033874
5	0x3f975ee5	1.1825835
6	0x3f991324	1.1958966
7	0x3f34641d	0.7046526
8	0x3f94b8cf	1.1618899
9	0x3f627ea8	0.8847451
10	0x3f9480fc	1.1601863
11	0x3f61c8a8	0.881968
12	0x3f144f0f	0.57933134
13	0x3fb03cb6	1.3768528
14	0x3f8442c6	1.0332878
15	0x3fa5fc57	1.2967633
16	0x3f4f0d81	0.8087998
17	0x3f5574b0	0.83381176
18	0x3f64457f	0.8916854
19	0x3f436f9f	0.76342195
20	0x3f95567c	1.1667018
21	0x3f8b920c	1.0903945
22	0x3f970668	1.179883
23	0x3f8dbd51	1.10734
24	0x3f7c51ee	0.98562515
25	0x3f3a9897	0.72889084
26	0x3f48f233	0.78494567
27	0x3f1ba4d9	0.6079841
28	0x3f9084d8	1.1290541
29	0x3f80fce8	1.0077181
30	0x3f725bf4	0.9467156
31	0x3f54c0c2	0.83106625

batch2.bias f4 [32]
0	0x3cfb140b	0.030649206
1	0xbefd62e5	-0.49489513
2	0xbe8ab3d5	-0.27090326
3	0xbf03ff54	-0.51561475
4	0xbeb002fb	-0.34377274
5	0xbf1d3b09	-0.61418205
6	0xbecd3ce9	-0.40085533
7	0xbe1ccac2	-0.15311721
8	0xbf06890a	-0.52552855
9	0xbea684bb	-0.3252314
10	0xbf027f9e	-0.5097598
11	0xbec48af6	-0.3838727
12	0xbc6dfc4c	-0.014525484
13	0xbeb06423	-0.34451398
14	0xbee8f83b	-0.45501885
15	0xbf0963d7	-0.5366797
16	0xbeb8e509	-0.3611224
17	0xbee87664	-0.45402825
18	0xbef5d82c	-0.4801649
19	0x3ce64ec0	0.028113723
20	0xbee5d684	-0.44890225
21	0xbea22bb2	-0.31673962
22	0xbf0ec06b	-0.55762357
23	0xbe98c5cb	-0.29838404
24	0xbf073de9	-0.5282884
25	0xbe848ba0	-0.25887775
26	0xbe493f3c	-0.19653028
27	0xbe97c06b	-0.2963899
28	0xbe1754df	-0.1477847
29	0xbeb4947b	-0.35269532
30	0xbe95241d	-0.29129115
31	0xbf019d0b	-0.50630254

conv3.weight f4 [32, 32, 3, 3]
0	0x3ecdc6b0	0.4019065
1	0x3ee6bde6	0.45066756
2	0x3cc62d9f	0.024191676
3	0xbe7a1bfa	-0.24424735
4	0xbcb23215	-0.021752397
5	0x3e73d081	0.23810007
6	0xbead234b	-0.3381599
7	0xbeb6b69c	-0.35686195
8	0xbbae9b3f	-0.0053285654
9	0x3e2ec5a1	0.17067577
10	0x3ddb1bfe	0.106986985
11	0xbec95fb5	-0.3933083
12	0xbdc3e0f0	-0.09564388
13	0xbde198a1	-0.1101544
14	0x3e15de9a	0.14635697
15	0x3e9cccc4	0.30624974
16	0x3e8cab10	0.2747426
17	0xbebcf553	-0.36905918
18	0xbb669666	-0.003518486
19	0xbd4af0f5	-0.0495462
20	0xbee1c48b	-0.44095263
21	0x3e52f0fc	0.2059974
22	0x3ddf810e	0.10913287
23	0xbe64b56b	-0.2233483
24	0x3df565dd	0.119823195
25	0x3d69b5f3	0.057058286
26	0xbe4813ce	-0.19538805
27	0xbe97c102	-0.2963944
28	0xbea3edbe	-0.3201732
29	0x3ed3c39c	0.41360176
30	0x3dc05559	0.09391279
31	0xbe015685	-0.12630661
32	0x3f017ead	0.50583917
33	0xbe72f7a3	-0.23727278
34	0x3d771243	0.06032015
35	0x3eb3fb6d	0.3515276
36	0x3ea13724	0.3148738
37	0x3f178941	0.5919381
38	0x3e1c860a	0.15285507
39	0x3d96fe04	0.073726684
40	0x3e3253b8	0.17414749
41	0xbc32433f	-0.0108802905
42	0x3b8b43d0	0.0042500272
43	0x3cd3c80e	0.02585223
44	0x3c38bbc1	0.011275233
45	0x3ea40c62	0.32040697
46	0x3ea03fe1	0.31298736
47	0x3e2a473c	0.16628736
48	0x3ddd6e7e	0.1081209
49	0x3eb82730	0.35967398
50	0x3e697172	0.22797182
51	0xbedcaca3	-0.4310046
52	0xbd971ef7	-0.07378953
53	0xbe91c683	-0.28471765
54	0x3eb0b000	0.34509277
55	0x3c91ed09	0.017813222
56	0xbe8cc6a8	-0.27495313
57	0x3e113e7a	0.14183989
58	0xbdc87cb5	-0.09789411
59	0xbcb5a0aa	-0.022171337
60	0x3e6b7fa4	0.2299791
61	0x3eacd479	0.33755854
62	0x3df2c09d	0.11853144
63	0xbe791dae	-0.24327728
64	0xbec0cc51	-0.3765588
65	0xbf1e33dd	-0.6179789
66	0x3e67a050	0.22619748
67	0xbe9a680a	-0.301575
68	0xbeb8dc56	-0.36105603
69	0xbe029655	-0.1275266
70	0xbde81081	-0.11331273
71	0xbda1bac8	-0.07896954
72	0x3e80bf9d	0.2514619
73	0xbd1ba1f1	-0.037996236
74	0xbe8f24d7	-0.27957794
75	0x3cd2069e	0.025637921
76	0x3d712c15	0.05887993
77	0x3e80d221	0.25160316
78	0xbd0c3f72	-0.034240194
79	0xbd1c254a	-0.0381215
80	0x3e5b339d	0.21406408
81	0xbf5c9796	-0.861688
82	0xbda194b8	-0.07889694
83	0x3e9ba792	0.30401284
84	0xbf258539	-0.64656407
85	0xbec0b2e0	-0.3763647
86	0x3e4baf8c	0.19891185
87	0xbe25dbd0	-0.16197133
88	0x3c61de1a	0.013785863
89	0x3df80191	0.12109674
90	0xbdf93cbc	-0.12169787
91	0xbefc52d0	-0.4928193
92	0x3eab1b9c	0.33419502
93	0xbdff0255	-0.12451617
94	0x3d3e35f4	0.046438172
95	0x3e736e28	0.2377249
96	0xbe417f3c	-0.18896192
97	0xbde9aee5	-0.114103116
98	0xbd9f22dd	-0.077703215
99	0xbc82ee0c	-0.01598265
100	0x3cb1fda5	0.021727392
101	0x3e820bfd	0.2539977
102	0x3e8ed39f	0.2789583
103	0xbdcb2ae4	-0.0992029
104	0xbdd39fc0	-0.10333204
105	0x3da80e16	0.08205812
106	0x3e834b7e	0.25643533
107	0xbe5904bc	-0.21193212
108	0xbdcda35c	-0.10040924
109	0xbdaf7d44	-0.085688144
110	0xbed19288	-0.40932107
111	0xbe52e1d0	-0.20593953
112	0xbd44900b	-0.047988933
113	0xbebb7e28	-0.36619687
114	0xbea25c22	-0.31710917
115	0x3cfce6c1	0.03087175
116	0xbe8b4db3	-0.27207717
117	0xbceb814e	-0.02874818
118	0xbd1889a3	-0.037240636
119	0xbd53bfd9	-0.051696632
120	0x3e873f48	0.26415467
121	0x3d8035f9	0.062602945
122	0xbe5a3816	-0.21310458
123	0x3c83d3a2	0.016092125
124	0x3d8abc28	0.06774169
125	0xbed856be	-0.4225368
126	0xbe66e526	-0.2254835
127	0xbe9970eb	-0.29968962
128	0xbf37dc36	-0.7182039
129	0xbd1c2bab	-0.038127583
130	0xbdb3f016	-0.08786027
131	0x3d8b0a4c	0.06789073
132	0xbdaa8a9a	-0.083272174
133	0x3dda3062	0.106537595
134	0xbe1c42b4	-0.1525982
135	0x3ea61e58	0.32445025
136	0xbc9964ef	-0.018724887
137	0xbe86a7b6	-0.26299828
138	0x3e671f6b	0.22570579
139	0xbe322d62	-0.17400125
140	0xbf189d5e	-0.59615123
141	0xbdc32260	-0.09528041
142	0x3ea579d5	0.32319513
143	0xbecb7042	-0.39734083
144	0x3e534997	0.20633541
145	0x3d4a9398	0.049457163
146	0xbf17a8f5	-0.5924218
147	0xbb29659b	-0.0025847915
148	0xbd035dc3	-0.03207184
149	0xbc4164c7	-0.011803812
150	0xbe1966d1	-0.14980628
151	0xbe459f4a	-0.19299045
152	0xbe542f48	-0.20721161
153	0x3bb17ed9	0.0054167327
154	0xbe8efea1	-0.2792864
155	0x3ea9e10d	0.33179513
156	0x3e7567ad	0.2396533
157	0x3e20e106	0.1571084
158	0x3e30b449	0.17256273
159	0xbe1ccefa	-0.1531333
160	0x3dc09d26	0.09404974
161	0x3e08c071	0.1335466
162	0x3cd75bae	0.026288833
163	0x3e1007be	0.14065453
164	0x3e95e0ab	0.2927297
165	0xbde4faff	-0.11180686
166	0xbda62aa1	-0.081135996
167	0xbe4347fd	-0.1907043
168	0x3e0798dd	0.13241906
169	0xbebe4615	-0.37162843
170	0xbeb87be5	-0.36032024
171	0xbe9b8bbd	-0.3038005
172	0x3d33d15c	0.043900833
173	0xbd535a5c	-0.051599845
174	0xbeb141b5	-0.34620443
175	0x3d9c7158	0.07638806
176	0xbe6659f7	-0.22495256
177	0xbea2c9b5	-0.31794515
178	0xbeacfff3	-0.33789024
179	0xbd919440	-0.071083546
180	0xbe09a327	-0.13441144
181	0x3e0fcacf	0.14042209
182	0x3ef2fbb9	0.47457674
183	0x3e73eaf8	0.23820102
184	0x3da2d903	0.07951548
185	0x3e4a1341	0.19733907
186	0x3e71c623	0.2361074
187	0x3e082e99	0.13299026
188	0x3d51defb	0.05123804
189	0x3e82f548	0.2557776
190	0x3d7cb79b	0.061698537
191	0x3d41c9d9	0.047311638
192	0x3ea0f1bb	0.31434426
193	0xbeaf4810	-0.34234667
194	0xbe8b3a17	-0.27192757
195	0xbd833c4f	-0.06407987
196	0x3c2d3f5f	0.010574191
197	0x3caa58b4	0.02079425
198	0x3e9a5853	0.3014551
199	0x3de60d89	0.112330504
200	0xbeaa78fc	-0.3329543
201	0x3ea0e4aa	0.31424457
202	0x3ece138d	0.4024929
203	0x3dc3dc28	0.09563476
204	0x3b5c3322	0.0033599813
205	0x3e5f7fb9	0.21826066
206	0xbdcc04bf	-0.09961843
207	0x3e8385fc	0.2568816
208	0xbd6d2100	-0.0578928
209	0xbe67c2de	-0.2263293
210	0xbeb20e46	-0.34776515
211	0xbdd10294	-0.1020557
212	0x3d56459b	0.052312475
213	0xbf0093bd	-0.5022543
214	0x3cf37d3d	0.029722804
215	0x3e871516	0.26383275
216	0x3e497554	0.19673663
217	0xbc3e3263	-0.011608693
218	0xbf8729e6	-1.0559661
219	0x3e296972	0.1654413
220	0xbea9e96f	-0.33185908
221	0xbe61bcc2	-0.22044662
222	0xbd00ec26	-0.03147521
223	0xbed85934	-0.42255557
224	0xbe9f68cf	-0.3113465
225	0x3d17407f	0.036926743
226	0xbd9c3947	-0.07628112
227	0xbf0b2605	-0.5435489
228	0xbe88b8fa	-0.26703626
229	0x3d618813	0.05506141
230	0xbf07d264	-0.53055406
231	0x3cbfda1e	0.023419436
232	0x3ec56a3b	0.3855761
233	0x3e3cd5b5	0.18440898
234	0x3e43a30b	0.19105165
235	0x3e540087	0.20703326
236	0xbe90240c	-0.28152502
237	0x3f103b79	0.5634075
238	0x3e8709e2	0.26374727
239	0xbf02a6f2	-0.5103599
240	0x3ef64d15	0.48105684
241	0x3da1e204	0.07904437
242	0xbe67fd58	-0.22655237
243	0x3d5c937c	0.05385159
244	0xbe0f258f	-0.13979171
245	0xbd9a98a0	-0.07548642
246	0x3ea59f14	0.3234793
247	0x3e825abc	0.2545985
248	0xbe626248	-0.22107804
249	0x3dbc7559	0.0920207
250	0xbdff3265	-0.12460784
251	0xbf1cc405	-0.612366
252	0xbe5aefe2	-0.2138057
253	0xbe89c05a	-0.26904565
254	0x3e4abff4	0.19799787
255	0xbd237b7b	-0.039912682

conv3.bias f4 [32]
0	0x3e6df420	0.23237658
1	0x3e7a6739	0.24453439
2	0x3eec9275	0.46205488
3	0x3da6a1ae	0.08136307
4	0x3e25c483	0.16188245
5	0x3dcd1c7b	0.10015198
6	0xbfe26d19	-1.7689544
7	0x3e8976fa	0.26848584
8	0xbd2eae1a	-0.042646505
9	0xbecf9d6c	-0.4054979
10	0x3dcc82ac	0.09985861
11	0xbadddb96	-0.0016926404
12	0x3f0e93ad	0.55694085
13	0x3ec06338	0.37575698
14	0x3d5b812f	0.053589996
15	0x3ee3c7c1	0.44488338
16	0x3f27b607	0.65512127
17	0x3e15a9f5	0.14615615
18	0x3e905998	0.28193355
19	0x3f184d74	0.59493184
20	0x3f05842f	0.5215482
21	0xbcc8ecb2	-0.024526928
22	0x3e6cec36	0.23136982
23	0x3f64745b	0.89240044
24	0x3da2f738	0.079573095
25	0x3fa3af2f	1.2787837
26	0x3ebdf518	0.37101054
27	0x3ef6933e	0.48159212
28	0x3ec62df6	0.3870694
29	0x3e5e442f	0.21705697
30	0xbe9252c2	-0.28578764
31	0xbf227684	-0.6346209

batch3.weight f4 [32]
0	0x3f4da492	0.8032924
1	0x3f599a99	0.8500152
2	0x3f84ead4	1.0384164
3	0x3f66c710	0.90147495
4	0x3f3cc1b2	0.73733056
5	0x3f58045b	0.84381646
6	0x3fafbcab	1.3729452
7	0x3f4b8023	0.79492396
8	0x3f96bc3c	1.1776195
9	0x3f8a6736	1.0812747
10	0x3f435bb8	0.76311827
11	0x3f385e82	0.7201921
12	0x3f69ec6d	0.9137638
13	0x3f8dfdb6	1.1093051
14	0x3f18beb6	0.59666
15	0x3f458d5c	0.7716882
16	0x3f651a03	0.89492816
17	0x3f5db999	0.86611325
18	0x3f3bac55	0.7330983
19	0x3f5aa539	0.8540836
20	0x3f69bcc8	0.9130368
21	0x3f762510	0.961503
22	0x3f373f3f	0.7158088
23	0x3fd38f54	1.6528115
24	0x3f525aba	0.8216969
25	0x3f89c836	1.0764225
26	0x3f73ec7b	0.95282716
27	0x3f755743	0.95836276
28	0x3f407437	0.7517733
29	0x3f3ed151	0.7453814
30	0x3f899332	1.0748045
31	0x3f85e080	1.0459137

batch3.bias f4 [32]
0	0xbe95a929	-0.2923062
1	0xbe8e2a6f	-0.2776675
2	0xbed1096a	-0.40827495
3	0xbeee7f3e	-0.46581453
4	0xbe802015	-0.25024477
5	0xbf2cb81f	-0.67468446
6	0xbf3f8ff5	-0.74829036
7	0xbe61eb86	-0.22062501
8	0xbf567728	-0.8377557
9	0xbe92af16	-0.28649205
10	0xbef84c1c	-0.48495567
11	0xbe23d4a9	-0.15999092
12	0xbea1674d	-0.31524125
13	0xbedfe2d0	-0.43727732
14	0x3bcd6e0d	0.0062692226
15	0xbeb110ff	-0.3458328
16	0xbee6699f	-0.45002457
17	0xbe9a6ad5	-0.3015963
18	0xbea03f9c	-0.3129853
19	0xbeaf8e61	-0.34288314
20	0xbf21743f	-0.63068
21	0xbec940a2	-0.39307123
22	0xbe56e7af	-0.20986818
23	0xbf7e0287	-0.99222606
24	0xbf04a925	-0.51820594
25	0xbf1f5eea	-0.622542
26	0xbe90c9e8	-0.28279042
27	0xbf1aacb7	-0.6041979
28	0xbe32cdd0	-0.17461324
29	0xbe8b7f23	-0.27245435
30	0xbe7e60aa	-0.24841562
31	0xbf6a0d12	-0.91426194

conv4.weight f4 [32, 32, 3, 3]
0	0xbdf3ff7c	-0.11913964
1	0x3a1a00a8	0.00058747316
2	0xbc6091c9	-0.013706633
3	0xbde0f59b	-0.109843455
4	0xbd377ba8	-0.044795662
5	0xbd624ded	-0.055250097
6	0xbdaa8859	-0.083267875
7	0xbe0b0b63	-0.13578562
8	0x3dc635da	0.0967824
9	0x3d9ca0a2	0.07647826
10	0x3dbe6fb0	0.092986465
11	0x3db97967	0.09056359
12	0xbcdb2cb7	-0.02675472
13	0xbdbb6695	-0.09150425
14	0x3c8e5ae7	0.01737733
15	0x3d716d09	0.058941875
16	0xbd0ee785	-0.034888763
17	0xbc9d3ac7	-0.019193066
18	0x3ddcecd1	0.10787357
19	0x3c482d9d	0.012217906
20	0x3d601265	0.054705042
21	0x3d34703e	0.044052355
22	0x3cfd87c9	0.030948536
23	0x3d55cc68	0.05219689
24	0x3c977dbd	0.018492574
25	0xbd2ffc24	-0.04296507
26	0xbca45c8f	-0.020063667
27	0xbe233242	-0.1593714
28	0xbb6df3a6	-0.0036308556
29	0xbd0e309a	-0.03471432
30	0xbdf517c5	-0.11967424
31	0x3c598dc1	0.013278426
32	0xbda8d7da	-0.082442954
33	0xbe317b8b	-0.17332284
34	0xbc052718	-0.008126996
35	0x3d529ceb	0.05141918
36	0x3a685481	0.000886269
37	0x3de0fc84	0.109856635
38	0x3d9e3141	0.07724238
39	0x3e05bec7	0.13061057
40	0x3e21f84c	0.15817374
41	0x3d391780	0.045188427
42	0x3e18243d	0.14857574
43	0x3da64053	0.081177376
44	0x3cecf027	0.028923107
45	0x3deeef3c	0.11666724
46	0xbb8b7687	-0.004256073
47	0x3d9b1fff	0.07574462
48	0x3e05fb63	0.13084178
49	0xbd180033	-0.037109565
50	0xba658022	-0.000875475
51	0x3e01daef	0.12681173
52	0x3de84530	0.113413215
53	0x3d400799	0.046882246
54	0xbc5a059e	-0.013307003
55	0x3d76986d	0.06020396
56	0x3c7e7ce3	0.015532705
57	0x3d7ac719	0.06122503
58	0xbd6995da	-0.057027675
59	0x3c8f51c7	0.01749505
60	0xbe66ac8a	-0.22526756
61	0x3d24c63e	0.04022812
62	0x3d65bc72	0.05608792
63	0x3d6c467b	0.057684403
64	0xbc98b1d1	-0.018639477
65	0x3cb596ed	0.022166694
66	0x3e24082f	0.16018747
67	0xbd23ad96	-0.039960466
68	0xbd26af9e	-0.040694825
69	0x3d091433	0.03346653
70	0x3c324659	0.01088103
71	0x3d3d40b3	0.04620428
72	0xbe09cd17	-0.13457142
73	0x3de9ceaa	0.11416371
74	0x3d7e1d11	0.06203944
75	0xbe4e0088	-0.2011739
76	0xbdf73e67	-0.12072449
77	0x3dcdd38f	0.10050117
78	0xbe3cd5af	-0.18440889
79	0xbcf63202	-0.030053142
80	0xbd8a59c1	-0.067554004
81	0xbed63630	-0.41838217
82	0x39b4551b	0.00034395684
83	0xbc63cda7	-0.013904012
84	0xbec20288	-0.37892556
85	0xbc094a00	-0.008379459
86	0x3c66fbbb	0.014098103
87	0xbecb21a5	-0.39674106
88	0x3d6d98d2	0.05800707
89	0x3db7fd79	0.08983893
90	0x3c6e1102	0.014530422
91	0x3ca30d05	0.01990367
92	0x3dd83ba9	0.10558254
93	0x3c25d2da	0.010121072
94	0x3d405446	0.04695537
95	0x3de37d40	0.11107874
96	0xbd429879	-0.04750869
97	0x3cfd0b38	0.030889139
98	0x3e22a895	0.15884621
99	0xbd9a30e5	-0.07528857
100	0x3cdbc283	0.026826149
101	0x3d32dd1f	0.04366791
102	0xbcb9ab1a	-0.022664595
103	0xbd976c1b	-0.07393666
104	0xbce2fec2	-0.027709369
105	0xbd8db2c6	-0.06918864
106	0x3ce9383b	0.028469196
107	0x3dc0ec58	0.09420079
108	0x3d6abe60	0.057310462
109	0x3cb32975	0.021870354
110	0xbc879ab1	-0.016553255
111	0xbbb5b566	-0.005545306
112	0x3c043457	0.008069119
113	0xbd45cfe7	-0.048293974
114	0x3dbd39fc	0.09239575
115	0x3ce7404b	0.0282289
116	0x3dc665d9	0.09687395
117	0x3d3dde15	0.046354372
118	0x3df718e2	0.12065293
119	0x3c2db90e	0.0106032025
120	0x3e26d853	0.16293459
121	0x3e12b850	0.14328122
122	0x3b3266c1	0.002722189
123	0x3e2d8ab2	0.1694744
124	0x3dc3068b	0.09522732
125	0x3bff24ab	0.0077863536
126	0x3da75747	0.08170944
127	0x3d52ae1e	0.051435582
128	0x3c28672e	0.010278506
129	0x3dbe7cea	0.09301169
130	0x3d3baf14	0.045821264
131	0xbd275b18	-0.04085836
132	0x3e108d17	0.14116322
133	0x3d655c39	0.055996154
134	0x3e160334	0.1464966
135	0x3d4664b0	0.048435867
136	0x3d3278b6	0.04357215
137	0x3d9cc0bb	0.07653948
138	0x3d5920b6	0.05300971
139	0xbd862648	-0.0655027
140	0x3d957349	0.072973795
141	0x3c482a34	0.012217093
142	0x3d1adb23	0.03780664
143	0x3d025966	0.03182354
144	0x3d015930	0.031579196
145	0x3d1d9ce2	0.038479693
146	0xbdb86a54	-0.090046555
147	0x3d9d9e63	0.076962255
148	0xbcec2d6a	-0.028830249
149	0xbcdfaf3b	-0.027305236
150	0x3d371eda	0.044707157
151	0x3d7c0e6c	0.06153719
152	0xbc0309e4	-0.007997964
153	0xbe4b4f62	-0.19854501
154	0x3d5f943d	0.05458473
155	0xbad0f961	-0.0015943461
156	0xbda48682	-0.08033468
157	0x3c697971	0.014250145
158	0xbd25f4d4	-0.04051669
159	0xbe2a1568	-0.16609728
160	0x3d6de296	0.058077417
161	0x3d225426	0.03963103
162	0x3e1b2fd5	0.15154965
163	0x3d6b020e	0.057375006
164	0x3db2d9c2	0.0873294
165	0x3db3165b	0.08744498
166	0x3d72a707	0.05924132
167	0x3d949b23	0.072561525
168	0x3e1bf5ed	0.15230532
169	0x3d9ae4ca	0.07563169
170	0x3da68b03	0.08131983
171	0x3e110c32	0.14164808
172	0x3d515fd2	0.051116772
173	0x3dc60911	0.09669698
174	0x3de89389	0.11356265
175	0x3e02803e	0.12744233
176	0xbc8d6bfe	-0.017263409
177	0x3dd9a9c1	0.10628081
178	0x3d312089	0.04324392
179	0x3d21338f	0.03935581
180	0x3dbb36a9	0.09141285
181	0xbd448153	-0.047974896
182	0x3d8d6d7e	0.069056496
183	0x3e157908	0.14596951
184	0x3dbd029b	0.092290126
185	0x3d66cbb7	0.05634662
186	0x3e18c90e	0.14920446
187	0x3e3380d2	0.1752961
188	0x3b469103	0.0030298836
189	0xbd10cbc0	-0.03535056
190	0xbdc32528	-0.09528571
191	0x3d48198f	0.0488525
192	0x3d06d5a1	0.032918576
193	0xbdf98796	-0.12184064
194	0x3d5d69af	0.054055866
195	0xbdfd5185	-0.12369064
196	0x3d4748c1	0.048653368
197	0x3de8b3a5	0.113623895
198	0xbd659372	-0.056048818
199	0x3c7f651d	0.015588072
200	0xb9debe19	-0.00042484773
201	0xbd14e208	-0.036348373
202	0x3dae164e	0.08500348
203	0xbc758035	-0.01498418
204	0x3d0631e5	0.032762427
205	0xbd604a57	-0.054758396
206	0x3d3efac6	0.046625875
207	0xbee51251	-0.44740537
208	0xbd52e549	-0.051488195
209	0xbc88d837	-0.016704662
210	0xbee1e6b5	-0.44121328
211	0xbd9a465c	-0.07532951
212	0x3e0a2577	0.13490854
213	0xbed93d5b	-0.42429623
214	0xbd91ce2e	-0.07119404
215	0x3d7208fa	0.059090592
216	0x3c959618	0.018260047
217	0x3d1235a5	0.03569569
218	0x3d4ee7d6	0.050514065
219	0x3d4f6bec	0.05064003
220	0xbd98df05	-0.074644126
221	0xbd394ea7	-0.045241024
222	0x3d352a95	0.044230063
223	0xbdb9f362	-0.09079625
224	0x3d052da8	0.032514244
225	0x3db471b8	0.08810753
226	0x3dc0b25a	0.09409018
227	0x3dd53040	0.104095936
228	0x3df6e491	0.12055314
229	0xbd04bc84	-0.032406345
230	0x3e035c1b	0.12828104
231	0x3d897878	0.06712431
232	0x3d2bfa2c	0.04198663
233	0x3c124c05	0.008929257
234	0xbe8950a2	-0.2681933
235	0x3dd8c7ec	0.10585007
236	0x3dba1d28	0.09087592
237	0xbe4ad2c1	-0.19806959
238	0x3dda3e3f	0.10656404
239	0x3c30831e	0.010773448
240	0xbe7f365a	-0.24923077
241	0xbc244be6	-0.010027861
242	0x3c483467	0.012219525
243	0x3de7a423	0.113106035
244	0xbd1dbc09	-0.038509402
245	0xbd10f2aa	-0.035387672
246	0x3d1fc934	0.03901024
247	0x3c3a3bf6	0.011366835
248	0xbd8a5dfa	-0.06756206
249	0x3da30371	0.07959641
250	0x3d845699	0.0646183
251	0x3d3fb8dd	0.04680716
252	0xbd3ab611	-0.04558379
253	0xbd85ca14	-0.06532684
254	0x3d145a48	0.03621891
255	0x3d839f1a	0.064268306

conv4.bias f4 [32]
0	0xbc7d4fb0	-0.0154608935
1	0x3f58fda9	0.84762055
2	0x3cfd4f2f	0.030921547
3	0x3c39dc8d	0.011344087
4	0x3ebacb9a	0.3648346
5	0xbc418744	-0.011812035
6	0x3ea04c99	0.3130844
7	0xbd0de1cc	-0.034639165
8	0xbc83718b	-0.016045352
9	0x3c92dfa4	0.017928906
10	0x3edc92d5	0.43080774
11	0x3e60b085	0.21942337
12	0x3e9fa628	0.31181455
13	0x3ed5eced	0.41782323
14	0x3e142b2a	0.14469591
15	0x3daefeeb	0.085447155
16	0x3ec72614	0.3889624
17	0xbb8316ae	-0.0040005064
18	0x3c776f23	0.015102181
19	0x3d446b11	0.04795367
20	0x3eaed640	0.34147835
21	0x3e52f00f	0.20599388
22	0x3da18898	0.07887381
23	0xbd1b8bab	-0.037974995
24	0x3d56ec3f	0.052471396
25	0x3f4a0b80	0.789238
26	0xbd4d09f2	-0.050058313
27	0x3d4edd25	0.05050387
28	0x3d4a99ee	0.049463205
29	0x3cf6b9aa	0.030117828
30	0x3ecfbc38	0.40573287
31	0x3cd802d6	0.02636854

batch4.weight f4 [32]
0	0x3ea1d7da	0.31609994
1	0x40b300fd	5.5938706
2	0x3f5bdf8d	0.85887986
3	0x3eb568d9	0.35431555
4	0x4080647c	4.012266
5	0x3ecfca2c	0.40583932
6	0x407b0978	3.922453
7	0x3ec23153	0.37928256
8	0x3ee7b186	0.45252627
9	0x3f89075e	1.0705373
10	0x40976e51	4.7322164
11	0x4043f41d	3.0617745
12	0x4046a33b	3.1037128
13	0x40889f48	4.2694435
14	0x404468fb	3.0689075
15	0x3fdb3bb9	1.7127601
16	0x409d14a3	4.908769
17	0x3e9ec254	0.31007636
18	0x3eb107d7	0.34576294
19	0x3e8f51ec	0.2799219
20	0x406090e0	3.5088425
21	0x406a0845	3.6567547
22	0x40474f08	3.1141987
23	0x3ec2ec21	0.38070777
24	0x3f4ac73e	0.7921027
25	0x404b6bd3	3.178456
26	0x3edfee70	0.437366
27	0x3f37ab8b	0.7174613
28	0x3ec6aa1c	0.38801658
29	0x3fb90ed3	1.4457649
30	0x40752c27	3.8308198
31	0x3f7dd43c	0.9915197

batch4.bias f4 [32]
0	0xbf2d7b41	-0.67766196
1	0xc08388da	-4.1104555
2	0xbfa4f1da	-1.2886307
3	0xbf226535	-0.6343568
4	0xc0239a87	-2.5563066
5	0xbf50a5a5	-0.81502753
6	0xc04f1bab	-3.2360637
7	0xbf2e1c9e	-0.68012416
8	0xbf4c350a	-0.7976843
9	0xbfc01455	-1.5006205
10	0xc044f077	-3.0771768
11	0xbffb0fe8	-1.9614229
12	0xc01c63d0	-2.443592
13	0xc0386add	-2.8815224
14	0xc010534e	-2.2550845
15	0xbff7b01d	-1.935062
16	0xc0128495	-2.2893422
17	0xbf2ca6d1	-0.6744204
18	0xbf341803	-0.7034914
19	0xbf2e767e	-0.68149555
20	0xc02b5f7c	-2.677703
21	0xc0059e63	-2.0877922
22	0xbfe4c55d	-1.787273
23	0xbf381eed	-0.7192219
24	0xbfae21bc	-1.3604045
25	0xbf91682d	-1.1359917
26	0xbf5569a3	-0.83364314
27	0xbf8e4905	-1.1116034
28	0xbf389224	-0.7209799
29	0xc0051648	-2.079485
30	0xc069bcec	-3.6521559
31	0xbfc669a7	-1.5500993

lin1.weight f4 [5, 800]
0	0xbd111d44	-0.0354283
1	0x3c11d142	0.008899989
2	0xbc907040	-0.01763165
3	0xbbdfac05	-0.0068259262
4	0xbc991c51	-0.01869026
5	0xbcd1fa70	-0.025632113
6	0xbc6ec99c	-0.014574435
7	0x3c889985	0.016674766
8	0xbcba1991	-0.02271727
9	0xbc62cd92	-0.013842957
10	0xbe0c2354	-0.13685352
11	0xbc6f526f	-0.014607056
12	0x3d19f441	0.037586454
13	0xbd89564c	-0.06705913
14	0xbcbb4c14	-0.022863425
15	0x3bec3928	0.007208962
16	0xbd9c7a5a	-0.07640524
17	0x3c5e0da8	0.013553061
18	0xbd2a6688	-0.041601688
19	0x3b0515e5	0.002030724
20	0xbc7f2b5c	-0.0155743025
21	0x3d062a70	0.032755315
22	0xbce17739	-0.02752267
23	0x3bb88e38	0.005632188
24	0x3bb94f98	0.0056552403
25	0xbb4f7e9f	-0.0031661165
26	0xbc7bdf12	-0.015373008
27	0xba37d467	-0.00070125464
28	0xba0a38c2	-0.000527274
29	0x3c9d33a8	0.01918967
30	0xbb3b60e3	-0.0028591685
31	0xbbd19d88	-0.006396953
32	0x3b4cc627	0.0031246038
33	0xbbe18850	-0.006882705
34	0x3c969467	0.01838131
35	0x3a85e259	0.0010214552
36	0xbbf7fe3b	-0.0075681484
37	0xbc19d11c	-0.0093882345
38	0x3c363d5b	0.011123027
39	0xbae5d4de	-0.0017534753
40	0xbc6c8ea1	-0.014438302
41	0xbc1df116	-0.009639999
42	0xbc67bcfc	-0.0141441785
43	0xbc96b4ac	-0.018396698
44	0xbb8d1e58	-0.004306596
45	0x3a8c1449	0.0010687198
46	0xba66a0e3	-0.00087977777
47	0xbb7f2ea6	-0.0038937717
48	0xbc0d10ca	-0.00860996
49	0x3ac20383	0.0014802072
50	0x3d8b2e22	0.067959085
51	0x3cdbb6e9	0.026820617
52	0x3d4089fd	0.047006596
53	0x3d3a883c	0.04554008
54	0x3c33827d	0.010956404
55	0x3c80775e	0.015681919
56	0xbe4dfc47	-0.20115767
57	0xbe2d8161	-0.16943885
58	0xbe5acef3	-0.21368007
59	0x3d9ebb53	0.07750573
60	0xbe80a830	-0.25128317
61	0xbe43046f	-0.1904466
62	0xbdaf3221	-0.08554483
63	0xbdd18bd4	-0.10231748
64	0xbd940af5	-0.072286524
65	0xbe706e80	-0.23479652
66	0xbccdce62	-0.025122825
67	0xbe2f0af1	-0.17094018
68	0xbdefa610	-0.11701596
69	0xbc1573ba	-0.00912183
70	0xbd952c8f	-0.072838895
71	0xbe02dc9d	-0.1277947
72	0xbe15b5b7	-0.146201
73	0xbe4cddbe	-0.20006463
74	0xbe12b54e	-0.14326975
75	0xbd3ef9eb	-0.04662506
76	0x3bb98803	0.005661966
77	0xbbf9a3b7	-0.0076183933
78	0x3c208e3c	0.009799536
79	0x3c286ba9	0.010279574
80	0xbcafd23f	-0.021462558
81	0xbd82a830	-0.063797355
82	0xbc6396b9	-0.013890916
83	0xbd88b8e9	-0.06675894
84	0xbdbbcf27	-0.091703705
85	0x3d13a120	0.036042333
86	0xbbd7347c	-0.006567536
87	0x3d6dac85	0.058025856
88	0xbcb70bdd	-0.022344524
89	0xbde6db5c	-0.11272308
90	0xbd078660	-0.033087134
91	0xbca92e46	-0.020651948
92	0x3b059ca4	0.0020387555
93	0x3cb2bddc	0.021819048
94	0xbbdd3402	-0.0067505846
95	0x3ac97fa2	0.001537312
96	0xbb4e647a	-0.0031492994
97	0xbc7d6fc9	-0.015468546
98	0x3c84408c	0.01614406
99	0x3d5dbe80	0.054136753
100	0x3c507ec1	0.012725533
101	0xbc24d124	-0.010059629
102	0x3b0afc28	0.0021207426
103	0xbc645686	-0.013936644
104	0x3c61378b	0.013746153
105	0x3b0105cb	0.001968729
106	0x3b398c62	0.0028312434
107	0xbc8f25b5	-0.017474035
108	0xbc344229	-0.011002102
109	0xbcbec74a	-0.023288388
110	0x3ca4e6d0	0.020129591
111	0xba5a5977	-0.00083293713
112	0xbc856439	-0.016283141
113	0xbc1da83a	-0.009622628
114	0xbc1f9b4d	-0.009741616
115	0x3c259beb	0.0101079745
116	0xbc783884	-0.015150193
117	0xbad8484c	-0.0016501038
118	0x3badb760	0.005301401
119	0xbc32b1bf	-0.010906636
120	0x3b19af0b	0.002345028
121	0xbc2842fd	-0.0102698775
122	0xbb470add	-0.0030371465
123	0xbbcd3053	-0.006261864
124	0xbcd0814f	-0.025452284
125	0x3ce3d803	0.027812963
126	0xbc236a19	-0.009974026
127	0xbd9d9e22	-0.07696177
128	0xbcb29ffb	-0.0218048
129	0xbbf29f18	-0.0074042194
130	0xbcfe5053	-0.031044161
131	0xbe149974	-0.14511663
132	0x3cb31dee	0.021864858
133	0xbdb06ff6	-0.08615105
134	0xbd10de82	-0.03536845
135	0xbb3dc4c7	-0.00289564
136	0xbd5f49a9	-0.054513607
137	0x3a5cdf79	0.0008425634
138	0xbd4d2fda	-0.050094463
139	0xbdef1714	-0.11674324
140	0x3bf0d307	0.007349375
141	0x3cd0a4b2	0.025469158
142	0x3e0bcfb9	0.13653459
143	0xbd28f0f6	-0.041245423
144	0xbcd45f90	-0.025924474
145	0x3cb2b22c	0.021813475
146	0x3d47a83c	0.048744425
147	0x3d53f769	0.05174962
148	0xbd08777f	-0.033317085
149	0xbce3948b	-0.027780792
150	0x3c3547c7	0.011064476
151	0xbb94bdb4	-0.004539216
152	0x3c29f54b	0.010373424
153	0xbb75e003	-0.0037517555
154	0x3cad9082	0.02118707
155	0x3c075754	0.008260567
156	0xbbbd2d16	-0.005773197
157	0x3a0d4ba2	0.00053899933
158	0x3b7f4994	0.0038953768
159	0x3a4199da	0.00073852914
160	0x3afd9425	0.0019346519
161	0xbbdffc96	-0.0068355305
162	0xbbb662b6	-0.0055659665
163	0xbbde707b	-0.006788311
164	0xbc04fcb2	-0.008116888
165	0x3b1b3ef0	0.0023688637
166	0xbbd07cfd	-0.006362556
167	0x3baf33ad	0.0053467364
168	0xbc20b242	-0.009808125
169	0x3be45655	0.0069682994
170	0x3cf32591	0.029680999
171	0xbc2260b3	-0.00991075
172	0x3c5e619f	0.013573079
173	0xbc133bd4	-0.008986432
174	0x3bf2c43c	0.007408647
175	0xbcceb679	-0.025233494
176	0xbaa52104	-0.001259834
177	0xbc2a88ee	-0.010408623
178	0x3c1fb755	0.0097483
179	0xbc4573da	-0.012051547
180	0x3b52d15d	0.0032168247
181	0x3b1723f2	0.0023062197
182	0x3b202c81	0.002444059
183	0x3ba879d7	0.0051414776
184	0xbc8e1d40	-0.017347932
185	0xbc616cfd	-0.013758895
186	0x3ce10541	0.027468326
187	0xbc78ca3b	-0.015184934
188	0x3c0c8405	0.008576398
189	0x3beef02c	0.0072918143
190	0x3ce02f68	0.027366355
191	0x3b8235c2	0.0039736936
192	0xbce7a8d7	-0.028278751
193	0xbcc6d998	-0.024273679
194	0x3b962940	0.004582554
195	0xbc0ac9a3	-0.0084709255
196	0xbc0de992	-0.0086616445
197	0x3c1a1958	0.0094054565
198	0x3b2c745f	0.002631448
199	0xbb9dd0aa	-0.0048161345
200	0xbd006268	-0.031343848
201	0xbb4cefc1	-0.0031270834
202	0xbc128603	-0.008943084
203	0xbafc3d08	-0.0019244263
204	0xbd2cf427	-0.04222503
205	0x3d0b634d	0.034030247
206	0x3b0838b0	0.0020785742
207	0x3b9f7102	0.0048657665
208	0xbbccf701	-0.006255031
209	0xbbd4ee02	-0.0064980993
210	0x3d59f3ae	0.053210907
211	0x3cc9b9a4	0.024624653
212	0xbc8967c5	-0.016773114
213	0xbc807cab	-0.015684446
214	0x3bc03762	0.005865977
215	0xbd42838b	-0.04748873
216	0x3d467d50	0.04845935
217	0xb9ea4c89	-0.0004468898
218	0x3c8058ba	0.015667308
219	0x3d4a1038	0.049331874
220	0xbd2bdb75	-0.041957337
221	0xbac103f1	-0.0014725906
222	0xbc1d11e3	-0.009586784
223	0x3c6ebfed	0.014572126
224	0xbc154ebc	-0.00911301
225	0x3d564235	0.052309234
226	0x3dad8a52	0.08473648
227	0xbe183662	-0.14864495
228	0xbe97c57a	-0.2964285
229	0xbd639ada	-0.0555676
230	0x3d267eba	0.0406482
231	0x3ba18805	0.004929545
232	0x3cca4554	0.024691261
233	0x3b4831e9	0.0030547327
234	0xbd7becd5	-0.061505158
235	0xbdb9f7b3	-0.09080448
236	0xbe16707b	-0.14691345
237	0x3df70633	0.12061729
238	0xbe46b602	-0.19405368
239	0xbe127ba3	-0.14304976
240	0x3d5d8aa5	0.0540873
241	0xbd5e800e	-0.05432134
242	0x3d8b9055	0.068146385
243	0xbe41ed1f	-0.18938111
244	0xbd8fd39d	-0.07022784
245	0x3aec35f2	0.0018021448
246	0xbd6714c8	-0.056416303
247	0xbcd0c672	-0.025485251
248	0xbe16370e	-0.14669439
249	0x3cd0068d	0.025393749
250	0xbb801b40	-0.0039094985
251	0x3c46ead6	0.01214095
252	0xbc6f0d4f	-0.014590575
253	0xbac24c34	-0.0014823736
254	0xbccf62ca	-0.025315661
255	0x3b445024	0.0029954994

lin1.bias f4 [5]
0	0xbcb476ed	-0.022029364
1	0xbcd9ce2c	-0.026587568
2	0xbc1f7eb2	-0.009734796
3	0xbc962adf	-0.01833099
4	0xbc6919b1	-0.014227317
