results_auto/01_domain_adaptation/maml_supervised/June_14/officehome_maml_order_2_seed_0_shots_1_ways_5_meta-lr_0.0001_test-domain_Clipart_dropout_0.1_RandAugment-prob_0.5_pre-train-wts_datetime_13_06_2021_17_41_38/intermediate_47000_model.pt (torch, 412181 bytes, 54 tensors)

conv1.weight f4 [32, 3, 3, 3]
00000000: fa4a ee3e 92c4 973d 4068 12be 60ee 4bbd
00000010: b72b 45be 1ab5 32be dd41 193e b849 963d
00000020: a25b 14be 89dc 8f3c ec54 59be 7c62 793d
00000030: 358e b1be 229c 21be 4508 9fbc 10bb 7cbc
00000040: 8da2 f53d 6fc6 8a3e b316 51bf bfad e6be
00000050: f500 243e 68d5 94be a614 4b3d 8729 0b3f
00000060: bc6e 1bbe 9b5d ac3e b4ca 493f 4ef6 2a3d
00000070: f3e5 403d 2269 d13e de41 31be 302a 4d3e
00000080: 0ac3 ba3e 0b21 e1be 9307 eebe 37db dcbd
00000090: 867f 2bbe 9ffd 6a3e c7f0 c03e f495 76be
000000a0: b54f 72bd 2101 303e 69f3 e6be 4c3c 0bbf
000000b0: eff4 75be 48f4 163d 8d82 8c3e 186d f93e
000000c0: f823 7ebe 0ae0 27bc 049a c63e ff65 9bbc
000000d0: a9bc 24be 31e5 473c 865b c63e 4482 f83d
000000e0: ce16 903e 47fc 8dbe 26cf 8dbe 29ba bbbe
000000f0: a01c 66bd b33c 31bd e4a2 e8bd c344 bc3e
00000100: ae97 a53e f733 043e 45f5 8bbc f0cf babc
00000110: 082d 27be be25 f53c 9251 a0be 3c79 35be
00000120: 32e0 ec3e a75b f53e 5ec8 093f 7fda 163e
00000130: 493e f0bc 46e6 afbe 8881 8dbe de08 ecbe
00000140: 0bc1 c5be c963 053f 254b c43e 5357 6bbd
00000150: aa86 d9bd 2339 b5be 6b49 d7be 5c5c b83d
00000160: f2ca 3b3e f443 91bd 8184 e03e fb21 f53e
00000170: 3196 e03e 6c14 57be c864 05bf 43d5 f5be
00000180: 736d bb3d 3856 ed3d 45ef 03be 4061 a33c
00000190: 985c d73e a454 013f 47e1 ebbe 9e6b c3be
000001a0: 9ee5 b2be 8d8e bbbd 693c 80bd 7b8a 6e3d
000001b0: 44dd acbb efc8 a03d 7092 f1bd b52a 433e
000001c0: 92ee b6bd a67d 0e3e 376a 423d 04a8 8bbe
000001d0: 3f8f 31be 4b0e d63d 5a5f 903e 554b 6e3d
000001e0: d310 383e d842 383e 226b f0bd ca02 17be
000001f0: ec07 a1be 9af4 b5be 9d27 80bf 126a 4d3e
00000200: 908c 08be 9de4 46bf 2d54 cb3e 5e74 a93c
00000210: 8284 c4bf cf02 733e 43ab 79be ca7c aabe
00000220: 0a49 a9bd eb38 67be 5dd0 893d da63 673e
00000230: f93e 943e fc05 c23e e384 293f 52f3 853e
00000240: a170 01bf bddc 00be c1b2 eb3b d56e c6be
00000250: 5485 c6be 01dd 94be 7b41 08bf ecfa 9dbe
00000260: a337 65be 3aad b03e a3ca f93e 0ffe 83bc
00000270: 58d9 7c3e 4aeb 003c 5bbf bd3d c1e8 8ebd
00000280: cf29 d63d e4f3 93bd 7e24 1fbf 40ad 9fbe
00000290: 0af9 1fbe dedb 6bbd c645 f63d ef2a 3d3e
000002a0: cf76 0d3d 1446 f33e c250 063f af1b d6be
000002b0: 33e1 2f3e 7d61 da3b 93f7 bbbe 5b5d 6b3e
000002c0: f703 7dbd 8d07 7bbe e0ed b13e c39d 1cbe
000002d0: 6c6f 343e 83ff c43e 69ea dd3e a576 75bd
000002e0: df25 713e 52cc 413d 14f2 debe 4be0 f1bd
000002f0: b0b3 d5be 88cc 5b3d b1db bc3e d1a2 3f3e
00000300: 91be 18bf 95a3 62be 3cc9 10bf 7e64 aa3d
00000310: c19d 813e 766a 703e 2ee0 22be ea26 843e
00000320: 589d 273d bbc9 bfbe c2f8 b4be 38a8 1cbf
00000330: 9b64 2f3e 5bd5 2c3f 88d2 443e 801f 1e3e
00000340: f05b 5c3e 4782 3f3d 2ed4 a7be 7a75 8ebe
00000350: ccd7 b7be b764 9b3e f72b da3e be68 883e
00000360: 7c99 33be ac83 dcbe bd88 1d3f acfb c6be
00000370: e6c2 88be 5555 153f 2098 12be 3de5 50be
00000380: de88 5d3d c5e6 7b3e 4ef1 05bf 190f f83d
00000390: b10a c43a ce3d 50be 2ed7 543e 9ba2 853e
000003a0: 7a7f c8bc baf3 a53e 0450 9d3e 8c92 d3be
000003b0: 3f78 8e3e f5c5 3bbe 61b3 9abe ee20 3b3e
000003c0: c14c 1a3d de94 eabc e92a 5ebd 1402 b93e
000003d0: 8295 bc3e 0bb5 14be 1da7 053f e0b8 be3d
000003e0: 801a 93bd 2043 9d3e 6acb cbbc 5102 6d3b
000003f0: eb6c a43e 1980 9fbd 7857 93be 0795 c0bc
0.46541578 0.0741054 -0.1429758 -0.04978788 -0.19254957 -0.17451897 0.14966531 0.073382795
-0.1448808 0.017561214 -0.21223801 0.060884938 -0.34678808 -0.15782216 -0.019413123 -0.015425459
0.11993895 0.27104518 -0.8167526 -0.45054433 0.1601599 -0.29069066 0.04958024 0.5436024
-0.1517896 0.33665165 0.78824925 0.0417388 0.047094297 0.40900522 -0.17310283 0.20035625
0.36476928 -0.43970522 -0.46490154 -0.107839994 -0.16747865 0.22948311 0.376837 -0.2408064
-0.059158046 0.1718793 -0.45107582 -0.5438888 -0.24019216 0.03685406 0.27443352 0.48716044
-0.24818408 -0.010246286 0.3878938 -0.018969534 -0.16087593 0.01220064 0.38741702 0.12134221
0.281424 -0.27731535 -0.27697104 -0.36665466 -0.056179643 -0.043270778 -0.11359194 0.3677121
0.32342285 0.12910448 -0.017084727 -0.02280423 -0.16325772 0.029925223 -0.31312233 -0.17722028
0.46264797 0.47921488 0.5382136 0.14731787 -0.029326575 -0.34355372 -0.27637887 -0.46100515
-0.38623843 0.52105385 0.3833858 -0.057456326 -0.10621388 -0.35395154 -0.420482 0.09001991
0.18339136 -0.07093039 0.43851092 0.47877488 0.43864587 -0.21003884 -0.52106905 -0.48014268
0.09151735 0.115887105 -0.12884243 0.019943833 0.4206283 0.50519776 -0.4607031 -0.38168043
-0.3494081 -0.09158049 -0.06261522 0.058237534 -0.0052754004 0.07850825 -0.11795509 0.1905926
-0.089322224 0.13915119 0.047464576 -0.27276623 -0.173398 0.10451945 0.28197747 0.05817731
0.17975168 0.17994249 -0.11739184 -0.14747158 -0.31451356 -0.3553818 -1.0012089 0.20059994
-0.1333487 -0.77692586 0.3971266 0.020685371 -1.5352938 0.2373154 -0.24381737 -0.33298331
-0.08265884 -0.22580306 0.06729195 0.22596684 0.28954294 0.3789519 0.66218394 0.261622
-0.50562483 -0.12584205 0.00719294 -0.38756433 -0.38773596 -0.29074863 -0.53224915 -0.308555
-0.22384505 0.3450716 0.48787412 -0.016112356 0.24692285 0.007868597 0.09265014 -0.06977988
0.10457193 -0.07224253 -0.6216506 -0.31186867 -0.15622345 -0.05758273 0.12025027 0.18473409
0.034537133 0.47514403 0.52466977 -0.41817996 0.1717575 0.0066644535 -0.36712322 0.22984831
-0.06177136 -0.24514599 0.34751797 -0.15294556 0.17620629 0.3847619 0.43342903 -0.0599276
0.23549603 0.047313996 -0.43544066 -0.118103586 -0.41738653 0.053661853 0.3688636 0.18714453
-0.5966578 -0.22132714 -0.5655706 0.083199486 0.2531567 0.23478112 -0.1590583 0.2581094
0.04092154 -0.37458596 -0.35346037 -0.6119418 0.17128222 0.67513055 0.19220936 0.15441704
0.21519446 0.0467551 -0.32779068 -0.27824003 -0.35906827 0.30350277 0.42611668 0.26642412
-0.17539018 -0.43069208 0.6153677 -0.38863885 -0.26711196 0.5833333 -0.14315844 -0.20399947
0.054085605 0.2459975 -0.52321327 0.12112255 0.00149568 -0.20336077 0.2078521 0.2610062
-0.024474848 0.3241251 0.3072511 -0.41322744 0.27826115 -0.18337233 -0.3021498 0.1827428
0.037670854 -0.028635439 -0.05424014 0.36134398 0.36832815 -0.14522187 0.5220812 0.09312606
-0.07182789 0.30715275 -0.024877269 0.003616471 0.32114348 -0.077881046 -0.2877767 -0.023508562

conv1.bias f4 [32]
00000000: a9ce a5bd a828 c9bf 3e93 e13c 20d9 88be
00000010: cba3 39bf 2456 dbc0 9a20 bcbc aa65 7cbd
00000020: 2716 8fbe 65fb 843e 5966 a0be c0ed e4bc
00000030: 4b14 583f 2eb5 d2bf 005f 56be 2f1a d8bd
00000040: a4cc 18bd 17e2 98be c49b 54be 774c 61c0
00000050: 87ef 793f a147 2b3d 6234 a33d b35e 213e
00000060: bb23 25c1 ee78 743e 6347 21be 0201 cabd
00000070: 6350 823e 632c e8be 1b64 2bc0 4178 cb3d
-0.08096058 -1.5715532 0.02753603 -0.26728153 -0.72515553 -6.854265 -0.022964764 -0.061620392
-0.27946588 0.2597305 -0.31328085 -0.0279454 0.84405965 -1.6461542 -0.20934677 -0.10551869
-0.037304536 -0.29859993 -0.20762545 -3.520292 0.97631115 0.041816358 0.079689756 0.15758781
-10.321223 0.23874256 -0.15749888 -0.098634735 0.25451955 -0.45346364 -2.677985 0.09935046

batch1.weight f4 [32]
00000000: e847 a83f f137 853f 3de2 413f 989b 9d3f
00000010: 0ad2 653f 1818 283f bff8 8f3f f250 843f
00000020: 2e20 543f b822 7d3f f7f1 a23f 4963 473f
00000030: 3da2 7e3f 5cea 093f 9035 d33e d7da 613f
00000040: 1202 343f b5ed 913f e0de a23f 24c9 273f
00000050: da27 543f bac8 7d3f f84f 693f 4100 a33f
00000060: 33d3 3c3f 549f 893f 83b1 b93f 67e8 773f
00000070: 2e81 b03f cce4 133f 72de 293f 711e 083f
1.3146944 1.0407697 0.7573584 1.2313108 0.8977362 0.65661764 1.1247786 1.0337203
0.828616 0.988811 1.2730092 0.7788587 0.99466306 0.5387323 0.41251802 0.8822455
0.7031566 1.1400667 1.2724266 0.6554129 0.8287331 0.9913441 0.9113765 1.2734452
0.73759764 1.0751748 1.4507297 0.9683899 1.3789423 0.5777099 0.6635505 0.5317145

batch1.bias f4 [32]
00000000: 8b7c 373f 8f1a 3dbf da81 743f 2e46 e43d
00000010: e6f3 fdbe a91e 9e3e 1dbb c23f 704b 443f
00000020: 5e22 3440 446f be3d 2a41 853f c16c e3be
00000030: 6eca ecbd c966 0ebe ce8d 723d 2eda e5be
00000040: a611 2bbc 7a80 a5bd d4fe 22bf 82f1 78be
00000050: c50c dcbb aa77 0d3e 820e 003e 9f2d 213e
00000060: 145a 9b3e 068a eabc 817e 173e efc0 0e3c
00000070: 9b09 4cbd da42 fc3d 3377 d03f a280 4fbd
0.7167441 -0.7386865 0.9551064 0.11146198 -0.49600142 0.30882767 1.5213352 0.7667761
2.8145976 0.09298566 1.0410511 -0.4441891 -0.11562048 -0.13906397 0.059217267 -0.4489302
-0.010441219 -0.080811456 -0.63670087 -0.24310878 -0.0067153894 0.1381518 0.12505534 0.1574006
0.30342162 -0.028630268 0.14794351 0.008712991 -0.049813848 0.123174384 1.6286377 -0.050659783

conv2.weight f4 [32, 32, 3, 3]
00000000: 4b65 08be fc83 bc3d 4704 6fbd bafe 0ebe
00000010: c575 493e c15e ae3e 8da2 323d dfaa ea3d
00000020: 2673 913d ac7d 0a3e 7cc6 5abe 5ede c9ba
00000030: e859 a53d 0d81 a8bc cd1e 0c3f 50b0 b0be
00000040: afa5 95be 4ce4 cf3d 9d43 1ebf 8181 44bf
00000050: 8808 0abf 4811 e8be 3e90 febd 9976 41bf
00000060: c1ef 233e 052f ce3d dd85 6f3e c257 733e
00000070: f52c 2dbd 7bba f0be 1e76 a5bd 624b 52bd
00000080: 8baf 47bf bffe 723d bf3c 62be 877d d1be
00000090: 8043 803e 0722 dd3d b662 a1bc 9f54 933e
000000a0: 9769 eb3d edb5 dd3c 6c00 b03d 63fc 0fbe
000000b0: 6145 fcbc bb9f 45be 5417 90be 3604 50be
000000c0: 1d85 f9bc 587e 1cbd f582 0a3e 8b8c 523e
000000d0: 2063 5b3d 645a 3d3e 433d 00be 547c d5be
000000e0: 2e17 7abe 91fc 7c3a ae16 20bc 72c5 013c
000000f0: 8812 693e 23ea 9abd 88d8 953e bac0 933d
00000100: 36e7 fd3c 4856 76be bf36 263e bcb2 e13d
00000110: f796 1abe 3e23 0bbd 7cfd 513e 8187 bfbd
00000120: 29aa 68be ab1f 1e3e 158b 813e b251 88be
00000130: 90fb 2d3e c05e bf3e aab5 fbbe 59ae fdbd
00000140: ba4b a3bb f722 72be cef3 47bf 44fa b2be
00000150: ba48 fcbe e812 a3be fb54 343e 7fde 15be
00000160: 9cf3 8abd 73d2 d23e e040 37be 57c3 13be
00000170: 3de2 9c3d d829 38be 2506 6b3e 73e3 1a3e
00000180: d0ef 6abd 5a8e fbbe 73dc b2be d0f1 01bf
00000190: a655 6dbd 9d47 74be 6fe7 a1be aa8f df3e
000001a0: f6f0 b13d c76f 83be 9e69 083f c555 8c3e
000001b0: bbea ccbc 749d e53b 5db7 18be 0502 ef3e
000001c0: e9f0 043f c6c8 0b3d 5253 98be 4545 1abd
000001d0: a6ef 4a3e 468f e63b f577 e5bd f2c9 98bc
000001e0: 5c47 d13d ac51 a7bd 8c19 99be a12c 393e
000001f0: cd95 0f3d 9c6f abbe cbfe 03bf 3f0c 06bf
00000200: 827d 81be bea6 46bd 2511 ebbd 2590 5b3e
00000210: 704f 2f3e 5f1f 843e 8353 ff3e 293a b33d
00000220: 72fa e2be 40f7 fbbd 0eeb 423e 0628 323d
00000230: 4a76 0abe 912b bdbd ab71 8fbe e3f0 83be
00000240: a328 fbbe 3479 b6bd 00cd aebe 64ad 8d3d
00000250: b47a 0e3f 1c16 383e 6e05 07bd 2779 833e
00000260: e9c3 293e fdbe 643e 3c44 00bd 9c57 ad3e
00000270: fd77 26bd aa20 92bd 2356 e3bd e3c5 9dbe
00000280: 874f 59be ffe3 80be 907a 79bd 8aec 91be
00000290: 4b03 5dbe c02c 333e b1bf 9fbc a078 6e3e
000002a0: 9e92 0c3f 334e 4e3c 1216 ab3e 8778 8c3e
000002b0: d7f8 68be e62f e43d 8bb6 4e3e d673 a83d
000002c0: 427a 1ebd a832 35bd 006f 1d3e 891d 95be
000002d0: 76ad 2dbc 620f 08be ebda 2dbe dc97 e33b
000002e0: 1d32 743e c2e4 163e c502 333d b71b 2d3e
000002f0: 2c1d 043e 6f72 893e 9777 413e 7565 ab3d
00000300: c872 d7be 1a5b 56be 0723 69be b819 6ebe
00000310: 1b5b 0f3d f40a 5d3e 4eaf a3be d305 37bf
00000320: 3dea 85be 0c33 11bf a7e4 e8bb 1ca5 903e
00000330: a471 1c3d 6325 463e c052 2e3f ab09 84be
00000340: f70e dfbe 2323 953e a63c 60be 2c8c e7bd
00000350: 86b0 c83d 5781 03be 60b3 f1bd a3e7 953d
00000360: 387c a6be 8db8 01be eeed 023e 0fbd 83bd
00000370: 6e5a 113e 39c7 e73e 7492 a9be 9e17 8bbd
00000380: 9b2e 7bbc 7123 203e 1d2d 69be 712e f5be
00000390: 8f48 f1bd e2f7 cebd a9e3 5fbf 0d94 48bd
000003a0: c067 bb3d efd5 4dbc c6bd 223e 0fff a9bd
000003b0: ad27 acbe 021d 243e 870b 263d 1c0b b7bc
000003c0: aab9 9dbe 0629 39be 0e4c f6be 1269 453e
000003d0: 83d2 a93e 98ab 0e3e 6348 89bd ed6a 0d3e
000003e0: 21a7 55bc b74e c0bd 73d7 293e 9d9c 323d
000003f0: 394a 63be be52 07bf 7ae5 863d b946 d2bc
-0.1331989 0.092048615 -0.05835369 -0.13964358 0.19673832 0.34056666 0.04361205 0.11458372
0.07102041 0.13524503 -0.21364778 -0.0015401354 0.08073789 -0.020569349 0.547345 -0.34509516
-0.2922797 0.10150966 -0.6182192 -0.7676011 -0.5391927 -0.45325685 -0.12429856 -0.7557159
0.16009428 0.10067562 0.23390909 0.23763946 -0.042279202 -0.47017273 -0.0807917 -0.051341422
-0.7800223 0.059324976 -0.22093485 -0.40916082 0.25051498 0.10797506 -0.01970039 0.28775498
0.11494749 0.027064288 0.085938305 -0.14061122 -0.030794801 -0.19299214 -0.28142798 -0.20314106
-0.030458981 -0.03820643 0.13526519 0.20561425 0.05356133 0.18491513 -0.1252337 -0.41696417
-0.24422905 0.00096506724 -0.009771032 0.00792061 0.22760975 -0.07564189 0.29266763 0.07214494
0.030994039 -0.24056351 0.16231821 0.11020419 -0.15096651 -0.033969156 0.20506853 -0.09352017
-0.22721161 0.15441768 0.25301424 -0.2662483 0.16990495 0.37376976 -0.49162036 -0.1238677
-0.0049833925 -0.2364615 -0.7810639 -0.34956563 -0.49274236 -0.31850362 0.17610542 -0.14635657
-0.06784746 0.41176185 -0.17895842 -0.14429985 0.07660339 -0.17984712 0.22951563 0.15125827
-0.05735761 -0.49132043 -0.34933814 -0.507596 -0.05794301 -0.23855443 -0.31621882 0.43664294
0.08688538 -0.25671217 0.5328616 0.27409187 -0.025014272 0.0070072953 -0.14913698 0.46681228
0.519301 0.03412702 -0.29751068 -0.037663717 0.19817981 0.0070361225 -0.112045206 -0.018650983
0.10218689 -0.081698745 -0.29902303 0.18083431 0.03505497 -0.3348359 -0.5156066 -0.52362436
-0.25291067 -0.04849886 -0.114778794 0.21441706 0.17120147 0.25805184 0.49868402 0.087513275
-0.443317 -0.123030186 0.19034979 0.0434952 -0.13521686 -0.09236825 -0.2801641 -0.2576972
-0.4905444 -0.089098364 -0.34140778 0.06917837 0.5565598 0.17977184 -0.032964163 0.2567837
0.1657864 0.22338481 -0.031315073 0.33855903 -0.040641773 -0.071351364 -0.11100414 -0.30815038
-0.21221744 -0.25173947 -0.0609079 -0.28500777 -0.21583287 0.1749754 -0.019500585 0.23288202
0.5491122 0.012591886 0.33415276 0.27435705 -0.22751175 0.111419484 0.20186822 0.08225219
-0.038690813 -0.044237763 0.15374374 -0.29124096 -0.010600438 -0.13287118 -0.16978042 0.0069455933
0.23847242 0.14735702 0.043703813 0.16905104 0.12901753 0.26845118 0.18893276 0.08368961
-0.4207976 -0.2093319 -0.22767268 -0.23251998 0.034998994 0.2158621 -0.31969684 -0.7149326
-0.26155272 -0.56718516 -0.0071073356 0.28250968 0.038194314 0.193502 0.68095016 -0.25788626
-0.43566105 0.2912837 -0.21898136 -0.113060325 0.09799294 -0.12842308 -0.11801791 0.07319572
-0.32516646 -0.12668057 0.12786075 -0.064325444 0.14194652 0.45269182 -0.33119547 -0.06791614
-0.015330936 0.1563852 -0.22771116 -0.47886994 -0.117814176 -0.10105874 -0.87456757 -0.048969317
0.09150648 -0.012563213 0.15892705 -0.08300602 -0.3362402 0.1602669 0.040538337 -0.022344165
-0.30805713 -0.18082055 -0.481049 0.19278362 0.3316842 0.13932645 -0.0670326 0.1381032
-0.013040335 -0.09390014 0.16586094 0.04360639 -0.22196282 -0.5286063 0.06586738 -0.025668489

conv2.bias f4 [32]
00000000: d6de c33d 4e00 143e 6754 073e 9ce4 1a3e
00000010: 2b02 913d 5b72 b93d 8787 b3bf deaf 04bd
00000020: 25a6 bd3e 3596 a9be 022b 843e 01ab 15be
00000030: adc1 61bd 4b24 323e 1d51 7b3d 09b9 b9bd
00000040: 030b 89bd 315f 30be f8db 83bd 2eef d4bd
00000050: 2dac 4bbd f90c 3d3d 88c7 063e f7bd 143d
00000060: 87f8 a53e 66b1 40bb a944 fb3a 318a 0abe
00000070: 9e31 10bf 1cbe ad3e 11f8 43bd 5a98 c43e
0.09563987 0.14453241 0.1321579 0.1512627 0.07080492 0.09055015 -1.4025735 -0.032394283
0.3704082 -0.3312241 0.25814062 -0.14616014 -0.055116344 0.17396657 0.061356653 -0.09068496
-0.066915534 -0.17223813 -0.0643844 -0.103971824 -0.049724746 0.04615495 0.13162053 0.036313977
0.32416174 -0.0029402613 0.0019170243 -0.13529278 -0.5632571 0.33934104 -0.047843996 0.38397485

batch2.weight f4 [32]
00000000: 3f6e 5c3f 1c1a 893f 8402 b63f 592c 993f
00000010: f2e2 7a3f 5d2e 923f fda8 973f 95c7 373f
00000020: 8244 973f aaba 633f 4232 913f 315e 6a3f
00000030: 57e6 0e3f 337e aa3f aa4f 843f 667d a63f
00000040: f573 4e3f 1370 593f 9d39 663f d6fd 463f
00000050: b215 973f fb7f 8d3f c82b 963f 97eb 883f
00000060: b8c8 7d3f 1ea9 3e3f ac7e 4b3f e365 1c3f
00000070: 007d 8f3f 30e4 843f b186 763f b4a7 5f3f
0.8610572 1.0711093 1.4219518 1.1966659 0.9800254 1.1420399 1.1848446 0.71788913
1.1817782 0.889567 1.1343462 0.91549975 0.5582022 1.3319763 1.0336812 1.3007019
0.80645686 0.84936637 0.8993166 0.7773107 1.1803496 1.1054682 1.1732111 1.0696896
0.991344 0.744768 0.7949016 0.61092967 1.1210022 1.0382137 0.9629927 0.8736527

batch2.bias f4 [32]
00000000: 256d 8c3d 1a34 03bf 5dc3 96be b0d1 febe
00000010: 16ae c0be 1a0a 1bbf f548 c8be c50f 38be
00000020: d882 f9be 8cb2 adbe 3148 03bf 74bf bbbe
00000030: 208b 31bd d890 abbe 0ec2 d5be 891f 00bf
00000040: e540 b7be d51d e6be fe40 efbe 502c fa3c
00000050: 0ca9 e3be 12d3 a2be 06ae 1abf 6981 9bbe
00000060: 4cda 02bf b638 84be 0630 6ebe 7825 8fbe
00000070: 5a3b 2cbe f75c babe 6b33 8abe 111f 07bf
0.06856755 -0.51251376 -0.29445925 -0.49769354 -0.37632817 -0.6056229 -0.39118162 -0.17974766
-0.48732638 -0.33925283 -0.5128203 -0.36669505 -0.04334557 -0.33508945 -0.41749614 -0.5004812
-0.35791698 -0.44944635 -0.46729273 0.030538708 -0.4446491 -0.3180166 -0.6042179 -0.3037217
-0.51114345 -0.25824517 -0.23260507 -0.27958274 -0.16819516 -0.36399052 -0.26992354 -0.5278178

conv3.weight f4 [32, 32, 3, 3]
00000000: cbbd b93e 55ac be3e e96e 82bd 0f0a 62be
00000010: ae8e e53b 4b33 653e 109c a5be e65f debe
00000020: 5a2f 233c dc60 253e 731e 313e a08f f6be
00000030: 8ed6 09be 7ba5 c0bd 5fd9 243e 58b4 8c3e
00000040: 0755 953e 3ef5 a3be db75 8abd 870a 14be
00000050: cfe2 fbbe 35da 203e 350c 123e 8948 08be
00000060: 997c e13d 23f1 ec3d c4c6 37be dc2d 98be
00000070: ac62 c8be f5ec ec3e b127 3e3c 0d56 3cbe
00000080: bbc9 023f 942f 9bbd 12aa 123e 5bba a53e
00000090: af39 9c3e 7799 243f 4395 0d3e e672 673d
000000a0: 8188 d93d 7ea3 04bd e58d 893c 1a6d 0b3d
000000b0: dee1 e13c 92af 783e e13a 803e 4aca 513e
000000c0: 6385 133d 9f3e ab3e 5176 923e 1f47 e1be
000000d0: a3a1 20be 4c8a 92be b465 953e 6628 b53c
000000e0: f5a2 8cbe 3230 8a3d dae3 c9bd 267e e6bc
000000f0: b5b0 533e 7a38 b73e 3643 e53d f004 80be
00000100: 07ba cbbe f1dd 0cbf 7480 163e f6d7 a7be
00000110: 6c35 abbe e807 04be 7083 01bd 582e 08be
00000120: c203 7e3e 84a9 b5bb b6e3 81be 06d2 513d
00000130: 523d c63d bcf4 7f3e c924 8dbd da68 93bd
00000140: 36bd 1b3e 4b84 72bf 62bf 0ebe 5f96 7e3e
00000150: 36ac 24bf cc6a e1be 89c2 1c3e 39c9 f8bd
00000160: d210 423d 5af4 1b3e 87d7 18be c77f efbe
00000170: 6b3a 673e 147d 1cbe 73cc 9d3d 2ab9 8a3e
00000180: 13fc a0be fd89 5dbe 5137 ffbd 3a03 5dbc
00000190: 4ed3 5a3d 6e41 883e cada 8f3e 36b1 92bd
000001a0: bc35 4fbd 33d4 2c3d b46e 903e e576 18be
000001b0: 6be3 a5bd 3b9c acbd bf93 c4be b68d 30be
000001c0: 404b 68bd 4cd2 a2be f726 b5be 2b94 2c3d
000001d0: 1382 7abe 2df0 023c d10e aa3c 499a 69bd
000001e0: a335 913e e328 b0ba c553 8bbe ebb2 11bc
000001f0: cd93 823d 0ea2 cdbe f21d 46be 2620 8dbe
00000200: 4dcc 33bf 0d7f 9c3c a6a9 89bc 8a0a b13d
00000210: 6ddb 4ebe fb53 943d 8969 76be 393c a03e
00000220: f048 543d 456d aabe 0ec2 643e 4638 eebd
00000230: 1951 15bf b782 c4bd b4a4 ad3e acc9 d6be
00000240: 07ed 9a3e e0d0 b73d cbc6 23bf b3dc ad3d
00000250: 4cf4 9bbd 094b 36bd 11a0 96bd bd3c 48be
00000260: 2288 2bbe 7ff6 253d b0ef 9ebe 8563 8b3e
00000270: 44dc 683e 9c1f 073e c480 253e fea7 7dbe
00000280: 3815 bb3c b6b1 7d3d 6da3 2d3d ff54 eb3c
00000290: 5b65 6b3e 969a 8abd 4bb7 2c3d e017 e7bd
000002a0: 8b26 173e bae4 98be 616f bebe f920 a8be
000002b0: 54c4 c53d d6cf 90bd 8fbb c2be 6dbb 193e
000002c0: b625 6abe b522 95be a6cb b5be 6add c5bd
000002d0: 5399 2cbe e65e 1a3e 4219 013f 430b 963e
000002e0: 6a72 dc3d a214 873e 2864 673e 1401 ee3d
000002f0: b97f 133d 09d5 983e 707e fb3d 637d eb3d
00000300: 8fd8 d53e 246b 8ebe db82 4cbe 117f 85bd
00000310: d82f 1a3d 3466 763c fbf6 6d3e a12d f53d
00000320: 6119 c7be acc3 5a3e 796f b43e e705 7f3d
00000330: 824e 92bc 0c49 7b3e 93f4 16be fffe a03e
00000340: 36d4 d73b 2486 34be fd5c 95be 4004 48bd
00000350: bfe9 d23c af9c febe f848 0b3d 6e65 2a3e
00000360: 33aa 453e c018 d43d 2de7 80bf bd95 533e
00000370: 249b 97be afcd 29be 69e2 89bd 5367 f2be
00000380: 089f b2be af83 ab3a bf06 d7bb 451f 10bf
00000390: bbbf 71be 27c5 f43d ca20 f3be 7a73 fd3d
000003a0: 401f f53e 9073 ee3d 5ba6 0a3e 9130 3f3e
000003b0: 81ae 98be 259c 123f 4b97 843e 3140 fcbe
000003c0: 9a22 ea3e dd11 bb3d 4f2a 4cbe 4258 c5bc
000003d0: 8f0b 9cbd 90ab e3bc 0f5c 8d3e 79b9 913e
000003e0: 8ce9 3dbe ef59 723d 791d a7bd 5629 16bf
000003f0: ba95 9dbe 92de 86be 36a5 7e3e 7855 5ebd
0.36277613 0.37240854 -0.06368811 -0.2207415 0.007005534 0.22382848 -0.3234563 -0.4343254
0.00996002 0.1615023 0.17296772 -0.48156452 -0.13460752 -0.09406563 0.16098545 0.2748134
0.29166433 -0.32023042 -0.067607604 -0.14457141 -0.4919648 0.1570824 0.14262469 -0.1330892
0.11010093 0.11569431 -0.17946917 -0.29722488 -0.3913778 0.46274534 0.011606143 -0.18392201
0.51089066 -0.07577434 0.14322689 0.3236874 0.3051276 0.6429667 0.1382647 0.05650606
0.10621739 -0.03238248 0.016791293 0.034039594 0.027573522 0.24285725 0.2504492 0.20487323
0.03601588 0.33446214 0.28605893 -0.43999574 -0.1568666 -0.28621137 0.29179156 0.02211399
-0.27468076 0.06747474 -0.09857912 -0.028136324 0.20672877 0.35785276 0.1119446 -0.25003767
-0.39790365 -0.55026156 0.14697438 -0.32781953 -0.33439195 -0.12893641 -0.03161949 -0.13298929
0.24806121 -0.0055438895 -0.25369042 0.051225685 0.09679665 0.24995703 -0.06891782 -0.07197733
0.15208897 -0.94733113 -0.13940194 0.2486205 -0.64325273 -0.44026792 0.15308584 -0.12147755
0.047379322 0.15229931 -0.14925967 -0.46777174 0.22580878 -0.15282089 0.07705011 0.27094394
-0.31442317 -0.2163467 -0.12461723 -0.013489539 0.053424172 0.2661242 0.2809661 -0.071627066
-0.050588354 0.042194556 0.2820946 -0.14889105 -0.08100017 -0.08428236 -0.3839397 -0.17241558
-0.05671239 -0.3180107 -0.3538129 0.04213349 -0.24463682 0.007991833 0.020759018 -0.057031903
0.28361234 -0.001343992 -0.2721235 -0.008892755 0.06375847 -0.401627 -0.1934736 -0.2756359
-0.70233613 0.019103551 -0.016804527 0.08644588 -0.20200892 0.072425805 -0.24063696 0.31295946
0.05182737 -0.3328649 0.22339651 -0.11631827 -0.5832687 -0.095952444 0.3391472 -0.41950738
0.30258963 0.089753866 -0.6397521 0.08489361 -0.07614955 -0.044505153 -0.07354749 -0.1955442
-0.1675115 0.04051828 -0.31042242 0.27224365 0.22740275 0.13195652 0.16162401 -0.24771115
0.022837266 0.061937056 0.042392183 0.028727053 0.22987883 -0.06767766 0.04216699 -0.11283851
0.14760797 -0.29862005 -0.3719435 -0.32837656 0.09656587 -0.070708916 -0.3803372 0.15012904
-0.22865948 -0.29128042 -0.35506934 -0.09661372 -0.16855364 0.15075263 0.50429165 0.29305467
0.1076401 0.2638293 0.225968 0.116212994 0.036010478 0.29850033 0.122799754 0.11498525
0.41766784 -0.27816117 -0.19971792 -0.065183766 0.037643284 0.015039016 0.23238747 0.11971594
-0.3888655 0.21363705 0.35241297 0.06226149 -0.017859701 0.24539584 -0.14741735 0.31444547
0.006586577 -0.17629296 -0.29172507 -0.048832178 0.025746224 -0.49728915 0.034005135 0.16640255
0.19303207 0.10356283 -1.0070549 0.2066259 -0.2961055 -0.16582368 -0.067326374 -0.47344455
-0.34886956 0.0013085509 -0.0065620835 -0.56297714 -0.23608296 0.11951666 -0.47485954 0.12375541
0.47875404 0.116431355 0.13540022 0.1867087 -0.29820636 0.5726951 0.25896677 -0.49267724
0.45729524 0.091342665 -0.19938014 -0.024089936 -0.07619392 -0.027791768 0.27609298 0.28461817
-0.18546122 0.0591678 -0.08159918 -0.58656824 -0.30778295 -0.26341683 0.2486771 -0.054280728

conv3.bias f4 [32]
00000000: 4ce0 723e 5b35 803e 189f ee3e 018f b23d
00000010: d550 243e 512b da3d b4ce e2bf e837 883e
00000020: c5e5 4fbd 34c0 cfbe 3ea5 da3d fd54 e3ba
00000030: 8df3 0e3f 24e8 c13e cfc9 6a3d 830c e73e
00000040: c637 283f 62b4 1b3e fdc5 8f3e ab28 183f
00000050: 9af7 053f b0af dabc b1b2 6c3e ed83 633f
00000060: 5827 a73d b25a a43f 2a99 c03e d8c2 f63e
00000070: 8bca c93e c019 603e 8034 94be 3a92 25bf
0.23718375 0.25040707 0.46605754 0.08718682 0.1604646 0.10652793 -1.7719331 0.26605153
-0.050756235 -0.40576327 0.10676049 -0.0017344054 0.5584038 0.37872422 0.057321366 0.45126733
0.65710104 0.1520553 0.2808074 0.59437054 0.52330935 -0.026695102 0.2311504 0.8887318
0.08161801 1.2840178 0.37616855 0.4819553 0.3941234 0.21884823 -0.28946304 -0.6467625

batch3.weight f4 [32]
00000000: f39a 4b3f 262a 5d3f bf33 833f 72b9 663f
00000010: 8791 393f b69c 583f 6af8 ae3f 6542 443f
00000020: b797 953f 69e7 833f 8a17 4b3f 5e8d 353f
00000030: 7ade 6d3f 0fa2 8d3f 01d6 183f 1e86 493f
00000040: 2541 633f ba1d 5d3f ea15 3e3f 1762 5d3f
00000050: dad8 6c3f 8d63 743f df87 393f da33 d03f
00000060: b879 563f 230d 8b3f 56d4 743f 046f 7d3f
00000070: f522 3e3f 38cd 3e3f c8f8 893f 54d9 7e3f
0.7953331 0.8639244 1.0250167 0.9012672 0.7248768 0.8461412 1.366956 0.7666381
1.1686925 1.0304996 0.7933279 0.70918834 0.929176 1.1065081 0.59701544 0.7872027
0.8877128 0.86373484 0.7425219 0.864778 0.9251839 0.954644 0.7247295 1.6265824
0.8377948 1.0863384 0.956365 0.9899752 0.7427209 0.7453189 1.0779047 0.99550366

batch3.bias f4 [32]
00000000: 78e6 94be 48ee 8cbe e169 d6be 720f fcbe
00000010: 8347 73be e75d 2cbf f473 36bf 5893 64be
00000020: 0aa1 5bbf fd3a a3be a3a8 f2be 114c 32be
00000030: bc2d a4be 0ea7 e9be e92e 0cbd 83e4 b8be
00000040: 6452 f5be fe49 aebe 8c23 b1be d3b8 babe
00000050: d44c 1fbf 5318 cdbe 484d 6ebe 570d 79bf
00000060: 408e 07bf e706 24bf 90df a0be 21c3 20bf
00000070: 4a63 40be 3a57 96be ee64 88be c9d3 5cbf
-0.29082084 -0.27525544 -0.41877654 -0.49230534 -0.23757748 -0.67330784 -0.7127068 -0.22321832
-0.857926 -0.31880942 -0.47394285 -0.1741183 -0.32066143 -0.45635265 -0.034224425 -0.3611184
-0.47914422 -0.34040827 -0.34597433 -0.36469135 -0.62226605 -0.4005762 -0.23271668 -0.9728598
-0.5295143 -0.6407303 -0.31420565 -0.62797743 -0.18787876 -0.29363424 -0.26639503 -0.8626066

conv4.weight f4 [32, 32, 3, 3]
00000000: f405 f4bd 7ce4 553c 308c c2bc d096 00be
00000010: 00f6 54bd e6ab b3bd 7efc 88bd aa3f 0bbe
00000020: e828 8b3d bd97 883d 2663 973d 09c0 c03d
00000030: be52 06bc 9901 94bd 5502 273c 86a0 b03d
00000040: 7087 07bd 53ab 903b 7bf1 e03d 6703 8e3c
00000050: bfb6 8d3d afb3 783d 0a4e c63c 8b46 1a3d
00000060: 7e38 703c bd8c 7bbd de44 d5bc 0805 2fbe
00000070: 09b7 4f3b e0a7 efbc bc43 07be 47bc c1bc
00000080: 6bb6 babd f2d3 4cbe 129e 32bd 2310 783d
00000090: 7f64 2cbc e25b fc3d 9d38 a53d 26ae e93d
000000a0: 7e4c 143e 22be f33c 4e99 fa3d dad7 843d
000000b0: 21ad c03c 60a2 bf3d 000a e1ba 83bb ae3d
000000c0: 0490 183e c99f 71bd 6d31 af3b e721 f73d
000000d0: bd13 e73d 4af6 113d 3d04 9dbc 4eec 923d
000000e0: fe6b 1c3d 835a 753d 9e62 8bbd adb8 2bbc
000000f0: 6e0f 65be 58d6 d13c c495 113d dc04 203d
00000100: a320 dfbc 6d5c b93c 14ca 0f3e 84de 37bd
00000110: 950b 65bd badb a63c 53da 253c a5cf 133d
00000120: b84f 12be 364d d03d 734a 953d 9d3b 51be
00000130: efdf abbd a21d bd3d ce2e 50be 30fc 1bbd
00000140: d499 b9bd b31d d7be e8a8 c33b 6d00 b0bb
00000150: 3d7b c5be 9d43 abbc 2051 63bb d63c cfbe
00000160: a4ad 7b3d 3c9a de3d bd5a ea3c 3add 113c
00000170: e80d fb3d 8552 6d3c 496c f93c a70e fa3d
00000180: 2383 9fbd 0cd2 8a3c 312b 2a3e 78db afbd
00000190: 1202 b3ba 84b7 ec3c bee8 f7bc 2a11 cfbd
000001a0: fef9 e6bc 15b5 abbd 61f8 063c f400 c53d
000001b0: 410d 3e3d 00ed 253d ab92 eeba c225 4bbc
000001c0: c973 683c facd 52bd 31f4 ab3d ce1a 5b3d
000001d0: 0255 bc3d d192 fd3c 2afe f63d 397d 9a3c
000001e0: 6dbb 213e 529c 1a3e eb35 2cb9 fc34 273e
000001f0: 11bb ac3d 6ab5 7cbb 5a1d 9c3d c7bc e53c
00000200: f9a0 42bb c452 8b3d 6c9b 433c 6328 1dbd
00000210: 481a 183e f801 823c 7034 ee3d 67dd 373d
00000220: 2eaa 523d b692 933d a524 e03c 1d0c a8bd
00000230: 8c1a ab3d 878c d53c 012b 223d 7091 d03c
00000240: 36ac cd3b e55f e93c 31af efbd 4d42 7b3d
00000250: e45c 1bbd 6cc4 65bd df2a 4f3c bebe 673d
00000260: 1c05 63bc 8234 5abe 8340 1e3d f779 bcbc
00000270: 2eb9 a3bd e6fe 983c fa6f 48bd 95eb 42be
00000280: 3d26 633d 8628 373d dafb 293e 23ef 5b3d
00000290: d65f c83d 94aa a63d b75e 8b3d 23ce 8f3d
000002a0: 77ca 083e b5b3 773d beba 8e3d 074f 0e3e
000002b0: f80c 623d 2aa7 db3d a69a eb3d 76a3 f93d
000002c0: 66bf 20bc 6e4e c83d 5adc fd3c d8e5 6f3d
000002d0: 8215 913d 28c4 a0bd 2592 633d d013 053e
000002e0: 9949 cd3d 7218 473d 0adf 083e 652e 2d3e
000002f0: 2783 d9bc 2ac0 e8bc 1fa3 e0bd e474 553d
00000300: dd11 bd3c fd97 efbd 004d 153d 0112 eebd
00000310: ff57 413d 3fba e63d 2999 8dbd 297a f63b
00000320: dc30 aa3a 9a7d 25bd 7d2a 903d fe66 05bd
00000330: e16f 5d3d 9bb7 a3bd 898e 363d fd89 e7be
00000340: d1e4 35bd 84a7 37bc 89b5 e4be 71e8 65bd
00000350: a84d 213e 9986 debe 7d30 61bd f734 c13d
00000360: 5b11 693c 51da c23c f624 9b3d 2514 433d
00000370: 73db d0bd d0ad d1bc d2b7 d63c 186c b1bd
00000380: a8e9 823c c567 a63d c1d4 cb3d 789c f93d
00000390: bcda 0a3e bd71 f9bc 4640 063e 28aa bd3d
000003a0: 84c8 583d 7e4d da3c f307 8dbe b072 063e
000003b0: 477a a43d f199 4ebe 0294 cf3d 6c1a 96bb
000003c0: a934 89be b4c3 1ebd 502b e3bb b562 e23d
000003d0: 5078 cabc 1210 86bd 49fc 473c 27f0 4c3b
000003e0: e936 65bd 6ffd ac3d ae7d 7b3d 76fa 3f3d
000003f0: eead 1dbd baf2 9abd a192 f03c a258 a23d
-0.11915198 0.013054963 -0.023748487 -0.1255753 -0.051992416 -0.087730214 -0.06688784 -0.13598505
0.067949116 0.06669567 0.07391958 0.09411628 -0.008198438 -0.07226867 0.010193427 0.086243674
-0.033088148 0.0044149547 0.10983559 0.017335607 0.06919622 0.060718235 0.024207134 0.03766493
0.014661906 -0.061413515 -0.026033815 -0.17091763 0.003169479 -0.029254854 -0.13209432 -0.023649348
-0.09116825 -0.20002726 -0.04360778 0.060562264 -0.010522007 0.12322213 0.08067439 0.11410169
0.14482304 0.029753748 0.12236272 0.06486483 0.023520054 0.093571424 -0.0017169118 0.08531859
0.14898688 -0.058990274 0.005346468 0.12067013 0.11283062 0.03563527 -0.01916706 0.07173978
0.038188927 0.05990077 -0.06805919 -0.010481042 -0.22369167 0.025614902 0.03554322 0.039067134
-0.027237242 0.02262708 0.1404193 -0.04488994 -0.05591925 0.020368446 0.010122853 0.036086697
-0.14288223 0.10170977 0.07289591 -0.20432897 -0.08392321 0.09234168 -0.20330355 -0.0380823
-0.090625435 -0.42014846 0.005971063 -0.0053711445 -0.38570586 -0.020906264 -0.0034685805 -0.40476102
0.061444893 0.108692616 0.02860772 0.008902842 0.12258512 0.014485006 0.030447142 0.12209826
-0.07788684 0.016945861 0.16618039 -0.08586782 -0.0013657233 0.0288961 -0.030262347 -0.10110696
-0.028195377 -0.08384148 0.008237929 0.096193224 0.04639936 0.040509224 -0.001820167 -0.012399139
0.014187762 -0.051465966 0.08396185 0.05349236 0.091959015 0.030953797 0.12060197 0.018858539
0.15794154 0.15098694 -0.00016423284 0.16328806 0.084341176 -0.003856028 0.07622786 0.028044118
-0.0029697998 0.06802896 0.011938911 -0.038368594 0.14853776 0.01587008 0.116310954 0.04488888
0.051431827 0.07205717 0.027361223 -0.082054354 0.08354673 0.026067985 0.039591793 0.025459975
0.0062766327 0.028488109 -0.11703337 0.061342526 -0.037930384 -0.056095526 0.012644499 0.05657839
-0.013856199 -0.21309093 0.038635742 -0.023007376 -0.079943046 0.018676233 -0.048934914 -0.1903518
0.05545639 0.04471638 0.1659998 0.053694855 0.09783904 0.08138004 0.06805175 0.07021739
0.13358484 0.060474116 0.06969212 0.13897334 0.05518815 0.107252434 0.11504106 0.12189381
-0.009811258 0.09780584 0.03098886 0.058568805 0.070841804 -0.07849914 0.055559296 0.12995839
0.10023803 0.048607297 0.13366333 0.1691223 -0.026551796 -0.028411943 -0.10968613 0.05211343
0.023079807 -0.11698911 0.036450386 -0.11624528 0.04720306 0.112659924 -0.069139786 0.007521887
0.0012984532 -0.040402986 0.07039354 -0.032568924 0.054061774 -0.07994004 0.044569526 -0.45222464
-0.04440767 -0.011209372 -0.4466975 -0.056129877 0.1575228 -0.43462065 -0.054977883 0.0943393
0.014225329 0.023785742 0.07575409 0.047626633 -0.101981066 -0.025595576 0.0262107 -0.08663195
0.015980557 0.08125261 0.09952689 0.12188047 0.13560003 -0.030449742 0.13110456 0.0926097
0.0529256 0.02664828 -0.27545127 0.13129687 0.08031135 -0.20175911 0.10135652 -0.0045807865
-0.2679799 -0.038760856 -0.0069326535 0.11053983 -0.024715573 -0.06546034 0.012206146 0.0031271072
-0.05596057 0.08446776 0.061399154 0.046869718 -0.03849595 -0.07565828 0.029366793 0.079270616

conv4.bias f4 [32]
00000000: 2d47 7dbc c766 573f 129a fd3c 7afa 393c
00000010: c278 bd3e 1392 3ebc a0bb a93e 33e4 0dbd
00000020: 086d 83bc 4e33 953c c9a7 dd3e 444f 5f3e
00000030: 1879 a13e 982f f23e 3f80 1a3e 7101 af3d
00000040: 9e48 d53e ae16 83bb 9ca5 753c 9e6c 443d
00000050: 5bb2 a73e ac6c 5b3e 4b21 dc3d aa8b 1bbd
00000060: c2e5 563d 3177 493f a036 4dbd 6bdb 4e3d
00000070: ea89 4a3d 2185 f73c 81c6 d33e d602 d83c
-0.015458864 0.841412 0.030957256 0.011351222 0.37006193 -0.0116315065 0.3315096 -0.034641456
-0.016043201 0.01821294 0.43292072 0.21807581 0.315377 0.47301936 0.15087985 0.08545197
0.41656965 -0.0040005064 0.014993098 0.047955148 0.32753262 0.21428174 0.10748538 -0.03797499
0.052465208 0.78697497 -0.050100923 0.050502222 0.04944793 0.030214848 0.41362384 0.02636854

batch4.weight f4 [32]
00000000: 694c 9f3e 7b18 bf40 ba7c 4c3f f854 b33e
00000010: 33ad 8940 4738 cc3e 2133 8a40 0034 bb3e
00000020: 97db de3e 841b 7a3f ffad 9940 6e22 4240
00000030: 1203 5140 1713 9240 9a00 4640 0f10 da3f
00000040: 3323 ad40 54c2 9e3e 532f b53e 675a 803e
00000050: b413 6840 83ec 7240 a89d 4f40 430b bf3e
00000060: 6356 473f 78dc 6740 6641 e13e 6f92 353f
00000070: e8b2 be3e 5a94 b33f e032 7540 3cd4 7d3f
0.31112984 5.9717383 0.7987782 0.35025764 4.3023925 0.39886686 4.3187413 0.3656311
0.4352691 0.97698236 4.8024898 3.0333514 3.2658124 4.5648303 3.0937867 1.7036151
5.410547 0.31007636 0.35387668 0.25068972 3.6262026 3.7956855 3.2439976 0.3731328
0.7786619 3.6228313 0.43995208 0.70926565 0.3724587 1.4029648 3.8312302 0.9915197

batch4.bias f4 [32]
00000000: 50d1 2ebf b986 86c0 09c1 abbf 97f0 22bf
00000010: e26b 29c0 0f84 51bf d0bf 52c0 8e64 31bf
00000020: 9f55 50bf d514 cbbf 8a68 56c0 77f5 09c0
00000030: 6eaa 1dc0 9389 3dc0 7f46 15c0 6c7c f8bf
00000040: 6492 14c0 d1a6 2cbf f051 31bf 82f1 35bf
00000050: 7662 30c0 19c9 07c0 cf30 f8bf 3bc7 39bf
00000060: 9086 afbf 53d6 91bf 23fb 54bf 8808 8fbf
00000070: b1f3 3cbf 69be 07c0 2738 76c0 a769 c6bf
-0.68288136 -4.2039456 -1.3418285 -0.6364836 -2.6472096 -0.8184213 -3.2929573 -0.6929406
-0.8138065 -1.5865732 -3.3501306 -2.155607 -2.4635272 -2.9615219 -2.3324277 -1.941297
-2.321435 -0.6744204 -0.6926565 -0.71071637 -2.7560096 -2.121649 -1.9389895 -0.72569627
-1.371294 -1.1393532 -0.83195704 -1.1174479 -0.73809344 -2.1209967 -3.8471773 -1.5500993

lin1.weight f4 [5, 800]
00000000: 441d 11bd d266 033c 2e09 08bc 40c7 67bb
00000010: 37de 3abb c196 0dbd ddde 23bd 3960 3b3c
00000020: 5ac1 f9bc afa0 d7bb 16d4 26be 3b8e 8abc
00000030: b37f 293d 3ac6 8dbd 26b9 ecb8 07e1 103b
00000040: 42a9 5abd eb5e 1a3d 9fcd 1ebd f2c7 483c
00000050: 376c adbc b843 1c3d b690 07bd 812c 003b
00000060: 8f31 2d3c 7fc0 ae3b 8f02 89bc 8096 c737
00000070: d8aa 9ebb 12ed a03c 9ac2 c9ba 66e6 c6bb
00000080: 7f7a 343a 152c f3bb bd67 5d3c 0fdb 5f3c
00000090: 1497 5bbb ff60 20bc 4e24 393c 78c5 b93b
000000a0: ef90 bdbc 75c3 08bc 8db4 3ebc f678 8cbc
000000b0: 4f46 deba c7b8 5c3a 89de 6f3b 7922 b7bb
000000c0: 9d81 11bc 4dd0 76bb 34db 8c3d c4f1 d13c
000000d0: e7c8 633d 10ec 893d 84f7 4a3c 7046 a4bc
000000e0: d989 43be a839 1bbe d821 6abe cc2a 933d
000000f0: 74dd 5ebe c5f4 25be 5d41 bcbd ac6f c8bd
00000100: af29 67bd 0cca 6ebe f377 bbba 73b5 37be
00000110: e120 a1bd 800a 44bc 7db3 a5bd 5210 fbbd
00000120: 2342 05be d711 4dbe 7d50 ecbd 1893 42bd
00000130: faaa 5fbb b7a3 f9bb 4015 6c3b a96b 283c
00000140: 8c0b 1ebd 3d10 33bd 182b 8fbc 1f07 b1bd
00000150: a802 c7bd 4384 223d c532 0bbc 7cfe 323d
00000160: 0f40 e1bc efb2 d9bd d896 eabc ff8c 19bc
00000170: be3b 1fbc 11aa cc3a 601b 16bd cc2a d7bc
00000180: 56b2 90ba dd53 b5bc f6fe 153a 7501 203d
00000190: c057 203c 1b17 1fbc adcd 6f3b 1308 3fbc
000001a0: 4a1b 463c 14a7 b6bb 299b a0b9 427b 8bbc
000001b0: e7e2 fbbb f19c babc 8b72 903c b729 7fbb
000001c0: 948f 6cbc 063b d7bb c94f 09bb 1465 303c
000001d0: d475 8bbc 940d b9ba d765 ef3b a835 73bc
000001e0: a548 63ba 6f93 0abc 92d0 91bb 10e1 f3bb
000001f0: b047 f0bc b75f 0e3d 1591 843a ad9c acbd
00000200: 543f 8ebc f32e fbba 545a f2bc a9bc 00be
00000210: 1cc6 a83c 07d1 88bd 3dd8 89bd 2ba4 16bd
00000220: e499 5fbd e95e a53b 4065 1fbd b5ca debd
00000230: 04fe 6d3c 52e8 783c ff65 083e 47e9 27bd
00000240: 5e69 08bc dedf 093c 24ec 703d a31f 333d
00000250: 8efb ebbc 918d dabc 102a 903c 70cb fbbb
00000260: 8aaf ed3a 7d85 4dbb e618 923c 4e7d 343c
00000270: 1272 9fbb 733d f0ba a120 d43b ccbb 8bb9
00000280: 2ea4 713b b93c b4bb 9c98 46bb 0df5 b2bb
00000290: 2e22 34bc 3ebf 483b e47e f8bb 6831 0b3c
000002a0: 390c 12bc 157c 3d3c 050e 203d 78c5 1dbc
000002b0: 5696 833c c86b 45bc 2acb 523c 6f3d e7bc
000002c0: 0421 a5ba ee88 2abc 55b7 1f3c da73 45bc
000002d0: 5dd1 523b 9f91 f2bb eed6 973c ec5a 3cbd
000002e0: 7f73 6a3c 6af6 86bc 411d 0fbc f90e 2dbd
000002f0: b451 cf3b fe35 a03c 682f e03c 702b 3b3c
00000300: 46f5 4bbd da10 a4bc 7fe9 8fbc 58c4 92bc
00000310: 82b9 94bc 89e7 1d3c 3f25 4cbb 614a a2bc
00000320: 2e13 febc 7a35 e9bc 4196 28bb efda bc3b
00000330: 0799 79bd 4d63 0b3d a94e 10bc 968b b9ba
00000340: 01f7 ccbb 02ee d4bb aef3 593d 645d 963c
00000350: 7e59 80bc 6729 3ebc 6237 c03b 8b83 42bd
00000360: 507d 463d b975 31bc f561 ba3b 3810 4a3d
00000370: 7a3e 59bd 19d8 94bb 9c13 51bc 05ff 863b
00000380: 192b c5bb fdfa 3b3d 54c1 fc3d 716c 06be
00000390: 39cc 77be 7279 c6bc 0995 e23c 07ea 7d3c
000003a0: cfcc 8b3c 780b 45bd ba1a f1bc ec2e ccbd
000003b0: dce9 1abe 5a9d cd3d 7dc0 57be cfc6 f7bd
000003c0: 39f3 1f3d b7da 44bd 1026 b23d ad31 44be
000003d0: e886 76bd 7120 0e3c 999b 59bd fae0 dbbc
000003e0: 0e77 e9bd 5e8f a33b 42ad 87bb 24d8 683c
000003f0: c32b 57bc 5749 8fbb 5c36 97bc 4dbc d43b
-0.0354283 0.00802012 -0.00830297 -0.0035366565 -0.0028513798 -0.0345676 -0.04000746 0.0114365155
-0.030487705 -0.0065804343 -0.16291842 -0.016913524 0.04138155 -0.06922574 -0.000112878435 0.0022106783
-0.053384073 0.037688177 -0.038770314 0.012254702 -0.021169765 0.03815052 -0.03309699 0.0019557776
0.010570898 0.005333006 -0.016724853 2.379273e-05 -0.0048421435 0.019644294 -0.0015393079 -0.006069946
0.00068847084 -0.0074210265 0.013513503 0.0136630675 -0.0033506798 -0.009788751 0.01130016 0.005669292
-0.023140399 -0.008347382 -0.011639726 -0.017147522 -0.001695821 0.0008419868 0.0036601147 -0.0055888263
-0.008881 -0.0037660778 0.06877747 0.025627978 0.055611517 0.067344785 0.012388114 -0.020053118
-0.19095553 -0.15158713 -0.22864473 0.07185897 -0.21764165 -0.16206653 -0.091921546 -0.09786925
-0.056436237 -0.23319262 -0.0014302715 -0.17940311 -0.07867599 -0.011965394 -0.08090875 -0.12258972
-0.1301351 -0.20026337 -0.115387894 -0.04750356 -0.003412901 -0.0076183933 0.0036023408 0.010279574
-0.03858523 -0.043716658 -0.017476603 -0.08643936 -0.097173035 0.039676916 -0.008495991 0.043699726
-0.027496366 -0.10629832 -0.028636381 -0.009371995 -0.0097188335 0.0015614649 -0.0366472 -0.026265524
-0.0011039476 -0.022134716 0.0005721891 0.03906389 0.009786546 -0.009710099 0.0036591098 -0.01165964
0.012091467 -0.0055741165 -0.0003063318 -0.017026547 -0.007686961 -0.022779914 0.017632743 -0.0038934776
-0.014438529 -0.0065683154 -0.0020952097 0.010766286 -0.017023958 -0.0014118426 0.0073058414 -0.014844336
-0.00086701877 -0.0084580025 -0.0044499123 -0.007442601 -0.029331058 0.03475925 0.0010114039 -0.08428321
-0.017364182 -0.0019163772 -0.029584087 -0.12571968 0.020602278 -0.06680494 -0.06730697 -0.036777657
-0.05459012 0.0050467146 -0.03891492 -0.10878507 0.014525894 0.015192108 0.13320158 -0.040993955
-0.008325903 0.0084151905 0.05881895 0.043731343 -0.028806474 -0.026678832 0.017598182 -0.0076841637
0.001813398 -0.0031360083 0.017834138 0.011016203 -0.004865893 -0.001832886 0.006473616 -0.00026652066
0.003687154 -0.005500403 -0.0030303365 -0.0054613412 -0.010994477 0.0030631567 -0.007583486 0.008495666
-0.008914047 0.011565228 0.03907587 -0.0096296 0.016062897 -0.012049623 0.012865821 -0.028227536
-0.001259834 -0.010408623 0.0097483 -0.012051547 0.0032168247 -0.0074026133 0.018535104 -0.045985147
0.014309763 -0.016474921 -0.008735002 -0.042250607 0.0063268784 0.019556995 0.027366355 0.0114239305
-0.049794458 -0.020027567 -0.017567394 -0.01791589 -0.018154863 0.009637722 -0.003115013 -0.019810857
-0.031015005 -0.028467882 -0.0025724324 0.0057634036 -0.060936954 0.034030247 -0.008807817 -0.001415598
-0.006255031 -0.0064980993 0.053210907 0.018355079 -0.015667673 -0.011606551 0.005865977 -0.04748873
0.04845935 -0.01083129 0.005687947 0.049331874 -0.053038098 -0.0045423624 -0.012761023 0.004119756
-0.0060171005 0.045893658 0.12341562 -0.13127305 -0.24198999 -0.024227832 0.027658956 0.015497691
0.017065434 -0.04810664 -0.02943169 -0.09969887 -0.15128273 0.10039778 -0.21069522 -0.120984666
0.039050315 -0.048060145 0.08698666 -0.19159575 -0.06018725 0.008674727 -0.053126905 -0.026840676
-0.11399661 0.004991456 -0.004140527 0.014211688 -0.013132992 -0.0043727565 -0.018458538 0.0064921738

lin1.bias f4 [5]
00000000: 674a 8abc eb6f 6ebc 415c 38bc 9bf1 79bc
00000010: f694 09bd
-0.01688118 -0.0145530505 -0.011252464 -0.015255357 -0.033589326

exp_avg f4 [32, 3, 3, 3]
00000000: e46e bb3c 9592 9b3c c0ec ca3c 5603 063d
00000010: 2849 c83c a79d cc3c 6208 093d 3afc f63c
00000020: 22c7 f63c afea e53c 7c6b ae3c fdc3 e43c
00000030: 2870 113d b415 e23c a405 e33c 19f3 0e3d
00000040: 5fdc 053d e471 ff3c a942 f03c 0702 c63c
00000050: deb0 dd3c 6c75 243d 2485 023d 6e0d f53c
00000060: 5cdd 243d 781b 0f3d 8bd3 023d ed25 8e3b
00000070: ab9a 5e3b 4fee 3a3b 2d38 9b3b c554 973b
00000080: 1ea9 273b 07f3 2d3b ef14 5c3b 07a8 f13a
00000090: 915e 8a3b 92c7 833b e392 903b 6647 683b
000000a0: 1f28 823b 4bd2 483b 4519 1d3b 7820 5c3b
000000b0: 6618 da3a 2599 453b 16e2 493b 41f9 573b
000000c0: 28ca 023b 4364 273b 973b c63a d928 883a
000000d0: f137 d13a b300 6339 fbbe 00bc cff3 efbb
000000e0: d788 39bc ba9d f6bb 714e f3bb 68eb 50bc
000000f0: a6fc 9cbb b2e6 aabb 294b 13bc 161c 67bb
00000100: da3b bcba 1db6 a9bb 8ffc bdba eb34 19bb
00000110: 899d dfbb 87a1 763a 8a80 2b39 8e66 4ebb
00000120: 849e 03bc d070 ffbb 3e09 3abc 4317 cdbb
00000130: 1455 00bc e8c1 51bc 99e7 76bb 977d bebb
00000140: 66ab 08bc 1f65 903c 8365 923c 172d 6c3c
00000150: 7b96 903c 1279 913c c980 803c 0cfd 633c
00000160: f46e 573c 1e35 853c 4802 fd3c 07ee 013d
00000170: facb e63c 7782 fc3c d2e7 fc3c c731 ee3c
00000180: 8fe8 d53c ebb6 d33c 6084 f03c c51d e23c
00000190: 8c8f ec3c 1c1c d63c c147 ea3c b0be e63c
000001a0: ae49 d43c 6efd bc3c d1b6 be3c de4c d33c
000001b0: 99c7 4fbb 6f6a 36bb c60b 10bb 7b77 10bb
000001c0: df3a b6ba bb00 bfba 6e1c 1ebb ae5c dbba
000001d0: c16d 97ba b6ce ccba 5568 88ba 1c34 f3b9
000001e0: 5943 7bba 5e8b 8238 fb70 e339 dd97 98ba
000001f0: cc06 cdb8 4d26 053a 1ff5 2bb9 c61f 4d3a
00000200: 499d d53a 75ea 9039 d229 ff3a 862e 2d3b
00000210: c0ac c2b7 3ba0 bd3a a23e 173b 09de 35bc
00000220: d9b0 05bc d4a2 e5bb a2b7 28bc 47e7 c0bb
00000230: cc6b afbb 4e31 27bc 1cc9 cebb c1aa cbbb
00000240: 33d2 08bc f2d3 9fbb 7b11 90bb 6b8d ecbb
00000250: 38b4 14bb 5112 beba 93f7 fdbb d97f 5fbb
00000260: a748 0abb 9c18 1dbc 015f b8bb 3b53 9fbb
00000270: 260b 00bc ac35 5cbb df87 26bb adc0 f9bb
00000280: ee29 8bbb 986e 31bb e668 8e3b 591d 163a
00000290: f4ea ab3a 3167 693b fccf dd3a b022 4ebb
000002a0: c040 483b 3445 033b 3c1e 95bb fde9 06bb
000002b0: 04b2 90bb 200a b7bb e5e3 23bb 002d d0bb
000002c0: 72bb 35bc 25e3 99bb c173 dcbb 3edd 3bbc
000002d0: 4fcb 0bbb f83a 87bb a0bb 26bb 29f2 acbb
000002e0: aea1 24bc b31c 4ebc 43af b4bb 93b8 14bc
000002f0: 6d5e 72bc ccdc 343c ba6d a53b 90c4 743b
00000300: e28f cb3b 373b 603a af33 043b ffa6 7a3b
00000310: 7ae8 093b 6484 1d3a a232 693c 9689 343c
00000320: 6faa 243c 0624 173c 51b0 cc3b d399 f83b
00000330: 68b4 ed3b 13ad c83b 2824 f53b bacc 1d3c
00000340: a615 ab3b 8aa5 ca3b 18c4 903b e41c 1d39
00000350: f543 da39 e31b 553b c8e4 20b9 a568 5039
00000360: 1402 abbc 411e d3bc ce3a d1bc 18df 96bc
00000370: f720 bcbc 8619 ccbc 82d9 8ebc 8971 c3bc
00000380: c671 c7bc 7006 99bc 478e b3bc 3e73 b8bc
00000390: 3bc5 8cbc bde2 a9bc 2f54 b8bc f363 8abc
000003a0: 1e2d b9bc 2774 babc 9830 a0bc c10c b3bc
000003b0: eca8 b9bc df90 94bc 5000 b7bc 5255 c8bc
000003c0: 3a6b 98bc 77b8 c9bc a107 d0bc ec6f 863c
000003d0: bc68 953c 6ee9 9b3c 5786 6a3c 8c0d 5e3c
000003e0: 595f 843c f9b7 3b3c 77ff 1b3c e04a 403c
000003f0: 87d8 813c 9a54 9d3c daa0 a73c d0a7 633c
0.022880025 0.018990794 0.024771094 0.032718025 0.024448946 0.024977518 0.03345526 0.030149568
0.03012425 0.028066007 0.021291487 0.027925486 0.03550735 0.02759824 0.02771265 0.034899805
0.032680865 0.031182237 0.029328661 0.024170889 0.027061876 0.040151045 0.031865254 0.02991363
0.040250167 0.034938306 0.031940024 0.004338017 0.00339667 0.002852339 0.0047369213 0.0046182596
0.002558298 0.002654256 0.0033581813 0.0018436917 0.004222699 0.0040215934 0.0044120415 0.0035442947
0.003972068 0.0030642923 0.002397136 0.0033588689 0.0016639351 0.0030151096 0.0030804924 0.0032954963
0.001995692 0.0025541938 0.001512396 0.001038815 0.0015962106 0.00021648667 -0.007858033 -0.0073227654
-0.011324129 -0.0075261267 -0.0074251224 -0.012751438 -0.00479086 -0.0052154893 -0.008990088 -0.0035264543
-0.0014361099 -0.0051791803 -0.0014494824 -0.0023377489 -0.0068241996 0.0009408225 0.00016355715 -0.0031494233
-0.008033399 -0.0077954307 -0.011354743 -0.0062588765 -0.007832784 -0.0128025785 -0.0037674664 -0.0058133113
-0.008341646 0.017626343 0.01787067 0.014415047 0.01764988 0.017757926 0.01568641 0.013915312
0.013149012 0.01626068 0.030884877 0.03172114 0.028173435 0.03082393 0.03087226 0.02907647
0.02611187 0.025844058 0.029359996 0.027602086 0.028877042 0.02613645 0.028598668 0.028167099
0.02591404 0.023070063 0.023280533 0.02579349 -0.0031704663 -0.0027834435 -0.0021979674 -0.0022043872
-0.0013903043 -0.0014572361 -0.0024125832 -0.0016735995 -0.0011553095 -0.001562557 -0.001040707 -0.00046387396
-0.0009584926 6.224842e-05 0.0004338099 -0.0011641938 -9.776428e-05 0.00050792546 -0.00016399146 0.0007824864
0.0016297485 0.00027640504 0.001946742 0.0026425435 -2.3207045e-05 0.0014467308 0.0023078104 -0.011100301
-0.00815984 -0.007007936 -0.010297688 -0.0058869454 -0.0053534266 -0.010204626 -0.006310595 -0.006215424
-0.008350897 -0.004877561 -0.004396615 -0.007219007 -0.0022690427 -0.0014501308 -0.0077504604 -0.0034103303
-0.0021100433 -0.009588387 -0.0056265597 -0.0048622168 -0.007815158 -0.0033601327 -0.0025410575 -0.0076218457
-0.004246942 -0.0027073976 0.004346001 0.0005726419 0.0013116286 0.0035614485 0.0016922946 -0.003145378
0.0030556172 0.0020030262 -0.0045507234 -0.0020586245 -0.0044157524 -0.005585924 -0.0025007662 -0.0063530207
-0.011092054 -0.004696267 -0.006727666 -0.0114663225 -0.0021330898 -0.0041269027 -0.0025441423 -0.005277891
-0.010048313 -0.012580085 -0.005514057 -0.009077209 -0.014793021 0.01103897 0.005048481 0.0037348606
0.0062122205 0.00085537456 0.0020172407 0.003824651 0.0021043108 0.00060088024 0.014233263 0.011019131
0.0100504 0.009224897 0.0062466045 0.0075866967 0.007254172 0.0061241477 0.007481117 0.00963133
0.0052210866 0.0061842846 0.0044179074 0.0001498345 0.00041630832 0.0032517842 -0.00015344017 0.00019875409
-0.020875014 -0.025771262 -0.025540736 -0.018416926 -0.022964938 -0.024914514 -0.0174377 -0.023857849
-0.024346244 -0.018679827 -0.021918429 -0.02251589 -0.01718389 -0.020738 -0.02250108 -0.016893363
-0.022604521 -0.022760464 -0.019554421 -0.021856667 -0.022663556 -0.018135486 -0.022339016 -0.024454746
-0.018605817 -0.024624093 -0.025394263 0.01641079 0.018238418 0.019032206 0.014314256 0.0135530345
0.016158747 0.011457437 0.009521357 0.011736602 0.015850319 0.01920538 0.020462442 0.01389499
