results_auto/01_domain_adaptation/maml_supervised/June_14/officehome_maml_order_2_seed_0_shots_1_ways_5_meta-lr_0.0001_test-domain_Clipart_dropout_0.1_RandAugment-prob_0.5_pre-train-wts_datetime_13_06_2021_17_41_38/intermediate_56000_model.pt (torch, 412181 bytes, 54 tensors)

conv1.weight f4 [32, 3, 3, 3]
000000 b4 fc ef 3e 09 0c 9b 3d e4 c7 17 be c7 a3 50 bd
       0.46872485 0.07570655 -0.14822346 -0.05093744
000010 39 92 49 be b1 21 36 be 5a 32 1b 3e d7 14 a3 3d
       -0.19684686 -0.1778629 0.15155926 0.07962959
000020 de 3e 13 be 5f 95 70 3c 09 75 58 be 1b f3 69 3d
       -0.1437945 0.01468405 -0.21138395 0.05711661
000030 43 43 b2 be 6a ec 28 be b5 f7 a2 bc 0a 41 62 bc
       -0.34816942 -0.16496435 -0.019893507 -0.013809452
000040 c0 5a f6 3d 2e fd 8a 3e 29 d3 50 bf a3 be e4 be
       0.12029028 0.27146286 -0.81572205 -0.44676694
000050 9f a2 23 3e 49 aa 94 be c4 c6 1d 3d 53 c6 0a 3f
       0.15980004 -0.29036167 0.038519636 0.5420887
000060 ee 4e 1b be 0e 00 ae 3e e4 33 4a 3f 60 db 42 3d
       -0.15166828 0.33984417 0.7898543 0.047572494
000070 54 61 4c 3d 20 21 d1 3e 99 af 36 be d1 8f 4d 3e
       0.049897507 0.40845585 -0.17840423 0.20074393
000080 54 35 b6 3e c4 67 d6 be f8 f2 e7 be f7 bd e9 bd
       0.3558756 -0.41876042 -0.45302558 -0.11413186
000090 82 18 28 be ba b0 6f 3e 96 17 c3 3e 08 f2 79 be
       -0.16415599 0.2340726 0.38103932 -0.24408734
0000a0 d2 fc 6b bd 34 07 2c 3e d3 a9 e2 be 0f a8 0b bf
       -0.057614155 0.16799623 -0.4427019 -0.5455331
0000b0 3c e0 82 be fa ad 32 3d e8 ea 8c 3e bc cb 00 3f
       -0.25561702 0.04362295 0.2752297 0.50310874
0000c0 d7 c6 74 be af 29 a7 bb d3 13 cd 3e 28 ee a7 bc
       -0.23903976 -0.0051014046 0.40054187 -0.020499304
0000d0 21 7a 2d be e5 9e 26 3c c3 e2 c6 3e d4 ba 00 3e
       -0.1694112 0.010169719 0.3884488 0.1257127
0000e0 e4 fe 90 3e 32 a9 8e be f5 25 8c be e0 c3 ba be
       0.28319466 -0.2786346 -0.2737271 -0.36477566
0000f0 bc 4d 72 bd 57 1b 34 bd 20 1e ee bd 89 99 bb 3e
       -0.059156165 -0.043971386 -0.1162684 0.36640576
000100 6c d2 a4 3e 0e 7e fe 3d 0d a8 a7 bc dd 48 c8 bc
       0.3219179 0.12426387 -0.020465875 -0.024448806
000110 6a 72 2b be d6 4e ef 3c 89 fc a0 be 3e 75 3a be
       -0.16742864 0.029212397 -0.3144267 -0.18208787
000120 a0 2c ec 3e 89 b9 f6 3e 55 71 09 3f 17 91 14 3e
       0.46127796 0.48188427 0.53688556 0.14508472
000130 9c b6 e9 bc 48 6f af be c6 1e 8e be 49 cb ec be
       -0.028529458 -0.34264588 -0.27757853 -0.46248844
000140 6f 67 c7 be d7 4d 05 3f 3b 6d c3 3e 92 0c 86 bd
       -0.389461 0.520719 0.38169274 -0.06545366
000150 57 87 d5 bd 1e 8c b6 be d8 bb d8 be 16 e2 b9 3d
       -0.10426205 -0.35653776 -0.42330813 0.090763256
000160 37 5b 39 3e 4a fe 95 bd 53 07 e1 3e ee 95 f6 3e
       0.18101202 -0.073238924 0.439509 0.48161262
000170 b2 a8 df 3e 7b 8d 55 be 78 15 06 bf dd 20 f6 be
       0.43683392 -0.20854752 -0.5237651 -0.48071948
000180 36 c0 be 3d 77 df f0 3d 5e 59 02 be 60 f0 9b 3c
       0.09314005 0.117613725 -0.12729403 0.019035518
000190 02 98 d7 3e 5c b4 00 3f 0b 30 eb be c2 49 c4 be
       0.4210816 0.50275207 -0.4593509 -0.38337523
0001a0 5b 4d b4 be 38 68 b8 bd b6 41 86 bd f8 82 6a 3d
       -0.35215268 -0.09004253 -0.06555502 0.057253808
0001b0 5c 45 a0 b9 f8 ee aa 3d a9 5f 09 be b9 0d 5a 3e
       -0.00030569255 0.08346361 -0.13415398 0.21294297
0001c0 0b 42 a3 bd f6 f8 02 3e ed 71 72 3d f4 05 8c be
       -0.07971581 0.12790284 0.05919068 -0.27348292
0001d0 64 db 3c be 5a 11 bd 3d 89 9e 8f 3e 65 21 e8 3c
       -0.18443066 0.09231825 0.2805064 0.028336236
0001e0 52 05 4a 3e ac 6a 48 3e 75 d9 06 be 3b 40 03 be
       0.19728592 0.19571942 -0.13168891 -0.1281747
0001f0 87 9a 98 be d0 b6 b8 be 25 d8 7e bf 28 16 67 3e
       -0.29805395 -0.36076975 -0.9954856 0.22567046
000200 e6 b6 0e be d0 6b 3b bf a5 cc de 3e a0 7a c3 3c
       -0.13936958 -0.73211384 0.43515506 0.023862183
000210 17 83 be bf f1 ff 85 3e 52 2f 6e be 62 7b b2 be
       -1.4883755 0.2617183 -0.23260239 -0.3485976
000220 fe 3b a6 bd 1b 67 6a be f6 a7 8a 3d b0 09 69 3e
       -0.08116911 -0.22890894 0.06770317 0.22757602
000230 51 78 92 3e 24 d1 bd 3e 55 16 2b 3f 5c b0 8a 3e
       0.2860742 0.37073624 0.6683095 0.27087677
000240 c3 07 04 bf 15 fc f6 bd aa 3c 92 3b 62 9f c6 be
       -0.51574343 -0.120597996 0.004462798 -0.38793474
000250 44 9f c4 be 17 dd 94 be 05 fb 08 bf 71 5a 9e be
       -0.3840276 -0.29074928 -0.53508025 -0.30928376
000260 1d ec 59 be f7 bc ab 3e 3d e2 f9 3e bf 41 a8 bc
       -0.21281476 0.33542606 0.4880542 -0.020539163
000270 e1 2a 7b 3e e1 77 f1 3b 2e f1 ad 3d fe 92 a1 bd
       0.24528076 0.007369027 0.08493267 -0.07889365
000280 b7 8a d3 3d ca b3 9e bd 7f fe 1e bf f2 93 a0 be
       0.10329192 -0.07749136 -0.6210708 -0.31362873
000290 3e ef 1c be be b6 62 bd 1d c6 f5 3d 1f 8f 3d 3e
       -0.15325639 -0.055350058 0.12000678 0.18511628
0002a0 40 81 10 3d 0a c1 f5 3e 0b e9 06 3f 71 95 d3 be
       0.035279512 0.4799884 0.52699345 -0.41324952
0002b0 00 4e 2f 3e 38 32 c4 3b fb f3 bb be 1c ad 68 3e
       0.17119598 0.005987432 -0.3670958 0.22722286
0002c0 b3 47 84 bd 44 78 7c be 4f a2 b4 3e 96 8f 1a be
       -0.06458988 -0.24655253 0.35280082 -0.15093836
0002d0 62 12 35 3e f1 29 c5 3e d4 6d dd 3e e6 46 84 bd
       0.17682794 0.3850856 0.43247855 -0.06458835
0002e0 b0 9a 72 3e 78 48 41 3d 6f a4 e1 be 7e 85 e7 bd
       0.23691821 0.047188252 -0.44070765 -0.113047585
0002f0 1d 22 d4 be 72 ad 4f 3d a0 d7 bc 3e ba 45 3d 3e
       -0.41432276 0.05070252 0.3688326 0.1848363
000300 d5 26 18 bf ef 1d 64 be 05 9f 11 bf 40 cc b4 3d
       -0.5943425 -0.22277044 -0.5688327 0.0882802
000310 f3 d8 81 3e 02 ac 6d 3e 17 c3 21 be d4 08 85 3e
       0.25360832 0.23210147 -0.15797077 0.25983298
000320 1c 22 23 3d 50 3e be be 47 cb b5 be 48 b1 1d bf
       0.03982745 -0.37156916 -0.3550665 -0.61598635
000330 17 6c 34 3e fc 85 2d 3f f8 35 42 3e 32 53 1a 3e
       0.17619358 0.6778257 0.189659 0.15070799
000340 5b c9 5d 3e 7c 2a 4a 3d 61 56 a7 be 78 97 8f be
       0.21658842 0.049356923 -0.3268309 -0.2804525
000350 80 1d b8 be 5b 66 9b 3e 59 0d d9 3e f3 e2 87 3e
       -0.35960007 0.3035153 0.42392996 0.26540336
000360 1b 27 33 be cb 61 db be 99 65 1e 3f f8 78 c7 be
       -0.17495386 -0.42848048 0.61873776 -0.3895948
000370 3d 9a 87 be 82 06 16 3f f4 8c 1a be 7d 52 4e be
       -0.26484862 0.5860368 -0.15092832 -0.20148654
000380 43 dc 5e 3d 71 46 7c 3e 90 a3 06 bf 98 a1 f5 3d
       0.054409277 0.24636246 -0.52593327 0.11993712
000390 fa f5 03 3b 7a 99 52 be cc df 54 3e ff 01 83 3e
       0.0020135627 -0.20566359 0.20788497 0.2558746
0003a0 dd 79 b6 bc d7 18 a6 3e 89 cd 9b 3e f5 2f d7 be
       -0.022274906 0.32440826 0.30430248 -0.42028776
0003b0 85 bb 89 3e af f1 3b be 04 a7 9b be 20 94 3a 3e
       0.2690088 -0.18353914 -0.3040086 0.18220568
0003c0 c6 41 f8 3c ac 1f df bc cd ca 67 bd dd a4 ba 3e
       0.0303048 -0.027236782 -0.05658989 0.36453906
0003d0 11 6a bd 3e a6 bf 19 be 31 25 05 3f e0 e7 bf 3d
       0.36994985 -0.15014514 0.52009875 0.093703985
0003e0 7a 94 9c bd 75 f1 9a 3e f9 2a ea bc 12 65 3e 3a
       -0.07645507 0.30262342 -0.028584944 0.00072629855
0003f0 30 16 a9 3e 63 67 97 bd 60 3a 94 be 16 ac 94 bc
       0.3302474 -0.07392766 -0.28950787 -0.018148463

conv1.bias f4 [32]
000000 10 71 9c bd b6 55 ca bf 00 66 b5 3c d5 ba 8b be
       -0.076387525 -1.5807407 0.022143364 -0.2729098
000010 0a 30 3d bf 2f e7 db c0 ca 60 b2 bc 10 f6 9c bd
       -0.73901427 -6.8719707 -0.021774668 -0.0766412
000020 76 1a 91 be b2 bf 85 3e ff c2 a3 be ff aa 1d bd
       -0.283405 0.26122814 -0.31984708 -0.038493153
000030 07 e3 54 3f 09 05 d1 bf be 94 60 be e1 12 c1 bd
       0.83158916 -1.6329662 -0.2193174 -0.09427429
000040 2e 25 3e bd e2 82 95 be 1b f6 64 be e6 d1 60 c0
       -0.046422176 -0.29201418 -0.22359507 -3.5128112
000050 a8 07 78 3f 1d f0 38 3d c8 77 9e 3d 7c c7 29 3e
       0.9688668 0.045150865 0.0773769 0.16580003
000060 c9 76 25 c1 46 46 7f 3e ac 6c 1e be 4f 2c d5 bd
       -10.3415 0.24929151 -0.15471143 -0.10408842
000070 c3 1a 86 3e f4 fb ec be 11 15 2b c0 00 9a ba 3d
       0.26192293 -0.46285975 -2.6731608 0.091114044

batch1.weight f4 [32]
000000 58 77 aa 3f 55 ce 85 3f 5a a8 44 3f 8d 6a 9d 3f
       1.3317671 1.0453593 0.76819384 1.2298142
000010 10 7e 62 3f fe 87 22 3f 47 49 92 3f 11 4f 84 3f
       0.88473606 0.6348876 1.1428612 1.0336629
000020 cd e2 54 3f 1e b9 7b 3f eb f9 a1 3f 4a a6 45 3f
       0.8315857 0.9832934 1.2654394 0.7720686
000030 e1 c3 80 3f 14 fe 04 3f 4c 9a d0 3e bd f6 60 3f
       1.0059777 0.5195019 0.4074272 0.8787649
000040 6e 36 33 3f 84 b4 93 3f a4 08 a4 3f 3e e3 2a 3f
       0.7000493 1.1539464 1.2815137 0.66752994
000050 98 a7 53 3f e5 ac 7e 3f 8d 08 68 3f 8c 89 a3 3f
       0.826776 0.99482566 0.9063805 1.2776351
000060 41 3d 36 3f 7a c7 88 3f d9 33 b9 3f ac 3f 7a 3f
       0.71187216 1.0685875 1.4468948 0.97753406
000070 75 82 af 3f 1d f7 15 3f c8 67 2a 3f 0d 36 08 3f
       1.3711687 0.5858019 0.6656461 0.53207475

batch1.bias f4 [32]
000000 06 0f 35 3f 05 0f 41 bf 59 03 72 3f d5 f3 d7 3d
       0.7072605 -0.75413543 0.9453636 0.10544554
000010 62 bb f9 be e1 0b 9a 3e bb fd c2 3f e4 a4 40 3f
       -0.48775774 0.30087188 1.5233682 0.75251603
000020 4c 51 35 40 97 06 c3 3d 5b c2 84 3f 5d f2 db be
       2.833087 0.09522741 1.0371813 -0.42958346
000030 fb 2b f3 bd 21 a5 09 be 1f 64 70 3d 64 63 df be
       -0.11873623 -0.13441898 0.058689233 -0.43630517
000040 44 c1 b7 bc b7 c2 90 bd 5d 62 23 bf ab f2 6a be
       -0.022431023 -0.07068389 -0.63821965 -0.22944133
000050 b9 b8 15 bc b8 7c 01 3e fa f1 01 3e f1 d0 1e 3e
       -0.00913828 0.12645233 0.12689963 0.15509392
000060 9e 66 9b 3e c7 66 f0 bc 25 05 1d 3e ee 2f a0 bb
       0.30351728 -0.029345883 0.15333994 -0.004888526
000070 3a c1 5e bd 42 5d ed 3d df 50 d2 3f 65 e4 3c bd
       -0.054383494 0.11590053 1.643093 -0.04611625

conv2.weight f4 [32, 32, 3, 3]
000000 86 e6 db bd d8 bd b3 3d 78 8c 59 bd 7e 17 f3 bd
       -0.10737328 0.08776444 -0.053112477 -0.11869715
000010 d5 9f 39 3e ff 69 a9 3e 96 e1 25 3d 61 3e dc 3d
       0.18127377 0.3308868 0.04049834 0.10754085
000020 2f 44 87 3d 5b 80 1f 3e 62 77 49 be fb 36 dd 3a
       0.06604802 0.15576307 -0.19674447 0.0016877347
000030 99 84 b0 3d 4c 8f ac bc f7 d5 10 3f 8d 48 b1 be
       0.08619041 -0.021064423 0.56576484 -0.34625664
000040 aa fd 95 be 8f 95 9b 3d 55 d1 1f bf 68 46 4c bf
       -0.29295093 0.075968854 -0.6242879 -0.7979493
000050 fc 85 06 bf 48 3b e8 be cc 74 d4 bd eb 13 39 bf
       -0.52548194 -0.45357728 -0.1037384 -0.7229602
000060 cc 30 41 3e 00 7b f0 3d ad 82 5c 3e d1 4d 71 3e
       0.18866271 0.117422104 0.21534224 0.23564841
000070 3c 0a 4f bd 7f c7 ef be 79 cb 5a bd f3 7e 9a bc
       -0.05054687 -0.4683189 -0.053416703 -0.018859362
000080 cb 25 42 bf 04 a2 75 3d a1 5c 71 be 72 ae d7 be
       -0.7583892 0.059968963 -0.23570491 -0.4212528
000090 ae d3 79 3e 50 96 cc 3d 77 47 f9 bc 15 53 96 3e
       0.24397156 0.09989607 -0.030429585 0.29360262
0000a0 fb 10 f2 3d 51 ff e9 3c c9 73 b6 3d 58 39 0c be
       0.11819645 0.028564127 0.08908803 -0.1369375
0000b0 19 de d1 bc 9a e7 42 be 37 e9 91 be 85 5d 52 be
       -0.0256186 -0.19033661 -0.2849824 -0.20543487
0000c0 f0 f9 d0 bc 52 e0 09 bd 2e 92 0e 3e df a9 55 3e
       -0.025509804 -0.033661194 0.1392295 0.20865582
0000d0 1a 10 4b 3d e8 6a 3b 3e b9 cd 14 be 17 f9 e3 be
       0.049575903 0.183025 -0.14531602 -0.44525978
0000e0 41 54 83 be 18 99 b5 bc f3 22 bf ba 67 33 91 3b
       -0.25650218 -0.022167727 -0.0014582559 0.0044311765
0000f0 18 10 5e 3e 2b ce a3 bd 55 31 97 3e 6b f8 80 3d
       0.21685827 -0.07998308 0.29529825 0.06297382
000100 aa 2c 17 3d 27 6b 77 be 8e 67 20 3e 1e 60 f6 3d
       0.03690783 -0.24161969 0.15664503 0.12030052
000110 02 c5 1d be ec 70 8b bd f3 b4 4e 3e 64 ee c6 bd
       -0.15407184 -0.068086475 0.20186214 -0.09713438
000120 db fc 7a be 07 77 1d 3e 39 8f 7e 3e e2 bf 91 be
       -0.24510519 0.15377437 0.24859323 -0.28466707
000130 a3 7b 34 3e 00 78 b6 3e eb c3 00 bf f0 92 eb bd
       0.17625289 0.35638428 -0.5029895 -0.115026355
000140 c8 b6 85 bc 59 f9 73 be 3c ea 4a bf 4f e6 b0 be
       -0.016322508 -0.23825587 -0.79263663 -0.34550712
000150 f0 43 02 bf bc fb 9f be e5 b2 2c 3e e9 db 33 be
       -0.50884914 -0.31246746 0.16865118 -0.17564358
000160 21 dd ac bd 7c 82 ca 3e 40 a7 3a be 81 30 1e be
       -0.084406145 0.39552677 -0.18227863 -0.1544819
000170 7d 5b 88 3d 12 a6 38 be df b3 6a 3e fe 93 15 3e
       0.06658075 -0.18032101 0.22920178 0.14607236
000180 59 22 4b bd 3c 38 fe be 27 c2 b3 be ab cc 00 bf
       -0.049593303 -0.49652278 -0.35109064 -0.503123
000190 6e ed 4b bd 61 e6 75 be a6 59 9c be 6b 1b e9 3e
       -0.049786977 -0.24013664 -0.30537146 0.4552873
0001a0 c1 d5 ae 3d 57 49 7c be 9b b4 0d 3f a9 10 90 3e
       0.08536864 -0.24637352 0.5535371 0.2813771
0001b0 7e 7d b1 bb 08 17 f7 3c 80 e8 13 be da e7 ee 3e
       -0.005416571 0.03016235 -0.1444416 0.46661264
0001c0 b4 08 07 3f 6f 3a 33 3d 9c 00 9b be 23 a0 0d bd
       0.52747655 0.0437569 -0.30273902 -0.034576546
0001d0 2d ce 2c 3e 14 c2 b0 3a 63 d4 ea bd 13 e1 92 bc
       0.16875525 0.0013485574 -0.11466291 -0.01792959
0001e0 07 1a e4 3d 0e f0 85 bd 14 27 96 be 43 e8 44 3e
       0.11137777 -0.065399274 -0.2932669 0.19229226
0001f0 c9 f4 20 3d 68 00 a7 be 90 ea 06 bf 7f 43 0a bf
       0.039295945 -0.32617497 -0.52701664 -0.5400924
000200 dc 89 88 be 12 61 57 bd 3f 18 00 be ec 4e 50 3e
       -0.26667678 -0.052582808 -0.12509249 0.20342606
000210 4e 83 24 3e 0b f7 7e 3e 7c 7c f6 3e 49 7d af 3d
       0.16065714 0.24898927 0.4814185 0.08568818
000220 ef b8 d3 be fd 70 fc bd d4 75 20 3e 3a ee 9a 3d
       -0.4135203 -0.12326238 0.15669948 0.07564969
000230 b6 32 0b be d0 ef d9 bd 57 30 6c be 17 45 79 be
       -0.13593563 -0.10641444 -0.23065315 -0.24342762
000240 86 d2 f2 be 32 ee ae bd 9c dd b0 be 52 6d 8f 3d
       -0.47426242 -0.08541526 -0.34544075 0.07003273
000250 1d 4e 0f 3f d4 8e 2c 3e 6a 4a 9b bc 5a 78 84 3e
       0.55978566 0.1685136 -0.018956382 0.2587307
000260 b6 67 18 3e 05 c4 57 3e 5c 11 38 bd e0 aa a3 3e
       0.14883313 0.2107087 -0.04493843 0.31966305
000270 ea 16 5f bd 4b 9e 9a bd c0 62 f2 bd 60 3a a0 be
       -0.054465212 -0.07549723 -0.11835241 -0.31294537
000280 b4 5c 5f be 50 3a 7b be 16 b3 79 bd f5 5d 8e be
       -0.21812707 -0.24533963 -0.060961805 -0.2780606
000290 40 7d 63 be 1b f0 38 3e b2 af bb bb c9 e9 71 3e
       -0.22215748 0.18060343 -0.0057277316 0.23624338
0002a0 a6 f8 0d 3f 86 44 48 3d 24 69 b4 3e 18 bf a6 3e
       0.5545753 0.048893474 0.35236466 0.32567668
0002b0 f3 7a 27 be 64 de 15 3e 40 f5 56 3e 34 78 af 3d
       -0.16355495 0.14635617 0.20991993 0.08567849
0002c0 4b 23 03 bd c9 50 8c bd c2 ed 38 3e 6e d2 a1 be
       -0.03201608 -0.06851346 0.18059447 -0.31605858
0002d0 4f 8d 73 bc 12 d6 ef bd 03 61 27 be 1c cd 7a bc
       -0.014865234 -0.117107525 -0.16345601 -0.015307691
0002e0 6d b0 73 3e 4d f7 1c 3e 7d bc 29 3d 9e ed 2a 3e
       0.2379777 0.15328713 0.041439522 0.16692206
0002f0 4d 7b 01 3e bb 2b 9c 3e f5 f3 59 3e 7e a9 b5 3d
       0.12644692 0.30502114 0.21284468 0.08870219
000300 96 69 cd be 38 53 50 be dc 07 55 be 18 97 61 be
       -0.40119618 -0.20344245 -0.2080378 -0.22030294
000310 ac a9 3c 3d 9f 5d 6c 3e fe ca a7 be be ec 36 bf
       0.04606025 0.23082589 -0.32772058 -0.7145499
000320 f3 14 84 be 42 97 15 bf 20 90 40 3b 9e 24 8e 3e
       -0.25797233 -0.58433926 0.002938278 0.27762312
000330 72 0c b5 3c ed 39 4c 3e 74 d3 2c 3f 60 8f 86 be
       0.022100661 0.19943972 0.6751015 -0.2628126
000340 5e 07 dd be 8d 0d 9c 3e b6 c8 71 be 84 26 ce bd
       -0.43169683 0.30479088 -0.23611721 -0.1006594
000350 be e0 af 3d 97 7c 20 be a2 8a 0b be d4 93 a1 3d
       0.08587788 -0.15672527 -0.13627103 0.07889524
000360 ee 69 a9 be 99 c2 08 be 18 44 f8 3d e9 ca 77 bd
       -0.3308863 -0.13355483 0.12122363 -0.060496245
000370 26 05 10 3e a8 da e0 3e 6c d0 a7 be 8c 8b 65 bd
       0.14064464 0.4391682 -0.327762 -0.056041285
000380 9c 7c b6 bc ed 29 3a 3e 48 dd 5e be 7f 5f f3 be
       -0.022276215 0.18180056 -0.217641 -0.47533795
000390 74 13 f5 bd 48 d5 c5 bd 45 42 5f bf d6 a9 49 bd
       -0.11966601 -0.09659821 -0.87210494 -0.049234234
0003a0 37 fe d6 3d c8 97 1d bd 3a ae 29 3e 4d 95 b0 bd
       0.104977064 -0.038474828 0.16570368 -0.08622227
0003b0 3c 8a ae be 34 40 1c 3e 78 9b 28 3d b6 ac de bc
       -0.3408984 0.15258867 0.04116389 -0.027181964
0003c0 20 f1 a2 be dc 41 24 be a0 a9 f1 be c9 43 51 3e
       -0.3182459 -0.16040748 -0.47199726 0.20436014
0003d0 24 90 ac 3e b7 6c 08 3e b0 f1 8a bd 53 a5 10 3e
       0.3370372 0.13322721 -0.067843795 0.14125566
0003e0 81 e4 9d bc a7 30 bd bd a2 da 28 3e 9d 55 85 3d
       -0.019273998 -0.09237795 0.16489652 0.0651047
0003f0 78 c7 5d be c4 d2 09 bf 95 c8 8a 3d 3a fd 10 bd
       -0.21658123 -0.5383723 0.06776539 -0.035397746

conv2.bias f4 [32]
000000 1c 2a ca 3d 58 7f 13 3e f2 5f 04 3e 4c 44 1b 3e
       0.09871313 0.14404047 0.12927225 0.15162772
000010 40 4c 95 3d 14 92 b8 3d 48 a3 b3 bf d2 c2 fb bc
       0.07289934 0.09012237 -1.4034204 -0.030732546
000020 81 99 bd 3e 4e 69 aa be ed d9 83 3e 04 bc 18 be
       0.37031177 -0.33283466 0.25752202 -0.14915472
000030 5f c5 6a bd 2d 75 31 3e ff b2 79 3d 72 58 bc bd
       -0.057317134 0.17329855 0.06096172 -0.09196557
000040 63 f5 8c bd 0d 78 2d be 76 10 85 bd 72 e0 d6 bd
       -0.06882741 -0.16940327 -0.0649728 -0.10492028
000050 ef b2 4a bd 1c 63 39 3d 38 6e 06 3e 45 6a 1e 3d
       -0.04948705 0.045260534 0.13127983 0.038675565
000060 b1 a8 a7 3e 68 8f a0 bb aa b1 9f 39 8a c0 09 be
       0.3274589 -0.004899908 0.00030459213 -0.13452354
000070 f3 c9 10 bf 0a b6 ae 3e 81 fd 4b bd 66 09 c4 3e
       -0.5655815 0.3412326 -0.049802307 0.3828842

batch2.weight f4 [32]
000000 e6 bf 5d 3f 95 73 89 3f 3c 24 b5 3f d7 40 99 3f
       0.8662094 1.0738398 1.4151683 1.1972913
000010 96 27 7a 3f aa b1 91 3f 50 8e 97 3f e4 8d 36 3f
       0.97716653 1.1382344 1.1840305 0.7131026
000020 14 1f 96 3f a8 6b 64 3f 83 32 90 3f 33 53 6e 3f
       1.1728234 0.8922677 1.1265415 0.930957
000030 bb d8 10 3f 0d c7 a8 3f 9a 95 84 3f 6a d5 a6 3f
       0.56580704 1.3185745 1.0358155 1.3033879
000040 85 0b 51 3f ea 66 5a 3f c1 ca 65 3f dd 5c 47 3f
       0.816582 0.85313284 0.897625 0.77876073
000050 c2 58 97 3f b3 6c 8d 3f 9e 42 96 3f 96 08 88 3f
       1.1823962 1.1048797 1.173908 1.062762
000060 22 ed 7e 3f 44 82 41 3f a6 b7 4b 3f 45 b1 1c 3f
       0.99580586 0.75589395 0.795771 0.6120799
000070 66 59 8f 3f b0 dc 85 3f 32 57 79 3f bd d6 62 3f
       1.1199157 1.0457973 0.97398674 0.88608915

batch2.bias f4 [32]
000000 3b 33 99 3d 66 de 02 bf b0 89 98 be 97 d4 fb be
       0.074804746 -0.51120603 -0.29792547 -0.4918563
000010 d7 f0 c3 be 72 91 17 bf 91 24 c7 be 2a 84 3c be
       -0.38269684 -0.59206307 -0.38895085 -0.18409792
000020 c7 75 f7 be b0 23 ad be bf b7 02 bf 09 f6 b7 be
       -0.48332044 -0.3381629 -0.51061624 -0.35929897
000030 a0 4d 4b bd 0e 0c a8 be c0 59 cf be 49 76 fb be
       -0.049634576 -0.32821697 -0.4049816 -0.49113682
000040 48 84 b5 be 95 8a e9 be 7a 41 ed be 72 de c8 3c
       -0.35452485 -0.45613542 -0.46339017 0.024520133
000050 7a 14 e2 be 97 aa a8 be c9 f8 1b bf d1 c2 9a be
       -0.44156247 -0.3294265 -0.6092649 -0.30226758
000060 07 22 02 bf 2f 58 83 be aa 36 6d be 96 64 93 be
       -0.5083317 -0.25653216 -0.23165384 -0.28787678
000070 e7 38 31 be 0b 0e bc be f8 4b 89 be f9 ed 08 bf
       -0.17306863 -0.36729464 -0.26815772 -0.5348812

conv3.weight f4 [32, 32, 3, 3]
000000 68 0a b3 3e 89 9a b4 3e 89 3f ab bd 52 cc 5d be
       0.34968877 0.3527415 -0.08361728 -0.21659973
000010 93 c5 7d 3c 24 8a 60 3e 66 1f 9f be 1f af e8 be
       0.015489 0.21927696 -0.31078643 -0.45446107
000020 43 7a 03 3c 1a 74 2a 3e 2e a6 3e 3e 0f 0a 03 bf
       0.008024755 0.16645852 0.1861808 -0.51187223
000030 fa 31 1d be 93 8c c8 bd 7d 27 28 3e 2e b5 84 3e
       -0.15351096 -0.097924374 0.16421314 0.2591948
000040 d2 86 8f 3e a8 96 9b be 67 97 b8 bd 4b df 2c be
       0.28032547 -0.3038838 -0.09013253 -0.16882055
000050 f1 4f fd be 35 b3 22 3e 4c e1 2d 3e cd 67 d3 bd
       -0.49475053 0.15888675 0.16980475 -0.10322533
000060 f4 89 d1 3d fb 85 fb 3d 0b 25 2d be f0 fd 90 be
       0.102313906 0.12281414 -0.16908662 -0.2831874
000070 91 c2 d2 be 9b e3 f0 3e 5e 81 88 3c eb 0b 54 be
       -0.41164067 0.4704865 0.01666325 -0.20707671
000080 b9 e3 05 3f 47 a0 eb bc 1f bd 30 3e f7 2e 9c 3e
       0.523006 -0.02876295 0.17259644 0.3050458
000090 e7 20 9b 3e 53 4e 28 3f 5c 21 02 3e 3d 0e 33 3d
       0.3029854 0.65744513 0.12708038 0.04371475
0000a0 33 df b0 3d 02 38 61 bd e9 0f 92 3c e1 c0 0a 3d
       0.08636322 -0.054985054 0.017829852 0.03387535
0000b0 12 a4 a1 3c d6 a6 61 3e 5d d8 67 3e 40 44 6d 3e
       0.019731555 0.22036299 0.2264113 0.23170567
0000c0 a8 45 5b 3c 12 58 9f 3e 0d 60 a0 3e 8e 9e dd be
       0.013383307 0.3112188 0.3132328 -0.4328503
0000d0 41 be 29 be d9 03 8e be 8d 41 8e 3e 26 e2 cc 3c
       -0.16576482 -0.2773731 0.27784386 0.02501018
0000e0 78 62 87 be 49 23 4b 3d 49 52 c9 bd 96 b8 e6 bc
       -0.26442313 0.049594197 -0.09830148 -0.02816419
0000f0 ae 89 51 3e 9a 6a b9 3e 8d eb e5 3d d4 c2 86 be
       0.20462677 0.36214143 0.11226568 -0.26320517
000100 41 8f ce be 93 b1 06 bf ba fa 00 3e a1 c2 a4 be
       -0.4034367 -0.52614707 0.12595645 -0.3217974
000110 87 b7 aa be 1c 70 fc bd 9d 7e 0a bc d9 81 1b be
       -0.33343145 -0.12326071 -0.0084530385 -0.15186252
000120 27 e8 82 3e 56 d2 6e bb d4 53 73 be 5c b9 81 3d
       0.25567743 -0.0036441288 -0.23762447 0.063341826
000130 99 8c ce 3d c3 07 78 3e db 00 64 bd b1 ea 9f bd
       0.100854106 0.24221711 -0.05566488 -0.07808436
000140 7d c5 08 3e 13 82 70 bf de 85 19 be 9a 3a 72 3e
       0.13356586 -0.9394848 -0.14992473 0.23655167
000150 fc cf 23 bf 1a a5 e1 be 76 60 17 3e dc 3c ca bd
       -0.63989234 -0.44071275 0.1478289 -0.09874889
000160 08 5e 69 3d dd 82 1f 3e 49 e3 18 be 0f dd e8 be
       0.05697444 0.15577264 -0.14930452 -0.45481154
000170 6f b9 47 3e 18 f6 2e be 9a 04 a6 3d 2e e0 88 3e
       0.19504331 -0.17086065 0.081063464 0.26733536
000180 92 8a a3 be 5e cb 6f be c7 16 1a be 41 f6 f1 bb
       -0.31941658 -0.23417422 -0.15047751 -0.007384092
000190 ab 45 84 3d 73 d7 87 3e b5 0e 87 3e 99 54 a3 bd
       0.064586006 0.26531562 0.26378408 -0.0797512
0001a0 f9 16 39 bd b6 5e 2b 3d 17 0d 96 3e c0 bb f4 bd
       -0.045187924 0.04183837 0.29306862 -0.11949873
0001b0 35 bd 97 bd 2d dc a2 bd 2c 19 be be 38 37 22 be
       -0.07409135 -0.079521514 -0.3712858 -0.15841377
0001c0 67 ce 80 bd a5 47 9a be 6f 6f b5 be cb 09 18 3d
       -0.06289368 -0.30132785 -0.3543658 0.037118714
0001d0 5b a6 7c be 4e a6 a1 3c 28 ca 0e 3d fa 57 76 bd
       -0.24672835 0.01973262 0.03486076 -0.060142495
0001e0 3e 5e 98 3e 14 63 6a bc 87 53 91 be f9 f0 c7 bc
       0.297594 -0.014305849 -0.2838404 -0.024406897
0001f0 b9 d1 5d 3d b5 1a c3 be c6 d0 45 be d8 79 8c be
       0.054155085 -0.38106313 -0.19317922 -0.2743671
000200 b1 95 34 bf 20 5a af 3c 5f ef 2c 3a bc b1 a4 3d
       -0.7054091 0.02140528 0.00065969484 0.08041713
000210 4f cd 6c be 79 b1 a3 3d b3 f5 74 be 33 9d a3 3e
       -0.23125194 0.079928346 -0.23921852 0.3195587
000220 32 ab a4 3d 78 70 b2 be 71 f7 69 3e 86 ca e3 bd
       0.080404654 -0.34851432 0.22848298 -0.11122613
000230 8e 9b 11 bf d9 03 d1 bd c2 b4 ab 3e 27 32 dc be
       -0.5687798 -0.10205812 0.33536345 -0.43007013
000240 8a 89 aa 3e d8 1c a8 3d f5 a4 2a bf d9 f6 e4 3d
       0.3330806 0.082086265 -0.66657954 0.11179895
000250 99 3d dc bd c9 d8 99 bd 5c d9 60 bd 82 7a 53 be
       -0.10753936 -0.075120516 -0.05489479 -0.20652202
000260 5e aa 20 be 52 3a 01 3d 4e 9c a3 be 87 52 84 3e
       -0.1568999 0.03154976 -0.3195519 0.25844213
000270 e0 82 5f 3e b5 e8 02 3e 8d 2e 2c 3e 03 c1 90 be
       0.21827269 0.12784083 0.16814633 -0.28272256
000280 bb 1a e6 bb 73 55 56 3d 87 82 08 3d 98 9e 14 bc
       -0.0070222295 0.052327584 0.033327606 -0.009071015
000290 99 cf 4c 3e 59 6d 5e bd 25 b3 8b 3d de 99 b2 bd
       0.20001067 -0.0543035 0.068212785 -0.08720754
0002a0 fd 8b 1f 3e 5b b4 8c be c6 7e bc be 31 a2 a9 be
       0.15580745 -0.2748135 -0.3681547 -0.33131555
0002b0 1d e4 d5 3d 64 8d 86 bd 53 f2 c2 be fc db 2b 3e
       0.104439 -0.06569937 -0.38075504 0.16783136
0002c0 7b 2b 62 be 0c 3d 94 be 7f a1 b4 be d8 0b cc bd
       -0.22086899 -0.28952825 -0.35279462 -0.099631965
0002d0 47 e2 3c be b1 04 14 3e 7b 47 03 3f bf 4e 9d 3e
       -0.18445693 0.14454915 0.51280946 0.3072414
0002e0 9a fa e8 3d 8b 1e 8e 3e 9e 28 67 3e 01 cb d4 3d
       0.113759235 0.27757677 0.22574088 0.103902824
0002f0 fb 4e 08 3d 97 88 9d 3e d5 e1 02 3e 6f a4 04 3e
       0.033278447 0.30768272 0.1278146 0.12953351
000300 95 36 e3 3e a1 2c 88 be 70 77 3d be 8b 9a 8c bd
       0.4437758 -0.2659655 -0.18502593 -0.06865414
000310 3e 23 3d 3d ff 3c f5 3b 55 bf 67 3e 0c 13 00 3e
       0.046176188 0.007484078 0.22631581 0.12507266
000320 ed 62 d2 be 57 14 3a 3e 7a ff ab 3e 32 26 72 3d
       -0.410911 0.18171822 0.3359335 0.059118457
000330 b2 f7 8b bc 1d 62 75 3e 1d 48 2d be 53 a0 a2 3e
       -0.017085884 0.23963208 -0.1692204 0.31762943
000340 52 7a 16 3d f1 39 27 be 06 43 8e be ba 09 0c bd
       0.036737747 -0.16330697 -0.2778551 -0.034188963
000350 89 a4 55 3c df 72 00 bf 05 e4 28 3d 95 47 0f 3e
       0.0130397165 -0.5017528 0.04123308 0.1399215
000360 15 41 46 3e 8f 03 04 3e 66 b3 7d bf cd 4f 54 3e
       0.19360764 0.12891982 -0.99101865 0.20733567
000370 e7 26 97 be 76 4a 39 be e9 fd b6 bd a2 98 f3 be
       -0.29521868 -0.18094811 -0.08935148 -0.47577387
000380 b7 ec bc be c9 d3 27 39 ed 3a 12 3c 55 8a 0f bf
       -0.3689935 0.00016005257 0.008925182 -0.5607045
000390 48 0c 6a be 58 37 08 3e c9 4f e7 be f6 d3 15 3e
       -0.22856247 0.13302362 -0.4517806 0.14631638
0003a0 cf 7c fb 3e b4 fe ab 3d 16 e8 0f 3e 85 e2 38 3e
       0.4911866 0.0839819 0.14053378 0.1805516
0003b0 6b da 99 be 5b db 11 3f df 2f 86 3e 41 81 f9 be
       -0.30049452 0.56975335 0.26208398 -0.48731425
0003c0 93 50 e8 3e b8 6f bd 3d eb 52 4e be 9d ab 52 bd
       0.45373973 0.09249824 -0.20148818 -0.051433194
0003d0 0a 76 90 bd 74 6d 95 bc 7c 1f 87 3e c5 4d 94 3e
       -0.07053764 -0.018240668 0.26391208 0.28965583
0003e0 01 81 3b be 7f 5f 6b 3d b7 ac ae bd 27 99 16 bf
       -0.1831093 0.05746412 -0.085290365 -0.5882744
0003f0 18 3a a3 be 03 cc 85 be 9c d1 85 3e 9b 5a 61 bd
       -0.3188026 -0.2613221 0.26136482 -0.05501805

conv3.bias f4 [32]
000000 ed 57 78 3e 46 3c 81 3e d2 7c ed 3e 4d fb b2 3d
       0.24252291 0.25241297 0.46384293 0.08739338
000010 74 ac 22 3e 27 62 dc 3d 6d 00 e3 bf ae 3d 89 3e
       0.15886098 0.107609086 -1.7734505 0.2680487
000020 37 d0 47 bd cc 9d d0 be 81 f8 df 3d e6 d9 91 bb
       -0.048782554 -0.4074539 0.1093607 -0.0044510243
000030 94 07 0f 3f fc f1 c1 3e 74 2b 7d 3d 2d 07 e7 3e
       0.5587094 0.37879932 0.06180902 0.45122662
000040 07 79 28 3f 16 65 1a 3e 12 2f 8f 3e 4c df 17 3f
       0.65809673 0.15077624 0.279656 0.593251
000050 4b 3c 06 3f 42 87 f7 bc 86 02 6e 3e 9f 9f 62 3f
       0.5243575 -0.030215863 0.2324315 0.8852481
000060 fd 1a a6 3d 94 76 a4 3f 28 80 c4 3e 88 2e f7 3e
       0.08110616 1.2848687 0.38379025 0.48277688
000070 17 7f cb 3e 9e 94 64 3e ed e2 94 be 0e 0e 27 bf
       0.397454 0.22322318 -0.2907938 -0.6525582

batch3.weight f4 [32]
000000 94 a4 4b 3f ae 26 5d 3f c8 eb 82 3f 3d 2d 67 3f
       0.79548 0.86387146 1.0228205 0.90303403
000010 dd b2 39 3f 14 7d 59 3f 21 c6 ae 3f 75 14 43 3f
       0.7253855 0.8495648 1.3654214 0.7620309
000020 0b 36 95 3f 4a 41 82 3f 67 b0 4d 3f 10 02 35 3f
       1.1657118 1.0176175 0.80347294 0.7070627
000030 8c 26 6d 3f 2e 38 8e 3f 37 36 19 3f 7e bb 49 3f
       0.9263694 1.1110895 0.5984835 0.78801715
000040 b4 27 63 3f fd 59 5d 3f 9f 1a 3e 3f 7f 35 5d 3f
       0.8873246 0.86465436 0.7425937 0.86409754
000050 5a 54 6e 3f 54 88 73 3f 26 1d 3a 3f ff 7a cf 3f
       0.9309746 0.95129895 0.72700727 1.620941
000060 42 c4 56 3f 13 18 8c 3f 3e 30 74 3f 8c 51 7e 3f
       0.83893216 1.0944847 0.9538611 0.9934318
000070 58 5e 3d 3f ce 37 3e 3f 5f f0 89 3f 9d fa 7c 3f
       0.7397208 0.743039 1.077648 0.98819906

batch3.bias f4 [32]
000000 c2 25 93 be d4 f1 8d be d3 13 d5 be 82 97 fb be
       -0.28739744 -0.27723563 -0.41616687 -0.4913903
000010 63 58 76 be e1 3e 2a bf 4b 50 33 bf 3f f2 68 be
       -0.24057154 -0.66502196 -0.7004439 -0.2274866
000020 30 9e 5d bf d5 ef a5 be c2 84 f0 be ac b2 38 be
       -0.865695 -0.3240954 -0.46976286 -0.18036908
000030 e4 2b a5 be 75 dd ea be 63 2d 48 bd ac be bb be
       -0.32260048 -0.45872083 -0.04887141 -0.3666891
000040 48 59 f7 be 31 bf b1 be b6 c8 b4 be bb 06 bf be
       -0.48310304 -0.3471618 -0.3530938 -0.37309822
000050 5a 50 1e bf 63 f4 ce be db 22 7a be 9c 2f 75 bf
       -0.61841357 -0.40420827 -0.24427359 -0.9577577
000060 84 13 07 bf 15 d8 24 bf 34 37 a7 be 17 07 23 bf
       -0.52764153 -0.64392215 -0.32659304 -0.63682693
000070 d5 8d 45 be 23 c4 99 be 00 ad 89 be 3f 76 58 bf
       -0.19292386 -0.30032453 -0.268898 -0.8455543

conv4.weight f4 [32, 32, 3, 3]
000000 3b 28 e8 bd 7c f2 8a 3c c9 7a f5 bc 89 8a 08 be
       -0.11335798 0.016961329 -0.029965775 -0.13334097
000010 93 df 78 bd c1 38 cf bd d4 87 6d bd 37 f7 13 be
       -0.060760092 -0.10118247 -0.057990864 -0.14449774
000020 b5 b9 89 3d 59 4d 98 3d 9b 36 8b 3d 42 f7 b6 3d
       0.06724874 0.07436628 0.067975245 0.089338794
000030 8b 5e 0f bb fd 4f a0 bd 1e 7f 7f 3c ec df a4 3d
       -0.002187642 -0.078277566 0.015594272 0.08050522
000040 01 2b b6 bc 59 ab c3 3a 78 30 d1 3d 1e 3e cb 3c
       -0.022237303 0.0014928385 0.10214323 0.024809893
000050 79 a5 8c 3d 43 49 73 3d 1c eb 30 3c 1d bd 29 3d
       0.06867499 0.05939604 0.010798242 0.041440118
000060 85 eb 47 3c 4a 78 6e bd 0b 07 0e bd eb a8 2f be
       0.012202148 -0.058220185 -0.034674685 -0.17154281
000070 10 74 18 3c d6 43 a2 bc 21 92 15 be 4c 1d eb bc
       0.009305015 -0.019807737 -0.14606525 -0.028700493
000080 67 f4 bf bd 1e c7 50 be ec 22 18 bd 0f 55 77 3d
       -0.09372788 -0.20388457 -0.03714268 0.060383853
000090 29 0f ba bc 32 aa 01 3e 51 e6 a0 3d 91 92 fa 3d
       -0.022712307 0.1266258 0.07856429 0.122349866
0000a0 8a ba 10 3e 7f c3 cb 3c 7c 22 00 3e ee 29 93 3d
       0.14133659 0.024873493 0.12513155 0.07185732
0000b0 fc b7 e8 3c 7f a5 b0 3d 46 3e ae bb de bf b9 3d
       0.028408043 0.08625316 -0.005317482 0.09069799
0000c0 01 c2 17 3e e6 77 96 bd cd e3 b6 bb 28 2a ef 3d
       0.148201 -0.073470876 -0.005581355 0.116779625
0000d0 85 75 ee 3d 31 8a 0e 3d b2 ff f1 bc 35 2c 82 3d
       0.11643509 0.03479976 -0.02954087 0.06356088
0000e0 53 36 ba 3c 14 e3 42 3d b8 21 ac bd 55 0d 8b bc
       0.022730982 0.04757984 -0.08404869 -0.01697413
0000f0 09 03 67 be 2e 23 a1 3c 35 28 a8 3c 63 bc 18 3d
       -0.22559752 0.019670095 0.020526985 0.037289035
000100 4a fb ca bc 5e fe f8 3c 3c c3 0a 3e 68 03 7c bd
       -0.024778027 0.03039473 0.13551039 -0.061526686
000110 fa fb 7a bd 55 86 ab 3c e9 ba bf b7 14 82 25 3d
       -0.06127546 0.020938078 -2.2856011e-05 0.040407255
000120 e9 00 1e be 1d 1e dc 3d 00 9b 8b 3d b6 c8 48 be
       -0.15430035 0.10747931 0.06816673 -0.19607815
000130 90 ea ae bd 2b 3e c7 3d ac 1e 5a be 50 e8 23 bd
       -0.08540833 0.097286545 -0.21300763 -0.040016472
000140 21 5e aa bd f8 5f dc be 5b 26 e9 3b 33 ca 11 bb
       -0.08318735 -0.43041968 0.007115168 -0.0022245764
000150 db d0 ca be 52 e7 ad bb 1a 59 c3 bb c1 0e d1 be
       -0.3961247 -0.0053071165 -0.0059615495 -0.4083157
000160 1c 17 a2 3d fe eb f8 3d c5 7b b5 3c cc e7 cf 3b
       0.07914564 0.12154387 0.022153744 0.006344771
000170 af cf f8 3d 50 49 37 3c 6b 08 e9 3c 9d 00 ed 3d
       0.121489875 0.011186913 0.028446397 0.115723826
000180 c9 c5 7b bd ec f3 d4 3c 8d ed 2b 3e 53 a5 8b bd
       -0.06146792 0.025995217 0.16789837 -0.068186425
000190 41 a7 27 bc d6 6b 16 3d 78 2e b3 bc 5c dd f9 bd
       -0.0102327475 0.036723934 -0.021872744 -0.12200424
0001a0 72 07 18 bd 4e 32 bb bd 76 bd ad bc a5 52 c2 3d
       -0.037116475 -0.09140454 -0.021208506 0.094884194
0001b0 bd 78 00 3d a7 d4 53 3d 65 03 85 bb 72 09 67 bc
       0.031365145 0.051716473 -0.0040592426 -0.014101373
0001c0 09 e7 89 3c 02 4d 32 bd 35 9e ba 3d a9 85 6b 3d
       0.016833799 -0.04353047 0.09112207 0.057500515
0001d0 25 db c7 3d d5 e4 c8 3c 8b 99 fe 3d 90 c3 23 3b
       0.097585954 0.024523178 0.1243163 0.002498839
0001e0 c2 77 1d 3e a1 89 0e 3e 27 42 07 bc e7 bb 23 3e
       0.15377715 0.13919689 -0.008255518 0.15989648
0001f0 33 f1 a3 3d 3b 37 03 bc 8a d3 ab 3d 44 fc 05 3d
       0.080049895 -0.008008773 0.08389957 0.032711282
000200 54 28 bd ba 27 d3 84 3d ec c0 86 3c f4 86 3b bd
       -0.0014431574 0.064855866 0.016449414 -0.045783
000210 c0 35 11 3e e5 9f d5 3c 8d ad e9 3d 92 c8 26 3d
       0.1418066 0.02607722 0.11410055 0.040718623
000220 e4 e4 52 3d cc fa 8f 3d a6 26 ad 3c ba b9 a1 bd
       0.05148782 0.070302576 0.021136593 -0.07896753
000230 25 5c a1 3d 1a 90 58 3c f1 1b 1b 3d f0 63 00 3d
       0.07878903 0.01321795 0.037868444 0.031345308
000240 93 b8 6e 3b 0d 57 f5 3c 6c ac 04 be ea c9 66 3d
       0.0036425933 0.029948736 -0.12956399 0.056344904
000250 74 06 58 bd 82 ba 82 bd 5d ae b5 3b 27 04 3a 3d
       -0.05274053 -0.0638323 0.0055444674 0.045414116
000260 30 5a 30 bc 71 c5 42 be 16 76 37 3d 37 4a d8 bc
       -0.01076369 -0.1902063 0.04479035 -0.026402576
000270 e4 b3 9a bd d7 b3 93 3b e3 1e 2f bd 86 df 44 be
       -0.07553843 0.0045075226 -0.042754065 -0.19225892
000280 c9 94 54 3d 55 a8 55 3d 84 ef 28 3e e3 61 6c 3d
       0.051899705 0.052162487 0.16497618 0.05771054
000290 5a 31 c7 3d ab 04 93 3d a1 c7 6a 3d 45 11 96 3d
       0.0972621 0.07178625 0.057319287 0.07327513
0002a0 67 a4 05 3e 1f 06 3f 3d 4c 8d 87 3d e1 eb 03 3e
       0.13050996 0.046636697 0.06618747 0.1288295
0002b0 8b 05 37 3d 26 6e e0 3d ac 4e e7 3d 2b 67 e2 3d
       0.04468302 0.10958509 0.11294302 0.11054834
0002c0 df 4c 2c bc 58 43 d5 3d 9f 07 e2 3c f9 76 8b 3d
       -0.010516374 0.104132354 0.027591525 0.068098016
0002d0 59 09 83 3d 64 df 9d bd 29 16 6d 3d 1c 2a 10 3e
       0.06398267 -0.07708624 0.05788246 0.14078563
0002e0 69 4a cf 3d 6f 3d 62 3d 9c f1 0b 3e 43 8a 31 3e
       0.101216145 0.05523437 0.13666385 0.17337899
0002f0 9b e1 17 bd d0 27 30 bd 04 34 ea bd 1e e4 65 3d
       -0.03708039 -0.04300672 -0.114357024 0.056125753
000300 51 d4 a3 3c a8 37 0b be 47 e4 01 3d 0e 10 cc bd
       0.019998701 -0.1359545 0.031711843 -0.09964
000310 41 fc 67 3d a5 b9 cc 3d 0d f7 9f bd bc 30 bc 3b
       0.056637052 0.099963464 -0.07810793 0.0057431143
000320 f9 7f 5a 3c dc 1b 3d bd 78 00 5d 3d e6 8b f6 bc
       0.013336175 -0.046169147 0.053955525 -0.030096006
000330 84 e2 6f 3d f1 1a b2 bd 94 d2 64 3d 0f 96 ee be
       0.05856563 -0.08696545 0.055864885 -0.4659886
000340 ad 69 3f bd 3c 4e 01 bc 82 32 e9 be ab 81 9c bd
       -0.04673164 -0.007892188 -0.45546347 -0.0764192
000350 1b 7f 1b 3e 41 88 e2 be 7b 40 60 bd 51 01 af 3d
       0.15185206 -0.44244578 -0.054748993 0.08545173
000360 f3 42 d7 3b 8c 2b 9b 3c ab 19 8d 3d 31 43 22 3d
       0.0065692603 0.018941663 0.068896614 0.03961486
000370 37 3e c6 bd 5e b9 08 bd f8 49 a9 3c 96 c8 8e bd
       -0.09679835 -0.033379905 0.020665154 -0.069718525
000380 12 69 c8 3c 93 19 cb 3d 96 28 cf 3d 2b 67 ed 3d
       0.024464164 0.09916987 0.10115163 0.11591943
000390 c4 c6 06 3e 25 ef 19 bd e4 31 01 3e 23 6e b8 3d
       0.1316176 -0.03758158 0.12616688 0.09005382
0003a0 56 11 5d 3d 46 f8 ab 3c 49 e4 8d be 58 80 f0 3d
       0.05397161 0.02099241 -0.2771323 0.1174323
0003b0 c3 f7 98 3d 5c fa 52 be 3a b2 c2 3d 34 16 7e bc
       0.07469132 -0.20603317 0.0950665 -0.015508223
0003c0 67 fd 8d be 3a 29 28 bd 41 8d 0b bc 37 2a e0 3d
       -0.27732393 -0.04105494 -0.008517564 0.10945552
0003d0 d2 8f 04 bd 9a 0f 77 bd 2f e7 59 3c c5 3b 88 bc
       -0.03236372 -0.060317613 0.013299747 -0.016630063
0003e0 30 a4 82 bd bb 45 c9 3d a0 d0 93 3d c8 ca 52 3d
       -0.063789725 0.09827753 0.072175264 0.05146292
0003f0 fc 7e 22 bd 0a 64 98 bd 37 b0 bf 3c 69 23 a4 3d
       -0.039671883 -0.07440956 0.023399455 0.080145665

conv4.bias f4 [32]
000000 b3 5d 7c bc 39 83 58 3f a5 86 fd 3c 23 0f 3a 3c
       -0.015403199 0.8457523 0.030947993 0.011356148
000010 39 91 be 3e a0 dd 3b bc 3c bd ad 3e f6 dc 0d bd
       0.3722017 -0.011466414 0.33933437 -0.034634553
000020 b5 8c 83 bc f0 5f 97 3c 51 1f db 3e 85 10 5f 3e
       -0.016058305 0.018478364 0.4279733 0.21783645
000030 b2 0b a0 3e 84 df f9 3e fd ae 19 3e e7 09 af 3d
       0.31258923 0.4880334 0.15008159 0.085468106
000040 45 ab d0 3e ae 16 83 bb c6 0e 76 3c 49 6c 44 3d
       0.40755668 -0.0040005064 0.015018171 0.04795483
000050 84 5c a4 3e 7a 08 5b 3e c8 50 f1 3d ef 8a 1b bd
       0.32101834 0.21389952 0.11782986 -0.037974294
000060 8a df 56 3d 80 c1 48 3f c4 3e 4d bd e2 cb 4e 3d
       0.052459277 0.7842026 -0.050108686 0.050487407
000070 7a 78 4a 3d 0f 63 f7 3c 95 a4 d6 3e d6 02 d8 3c
       0.0494313 0.030198602 0.4192244 0.02636854

batch4.weight f4 [32]
000000 4c ca 99 3e 70 ed c4 40 cf 9e 46 3f c9 1b ad 3e
       0.30037153 6.153984 0.7758607 0.3381026
000010 9c 66 8e 40 c5 46 c7 3e 69 77 8f 40 c6 92 b6 3e
       4.4500256 0.3892118 4.4833264 0.35658854
000020 35 87 e2 3e 80 a1 71 3f 13 02 9d 40 05 88 43 40
       0.4424378 0.94387054 4.906503 3.055177
000030 48 79 56 40 60 ea 95 40 33 89 48 40 4a dd d7 3f
       3.3511524 4.68486 3.133374 1.6864407
000040 11 81 b3 40 54 c2 9e 3e 45 1a b0 3e 15 1d 7e 3e
       5.609505 0.31007636 0.34395042 0.24815781
000050 c3 82 6d 40 be cf 76 40 ae 45 54 40 1b d1 bd 3e
       3.711106 3.8564296 3.316753 0.37073597
000060 28 97 47 3f da 09 71 40 a5 c4 d9 3e 98 48 37 3f
       0.7796502 3.7662263 0.4253284 0.71595144
000070 72 94 bb 3e f0 b9 b2 3f 74 64 78 40 15 06 7d 3f
       0.36636692 1.3962994 3.8811312 0.98837405

batch4.bias f4 [32]
000000 b6 0b 31 bf fa d0 87 c0 86 11 ae bf 62 0f 26 bf
       -0.69158494 -4.24426 -1.3599098 -0.6486722
000010 8f 74 2b c0 f4 b3 53 bf 9f 6f 55 c0 e3 a6 33 bf
       -2.6789892 -0.8269646 -3.3349378 -0.70176524
000020 73 54 4e bf 51 bd ce bf 93 74 59 c0 a0 23 0d c0
       -0.8059761 -1.6151525 -3.3977401 -2.2052994
000030 2c 24 1e c0 9b 71 40 c0 34 a5 16 c0 eb 9d fa bf
       -2.4709578 -3.006934 -2.3538332 -1.9579443
000040 86 54 15 c0 d1 a6 2c bf c5 75 33 bf e7 df 36 bf
       -2.333284 -0.6744204 -0.7010158 -0.714354
000050 e4 96 31 c0 0c 2a 09 c0 34 7b fd bf 4f 2b 3a bf
       -2.7748346 -2.1431913 -1.9803224 -0.72722334
000060 2d 53 af bf 1e e4 94 bf 18 91 58 bf 60 32 8e bf
       -1.3697258 -1.1632116 -0.84596395 -1.1109123
000070 ca 26 3e bf cb 1a 08 c0 92 d0 79 c0 31 d0 c6 bf
       -0.7427794 -2.1266353 -3.9033551 -1.5532285

lin1.weight f4 [5, 800]
000000 44 1d 11 bd 3b e6 8b 3b 2e 4e bf bc 64 23 32 bc
       -0.0354283 0.004269389 -0.023352709 -0.010872696
000010 e8 ba 45 bc ba 8a 13 bd f9 06 46 bd 6f 59 6c 3c
       -0.012068488 -0.03602097 -0.048346493 0.0144256195
000020 44 4b 06 bd 52 c0 82 bc 58 7e 1a be 6d bb 56 bc
       -0.032786623 -0.015960846 -0.15087259 -0.013106209
000030 6e 15 ea 3c af b2 c3 bd 6f ef f4 bb 1c c3 dc bc
       0.028574672 -0.095555656 -0.007474832 -0.026948504
000040 99 9b 3c bd 6e 53 fd 3c 73 92 44 bd 94 ec 3f 3c
       -0.046046827 0.030923571 -0.047991227 0.011714119
000050 5c 16 d9 bc 4a 0e 5b 3d 7c 5a f6 bc c4 ee ce 3b
       -0.02649992 0.053480424 -0.030072443 0.006315084
000060 29 74 5b 3c a3 a5 6f 3b a9 a7 92 bc da d1 54 bb
       0.013394394 0.0036567233 -0.017902212 -0.0032473714
000070 e8 da 8e bb f8 2b de 3c b1 53 a3 bb e0 e8 8c bb
       -0.0043595918 0.027120575 -0.004984342 -0.004300222
000080 b9 70 6a bb 5a a3 f0 bb b4 7a 5a 3c 40 8c 5b 3c
       -0.0035772754 -0.007343692 0.013334919 0.013400137
000090 b5 84 c9 bb 3d 28 20 bc 00 8a 06 3c 0f f5 e2 3b
       -0.006149853 -0.009775219 0.008211613 0.006926186
0000a0 b7 68 a9 bc 62 c1 24 bc 30 1f 1c bc 1f 73 8a bc
       -0.020679815 -0.010055872 -0.00952892 -0.016900597
0000b0 62 c8 cd bb c4 ba a8 3b 4f 67 4a 3b 22 57 79 bb
       -0.006279991 0.0051492173 0.003088433 -0.003804632
0000c0 65 6d 17 bc 31 4e 21 bb 25 d1 76 3d d6 86 94 3c
       -0.00924239 -0.0024613256 0.06025805 0.018130701
0000d0 6a b7 4c 3d 4d 14 67 3d 0e 0a 86 3c cc ad 49 bc
       0.049979605 0.056415845 0.016362216 -0.012309503
0000e0 10 86 4b be 1a 96 1f be 42 58 70 be d1 0f 6d 3d
       -0.1987536 -0.15584603 -0.23471168 0.05787641
0000f0 a9 c2 65 be 4c 82 22 be a1 6a cc bd 57 b5 b9 bd
       -0.22437538 -0.15870017 -0.09981275 -0.09067791
000100 68 6b 4f bd 40 b3 79 be 36 94 38 3b c9 7b 36 be
       -0.05063954 -0.24384785 0.0028164512 -0.17820658
000110 58 0b b0 bd dc 82 45 bc 8f f9 af bd f6 2c e4 bd
       -0.08595914 -0.012055125 -0.085925214 -0.11141388
000120 fc 54 f5 bd ea 1a 52 be c4 71 ee bd 01 b0 71 bd
       -0.119791 -0.2051808 -0.11642793 -0.05900574
000130 5a 41 7c b9 b7 a3 f9 bb e0 9e dd 3b a9 6b 28 3c
       -0.00024056938 -0.0076183933 0.006763324 0.010279574
000140 3c fa 3d bd 77 d0 63 bd bb 76 ce bc 2c 4d c5 bd
       -0.04638122 -0.05561873 -0.0252031 -0.0963386
000150 e7 9c cb bd 82 d5 0b 3d c7 f0 49 bc 55 29 de 3c
       -0.09942036 0.034139164 -0.012325472 0.027119318
000160 5a 69 02 bd dc 94 d9 bd f1 93 02 bd 3b df 3b bc
       -0.031838752 -0.10624096 -0.03187937 -0.0114667965
000170 ef a1 b0 3b a4 f8 c4 3a 82 0a 0c bd d8 e2 9e bc
       0.0053903977 0.0015027714 -0.03418971 -0.019395277
000180 fb f0 c1 3b 0d c7 82 bc cd 6d fc 3b 1c c8 1a 3d
       0.0059186197 -0.015964055 0.007703519 0.037788495
000190 ee a0 39 3c 2e ce 23 bc 69 eb 18 3b 0d 3b 83 bc
       0.0113298725 -0.009997888 0.0023333675 -0.016019369
0001a0 3a 72 d6 3b 94 96 c6 bb aa 1d b0 3a b0 b0 93 bc
       0.0065443786 -0.006060431 0.0013436575 -0.018028587
0001b0 5e f1 11 bc f9 64 b6 bc 3a e5 59 3c cd aa 0a bb
       -0.008907644 -0.022264944 0.013299281 -0.0021158934
0001c0 0b fa 83 bc d9 1f 12 bc c4 16 f6 bb 35 fd 59 3c
       -0.01611044 -0.008918726 -0.007510038 0.013304998
0001d0 d6 49 85 bc ed 86 98 bb 56 16 ca 3b 08 6e 51 bc
       -0.01627056 -0.0046547563 0.0061672134 -0.012782581
0001e0 86 fd b0 3b 5f 5d 12 bc 8e 73 58 bb ff 45 de bb
       0.005401316 -0.008933394 -0.003302786 -0.0067832465
0001f0 ca de c1 bc d7 72 e5 3c 6a 5c 32 bb c3 40 9a bd
       -0.023665804 0.028008861 -0.0027215728 -0.075318836
000200 38 e6 ed bc e4 67 eb 3a 03 b6 0a bd 3a 4b 05 be
       -0.02904044 0.0017960039 -0.033864986 -0.13016978
000210 3f c3 8f 3c c0 9f a2 bd cc 73 94 bd da bc fb bc
       0.017549155 -0.07940626 -0.07248649 -0.0307297
000220 c8 31 41 bd 31 7e c2 3b 6c f8 22 bd 0b 01 b9 bd
       -0.047166616 0.0059354533 -0.039787695 -0.09033402
000230 1d ee a1 3a f2 f8 bf 3c 12 ca f5 3d f9 be 0b bd
       0.0012354288 0.023434136 0.120014325 -0.034117673
000240 10 17 72 bc 23 ad 14 bc d3 10 49 3d 57 5f 0f 3d
       -0.014776006 -0.009074482 0.04908831 0.035003033
000250 75 76 08 bd ad 09 f2 bc fb 5a 85 3c ed ce c6 bb
       -0.033316094 -0.02954563 0.016278734 -0.006067148
000260 ce 5d 00 3c 34 a2 05 bb 5c 6f 7f 3c cb 0d 22 3c
       0.007834865 -0.002039087 0.015590515 0.009890984
000270 1e 18 98 bb 60 5f 29 bb 96 0a b7 3b a4 ce 6c b8
       -0.004641547 -0.0025844201 0.0055859787 -5.6459234e-05
000280 f8 26 9f 3a 11 f9 f4 bb 61 4a 82 bb c5 18 7f bb
       0.0012142351 -0.00747598 -0.003976152 -0.0038924676
000290 46 da 0b bc df 63 bd 3b 76 d7 b9 bb 89 63 c2 3b
       -0.008535927 0.005779728 -0.005671437 0.0059322757
0002a0 e9 9e 37 bc c1 24 26 3c 8c 35 24 3d c1 3d 08 bc
       -0.011207321 0.010140599 0.04009013 -0.0083155045
0002b0 d0 ab 81 3c ee 94 26 bc 0d e3 25 3c 6f 3d e7 bc
       0.015828997 -0.010167344 0.010124934 -0.028227536
0002c0 04 21 a5 ba ee 88 2a bc 55 b7 1f 3c da 73 45 bc
       -0.001259834 -0.010408623 0.0097483 -0.012051547
0002d0 5d d1 52 3b 71 58 fc bb 42 2a 81 3c 7d da 25 bd
       0.0032168247 -0.0077009727 0.01576722 -0.04049157
0002e0 00 65 50 3c 6a f6 86 bc 80 e6 a1 bc ee 03 0f bd
       0.012719393 -0.016474921 -0.019763231 -0.034915857
0002f0 85 bf ae bb b8 7d 98 3c 68 2f e0 3c f6 ab 82 3c
       -0.0053328895 0.018614635 0.027366355 0.015951138
000300 cb a4 2d bd f5 4f c3 bc df 99 e5 bc f9 81 f7 bc
       -0.042393487 -0.023841837 -0.028027473 -0.030213343
000310 02 02 44 bc e1 cc e4 3b 1d dc 1a bc b5 1a 77 bc
       -0.011963369 0.0069824313 -0.009451893 -0.015082051
000320 10 d1 0b bd d6 b0 f3 bc 14 d3 ae bc 48 0d da bb
       -0.034134924 -0.029747408 -0.021340884 -0.0066544153
000330 81 b2 63 bd 4d 63 0b 3d 32 99 a1 bc 3b 75 ec ba
       -0.055590156 0.034030247 -0.01972637 -0.0018040308
000340 aa db 61 bc 2d d8 ce bb ae f3 59 3d 0e e2 83 3c
       -0.013785282 -0.0063123913 0.053210907 0.016099002
000350 cf 2c f1 bb 52 78 31 bc 3e 89 1e bc 8b 83 42 bd
       -0.007360078 -0.010831909 -0.009676276 -0.04748873
000360 8f a5 28 3d 69 43 f6 bc 52 ab 45 bb 28 c3 51 3d
       0.041173514 -0.03006144 -0.003016193 0.051211506
000370 84 b5 31 bd 19 d8 94 bb 1a 70 44 bc 2b d6 ef bb
       -0.043385997 -0.0045423624 -0.011989618 -0.007319232
000380 24 03 c0 bc e4 28 38 3d 12 79 fd 3d 67 24 fe bd
       -0.023438998 0.04496087 0.12376608 -0.12409287
000390 fc 4e 6d be 10 fd ca bc c2 fb a8 3c bd 05 5d 3c
       -0.23174661 -0.024778873 0.02062786 0.013490138
0003a0 1e db ff 3b f7 f1 33 bd 40 95 a1 bc 2b 29 d9 bd
       0.007808103 -0.043931928 -0.019724488 -0.10603555
0003b0 bc 61 19 be b3 68 da 3d 39 5d 56 be 0e d7 e9 bd
       -0.14978689 0.10664501 -0.20933999 -0.114179716
0003c0 3c b4 f5 3c d0 b2 53 bd cf db a6 3d 0c 3a 47 be
       0.029993169 -0.0516842 0.08147394 -0.19455737
0003d0 8e b1 8a bd 1b 91 63 3c d8 a7 65 bd ac 59 ce bc
       -0.06772147 0.013889576 -0.05606827 -0.025189243
0003e0 84 c6 e8 bd 6d 1c 38 3c 4c 9f d5 3a 8a 41 37 3c
       -0.11365989 0.011237246 0.0016298085 0.011185059
0003f0 b5 a5 4b bc 13 0f ea 3a cf 8c a8 bc cd ae 0d 3c
       -0.012429644 0.0017857276 -0.020574955 0.008647633

lin1.bias f4 [5]
000000 6c d0 af bc c0 40 73 bc 7e a2 05 bc 28 ef b3 bc
       -0.021461688 -0.014846981 -0.008156417 -0.021964625
000010 ee cb b1 bc
       -0.021703687
