results_auto/01_domain_adaptation/maml_supervised/June_14/officehome_maml_order_2_seed_0_shots_1_ways_5_meta-lr_0.0001_test-domain_Clipart_dropout_0.1_RandAugment-prob_0.5_pre-train-wts_datetime_13_06_2021_17_41_38/intermediate_26000_model.pt (torch, 412181 bytes, 54 tensors)

conv1.weight f4 [32, 3, 3, 3]
000000 2a 70 e7 3e 67 58 a0 3d 4f fc 07 be 4d ec 5b bd
       0.45202762 0.078293614 -0.13279842 -0.05369215
000010 78 44 3e be fe 9e 31 be 1d 79 16 3e 18 dd 77 3d
       -0.18580806 -0.17345807 0.14694639 0.060513586
000020 18 1a 19 be a3 09 b5 3c cf db 56 be 2c 98 69 3d
       -0.1495136 0.022099322 -0.20982288 0.057029888
000030 e6 e3 b1 be e6 6a 1b be b6 37 f8 bc 20 e0 75 bc
       -0.34744185 -0.15177497 -0.030300003 -0.015007049
000040 72 98 f0 3d 5a ca 88 3e c3 b2 52 bf 35 89 e8 be
       0.11747827 0.26716882 -0.8230402 -0.4541718
000050 e9 31 20 3e 02 8f 94 be a3 0d 93 3d 29 5e 0b 3f
       0.15644039 -0.29015356 0.071803354 0.5444055
000060 87 33 17 be 38 27 aa 3e 33 1d 48 3f 95 2e 26 3d
       -0.1476575 0.33233047 0.78169554 0.040571768
000070 6a a6 29 3d f7 27 ce 3e c3 9f 21 be c3 e6 61 3e
       0.04141847 0.40264866 -0.157836 0.22060685
000080 b4 b8 c5 3e d9 f8 f7 be 25 7d ee be ec a9 9a bd
       0.3861748 -0.48432043 -0.46579853 -0.07551941
000090 0d 0d 29 be 9f 60 5a 3e d4 e9 b4 3e 74 83 70 be
       -0.16508885 0.2132592 0.35334647 -0.23487645
0000a0 ed 5a 60 bd f6 96 23 3e 28 92 f1 be 9a cc 09 bf
       -0.054774214 0.15975556 -0.4718182 -0.5382782
0000b0 84 2c 66 be ed fb 39 3d 56 81 95 3e a6 4f f1 3e
       -0.22477919 0.04540627 0.29200238 0.4713108
0000c0 73 6e 88 be dd 33 0a bc ad 83 b9 3e 8e a8 b2 bc
       -0.26646766 -0.008435217 0.36233273 -0.021808889
0000d0 67 1f 07 be b9 f4 d9 3c 43 a8 c4 3e a6 34 e5 3d
       -0.13195573 0.02660595 0.38409624 0.111916825
0000e0 b9 0f 8f 3e e5 d0 8c be a4 39 92 be 98 1c be be
       0.27941683 -0.27503124 -0.285596 -0.3713119
0000f0 c9 ac 4f bd fd 26 31 bd 67 03 de bd 8b 1f bc 3e
       -0.05070189 -0.043250073 -0.10840493 0.36742815
000100 af e1 a5 3e 75 b1 0a 3e 9d cd 40 bc b5 04 ca bc
       0.32398745 0.13544257 -0.011767772 -0.024660448
000110 3c 1a 26 be 8d f7 04 3d 15 c8 9e be b8 d3 29 be
       -0.16220945 0.032462645 -0.31012025 -0.1658467
000120 01 9d ed 3e 07 9a f1 3e 30 51 0a 3f e9 c4 1c 3e
       0.46408847 0.47187826 0.5403013 0.1530949
000130 0c 7f 13 bd 32 7f b4 be 93 8c 8b be f2 36 ea be
       -0.036009833 -0.35253292 -0.27255687 -0.45745045
000140 5d 33 c1 be 1d d1 05 3f 90 5a c5 3e a0 90 3e bd
       -0.377345 0.52272207 0.38545656 -0.046524644
000150 50 b8 ec bd 0a 38 b4 be 37 7d d4 be 2d 0e b2 3d
       -0.11558592 -0.35199004 -0.4150178 0.0869411
000160 ae d5 3e 3e 0a ab 8d bd 3e 68 e1 3e 7a bc f1 3e
       0.186362 -0.06917389 0.44024843 0.4721411
000170 b9 d2 df 3e 65 7b 59 be 35 f0 03 bf 0b 6c f7 be
       0.43715456 -0.21238478 -0.515384 -0.48324618
000180 63 3f c5 3d c9 ce ec 3d eb 49 07 be 4e 8d a5 3c
       0.09631231 0.11562879 -0.13211791 0.02020898
000190 6d f3 d3 3e d3 1d 01 3f 02 c1 ed be 73 e2 c1 be
       0.41396657 0.50436133 -0.46436316 -0.3786808
0001a0 8a 6b af be d5 21 b4 bd 6a 6a 52 bd 8a bb 80 3d
       -0.34261733 -0.087955154 -0.051371016 0.0628577
0001b0 e6 13 35 bc 60 17 a9 3d ab ea a5 bd 03 26 18 3e
       -0.011052107 0.082564116 -0.081014 0.1485825
0001c0 34 2e d4 bd f3 91 25 3e 80 54 d0 3c 54 7e 8c be
       -0.10360375 0.16168956 0.025430918 -0.2744013
0001d0 7f ee 29 be 51 41 1d 3e d2 0c a1 3e 69 9a 0f 3e
       -0.16594885 0.15356947 0.31455094 0.14023747
0001e0 f8 a8 3a 3e 95 61 39 3e 45 b8 5d bd 36 07 07 be
       0.18228519 0.18103631 -0.05413081 -0.13186345
0001f0 c3 b7 9c be a8 b6 9f be de db 82 bf ef e2 17 3e
       -0.3060895 -0.31194043 -1.0223348 0.14832662
000200 27 15 12 be 4b a0 55 bf 42 78 aa 3e 4b 3d c7 3c
       -0.14265881 -0.8344771 0.33294874 0.024321219
000210 09 ff c6 bf b1 66 59 3e 73 cf 7d be 66 1a 96 be
       -1.554658 0.2123058 -0.24786167 -0.29317015
000220 e2 dd 97 bd 86 66 64 be f2 97 8d 3d 55 a8 62 3e
       -0.07415368 -0.22304735 0.06913747 0.22134526
000230 7b ab 91 3e 35 b6 c7 3e 0a f4 21 3f 63 d5 64 3e
       0.28451142 0.390062 0.63263 0.22347026
000240 b7 92 f1 be 9c 22 02 be 22 a9 c0 3b 41 7e c9 be
       -0.47182247 -0.12708515 0.005879537 -0.39354137
000250 d1 02 c8 be 3d 55 9c be ee 4d 0b bf 8b c1 a5 be
       -0.3906465 -0.30533782 -0.54415786 -0.32374224
000260 f6 29 8b be 88 e0 bc 3e cf 37 fd 3e e3 4e a2 bc
       -0.2718045 0.36890054 0.4945664 -0.019813007
000270 1a 3d 7e 3e 02 1d 74 3c 9f 77 c7 3d b5 9b 7d bd
       0.24827996 0.014899494 0.09739613 -0.061916072
000280 5e 35 cc 3d 9b 54 a1 bd 3a 35 22 bf c2 57 9b be
       0.099711165 -0.07877465 -0.6336247 -0.3034039
000290 11 bb 2e be e2 86 96 bd b1 ee e5 3d 86 dd 3d 3e
       -0.17063548 -0.073499456 0.112271674 0.18541536
0002a0 e3 53 04 3d d0 8e ec 3e 02 73 05 3f ee 6e d7 be
       0.032306563 0.46202707 0.52128613 -0.4207682
0002b0 d4 cc 3c 3e bc 58 a1 ba 44 4a b9 be 20 03 7f 3e
       0.1843751 -0.001230977 -0.36189473 0.24903536
0002c0 4d 12 1c bd 67 3f 70 be 39 3e ad 3e dc ab 19 be
       -0.03810339 -0.23461686 0.33836535 -0.15006965
0002d0 62 71 30 3e 89 dc c7 3e ac 02 db 3e 63 40 4b bd
       0.17230752 0.39035442 0.42775476 -0.04962195
0002e0 a7 7e 72 3e af 3f 51 3d 57 3c d6 be 01 81 03 be
       0.23681127 0.051086124 -0.4184291 -0.1284218
0002f0 39 e2 d6 be f6 46 7d 3d 54 2b be 3e 79 e2 45 3e
       -0.4196947 0.06183525 0.37142432 0.19324674
000300 bd 2f 1b bf af c2 5e be 9e 57 10 bf 04 e7 85 3d
       -0.6061972 -0.21753953 -0.56383693 0.06538203
000310 81 dc 7a 3e a8 a3 72 3e 49 17 27 be a0 3b 83 3e
       0.24498178 0.23695242 -0.16317476 0.25631428
000320 5c 8e 24 3d cf da c4 be 62 3d b3 be de 2d 1d bf
       0.040174827 -0.38448188 -0.3500777 -0.6139811
000330 e9 2d 1c 3e 79 59 29 3f b7 f1 3f 3e 9e cd 28 3e
       0.15251888 0.6615215 0.1874455 0.16484687
000340 d5 c1 5f 3e e8 4c 2e 3d 95 e8 a8 be 85 1b 89 be
       0.21851285 0.042553812 -0.32989946 -0.26778808
000350 3b 1e b9 be 96 c0 97 3e dc 8f d8 3e 68 c0 85 3e
       -0.36155877 0.2963912 0.42297256 0.26123357
000360 ef 18 30 be 1c 92 de be 09 bc 1c 3f d5 81 c9 be
       -0.17197011 -0.43470848 0.6122442 -0.39356866
000370 e0 8a 8a be 8b 2f 12 3f 8c 5a 06 be 4e cf 4d be
       -0.27059078 0.57103795 -0.13120478 -0.20098612
000380 a9 09 7b 3d 8f b4 82 3e 99 6a 04 bf fe 44 f3 3d
       0.06128851 0.2552838 -0.51725155 0.118783936
000390 3c 49 be ba b6 2e 4c be a8 26 4d 3e 31 90 89 3e
       -0.0014517675 -0.19939694 0.20034277 0.26867822
0003a0 72 f6 e2 bc 92 8d a7 3e 22 3d 9c 3e 1c 6f ce be
       -0.027705405 0.32725197 0.3051539 -0.40319145
0003b0 4e e6 93 3e 29 70 41 be cb 56 9c be 6e ba 31 3e
       0.28886646 -0.18890442 -0.30534968 0.17356274
0003c0 2d 64 33 3d 2a 16 12 bd 11 d5 60 bd 4f 08 b4 3e
       0.043796707 -0.03566567 -0.054890696 0.3516259
0003d0 00 b7 b9 3e c9 fa 08 be 2a fb 04 3f b8 33 b3 3d
       0.3627243 -0.13376917 0.51945746 0.08750099
0003e0 69 85 85 bd 29 2e a3 3e 2c e0 ad bc b4 7e 27 3c
       -0.065195866 0.31871155 -0.021225058 0.0102230795
0003f0 df 09 99 3e 38 28 b3 bd d7 85 8f be 0f e0 33 bd
       0.29890344 -0.087479055 -0.280318 -0.04391485

conv1.bias f4 [32]
000000 a0 5f 8f bd ab 38 c8 bf 6f c9 12 3d 17 e6 7b be
       -0.07000661 -1.5642294 0.035836633 -0.24599491
000010 17 8f 39 bf 9c b1 da c0 ef ea 49 bc 09 a6 2c bd
       -0.7248396 -6.834181 -0.012324079 -0.04215053
000020 35 99 93 be 36 da 78 3e 1a a1 9c be 24 48 10 bd
       -0.28827825 0.24301991 -0.3059166 -0.03522505
000030 1e ce 5b 3f 8e e5 d3 bf 99 b6 4d be 16 79 ea bd
       0.85861385 -1.655443 -0.20089187 -0.114488766
000040 90 80 e2 bc 8f 4b 95 be 9f 71 66 be 99 62 62 c0
       -0.027649194 -0.2915921 -0.2250428 -3.537268
000050 84 46 7e 3f 75 d0 70 3d 0c e9 ba 3d 5c 7a 1a 3e
       0.9932635 0.05879255 0.091264814 0.15085739
000060 b5 c3 24 c1 b7 b7 69 3e 4f d7 1e be 96 c7 a3 bd
       -10.29778 0.22823988 -0.15511821 -0.07997052
000070 68 3a 84 3e 48 b5 ee be ee 1a 2b c0 3f e7 ad 3d
       0.2582581 -0.46622682 -2.6735187 0.08491372

batch1.weight f4 [32]
000000 74 2d a4 3f c3 d4 81 3f 5f 8b 39 3f 14 3d 9a 3f
       1.2826371 1.0143055 0.7247829 1.204989
000010 82 72 6d 3f d1 30 3b 3f dd bf 8b 3f f3 cb 87 3f
       0.9275285 0.7312136 1.0917927 1.0609115
000020 a3 84 54 3f fd 57 83 3f 84 60 a4 3f a6 16 4f 3f
       0.8301489 1.0261227 1.2841954 0.80893934
000030 46 c4 74 3f 4f 15 15 3f b5 9a e3 3e 63 7f 6c 3f
       0.9561199 0.5823564 0.4445397 0.92381877
000040 8f e8 39 3f 33 ed 8c 3f 2e fd a0 3f 7d e4 25 3f
       0.7262048 1.1009887 1.2577264 0.6480177
000050 3f a0 51 3f d0 28 77 3f 1a e1 70 3f 04 86 9f 3f
       0.8188514 0.9654665 0.9409348 1.2462773
000060 42 68 4a 3f 0d 27 8b 3f 43 a6 b9 3f a0 be 70 3f
       0.79065335 1.0871292 1.4503864 0.9404087
000070 01 79 b1 3f 1d be 0a 3f d8 2c 2c 3f 94 cd 0a 3f
       1.3865052 0.5419634 0.67255926 0.5421994

batch1.bias f4 [32]
000000 6e a8 3e 3f b9 01 36 bf a7 bd 74 3f c7 fe f2 3d
       0.74475753 -0.7109638 0.95601887 0.11865001
000010 c6 0f 05 bf f4 98 9e 3e 4d d1 c1 3f 92 a8 47 3f
       -0.51977193 0.3097607 1.5141999 0.7799159
000020 98 19 32 40 7b bf b7 3d 73 49 82 3f 1e 50 eb be
       2.782812 0.08972069 1.0178665 -0.45959562
000030 d2 29 d8 bd c6 01 24 be 88 3a 27 3d 91 60 f9 be
       -0.105548516 -0.16016302 0.040827304 -0.48706487
000040 5f 21 8b 3c d0 e6 94 bd d2 62 24 bf c9 3f 83 be
       0.016983686 -0.072705865 -0.6421329 -0.25634602
000050 4d d2 a7 bc e0 2a 1f 3e cc b8 e8 3d 08 c3 04 3e
       -0.020486021 0.155437 0.11363372 0.12965024
000060 7e e4 93 3e 14 3d d5 bc 6a 56 29 3e 20 1e 7a 3d
       0.28885263 -0.0260301 0.1653687 0.061063886
000070 2f 38 55 bd 76 71 f1 3d fa 2e ca 3f 1e 53 61 bd
       -0.052055534 0.11789219 1.5795586 -0.055010907

conv2.weight f4 [32, 32, 3, 3]
000000 4d b3 3a be 6c 0b ad 3d 16 1b 33 bd df 45 32 be
       -0.1823246 0.08449444 -0.043727003 -0.17409466
000010 93 27 6d 3e ee f4 c6 3e d9 f5 ed 3c b0 54 16 3e
       0.23159628 0.38858742 0.029047893 0.14680743
000020 2e 48 b5 3d a1 9c c1 3d bc 53 8d be 0c 8c be bc
       0.08851658 0.09453703 -0.27602947 -0.023260139
000030 58 f0 7f 3d 8b 34 e4 bc 5b 60 06 3f 2d b5 a6 be
       0.06248507 -0.027857086 0.52490777 -0.325601
000040 2d 08 8f be df 5d e9 3d 80 ba 20 bf 6e 4c 35 bf
       -0.27935925 0.113948576 -0.62784576 -0.7081975
000050 02 b5 0e bf 5b 50 e0 be ff 2e 2e be 0f c5 58 bf
       -0.55744946 -0.43811306 -0.17010115 -0.8467569
000060 b1 28 a5 3d 9e 8f 7d 3d f1 1b 8d 3e 5f cc 83 3e
       0.08064402 0.061904542 0.2756038 0.2574186
000070 45 bb a7 bc 5a e8 df be 3a 36 f1 bd a8 e7 e0 bd
       -0.02047504 -0.43731958 -0.11777921 -0.10981685
000080 96 0d 4d bf 42 36 6c 3d 78 30 4c be cb aa be be
       -0.80098855 0.05766893 -0.19940364 -0.3723968
000090 22 41 80 3e 6c af e7 3d 5b 77 18 bb 05 62 86 3e
       0.25049692 0.11312756 -0.00232645 0.26246658
0000a0 20 cb d2 3d 1a ec aa 3c 8a 4f 70 3d 32 c3 2a be
       0.10292649 0.020864535 0.058669604 -0.16676024
0000b0 ae 64 80 bd 61 b7 61 be c6 75 95 be da e0 50 be
       -0.06269203 -0.2204261 -0.29191417 -0.20398274
0000c0 ee d2 8c bd ff 0a 9c bd 40 78 c7 3d dd 4d 1f 3e
       -0.06876169 -0.07619285 0.09739733 0.15557046
0000d0 19 38 ef 3c 63 e7 13 3e 8b 6d 6f bd 77 0a a0 be
       0.029201554 0.14443736 -0.058454078 -0.31257984
0000e0 86 d1 4b be 39 b4 20 3d 46 0e 45 bd 11 65 0b 3c
       -0.19904146 0.039234374 -0.048109315 0.008507983
0000f0 78 d7 59 3e 76 be b9 bd 8b 0d 86 3e d6 e0 a9 3d
       0.21273601 -0.09069531 0.26182207 0.08294837
000100 17 27 ed 39 42 25 6d be 99 6c 27 3e bf 95 93 3d
       0.00045233287 -0.23158744 0.1635002 0.07206296
000110 e5 d0 15 be 73 e9 1a 3c 1d 26 3f 3e 4c 49 cb bd
       -0.14630468 0.009455073 0.18666883 -0.0992609
000120 e9 ca 3d be 22 f1 17 3e 91 54 8f 3e 74 c6 71 be
       -0.18534435 0.14838079 0.27994207 -0.2361086
000130 bd b8 40 3e 66 22 d5 3e b8 05 f1 be b6 c1 1f be
       0.18820472 0.41627806 -0.47074676 -0.15601239
000140 d9 b8 64 3c ca fa 88 be 66 f2 48 bf e5 21 b7 be
       0.013960087 -0.26753837 -0.7849487 -0.35768047
000150 9f 5d f6 be 03 8f b0 be 4c c8 42 3e 0b 39 05 be
       -0.48118302 -0.3448411 0.1902172 -0.13010041
000160 76 bf 72 bd cc c2 e0 3e ba b6 35 be ce 0d 01 be
       -0.059264623 0.43898618 -0.17745486 -0.12602922
000170 97 38 d5 3d 57 e6 35 be e1 cf 59 3e 0f fb 22 3e
       0.10411184 -0.17763649 0.21270706 0.15916084
000180 79 e6 b9 bd 14 11 ed be 55 51 af be 56 ea 08 bf
       -0.09077162 -0.46302092 -0.3424174 -0.5348257
000190 4a 4f cd bd 5f 38 64 be 2b d1 b1 be dd b9 bd 3e
       -0.10024889 -0.22287129 -0.34729895 0.37055865
0001a0 d0 1e c7 3d 09 93 9c be 0a 07 e8 3e 67 01 76 3e
       0.09722674 -0.3058093 0.4531787 0.24023972
0001b0 31 8e cd bd 2b d6 bd bd a5 5e 56 be 82 14 d7 3e
       -0.100368865 -0.09269365 -0.20934542 0.42007834
0001c0 fb 5b f6 3e df 33 0d 3c 5a 60 92 be 3a ff 28 bd
       0.4811705 0.008618324 -0.28589135 -0.041259028
0001d0 90 c9 89 3e f7 43 bc 3c be fa d4 bd b6 49 c6 bc
       0.26911592 0.022981627 -0.10399388 -0.02420507
0001e0 f6 04 9a 3d 7c be f0 bd c6 c0 9c be 2f c0 15 3e
       0.075204775 -0.11755082 -0.30615824 0.14624093
0001f0 06 1b 82 3c 53 89 bc be be 45 00 bf 54 ac fc be
       0.015882026 -0.3682352 -0.5010642 -0.49350226
000200 c2 13 63 be c9 3d 5c bd a4 b4 ce bd 95 47 72 3e
       -0.22175506 -0.05376986 -0.10093048 0.23660119
000210 06 0e 2e 3e 35 79 83 3e f9 ba 03 3f 04 29 d9 3d
       0.16997537 0.2567841 0.5145717 0.10603526
000220 4c 77 f9 be 6d 4c e3 bd 57 7b 92 3e ed da ac 3c
       -0.4872383 -0.110985614 0.28609726 0.021100486
000230 85 ad 83 bd 89 b6 9e bd 58 67 c7 be 3f 0c 93 be
       -0.064295806 -0.077496596 -0.38946033 -0.2872028
000240 0c c8 0d bf bf c2 f7 bd 13 60 b0 be e5 96 44 3d
       -0.5538337 -0.12097692 -0.344483 0.047995467
000250 54 0b 08 3f e8 16 39 3e 03 09 82 bd a4 68 82 3e
       0.53142285 0.18075144 -0.06349375 0.2547046
000260 26 0a 4f 3e cf 38 68 3e 3a 0a 91 bc b1 2c c0 3e
       0.20218715 0.22677921 -0.017705072 0.37534097
000270 bc fd 77 bc 3a 2f 10 bd f4 67 c6 bd c9 85 8a be
       -0.015136179 -0.03520129 -0.09687796 -0.27055195
000280 22 15 5b be 65 be 90 be 28 ac de bc 66 06 98 be
       -0.2139478 -0.2827026 -0.0271817 -0.29692382
000290 2c 0d 2e be 21 5d 39 3e 14 fb 45 bd 7e 1a 84 3e
       -0.16997212 0.18101932 -0.04833515 0.25801462
0002a0 a2 4f 06 3f 73 6d 8c bc d5 82 9f 3e 11 ba 4c 3e
       0.5246526 -0.017142033 0.31154504 0.19992854
0002b0 d1 9e c3 be 16 22 77 3d e2 00 27 3e e4 02 95 3d
       -0.38207105 0.06033524 0.1630893 0.07275942
0002c0 95 1b 9e bc 11 cd d0 bc d9 15 bb 3d 45 08 79 be
       -0.019300262 -0.025488408 0.091350265 -0.24319561
0002d0 b7 34 c3 bb 56 83 32 be 78 e2 34 be 50 ef a1 3c
       -0.005957212 -0.17432913 -0.17664516 0.019767433
0002e0 57 fa 6f 3e 78 71 13 3e b2 b0 d6 3c dc e7 3e 3e
       0.23435341 0.14398754 0.026207302 0.18643135
0002f0 2c 05 e1 3d 15 97 34 3e a3 64 c9 3d 46 30 10 3d
       0.109873146 0.17635758 0.09833648 0.035202287
000300 fe 60 e3 be 73 ed 5e be 2f 5f 6d be 92 07 77 be
       -0.44409937 -0.21770267 -0.23180841 -0.24123982
000310 70 0d 87 3c 60 0e 38 3e 2b 64 9d be b5 db 39 bf
       0.0164859 0.17974234 -0.30740485 -0.7260087
000320 64 72 87 be 2b b0 09 bf fa 99 8e bc 89 0c 98 3e
       -0.2645446 -0.53784436 -0.017407406 0.29697064
000330 0f 79 20 3c 55 de 3b 3e ed ef 30 3f 73 9f 7c be
       0.009794488 0.18346532 0.691161 -0.246702
000340 1f 0a d6 be c5 34 82 3e e8 77 43 be 32 16 8f bd
       -0.41804597 0.25430885 -0.1908871 -0.06986655
000350 0b 82 04 3e 5f 66 c2 bd 81 81 bf bd bc 22 86 3d
       0.12940232 -0.09492182 -0.09350873 0.06549594
000360 51 9a a3 be 4b 0d f5 bd 3d e9 00 3e c9 75 a0 bd
       -0.31953672 -0.11965426 0.12588973 -0.07834966
000370 03 a6 0b 3e c6 02 f2 3e ce f3 af be aa f7 aa bd
       0.13637547 0.4726774 -0.34365696 -0.083480194
000380 60 92 44 bb 64 f0 ed 3d 49 42 75 be a5 4b fb be
       -0.0029994473 0.116181165 -0.23951067 -0.4908115
000390 80 c4 19 be 0b c9 e0 bd 9e da 55 bf eb 27 79 bd
       -0.15016365 -0.10975846 -0.8353671 -0.060829084
0003a0 22 fe 91 3d 15 ff 3f 3d 8a 76 17 3e bc 0f 92 bd
       0.0712855 0.046874125 0.14791313 -0.07131907
0003b0 14 37 9b be 09 e9 2b 3e f2 08 5b 3d 6d b7 11 bb
       -0.3031546 0.16788115 0.053475328 -0.0022234574
0003c0 bc 27 a2 be e1 e0 4c be c0 f2 03 bf 54 fd 19 3e
       -0.3167094 -0.2000766 -0.5154228 0.15038043
0003d0 51 da 9e 3e e8 5e 0d 3e 15 d3 a9 bd 4f ea 09 3e
       0.31025937 0.13805735 -0.08292214 0.13468288
0003e0 a5 8a 36 3b af 48 00 be b7 dc 24 3e 9d c9 95 3c
       0.0027853635 -0.12527727 0.16099821 0.018284613
0003f0 91 a1 60 be ef 34 02 bf f4 6e 83 3d 9c 21 28 bc
       -0.21936633 -0.5086202 0.06417647 -0.010261919

conv2.bias f4 [32]
000000 3a 72 ca 3d 4c 4e 14 3e ff fd 04 3e 34 20 14 3e
       0.09885068 0.14482993 0.12987517 0.1446541
000010 98 4c 87 3d ca 4c bc 3d 79 d5 b1 bf 66 04 08 bd
       0.06606406 0.09194334 -1.3893272 -0.03320732
000020 a7 35 bd 3e 62 96 aa be 66 bb 84 3e 3d 5c 16 be
       0.36954996 -0.33317858 0.25924224 -0.14683624
000030 6e 41 56 bd dc 5f 32 3e 60 0a 61 3d fb 05 be bd
       -0.052308492 0.1741938 0.054941535 -0.092784844
000040 a6 39 84 bd fb 15 31 be ed 29 81 bd 31 dd cb bd
       -0.06456308 -0.17293541 -0.06306825 -0.09954298
000050 76 e1 3b bd 84 e8 2d 3d 55 ea 06 3e 94 bd 19 3d
       -0.045869313 0.042458072 0.13175328 0.03753431
000060 cf e5 a3 3e fd 5a 59 3b 30 d3 9f 3b 3c 3c 09 be
       0.32011268 0.0033165806 0.0048774704 -0.13401884
000070 94 bf 10 bf 7a 9a ae 3e 0d 7a 39 bd 19 5a c5 3e
       -0.56542325 0.3410223 -0.045282412 0.38545302

batch2.weight f4 [32]
000000 fe 15 55 3f 56 6c 85 3f ca 09 b8 3f c8 c9 98 3f
       0.8323668 1.0423687 1.4377987 1.1936579
000010 7c 96 7c 3f fc 7b 96 3f 1a 6a 98 3f d6 d3 35 3f
       0.9866712 1.1756587 1.190738 0.7102636
000020 44 bc 95 3f f8 d5 5f 3f 58 e0 93 3f bc bd 64 3f
       1.1698079 0.87435865 1.1552839 0.8935201
000030 2a 13 11 3f d0 3d af 3f a1 1e 85 3f 51 31 a6 3f
       0.5666987 1.3690739 1.0399972 1.29838
000040 ee 1c 4d 3f 55 94 55 3f e7 f4 64 3f 79 bc 43 3f
       0.8012227 0.8342946 0.8943619 0.7645946
000050 3f 5c 95 3f 37 11 8c 3f e6 3e 96 3f 46 de 8c 3f
       1.1668776 1.0942754 1.1737945 1.1005332
000060 3a 87 7c 3f f3 b9 3b 3f 8f e1 49 3f 8e cf 1a 3f
       0.9864384 0.7333061 0.788598 0.60472953
000070 25 93 90 3f eb e1 81 3f be b0 72 3f 95 15 56 3f
       1.1294905 1.014707 0.9480094 0.8362668

batch2.bias f4 [32]
000000 98 78 38 3d c4 6a 01 bf d0 80 91 be 0d 05 02 bf
       0.045036882 -0.50553536 -0.2841859 -0.50788957
000010 97 04 b5 be d2 cb 1b bf 32 7c cc be 61 77 22 be
       -0.35355064 -0.6085788 -0.39938504 -0.15865852
000020 c7 07 04 bf a3 76 af be e9 bb 02 bf 32 d3 c3 be
       -0.5157437 -0.342702 -0.5106798 -0.38247067
000030 8a 14 c0 bc 38 d4 af be c2 b5 e3 be 6a cc 06 bf
       -0.023447294 -0.34341598 -0.44474608 -0.5265566
000040 0d f2 ba be 82 b5 e7 be 20 56 f4 be a6 2a 1e 3d
       -0.36512795 -0.45255667 -0.47721958 0.03861489
000050 ee 2b e6 be 49 18 9f be dd 7f 12 bf 6d a8 9b be
       -0.4495539 -0.31073216 -0.57226354 -0.30401936
000060 d9 08 07 bf e7 e4 83 be f6 db 51 be cb c4 94 be
       -0.52747875 -0.25760576 -0.20494065 -0.2905639
000070 d7 b0 20 be 8f 23 b8 be c0 9b 93 be d5 7d 04 bf
       -0.15692459 -0.3596463 -0.28829765 -0.51754504

conv3.weight f4 [32, 32, 3, 3]
000000 9f 5b c9 3e 95 c6 dc 3e 9f 09 ce 3b d1 1a 70 be
       0.39327714 0.43120256 0.006287768 -0.2344773
000010 29 15 61 bc cc 6f 71 3e e1 00 ae be f7 56 c1 be
       -0.013737955 0.23577803 -0.33985046 -0.3776166
000020 6c f3 f3 bb 93 8f 33 3e 3c 1d 0a 3e 82 82 d3 be
       -0.0074447896 0.17535238 0.13487715 -0.41310507
000030 7c 57 c7 bd 87 c9 d2 bd 64 59 17 3e e7 32 a2 3e
       -0.09733483 -0.102923445 0.14780194 0.3167946
000040 f3 7d 96 3e 85 87 b9 be 88 39 a1 bc 42 7b 94 bd
       0.29392967 -0.36236206 -0.019680753 -0.07250072
000050 56 96 e6 be 98 7b 46 3e ab 88 ec 3d c8 37 54 be
       -0.45036572 0.19383085 0.11549505 -0.20724404
000060 57 f3 f5 3d 4c c8 90 3d 17 6d 4b be bf 08 9e be
       0.12009304 0.070694536 -0.19865833 -0.30866048
000070 20 f6 a7 be 86 77 d9 3e 08 11 a4 3d 82 66 12 be
       -0.32804966 0.42474002 0.08011061 -0.14296916
000080 13 f0 fe 3e 37 d4 50 be a4 bf a7 3d 37 8d b3 3e
       0.49792537 -0.20393454 0.081908494 0.35068676
000090 ef e7 9e 3e a9 a5 19 3f a5 52 1c 3e 4f c1 92 3d
       0.31036326 0.600184 0.15265901 0.07165777
0000a0 da d9 1d 3e a8 10 84 bc bc c8 9c 3b 30 82 dd 3c
       0.15415135 -0.016121224 0.0047846716 0.027039617
0000b0 e2 0d 53 3c 4f f9 9c 3e 1b 0f 99 3e 02 86 27 3e
       0.012881728 0.30658957 0.29894337 0.16359714
0000c0 c2 a1 d3 3d fb dd b5 3e cb fe 68 3e 8a b3 de be
       0.10333587 0.3552092 0.22753446 -0.43496352
0000d0 cb ae de bd 52 f4 97 be dc fb aa 3e 1e 41 86 3c
       -0.10873183 -0.2967859 0.33395278 0.016388472
0000e0 bc 04 8d be 70 57 fb 3d 14 21 cb bd 87 2b af bc
       -0.27542675 0.12272537 -0.099184185 -0.02138306
0000f0 c7 96 62 3e 33 86 ad 3e 8c 71 f0 3d b3 f1 75 be
       0.2212783 0.33891448 0.11740407 -0.24017982
000100 de a3 be be f6 00 1a bf 79 30 5a 3e d6 3d 9d be
       -0.37234396 -0.60157716 0.21307553 -0.3071124
000110 9d 73 b3 be f9 0c 06 be 6a cf cb bd 1e a2 b8 bd
       -0.35049143 -0.13090886 -0.099516705 -0.090152964
000120 91 3d 7a 3e 48 d2 e5 bc 8d a5 8b be 7b 77 fb 3c
       0.24437548 -0.028054371 -0.27274743 0.030696621
000130 5b 83 9a 3d 15 ce 84 3e 1a 79 4c bd 10 e0 28 bd
       0.07544585 0.25938478 -0.04992018 -0.041229308
000140 06 0c 56 3e 5e 0d 64 bf 66 e5 c1 bd 6c 8d 95 3e
       0.20903024 -0.89082897 -0.094675824 0.2920946
000150 97 26 25 bf 6e 11 ca be 8b 81 42 3e 7a dc 1c be
       -0.6451201 -0.39466423 0.18994729 -0.1531848
000160 e5 a1 cd 3c b6 4a 05 3e ad 24 05 be 64 68 fa be
       0.025101611 0.13016781 -0.13002272 -0.4890777
000170 39 42 a3 3e 0c ab fe bd fc 65 53 3d 3a 10 80 3e
       0.3188646 -0.12434968 0.05161093 0.2501238
000180 34 30 68 be 3a 59 0c be c1 43 ab bd 5f 0c 61 bc
       -0.22674638 -0.13705912 -0.083625324 -0.01373586
000190 8e 61 f4 3c 72 92 87 3e ce b0 8f 3e 18 3e b3 bd
       0.029831674 0.26478916 0.2806458 -0.08752078
0001a0 f3 b5 b7 bd 7d bb a0 3d 33 49 87 3e b7 be 4e be
       -0.08970251 0.078482606 0.26423034 -0.2018994
0001b0 f3 79 ca bd 1c c3 b5 bd a2 3e d0 be f5 1b 4e be
       -0.09886541 -0.08875105 -0.40672785 -0.20127852
0001c0 66 62 3d bd 1b 38 b9 be ba 96 aa be 71 fb 18 3d
       -0.04623642 -0.36175618 -0.3331812 0.03734917
0001d0 1e b7 88 be 3e 0c bf bc 9c b0 dc bc 75 1f 6d bd
       -0.26702207 -0.023321267 -0.026939683 -0.057891328
0001e0 41 eb 85 3e 3b f7 30 3d 37 80 6d be f9 fc 20 3c
       0.26156047 0.043204527 -0.23193441 0.009825938
0001f0 2b bf 81 3d 36 28 d9 be 73 3b 62 be cf 15 97 be
       0.063352905 -0.4241349 -0.2209299 -0.29508826
000200 d1 91 36 bf 0d 04 b3 bc 02 6f 95 bd fb 78 96 3d
       -0.7131625 -0.021852518 -0.07296564 0.07347294
000210 1c 73 c5 bd c5 3c c8 3d 3e 66 36 be 46 59 a2 3e
       -0.09641096 0.09777216 -0.1781244 0.31708735
000220 52 12 c5 bb 91 11 8c be c1 65 64 3e eb 59 1f be
       -0.006014147 -0.27357152 0.22304441 -0.15561645
000230 00 d6 18 bf a3 7e b9 bd 9c 5e a8 3e e2 b5 cc be
       -0.5970154 -0.09057357 0.3288468 -0.39982516
000240 cf 54 64 3e 37 ae 85 3d 20 99 18 bf 94 a8 1c 3c
       0.22297977 0.065273695 -0.5960865 0.0095616765
000250 b8 11 13 bd b2 e2 43 bc 62 14 05 be 25 c6 3e be
       -0.03590557 -0.011955904 -0.12996057 -0.18630274
000260 a8 87 4c be 46 64 20 3c 5e e1 94 be c0 0a a3 3e
       -0.19973624 0.009789532 -0.29078192 0.3184414
000270 fe 87 72 3e 35 70 16 3e d6 92 31 3e 09 f2 2c be
       0.2368469 0.14691241 0.1734117 -0.16889204
000280 64 5e a6 3d e4 f5 f7 3d 6b 44 e1 3c 9f a7 ec 3d
       0.08123472 0.12107447 0.027498445 0.11555409
000290 f3 0d 8f 3e 85 eb df bd 5a be 81 bd e4 3b 3a be
       0.2794033 -0.10933594 -0.06335135 -0.18186909
0002a0 56 a9 08 3e 0c 59 b8 be 6b 8d ba be 31 44 9f be
       0.13345847 -0.36005437 -0.36436018 -0.31106713
0002b0 4c 66 57 3d 79 fd 87 bd 05 e2 b6 be 60 47 a3 3d
       0.052587792 -0.06640143 -0.35719314 0.07972598
0002c0 41 42 74 be f7 5b a1 be d6 08 b5 be 05 57 9f bd
       -0.23853399 -0.31515476 -0.35358304 -0.077802695
0002d0 03 a1 08 be 37 2f 16 3e c4 18 f7 3e 45 c6 7b 3e
       -0.13342671 0.14666449 0.48261082 0.24587353
0002e0 b1 98 ab 3d ed c1 57 3e 73 f4 6b 3e 60 5f 05 3e
       0.08378733 0.2107007 0.23042469 0.13024664
0002f0 ff 84 3b 3d ae 90 86 3e c7 5f a7 3d 6e c0 81 3d
       0.04578113 0.26282257 0.08172565 0.06335531
000300 9a 56 ac 3e 5e 16 a6 be f0 ac 84 be f0 43 85 bd
       0.33659822 -0.3243894 -0.2591319 -0.06507099
000310 d0 c0 9a 3c 42 75 9f 3c 43 e4 90 3e 6c 2b e7 3d
       0.018890768 0.019465093 0.2829915 0.11287579
000320 c8 d5 b0 be 5a 44 98 3e 4c 5e ca 3e 40 c6 b4 3d
       -0.34538102 0.29739648 0.39525068 0.08826876
000330 af d7 53 bb 6d b3 6b 3e eb cc f9 bd 25 ec 89 3e
       -0.0032324602 0.23017664 -0.12197288 0.26937976
000340 9d 21 61 bd 8e 00 5e be 57 f7 ad be c6 7c a5 bd
       -0.054963697 -0.21679899 -0.33977768 -0.08080439
000350 05 2b 6d 3d 22 35 01 bf a9 b5 d5 3c 5e 80 7a 3e
       0.057902355 -0.504717 0.026087599 0.2446303
000360 63 51 45 3e d6 1a 9a 3c 8e 88 86 bf da 8b 35 3e
       0.19269328 0.018811624 -1.0510423 0.1772913
000370 63 66 a6 be 51 36 48 be 76 62 1a bd e8 80 dd be
       -0.3249999 -0.1955197 -0.037691556 -0.4326241
000380 6a a5 9f be c5 8f b0 3c 3e 2a 7f bd 39 89 0a bf
       -0.31180888 0.02155293 -0.062296145 -0.54115635
000390 28 6e 87 be 28 3d 89 3d 3f 8a 06 bf 02 ae 21 3d
       -0.2645123 0.06701118 -0.52554697 0.039472587
0003a0 da 05 ce 3e a0 78 31 3e d0 df 35 3e d4 fd 4d 3e
       0.4023884 0.17331171 0.17761159 0.20116359
0003b0 7a 9a 92 be dd 67 11 3f ae 9c 86 3e c4 55 01 bf
       -0.2863348 0.5679911 0.26291412 -0.5052149
0003c0 93 8b f3 3e db 3e a4 3d d6 00 5d be 0a 67 27 3d
       0.47567424 0.08019801 -0.2158235 0.04086975
0003d0 5b 18 fc bd f5 9f 83 bd c2 02 a0 3e 2f 62 85 3e
       -0.12309333 -0.06426994 0.31252104 0.2605147
0003e0 67 71 56 be a3 c1 b2 3d 6d 80 e1 bd 39 24 1a bf
       -0.20941697 0.087283395 -0.110108234 -0.6021152
0003f0 16 d5 73 be 37 b2 88 be 2c ff 5a 3e 22 c4 34 bd
       -0.23811755 -0.26698467 0.21386403 -0.04413236

conv3.bias f4 [32]
000000 04 04 6f 3e 02 5c 7a 3e 4f 0f ec 3e 2e f0 a6 3d
       0.23341376 0.2444916 0.4610543 0.081512794
000010 fd 5a 25 3e 0d ef cf 3d e0 95 e2 bf b3 bd 89 3e
       0.1614799 0.10153017 -1.7701988 0.26902542
000020 b3 64 30 bd 72 42 cf be 3c c6 ce 3d ef ef d9 b9
       -0.043064784 -0.4048038 0.10096404 -0.0004156823
000030 99 4c 0e 3f 12 9d c1 3e 84 9c 60 3d 8f a1 e4 3e
       0.5558563 0.37815148 0.054836765 0.4465451
000040 9c ac 27 3f e2 68 15 3e 3e b3 90 3e 80 79 18 3f
       0.65497756 0.14590791 0.2826175 0.59560394
000050 db 35 06 3f 87 cf be bc 94 7f 6d 3e 9b 67 64 3f
       0.52425927 -0.023292316 0.23193198 0.8922059
000060 15 14 a4 3d 94 bf a3 3f 9c fe be 3e 42 16 f7 3e
       0.08011643 1.279284 0.37303627 0.4825917
000070 f5 d4 c5 3e 80 b4 5c 3e d8 1d 93 be 8b 03 23 bf
       0.38639036 0.2155323 -0.28733706 -0.6367728

batch3.weight f4 [32]
000000 a3 02 4d 3f 4b fd 59 3f ae b0 84 3f 31 67 67 3f
       0.8008215 0.8515212 1.0366418 0.9039183
000010 86 2a 3b 3f 13 91 57 3f 58 9e af 3f aa 02 49 3f
       0.7311176 0.8420574 1.3720198 0.7851969
000020 2f cd 96 3f f3 08 89 3f 38 ed 44 3f 57 57 38 3f
       1.1781367 1.0705856 0.7692447 0.7200827
000030 0a a9 6b 3f 6d b2 8d 3f e6 96 19 3f 3c 2c 46 3f
       0.9205481 1.1070076 0.5999588 0.77411246
000040 51 ec 63 3f 03 b3 5c 3f 19 54 3c 3f ab 3a 5b 3f
       0.89032465 0.8621065 0.7356582 0.85636395
000050 20 12 6a 3f 44 a9 75 3f 54 b6 37 3f 8d 1e d3 3f
       0.91433907 0.95961404 0.71762586 1.6493698
000060 93 6b 53 3f 36 3f 8a 3f 03 0f 74 3f 94 2c 78 3f
       0.8258602 1.080054 0.95335406 0.9694302
000070 35 3f 40 3f 02 d0 3e 3f b3 8c 89 3f 90 e4 83 3f
       0.75096446 0.74536145 1.0746063 1.0304127

batch3.bias f4 [32]
000000 fa 57 97 be 15 39 8d be 5e c9 d2 be 02 e4 f0 be
       -0.29559308 -0.27582613 -0.41169256 -0.47048956
000010 eb 9b 7f be 5f c5 2d bf 80 a6 3d bf 54 03 65 be
       -0.24961822 -0.6787929 -0.74082184 -0.22364551
000020 75 8e 57 bf 08 4c 97 be b9 8a f6 be 12 8a 25 be
       -0.8420175 -0.29550195 -0.48152712 -0.16165951
000030 4f a0 a2 be 5f 8f e3 be 29 53 14 3b cf bf b2 be
       -0.3176293 -0.4444532 0.0022632575 -0.34911963
000040 d0 9a e9 be 8d 4b 9e be 51 d6 a5 be d3 f9 b0 be
       -0.45625925 -0.30917016 -0.32390073 -0.345656
000050 ae 69 21 bf a4 7f ca be b8 02 59 be f1 42 7d bf
       -0.6305188 -0.39550507 -0.21192443 -0.9893027
000060 70 eb 05 bf 04 12 20 bf a5 d8 93 be 56 20 1b bf
       -0.52312374 -0.6252749 -0.28876224 -0.60596216
000070 77 1a 35 be d0 44 8e be 72 18 7d be df a5 67 bf
       -0.17685877 -0.27786875 -0.24716356 -0.90487474

conv4.weight f4 [32, 32, 3, 3]
000000 ad 1e f5 bd c8 b6 9a ba 8a f2 6a bc a6 24 ce bd
       -0.119687416 -0.0011803741 -0.014340052 -0.10065584
000010 61 df 09 bd 8b da 73 bd 50 07 9a bd f7 2a 0e be
       -0.033660296 -0.05953459 -0.07520926 -0.13883577
000020 2e c0 b6 3d f1 41 b6 3d 0c 98 b3 3d 33 44 cd 3d
       0.08923374 0.08899296 0.08769235 0.100227736
000030 7b e6 d0 bc 8b ee 95 bd 6a 9e be 3c f8 85 81 3d
       -0.025500527 -0.07320889 0.023268897 0.06324381
000040 97 b9 21 bd b3 2c 4d bc ef 50 e0 3d 8c 9b 55 3c
       -0.039483633 -0.012522864 0.10952937 0.013037574
000050 6f 91 84 3d a0 1e 43 3d 3a 36 e3 3c 3e 48 43 3d
       0.06473052 0.04763663 0.027735818 0.047676317
000060 8c 4d 8d 3c e3 1e 5d bd 44 4a b5 bc 20 27 22 be
       0.017248891 -0.053984534 -0.02213014 -0.15835238
000070 50 a0 25 bb 05 cf f6 bc e6 c2 f8 bd 68 47 18 3b
       -0.0025272556 -0.030128011 -0.12146549 0.002323592
000080 d5 88 9b bd 7e 6c 39 be a9 f4 a5 bc 1b 38 3b 3d
       -0.07594458 -0.18107793 -0.020258265 0.045707803
000090 ef 6b 93 3b 2c 41 e2 3d f9 39 8f 3d af fa 06 3e
       0.0044989507 0.11047587 0.06993479 0.13181566
0000a0 45 74 27 3e 5b 10 2b 3d 3c b1 11 3e 7e 6e a1 3d
       0.16352947 0.041763645 0.14227766 0.07882403
0000b0 ba 70 e5 3c d6 78 f0 3d ad b4 9b 3a e9 87 a4 3d
       0.028007854 0.117417976 0.0011879407 0.08033735
0000c0 10 f9 0d 3e 64 43 20 bd 3d c7 01 3c 7e 36 05 3e
       0.13864541 -0.03912677 0.007921037 0.13009068
0000d0 b3 5b e9 3d 8e 95 25 3d 05 b7 fb bc d6 b3 47 3d
       0.11394443 0.04042583 -0.030726919 0.04875549
0000e0 33 47 ab 3c 6d 60 5f 3d a7 d4 96 bd 90 3d c9 3b
       0.020907974 0.05453532 -0.07364779 0.006141372
0000f0 ea 37 6a be 4d 19 d6 3c 00 fb 30 3d a8 c5 2d 3d
       -0.22872892 0.026135111 0.043208122 0.042424828
000100 33 00 24 bc 86 5e dc 3c c1 ea 1e 3e 3c 12 50 bd
       -0.010009813 0.026900541 0.15519239 -0.05079864
000110 da 80 4a bd 5e 48 0b 3d 1d 43 24 3c f6 9a 23 3d
       -0.04943929 0.03400456 0.010025767 0.039942704
000120 9b be 08 be 0d 30 ca 3d e4 09 8a 3d 9b 6b 4f be
       -0.1335396 0.09872446 0.06740168 -0.20255892
000130 b6 51 d9 bd e4 31 e3 3d 1d ae 41 be b6 04 20 bd
       -0.10611288 0.110935 -0.18914075 -0.039066993
000140 23 39 94 bd 26 c9 d2 be ad 6a fd 3b 9f ff d9 bb
       -0.072374605 -0.4116909 0.007733664 -0.006652787
000150 ca 70 c1 be 76 52 80 bc d3 8c 16 3c c7 1d ca be
       -0.37781364 -0.01566432 0.009188849 -0.39475843
000160 9c c1 5e 3d 09 37 c4 3d 83 9e 95 3c 86 45 c5 3c
       0.05438386 0.095808096 0.01826406 0.024081003
000170 c4 5c e4 3d 63 f1 99 3c 01 d8 5f 3d ac 82 f6 3d
       0.11150506 0.01879186 0.054649357 0.120366424
000180 7a a0 64 bd bd d2 c9 3c 14 98 23 3e 26 d9 9b bd
       -0.055817105 0.02463662 0.15975982 -0.07609777
000190 88 8b 95 3c 8d 21 1f 3d 1b 81 ea bc 72 b1 97 bd
       0.01825501 0.038850356 -0.028626015 -0.07406892
0001a0 78 dd ef bc 79 4c 8c bd 50 93 b5 3c 38 aa b5 3d
       -0.02928041 -0.068505235 0.02216497 0.08870357
0001b0 22 3a 73 3d 30 0d aa 3c 24 d6 ab bc a7 f5 d0 bb
       0.05938161 0.020758241 -0.020976134 -0.0063769403
0001c0 27 f2 30 3c ac 71 80 bd de 38 b0 3d 23 12 f5 3c
       0.010799921 -0.06271681 0.086045966 0.029915875
0001d0 8f 69 ba 3d d8 a3 32 3d 93 6f f9 3d ba 95 70 3c
       0.09102165 0.043613285 0.12179484 0.014684135
0001e0 77 7f 2a 3e 97 5c 1b 3e db 26 ba 3b dd e3 2e 3e
       0.16650186 0.15172039 0.0056809015 0.1707911
0001f0 43 2a be 3d 2a 62 26 3c 7c 07 ab 3d 0f ae 44 3d
       0.092854045 0.01015524 0.08351037 0.048017558
000200 ce d5 4a 3c 0d 2f b4 3d 3f a5 1e 3d a0 55 29 bd
       0.012380077 0.08798037 0.03873181 -0.041341424
000210 56 3f 19 3e c8 f2 48 3d 89 02 10 3e ff 69 3b 3d
       0.14965567 0.04905966 0.14063467 0.045755383
000220 87 64 37 3d 84 d4 9a 3d cf 0f 52 3d 68 5b 88 bd
       0.044773605 0.075600654 0.051284607 -0.06658059
000230 6c b6 a8 3d 32 e3 b4 3c c1 8a 19 3d 4d c3 08 3d
       0.08237919 0.022080991 0.03748584 0.03338938
000240 f3 71 01 3d 58 fc 26 3d a3 61 bc bd f7 6f a8 3d
       0.03160281 0.040767998 -0.0919831 0.082244806
000250 28 05 e2 bc d5 d0 d9 bc 31 43 34 3d 0a ae 6f 3d
       -0.02759035 -0.026588837 0.04400939 0.058515586
000260 64 73 6f bb 94 7e 52 be e6 59 5e 3d bc 36 e9 3b
       -0.0036537284 -0.20556098 0.054284953 0.0071171205
000270 3f b4 9e bd 85 eb 3d 3c 28 f4 42 bd a1 7c 30 be
       -0.07749223 0.011591797 -0.047596127 -0.17235042
000280 3f 40 7b 3d 5e 01 f0 3c 60 83 2a 3e 20 0e 7e 3d
       0.061340567 0.029297527 0.16651678 0.06202519
000290 28 a8 c1 3d 93 01 b3 3d af 14 84 3d ed 8c 94 3d
       0.094559014 0.08740535 0.064492576 0.07253442
0002a0 95 ab 1c 3e 6c 06 9d 3d 5a 68 b1 3d 0a 7d 0e 3e
       0.15299828 0.076672405 0.086624816 0.13914886
0002b0 3d 41 7f 3d cd d8 ca 3d b5 7a f1 3d 6f 7d 04 3e
       0.062318075 0.09904633 0.11790983 0.12938474
0002c0 b1 15 1d bc 3b bb d9 3d 11 5b 17 3d 2b 8a 2d 3d
       -0.009587691 0.106314145 0.036952082 0.042368095
0002d0 8b ae b6 3d 59 05 58 bd f7 62 b3 3d e2 ed 11 3e
       0.0892001 -0.052739475 0.087591104 0.14250901
0002e0 b6 3d c0 3d d1 53 4a 3d 73 eb 0f 3e 9c 97 29 3e
       0.093867704 0.04939634 0.1405466 0.1656174
0002f0 76 c5 26 bc 53 a9 05 bd ec 0f c1 bd b5 65 39 3d
       -0.010178914 -0.032632183 -0.09426865 0.04526301
000300 22 3b 06 3d 70 7c 00 be 21 8b 50 3d 1e 17 fb bd
       0.032771237 -0.12547469 0.050913934 -0.12260269
000310 37 90 3e 3d 13 14 da 3d 2a 4a 42 bd 8a f7 6f 3c
       0.046524253 0.1064836 -0.04743401 0.01464642
000320 ff f2 37 3b 67 be f6 bc 4b 9a 9e 3d b0 24 81 bc
       0.002806842 -0.030120088 0.07744273 -0.015764564
000330 2a a6 40 3d eb c4 88 bd ac 88 27 3d f8 3f e5 be
       0.047033466 -0.06678184 0.040901825 -0.44775367
000340 44 4e 5f bd 96 27 b4 bc 98 b8 e1 be a4 85 93 bd
       -0.054518 -0.021991532 -0.44086146 -0.07203224
000350 f4 f3 0e 3e e2 90 d8 be 43 8a 86 bd 21 3c 90 3d
       0.13960248 -0.42298037 -0.0656934 0.07042719
000360 2b 36 91 3c 53 9e 1e 3d b7 81 55 3d eb d4 55 3d
       0.017726025 0.03872521 0.05212566 0.052205008
000370 c9 bf b7 bd cc 84 2c bd 17 44 2e 3d 98 a5 c6 bd
       -0.08972127 -0.042118832 0.042545404 -0.09699553
000380 b8 d2 db 3c 72 f3 b7 3d a9 51 ad 3d ef 65 df 3d
       0.026833877 0.089819804 0.08462841 0.10908114
000390 84 2c f4 3d b4 6b 0f bd 95 dd 02 3e 54 d3 8b 3d
       0.11922553 -0.035014823 0.1277984 0.06827417
0003a0 8f 78 08 3d d5 d3 52 3c 60 90 86 be a7 de ee 3d
       0.0333181 0.0128678875 -0.26282024 0.11663561
0003b0 7e ec bb 3d 85 1f 3e be 8e 38 d8 3d 84 ac 46 3c
       0.09175967 -0.18566711 0.10557662 0.012126092
0003c0 ae ea 81 be 05 43 5a bc 0f 77 1a 3b b4 fa e9 3d
       -0.2537436 -0.013321643 0.00235695 0.11424771
0003d0 1f 41 d5 bc 5f 19 27 bd 3b 4a 25 3d f8 3e 30 3c
       -0.026032029 -0.04079568 0.040353995 0.0107572
0003e0 c9 7f 84 bd 16 b9 a7 3d ee 79 93 3d a3 95 2d 3d
       -0.064696856 0.08189599 0.072009906 0.042379033
0003f0 32 7a 29 bd 0e de 95 bd f2 62 05 3d 37 f5 86 3d
       -0.0413763 -0.07317744 0.032565065 0.0658974

conv4.bias f4 [32]
000000 5e 50 7d bc 8f 3b 58 3f 05 f4 fd 3c 13 e5 39 3c
       -0.015461056 0.8446588 0.031000147 0.011346119
000010 59 aa ba 3e 8f 78 41 bc 4f 53 a1 3e fa e1 0d bd
       0.3645809 -0.011808529 0.31508872 -0.034639336
000020 b1 70 83 bc 4e d0 92 3c 0c 9c dd 3e 2a 58 5f 3e
       -0.016044946 0.017921593 0.43283117 0.21810976
000030 19 d8 9f 3e 64 03 da 3e d5 ee 14 3e 18 04 af 3d
       0.31219557 0.42580712 0.14544232 0.08545703
000040 32 ab c9 3e ae 16 83 bb 80 6e 77 3c df 6b 44 3d
       0.39388424 -0.0040005064 0.015102029 0.047954436
000050 b9 c7 ad 3e 71 35 55 3e 4e 88 ac 3d 22 8b 1b bd
       0.3394144 0.20821168 0.084244356 -0.037974484
000060 a9 e8 56 3d 32 d1 49 3f 1c fc 4c bd e0 db 4e 3d
       0.052467976 0.7883483 -0.050045118 0.050502658
000070 d1 99 4a 3d 64 a6 f6 3c 32 1f d0 3e d6 02 d8 3c
       0.049463097 0.030108638 0.406488 0.02636854

batch4.weight f4 [32]
000000 15 61 a3 3e d1 a9 b4 40 e8 52 59 3f 99 fd b0 3e
       0.31910005 5.6457295 0.8489213 0.3456848
000010 a8 7c 81 40 70 ae d6 3e 1a f9 7e 40 a6 fe c0 3e
       4.046467 0.4192996 3.983954 0.3769428
000020 1f 3e e5 3e 4e ec 86 3f 2c f5 96 40 01 31 43 40
       0.44773957 1.0540864 4.717428 3.049866
000030 ae 1c 48 40 d8 03 8a 40 ae 17 44 40 bc 32 da 3f
       3.1267505 4.312969 3.0639453 1.7046733
000040 6d 4f 9f 40 54 c2 9e 3e a6 3e ae 3e 02 9c 8c 3e
       4.9784455 0.31007636 0.34032172 0.27462775
000050 6f ae 60 40 02 ab 6a 40 95 9f 47 40 66 2b c0 3e
       3.5106466 3.6666875 3.119115 0.3753311
000060 a1 a3 4a 3f 21 db 50 40 be 82 e4 3e d9 e3 38 3f
       0.7915593 3.2633746 0.44630998 0.7222267
000070 08 01 c2 3e 5f 24 b8 3f fe e3 73 40 3c d4 7d 3f
       0.37891412 1.43861 3.8107905 0.9915197

batch4.bias f4 [32]
000000 eb b8 2c bf 4e eb 83 c0 1f 33 a6 bf f2 a5 24 bf
       -0.6746966 -4.1224737 -1.2984351 -0.6431571
000010 65 e9 24 c0 1e c0 4c bf 02 43 4f c0 71 a8 2e bf
       -2.5767453 -0.7998065 -3.2384648 -0.6822577
000020 37 73 4d bf a8 f3 c1 bf fb 37 49 c0 3c 8b ff bf
       -0.8025393 -1.5152483 -3.1440418 -1.9964366
000030 0c a6 1c c0 96 5b 39 c0 12 91 11 c0 0e 80 f8 bf
       -2.4476347 -2.896215 -2.2744794 -1.9414079
000040 ec 53 13 c0 d1 a6 2c bf dc 76 35 bf 34 d4 2f bf
       -2.3019972 -0.6744204 -0.7088449 -0.6868317
000050 b7 e2 2c c0 7c 6b 06 c0 a1 84 ea bf 95 85 39 bf
       -2.7013376 -2.1003103 -1.8321725 -0.72469455
000060 8a 3c ae bf b8 b6 8f bf f0 2e 53 bf 93 95 8d bf
       -1.3612225 -1.1227636 -0.82493496 -1.1061271
000070 91 0f 3b bf 0d 84 05 c0 5c 3f 6c c0 a7 69 c6 bf
       -0.7307063 -2.0861847 -3.6913671 -1.5500993

lin1.weight f4 [5, 800]
000000 44 1d 11 bd 42 d1 11 3c 40 70 90 bc c3 3d 73 bb
       -0.0354283 0.008899989 -0.01763165 -0.003711567
000010 52 38 c1 bb 70 fa d1 bc 03 42 bc bc 10 9b a3 3c
       -0.0058966065 -0.025632113 -0.022980696 0.0199714
000020 2e 83 fc bc 1e b5 75 bc 54 23 0c be 3e 2e bc bc
       -0.03082427 -0.014996795 -0.13685352 -0.022971269
000030 91 17 0c 3d 32 df a8 bd 03 f2 a9 bc 28 39 ec 3b
       0.034202162 -0.08245696 -0.020745283 0.007208962
000040 30 56 9f bd 04 45 95 3c 61 39 09 bd 3d 1f 49 3b
       -0.07780111 0.018221386 -0.033501986 0.0030688785
000050 5c 2b 7f bc 63 40 e3 3c df 28 dd bc 5c 3e 5e 3c
       -0.0155743025 0.027740663 -0.026997028 0.013564672
000060 a5 d1 0f 3c 92 25 08 3b 0d 0a 68 bc 3e 18 40 bb
       0.0087780105 0.0020774347 -0.014162553 -0.0029311324
000070 41 5f 5e bb e0 84 8b 3c 46 2f 51 bb 59 fb 66 bb
       -0.0033931287 0.017031133 -0.0031919046 -0.003524503
000080 b1 a6 0b 3b c3 66 a5 bb 07 52 44 3c ef 35 38 3c
       0.0021309073 -0.0050476505 0.0119824475 0.0112433275
000090 13 1e a7 bb cb 3f 03 bc e7 ea 36 3c fd cc 00 3a
       -0.0051000207 -0.008010815 0.0111644035 0.0004913358
0000a0 24 7e 7a bc 4e 22 00 bc c8 da 47 bc 6f 7f 83 bc
       -0.015288863 -0.007820679 -0.012198158 -0.016051976
0000b0 96 fb df bb 1e 8c ed b9 b6 12 0b 3a 4e a6 ee b9
       -0.0068354113 -0.00045308558 0.00053052173 -0.00045518804
0000c0 db 2c 38 bc aa 19 5c 3b 7c f4 81 3d bc a7 c0 3c
       -0.011241163 0.0033584633 0.0634546 0.023517482
0000d0 fd 6f 70 3d e3 7e 2a 3d a4 52 60 3c 58 c7 6e 3c
       0.05870055 0.041624915 0.013691578 0.014573894
0000e0 9e 29 4a be 61 c7 3a be a7 2d 63 be 3d ca 9d 3d
       -0.19742438 -0.1824012 -0.22185384 0.077045895
0000f0 7f 2f 7d be 4f 74 3d be e0 02 ba bd b3 73 d1 bd
       -0.2472515 -0.185014 -0.090825796 -0.10227146
000100 c9 c2 93 bd 7c 10 6d be 41 27 af bc 71 4a 29 be
       -0.07214887 -0.2315082 -0.021381022 -0.16532303
000110 66 55 ef bd 9a 9b c9 bb 39 38 8f bd 81 92 fd bd
       -0.1168621 -0.0061525824 -0.069931455 -0.12381459
000120 38 e6 0f be f5 83 4f be 9b f2 08 be eb f9 3e bd
       -0.14052665 -0.20265181 -0.13373797 -0.04662506
000130 03 88 b9 3b b7 a3 f9 bb 3c 8e 20 3c a9 6b 28 3c
       0.005661966 -0.0076183933 0.009799536 0.010279574
000140 3f d2 af bc 8b ad 88 bd 00 34 95 bc 40 c1 a5 bd
       -0.021462558 -0.06673726 -0.018213272 -0.080935
000150 05 66 b5 bd 20 a1 13 3d d5 79 05 bc fd 53 2d 3d
       -0.08857349 0.036042333 -0.008146723 0.042316426
000160 a9 04 b6 bc 5c db e6 bd 8f a1 07 bd d1 b4 ae bc
       -0.022219019 -0.11272308 -0.03311306 -0.021326454
000170 a4 9c 05 3b dc bd b2 3c 02 34 dd bb ea 58 56 bc
       0.0020387555 0.021819048 -0.0067505846 -0.013082722
000180 7a 64 4e bb d4 1e 83 bc 8c 40 84 3c 80 be 5d 3d
       -0.0031492994 -0.016005911 0.01614406 0.054136753
000190 82 31 ef 3b 9c 35 58 bc ed d1 13 3a 1b 53 89 bc
       0.007299603 -0.013196375 0.00056388864 -0.01676326
0001a0 03 0f 16 3c 70 b3 c3 b9 7b a2 83 3b 66 d6 7b bc
       0.0091588525 -0.0003732699 0.004017172 -0.015370941
0001b0 ad 3d 1d bc f8 d7 c8 bc eb 81 99 3c f3 76 e9 bb
       -0.009597224 -0.024517044 0.018738708 -0.0071247756
0001c0 56 99 64 bc 16 2b de bb 92 a3 45 bc b9 f0 0a 3c
       -0.013952574 -0.0067800386 -0.012062924 0.008480244
0001d0 c9 30 83 bc bc e8 4c bb 86 9d 13 3b fd 0d 9c bb
       -0.016014474 -0.003126665 0.0022524311 -0.0047624097
0001e0 95 c8 7e b9 2f d8 2a bc 49 33 ef bb 2d d0 08 bc
       -0.0002429805 -0.010427519 -0.007299815 -0.008350414
0001f0 e0 f9 ca bc 03 d8 e3 3c ef 8b 3b bc 2c 7a a4 bd
       -0.024777353 0.027812963 -0.011446937 -0.08031115
000200 ab b4 98 bc 59 51 73 ba f2 e0 fa bc 01 f3 11 be
       -0.018640837 -0.0009281836 -0.03062484 -0.14252855
000210 04 5e be 3c 14 91 a6 bd 14 fb 2c bd 8e aa 92 bc
       0.02323819 -0.0813314 -0.042231634 -0.017903592
000220 5b 59 54 bd da 30 36 3b 88 48 20 bd 62 9c ff bd
       -0.05184303 0.0027800114 -0.03913167 -0.124809995
000230 af 38 24 3c 95 13 00 3c f2 6c 0a 3e 94 bf 3e bd
       0.01002328 0.007817169 0.13518122 -0.046569422
000240 09 a1 cd bc 37 f1 8b 3c c1 c5 0e 3d 9a df 4e 3d
       -0.025101202 0.017082794 0.03485656 0.05050621
000250 42 2b f2 bc b8 2b 0b bd be 32 64 3c b4 8b c0 bb
       -0.029561643 -0.03397724 0.0139281135 -0.005876029
000260 e3 3d e2 3b 8e 69 83 bb a0 02 b4 3c 26 04 e4 3b
       0.00690435 -0.004010386 0.021973908 0.0069585023
000270 8b 0d 81 bb 64 b7 df 3a 7c 4e 29 3c 57 0c 55 b9
       -0.003938382 0.0017068204 0.010333654 -0.0002031786
000280 1a 70 a3 3b 87 ac 62 bb 0d 60 f2 ba b2 22 d0 bb
       0.004987729 -0.0034587698 -0.001849176 -0.0063517923
000290 83 36 1b bc e9 46 f0 3a 08 83 08 bc 6b ec 04 3c
       -0.009473446 0.001833168 -0.008332022 0.008113007
0002a0 b9 20 3b bc 83 3f 17 3c 89 16 da 3c 6a 82 20 bc
       -0.011421376 0.009231451 0.026622074 -0.009796718
0002b0 e4 2a 53 3c 74 f2 27 bc cb 8c 05 3c 79 b6 ce bc
       0.012888644 -0.010250676 0.008151243 -0.025233494
0002c0 04 21 a5 ba ee 88 2a bc 55 b7 1f 3c da 73 45 bc
       -0.001259834 -0.010408623 0.0097483 -0.012051547
0002d0 5d d1 52 3b cd 46 59 3b 69 2f 80 3b 09 5f 80 3b
       0.0032168247 0.0033153773 0.0039119017 0.003917579
0002e0 93 1f 69 bc fd 6c 61 bc 41 05 e1 3c ff 66 29 bc
       -0.014228719 -0.013758895 0.027468326 -0.010339498
0002f0 67 cc 6d 3c 21 21 91 3b 68 2f e0 3c c2 35 82 3b
       0.014514065 0.004428998 0.027366355 0.0039736936
000300 79 ba bb bc fc e5 08 bd f5 27 1a bb a3 c9 0a bc
       -0.022916066 -0.033422455 -0.0023522351 -0.0084709255
000310 31 1b 0f bc 04 d5 93 3c 5f 74 2c 3b aa d0 9d bb
       -0.00873451 0.01804591 0.002631448 -0.0048161345
000320 68 62 00 bd c1 ef 4c bb 71 6a c3 bb 08 3d fc ba
       -0.031343848 -0.0031270834 -0.0059636165 -0.0019244263
000330 8b c9 34 bd 4d 63 0b 3d ff d4 b9 bb 06 b0 e0 3a
       -0.04413752 0.034030247 -0.005671143 0.0017142303
000340 01 f7 cc bb 02 ee d4 bb ae f3 59 3d a4 b9 c9 3c
       -0.006255031 -0.0064980993 0.053210907 0.024624653
000350 c5 67 89 bc a1 00 4d bc 62 37 c0 3b 8b 83 42 bd
       -0.016773114 -0.012512357 0.005865977 -0.04748873
000360 50 7d 46 3d fb 68 0f bc 9e 21 55 3c 38 10 4a 3d
       0.04845935 -0.008753057 0.013008503 0.049331874
000370 9a 92 60 bd f1 03 c1 ba e3 11 1d bc 13 60 44 3c
       -0.05482731 -0.0014725906 -0.009586784 0.0119857965
000380 bc 4e 15 bc 09 a9 30 3d e2 28 c3 3d 78 93 11 be
       -0.00911301 0.043129954 0.09529282 -0.14216411
000390 ad 4c 94 be 1f 21 5d bd 3a 87 19 3d 38 ae db 3b
       -0.2896475 -0.053986665 0.037482478 0.006704118
0003a0 a3 68 4a 3c 5e 78 bd ba 3a f3 52 bd b3 f7 b9 bd
       0.012354049 -0.0014455428 -0.05150149 -0.09080448
0003b0 51 4f 22 be db b3 fc 3d 6d 53 4c be fc d8 0e be
       -0.1585057 0.12338992 -0.199537 -0.1394996
0003c0 95 19 5e 3d 8d 70 5b bd fa 56 93 3d 79 7c 44 be
       0.054223616 -0.053574134 0.07194324 -0.19188108
0003d0 3a de 99 bd fb 33 22 3c 2d cc 89 bd 56 e6 b1 bc
       -0.075130895 0.009900088 -0.067283966 -0.021716278
0003e0 06 75 0a be cb a4 b6 3c 8b 40 ce bb 8a bb 85 3c
       -0.13521203 0.022295376 -0.006294315 0.016324777
0003f0 8a 5c 7f bc dc af 02 3a 5e e4 4e bc e1 62 5d 3b
       -0.015586028 0.00049853115 -0.012627689 0.003378086

lin1.bias f4 [5]
000000 ed 74 a1 bc ee 91 da bc c6 f9 82 bc bb 10 47 bc
       -0.019709075 -0.026680913 -0.015988242 -0.012149985
000010 51 34 86 bc
       -0.016382368
