results_auto/01_domain_adaptation/maml_supervised/June_14/officehome_maml_order_2_seed_0_shots_1_ways_5_meta-lr_0.0001_test-domain_Clipart_dropout_0.1_RandAugment-prob_0.5_pre-train-wts_datetime_13_06_2021_17_41_38/intermediate_44000_model.pt (torch, 412181 bytes, 54 tensors)

conv1.weight f4 [32, 3, 3, 3]
0.46381998 0.07349772 -0.14265905 -0.050100707 -0.1919626 -0.17452163 0.1493534 0.071666226
-0.14561352 0.019375391 -0.2122894 0.060553145 -0.34575692 -0.15588358 -0.01950617 -0.014501472
0.12089058 0.27192214 -0.81709176 -0.4523052 0.15884273 -0.29057845 0.052150052 0.5434431
-0.15133606 0.33580047 0.78740233 0.04196821 0.04586679 0.41147536 -0.1687123 0.20157304
0.36882332 -0.44566706 -0.4658588 -0.101467624 -0.16805042 0.22476916 0.3738968 -0.23785129
-0.061370485 0.16842286 -0.45448467 -0.54518634 -0.23797537 0.03852427 0.27649656 0.48626655
-0.24686423 -0.010097531 0.3842185 -0.016534783 -0.15508333 0.014991916 0.3868918 0.11983002
0.28142917 -0.27736259 -0.2785271 -0.36708188 -0.05595454 -0.04286867 -0.112078615 0.36662894
0.32251388 0.1293898 -0.017982047 -0.02428325 -0.16352926 0.028365996 -0.31389904 -0.17644404
0.4627035 0.4776028 0.53832406 0.14705528 -0.031048438 -0.34480727 -0.27722105 -0.46123368
-0.38506284 0.5206756 0.38241997 -0.056189205 -0.10786506 -0.3545041 -0.42072025 0.08841089
0.18257147 -0.07177375 0.43782714 0.47676468 0.43814933 -0.21129967 -0.5211821 -0.48118016
0.09021404 0.11404956 -0.13080737 0.019973494 0.4191741 0.5050089 -0.46189162 -0.38193208
-0.34877637 -0.09248972 -0.061862245 0.05872491 -0.013337027 0.07716153 -0.113803715 0.17882507
-0.09116659 0.1420565 0.041066077 -0.27105346 -0.17085606 0.109783046 0.2901321 0.0723896
0.17919669 0.18362305 -0.10751452 -0.14613384 -0.30972707 -0.34736237 -1.0084574 0.19835493
-0.1290462 -0.7878932 0.39200795 0.024390455 -1.5364342 0.24001381 -0.24032389 -0.3266915
-0.08176727 -0.22572449 0.06848541 0.22778894 0.29004258 0.38146126 0.6617007 0.25837696
-0.50093853 -0.12647426 0.0068400544 -0.38816005 -0.38668576 -0.29164854 -0.53307575 -0.3067043
-0.22789934 0.34738758 0.48736602 -0.019001372 0.24583612 0.009036448 0.09255254 -0.06933772
0.10555234 -0.07251624 -0.6220372 -0.3106493 -0.15807942 -0.059056066 0.120935924 0.18516262
0.034467854 0.4737467 0.5245209 -0.41837406 0.17310436 0.005666915 -0.36645302 0.23193906
-0.0596189 -0.2437163 0.34637147 -0.15260889 0.17635797 0.38454726 0.43262196 -0.058094963
0.23506469 0.047557227 -0.43369892 -0.12057808 -0.41881633 0.054641258 0.36898038 0.18804842
-0.5976021 -0.22000195 -0.5646069 0.08123539 0.25273743 0.23573153 -0.1601852 0.2570477
0.040710326 -0.37685496 -0.3532364 -0.6118558 0.16866429 0.6729307 0.19227308 0.15547647
0.21506472 0.046254296 -0.32897732 -0.27688438 -0.3592618 0.30283085 0.42621228 0.26665497
-0.17648958 -0.43305212 0.6125335 -0.38969225 -0.2687786 0.5805552 -0.1424241 -0.20556082
0.05363415 0.24691471 -0.5233465 0.11966668 0.0013279374 -0.2031689 0.20590042 0.26170945
-0.026404046 0.32319734 0.30718035 -0.4126776 0.27962676 -0.18459064 -0.30337957 0.18068951
0.03815409 -0.030795043 -0.05468196 0.36009306 0.36760646 -0.14384781 0.52218914 0.092182174
-0.07027146 0.3081244 -0.024935074 0.0036757241 0.31889582 -0.07851623 -0.28634545 -0.025067875
00000000: d079 ed3e f985 963d 3715 12be 6636 4dbd
00000010: d891 44be ccb5 32be 19f0 183e bec5 923d
00000020: b61b 15be 24b9 9e3c 6462 59be 9306 783d
00000030: 0d07 b1be f29f 1fbe 67cb 9fbc 9597 6dbc
00000040: 7b95 f73d 6139 8b3e ed2c 51bf 8c94 e7be
00000050: aba7 223e b3c6 94be 4b9b 553d 161f 0b3f
00000060: d7f7 1abe 0aee ab3e 3393 493f dce6 2b3d
00000070: d1de 3b3d e6ac d23e ebc2 2cbe 2a69 4e3e
00000080: 69d6 bc3e 792e e4be 0b85 eebe 42ce cfbd
00000090: 6915 2cbe e329 663e 676f bf3e 4a8f 73be
000000a0: 9e5f 7bbd 0b77 2c3e 37b2 e8be 5591 0bbf
000000b0: d1af 73be a0cb 1d3d f590 8d3e eef7 f83e
000000c0: fac9 7cbe 1d70 25bc 4ab8 c43e f473 87bc
000000d0: 2ace 1ebe a7a0 753c af16 c63e 7169 f53d
000000e0: 7c17 903e 7802 8ebe 1b9b 8ebe 28f2 bbbe
000000f0: 9630 65bd 0f97 2fbd 7989 e5bd cab6 bb3e
00000100: 8a20 a53e c27e 043e 164f 93bc abed c6bc
00000110: 3774 27be ce5f e83c 60b7 a0be bfad 34be
00000120: 79e7 ec3e 5b88 f43e 9bcf 093f a995 163e
00000130: 4b59 febc 948a b0be ebef 8dbe d226 ecbe
00000140: f526 c5be ff4a 053f 8dcc c33e a726 66bd
00000150: 5be8 dcbd 9081 b5be a568 d7be c510 b53d
00000160: 04f4 3a3e 1efe 92bd e12a e03e 801a f43e
00000170: 1c55 e03e f15e 58be 316c 05bf 3f5d f6be
00000180: 23c2 b83d d192 e93d 5ef2 05be 749f a33c
00000190: fd9d d63e 4348 013f 0f7d ecbe 9a8c c3be
000001a0: d192 b2be 406b bdbd 4463 7dbd 8889 703d
000001b0: 8c83 5abc dd06 9e3d ec11 e9bd eb1d 373e
000001c0: 8db5 babd 4277 113e e734 283d 85c7 8abe
000001d0: e4f4 2ebe efd5 e03d 328c 943e 0041 943d
000001e0: 567f 373e ae07 3c3e 9330 dcbd 1ca4 15be
000001f0: 8c94 9ebe 7bd9 b1be 2215 81bf 8e1d 4b3e
00000200: b024 04be 5eb3 49bf 44b5 c83e 7ece c73c
00000210: e0a9 c4bf 2ec6 753e 7717 76be 1c44 a7be
00000220: 9975 a7bd 5224 67be 1442 8c3d 8141 693e
00000230: 7680 943e e44e c33e 3865 293f fc49 843e
00000240: 823d 00bf 7882 01be 8922 e03b eabc c6be
00000250: adfb c5be f552 95be a777 08bf 5908 9dbe
00000260: 725e 69be c9dc b13e 0a88 f93e c4a8 9bbc
00000270: 77bc 7b3e 9c0d 143c 308c bd3d ef00 8ebd
00000280: d32b d83d 6583 94bd d43d 1fbf 6d0d 9fbe
00000290: 92df 21be c6e4 71bd 41ad f73d 459b 3d3e
000002a0: 2a2e 0d3d ed8e f23e 0047 063f 2035 d6be
000002b0: 4542 313e 87b1 b93b bb9f bbbe 6f81 6d3e
000002c0: f332 74bd c490 79be 9a57 b13e 8145 1cbe
000002d0: 2f97 343e 61e3 c43e a080 dd3e fcf4 6dbd
000002e0: ccb4 703e 5ecb 423d c90d debe a4f1 f6bd
000002f0: 186f d6be 83cf 5f3d ffea bc3e c48f 403e
00000300: 74fc 18bf 3148 61be 148a 10bf bd5e a63d
00000310: cd66 813e 9b63 713e 9707 24be c29b 833e
00000320: dfbf 263d 22f3 c0be 67db b4be 95a2 1cbf
00000330: 55b6 2c3e 3045 2c3f 3ce3 443e 3935 1f3e
00000340: ed39 5c3e 2575 3d3d b76f a8be cac3 8dbe
00000350: 2af1 b7be a50c 9b3e 7f38 da3e 0087 883e
00000360: afb9 34be 02b9 ddbe ffce 1c3f be85 c7be
00000370: 599d 89be 449f 143f a0d7 11be 897e 52be
00000380: 7caf 5b3d 36d7 7c3e 09fa 05bf ce13 f53d
00000390: 2f0e ae3a 820b 50be 8fd7 523e c8fe 853e
000003a0: 4c4d d8bc 1f7a a53e be46 9d3e 7a4a d3be
000003b0: 3d2b 8f3e 5405 3dbe 9154 9bbe ac06 393e
000003c0: 7747 1c3d e345 fcbc 31fa 5fbd 1e5e b83e
000003d0: ea36 bc3e d74c 13be 30ae 053f 02ca bc3d
000003e0: 7cea 8fbd 7bc2 9d3e a444 ccbc 6be4 703b
000003f0: 5046 a33e 1ecd a0bd df9b 92be 255b cdbc

conv1.bias f4 [32]
-0.08010951 -1.5792857 0.0273829 -0.27006644 -0.7220779 -6.855607 -0.023352996 -0.056977917
-0.28832573 0.25734273 -0.31799155 -0.030446118 0.84769857 -1.6509382 -0.2086535 -0.10945993
-0.03306317 -0.2957202 -0.2146862 -3.52287 0.9829131 0.045046598 0.08069534 0.1617193
-10.315264 0.24007483 -0.15824836 -0.09747097 0.25819227 -0.4608306 -2.6723716 0.08384305
00000000: 7410 a4bd 0926 cabf 1a52 e03c 2646 8abe
00000010: 19da 38bf 2261 dbc0 c84e bfbc ad61 69bd
00000020: 6e9f 93be 6dc2 833e cacf a2be 236a f9bc
00000030: c602 593f f151 d3bf 43a9 55be 872c e0bd
00000040: 3f6d 07bd a368 97be b3d6 5bbe b476 61c0
00000050: 31a0 7b3f c882 383d 9943 a53d bf99 253e
00000060: 520b 25c1 2dd6 753e dc0b 22be dc9e c7bd
00000070: c731 843e fdf1 ebbe 2308 2bc0 e8b5 ab3d

batch1.weight f4 [32]
1.311587 1.0377818 0.7544119 1.2238368 0.9007238 0.6619389 1.122307 1.0325493
0.82987046 0.9912349 1.2732419 0.78127515 0.99187064 0.54566085 0.41346398 0.8876279
0.71123874 1.135458 1.2686493 0.6531735 0.82902294 0.98973626 0.9153136 1.2693874
0.74484503 1.0768336 1.4522562 0.9675181 1.3784394 0.57187396 0.6649103 0.5348429
00000000: 15e2 a73f 09d6 843f 2321 413f afa6 9c3f
00000010: d695 663f d474 293f c1a7 8f3f 932a 843f
00000020: 6472 543f 92c1 7d3f 97f9 a23f a601 483f
00000030: 3ceb 7d3f 6eb0 0b3f 8db1 d33e 953b 633f
00000040: be13 363f b056 913f 1a63 a23f 6136 273f
00000050: d93a 543f 5b5f 7d3f fe51 6a3f 497b a23f
00000060: 2aae 3e3f afd5 893f 88e3 b93f 44af 773f
00000070: b470 b03f 5566 123f 9037 2a3f 77eb 083f

batch1.bias f4 [32]
0.7291987 -0.7327944 0.9582343 0.119368896 -0.50148654 0.3086242 1.5215793 0.768592
2.8088167 0.094340235 1.0419878 -0.44965807 -0.11308071 -0.14175679 0.059631154 -0.45189613
-0.0041148523 -0.07952744 -0.6364153 -0.2441399 -0.007301138 0.14140888 0.12676702 0.15065067
0.30343977 -0.03337529 0.14875928 0.012560535 -0.04766042 0.11942003 1.6268499 -0.047974758
00000000: c4ac 3a3f 6a98 3bbf d84e 753f ae77 f43d
00000010: 6c61 00bf fe03 9e3e 1cc3 c23f 72c2 443f
00000020: a7c3 3340 7435 c13d db5f 853f 9539 e6be
00000030: dc96 e7bd b128 11be cc3f 743d ee5e e7be
00000040: e2d5 86bb 48df a2bd 1dec 22bf cfff 79be
00000050: 623e efbb 7dcd 103e 37cf 013e 2b44 1a3e
00000060: 755c 9b3e 87b4 08bd 5a54 183e b4ca 4d3c
00000070: 9337 43bd 7d92 f43d 9e3c d03f 2e81 44bd

conv2.weight f4 [32, 32, 3, 3]
-0.14640494 0.090109654 -0.061299656 -0.1523578 0.20189665 0.3408548 0.040189818 0.11886031
0.07152269 0.12871653 -0.21509653 -0.007727153 0.0836738 -0.01146099 0.5410941 -0.33746174
-0.2850582 0.10418922 -0.61606896 -0.7654158 -0.54912984 -0.4455029 -0.13010043 -0.770271
0.14717981 0.08945213 0.2313564 0.24359792 -0.038133964 -0.46514353 -0.0844732 -0.059435666
-0.78408605 0.057161834 -0.21969092 -0.40912747 0.2522373 0.109274566 -0.017638918 0.2859694
0.11446402 0.026926685 0.08382956 -0.1423989 -0.033862907 -0.19650774 -0.28312045 -0.20391896
-0.03583315 -0.04269832 0.1312604 0.19784681 0.05091825 0.18156774 -0.12047955 -0.4118836
-0.24083827 0.0024103594 -0.012732571 0.007570161 0.22237463 -0.07676128 0.28995898 0.07652066
0.027791148 -0.24013351 0.16629861 0.10756678 -0.14598282 -0.026344802 0.2054941 -0.09226838
-0.22621016 0.15055984 0.25075126 -0.2624886 0.1738372 0.3754389 -0.48999175 -0.12804036
-0.0060934005 -0.24134156 -0.7855908 -0.3554086 -0.4881138 -0.32437938 0.17508349 -0.14123018
-0.0675414 0.41310993 -0.17400987 -0.13809724 0.08098173 -0.17477366 0.2293216 0.15338477
-0.056860235 -0.4888909 -0.3490047 -0.5107021 -0.062351525 -0.23954503 -0.31831726 0.4300601
0.086768836 -0.26031938 0.52466315 0.26918337 -0.028335303 2.8307644e-05 -0.15565117 0.4714008
0.5229988 0.033482254 -0.29426172 -0.036978144 0.20716248 0.008513401 -0.110638686 -0.020700898
0.098927945 -0.08601337 -0.30120912 0.17772849 0.0349992 -0.3384333 -0.510143 -0.5157722
-0.2443861 -0.04564309 -0.10865648 0.2225857 0.17488384 0.26303053 0.5071119 0.08282859
-0.4617821 -0.12374678 0.19965683 0.03290444 -0.12954731 -0.094186254 -0.29563218 -0.25975648
-0.49674514 -0.092538975 -0.3420828 0.071426585 0.55510914 0.18150672 -0.034922566 0.25540572
0.16834565 0.22418466 -0.023285568 0.34356582 -0.0372912 -0.06580904 -0.11095068 -0.30570024
-0.2099406 -0.257729 -0.058667805 -0.2861629 -0.21041806 0.17600846 -0.023569534 0.2353193
0.5488686 0.0027739678 0.3278217 0.257838 -0.2474108 0.09954818 0.19943962 0.081798084
-0.04329849 -0.03812115 0.14682399 -0.28161266 -0.010671799 -0.13468204 -0.17497903 0.012198953
0.23906593 0.14343716 0.042443667 0.1712816 0.12958741 0.26037735 0.18338634 0.08053438
-0.42106405 -0.20535539 -0.22772793 -0.23672861 0.03387747 0.2097439 -0.31872535 -0.7186823
-0.264089 -0.56063133 -0.0122148935 0.2820926 0.041236956 0.18801668 0.68010604 -0.26369238
-0.4411449 0.277359 -0.21880503 -0.11919465 0.09590546 -0.124648824 -0.11917811 0.06492889
-0.320996 -0.12042779 0.13027029 -0.06364007 0.14700153 0.45796034 -0.32865947 -0.06485061
-0.008737909 0.150093 -0.22769535 -0.485871 -0.11449269 -0.09863114 -0.87353283 -0.049722724
0.08924948 -0.0040539545 0.1551487 -0.08335723 -0.33084458 0.16081673 0.039393593 -0.021080231
-0.30688336 -0.18640187 -0.4849879 0.18739519 0.32801417 0.14283375 -0.06866324 0.13752972
-0.013112049 -0.09490566 0.1662123 0.037659124 -0.22555973 -0.52551895 0.063981265 -0.02500011
00000000: 2deb 15be 698b b83d 5915 7bbd af03 1cbe
00000010: ffbd 4e3e 8584 ae3e 149e 243d 096d f33d
00000020: 7d7a 923d 44ce 033e 4442 5cbe 0f34 fdbb
00000030: 2b5d ab3d e0c6 3bbc 2585 0a3f c9c7 acbe
00000040: 26f3 91be 2861 d53d b2b6 1dbf 4af2 43bf
00000050: c693 0cbf f518 e4be 0c39 05be 7b30 45bf
00000060: 4eb6 163e ae32 b73d b1e8 6c3e bc71 793e
00000070: 5c32 1cbd 4b27 eebe 4900 adbd d072 73bd
00000080: ddb9 48bf 8722 6a3d a8f6 60be 2879 d1be
00000090: 3f25 813e 58cb df3d 7e7f 90bc 956a 923e
000000a0: 1d6c ea3d 5a95 dc3c d5ae ab3d 04d1 11be
000000b0: d5b3 0abd 5339 49be 2af5 90be 22d0 50be
000000c0: c8c5 12bd 6fe4 2ebd 2069 063e 5b98 4a3e
000000d0: a88f 503d e5ec 393e fbbd f6bd 68e2 d2be
000000e0: 4f9e 76be 1ff7 1d3b 469c 50bc 1d0f f83b
000000f0: 2db6 633e 0535 9dbd 8175 943e ddb6 9c3d
00000100: 43aa e33c 8fe5 75be 2f4a 2a3e f94b dc3d
00000110: 857c 15be 0ed1 d7bc 0c6d 523e 34f7 bcbd
00000120: a3a3 67be 5c2c 1a3e 7862 803e e864 86be
00000130: 6102 323e 8739 c03e 33e0 fabe 031d 03be
00000140: 26ab c7bb 3e22 77be 7b1c 49bf 1ef8 b5be
00000150: 0dea f9be 0e15 a6be 1649 333e a59e 10be
00000160: 2553 8abd 2583 d33e a52f 32be 5d69 0dbe
00000170: c0d9 a53d def7 32be 48d3 6a3e e610 1d3e
00000180: 47e6 68bd e84f fabe beb0 b2be 5fbd 02bf
00000190: 5064 7fbd 4b4b 75be 7bfa a2be d630 dc3e
000001a0: dcb3 b13d 9548 85be 5350 063f 67d2 893e
000001b0: 701f e8bc 3476 ed37 0563 1fbe 725b f13e
000001c0: 40e3 053f b024 093d 79a9 96be 6576 17bd
000001d0: 6722 543e cb7b 0b3c 8996 e2bd ee94 a9bc
000001e0: bc9a ca3d c727 b0bd 1538 9abe 75fe 353e
000001f0: 525b 0f3d 2147 adbe bb98 02bf a609 04bf
00000200: 5a40 7abe 40f4 3abd 4a87 debd 81ed 633e
00000210: c014 333e f0ab 863e 16d2 013f 09a2 a93d
00000220: b46e ecbe f46e fdbd d772 4c3e cec6 063d
00000230: 0da8 04be b9e4 c0bd 1a5d 97be cdfe 84be
00000240: 6155 febe 1385 bdbd 7a25 afbe 1a48 923d
00000250: a21b 0e3f e6dc 393e f70a 0fbd 8ac4 823e
00000260: cd62 2c3e aa90 653e 60c1 bebc dce7 af3e
00000270: a8be 18bd e4c6 86bd 1c3a e3bd be84 9cbe
00000280: abfa 56be 0ef5 83be a74d 70bd f283 92be
00000290: d577 57be 903b 343e e514 c1bc 8bf7 703e
000002a0: a782 0c3f 75cb 353b 3fd8 a73e 5803 843e
000002b0: 4259 7dbe ebdf cb3d e639 4c3e c185 a73d
000002c0: c259 31bd ec24 1cbd 0759 163e 892f 90be
000002d0: c5d8 2ebc 17ea 09be b42d 33be 1ede 473c
000002e0: b3cd 743e 31e1 123e 69d9 2d3d 7264 2f3e
000002f0: 90b2 043e 2e50 853e a1c9 3b3e 36ef a43d
00000300: b595 d7be af48 52be 8331 69be fc68 72be
00000310: 1ac3 0a3d 1bc7 563e f82f a3be 90fb 37bf
00000320: ac36 87be 8985 0fbf fa20 48bc 716e 903e
00000330: 15e8 283d 7287 403e 6e1b 2e3f b002 87be
00000340: bfdd e1be 0002 8e3e 6d0e 60be 531c f4bd
00000350: 156a c43d e247 ffbd a713 f4bd 70f9 843d
00000360: 9659 a4be d8a2 f6bd 9365 053e ba55 82bd
00000370: 9287 163e c779 ea3e 0e46 a8be 66d0 84bd
00000380: 7229 0fbc fbb1 193e f828 69be 15c4 f8be
00000390: 257b eabd 20ff c9bd d99f 5fbf 0eaa 4bbd
000003a0: 6ec8 b63d 09d7 84bb 4ddf 1e3e 32b7 aabd
000003b0: 7664 a9be 24ad 243e 2d5b 213d 73b0 acbc
000003c0: d11f 9dbe 22e0 3ebe 5650 f8be 86e4 3f3e
000003d0: 79f1 a73e 0343 123e 509f 8cbd 97d4 0c3e
000003e0: ebd3 56bc e65d c2bd 8f33 2a3e 7440 1a3d
000003f0: 21f9 66be 6988 06bf 9c08 833d 08cd ccbc

conv2.bias f4 [32]
0.09622367 0.14549553 0.13180707 0.15041116 0.071770854 0.089326926 -1.4010135 -0.03175986
0.37086782 -0.33100638 0.2577571 -0.14635034 -0.05558829 0.17457215 0.06013945 -0.091026895
-0.06615636 -0.17395313 -0.063859425 -0.10382398 -0.047139715 0.044568177 0.13142064 0.036827583
0.32319888 -0.0026252482 0.0027883928 -0.1349594 -0.56409717 0.3409976 -0.04649001 0.38372806
00000000: ea10 c53d c8fc 143e 6ff8 063e 6205 1a3e
00000010: 99fc 923d 09f1 b63d 6954 b3bf a116 02bd
00000020: 63e2 bd3e ab79 a9be bdf8 833e dddc 15be
00000030: 8cb0 63bd 0bc3 323e c954 763d 4f6c babd
00000040: fc7c 87bd c520 32be bbc8 82bd aba1 d4bd
00000050: 9315 41bd 1f8d 363d 2293 063e 85d8 163d
00000060: 537a a53e 5b0c 2cbb 78bd 363b cc32 0abe
00000070: ac68 10bf 3d97 ae3e 4f6c 3ebd 0178 c43e

batch2.weight f4 [32]
0.85682315 1.0693356 1.4244354 1.1972857 0.98558193 1.1431259 1.1827886 0.7184579
1.1779237 0.8856926 1.1373883 0.91251695 0.5589826 1.335843 1.034341 1.3011211
0.80722946 0.8449822 0.897499 0.7734134 1.1776714 1.1018145 1.172589 1.0772519
0.9907677 0.7465143 0.79626644 0.61122435 1.1275188 1.0314412 0.9601233 0.86835116
00000000: c358 5b3f fddf 883f e653 b63f a840 993f
00000010: 194f 7c3f f351 923f 9e65 973f dbec 373f
00000020: 34c6 963f c0bc 623f f195 913f b69a 693f
00000030: 7c19 0f3f e7fc aa3f 4965 843f 238b a63f
00000040: 97a6 4e3f c150 583f 7fc2 653f 6cfe 453f
00000050: f0bd 963f 4208 8d3f 6517 963f 64e3 893f
00000060: f4a2 7d3f 901b 3f3f 1ed8 4b3f 3379 1c3f
00000070: 8952 903f 4406 843f a4ca 753f 434c 5e3f

batch2.bias f4 [32]
0.062730215 -0.51039994 -0.293477 -0.49879918 -0.3711185 -0.6090839 -0.3928891 -0.17660236
-0.4961554 -0.3415096 -0.5136649 -0.36906987 -0.042010937 -0.33623627 -0.41935515 -0.5039113
-0.35577118 -0.45192647 -0.46972838 0.030596137 -0.448322 -0.31851962 -0.59989864 -0.30007604
-0.5113 -0.25335056 -0.22520533 -0.27772453 -0.16569188 -0.36647758 -0.27096894 -0.52665424
00000000: b378 803d 92a9 02bf 9e42 96be 9b62 ffbe
00000010: 3e03 bebe ecec 1bbf c328 c9be 40d7 34be
00000020: 1508 febe 59da aebe 8b7f 03bf baf6 bcbe
00000030: a913 2cbd 2927 acbe b8b5 d6be 5500 01bf
00000040: a427 b6be e862 e7be 3d80 f0be c0a4 fa3c
00000050: 768a e5be 0115 a3be f592 19bf 91a3 99be
00000060: 8fe4 02bf 2ab7 81be 3a9c 66be e931 8ebe
00000070: 22ab 29be f3a2 bbbe 71bc 8abe d0d2 06bf

conv3.weight f4 [32, 32, 3, 3]
0.3643431 0.3792839 -0.054166276 -0.21892118 0.007821431 0.22714135 -0.32616776 -0.4247787
0.010857615 0.1612933 0.16604398 -0.47363356 -0.1296491 -0.09517874 0.15885131 0.28053746
0.2985375 -0.32389337 -0.05795767 -0.13330798 -0.48753583 0.1617649 0.1379956 -0.1426237
0.11370344 0.111673646 -0.18848488 -0.30525354 -0.38007227 0.45912924 0.015981961 -0.17383601
0.50746596 -0.094878376 0.13834178 0.33344117 0.31119347 0.6439792 0.1440104 0.064096384
0.11590969 -0.024403904 0.019094696 0.03927761 0.03175456 0.25051537 0.2569115 0.19718453
0.0465185 0.3414457 0.27498 -0.43940976 -0.15343286 -0.29451022 0.29198632 0.021020878
-0.27310795 0.07244741 -0.09809447 -0.023673626 0.20574945 0.35576457 0.11485283 -0.2516191
-0.3977149 -0.5569634 0.15046272 -0.33272952 -0.34010655 -0.13228674 -0.045452613 -0.13044052
0.2468244 -0.00788413 -0.25614777 0.04707625 0.09206337 0.25407702 -0.07063785 -0.07107532
0.16125944 -0.94798976 -0.13316943 0.25082827 -0.64858526 -0.43935937 0.1542594 -0.12612821
0.047657877 0.1501028 -0.15027182 -0.4743262 0.23290703 -0.14719112 0.07459717 0.27029064
-0.3071678 -0.20657134 -0.11775882 -0.021758236 0.046695758 0.26670048 0.28087258 -0.07293132
-0.051767737 0.044212237 0.2822393 -0.15472959 -0.08777433 -0.08458437 -0.39064285 -0.18009776
-0.055504456 -0.32402167 -0.35708144 0.038319103 -0.24744059 0.0028995115 0.017380808 -0.05585388
0.27671862 0.003506836 -0.26545656 -0.008329329 0.06614252 -0.40402895 -0.19673283 -0.2784858
-0.6996299 0.017420882 -0.02372915 0.08535912 -0.18952431 0.07491624 -0.23587193 0.31054422
0.041585464 -0.32480627 0.2169724 -0.12068438 -0.58623457 -0.09855641 0.3409609 -0.4143565
0.29607317 0.09639588 -0.62549204 0.076702744 -0.06663431 -0.033731513 -0.075332776 -0.19198582
-0.1693522 0.036327906 -0.31348854 0.27922842 0.22862677 0.13174471 0.16485602 -0.23297477
0.03051609 0.067719415 0.037639104 0.035885364 0.23162314 -0.07337474 0.03304069 -0.121731
0.1432052 -0.30365387 -0.36903945 -0.32859182 0.09428434 -0.07013016 -0.3800543 0.14514847
-0.22906417 -0.29694682 -0.35658887 -0.092955306 -0.16214162 0.15428056 0.50600827 0.28425214
0.103285804 0.25643274 0.22596054 0.11888858 0.03779215 0.29114428 0.11818558 0.10659047
0.4083493 -0.28105053 -0.20673959 -0.066152945 0.03645601 0.017238004 0.2311636 0.11708372
-0.38496047 0.22114654 0.35545927 0.06377023 -0.020273227 0.24533923 -0.14211608 0.3074568
-0.0023959135 -0.17881355 -0.30109808 -0.053241994 0.038127188 -0.49878582 0.03291269 0.18214795
0.18911944 0.09607746 -1.01851 0.20070669 -0.30119827 -0.16554885 -0.066547886 -0.47187406
-0.33623084 0.003102846 -0.011516711 -0.5603924 -0.23363292 0.11571375 -0.48055595 0.11993262
0.4729867 0.12625362 0.13481183 0.19079964 -0.29731566 0.57395834 0.2595678 -0.4917114
0.45923865 0.09009785 -0.20030229 -0.020144824 -0.085406266 -0.03788615 0.27503926 0.27875942
-0.19037846 0.056077365 -0.08469008 -0.58783937 -0.29976282 -0.26293284 0.24821143 -0.05310164
00000000: 2e8b ba3e 8031 c23e 75dd 5dbd e02c 60be
00000010: 7625 003c be97 683e 76ff a6be 987c d9be
00000020: 23e4 313c 122a 253e 6f07 2a3e 1980 f2be
00000030: bcc2 04be 12ed c2bd eba9 223e 9ba2 8f3e
00000040: e8d9 983e 5ad5 a5be 0665 6dbd e381 08be
00000050: 4c9e f9be b3a5 253e b84e 0d3e f20b 12be
00000060: 59dd e83d 27b5 e43d 2e02 41be 314a 9cbe
00000070: d598 c2be fd12 eb3e 9aec 823c 1102 32be
00000080: 4ae9 013f 984f c2bd 78a9 0d3e cdb8 aa3e
00000090: c054 9f3e d2db 243f 7677 133e f744 833d
000000a0: 0f62 ed3d b2ea c7bc 7b6c 9c3c 8fe1 203d
000000b0: 1211 023d 8d43 803e e789 833e beea 493e
000000c0: 2f8a 3e3d f9d1 ae3e 2eca 8c3e 51fa e0be
000000d0: 811d 1dbe 0bca 96be 3b7f 953e fa33 ac3c
000000e0: ced4 8bbe 4f5f 943d c1e5 c8bd 31ef c1bc
000000f0: fcaf 523e c626 b63e f637 eb3d 38d4 80be
00000100: 4aa1 cbbe 2795 0ebf e612 1a3e 865b aabe
00000110: 7222 aebe 2d76 07be 852c 3abd 3392 05be
00000120: 89bf 7c3e 702c 01bc cd25 83be 07d3 403d
00000130: b88b bc3d 6216 823e 94aa 90bd f08f 91bd
00000140: 3221 253e 75af 72bf 915d 08be 906c 803e
00000150: af09 26bf b6f3 e0be 2df6 1d3e c127 01be
00000160: e834 433d 8cb4 193e dbe0 19be e2da f2be
00000170: 2e7f 6e3e 45b9 16be 67c6 983d 8963 8a3e
00000180: 1945 9dbe 7087 53be 892b f1bd 543e b2bc
00000190: 0d44 3f3d f78c 883e 88ce 8f3e 045d 95bd
000001a0: 680a 54bd e417 353d ab81 903e 6f71 1ebe
000001b0: 07c3 b3bd 923a adbd 5702 c8be 8c6b 38be
000001c0: a458 63bd 2be6 a5be 61d3 b6be 7ef4 1c3d
000001d0: 1161 7dbe bb05 3e3b 3262 8e3c 0ac7 64bd
000001e0: 10ae 8d3e f2d2 653b ece9 87be bd77 08bc
000001f0: bb75 873d e2dc cebe 5574 49be b195 8ebe
00000200: f21a 33bf 3db6 8e3c a263 c2bc c3d0 ae3d
00000210: a912 42be b06d 993d 6988 71be a7ff 9e3e
00000220: 8555 2a3d 024d a6be 032e 5e3e 5f29 f7bd
00000230: 7813 16bf f1d7 c9bd 6d92 ae3e 8926 d4be
00000240: e796 973e 346b c53d 3f20 20bf 5416 9d3d
00000250: 9277 88bd 0e2a 0abd 1248 9abd ee97 44be
00000260: aa6a 2dbe 92cc 143d 9281 a0be 07f7 8e3e
00000270: 231d 6a3e 16e8 063e 04d0 283e f090 6ebe
00000280: e1fc f93c 7ab0 8a3d 762b 1a3d 88fc 123d
00000290: 9e2e 6d3e 7f45 96bd ad55 073d 1a4e f9bd
000002a0: 62a4 123e 8578 9bbe bdf2 bcbe 303d a8be
000002b0: 2618 c13d 67a0 8fbd 7a96 c2be cda1 143e
000002c0: cc8f 6abe 6a09 98be d192 b6be 5a5f bebd
000002d0: 7408 26be b9fb 1d3e c289 013f 7f89 913e
000002e0: 8287 d33d 274b 833e 3362 673e db7b f33d
000002f0: f1cb 1a3d dd10 953e 480b f23d 1b4c da3d
00000300: 2913 d13e dbe5 8fbe 8bb3 53be 327b 87bd
00000310: e652 153d b736 8d3c 27b6 6c3e 97c9 ef3d
00000320: 8a19 c5be 3d74 623e c2fe b53e f799 823d
00000330: 0a14 a6bc 353a 7b3e e186 11be fa6a 9d3e
00000340: c204 1dbb e61a 37be 8729 9abe 4714 5abd
00000350: 412b 1c3d db60 ffbe 75cf 063d fe84 3a3e
00000360: 87a8 413e 42c4 c43d 895e 82bf 0e86 4d3e
00000370: a936 9abe a385 29be 424a 88bd 7a99 f1be
00000380: 7326 acbe 1e59 4b3b 96b0 3cbc e075 0fbf
00000390: 783d 6fbe 55fb ec3d 6e0b f6be 3c9f f53d
000003a0: 502b f23e a148 013e 1d0c 0a3e fb60 433e
000003b0: c239 98be efee 123f 12e6 843e 99c1 fbbe
000003c0: 5421 eb3e 3985 b83d 0b1c 4dbe c206 a5bc
000003d0: 7be9 aebd 822e 1bbd f2d1 8c3e 8eb9 8e3e
000003e0: 92f2 42be 61b1 653d fe71 adbd a47c 16bf
000003f0: 837a 99be 229f 86be 232b 7e3e 1b81 59bd

conv3.bias f4 [32]
0.23616341 0.25035658 0.46597704 0.08483574 0.15975803 0.105257325 -1.7710612 0.26582024
-0.05072385 -0.4059075 0.10393248 -0.0012727814 0.55745447 0.37809592 0.056624856 0.4519029
0.6563607 0.1494853 0.2806269 0.5942489 0.5226181 -0.026731368 0.23061483 0.8889788
0.08113433 1.281257 0.37692553 0.48264173 0.39317477 0.21711215 -0.28953707 -0.6448647
00000000: d2d4 713e bd2e 803e 8b94 ee3e 5cbe ad3d
00000010: 9c97 233e 2791 d73d 22b2 e2bf 9719 883e
00000020: d0c3 4fbd 1cd3 cfbe 8dda d43d 75d3 a6ba
00000030: 56b5 0e3f ca95 c13e 77ef 673d d15f e73e
00000040: 4107 283f ad12 193e 54ae 8f3e b220 183f
00000050: 4dca 053f befb dabc 4b26 6c3e 1d94 633f
00000060: c129 a63d 3b00 a43f 62fc c03e d11c f73e
00000070: 344e c93e a652 5e3e 343e 94be da15 25bf

batch3.weight f4 [32]
0.7957499 0.86082864 1.0283041 0.9025895 0.72535574 0.8436152 1.3662035 0.7677242
1.1711581 1.0357144 0.79252136 0.7120318 0.92732924 1.1048477 0.59682435 0.7853443
0.8895079 0.8636311 0.7439185 0.8623832 0.92387223 0.9557622 0.7239857 1.6275649
0.8368604 1.0835054 0.9551199 0.9888661 0.74539787 0.74312216 1.0777828 1.0002735
00000000: 44b6 4b3f 445f 5c3f 789f 833f 1b10 673f
00000010: eab0 393f 2af7 573f c2df ae3f 9389 443f
00000020: 82e8 953f 4a92 843f aee2 4a3f b747 363f
00000030: 7365 6d3f a66b 8d3f 7bc9 183f 530c 493f
00000040: cab6 633f ee16 5d3f 7171 3e3f 25c5 5c3f
00000050: e482 6c3f d5ac 743f 2057 393f 0c54 d03f
00000060: 7c3c 563f 4eb0 8a3f bd82 743f 5426 7d3f
00000070: 65d2 3e3f 413d 3e3f c9f4 893f f608 803f

batch3.bias f4 [32]
-0.29120672 -0.2759288 -0.4156327 -0.4892066 -0.23799558 -0.6766298 -0.71900207 -0.22546582
-0.85499084 -0.31727847 -0.4729567 -0.17109127 -0.32443094 -0.45747238 -0.027819077 -0.3611856
-0.47610185 -0.336835 -0.34260407 -0.3610968 -0.6234844 -0.39834562 -0.22807148 -0.97838306
-0.52990305 -0.63829345 -0.31177035 -0.62297493 -0.18378736 -0.29415572 -0.26396406 -0.86691797
00000000: 0c19 95be 8a46 8dbe cfcd d4be 4a79 fabe
00000010: 1db5 73be 9c37 2dbf 8510 38bf 83e0 66be
00000020: aee0 5abf 5372 a2be 6127 f2be 8d32 2fbe
00000030: d01b a6be d239 eabe d5e4 e3bc 52ed b8be
00000040: 9fc3 f3be a375 acbe cd69 afbe aee1 b8be
00000050: ac9c 1fbf f5f3 cbbe 928b 69be 5077 7abf
00000060: baa7 07bf 3367 23bf 5da0 9fbe 497b 1fbf
00000070: c132 3cbe 949b 96be 4c26 87be 56ee 5dbf

conv4.weight f4 [32, 32, 3, 3]
-0.11472047 0.019729715 -0.020925922 -0.11834303 -0.050270427 -0.08641637 -0.064664245 -0.14230105
0.07372978 0.06905638 0.083450384 0.0991329 -0.014645644 -0.071518876 0.007036204 0.07925912
-0.034083925 -0.007400541 0.11159137 0.011588877 0.061814874 0.05864493 0.023959955 0.03635573
0.01966568 -0.06941233 -0.022339901 -0.1585824 -0.008819138 -0.03637796 -0.12399476 -0.02753567
-0.0978599 -0.1947963 -0.053160377 0.05518544 -0.009367122 0.12684879 0.074742325 0.11221201
0.14372453 0.026275743 0.12298369 0.06496297 0.023106363 0.10209138 -0.004484661 0.07771323
0.15356144 -0.05745542 0.00369439 0.12852772 0.11115108 0.039958283 -0.019053623 0.06589593
0.035005935 0.06025131 -0.0680102 -0.011394006 -0.22609715 0.01757996 0.03791603 0.039402466
-0.02201021 0.023230609 0.14208233 -0.041260764 -0.05477967 0.024700314 0.013491649 0.03509361
-0.13302666 0.10173891 0.07199257 -0.1993578 -0.08216125 0.09655494 -0.19595498 -0.041277602
-0.08874912 -0.4167302 -0.0004478658 -0.009052411 -0.3789732 -0.023626264 0.00042124302 -0.3998507
0.060015358 0.115907125 0.02458804 0.005435078 0.116436385 0.013819788 0.03482928 0.12101078
-0.07753959 0.016631402 0.16599877 -0.08696232 0.006803011 0.023744775 -0.028655773 -0.09658746
-0.026615178 -0.080304645 0.011689896 0.09405927 0.056245316 0.03948369 0.0017831858 -0.011680323
0.015724853 -0.050545905 0.08212431 0.05055164 0.094955236 0.027407635 0.114189714 0.009606739
0.15849452 0.14794257 -0.0030132083 0.15828101 0.07172684 -0.01182992 0.0751555 0.026930343
-0.00023119414 0.0739921 0.00959622 -0.038408056 0.15191366 0.01693082 0.11892809 0.045131236
0.04725345 0.07559447 0.0320162 -0.085988745 0.07506795 0.028224057 0.03856804 0.031548176
0.013595096 0.030540863 -0.11884161 0.06643626 -0.039096326 -0.051405534 0.019178338 0.06178015
-0.007723486 -0.20929211 0.04373944 -0.014988011 -0.072315276 0.01687402 -0.04954584 -0.1938037
0.055653587 0.0372532 0.17011216 0.05991008 0.10135349 0.08436494 0.07034848 0.076490015
0.13557656 0.06348041 0.07511396 0.13854763 0.061020873 0.10450017 0.11722529 0.12185049
-0.008736334 0.09622568 0.030578896 0.060255587 0.077239424 -0.07413676 0.064908385 0.13349319
0.106755435 0.047148287 0.13417155 0.16825269 -0.03255136 -0.030184627 -0.11012459 0.047084063
0.027815206 -0.108244464 0.0385734 -0.11616652 0.0482244 0.10745976 -0.06517015 0.008423619
-0.009527325 -0.04395965 0.07642766 -0.03371682 0.0562884 -0.078387134 0.048619486 -0.44768786
-0.057553966 -0.011159054 -0.44287813 -0.0526973 0.15759157 -0.4285984 -0.052047428 0.09308984
0.018126985 0.029914781 0.07415865 0.053957842 -0.099450804 -0.021586988 0.031944387 -0.08535124
0.021290852 0.08358293 0.09915236 0.12471711 0.13362892 -0.028123861 0.1295938 0.09383238
0.055323005 0.027414683 -0.26989537 0.13591734 0.087915644 -0.19648318 0.09697015 -0.0014591092
-0.2703956 -0.038907077 -0.008644388 0.11747409 -0.026802974 -0.06664547 0.025589328 0.0055639003
-0.059535615 0.0796016 0.06348403 0.04137195 -0.044040576 -0.08466173 0.0260753 0.07633774
00000000: 91f2 eabd 36a0 a13c d76c abbc d55d f2bd
00000010: 5de8 4dbd 11fb b0bd b06e 84bd 5eb7 11be
00000020: a4ff 963d 6e6d 8d3d 09e8 aa3d 3106 cb3d
00000030: 49f4 6fbc 7d78 92bd f58f e63b 9b52 a23d
00000040: 969b 0bbd 3d80 f2bb 048a e43d 46df 3d3c
00000050: 9831 7d3d ab35 703d ab47 c43c bfe9 143d
00000060: ec19 a13c 0d28 8ebd 2b02 b7bc 6d63 22be
00000070: 257e 10bc 0e01 15bd f7f0 fdbd 7c92 e1bc
00000080: c56a c8bd ae78 47be b2be 59bd 210a 623d
00000090: 8f78 19bc a6e4 013e 8112 993d 69cf e53d
000000a0: 862c 133e 3a40 d73c dfde fb3d 4e0b 853d
000000b0: 8e49 bd3c 4915 d13d 10f4 92bb 1d28 9f3d
000000c0: 363f 1d3e 6056 6bbd 941d 723b c59c 033e
000000d0: 2da3 e33d 4cab 233d 5816 9cbc 72f4 863d
000000e0: 6262 0f3d 14ca 763d ef48 8bbd edad 3abc
000000f0: 0386 67be d903 903c d74d 1b3d 7b64 213d
00000100: c24e b4bc 1e4e be3c 087e 113e 0c01 29bd
00000110: a660 60bd 5058 ca3c 140c 5d3c 51be 0f3d
00000120: 2438 08be 7d5c d03d d770 933d 7324 4cbe
00000130: 2844 a8bd 99be c53d 6ca8 48be b412 29bd
00000140: 19c2 b5bd a95d d5be 88cf eab9 9050 14bc
00000150: c608 c2be de8b c1bc 48da dc39 3bb9 ccbe
00000160: aad2 753d b760 ed3d db6c c93c bd18 b23b
00000170: 3376 ee3d 646c 623c 26a9 0e3d 80d4 f73d
00000180: 14cd 9ebd 943e 883c 95fb 293e 4d19 b2bd
00000190: cbeb de3b 6784 c23c 83bf eabc a5cf c5bd
000001a0: 1308 dabc c376 a4bd fa86 3f3c 26a2 c03d
000001b0: 7d61 663d a6b9 213d c9b9 e93a d35e 3fbc
000001c0: 68d1 803c 3909 4fbd ca30 a83d 3d0f 4f3d
000001d0: e477 c23d fa85 e03c 4cdc e93d 9565 1d3c
000001e0: 634c 223e 427e 173e 3f79 45bb 6b14 223e
000001f0: 86e5 923d 48d2 41bc 20eb 993d 069d dc3c
00000200: b46c 72b9 2c89 973d 7739 1d3c c451 1dbd
00000210: 418f 1b3e 81b2 8a3c 9290 f33d 88db 383d
00000220: d58c 413d 46d1 9a3d 6b23 033d de1a b0bd
00000230: 3abd 993d 2336 e73c 85f9 1d3d a938 013d
00000240: f7bd 5e3c d530 fa3c 3b63 f3bd bc0f 883d
00000250: 7823 20bd 9c8e 52bd e41b 9d3c 2f0d 7d3d
00000260: 4c15 fdbb ac50 56be 2128 333d 4690 75bc
00000270: 081a 94bd 633b 8a3c 94f0 4abd 7a74 46be
00000280: 04f5 633d d096 183d e231 2e3e 4664 753d
00000290: 6b92 cf3d 87c7 ac3d dd12 903d cca6 9c3d
000002a0: 95d4 0a3e 0402 823d 59d5 993d 6edf 0d3e
000002b0: 06f1 793d 2f04 d63d d013 f03d c08c f93d
000002c0: d722 0fbc f811 c53d 9880 fa3c 90ce 763d
000002d0: b42f 9e3d 03d5 97bd b0ee 843d 70b2 083e
000002e0: 98a2 da3d 901e 413d 4464 093e 6f4a 2c3e
000002f0: 9354 05bd c045 f7bc 0089 e1bd 38db 403d
00000300: b7dc e33c 46af ddbd 24ff 1d3d b6e8 edbd
00000310: f386 453d dd13 dc3d ed77 85bd 3803 0a3c
00000320: 7f18 1cbc 090f 34bd 1b86 9c3d a61a 0abd
00000330: aa8e 663d 6f89 a0bd 3a25 473d 5837 e5be
00000340: b5bd 6bbd 77d4 36bc ecc0 e2be 20d9 57bd
00000350: af5f 213e 4071 dbbe af2f 55bd e3a5 be3d
00000360: 0b7f 943c d80f f53c 7ee0 973d e602 5d3d
00000370: ddac cbbd 32d7 b0bc 1ed8 023d a2cc aebd
00000380: 276a ae3c 872d ab3d 6410 cb3d af6b ff3d
00000390: 05d6 083e 0364 e6bc 3db4 043e 312b c03d
000003a0: 609a 623d c294 e03c ba2f 8abe ea2d 0b3e
000003b0: 1e0d b43d e332 49be 4998 c63d 953f bfba
000003c0: 4b71 8abe 075d 1fbd 31a1 0dbc 4196 f03d
000003d0: e991 dbbc 6c7d 88bd b6a0 d13c 6151 b63b
000003e0: 9edb 73bd 2a06 a33d ea03 823d a275 293d
000003f0: e463 34bd 2163 adbd de9b d53c f656 9c3d

conv4.bias f4 [32]
-0.015485321 0.8430869 0.031026455 0.011353891 0.3691274 -0.01165072 0.32739535 -0.03463871
-0.016043726 0.018205667 0.43548155 0.21821706 0.3143994 0.46553907 0.14979023 0.08545767
0.412436 -0.0040005064 0.014907544 0.047954597 0.32996565 0.21492518 0.104288116 -0.037976887
0.052457586 0.7888161 -0.050075732 0.05050529 0.04944007 0.03016673 0.41235727 0.02636854
00000000: 25b6 7dbc 8bd4 573f 312b fe3c ac05 3a3c
00000010: 44fe bc3e a9e2 3ebc 5da0 a73e 52e1 0dbd
00000020: 226e 83bc 0d24 953c 70f7 de3e 4b74 5f3e
00000030: f5f8 a03e 235b ee3e 9c62 193e 6e04 af3d
00000040: d02a d33e ae16 83bb c53e 743c 0a6c 443d
00000050: 42f1 a83e 5915 5c3e 0295 d53d a78d 1bbd
00000060: c4dd 563d daef 493f 361c 4dbd a3de 4e3d
00000070: ac81 4a3d 3820 f73c 7e20 d33e d602 d83c

batch4.weight f4 [32]
0.31689656 5.918277 0.8057296 0.34198034 4.2624707 0.4084364 4.2719398 0.36248696
0.44014204 0.9858097 4.777683 3.0240648 3.2433906 4.531276 3.0842357 1.7010204
5.3492146 0.31007636 0.3507761 0.24854541 3.6027348 3.7753148 3.2222633 0.3744315
0.7837176 3.5753436 0.43522233 0.70322734 0.37215006 1.417877 3.821456 0.9915197
00000000: 4440 a23e 8662 bd40 4c44 4e3f 0c18 af3e
00000010: 2966 8840 931e d13e bbb3 8840 e497 b93e
00000020: 4c5a e13e 065e 7c3f c7e2 9840 478a 4140
00000030: b693 4f40 3700 9140 1e64 4540 09bb d93f
00000040: c42c ab40 54c2 9e3e ed98 b33e b082 7e3e
00000050: 3593 6640 c29e 7140 9039 4e40 7cb5 bf3e
00000060: b7a1 483f 6ed2 6440 76d5 de3e b506 343f
00000070: 748a be3e fe7c b53f bc92 7440 3cd4 7d3f

batch4.bias f4 [32]
-0.67746454 -4.1901803 -1.3351423 -0.6440081 -2.6348598 -0.8096372 -3.2708418 -0.6946347
-0.8091727 -1.5781857 -3.330349 -2.1398864 -2.458474 -2.944206 -2.324922 -1.9443339
-2.3148897 -0.6744204 -0.69705576 -0.7128645 -2.7530684 -2.11676 -1.9262028 -0.7239641
-1.3666185 -1.1314635 -0.8360708 -1.1228131 -0.7382378 -2.1057394 -3.8230605 -1.5500993
00000000: 516e 2dbf f515 86c0 f1e5 aabf b7dd 24bf
00000010: 8ba1 28c0 6244 4fbf 7955 51c0 94d3 31bf
00000020: f125 4fbf fd01 cabf 7024 55c0 e6f3 08c0
00000030: a357 1dc0 df6d 3cc0 86cb 14c0 efdf f8bf
00000040: 2727 14c0 d1a6 2cbf 3f72 32bf 4a7e 36bf
00000050: 4632 30c0 ff78 07c0 d08d f6bf b655 39bf
00000060: 5bed aebf ccd3 90bf bc08 56bf 57b8 8fbf
00000070: 27fd 3cbf 6fc4 06c0 06ad 74c0 a769 c6bf

lin1.weight f4 [5, 800]
-0.0354283 0.008480432 -0.011474283 -0.00037926433 -0.00037275066 -0.037940722 -0.032235615 0.010517288
-0.02914608 -0.015207016 -0.16304737 -0.021793542 0.043374926 -0.064192384 0.005020976 0.0029176015
-0.056885272 0.040899415 -0.033744313 0.023249267 -0.016580151 0.034762688 -0.03957567 0.0059125386
0.0149664795 0.0023412257 -0.02152289 -0.0042364034 -0.0052373684 0.021528795 -0.0028106777 -0.0040017674
0.0023356627 -0.0076443036 0.016627884 0.012857884 -0.0036417325 -0.009408971 0.011708845 0.00293498
-0.021960737 -0.010108773 -0.009400074 -0.016439263 -0.0043580504 0.0026500777 0.0025199708 -0.0020969193
-0.0032152287 -0.0034567583 0.07286553 0.021498784 0.056245256 0.053048488 0.008255266 -0.004092957
-0.1896222 -0.16223405 -0.21778776 0.071178034 -0.21980545 -0.17286682 -0.08936453 -0.09055164
-0.06579395 -0.23188187 -0.0063241227 -0.17473668 -0.076167434 -0.0029764734 -0.06898742 -0.12354883
-0.13502717 -0.2061892 -0.11650246 -0.052001927 0.0025028414 -0.0076183933 0.009799536 0.010279574
-0.044752806 -0.054888744 -0.024184374 -0.09201175 -0.09980858 0.03349409 -0.008571417 0.03913999
-0.024921076 -0.10696163 -0.030044429 -0.01133525 -0.007472042 -0.0059527922 -0.033348013 -0.026888523
-0.0029042622 -0.029172316 0.005970482 0.039845232 0.010869216 -0.012292667 0.001430739 -0.012835076
0.0038847213 -0.002598147 0.002704441 -0.017713878 -0.00865111 -0.02199493 0.02168321 -0.003078996
-0.015847625 -0.0074042045 -0.0033765286 0.014151792 -0.014755744 -0.0027119422 0.0049054823 -0.013876502
0.0015353714 -0.009166556 -0.001944444 -0.008060507 -0.024981944 0.035844862 -0.0054871915 -0.09326239
-0.015975134 0.0010561388 -0.030402882 -0.1364564 0.02120226 -0.06645196 -0.067073375 -0.03447214
-0.05666078 0.007936567 -0.036048513 -0.11238632 0.010511257 0.010221163 0.13589223 -0.040126465
-0.0057875677 0.010870857 0.05894462 0.04495708 -0.021587674 -0.024267228 0.020501813 -0.007424678
0.001982803 -0.0039194697 0.017581575 0.009639648 -0.0063816397 -0.0018652516 0.008593001 -0.003941999
0.003663338 -0.0059258216 -0.0035590688 -0.005167777 -0.01006948 0.0012239881 -0.006984715 0.006698879
-0.009338902 0.003825528 0.030582806 -0.008374381 0.019448549 -0.011818398 0.01321401 -0.028227536
-0.001259834 -0.010408623 0.0097483 -0.012051547 0.0032168247 -0.00736325 0.019073442 -0.0409267
0.0019856265 -0.016474921 -0.005081557 -0.043329217 0.0050099813 0.016649542 0.027366355 0.0021902353
-0.04592572 -0.0211689 -0.0064502642 -0.021155328 -0.014053356 0.0095180245 0.011067988 -0.013550898
-0.02830003 -0.013467357 -0.0028640644 -0.0015529477 -0.05139436 0.034030247 -0.008807817 -0.001415598
-0.006255031 -0.0064980993 0.053210907 0.016984021 -0.015667673 -0.009492851 0.005865977 -0.04748873
0.04845935 -0.01083129 0.0057470147 0.049331874 -0.054517813 -0.0045423624 -0.012761023 0.004119756
-0.0060171005 0.04822881 0.11161647 -0.13274935 -0.2476947 -0.031104362 0.025422866 0.0140139535
0.010874433 -0.043873616 -0.034270268 -0.10248354 -0.16270626 0.10018607 -0.21350473 -0.12363844
0.03795078 -0.049576696 0.07847494 -0.19827369 -0.048554443 0.010091722 -0.054224394 -0.031016674
-0.111824304 0.010540641 -0.0050490885 0.011589435 -0.016438209 -0.0002968677 -0.009178913 0.008145515
00000000: 441d 11bd 83f1 0a3c a2fe 3bbc ffd7 c6b9
00000010: bf6d c3b9 bb67 1bbd 7e09 04bd b450 2c3c
00000020: c3c3 eebc d926 79bc e4f5 26be 5f88 b2bc
00000030: e8a9 313d 4c77 83bd 0087 a43b 3b35 3f3b
00000040: 8800 69bd 2586 273d 7a37 0abd 3f75 be3c
00000050: 19d3 87bc 5263 0e3d 191a 22bd f8bd c13b
00000060: f735 753c 406f 193b c650 b0bc 87d1 8abb
00000070: 3b9e abbb 285d b03c 5933 38bb 4221 83bb
00000080: eb11 193b 117d fabb 3337 883c e0a9 523c
00000090: 22aa 6ebb 1628 1abc 75d6 3f3c cb58 403b
000000a0: 01e7 b3bc 449f 25bc c502 1abc a2ab 86bc
000000b0: facd 8ebb edac 2d3b 1826 253b 786c 09bb
000000c0: 96b6 52bb c88a 62bb 863a 953d 381e b03c
000000d0: 6d61 663d 5f49 593d 1841 073c 361e 86bb
000000e0: 522c 42be af20 26be c103 5fbe cac5 913d
000000f0: ae14 61be 0004 31be c004 b7bd 2373 b9bd
00000100: fabe 86bd 7172 6dbe 963a cfbb 2cee 32be
00000110: acfd 9bbd f010 43bb 4749 8dbd 2b07 fdbd
00000120: 9044 0abe 4323 53be d798 eebd f9ff 54bd
00000130: b606 243b b7a3 f9bb 3c8e 203c a96b 283c
00000140: b84e 37bd 05d3 60bd 4f1e c6bc a870 bcbd
00000150: 7168 ccbd 1931 093d 216f 0cbc 4151 203d
00000160: 4927 ccbc b30e dbbd bc1f f6bc 7cb7 39bc
00000170: 08d8 f4bb a40f c3bb ed97 08bd 5245 dcbc
00000180: 6f55 3ebb c8fa eebc 08a4 c33b c134 233d
00000190: cc14 323c 2f67 49bc a287 bb3a 364a 52bc
000001a0: cf96 7e3b ac45 2abb fe3c 313b b21c 91bc
000001b0: 63bd 0dbc b62e b4bc fda0 b13c fbc8 49bb
000001c0: e1d2 81bc f89e f2bb c048 5dbb ebdc 673c
000001d0: 13c2 71bc d7ba 31bb 2bbe a03b 455a 63bc
000001e0: 843e c93a 532f 16bc b7dc feba 3710 04bc
000001f0: efa6 ccbc 10d2 123d e6cd b3bb 5a00 bfbd
00000200: 49de 82bc 236e 8a3a 770f f9bc 3abb 0bbe
00000210: 5db0 ad3c f717 88bd c45d 89bd a932 0dbd
00000220: 2215 68bd 6008 023c 9ba7 13bd cd2a e6bd
00000230: 6837 2c3c aa76 273c 5527 0b3e a65b 24bd
00000240: a3a5 bdbb ae1b 323c ea6f 713d ea24 383d
00000250: a2d8 b0bc 11cc c6bc 6bf3 a73c b74a f3bb
00000260: eaf1 013b e56e 80bb 3c07 903c 9def 1d3c
00000270: 131d d1bb 757b f4ba a9c9 0c3c e22b 81bb
00000280: 9d14 703b 652d c2bb 443f 69bb 7556 a9bb
00000290: 76fa 24bc 3a6e a03a 09e0 e4bb 4582 db3b
000002a0: 3202 19bc b6b5 7a3b cb88 fa3c b334 09bc
000002b0: 9052 9f3c f4a1 41bc 937f 583c 6f3d e7bc
000002c0: 0421 a5ba ee88 2abc 55b7 1f3c da73 45bc
000002d0: 5dd1 523b 6b47 f1bb e83f 9c3c c1a2 27bd
000002e0: 4921 023b 6af6 86bc 3183 a6bb fa79 31bd
000002f0: c52a a43b 9f64 883c 682f e03c 0d8a 0f3b
00000300: 9c1c 3cbd 676a adbc bd5c d3bb f04d adbc
00000310: 0c40 66bc 7df1 1b3c 8256 353c 9604 5ebc
00000320: 77d5 e7bc 30a6 5cbc 07b3 3bbb 478c cbba
00000330: e482 52bd 4d63 0b3d a94e 10bc 968b b9ba
00000340: 01f7 ccbb 02ee d4bb aef3 593d 1322 8b3c
00000350: 7e59 80bc e787 1bbc 6237 c03b 8b83 42bd
00000360: 507d 463d b975 31bc 7451 bc3b 3810 4a3d
00000370: 124e 5fbd 19d8 94bb 9c13 51bc 05ff 863b
00000380: 192b c5bb 938b 453d 2d97 e43d 72ef 07be
00000390: aea3 7dbe 93ce febc 9d43 d03c c89a 653c
000003a0: ae2a 323c d2b4 33bd fb5e 0cbd e4e2 d1bd
000003b0: 789c 26be 5b2e cd3d fca0 5abe 2736 fdbd
000003c0: 4772 1b3d ef10 4bbd 78b7 a03d 4208 4bbe
000003d0: 06e1 46bd c057 253c 661a 5ebd ae16 febc
000003e0: 2404 e5bd a7b2 2c3c d372 a5bb 9de1 3d3c
000003f0: 6ca9 86bc e9a4 9bb9 2763 16bc c474 053c

lin1.bias f4 [5]
-0.018733496 -0.02147489 -0.011971559 -0.015943266 -0.02422336
00000000: fd76 99bc 1cec afbc 5c24 44bc 749b 82bc
00000010: 1170 c6bc

exp_avg f4 [32, 3, 3, 3]
-0.009471393 -0.0050233766 -0.0030960173 -0.010285332 -0.0005052643 -0.0013294023 -0.010458591 -0.004294322
-0.000391644 0.0014529364 0.004833442 0.000614375 -0.00034314615 0.004687391 0.0024581552 -0.0029401218
0.0011848634 0.0025903727 -0.0050495015 -0.002502178 -0.005500922 -0.007957433 0.00049556344 -0.002537086
-0.0074692573 -0.00067984103 -0.0010172494 0.003111553 0.0037096257 0.0039915377 0.00407516 0.004842513
0.0048623793 0.003317788 0.0041695125 0.0044782287 0.00025649916 0.0015920409 0.0028105695 0.002412415
0.00309968 0.0039671212 0.002187201 0.0026464127 0.0040325196 0.0007831174 0.0009656359 0.0024729304
0.0012904663 0.0011477803 0.0023158013 0.000275214 0.00061607914 0.0014682425 -0.0105408 -0.013041986
-0.013421392 -0.010793036 -0.012155404 -0.014378798 -0.009991105 -0.011388269 -0.012006163 -0.014989752
-0.014778727 -0.015632082 -0.0136981085 -0.014480435 -0.016859466 -0.013531415 -0.014456969 -0.014717846
-0.017390436 -0.019167477 -0.01986839 -0.016297417 -0.019323988 -0.021096153 -0.015669076 -0.01810784
-0.01887789 0.007400958 0.0070185 0.0048093935 0.005277977 0.008741921 0.0049982034 0.008209691
0.00937614 0.005132982 0.0075576147 0.007307521 0.0041399053 0.008334728 0.0100555755 0.0054879976
0.011403953 0.0108595975 0.008316485 -0.002156751 -0.004262325 -0.0062521384 -0.000738991 -0.0022422422
-0.0038748381 0.0008333363 0.0013518636 -0.0035349985 -0.0031328853 -0.0040743807 -0.001972096 -0.0035993431
-0.0042173592 -0.0027908534 -0.0021205307 -0.0030169813 -0.0014816936 -0.00010590274 -0.0014963844 -2.7772403e-05
-0.0004515077 -0.0015030989 -0.00032507803 0.0008192215 -0.00042383707 0.00045462 -0.00094754447 -0.0020533933
-0.0005866345 -0.00078930473 -0.0016441833 -0.0007242517 -0.00014656356 -0.00077193865 1.5738706e-05 -0.006384274
-0.010605273 -0.007554757 -0.0077896463 -0.009301246 -0.0075561805 -0.0068376777 -0.011393094 -0.008100503
-0.0070750853 -0.010932553 -0.009236533 -0.007773792 -0.009883891 -0.009406381 -0.006797513 -0.010415702
-0.008801559 -0.008939967 -0.010527452 -0.009582254 -0.009544987 -0.009998035 -0.008413767 -0.007024906
-0.010196997 -0.0074034845 -0.01652258 -0.014080243 -0.017103298 -0.01600021 -0.016488599 -0.014856982
-0.018832397 -0.01884468 -0.016867915 -0.016410599 -0.013294353 -0.01426884 -0.014697324 -0.014799727
-0.011473878 -0.016096253 -0.0148550635 -0.012285262 -0.02235785 -0.021421665 -0.022387112 -0.021918818
-0.026273359 -0.024281468 -0.024300564 -0.02777784 -0.026286116 0.033156108 0.031128779 0.032834962
0.03015111 0.03159675 0.029328316 0.026626287 0.028105553 0.02747592 0.023647208 0.023948546
0.026052548 0.021476995 0.024235746 0.022386916 0.019419894 0.02259777 0.02230366 0.025177034
0.023191508 0.021309806 0.023810176 0.024649264 0.020761356 0.02323207 0.023036376 0.022709668
-0.027809648 -0.026638068 -0.029049587 -0.031644154 -0.031062344 -0.030715132 -0.033433862 -0.036688514
-0.033876777 -0.032832906 -0.030229054 -0.03696886 -0.033303544 -0.03013031 -0.034001134 -0.036166836
-0.03644511 -0.036306195 -0.03393263 -0.033308215 -0.03658311 -0.03772698 -0.03643101 -0.037649374
-0.04051182 -0.042054433 -0.036010806 0.007223502 0.0068069827 0.005714019 0.009378698 0.007250421
0.0068651726 0.009863364 0.0083313 0.007512028 0.005514628 0.006496085 0.0066100145 0.008470973
00000000: e72d 1bbc 239b a4bb 8de6 4abb cf83 28bc
00000010: b773 04ba 573f aeba 835a 2bbc 62b7 8cbb
00000020: 9155 cdb9 7570 be3a da61 9e3b 020e 213a
00000030: 4ce8 b3b9 b098 993b 0019 213b 0faf 40bb
00000040: 6b4d 9b3a 3ec3 293b 4a76 a5bb 95fb 23bb
00000050: 1441 b4bb e55f 02bc b3e8 013a 3d45 26bb
00000060: acc0 f4bb 5c37 32ba 3a55 85ba 32eb 4b3b
00000070: 311d 733b 72cb 823b eb88 853b f1ad 9e3b
00000080: 9854 9f3b 3f6f 593b 68a0 883b 1bbe 923b
00000090: bc7a 8639 07ac d03a 8831 383b 9c19 1e3b
000000a0: 0024 4b3b a0fe 813b 2557 0f3b 706f 2d3b
000000b0: 3a23 843b 1e4a 4d3a ba22 7d3a e310 223b
000000c0: dd24 a93a 1e71 963a b3c4 173b 994a 9039
000000d0: 5f80 213a 0b72 c03a 52b3 2cbc 0eae 55bc
000000e0: 66e5 5bbc 46d5 30bc 7627 47bc 0d95 6bbc
000000f0: bbb1 23bc dd95 3abc 7fb5 44bc 9497 75bc
00000100: 7922 72bc da0e 80bc 086e 60bc 593f 6dbc
00000110: dd1c 8abc deb2 5dbc ecdc 6cbc 1f23 71bc
00000120: 6376 8ebc 1d05 9dbc 09c3 a2bc 2982 85bc
00000130: 574d 9ebc d7d1 acbc 6f5c 80bc e556 94bc
00000140: cea5 9abc bc83 f23b 72fb e53b 1e98 9d3b
00000150: e1f2 ac3b 463a 0f3c f8c7 a33b f181 063c
00000160: 629e 193c 9332 a83b dea5 f73b ee73 ef3b
00000170: 0ba8 873b 628e 083c 24c0 243c a9d4 b33b
00000180: a5d7 3a3c 74ec 313c de41 083c 4758 0dbb
00000190: f9aa 8bbb bdde ccbb d9b8 41ba 95f2 12bb
000001a0: fff0 7dbb 4174 5a3a 0431 b13a 6fab 67bb
000001b0: 1851 4dbb 6282 85bb 483e 01bb f5e2 6bbb
000001c0: c631 8abb c0e6 36bb 9af8 0abb 8cb8 45bb
000001d0: 6335 c2ba 1a18 deb8 5422 c4ba c8f8 e8b7
000001e0: 56b8 ecb9 a103 c5ba 3c6f aab9 06c1 563a
000001f0: 7336 deb9 105a ee39 a264 78ba 3992 06bb
00000200: 60c8 19ba 58e9 4eba a381 d7ba b5db 3dba
00000210: dbae 19b9 ed5b 4aba 9d06 8437 2c33 d1bb
00000220: bdc1 2dbc e58d f7bb 4a40 ffbb 4164 18bc
00000230: d699 f7bb 990e e0bb 1aaa 3abc f9b7 04bc
00000240: 1ed6 e7bb 731e 33bc d454 17bc 4bbb febb
00000250: 0bf0 21bc 391d 1abc acbd debb 9fa6 2abc
00000260: 6a34 10bc f078 12bc 567b 2cbc e3fe 1cbc
00000270: 9462 1cbc ccce 23bc e6d9 09bc 2f31 e6bb
00000280: 4e11 27bc ee98 f2bb 5d5a 87bc d2b0 66bc
00000290: 371c 8cbc df12 83bc 1913 87bc b36a 73bc
000002a0: 6646 9abc 2960 9abc 952e 8abc 856f 86bc
000002b0: 8fd0 59bc dac7 69bc 0bcd 70bc 8e7a 72bc
000002c0: effc 3bbc 4adc 83bc a762 73bc 2048 49bc
000002d0: cf27 b7bc 7d7c afbc 2d65 b7bc 188f b3bc
000002e0: 3a3b d7bc eee9 c6bc fa11 c7bc 5a8e e3bc
000002f0: fb55 d7bc b3ce 073d c801 ff3c f47d 063d
00000300: 76ff f63c 986b 013d f041 f03c 5f1f da3c
00000310: 9e3d e63c 2e15 e13c cab7 c13c be2f c43c
00000320: 276c d53c 86f0 af3c 0b8a c63c c464 b73c
00000330: 7816 9f3c f51e b93c 2ab6 b63c 1140 ce3c
00000340: 1efc bd3c e791 ae3c 8f0d c33c 41ed c93c
00000350: b813 aa3c 2f51 be3c c8b6 bc3c a009 ba3c
00000360: 0fd1 e3bc 1438 dabc 66f9 edbc 4d9d 01bd
00000370: 7576 febc 4d9e fbbc f2f1 08bd b246 16bd
00000380: 60c2 0abd cc7b 06bd eca2 f7bc a96c 17bd
00000390: 4c69 08bd d7d3 f6bc c644 0bbd ad23 14bd
000003a0: 7847 15bd ceb5 14bd f1fc 0abd 326e 08bd
000003b0: 2cd8 15bd 9b87 1abd af38 15bd 3b36 1abd
000003c0: b9ef 25bd 4541 2cbd 1180 13bd 20b3 ec3b
000003d0: 1c0d df3b aa3c bb3b 1ca9 193c f194 ed3b
000003e0: 3ef5 e03b f299 213c 0180 083c 7527 f63b
000003f0: 0db4 b43b 1cdd d43b d298 d83b d6c9 0a3c
